pretrained_models/experiment/Discrete_acktr_10x10x10Bin_s42_inh_800_defaultBox-2022.08.19-23-47-51/PCT-Discrete_acktr_10x10x10Bin_s42_inh_800_defaultBox-2022.08.19-23-47-51_2022.08.20-00-54-19.pt (torch, 236314 bytes, 24 tensors)

actor.init_internal_node_embed.0.module.weight f4 [32, 6]
00000000: f4c6 833c 79bf a63e 39e7 733d 3f02 aebe
00000010: f1a5 8a3d 6231 d0bd 2c78 a63e 1678 e23e
00000020: 2535 92bd 19a3 4fbe 1c90 6ebe cf0e 8fbe
00000030: 5d53 333e dcd3 cabd a084 6dbd e538 3f3e
00000040: c478 87be 3074 43bd c33e c7bd 93d2 2e3d
00000050: 2eb0 d8be 6902 893e 0975 763e e128 ff3e
00000060: d91d 0e3f d0f2 703d a48e 053f fd88 c93e
00000070: 54db 353d 5494 563d c2e4 443d 4649 973d
00000080: e313 4abe 1a0a b63d 999c 03bf c527 c3be
00000090: 19e5 5dbf 47a7 193f f204 033f f362 5d3f
000000a0: f224 3dbf af2a 08be 60c6 463e 9582 b7bd
000000b0: 547e 673f 86b1 bebb 33c8 0dbf 54ab cabd
000000c0: 4173 42bf f383 36be e6d3 d5be f719 053f
000000d0: d192 a53e b61e 653e 5e93 463f a46f 143d
000000e0: 0347 90be f0cb 0c3f 1c71 ba3e 21f7 7cbe
000000f0: 0a35 643c 9e3f 8a3e 9d2d 48be 887a 1f3d
00000100: 8a9e 843e 830a c7be f793 34be a117 833d
00000110: 2991 1ebe c296 a4bd 7c6b 09be 9580 88be
00000120: 4401 f93e 6025 78be 5fdb 0ebe 2a99 cb3d
00000130: 3ef8 acbd cd6d 42be 87ef 0b3f 0b9a c13e
00000140: a20b 5dbe 1068 7bbe cc2d 143e 25e1 cbbc
00000150: f572 0cbd d864 623d b69c 03bf c595 40bd
00000160: e230 a83e 4fac b0be c1e1 af3b 2971 71be
00000170: 4b75 52be eb72 17bd 993a 243e bacf 69be
00000180: d677 363e 8853 9cbe d75b 783f 448c 40bf
00000190: 910b e73e 4c53 7dbc 2c6f 19bd 26ad 613d
000001a0: 6042 b93d cc32 703e da10 06bf 0ea5 6cbe
000001b0: b9cc 3fbd d85b 28bd aa29 23bf 1452 073d
000001c0: a115 403d b628 743d d054 0b3e 97ef 79be
000001d0: c97e 6bbc c7f8 73be 7116 b3bc 2d0c db3e
000001e0: 94be ec3e 52fe 573f 51f4 94bb 86c2 be3e
000001f0: 8d69 943d 8e6a 0cbf b1ef 48be 6a3d 6bbd
00000200: 9a18 4ebe a8e6 793d c13f 9fbd f065 e6be
00000210: 19df f4be d937 22bf 0320 b0be d5a0 ee3e
00000220: 4035 973e 7538 713e d6a5 053e 75e2 d13c
00000230: af44 85bf 1d4d 87be baf0 b7be e75b 503f
00000240: 2780 47be 3519 33be 6080 243f 4b4c 263e
00000250: ffb9 a4bc b2d0 3b3d 5969 803c eb76 cdbd
00000260: 1a66 333f 0bc1 94be d115 4fbe 0a8e dd3e
00000270: 48fa 9d3c 12f5 e33e 1080 28be 8b69 fa3c
00000280: 0203 bf3d 29b6 4bbe 25ce 43be f7ce 063d
00000290: b118 603f 38c1 7cbe 76a7 363e b9cd 243e
000002a0: 03b9 97be e224 26bf c94e cbbc e2db f83c
000002b0: b6e6 34bd 5afd 82be 279c 88be e423 953e
000002c0: 298b 473e e67d 20be 1cd2 00bd 3d61 53bd
000002d0: 0d7d 3c3e 6766 4a3e 7ca9 16be 3c6b 85bc
000002e0: 2d24 39be 3fbd 35be f372 f23e 35e0 863e
000002f0: 7ea0 03bf 9e49 b1be aaa0 5dbe e94c 6b3e
0.01608608 0.32567957 0.059546683 -0.3398609 0.06769932 -0.10165669 0.3251356 0.44232243
-0.07139043 -0.2027706 -0.23297161 -0.27940986 0.1751227 -0.0990369 -0.05798781 0.18674047
-0.26459324 -0.047718227 -0.09728768 0.042681288 -0.42321914 0.2675965 0.24068083 0.49835876
0.55514294 0.058825314 0.5217078 0.39362326 0.04439862 0.05238755 0.048069723 0.07387023
-0.19734149 0.088886455 -0.51410824 -0.3811628 -0.866777 0.6002087 0.5117942 0.8647911
-0.738845 -0.13297532 0.19411612 -0.089604534 0.90427136 -0.0058195023 -0.55383605 -0.098959595
-0.75957114 -0.17823772 -0.41763228 0.51992744 0.32338575 0.22374997 0.77568614 0.03623928
-0.28179178 0.54998684 0.3641442 -0.24703647 0.013928661 0.2700166 -0.1954865 0.038935214
0.25902206 -0.38875207 -0.17634569 0.06400991 -0.15485062 -0.08036567 -0.13419908 -0.266606
0.48633778 -0.24233007 -0.13950871 0.09941323 -0.08445786 -0.18987198 0.54662365 0.37812838
-0.21586469 -0.24551415 0.14470595 -0.02488763 -0.03428932 0.055271953 -0.51410997 -0.04701783
0.32849795 -0.3450646 0.005367488 -0.23578323 -0.20552556 -0.03697483 0.16037978 -0.22833148
0.17819151 -0.3053248 0.97015136 -0.7521403 0.45126012 -0.015461754 -0.037459537 0.055096768
0.09045863 0.23456877 -0.52369463 -0.23109838 -0.046826098 -0.041103214 -0.6373545 0.03303726
0.046895627 0.059609137 0.13606572 -0.24407803 -0.01437349 -0.2382537 -0.021861287 0.42782727
0.4623915 0.84372437 -0.0045457263 0.37257785 0.07246695 -0.5485009 -0.19622685 -0.057431616
-0.20126572 0.061010987 -0.07775832 -0.44999647 -0.4782646 -0.63366467 -0.34399423 0.4660708
0.29532814 0.23556693 0.13051543 0.025620678 -1.0411586 -0.2642602 -0.35925847 0.8139023
-0.1948248 -0.17490084 0.64258385 0.16240041 -0.020108221 0.045853324 0.015675234 -0.100324474
0.7007767 -0.2905353 -0.20223166 0.4327243 0.019284382 0.4452291 -0.16455102 0.030567905
0.093267456 -0.19893707 -0.19121607 0.03291222 0.87537676 -0.24683082 0.17837319 0.16094102
-0.2963334 -0.6490003 -0.024817841 0.030378286 -0.044165336 -0.25583917 -0.26681635 0.29128945
0.19486679 -0.15673026 -0.031450376 -0.051606406 0.18407078 0.19765626 -0.1471309 -0.016286485
-0.18080206 -0.17747973 0.47353324 0.2634293 -0.51416767 -0.34626478 -0.2164332 0.22978558

actor.init_internal_node_embed.0.add_bias._bias f4 [32, 1]
00000000: 2449 4fbb f03e 943b c369 ffbb 0325 333d
00000010: a4f2 c03d 8b1a 25bc 345f 94bc 6944 efba
00000020: 2daa 3b3c d0e9 df3d fd46 1b3d 12f1 893c
00000030: 5bf2 9c3c e912 6c3c 25f4 29bc 89fb 5cbc
00000040: f7dd 7c3b ff9a 983a 8509 aabb 5b6d 933c
00000050: 50bf c13c b098 0dbd ae9e 413c da41 203c
00000060: 5a2d 6b3d fd99 a23b f616 10bb 9667 91bb
00000070: cbb1 32bd e742 e8bb db1b 71bc 2fab 8bbb
-0.0031629289 0.0045241043 -0.00779459 0.04373647 0.0942128 -0.010077129 -0.018111803 -0.0018254641
0.011454147 0.10933268 0.037909497 0.016838584 0.019158533 0.014408805 -0.01037315 -0.013487705
0.003858445 0.0011642872 -0.005189123 0.01799648 0.023650795 -0.034569442 0.011817617 0.009781325
0.057416297 0.0049622045 -0.0021986342 -0.0044373972 -0.043626588 -0.0070880535 -0.014716114 -0.00426235

actor.init_internal_node_embed.2.module.weight f4 [64, 32]
00000000: f803 bcbe 1a57 373e 19c5 b2bd c8d1 653e
00000010: 8672 763f af56 5a3d c67f 983d a315 1b3e
00000020: bfc4 a7be c212 1bbe e3a1 e9be 7373 053e
00000030: 4147 91be 1ad1 59be 555c d23d f472 40be
00000040: 4bc9 623e 974f 35bd a079 5dbd 568a dc3d
00000050: c0de 853d 920f 11be 584a a9be 40c8 b3be
00000060: b5c3 0fbe 00de 883e 8c03 d83c 6389 f93e
00000070: e80a 91bd c7c7 0abe 9b2c 55be 61e8 35bd
00000080: 2a7c 8bbd 1a1b e7be 0bd3 6bbe 968e b8bd
00000090: 6a25 3ebe d0da 5e3e 54f0 b63d e913 063f
000000a0: 9d46 13be 3d41 1abc e847 363e 9440 3cbe
000000b0: 493f 4abe 2442 98bb d1f9 0a3e 465e 343e
000000c0: 15b7 fdbd b055 98bd 5773 9abd 4659 6bbe
000000d0: 772b 053e 0e51 fa3c 7afe 843e 51ba 9c3c
000000e0: b958 0d3e 91ea 0fbe 597e 5abd ff65 673d
000000f0: b013 8cbe 3ec6 783e c21e fc3e 00e4 cc3c
00000100: 7d0e e13e d38c 3abe aebe cdbd e010 a13e
00000110: 4acd c83d 7933 833e 52e0 86be 2f80 73be
00000120: 3744 b53e e599 e33d e847 31be bb5f 85be
00000130: ba55 df3e 05ab 84be f4ff 2b3d 9054 a2bb
00000140: 6f42 693e 18c9 cb3d bbb2 72be b24f ac3c
00000150: d984 94be ac80 093d a0ae a23e d93b ddbe
00000160: 922b 22be 0ed7 efbd 53cf b7be a1f7 d23d
00000170: d199 68bd fee2 57bd 9864 453e 5862 3b3d
00000180: 6ca9 023d 9762 f03e ca42 68bd 97ea 423e
00000190: 2b4a 3a3e e818 15be 85c6 88be f377 ba3d
000001a0: c328 fe3d ed4c 3c3d f0bd 4e3e 5572 b53e
000001b0: 524c 7fbe 36b4 02bd 0255 863d 35c1 2abe
000001c0: ed31 babd c35a 4ebe 72ed 0d3d 8168 15be
000001d0: 9df3 313e 0ab5 dd3c 9cde ec3e 7bd0 31bd
000001e0: 1a8a bfbe a1af 493e eeb6 a33e 389d a33c
000001f0: 6598 163e e6fb 1b3e ebec 553e 3910 f23d
00000200: 868e 84be b4b9 dc3c 805b 753e bb70 2cbe
00000210: 4c0f bdbe 9c63 613c cb4f 73be 5c42 3b3c
00000220: 78b4 efbd 96e0 ce3e 318f fc3e ca05 b4bd
00000230: 96a4 983d c86a 6b3e 5023 04be 4587 86bc
00000240: e084 4dbc 7a3c e33d 6a2c cabd b5fc 5bbe
00000250: 8b71 783e 8302 733d bd7f fa3d 5d38 88be
00000260: 162a ecbd 6577 0f3d 9033 d73e d2d8 d0be
00000270: 858f 9a3e 1adb 92bc 5e92 06be 054c ffbd
00000280: 6e68 07bc 605f e43c 1d0c 35be b4de 903e
00000290: a8e5 323e 31e8 b0bc 61ab 953e 220f b7be
000002a0: e8a7 323d f5c5 463e cfbc 123f 426f 263d
000002b0: 75b6 b03e 07b4 dfbd 44fb 923e 5d78 a1bc
000002c0: fdad a23c e4d2 3fbd 192a 703e 76a5 42be
000002d0: a1fb e13e 4d66 bcbd f6c3 b0bc 3f84 53be
000002e0: 1096 f33b 5dce 2b3e 3af2 afbc 3e02 8dbe
000002f0: fa4b 92bc 6cc9 e43c 5821 dd3d 4186 913d
00000300: e85d c7bd 8500 c3be 6c3d 48be 05b8 f73c
00000310: 0497 1a3e a88e 1e3d cc48 0abe 1187 0cbe
00000320: 0042 a9bd 7674 253f 0607 f0be 91b1 393e
00000330: e9b7 903e 86c4 bf3d 4899 27be 4a2c 50bd
00000340: 054e b0bd e91d 83be 4ffb 3a3e 319f 093e
00000350: 5f46 803d 7543 c73d de6a 90be e0ef 173e
00000360: 5c7c 1bbf 6991 83be 6955 443e 7f79 de3c
00000370: b347 023d ec4a ba3e 1df5 eebe fc00 c3be
00000380: 7872 993e 43f8 d03e 3039 663e 0945 51be
00000390: a1c9 44be 0d03 bb3d e4ec ce3e f9d7 a13e
000003a0: c01c 21bf 2251 22bf bc8f 12be 9998 88bd
000003b0: c6d9 d53e ebd0 94be 4738 d1bc c0a1 593d
000003c0: c8db fe3b a588 e7bb 17d4 463c 6e0d ac3d
000003d0: 7974 34bf 5ba1 2fbd a971 683e b751 e13e
000003e0: 5e84 193f 3dc4 45bc c38d 81be 5059 0cbe
000003f0: 53dc 953d 8604 1a3e 6282 bfbe 4d8d cabd
-0.36721778 0.1790432 -0.08729 0.22443306 0.962685 0.053305324 0.07446246 0.15144973
-0.32767293 -0.15143874 -0.45631322 0.13032322 -0.28374675 -0.21271172 0.10271517 -0.18793851
0.221471 -0.044265356 -0.05407107 0.10768573 0.06536627 -0.14166096 -0.33064532 -0.35113716
-0.140395 0.26731873 0.026368879 0.4873763 -0.07082158 -0.13552772 -0.20817797 -0.044411067
-0.06810792 -0.45137864 -0.23029725 -0.09011571 -0.1856896 0.21763158 0.08932558 0.5237413
-0.14382406 -0.009414968 0.17800868 -0.1838401 -0.19750704 -0.0046465565 0.1357186 0.17614087
-0.12388436 -0.074382186 -0.075415306 -0.22983274 0.13004862 0.030556228 0.259754 0.019131811
0.13803376 -0.14054324 -0.05334315 0.056493755 -0.2735877 0.24294373 0.49242216 0.025011063
0.43956366 -0.18217783 -0.10046135 0.31458187 0.09804781 0.25625208 -0.26343018 -0.23779367
0.35403606 0.111133374 -0.17312586 -0.260496 0.43620092 -0.25911728 0.041992143 -0.0049539283
0.22779249 0.09950465 -0.23700993 0.021034095 -0.29007605 0.033569977 0.31773853 -0.43209723
-0.15836933 -0.1171094 -0.35900363 0.10301138 -0.056787316 -0.05270671 0.19276655 0.045748085
0.031899855 0.46950218 -0.05670432 0.19034801 0.18192355 -0.14560282 -0.26713958 0.0910491
0.124101184 0.0459718 0.20189643 0.3543879 -0.24931458 -0.031910144 0.06559183 -0.16675265
-0.09091554 -0.2015181 0.034650274 -0.14590646 0.17378087 0.027063865 0.46263587 -0.043411713
-0.3741005 0.19695903 0.31975502 0.019972429 0.14706571 0.1523281 0.20891158 0.118195005
-0.25889987 0.026944019 0.23960686 -0.16839878 -0.36925733 0.013756659 -0.23760907 0.0114293955
-0.117043436 0.4040572 0.49327996 -0.08790167 0.07453267 0.22989953 -0.12904096 -0.016421923
-0.012543887 0.11095519 -0.098717526 -0.21483119 0.24262063 0.059328567 0.122313954 -0.26605502
-0.11531465 0.035025973 0.42031527 -0.4079042 0.30187622 -0.017926741 -0.13141772 -0.124656714
-0.008264644 0.02787751 -0.17680402 0.2829491 0.1747042 -0.021595092 0.29232314 -0.35753733
0.04361716 0.19411452 0.5731935 0.040633447 0.34514204 -0.10923009 0.28707325 -0.019710714
0.019858355 -0.04683198 0.23453559 -0.19008431 0.4413729 -0.091992 -0.021577816 -0.20655917
0.0074336603 0.1677794 -0.021477807 -0.27540773 -0.017858494 0.027928077 0.107973754 0.07105685
-0.09734708 -0.38086334 -0.1955468 0.030239115 0.1509667 0.038710266 -0.13504332 -0.13723399
-0.082645416 0.6463083 -0.46880358 0.18134142 0.28265312 0.09363656 -0.16367066 -0.050823487
-0.08608631 -0.25608757 0.18259929 0.13439633 0.06263422 0.09729663 -0.28206533 0.14837599
-0.6073663 -0.25696877 0.19173206 0.027157543 0.03180666 0.36385286 -0.46671382 -0.3808669
0.29970145 0.4081441 0.22482753 -0.20436491 -0.1921754 0.09131441 0.40415108 0.31610087
-0.62934494 -0.6340505 -0.14312643 -0.06669731 0.4176771 -0.29065642 -0.02553953 0.053132772
0.007777665 -0.00706585 0.012135527 0.08400999 -0.70490223 -0.04287849 0.22699608 0.44007656
0.599676 -0.012070713 -0.25303468 -0.13705945 0.07317414 0.15040788 -0.37404162 -0.09890232

actor.init_internal_node_embed.2.add_bias._bias f4 [64, 1]
00000000: 49ae 02bc a98a c1bc 026f 7c3d 05cd bd3c
00000010: 6919 b43b dac4 3d3d 1f3c 5dbc 0b9b c03c
00000020: 58e4 04bd bf64 27bd b05d 1dbc b8a4 f5bc
00000030: 9ddc cebc a9c3 4ebd 4c92 4dbd afd8 a4bb
00000040: 563d a03d 64a2 80bc 11c1 90bc 3d2d 1fbd
00000050: 14a9 8cbc 2587 d33c a678 063d b2df c53d
00000060: db04 e43b 3c63 78bd dc81 e03b 16f8 613d
00000070: 83e8 333d 229f 3ebd d7eb c53d 5206 ea3b
00000080: 7432 d3bc aad8 66bd a7cd 5abd 0cea 2ebc
00000090: aecb 4f3c ca65 0cbd 7ac9 8a3d 2d7d 1a3d
000000a0: 25c2 8fbd 4b8f f43c c6d5 9e3d 9bb9 1c3d
000000b0: 5a06 b03c cdfd 20bd bd03 303d eec1 e63d
000000c0: c030 16bb b7f1 3137 49b1 423d 7c8d 1d3d
000000d0: dee0 16bd e133 3ebd 1469 4ebd feea 903d
000000e0: 3bee 113d 844c 08bd 91da 8f3c 3448 c5bc
000000f0: e9a6 b4bc 3128 f0bb f32d 7abc 990e 713c
-0.007976123 -0.023625689 0.061629303 0.02316905 0.005496193 0.04633031 -0.0135031035 0.02351143
-0.032444328 -0.040867563 -0.009604856 -0.02998577 -0.025251681 -0.050479565 -0.050188348 -0.0050307135
0.07824199 -0.015702434 -0.017670186 -0.038861502 -0.017170466 0.025821278 0.032829903 0.09661807
0.0069585866 -0.060641512 0.006851418 0.055168234 0.043922912 -0.04653848 0.096641235 0.0071418667
-0.025780894 -0.05635897 -0.05341878 -0.010675918 0.012682838 -0.03427676 0.0677671 0.037717033
-0.07019452 0.029853484 0.07755618 0.038262945 0.021487404 -0.039304543 0.042972315 0.11267458
-0.002291724 1.0606301e-05 0.047532354 0.03846501 -0.036835544 -0.046436194 -0.05039318 0.07076071
0.035627585 -0.033276096 0.017560275 -0.02408228 -0.022052245 -0.00732901 -0.015269744 0.014712953

actor.init_leaf_node_embed.0.module.weight f4 [32, 8]
00000000: 5b11 47be 2b62 a1be 4a67 573e 0911 3e3e
00000010: d4de 303c f21d 043f d68f aabe 3fc3 9ebe
00000020: 6b51 e7be caa3 efbd fd45 c93e 6397 18bd
00000030: d378 523e 4235 5fbe 968d 7a3e 9304 58bd
00000040: 69a8 083c 1fdc f23d de47 7ebe aa09 163d
00000050: dc36 50be bfe3 acbd 6601 a23d b765 c5bd
00000060: d80a c2be bd76 0d3d 9c95 5a3e 8677 4fbd
00000070: de27 a83e f951 203d 137c 80be dba0 493c
00000080: e021 263c d3d4 0ebf e312 c13e a6b1 b1bd
00000090: 43cd b1bd 7cd3 543c 862d 2abe 19bb 113e
000000a0: d683 b8be 2b11 74bc 8a2e 82be 6580 3f3e
000000b0: 2f90 25be 28bb fe3d 3ec0 2bbe 665a 303c
000000c0: 183b 7fbe a3b5 4e3e 110a 9dbd 168a ce3d
000000d0: b363 05be 5043 f9bd 9eb3 393d 9228 273e
000000e0: ab6c 573e 8b2f 4a3e b66a cd3e c104 09be
000000f0: 1d3c 29be 7cbb cabc c2df 28bf 7b28 a8bd
00000100: 6407 1fbd 68c7 cb3d 7a02 5a3e 31a1 523d
00000110: 1b5d 663d cc2b 983e a02f 573d 6a5c 323d
00000120: fef0 f9be f2b6 04be 24ab 893d 1af8 aa3d
00000130: cf0d b53e 3c77 56be e55d d7ba b95f 04bf
00000140: 6bf3 d7be 68b4 843d 99ed adbe 5989 fcbd
00000150: e7f3 ef3e f7c8 873e 5b21 6bbe b45d ffb9
00000160: ab43 143e 4aed 61bd 9815 913e a000 67be
00000170: b6fc 2dbd 1bc6 9abe eb3e d63e 2994 583c
00000180: f753 7ebe ef8e 4ebe 4ba6 cc3e f494 ec3e
00000190: 2d53 8c3e da27 983d 4adf ad3e 1e36 de3e
000001a0: bda7 053e 78d5 ab3e d5be 883e 0e2a 54bd
000001b0: fda6 05bf 984b 55bc 3f4e 4abd eb74 65be
000001c0: a4f5 c73e 3714 d63e baa6 cd3d 2be9 ef3e
000001d0: 1abc 9b3d b3f6 b43c 2050 0a3e 16e2 1d3e
000001e0: 9872 813d 22fd c6bd 5a63 aabd 47ff 483e
000001f0: c79d 24be 689b 9a3e 8dd3 2d3d abae 313e
00000200: 81e7 8a3e e018 8e3e ce13 8dbd e7af cfbe
00000210: beb4 d03c 4bbd 8bbe f785 63be adf6 2d3e
00000220: 5de4 a5be 141f 923e c0df b6be 5c63 ea3e
00000230: 13a2 21be a130 cfbd 78f0 57be e2f2 623e
00000240: 8668 8b3d aa51 8c3b 8ca6 0fbf b69c 2bbe
00000250: 6127 7a3e 9eb8 c63e 5811 bf3d b951 23be
00000260: 8d02 2fbe 9794 bfbc cd62 e9be c46f 6cbd
00000270: 3e34 37be a5f9 b4be 863e 7f3e ca62 9fbd
00000280: 1f7c 383e 80b0 eb3c b0b6 343e ea67 d23e
00000290: d9d4 ef3e 9944 84bd 7672 963e ada4 9cbd
000002a0: 249a 81be 3fb7 f53e bb04 1c3e e226 6cbe
000002b0: 87c0 a03e 9087 82be d02c 2bbd 857a 493e
000002c0: 261c 223e 6f2a c5be c6b5 1abe f8d8 afbe
000002d0: 337f b93e fb5c a5bc 12fd e13e 0d1c 6b3e
000002e0: 71a8 b53c acb9 013f 7815 4e3e 09f0 0bbf
000002f0: 1787 d1bd 4a01 183f acdd 0f3e 113e ca3e
00000300: 185c 17be b7de a9be 74a7 ddbd 1134 02be
00000310: ad5b 323e 8f1a 4bbe 5ed5 9abd ca4f 163f
00000320: 347e 203e 3e7f bfbd 6af2 43be 3886 1b3e
00000330: bb37 c0be 4bf6 a5bc 9e2c a2bb cf25 ba3e
00000340: ca2e 78be bdfa 3c3e 8d4a 0f3e 747a 7fbe
00000350: 3ebe e4be 1f74 8abd b90b d03e b112 44be
00000360: ace3 febd c635 8b3e c139 973e bed5 033e
00000370: 086b f4bd 01a0 ef3e 655c 9c3e 15dc 43be
00000380: 85d4 4b3d ea65 3bbc ebd1 b13e a25f 0cbe
00000390: 26af dabd cbd3 febe 6038 76be d6e0 b8bd
000003a0: 50c5 b53e af11 923e fb38 58be 5d5d 163e
000003b0: 23c3 f43e ad62 fbbc 73cd 243e 624f ffbe
000003c0: 02eb 643d d2b1 b8be a103 38be db00 b7be
000003d0: 65a1 91be 5e17 cc3e 9b47 a33d 763a 80be
000003e0: 09f0 cfbe ad15 803d 9604 5abe 767d fcbc
000003f0: 9157 83be eb0a c5bd 6bf0 8d3e b203 55be
-0.19440214 -0.3152021 0.21035495 0.18561186 0.010795314 0.5160819 -0.33312863 -0.31008336
-0.45179304 -0.11701162 0.3931121 -0.03725375 0.20553903 -0.2179766 0.24468073 -0.052738737
0.008340933 0.11858391 -0.24832103 0.03663031 -0.20333427 -0.084418766 0.07910423 -0.09638541
-0.37898898 0.034537066 0.21346134 -0.050651096 0.32842916 0.039140675 -0.2509466 0.012306417
0.010139912 -0.55793494 0.37709722 -0.08676462 -0.08681729 0.012989875 -0.16618928 0.14231528
-0.36038083 -0.014896671 -0.2542613 0.18701322 -0.16168283 0.12438041 -0.16772553 0.01076374
-0.24924886 0.20186476 -0.07667936 0.100849316 -0.13026313 -0.12171042 0.045337312 0.1632407
0.21037547 0.19744699 0.40120476 -0.1338072 -0.16526838 -0.024747603 -0.6596643 -0.08210846
-0.038825408 0.09950143 0.21290007 0.051423255 0.056241136 0.29720914 0.052535653 0.043545164
-0.48816675 -0.12960413 0.067220956 0.08348103 0.35362098 -0.20943922 -0.0016431181 -0.5170856
-0.421779 0.06479722 -0.33970335 -0.123308845 0.4686577 0.26520512 -0.22961943 -0.00048707204
0.14478938 -0.055157937 0.28336787 -0.22558832 -0.042477332 -0.30229267 0.41844878 0.013218918
-0.24836718 -0.20171712 0.3997062 0.46207392 0.27407208 0.07429476 0.3395942 0.43400663
0.13052268 0.335613 0.26708093 -0.05179792 -0.5220793 -0.013018511 -0.049391028 -0.22407882
0.39054596 0.41812298 0.10041566 0.4685758 0.07604237 0.022090292 0.13507128 0.15418276
0.06320685 -0.0971625 -0.08319731 0.1962863 -0.16075812 0.3019669 0.04243808 0.17351787
0.27129748 0.27753353 -0.06888543 -0.4056389 0.02547681 -0.27292857 -0.22219072 0.1698863
-0.3240079 0.28539336 -0.35717583 0.4577893 -0.15784483 -0.10116697 -0.21087825 0.22162965
0.06807046 0.004282196 -0.56113505 -0.16758999 0.24429084 0.38812727 0.0932948 -0.15949143
-0.17090817 -0.023386283 -0.45583192 -0.057723776 -0.17891023 -0.35346714 0.24926195 -0.077825144
0.18016098 0.028770685 0.17647815 0.41094905 0.46842077 -0.064583965 0.29384202 -0.07648597
-0.25312912 0.47991368 0.1523618 -0.23061708 0.31396887 -0.2549405 -0.041790783 0.19675644
0.1583105 -0.38508937 -0.15108404 -0.34345222 0.36229858 -0.020185938 0.4413839 0.2295992
0.022175046 0.5067394 0.20125377 -0.5466314 -0.102308445 0.59376967 0.14049405 0.39500478
-0.14781225 -0.3317773 -0.10822955 -0.12715174 0.17417784 -0.1983435 -0.07560228 0.587155
0.15673143 -0.093504414 -0.19135442 0.15187919 -0.3754252 -0.020259043 -0.0049491664 0.3635697
-0.24236599 0.18455024 0.13993283 -0.24949056 -0.44676393 -0.067604296 0.40633944 -0.19147755
-0.12445769 0.27189463 0.2953625 0.12874505 -0.11934477 0.4680176 0.3053924 -0.19126923
0.04976322 -0.011437872 0.34730467 -0.13708356 -0.10677938 -0.4977096 -0.24044943 -0.09027259
0.355021 0.28529117 -0.21115486 0.14684053 0.47805128 -0.0306867 0.16093998 -0.49865252
0.055888183 -0.36073166 -0.17970134 -0.3574284 -0.28443447 0.39861578 0.07972642 -0.25044602
-0.4061282 0.06254134 -0.21290812 -0.030821543 -0.25652745 -0.09621223 0.27722487 -0.20802191

actor.init_leaf_node_embed.0.add_bias._bias f4 [32, 1]
00000000: 490c b23d de51 87b9 4390 933d 2df1 e73c
00000010: bf8e 833c 8a7a 89bd 98bb 0e3c a017 003c
00000020: 3102 f9bc 9240 b23c 31e5 a73c 617a 2abd
00000030: a29e 143e 075e 763c 6e98 c13d 5fcb dabc
00000040: c036 983d 3927 15bd ff32 b8bd a42e 8bbd
00000050: 94a3 4dbd 3cf2 d3ba c7f5 043c 572b 4fbd
00000060: fafe aabc cac1 f3bb ee3b 68bd b5f4 a93d
00000070: 3175 2bbd ef45 d23d 9d3b e1b9 b2c2 923d
0.086937495 -0.00025810202 0.0720525 0.028313244 0.016059278 -0.067128256 0.008711718 0.007818133
-0.030396553 0.021759305 0.02049503 -0.041620616 0.14513639 0.015037066 0.09452902 -0.026708303
0.07432318 -0.03641436 -0.08994102 -0.06796005 -0.05020483 -0.0016170214 0.0081152385 -0.05057844
-0.020873535 -0.007438873 -0.05669778 0.08298627 -0.04185981 0.10267245 -0.0004295976 0.071660414

actor.init_leaf_node_embed.2.module.weight f4 [64, 32]
00000000: e2f6 213d fdb9 8abe 8f7e 93be cf41 4ebe
00000010: e3be 133e 1b2e e13d 14c3 bc3d 0c4c fc3c
00000020: 12cd b13d bfb3 a13d 3761 773e c947 8fbe
00000030: bab2 49be 90fe c93c 6bd3 e9be 363a 88bc
00000040: 6c24 4d3e 6183 243e eef7 75bc df2f f0bd
00000050: 5ce0 7f3d e8ed 88be bf1c 983e 2fd1 653e
00000060: 7b5a ae3d 4065 94be 8ca8 d2bd 2212 92bc
00000070: ba5d 0c3e 4801 523d db0b 2bbd afd8 2dbd
00000080: 6e13 59bd 3693 313e 4ea4 273d 82d7 183d
00000090: db55 803c 59ca 103e 9932 ef3d 4f34 0bbe
000000a0: b8d9 0fbe 0a34 4cbe 495f e23e 3b20 04bd
000000b0: 4043 1bbe bdb6 013e 84fe 263e c7f3 91be
000000c0: 6b45 e4bd 10e1 cbbd 9a72 5bbd 5028 43be
000000d0: f99e ebbd 5c74 08be fcf9 043e 7703 42be
000000e0: 1490 c5be 035b 14be 47d4 ae3b 5776 183e
000000f0: 72d7 89be ab96 08be c734 0b3e 68e7 b83e
00000100: 37ff 283e 3c6f 483d 36b5 02be 3c73 babc
00000110: 20c0 283e 4f8e f3bc d11d c5bd bdba c83d
00000120: afb0 e3be ae33 d8bc 725d debe bad8 2fbe
00000130: feee babe bd79 383e b6ff 9a3e 6678 33be
00000140: f69e a7bd 38d9 c63e 832f 3cbe 4d78 00be
00000150: 32ee b2bc f06d ce3c c3ad 6b3d f8f0 6ebe
00000160: a271 90bc ca1f 403d 5686 bbbd 887c 25be
00000170: 5882 50be 2d8d 71bc 721f 053e 7645 263e
00000180: 259d 86bd 0b3f 2c3e 8f34 423e 9d25 b93d
00000190: c43d 563e 708d ae3d 2b2a 5ebd c609 ab3d
000001a0: 4f9e cc3d 1d72 28bd 6e9e 62be c4b0 7c3e
000001b0: 53b4 a4be 6b05 b43d bed8 a0bd 5b8a 853e
000001c0: 6476 d2bd 93b7 ac3e b92e 92be bad4 b6bc
000001d0: 2508 613d 701d 103e 9e5e 4fbe f823 af3e
000001e0: cfce 023d 8b93 be3d 307f 2f3e 7f5b 813e
000001f0: d266 973e f81a bfbb 0167 373e e3f3 163e
00000200: 8fbf bfbd a6dd 47bd ba8d 923d 9313 7c3d
00000210: 9c5d 2f3e 0391 e1be 4d0e 743e 5050 593d
00000220: 7a32 b43d 5a7f 823d a39c 0fbe b348 b8be
00000230: 2573 e8bd 681c 803e d6d5 203e c20a 5ebe
00000240: cc5e d9be 6247 90be 2c10 bc3d 59d7 f23d
00000250: b899 86be 0b20 553e f1a9 61bd 13b5 253e
00000260: 61b5 08be c329 4bbc cf87 30be 6fb2 ab3e
00000270: 1677 7a3e a126 693c a8b3 063d 4b0c 41be
00000280: 8ab8 1a3e 9ea1 b93b c282 30be 6c32 67bd
00000290: d536 62be c3b1 43bd 58df b53e b3a0 acbd
000002a0: cd2f ae3d 1163 e13b f641 a6be 1bf8 993e
000002b0: 4133 023f c6d2 ea3c f452 b83e 5787 5abe
000002c0: 8107 263e 3f8c 43be 01e6 91be 16eb 2ebe
000002d0: c251 e83d 6050 50be f60f 71bd 2129 063f
000002e0: cbfd a73d 6f81 2cbe 4ad6 94bd d5df 563e
000002f0: ab7d 27be 761c 9b3d afbe 2d3e d986 74bd
00000300: 5ac7 953e 79be c1be 1ed7 2abd 5d74 ddbd
00000310: 4346 97be 614d f0bd 02bb 1a3e dc8b 323e
00000320: 2fe3 e93d f0e0 08be 584d 7b3e 1766 343e
00000330: 51fd 9bbd 6821 273e 1f82 40be ebc0 36bd
00000340: 09a1 dabe d2f3 d43e d9cd 443e a4e9 ab3d
00000350: 64e0 16be 3739 aa3d 282b bebd fb29 203e
00000360: 03e9 133d e9bc 0cbc 6be4 90bd 9c67 29bc
00000370: 9d91 0ebe 32b6 993e 7357 99bc 6271 3abd
00000380: b981 0ebe 8921 7d3d d871 00be 9763 7bbe
00000390: a95a 3b3e 74f4 02be 8d97 5bbe 9ca6 e0be
000003a0: 0e01 423e 5070 0cbe 8d25 293e 7ea9 5e3c
000003b0: cf57 6e3e dec0 ed3d 5667 bcbd 08e5 2c3d
000003c0: 7519 61be 7221 5abd f498 08bf 8829 2fbe
000003d0: 2a70 2b3e b705 a33e c3f9 1f3e 3199 1ebe
000003e0: ad51 16bd c1eb 0f3e af06 513e ee95 003e
000003f0: 8f5b f8be 7a2c 783e 9bb6 1a3e 5fa7 58be
0.039542086 -0.27095023 -0.28807494 -0.20142291 0.14428286 0.10995122 0.09216896 0.03079798
0.08681692 0.07895612 0.24158178 -0.27984455 -0.19697085 0.024657518 -0.45669112 -0.01662932
0.20033425 0.16065742 -0.015012724 -0.11727881 0.062469825 -0.26744008 0.29709432 0.22443078
0.085133515 -0.28983498 -0.10286054 -0.017830912 0.13707629 0.051270753 -0.041759353 -0.042442974
-0.052997045 0.17341313 0.040928178 0.0373149 0.01566594 0.1413969 0.116795726 -0.13594173
-0.14047897 -0.19941726 0.44213322 -0.0322573 -0.15162373 0.12667365 0.16308028 -0.285063
-0.11146053 -0.09955037 -0.05357609 -0.19058347 -0.11504931 -0.13325638 0.12985986 -0.18946634
-0.38586485 -0.14487843 0.005335364 0.14888893 -0.26922184 -0.13338725 0.13594352 0.3611405
0.16503607 0.048934206 -0.12764439 -0.022760026 0.1647954 -0.029730944 -0.09624828 0.098012425
-0.44470736 -0.02639183 -0.43430668 -0.17172518 -0.36510462 0.1801519 0.30273217 -0.17526397
-0.08184616 0.388376 -0.183775 -0.12545891 -0.021842096 0.025198907 0.05753876 -0.2333411
-0.01763231 0.046905316 -0.09156482 -0.16160786 -0.20362222 -0.014743132 0.13000277 0.16237435
-0.06572942 0.16820924 0.18965362 0.09040377 0.20921999 0.08523071 -0.054239433 0.083514735
0.099911325 -0.041124452 -0.22130749 0.24676806 -0.32168826 0.08790096 -0.0785384 0.2608212
-0.102764875 0.33733806 -0.28551272 -0.022318233 0.054939408 0.1407373 -0.20250937 0.3420713
0.03193551 0.09305485 0.17138362 0.25265118 0.29570633 -0.0058320723 0.17910387 0.14741473
-0.09362709 -0.048795365 0.071559384 0.061542105 0.17125553 -0.44055948 0.2383358 0.053055108
0.0879869 0.06371947 -0.14024596 -0.35992965 -0.11350087 0.25021672 0.15706572 -0.21683791
-0.42455137 -0.2817946 0.09182772 0.118574806 -0.26289153 0.20813005 -0.05509371 0.16182356
-0.1335044 -0.0124000935 -0.17239307 0.33534572 0.2445949 0.014230401 0.032886177 -0.18852346
0.15109459 0.005665018 -0.1723738 -0.05644457 -0.2209123 -0.04777695 0.3552196 -0.084290884
0.08505211 0.0068782647 -0.324722 0.30072102 0.5085946 0.028664958 0.36000788 -0.2134069
0.162138 -0.19096468 -0.28495792 -0.17081866 0.11343719 -0.2034316 -0.058853112 0.5240651
0.08202704 -0.1684625 -0.07267435 0.20983823 -0.16356532 0.07573788 0.16967271 -0.059698913
0.29253656 -0.37840632 -0.041709058 -0.1081321 -0.29545793 -0.11733509 0.151104 0.17436165
0.11420285 -0.13367057 0.24541223 0.17617069 -0.07616676 0.16321337 -0.18799637 -0.044617575
-0.42700985 0.4159227 0.1921915 0.08394173 -0.14734036 0.08311694 -0.09285575 0.15641014
0.03611089 -0.008589962 -0.07074817 -0.010339644 -0.13922735 0.30021816 -0.018718457 -0.045518287
-0.13916673 0.06179956 -0.12543428 -0.2454971 0.18296303 -0.12788564 -0.21444531 -0.43877113
0.18945715 -0.13714719 0.1651823 0.013590215 0.23275684 0.11609052 -0.09199397 0.04221061
-0.21982367 -0.053254552 -0.5335839 -0.17105687 0.16742006 0.31840298 0.1562262 -0.15488125
-0.036698986 0.14054777 0.20412706 0.12557194 -0.48507354 0.24235716 0.15108721 -0.21157597

actor.init_leaf_node_embed.2.add_bias._bias f4 [64, 1]
00000000: 4028 8bbd dbdc 8cbd 8151 a4b8 49ac 913c
00000010: dc6f 29bd 88a6 a53e 80a8 323d c90c 953c
00000020: 8ceb a2bd d3a6 a33d 74be acbd 8b60 573e
00000030: 1130 94bd bb27 72be 0500 04bf b074 f1bb
00000040: 12ea 27bd 0118 1e3e 5497 4bbe 8358 49bd
00000050: bcc2 1cbe 6718 213e 7797 003e 9187 483e
00000060: 0612 1abd ca2b 733e bcea 80be fecc 023e
00000070: 9312 0dbe 3b59 79be 8e95 013e 4cc8 82bd
00000080: 24f6 e0bd 8369 1bbc 4726 77be b722 303e
00000090: 2845 d8bd 787c d3bc f8c3 edbd 9e73 8cbd
000000a0: 1ad7 34be 3467 c73c 826b 5f3c d02d cabd
000000b0: 623f 913c 1b34 873d 5cae 283d 1c7f 7f3e
000000c0: 87c4 483c 38c0 c43d e79d c83d c975 3d3d
000000d0: cbe3 3cbd caa0 f73d c989 86bd 4c53 cebd
000000e0: 3dbc c3bd f4ac e3bd 1b2f 0abe bd7c 903e
000000f0: c687 193e de49 ad3c d76c 463e 8c71 46be
-0.067947865 -0.06878062 -7.835311e-05 0.017782347 -0.041366443 0.32353616 0.043617725 0.018194573
-0.07955083 0.079908036 -0.084347636 0.21032922 -0.072357304 -0.23647968 -0.5156253 -0.0073686466
-0.04099471 0.15438844 -0.19881946 -0.049156677 -0.1530866 0.15731965 0.12557779 0.19582964
-0.037614845 0.23747173 -0.25179088 0.12773511 -0.13776617 -0.24350445 0.12654707 -0.0638586
-0.109844476 -0.009485605 -0.24135695 0.17200743 -0.105600655 -0.025816187 -0.11609644 -0.0685799
-0.1766018 0.024341203 0.013636472 -0.09872019 0.017730419 0.06601735 0.041181907 0.24950832
0.012253887 0.09606975 0.097957425 0.046254907 -0.046115678 0.12091215 -0.06569249 -0.10074481
-0.09557388 -0.111169726 -0.13494532 0.28220168 0.149932 0.021153387 0.19377457 -0.19379252

actor.init_next_embed.0.module.weight f4 [32, 6]
00000000: 6d31 71bf d250 2a3e 2104 abbd 9149 f63e
00000010: 6801 aa3f d42f 66bf f508 eb3e 9a49 a63e
00000020: e5bc 083c e623 003e 6152 383d d7c7 eebc
00000030: e0a4 aabd 89c8 c7be b2c4 753e 6fe4 0bbf
00000040: ad65 ce3d 831a 343d 029d ae3f 12a8 113f
00000050: 6eaf e53d e683 bebd 386a 163e fc0c a13e
00000060: 514a aabe cd0f 76bd 60cc 45be e53a 363e
00000070: 61a0 c23c 0bfb 41be bcc5 1dbe 70ed eb3d
00000080: 3dd2 ea3e 558c d83d 91ee 1cbe 7096 51bc
00000090: 44b3 d03d 257a 68be 1fa7 c0bc 234b efbe
000000a0: 9865 0b3e 7bbe 3a3f dd82 51be 5b3c bbbe
000000b0: a5ce 813e 8c42 de3d 8e27 15be 2383 203d
000000c0: 3c43 0bbe 9e98 82be 20c8 af3e 34c2 72be
000000d0: 4d63 ba3d b157 23bc 647b babe c81e 21be
000000e0: e18f 14be 9bae d53e f640 48be 9cd3 9fbd
000000f0: 5aa0 333f bcdc 42bd 1fe4 18be 00e1 e4be
00000100: cd08 24be e109 3c3e b5cf 8f3d 0353 42be
00000110: 5b24 95be 61a9 b7bc ea60 6f3d b1b2 993e
00000120: a1af ce3e 41a7 28bf d1ae 32bd 4061 87bd
00000130: 0fbb 4f3d 77fc dcbd 335a 253e 311c 85be
00000140: 937a 9e3e d3c0 533e b786 59be 3292 2dbe
00000150: da65 943f 8cfc 593d 48ba d8bd 6a13 38bf
00000160: 3c7e 583d 9413 613f 5a9f 313c c0c9 8c3d
00000170: b5a4 6e3e fa9c 9fbe 81c4 03bd baa9 7abe
00000180: bc3a 9fbe 99f8 13be 79e2 02be caf2 b0bd
00000190: a384 883e c054 223f adca 11be be9e e83e
000001a0: dde7 fe3e 5cde 9dbd 794d a4bd e811 ff3e
000001b0: 274f 35be 7c35 6ebc 26dd b1be 1c61 93bd
000001c0: 9ee5 08be 7683 e0be ccfb b43f 307c 65be
000001d0: c0d7 463e 42c7 533e fdba e5bd 39b5 f13e
000001e0: 0da6 c53d c4c6 ba3e e633 243e b1a7 b7be
000001f0: 2483 54be 4909 6a3e 1e11 1d3f 768e 35be
00000200: f614 aa3d 06ed d93e 0f1c 5dbc eacd ea3e
00000210: e69e 64be a690 e23c adac babd d9c1 123d
00000220: 7609 c8be 4f39 19bc b620 9c3e 4a39 42be
00000230: 5232 06be 32c6 fdbe 2bca 4ebe 0133 f8bd
00000240: 4846 96be 09fb 95bd d3cd ac3e 5491 c8be
00000250: 5ca2 113f 37e8 e0be 3e52 403e ab12 54bd
00000260: 6e6b 113d 2bf4 fdbe d980 1bbf 3edf 953e
00000270: 5abd c6be 7e9e 2ebe 98f9 da3e f0dc 9f3e
00000280: e695 76bd 6815 79be bbc0 483f f6a5 c8bd
00000290: 724c 0d3e 2434 0ebf 3357 6dbe 7bf4 fcbd
000002a0: 4e95 fbbd fefa d73d a5f1 04bf df37 71be
000002b0: f7b0 b8bc 2a4b bf3c bd61 2e3e 767b 2ebd
000002c0: 8101 a93e 4acc 61be 8ccc 02bd e9a9 41bd
000002d0: 05e5 a0bb 2a72 b7bc aea9 81ba 3084 adbe
000002e0: dfc7 bfbe 09f6 eb3e 6202 883d be4c e1bd
000002f0: 4dc5 1fbe 7063 b4bd a409 853c 106b 27be
-0.9421604 0.16632393 -0.08350397 0.48103002 1.3281679 -0.8991673 0.4590527 0.3247803
0.008345817 0.12513694 0.045000438 -0.029148025 -0.08332229 -0.39020184 0.24000815 -0.54645437
0.10077987 0.043970596 1.3641665 0.5689708 0.11215101 -0.093025014 0.14688957 0.3145522
-0.33259824 -0.060073663 -0.19316244 0.17795904 0.023758115 -0.18943422 -0.15407461 0.11519897
0.45863524 0.10573641 -0.15325381 -0.012792215 0.10190442 -0.22702844 -0.02351719 -0.46737012
0.13612974 0.729469 -0.20460077 -0.36569485 0.2535297 0.108525366 -0.1456587 0.03918756
-0.13599867 -0.25507063 0.3433237 -0.23706895 0.09100971 -0.009969638 -0.36422265 -0.15734398
-0.1450801 0.41734776 -0.1955603 -0.07804033 0.7016655 -0.04757379 -0.14930771 -0.4470291
-0.16018982 0.18363144 0.07022039 -0.18976979 -0.291293 -0.022419633 0.058442034 0.30019143
0.4036837 -0.6588021 -0.04362375 -0.06610346 0.050715502 -0.10790341 0.1614769 -0.2599807
0.30952892 0.20679025 -0.21242796 -0.169503 1.1593583 0.053219363 -0.10582405 -0.71904624
0.05285476 0.879205 0.010841215 0.06874418 0.23305018 -0.3117445 -0.032169823 -0.24478808
-0.31099498 -0.14450301 -0.12781705 -0.08640058 0.26663694 0.6341057 -0.14237471 0.4543361
0.49786273 -0.07708427 -0.08022589 0.4981835 -0.17705975 -0.014539119 -0.34739035 -0.071962565
-0.13368842 -0.43850297 1.4139342 -0.22410655 0.1941824 0.2068148 -0.11217306 0.47208574
0.09650812 0.3647977 0.16035423 -0.35870126 -0.20753151 0.22855105 0.61354244 -0.17730126
0.08304779 0.42563647 -0.013495459 0.45860225 -0.2232624 0.027656864 -0.091149665 0.0358294
-0.39069718 -0.009352042 0.30493706 -0.18967167 -0.13105133 -0.49565274 -0.20194308 -0.12119103
-0.29350495 -0.07323272 0.3375078 -0.39173377 0.56888366 -0.43927166 0.18781373 -0.051775616
0.035502844 -0.49600348 -0.6074348 0.29271883 -0.3881634 -0.17052647 0.4276855 0.3122325
-0.060201548 -0.24324572 0.78419083 -0.097972795 0.13798693 -0.5554831 -0.23177795 -0.123513184
-0.12284337 0.1054592 -0.5193122 -0.2355647 -0.02254532 0.02335127 0.17029472 -0.04259821
0.3300896 -0.22050586 -0.031933352 -0.04728118 -0.0049101138 -0.022393305 -0.0009892487 -0.33889914
-0.37457177 0.46086147 0.066410795 -0.110009655 -0.15602608 -0.08808029 0.016239949 -0.16349435

actor.init_next_embed.0.add_bias._bias f4 [32, 1]
00000000: 575a e6bd 4c92 7e3c c538 f8bc 3501 193f
00000010: 8501 66bd a367 85bd c557 933e b022 c0bd
00000020: 49c0 0dbd 8a2f 2ebd 045f e0bd 5e03 b03d
00000030: 26c0 29bd 07c7 a2bd 5d89 523f 5ee1 9b3c
00000040: 4c0d 403e 37a2 87bd c6f8 0c3d db44 193f
00000050: ed45 5cbe 8a27 a93d 0883 943c 0b78 f03d
00000060: eb29 94bd 433c 07be 927a 7abd a1f6 243e
00000070: 7466 17bd a20d f33d f347 10bd 5dd9 aabc
-0.112477 0.01553781 -0.030300507 0.59767467 -0.056153793 -0.06513908 0.287779 -0.09381616
-0.034607206 -0.042525806 -0.10955623 0.08594392 -0.041443013 -0.07948118 0.8224085 0.019028362
0.18755072 -0.06622737 0.034416936 0.5987069 -0.2151105 0.082594946 0.018128887 0.117416464
-0.07234558 -0.13206582 -0.06115205 0.16109706 -0.03696294 0.11867835 -0.035224866 -0.0208556

actor.init_next_embed.2.module.weight f4 [64, 32]
00000000: c633 89be 8155 943d 96ea 223e aa27 0f3e
00000010: b289 333e 6cbc b4bd 34bc 353e 223a 8d3e
00000020: 09ff f83d 7a43 243d 0a55 6e3e a1d5 09bd
00000030: 4e02 6a3d 047f 203d b053 973e 89dc 92bc
00000040: 4986 853e d5c9 4a3e 1597 a2bc 42c7 af3d
00000050: 4f29 7f3e 2d8d 63be 8688 813e 7230 3a3f
00000060: f604 b33d 64cf 203e 52f1 fa3b 03be 1bbe
00000070: 18ff 17bd e04e 24be 9c04 703c 62f6 d4bd
00000080: 5155 023e d53c be3c defa 51bd 833f 58bd
00000090: e0c9 4b3e f2ec 343e c344 f2be b0cb f23d
000000a0: caf6 14bd a4d7 a73d 9927 afbe 95e5 38be
000000b0: fbfa 02be c5a5 eabc fbd0 7a3e 507c 953e
000000c0: c6be 01be 9789 c3bd 3628 203e eb5c 98be
000000d0: 162d d9bd 4e03 6ebe d7e4 67be bb5f aebd
000000e0: 32d8 afbd efef 983d cf2b 583d e680 7bbd
000000f0: cbc6 9f3d 4333 6d3d b654 103c 48e1 03be
00000100: 6d03 103e 5aa4 ce3e b44a 083e 8b1f f53d
00000110: 16d7 803d ec10 843d 587f 253c cd20 6cbe
00000120: ca3f 0f3e 9efd f9bd 2434 8fbb 86b2 6d3c
00000130: 6bd2 be3d 9ccc 99be 641e e8bc b6f9 093c
00000140: 2eb9 2f3e ff0d 3bbd 3d61 2a3d 901e acbd
00000150: 93e0 61be 84d7 c43e ea2c 293e bdd0 fcbd
00000160: d3fc 043e 54b5 93be 653b f63c 4b35 f13d
00000170: a99a 853e 1f05 99bd ecda 87be 2fe2 373e
00000180: 293e ab3e c727 633e 03d6 67be 74d9 0a3d
00000190: e165 3b3e 2f39 16bd 5c54 503d d994 e7bc
000001a0: 87f4 413c ae4d c73e d64f babd 7e7b 1f3e
000001b0: ef4c b93d beef 2b3e b66e 78be 7b1f a93d
000001c0: 3baf c83e c507 283d 7d38 d8bd 92e6 5a3e
000001d0: 3356 ca3d ed2e a63d 23aa fbbd eef9 07bf
000001e0: 49cd c2bd 299d 32be c91d 92be ad15 743d
000001f0: 9c04 f43d 88a4 473d 739c 813e e412 063d
00000200: 9324 0a3f 511b 6e3c 082d 36be 07e3 28bc
00000210: c57c 5e3e c10d f53d 05b2 f9bc c74b 263e
00000220: c958 343e 3a94 b8bd 0f55 67be fbd0 73bd
00000230: 2213 65bd 41de 84be 4c06 9abe 6830 a9be
00000240: 2c71 823e d527 acbc 0baa 273d 4add 85be
00000250: a541 223e d149 863e 7d89 87bc 23bd e5be
00000260: 5dcd 363e e9a7 be3d 6eac 323e d043 96be
00000270: dd38 7f3d a9f4 0a3b d524 90bd bc3a f2bd
00000280: 8708 61be 1db9 c7be 9d51 efbd f997 713d
00000290: ded9 8a3c 4442 603e a331 9e3b c4d1 173e
000002a0: d9e2 b73d 91e1 053e 0653 87bd 0f1a 963d
000002b0: 95c8 60bd fb51 623d 08d4 11be ccf4 013e
000002c0: a53d d63d 6aa6 9d3e 5a31 2b3e 5131 d33e
000002d0: 5970 26be 3e67 683e 9569 923d 7baa 51be
000002e0: e752 5bbe b6e6 96be a367 ffbd b217 a1bd
000002f0: 5821 f73d 38b5 72be 80b4 9d39 efe4 2cbe
00000300: 79a8 fc3e 0ced 33be f719 d8bd a60a cdbe
00000310: e8d5 e5bc 4b7a 5b3c e6d2 87be e8ea 7abc
00000320: 0f93 ed3e d2f2 683d 05d9 a4bd 71be 69be
00000330: 2d42 9bbe 1f85 df3d 6b5d 0cbf 2611 8ebe
00000340: d7e4 5abe 4d64 923e 5cab b2be 09f7 d4be
00000350: d1db 84be 7921 a53e ee5a 853d a94d 04bf
00000360: f5ec fdbc 070b 8ebe daf9 3f3d 63b1 ecbd
00000370: 58c9 15bd 6414 2f3e 70fc 05be d6aa 163e
00000380: fdf5 273e 0eca 8d3d 418e adbd 1cc8 e33c
00000390: 2a13 de3d 939a acbe 8371 81be 8b45 173e
000003a0: ef09 45bd bf3b da3d b6e4 ae3d 6bb0 9a3d
000003b0: 7b94 b83e ec8a e8bc 53fc c03e ee1d 1ebe
000003c0: 1a92 97bd 6349 d6bc b5c7 6f3d 42e2 65be
000003d0: c471 f6be 09e8 cfbd b4ab 2e3e 8966 ac3e
000003e0: 367f 6b3e 8ff9 3d3e 2205 92be 1ee8 c9bd
000003f0: 89aa 5ebe 1cba 33be 25d2 b33e 288a 4c3d
-0.26797312 0.07242871 0.159098 0.13979974 0.17532995 -0.08825001 0.17747575 0.27583414
0.12158019 0.040103413 0.23274627 -0.033650998 0.057131104 0.03918363 0.29556036 -0.017927425
0.26079014 0.19803555 -0.019847432 0.08582927 0.24918102 -0.22221823 0.25299472 0.7273017
0.087411806 0.15704113 0.007658162 -0.15209202 -0.03710851 -0.16045713 0.014649536 -0.10398556
0.12727858 0.023222366 -0.051264636 -0.052794944 0.19901228 0.17668512 -0.47318086 0.118552566
-0.03636817 0.08195427 -0.34209898 -0.18056329 -0.12791054 -0.028643498 0.24493782 0.29196405
-0.1267043 -0.095477276 0.1564034 -0.2975839 -0.106043026 -0.23243448 -0.22645889 -0.08514353
-0.08586158 0.07467639 0.052776154 -0.061402224 0.078015886 0.057910215 0.008809259 -0.12878907
0.14063807 0.40359765 0.13309747 0.11968907 0.062910244 0.0644854 0.010101162 -0.23059388
0.13989177 -0.12206577 -0.0043702293 0.014507895 0.09317478 -0.30038917 -0.028334804 0.008421352
0.17160484 -0.045667645 0.04159664 -0.08404267 -0.22058325 0.38445675 0.1652104 -0.12344501
0.1298707 -0.2884928 0.030057618 0.11777743 0.2609456 -0.0747168 -0.26534212 0.17957376
0.33445862 0.22183143 -0.22640233 0.033898786 0.18300582 -0.03667563 0.0508617 -0.028269218
0.011838085 0.38926452 -0.09097259 0.15574452 0.09047877 0.16790673 -0.24260983 0.082579575
0.3919619 0.041023035 -0.10557649 0.21377018 0.098797224 0.08114419 -0.122883104 -0.5311574
-0.09511811 -0.17442764 -0.2853835 0.059590984 0.11914942 0.048740894 0.25314674 0.03273286
0.5396206 0.01453288 -0.17790616 -0.010308034 0.21727283 0.11965514 -0.030480394 0.16239844
0.17611994 -0.09012647 -0.22591041 -0.05952547 -0.05592645 -0.25950816 -0.3008293 -0.33044744
0.25476968 -0.021015087 0.04093365 -0.26145393 0.15845354 0.26228192 -0.016545052 -0.44870862
0.17851777 0.0930937 0.17448589 -0.29348612 0.06231009 0.0021202958 -0.07038275 -0.11827609
-0.21975909 -0.39008418 -0.116854884 0.058982823 0.01694959 0.21900278 0.0048276945 0.14826113
0.08978815 0.13074328 -0.06607632 0.07329189 -0.05487879 0.055253964 -0.1424104 0.12691039
0.104609765 0.30791026 0.16718045 0.41248563 -0.16253795 0.22695634 0.071490444 -0.2047519
-0.21418343 -0.29472893 -0.12470939 -0.07865848 0.12066907 -0.23701942 0.00030079857 -0.16884206
0.49347284 -0.17570895 -0.105518274 -0.40047187 -0.0280561 0.013395856 -0.2652809 -0.015314795
0.4640126 0.056872196 -0.08049206 -0.22826554 -0.30323926 0.10914063 -0.54830045 -0.27747458
-0.21376358 0.28592148 -0.34896362 -0.41594723 -0.25948957 0.322521 0.06511484 -0.51681
-0.030996779 -0.27742788 0.046869136 -0.11557271 -0.03656897 0.17097622 -0.13084579 0.14713606
0.16402431 0.069233045 -0.084743984 0.02780538 0.10843499 -0.3371168 -0.25281915 0.14772622
-0.048105177 0.10655927 0.08539717 0.0755318 0.36050782 -0.028386556 0.37692508 -0.15441105
-0.074009135 -0.02615804 0.058540065 -0.22449592 -0.4813367 -0.10151679 0.17057687 0.33671978
0.22997746 0.1855223 -0.2851954 -0.09858726 -0.21744741 -0.17551464 0.35121265 0.049936444

actor.init_next_embed.2.add_bias._bias f4 [64, 1]
00000000: e637 f73d 4763 9dbe 16db 383e ab17 753e
00000010: 8854 62be 3830 2c3e 7e6f f3be 0da5 603e
00000020: 6936 41be 9f16 ccbc c53e 28be 83e9 aabe
00000030: a526 363e ecb1 7dbd 0f23 89be 4aa2 fe3d
00000040: 4afe eb3e 685f 193f 1a20 23bf 3ed9 cabe
00000050: 83d5 39be 4440 dbb8 608f 943d 95c7 02bc
00000060: 4afd 803d b10d 32bf 5092 66be c0e7 a33e
00000070: 9bd4 873d 95e4 ebbe 0644 77be fa9f 1a3f
00000080: 7603 dd3e c58d 0d3e 8e0c 1f3f 3dda a83e
00000090: 0762 633d 3243 b03e f515 30bf 93b3 093f
000000a0: 1d5b 0fbf ecfa 1abf b182 fabe 4467 833d
000000b0: 1a70 c5be f9be 87bf 1160 e3be c484 013f
000000c0: 47f5 963c 31f5 dbbe 3bf3 82bf aec6 50bf
000000d0: 70f3 c83d 4054 603e 2475 8ebd cc95 94bd
000000e0: 37fb 3ebf 4c99 92be 61a9 5fbe 9fe3 833e
000000f0: ef66 fc3e 7ac8 b3be 673e c23e f3a8 633f
0.12071209 -0.30739805 0.18052325 0.2393481 -0.22102559 0.16815269 -0.47546 0.21937962
-0.18868412 -0.02491313 -0.16430195 -0.3338128 0.17788179 -0.061937258 -0.2678456 0.12433298
0.46092445 0.59911203 -0.6372086 -0.39618868 -0.18147855 -0.00010454704 0.07253909 -0.007982154
0.06298311 -0.6955214 -0.22516751 0.3201275 0.06632348 -0.46072832 -0.24147043 0.60400355
0.43166703 0.13823612 0.6212853 0.32979003 0.055513408 0.34426266 -0.68783504 0.53789634
-0.559984 -0.60539126 -0.48927835 0.06416181 -0.3856209 -1.0605155 -0.4440923 0.5059321
0.018427504 -0.42960504 -1.0230478 -0.8155316 0.09812057 0.21907139 -0.069559366 -0.07255134
-0.74602073 -0.2863258 -0.21841957 0.257596 0.49297282 -0.3511389 0.37938234 0.8892967

actor.embedder.layers.0.0.module.W_query.weight f4 [64, 64]
00000000: aa0e 33be 6c51 9a3d 4358 c5bd 07ba edbd
00000010: 2cb3 1bbe fd4a a1bd 0ac1 edbd b48f d73c
00000020: c70a 31bd 06eb 50bd ec22 d63d 4a18 57bc
00000030: b123 753d 4fc5 8f3d 1f4c c13d d0c6 fb3b
00000040: eb33 d7bd b5eb ac3c 8adf f53c 2a9e 0a3e
00000050: b138 cebc 24c0 31bc 6012 84bd ffd1 44be
00000060: 408b 7bbc a88a 7fbd 2080 fd3c 6f67 d2bd
00000070: a7d0 babd 565a 033e abf8 42be 7669 593d
00000080: c0aa 113e 4799 09be 154b c7bd 707c f1ba
00000090: 5f86 c6bd 491e a53d 523a 0e3d 7121 e33c
000000a0: cec9 4d3e aba9 ddbd bdd1 32be f4de 71be
000000b0: c43a 3c3d a679 53be 51e1 043e 062a 003d
000000c0: ffc1 cf3d 2e0c 4abd cecd 66be 0bb2 7abd
000000d0: 4781 0fbe 4f48 98bd d9ff 31bd db70 873b
000000e0: 00bd 83be a37a bfbd cdcf f4bd 06b6 f93d
000000f0: 9f31 1dbe e461 3d3d dcd0 063e 07c9 c23d
00000100: 235d 953d 10fb c93d deae 2abd c45a 223d
00000110: 6bc4 b8bc d7ac d73d 047d 773d befd b23d
00000120: c430 f63d 009c adbd 24ac b3bd 4413 373d
00000130: 6f2e 133d ca39 f4bd f544 833d 0226 40bd
00000140: c0dd 203d 8482 993c 0fd4 b2bd e589 823d
00000150: 7768 f13c fa34 9e3d aa81 f03d b87a 08bd
00000160: bd04 203d fdf8 05be a9d6 883d edc3 d9bd
00000170: 95e2 c43d 8aaf d0bd 73d1 123e abf5 7c3d
00000180: 99d9 fbbd 12ca af3c 7184 493d 2f06 03bd
00000190: 1718 8fbd 96ff 87bd e24c 9dbd 928a 93bb
000001a0: 130f a93d 78ba 90bc dc0f c83b 8ee9 5b3d
000001b0: c91d 7e3d 05e7 9c3d f774 01bc f486 afbc
000001c0: 9447 a8bd ec77 f83d 3ff7 8f3d d520 2e3d
000001d0: 0085 343c 1f7e b7bd 3fa5 31be a83f 583d
000001e0: 5b01 843d 4be5 243e c2d5 c43d d5f1 6fbd
000001f0: 1a78 d33d adee 00bd 672a 16be 2c5a 633d
00000200: 34a6 5abd 9e46 fa3d aa34 073e 8c6c 2bbd
00000210: 9c90 88bc e141 d13d 6bae 14be 262a 833d
00000220: bdde 3f3d e754 2e3d dbcc 93bd 4a76 0d3e
00000230: 5e99 91bd 846d 823d 7831 c1bd 5ecb 01be
00000240: 5b90 2cbc 3ac9 9e3b d5b0 b1bd dede ddbd
00000250: 137f a03d c645 2e3d 5ac4 30bd aed6 1a3a
00000260: 67b0 e63b d9ee f33d 1822 11bd b731 c1bc
00000270: 85f6 9f3d c0f9 bdbc 6cd5 433d bf52 953c
00000280: 3669 f73d 77a8 d23c c491 023d 4192 7f3d
00000290: 2531 ebbc 7012 d23d 9352 8ebd 5496 90bd
000002a0: 3520 d8bd d778 8e3d d277 e73d c8ee fbbd
000002b0: 8253 91bd b7e5 97bd d8c6 aabc 7eff 4e3c
000002c0: f693 02bd 6e49 b0bb 40ba 6bbd 3462 ba3d
000002d0: 83a7 8abd 2936 4d3d 7368 32bd 87c0 54bd
000002e0: b7a3 083e 8682 47bd f814 41bc a380 cd3d
000002f0: 17b1 fa3d d158 8abd 7178 a33d 7f09 f23d
00000300: 04bb 403d 8b4a fa3d 2036 2b3d a428 113e
00000310: b6fa 04bd 3dae adbd 0e07 e2bd 8ccc d5bd
00000320: 09ee 46bd 22fb c4bd e348 1bbe dd8f 49bd
00000330: 0cd5 4ebd d73d ee3c a187 e03d 6dd7 163d
00000340: 3bfa 4ebc eba3 c23d 34a4 02bd d69a 8dbd
00000350: 004a 8d3d 604a 3f3d 659f cb3b 4607 b03d
00000360: 586e 39bd d2c9 883d ea0b f4bd 886c 91bd
00000370: 28f3 463e 4184 a33d 0edb e4bd 7589 123e
00000380: 2c8b 693e a149 9abd e1a1 b93c 24e8 e13d
00000390: 41b2 a63d 30da c63d c4ef 0c3d b1d6 e7bd
000003a0: 6ac0 113e 3abd 8c3c f99d 5f3c b59f 973d
000003b0: 88ec fabd 231d 94bd af69 253d 78a8 00be
000003c0: b155 a23d 6c07 f83c 2fb1 e3bd a36e 153c
000003d0: 4916 e5bd 1762 a13d 5875 05bc dbc8 523c
000003e0: dace bdbd 008a 273c ce4f 543d a992 9bbc
000003f0: 3780 77bd 502d 8bbc b393 723d 9466 ae3d
-0.17486063 0.07535061 -0.09635975 -0.116077475 -0.15205067 -0.07875631 -0.11609085 0.02631364
-0.04322317 -0.051005386 0.104558796 -0.01312835 0.05984849 0.070200555 0.09438347 0.0076836124
-0.105079494 0.021108488 0.030013818 0.13536897 -0.025173517 -0.010849033 -0.06448817 -0.19220732
-0.015353024 -0.062388092 0.030944884 -0.10273635 -0.091218285 0.12827429 -0.19040172 0.05307909
0.14225292 -0.13437377 -0.09731118 -0.0018423926 -0.09693598 0.08062417 0.034723587 0.027725907
0.20096514 -0.10823377 -0.17462821 -0.23620206 0.04595448 -0.20651874 0.12976576 0.031290077
0.10144424 -0.04932802 -0.22539446 -0.06120495 -0.14014159 -0.07435667 -0.043456886 0.0041333265
-0.25730133 -0.09349563 -0.11953697 0.12192921 -0.1535096 0.046235934 0.13165611 0.09510999
0.07293155 0.098623395 -0.041670673 0.039637342 -0.022554597 0.105310135 0.06042196 0.08739804
0.1202102 -0.0847702 -0.087730676 0.044696108 0.035932954 -0.11925085 0.06409637 -0.046911247
0.039273977 0.018738993 -0.08731853 0.063739575 0.029468758 0.07724948 0.117434815 -0.03332016
0.03906702 -0.13083263 0.06681568 -0.10633073 0.096135296 -0.101897314 0.14337711 0.061757725
-0.12297363 0.02145866 0.04919857 -0.03198832 -0.06987017 -0.06640546 -0.0768068 -0.004502603
0.08254828 -0.01766704 0.006105406 0.053689532 0.062040124 0.07661251 -0.007901422 -0.021426655
-0.082167774 0.12132248 0.0702958 0.04251178 0.011018038 -0.089596026 -0.17348193 0.052795082
0.06445571 0.16103093 0.096110836 -0.05858024 0.10325642 -0.03147762 -0.14664613 0.055505916
-0.05338116 0.122205004 0.13203683 -0.041851565 -0.016670518 0.102176435 -0.1451966 0.064045236
0.04684328 0.042561438 -0.072168075 0.13814655 -0.071093306 0.06368545 -0.094332635 -0.12675235
-0.010532464 0.0048457654 -0.08676306 -0.10833524 0.078367375 0.04254701 -0.043156005 0.00059066236
0.0070400718 0.11910791 -0.035432905 -0.023583276 0.07810692 -0.02319038 0.047810957 0.018227933
0.12080614 0.025715096 0.031877294 0.062395338 -0.028709957 0.10257423 -0.069493435 -0.07059923
-0.10553018 0.06956642 0.11302151 -0.12301403 -0.07096006 -0.074168615 -0.02084677 0.012634156
-0.031879388 -0.0053798473 -0.05755067 0.09100762 -0.067702316 0.05010048 -0.04355664 -0.05194142
0.13343702 -0.04870846 -0.0117847845 0.10034301 0.122408085 -0.06755222 0.07981957 0.118182175
0.047053352 0.12221249 0.041799664 0.1417566 -0.03246566 -0.08480499 -0.11036502 -0.10439405
-0.04856685 -0.09618212 -0.15164523 -0.049209464 -0.050496146 0.029082222 0.10963369 0.03682654
-0.012632902 0.09503921 -0.031894878 -0.06914298 0.0689888 0.04670179 0.0062140697 0.08595137
-0.045271248 0.06679119 -0.11916335 -0.07100779 0.19428694 0.0798421 -0.11174594 0.14310248
0.22806996 -0.07533575 0.022660198 0.110306054 0.08139468 0.09709585 0.034408346 -0.11320246
0.14233556 0.017180074 0.013648503 0.074035086 -0.12252146 -0.0723212 0.04038399 -0.12564266
0.079265006 0.030276977 -0.111177795 0.009120616 -0.11185891 0.07880037 -0.008145653 0.0128652705
-0.092679694 0.010225773 0.05183392 -0.018990831 -0.06042501 -0.01698938 0.05922289 0.08515659
