pretrained_models/experiment/Discrete_acktr_10x10x10Bin_s42_inh_800_defaultBox-2022.08.19-23-47-51/PCT-Discrete_acktr_10x10x10Bin_s42_inh_800_defaultBox-2022.08.19-23-47-51_2022.08.20-05-40-12.pt (torch, 236314 bytes, 24 tensors)

actor.init_internal_node_embed.0.module.weight f4 [32, 6]
0	0xbd958f58	-0.07302731
1	0x3e5a1005	0.21295173
2	0xbd348108	-0.044068366
3	0xbe8ad21f	-0.27113435
4	0x3e358659	0.17727031
5	0xbe15ebca	-0.14640728
6	0x3ecbbeae	0.39793915
7	0x3ed10f66	0.4083206
8	0xbe9a5587	-0.30143377
9	0xbe931559	-0.28727224
10	0xbe92c00e	-0.2866215
11	0xbdfc6fb0	-0.1232599
12	0x3e050d2b	0.12993304
13	0x3dc235ea	0.094829395
14	0xbe39386c	-0.1808793
15	0x3e5d3d89	0.21605505
16	0xbea92ab5	-0.33040395
17	0xbdf82180	-0.121157646
18	0xbdfe1f10	-0.124082685
19	0x3c3516a3	0.01105276
20	0xbee86e11	-0.45396474
21	0x3ea47fd4	0.32128775
22	0x3e5d9c7a	0.21641722
23	0x3f02a3d2	0.5103122
24	0x3f04fb8e	0.5194634
25	0x3c4e3b96	0.012587449
26	0x3f04864b	0.51767415
27	0x3ec04a08	0.3755648
28	0x3e13d597	0.14436947
29	0x3c07e24f	0.008293702
30	0x3e04c391	0.12965228
31	0x3dab1874	0.083542734
32	0xbe68765c	-0.227014
33	0x3e131a5e	0.14365527
34	0xbf07c480	-0.5303421
35	0xbf042de7	-0.5163254
36	0xbf518f2a	-0.81859076
37	0x3f4a2579	0.7896343
38	0x3ebbee85	0.36705413
39	0x3f51aa68	0.81900644
40	0xbf5be2bd	-0.8589285
41	0xbda97b1f	-0.082754366
42	0x3eb50867	0.35357973
43	0xbebfb79e	-0.37444776
44	0x3f927a02	1.1443484
45	0xbe75ee2a	-0.24016634
46	0xbd80a29e	-0.06281017
47	0xbeda6c36	-0.42660683
48	0xbf28aeeb	-0.65891904
49	0xbec01d96	-0.37522572
50	0xbee2f049	-0.44323948
51	0x3ee8cd9c	0.45469368
52	0x3f0c6c16	0.54852426
53	0x3cc8da60	0.024518192
54	0x3f441b29	0.76603943
55	0x3e12cdbf	0.14336298
56	0xbf0d15a3	-0.5511114
57	0x3efe67b9	0.4968851
58	0x3e5ed8c8	0.21762383
59	0xb870cf4b	-5.7413516e-05
60	0x3d04882d	0.03235643
61	0x3ef0916b	0.46985945
62	0xbea5dd54	-0.32395422
63	0x3cbb13c2	0.02283657
64	0x3dba865a	0.09107657
65	0xbeb2bd67	-0.34910128
66	0xbe415549	-0.1888019
67	0x3e611b68	0.21983111
68	0xbd9bb0d1	-0.076020844
69	0xbe8ecfda	-0.27892953
70	0xbdec5a8d	-0.11540709
71	0xbe974116	-0.29541844
72	0x3e816770	0.2527423
73	0xbeff0274	-0.4980656
74	0xbd008cb1	-0.031384174
75	0x3eb1e823	0.3474742
76	0x3cb736c0	0.022364974
77	0xbe27b269	-0.16376652
78	0x3f3956f7	0.7239832
79	0x3eead8ca	0.45868522
80	0xbe3f2712	-0.18667248
81	0xbef7d3fe	-0.48403925
82	0x3e2e6785	0.17031677
83	0xbcc9bec4	-0.024627097
84	0xbe545b43	-0.20737939
85	0xbd2aac23	-0.04166807
86	0xbec04422	-0.3755198
87	0x3e1cef3a	0.15325633
88	0x3ec5b67e	0.38615793
89	0xbef31f43	-0.47484788
90	0xbe06f56c	-0.13179559
91	0xbec026be	-0.37529558
92	0xbde8192b	-0.113329254
93	0x3e1962e1	0.14979126
94	0x3eb5879d	0.35455027
95	0xbee7cc08	-0.4527285
96	0x3eaf6ee8	0.34264302
97	0xbe0d49e5	-0.1379772
98	0x3f77a554	0.96736646
99	0xbf31f4f5	-0.695144
100	0x3e8c522f	0.2740645
101	0xbe431909	-0.19052519
102	0xbd3ea6b8	-0.046545714
103	0x3e8c8605	0.27446
104	0xbd836b4d	-0.064169504
105	0x3e23eca0	0.16008234
106	0xbf086511	-0.53279215
107	0xbeaba726	-0.33525962
108	0xbbfd5bc2	-0.0077318856
109	0xbd4963ff	-0.04916763
110	0xbf35139f	-0.70733064
111	0xbd0845a4	-0.03326954
112	0x3bbbae0d	0.0057275356
113	0x3e5d4d11	0.2161143
114	0x3eaa28ae	0.3323416
115	0xbef6db89	-0.48214367
116	0xbb7c29be	-0.0038477029
117	0xbed71140	-0.42005348
118	0x3e7c8f07	0.24663936
119	0x3ea2255c	0.31669128
120	0x3e912f92	0.28356606
121	0x3f398d93	0.7248165
122	0x3e21350b	0.1574289
123	0x3f0502a5	0.5195716
124	0x3e508b27	0.20365582
125	0xbf3a8719	-0.7286239
126	0xbe4a660b	-0.19765489
127	0xbdaa8d3f	-0.08327722
128	0xbe1ffe04	-0.15624243
129	0x3d9f7757	0.07786434
130	0xbdb46245	-0.08807806
131	0xbec64f64	-0.38732445
132	0xbf1722b1	-0.5903731
133	0xbf0cf5a5	-0.55062324
134	0xbe689c61	-0.22715904
135	0x3f104ed9	0.5637031
136	0x3e91c309	0.28469113
137	0x3e1e9d06	0.15489587
138	0x3b25548d	0.0025227398
139	0x3d87de4c	0.06634197
140	0xbf7d7518	-0.99006796
141	0xbe0b3ce5	-0.13597448
142	0xbeab1b89	-0.33419445
143	0x3f35b86d	0.70984536
144	0xbe4afae6	-0.19822273
145	0xbe2dcacc	-0.16971892
146	0x3f275303	0.6536104
147	0x3df4ce60	0.119534254
148	0x3b0d2148	0.002153473
149	0x3d9f49e2	0.07777764
150	0x3e1771e8	0.14789546
151	0x3e5116d8	0.2041887
152	0x3e9a1c9d	0.30099955
153	0xbed39ef5	-0.41332212
154	0xbede922c	-0.43470895
155	0x3f1711d0	0.59011555
156	0xbe41fae8	-0.1894337
157	0x3ea7d1dc	0.32777297
158	0x3d43bcaf	0.047787365
159	0x3e84c1fe	0.25929254
160	0x3e767c61	0.24070884
161	0xbef3f489	-0.47647503
162	0xbdd1424b	-0.102177225
163	0x3e651af4	0.22373563
164	0x3f285439	0.65753514
165	0xbeb050c8	-0.3443663
166	0x3dd2e3d1	0.10297359
167	0x3df02c2c	0.11727175
168	0xbe7c517e	-0.24640462
169	0xbf18a47b	-0.5962598
170	0x3d46aab9	0.048502658
171	0x3d341cd1	0.043972794
172	0xbcc5cfcc	-0.024146937
173	0xbe27419d	-0.16333623
174	0xbed13f1f	-0.4086847
175	0x3d7d4ad9	0.06183896
176	0x3e5c39a0	0.21506357
177	0xbddd4774	-0.10804644
178	0x3e591e88	0.21203053
179	0xbdcc60e8	-0.09979421
180	0x3e1b176d	0.15145655
181	0x3dee5331	0.11636961
182	0xbbcb07a4	-0.006195979
183	0x3c89c5c1	0.01681793
184	0xbdb82e89	-0.08993251
185	0xbea08611	-0.31352285
186	0x3ee82c45	0.45346275
187	0x3e75a82b	0.23989932
188	0xbf278d8f	-0.65450376
189	0xbea05c07	-0.3132021
190	0xbe463f2f	-0.1936004
191	0x3e8cc2d3	0.2749239

actor.init_internal_node_embed.0.add_bias._bias f4 [32, 1]
0	0xbb5b03aa	-0.0033418932
1	0x3b635a18	0.0034691151
2	0xbc00651b	-0.007836605
3	0x3d347b44	0.044062868
4	0x3dc1bf85	0.094603576
5	0x3b577b31	0.0032879824
6	0xbc91f918	-0.017818972
7	0xbb0cc835	-0.0021481637
8	0x3c3204ef	0.010865434
9	0x3de1ef6c	0.11031994
10	0x3d186a68	0.037210852
11	0x3c8f2e7d	0.017478222
12	0x3c9fa222	0.01948649
13	0x3c6a7d69	0.014312127
14	0xbc2b6b59	-0.010462605
15	0xbc4fdac8	-0.012686439
16	0x3b03f5e5	0.0020135578
17	0x3b78b418	0.003794914
18	0xbba72394	-0.005100677
19	0x3c93b292	0.018029485
20	0x3cc19ccd	0.023634339
21	0xbd098339	-0.03357241
22	0x3c46dd93	0.012137788
23	0x3c243543	0.010022464
24	0x3d6afd9a	0.05737076
25	0x3b937046	0.004499468
26	0xbb3ff932	-0.002929282
27	0xbba0a48c	-0.004902428
28	0xbcef5b96	-0.029218476
29	0xbbd9d2f3	-0.0066474616
30	0xbc7d664d	-0.015466285
31	0xbb692b4a	-0.003557878

actor.init_internal_node_embed.2.module.weight f4 [64, 32]
0	0xbe8f0c44	-0.27939045
1	0x3e083a50	0.13303494
2	0xbd5de424	-0.05417265
3	0x3ebd184f	0.36932608
4	0x3f930d97	1.1488522
5	0x3d4b62c3	0.049654733
6	0x3e597824	0.21237236
7	0x3dc0abc3	0.09407761
8	0xbed5b046	-0.41736048
9	0xbe8f64eb	-0.28006682
10	0xbf216ed5	-0.6305974
11	0x3e24473a	0.16042796
12	0xbe8458e9	-0.25849083
13	0xbe688f30	-0.22710872
14	0x3d1ec385	0.03876068
15	0xbe5f28a1	-0.21792842
16	0x3eae29cb	0.3401626
17	0xbd03eda5	-0.032209057
18	0xbdd0e49d	-0.101998545
19	0x3e47fe08	0.19530499
20	0xbe417a8e	-0.18894407
21	0xbe1457ca	-0.14486614
22	0xbe81a25f	-0.25319192
23	0xbef2b224	-0.47401536
24	0xbce98108	-0.02850391
25	0x3e9568ed	0.29181615
26	0xbddcb002	-0.10775758
27	0x3f44fb9d	0.7694643
28	0xbd94b6f5	-0.07261459
29	0xbe506bba	-0.20353594
30	0xbe81cd96	-0.25352162
31	0xbe0fd4d5	-0.14046033
32	0xbd102f9f	-0.035201665
33	0xbec77320	-0.3895502
34	0xbe927a3a	-0.28608876
35	0xbe298b3f	-0.16557024
36	0xbdd0f2ce	-0.10202561
37	0x3e5204f1	0.20509697
38	0xbddba8f2	-0.10725583
39	0x3ef850f7	0.4849927
40	0xbe5c2a9f	-0.21500634
41	0xbe5577c0	-0.20846462
42	0x3eae57eb	0.3405145
43	0xbe9f665e	-0.31132787
44	0xbe4f4339	-0.20240487
45	0x3d0fd0cb	0.03511123
46	0x3d9d7a8c	0.076893896
47	0x3e8e84c3	0.27835664
48	0xbdea5258	-0.11441487
49	0xbdcfa451	-0.10138763
50	0xbe1a9e07	-0.15099345
51	0xbe056515	-0.13026841
52	0x3e90e75e	0.2830152
53	0x3d052063	0.03250159
54	0x3ecc7041	0.39929393
55	0xbe80f60e	-0.25187725
56	0x3e481045	0.19537456
57	0xbc3a66d7	-0.011377058
58	0xbc0afc69	-0.008483031
59	0x3d006473	0.031345796
60	0xbe8a583c	-0.27020442
61	0x3ddc57d2	0.10758938
62	0x3f18793d	0.59559995
63	0xbb82849d	-0.003983094
64	0x3ecc6ac0	0.39925194
65	0xbe16d43c	-0.14729398
66	0xbd91dd77	-0.07122319
67	0x3f0de87c	0.5543287
68	0x3e534a36	0.20633778
69	0x3e858d8c	0.26084554
70	0xbebe5c61	-0.37179855
71	0xbe6ab2b0	-0.22919726
72	0x3f0e37b8	0.5555377
73	0x3def4f43	0.1168504
74	0xbed6777a	-0.41888028
75	0xbe65c211	-0.22437312
76	0x3efe3685	0.4965097
77	0xbea8de3a	-0.32982045
78	0xbddf2657	-0.108959846
79	0xbd2c70c2	-0.04209972
80	0x3e54ca7c	0.20780367
81	0x3deadfed	0.11468492
82	0xbe29eda4	-0.16594559
83	0x3bc193cc	0.0059075113
84	0xbeebb6b6	-0.46037835
85	0x3ceeabdb	0.029134681
86	0x3f0a8ec7	0.5412411
87	0xbe80cbb9	-0.25155428
88	0xbd8da8ea	-0.069169834
89	0xbe0657a3	-0.13119368
90	0xbf27a71c	-0.65489364
91	0x3e81dc91	0.2536359
92	0xbd4f5cca	-0.0506256
93	0x3cf49500	0.029856205
94	0x3e75b677	0.23995386
95	0xbe0dc21d	-0.1384358
96	0x3d41f09f	0.047348615
97	0x3edd43bc	0.4321574
98	0xbdb61380	-0.08890438
99	0x3ee8c308	0.45461297
100	0x3e7d4577	0.2473353
101	0xbe2418bd	-0.16025062
102	0xbe84cafa	-0.2593611
103	0x3e23766d	0.15963145
104	0x3ebbae9c	0.36656654
105	0xbdb831e3	-0.0899389
106	0x3e2da5b5	0.16957743
107	0x3e8e55db	0.27799878
108	0xbeaaf2a1	-0.33388236
109	0x3b79d9fc	0.0038124314
110	0x3dfba48e	0.12287246
111	0xbd91178d	-0.0708457
112	0xbd1eecd1	-0.038800064
113	0xbe61856e	-0.22023556
114	0x3d438165	0.047730822
115	0xbbc503ad	-0.006012401
116	0x3a8a3305	0.001054377
117	0x3cd5ea52	0.02611271
118	0x3eeedef4	0.46654475
119	0x3d6c0bf1	0.057628576
120	0xbe861b7b	-0.2619284
121	0x3e419668	0.18905032
122	0x3ec74830	0.38922262
123	0x3e2ae15e	0.16687533
124	0x3e132a04	0.14371496
125	0x3ea49c88	0.32150674
126	0x3e7b690f	0.24551795
127	0x3daa35a8	0.08311015
128	0xbe8b937b	-0.27260956
129	0x3cf400db	0.029785564
130	0x3e40c449	0.18824877
131	0xbeb124e4	-0.34598458
132	0xbeea6a2a	-0.45784122
133	0x3d134ba9	0.035960827
134	0xbe3076fa	-0.17232886
135	0x3d8e7d19	0.06957454
136	0x3d9ea753	0.07746758
137	0x3f120019	0.570314
138	0x3f1489af	0.5802259
139	0x3d286612	0.041112967
140	0x3cd15062	0.025551025
141	0x3db7db8e	0.089774236
142	0xbce4ed51	-0.027945193
143	0xbd590f37	-0.052993026
144	0x3e4b84f8	0.19874942
145	0x3e0a2eb6	0.13494381
146	0xbdbb4be1	-0.09145332
147	0xbec4bcf8	-0.38425422
148	0x3eb37836	0.3505265
149	0x3d85f95a	0.06541701
150	0xbd601b59	-0.05471358
151	0xbe687955	-0.22702534
152	0xbdc20cb2	-0.09475078
153	0xbcf8e5a5	-0.03038294
154	0x3ee6a8e3	0.45050725
155	0xbe8a4624	-0.27006638
156	0x3e99e697	0.3005874
157	0x3dc6b586	0.097025916
158	0xbe373db1	-0.17894627
159	0xbe40b989	-0.18820776
160	0xbbf2d8f5	-0.007411117
161	0x3dcc24cb	0.09967955
162	0xbe4d5ad0	-0.20054173
163	0x3e936038	0.28784347
164	0x3d77e2c5	0.060519
165	0xbcd96c0b	-0.026540777
166	0x3d8149ea	0.06312926
167	0xbe9ceafa	-0.30648023
168	0x3ed59735	0.41716924
169	0x3e947e4e	0.29002613
170	0x3f18671b	0.59532326
171	0xbced1fbe	-0.0289458
172	0x3ec4128e	0.38295406
173	0xbd652067	-0.055939104
174	0x3ebfc24c	0.37452924
175	0xbb9205a4	-0.004456239
176	0xbd25293c	-0.040322527
177	0xbd503262	-0.0508293
178	0x3e98439c	0.29739082
179	0xbe1d88fd	-0.15384288
180	0x3e88b26b	0.26698622
181	0xbdbb64c1	-0.09150077
182	0x3dfc6782	0.1232443
183	0x3d9f3827	0.07774382
184	0xbca8f430	-0.02062425
185	0xbca3e17e	-0.020004984
186	0x3a3295c4	0.0006812478
187	0xbe9b14b7	-0.30289242
188	0xbcad1dd6	-0.021132391
189	0x3e65271a	0.22378197
190	0x3da67cb0	0.08129251
191	0x3dd548b4	0.10414258
192	0xbe28a540	-0.16469288
193	0xbebdf51d	-0.3710107
194	0xbe0fc462	-0.14039758
195	0x3d9eef9c	0.077605456
196	0xbdd9ed4b	-0.10640963
197	0x3d71e3db	0.05905519
198	0x3ced0a7a	0.02893566
199	0xbe898d6e	-0.26865715
200	0x3de80d64	0.11330679
201	0x3f31de62	0.69479954
202	0xbe3dfb44	-0.18552881
203	0x3e956014	0.29174864
204	0x3e868187	0.26270697
205	0x3db208f0	0.08693111
206	0xbe4b6ca9	-0.1986567
207	0xbcc42252	-0.023942146
208	0xbd6d40c7	-0.057923105
209	0xbe76bd4e	-0.24095652
210	0x3e780c53	0.24223451
211	0x3e869b7a	0.26290494
212	0xbe91c41a	-0.28469926
213	0x3dcf81c0	0.1013217
214	0xbeda015b	-0.4257916
215	0x3f12e236	0.5737642
216	0xbf1e0963	-0.61733073
217	0xbe75a459	-0.23988475
218	0x3ddf88cc	0.10914764
219	0x3cdfb0eb	0.02730604
220	0x3ce7f6d1	0.028315933
221	0x3f03e8d9	0.5152717
222	0xbef5defa	-0.4802168
223	0xbe8cb1a2	-0.27479273
224	0x3edba54a	0.42899543
225	0x3ed800a7	0.42187998
226	0x3e835ed9	0.256583
227	0x3d6f6e0e	0.058454566
228	0x3d7effb7	0.062255587
229	0x3d9757a0	0.0738976
230	0x3f065d33	0.5248596
231	0x3e802da8	0.25034833
232	0xbf173bb2	-0.5907546
233	0xbf3df2a0	-0.7419834
234	0xbed62574	-0.4182545
235	0xbe43d9bd	-0.1912603
236	0x3ed8afa4	0.42321503
237	0xbeaacb6b	-0.3335832
238	0xbe09a814	-0.13443023
239	0x3d853b0e	0.065054044
240	0xbbb4f865	-0.005522775
241	0xbc6cdd59	-0.01445707
242	0x3df74619	0.12073917
243	0x3dba5d3c	0.09099814
244	0xbf60be5a	-0.87790453
245	0xbd50e14d	-0.050996114
246	0x3ee81e8b	0.45335802
247	0x3ecd8ef3	0.40148124
248	0x3f1ccbf2	0.61248696
249	0x3e579419	0.21052589
250	0xbedadeb6	-0.4274804
251	0x3e53bf9b	0.2067856
252	0x3d93de21	0.07220102
253	0x3de842e9	0.11340887
254	0xbea37aa0	-0.31929493
255	0xbe844c97	-0.25839683

actor.init_internal_node_embed.2.add_bias._bias f4 [64, 1]
0	0xbc121224	-0.008915458
1	0xbce8b46a	-0.02840634
2	0x3d8d8cd4	0.069116265
3	0x3cd2fb55	0.02575461
4	0x3bbbc88b	0.0057306937
5	0x3d4b9fb3	0.049712848
6	0xbc1fdc48	-0.009757109
7	0x3cca65e6	0.024706792
8	0xbcdd4725	-0.027011463
9	0xbd54a5b6	-0.051915847
10	0xbc1f06b3	-0.009706187
11	0xbd0894b0	-0.033344924
12	0xbcd56139	-0.026047336
13	0xbd424b3a	-0.047435023
14	0xbd56fb07	-0.052485492
15	0xbb22aa54	-0.0024820762
16	0x3d9101ed	0.070804454
17	0xbc22688f	-0.009912624
18	0xbc9dcd02	-0.019262794
19	0xbd278add	-0.040903915
20	0xbc8c1e8e	-0.017104413
21	0x3cb26015	0.021774331
22	0x3d127901	0.03575993
23	0x3de3249d	0.11090968
24	0x3bc59cb7	0.0060306448
25	0xbd3b7a44	-0.0457709
26	0x3bbf1e7b	0.005832491
27	0x3d66ddfe	0.056364052
28	0x3d3e18fb	0.046410542
29	0xbd2d2071	-0.042267267
30	0x3dca6635	0.09882776
31	0x3b8501da	0.0040590586
32	0xbd0ac642	-0.03388048
33	0xbd6a2122	-0.057160504
34	0xbd59ac57	-0.05314287
35	0xbbd8f00a	-0.0066204118
36	0x3c1a86ca	0.00943155
37	0xbd0467b3	-0.032325458
38	0x3d85cb9f	0.06532978
39	0x3d108683	0.03528453
40	0xbd8111ef	-0.06302249
41	0x3d11efdb	0.035629135
42	0x3d8547eb	0.06507858
43	0x3d2631c0	0.04057479
44	0x3ceb6768	0.028735831
45	0xbd141f65	-0.036162753
46	0x3d2b38c9	0.0418022
47	0x3de3b9aa	0.11119397
48	0xbbb2e052	-0.00545887
49	0x3c453f0e	0.012038959
50	0x3d419cdd	0.047268737
51	0x3d1bd305	0.03804304
52	0xbd2a3be7	-0.041561034
53	0xbd40739a	-0.046985246
54	0xbd446776	-0.04795023
55	0x3da8bb87	0.08238893
56	0x3d2d306e	0.042282514
57	0xbd068c9a	-0.03284893
58	0x3ce12faf	0.027488558
59	0xbca40f60	-0.020026863
60	0xbcbe1fdd	-0.023208553
61	0xbbc2abd2	-0.0059408927
62	0xbc648969	-0.013948777
63	0x3c35fd13	0.011107701

actor.init_leaf_node_embed.0.module.weight f4 [32, 8]
0	0xbe4c47fa	-0.19949332
1	0xbeb06a1d	-0.34455958
2	0x3e509430	0.20369029
3	0x3e44d210	0.19220757
4	0x3cf55655	0.029948393
5	0x3f02dfec	0.5112293
6	0xbeaa8fd6	-0.33312863
7	0xbe9ec33f	-0.31008336
8	0xbee247a4	-0.44195282
9	0xbde93f6b	-0.11389049
10	0x3ecd434c	0.40090406
11	0xbd59d087	-0.053177383
12	0x3e4da66a	0.20083013
13	0xbe586fb8	-0.21136367
14	0x3e7a8d96	0.24468073
15	0xbd580493	-0.052738737
16	0x3ad8bb54	0.001653532
17	0x3ddc2fe0	0.10751319
18	0xbe66b833	-0.22531204
19	0xbcd8118c	-0.026375555
20	0xbe7ddd6c	-0.24791497
21	0xbe82f122	-0.25574595
22	0x3da20166	0.07910423
23	0xbdc565b7	-0.09638541
24	0xbec8f6de	-0.39250845
25	0x3d1ba937	0.038003173
26	0x3e6055b1	0.21907689
27	0xbcd33235	-0.025780777
28	0x3eae8783	0.34087762
29	0x3c9026ff	0.01759672
30	0xbe807c13	-0.2509466
31	0x3c49a0db	0.012306417
32	0x3ca5ed3f	0.02025473
33	0xbf0ea35a	-0.55718005
34	0x3eb7821d	0.35841456
35	0xbdb63863	-0.08897474
36	0xbdc04e88	-0.09389979
37	0x3ca2e7be	0.019885894
38	0xbe2a2d86	-0.16618928
39	0x3e11bb19	0.14231528
40	0xbeb931bf	-0.36170766
41	0xbc703aad	-0.014662427
42	0xbe7c6973	-0.246496
43	0x3e3e088f	0.18557952
44	0xbe2571ac	-0.16156644
45	0x3df9315a	0.12167616
46	0xbe2bc03e	-0.16772553
47	0x3c305a66	0.01076374
48	0xbe8c7166	-0.27430266
49	0x3e5a5e23	0.21324973
50	0xbdbfcb5e	-0.09364961
51	0x3de9b842	0.114120975
52	0xbdb465cc	-0.08808479
53	0xbdc6b71a	-0.097028926
54	0x3d39b39e	0.045337312
55	0x3e272892	0.1632407
56	0x3e4ea753	0.20181017
57	0x3e432ba0	0.1905961
58	0x3ed45c73	0.41476783
59	0xbe02157c	-0.12703508
60	0xbe2b680a	-0.16738907
61	0xbceb0346	-0.028688084
62	0xbf28dfc2	-0.6596643
63	0xbda8287b	-0.08210846
64	0xbd323420	-0.04350674
65	0x3d95703b	0.07296797
66	0x3e59a688	0.21254933
67	0x3d219e37	0.039457526
68	0x3d97b167	0.07406884
69	0x3e9ca81f	0.30597016
70	0x3d572fa0	0.052535653
71	0x3d325c6a	0.043545164
72	0xbefd192f	-0.49433276
73	0xbdfa9701	-0.12235833
74	0x3d8a7722	0.06761004
75	0x3db5b82b	0.08873018
76	0x3eb1c687	0.34721777
77	0xbe5642f3	-0.20923977
78	0xbad75de5	-0.0016431181
79	0xbf045fb9	-0.5170856
80	0xbed08fac	-0.40734613
81	0x3d325c2b	0.04354493
82	0xbeadf47a	-0.33975583
83	0xbe13c115	-0.14429124
84	0x3ef55f4d	0.4792427
85	0x3e8a7696	0.270436
86	0xbe6b215b	-0.22961943
87	0xb9ff5db4	-0.00048707204
88	0x3dffcce4	0.12490252
89	0xbd81333e	-0.06308602
90	0x3e7ea716	0.24868426
91	0xbe8ac926	-0.2710659
92	0xbd9240e9	-0.07141287
93	0xbeb0feb6	-0.3456933
94	0x3ed63eeb	0.41844878
95	0x3c589429	0.013218918
96	0xbe65ef72	-0.22454622
97	0xbe32eb4b	-0.1747257
98	0x3ebe419e	0.37159437
99	0x3ee0006d	0.43750325
100	0x3e81161a	0.25212175
101	0x3dc4521d	0.09585974
102	0x3eaddf4a	0.3395942
103	0x3ede361e	0.43400663
104	0x3e05ce00	0.13066864
105	0x3eb10a56	0.34578198
106	0x3e839367	0.25698397
107	0xbd8f1f1b	-0.06988355
108	0xbf0867a8	-0.53283167
109	0x3b200ba5	0.0024421003
110	0xbd4a4e3f	-0.049391028
111	0xbe6574eb	-0.22407882
112	0x3ee8863a	0.45414907
113	0x3ed490a7	0.4151661
114	0x3dd27382	0.102759376
115	0x3eca2ac7	0.39485762
116	0x3d8cca46	0.06874518
117	0x3d410bf0	0.047130525
118	0x3e0a5020	0.13507128
119	0x3e1de216	0.15418276
120	0x3d5a7129	0.053330574
121	0xbdd3914b	-0.10330447
122	0xbd9f9ac7	-0.07793193
123	0x3e460200	0.193367
124	0xbe2d5248	-0.16925919
125	0x3e9f4eff	0.31114957
126	0x3d2dd38d	0.04243808
127	0x3e31aeab	0.17351787
128	0x3e9a45e0	0.30131435
129	0x3ea5d127	0.32386133
130	0xbdd567fe	-0.104202256
131	0xbede76dd	-0.4345006
132	0x3c5b344c	0.013379168
133	0xbe81f1e7	-0.2537987
134	0xbe6385f7	-0.22219072
135	0x3e2df6ad	0.1698863
136	0xbe9e9b85	-0.30978027
137	0x3e959f80	0.2922325
138	0xbebb4da3	-0.3658267
139	0x3ee48bd6	0.44637936
140	0xbe25546c	-0.16145486
141	0xbdc2dd30	-0.095148444
142	0xbe57f078	-0.21087825
143	0x3e62f2e2	0.22162965
144	0x3d8f828b	0.07007321
145	0x3b48eb48	0.0030657817
146	0xbf131a81	-0.57462317
147	0xbe321cd6	-0.17393813
148	0x3e79ffe4	0.24414021
149	0x3eca0620	0.39457798
150	0x3dbf1158	0.0932948
151	0xbe2351b9	-0.15949143
152	0xbe3da913	-0.18521528
153	0xbd2210e1	-0.03956688
154	0xbeddae6c	-0.43297136
155	0xbdf4b029	-0.119476624
156	0xbe7ecec0	-0.24883556
157	0xbef800c0	-0.48438072
158	0x3e7f3e86	0.24926195
159	0xbd9f62ca	-0.077825144
160	0x3e0d29e9	0.13785519
161	0x3bb9fe8f	0.0056760977
162	0x3e3aa681	0.18227579
163	0x3eec5f54	0.4616648
164	0x3efebc8a	0.4975322
165	0xbdb9a576	-0.09064762
166	0x3e967276	0.29384202
167	0xbd9ca4ad	-0.07648597
168	0xbe8bd9e9	-0.2731469
169	0x3eeae397	0.45876762
170	0x3e169b19	0.14707603
171	0xbe4f8bd4	-0.20268184
172	0x3eb0cb28	0.34529996
173	0xbe8a0039	-0.26953295
174	0xbd2b2cd0	-0.041790783
175	0x3e497a85	0.19675644
176	0x3e22bf1c	0.15893215
177	0xbed41921	-0.41425422
178	0xbe20eb26	-0.15714702
179	0xbeb0d437	-0.34536907
180	0x3ec7d4ae	0.3902945
181	0xbcb20ad8	-0.021733686
182	0x3ee1fd12	0.4413839
183	0x3e6b1c0d	0.2295992
184	0x3da32a05	0.07966999
185	0x3f09b0c6	0.5378536
186	0x3e63e417	0.22254978
187	0xbf1c69d0	-0.6109896
188	0xbe193314	-0.14960891
189	0x3f1f706a	0.62280905
190	0x3e0fddac	0.14049405
191	0x3eca3e11	0.39500478
192	0xbe1ebfbf	-0.15502833
193	0xbe85d81e	-0.26141447
194	0xbe6ba33e	-0.2301149
195	0xbe4f2b84	-0.20231444
196	0x3e38f36c	0.18061608
197	0xbed41543	-0.4142247
198	0xbd9ad55e	-0.07560228
199	0x3f164fca	0.587155
200	0x3e28d531	0.16487576
201	0xbdc2139f	-0.09476399
202	0xbe44bf40	-0.19213581
203	0x3e143208	0.1447221
204	0xbec2fd4e	-0.3808388
205	0xbc6f04c8	-0.014588542
206	0xbba22c9e	-0.0049491664
207	0x3eba25cf	0.3635697
208	0xbe95fc81	-0.29294208
209	0x3e2c0dc8	0.16802132
210	0x3db7f9d2	0.08983196
211	0xbeaf9435	-0.3429276
212	0xbf033930	-0.51259136
213	0xbe80d7d7	-0.25164673
214	0x3ed00bb9	0.40633944
215	0xbe4412b1	-0.19147755
216	0xbe0f45d7	-0.13991486
217	0x3e86a2a3	0.26295957
218	0x3e85bbd4	0.26119864
219	0x3e1afc24	0.15135247
220	0xbdcac3d4	-0.099006325
221	0x3eecd029	0.46252564
222	0x3e9c5c65	0.3053924
223	0xbe43dc15	-0.19126923
224	0x3d62d850	0.055382073
225	0xbc8387b7	-0.016055925
226	0x3ea94250	0.33058405
227	0xbe0f2f94	-0.13982993
228	0xbdf1cde8	-0.118068516
229	0xbef86b74	-0.4851948
230	0xbe763860	-0.24044943
231	0xbdb8e0d6	-0.09027259
232	0x3ea77063	0.32702932
233	0x3e9b6c11	0.30355886
234	0xbe66ae19	-0.2252735
235	0x3e543499	0.2072319
236	0x3efdead1	0.49593213
237	0xbd7f5306	-0.062335037
238	0x3e24cd73	0.16093998
239	0xbeff4f62	-0.49865252
240	0x3d3c70ef	0.04600614
241	0xbebf3540	-0.37345314
242	0xbe3677b9	-0.17819108
243	0xbeafc12d	-0.3432707
244	0xbe8cbff1	-0.2749019
245	0x3eca2e2f	0.3948836
246	0x3da3479b	0.07972642
247	0xbe803a76	-0.25044602
248	0xbee050ab	-0.43811545
249	0x3d5c4f04	0.053786293
250	0xbe5a1340	-0.21296406
251	0xbd1e5a33	-0.03866024
252	0xbe810540	-0.25199318
253	0xbe08fa5a	-0.13376752
254	0x3e8df06b	0.27722487
255	0xbe5503b2	-0.20802191

actor.init_leaf_node_embed.0.add_bias._bias f4 [32, 1]
0	0x3dae0531	0.08497084
1	0x3a84f29b	0.0010143103
2	0xbdc6210d	-0.09674273
3	0x3cde2dcb	0.027121445
4	0x3c6de08a	0.014518866
5	0xbd8ad8f1	-0.067796595
6	0x3d271f21	0.04080117
7	0x3bf2a3a3	0.007404761
8	0xbce73ae5	-0.028226325
9	0x3cb1d3fd	0.02170753
10	0x3c99429b	0.018708518
11	0xbdd000af	-0.101563804
12	0x3e144863	0.14480738
13	0x3c639245	0.013889854
14	0x3dbe26f8	0.092847764
15	0xbcd7fe01	-0.026366236
16	0x3d9eb49c	0.07749292
17	0xbd13ee57	-0.03611597
18	0xbdbb3045	-0.09140066
19	0xbe59f3e5	-0.21284445
20	0xbd46cd30	-0.048535526
21	0x3b0ae621	0.0021194296
22	0x3c27e5ee	0.010247691
23	0xbd4f9fb2	-0.050689407
24	0xbe71d0a9	-0.23614754
25	0xbbeb8efd	-0.0071886764
26	0xbe83706e	-0.25671715
27	0x3da8064e	0.082043275
28	0xbd0b7769	-0.034049425
29	0x3dd7eae2	0.10542847
30	0x3b1c6806	0.0023865714
31	0x3d17cfeb	0.03706352

actor.init_leaf_node_embed.2.module.weight f4 [64, 32]
0	0x3d86eda0	0.06588292
1	0xbe4f7b02	-0.20261768
2	0xbe91870a	-0.2842334
3	0xbd6083a3	-0.05481304
4	0x3e5d1ae8	0.21592295
5	0x3e55f932	0.20895842
6	0x3dbb70b9	0.091523595
7	0xbd704755	-0.058661778
8	0x3e2d7b17	0.16941486
9	0x3e05d8df	0.13071011
10	0x3e8d463e	0.27592653
11	0xbe87b122	-0.2650233
12	0xbe17a429	-0.14808716
13	0x3e09cc78	0.13456905
14	0xbf0f7567	-0.56038517
15	0xbd84c935	-0.0648369
16	0x3e279fef	0.16369604
17	0x3dddc62f	0.10828816
18	0xbe6c8c38	-0.23100364
19	0xbdd2b76c	-0.10288891
20	0x3e1d53b5	0.15363963
21	0xbe83847f	-0.25687024
22	0x3e97715e	0.2957868
23	0x3dca363f	0.09873628
24	0x3d80504b	0.06265315
25	0xbeb0812e	-0.34473556
26	0xbdd3a401	-0.10334016
27	0xbbaf41c8	-0.005348418
28	0x3e0ed2d3	0.1394761
29	0x3d492fb5	0.049117763
30	0xbd343b8a	-0.044002093
31	0xbd351fc6	-0.044219755
32	0xbe013021	-0.12616016
33	0x3e7d2a7c	0.24723238
34	0x3ce97bb8	0.028501377
35	0xbdb37cfd	-0.08764074
36	0x3d26af43	0.040694486
37	0x3e861b80	0.26192856
38	0x3db1687d	0.08662508
39	0xbddc5931	-0.107591994
40	0xbe3c18ac	-0.18368787
41	0xbe6b398b	-0.2297117
42	0x3f0a5258	0.54031897
43	0xbd505913	-0.050866198
44	0xbdf4d517	-0.11954706
45	0x3dfebe8e	0.12438689
46	0x3e07f88f	0.13278411
47	0xbe4ecc34	-0.20195085
48	0xbd953b0b	-0.07286652
49	0xbe53884b	-0.2065746
50	0xbe4f4c4e	-0.20243952
51	0xbe4549a7	-0.19266377
52	0xbd9b1e89	-0.075741835
53	0xbde736bc	-0.11289737
54	0x3d2b9d58	0.0418981
55	0xbe3486e5	-0.17629583
56	0xbeb87e98	-0.36034083
57	0xbe71de49	-0.23619951
58	0x3c816992	0.01579741
59	0x3e511193	0.2041686
60	0xbe8be4ec	-0.2732309
61	0xbdcdc911	-0.10048116
62	0x3e9130ca	0.28357536
63	0x3eb56c17	0.35434029
64	0x3e416f79	0.1889018
65	0xbc507c3a	-0.01272493
66	0xbe00ad1f	-0.1256604
67	0x3dbf4c19	0.09340686
68	0x3dd1bd1c	0.10241148
69	0x3b7386ef	0.0037159284
70	0xbe2119be	-0.15732476
71	0x3cf7baa6	0.030240368
72	0xbecc3564	-0.39884484
73	0xbd0f64be	-0.035008185
74	0xbecea7f3	-0.4036251
75	0xbe347d31	-0.17625882
76	0xbe4f03d5	-0.20216306
77	0x3db2c203	0.08728411
78	0x3e528aab	0.2056071
79	0xbe489f20	-0.19591951
80	0xbdaf7c83	-0.085686706
81	0x3eb5084d	0.35357895
82	0xbe950083	-0.29101953
83	0xbdee63bd	-0.11640117
84	0x3d381416	0.04494103
85	0x3b136d3f	0.0022495536
86	0x3dbc5e61	0.09197689
87	0xbebb185d	-0.36542025
88	0xbc81d8bb	-0.015850415
89	0x3d4bc9b9	0.049752925
90	0xbdbf4865	-0.0933998
91	0xbe456a2c	-0.19278783
92	0xbe497601	-0.19673921
93	0xbd7901ba	-0.060792662
94	0x3db0dd97	0.08636015
95	0x3e1ac9fd	0.15116115
96	0xbdcbe85f	-0.09956431
97	0x3e438be6	0.19096336
98	0x3e48cca6	0.19609317
99	0x3dcac067	0.09899979
100	0x3de743a2	0.11292197
101	0x3db71bb4	0.08940831
102	0xbdfe79e0	-0.124255896
103	0x3e8eb10c	0.2786945
104	0x3e1dd8cd	0.15414734
105	0xbe1905d9	-0.14943637
106	0xbe954f60	-0.2916212
107	0x3e84e0f1	0.25952867
108	0xbe447c8c	-0.19188136
109	0x3db4c74b	0.088270746
110	0xbdafe45e	-0.085884795
111	0x3e0c879e	0.13723609
112	0xbde1089a	-0.10987969
113	0x3e94c2aa	0.29054767
114	0xbeb55096	-0.35413045
115	0xbc10810f	-0.0088198325
116	0x3d50034e	0.0507844
117	0x3c171ada	0.0092227105
118	0xbe6bb656	-0.23018774
119	0x3ef3258f	0.47489592
120	0x3c2b07ac	0.010438841
121	0x3d203f5f	0.039122935
122	0x3e259227	0.16169034
123	0x3e4ee6d9	0.20205249
124	0x3e9962b8	0.2995813
125	0xbd899abf	-0.067189686
126	0x3e06be84	0.13158613
127	0x3e1f3be0	0.15550184
128	0xbd8de45f	-0.06928324
129	0xbdff60f8	-0.12469667
130	0x3d7ce134	0.061738208
131	0x3c6f18e0	0.014593333
132	0x3c903e98	0.017607972
133	0xbf040a8c	-0.51578593
134	0x3e42b055	0.19012578
135	0x3e479f22	0.19494298
136	0x3d6b2696	0.057409845
137	0x3daaf48f	0.08347427
138	0xbe7e4521	-0.24831058
139	0xbeb8f74d	-0.36126176
140	0xbdc2c6e2	-0.0951059
141	0x3e8636fe	0.2621383
142	0x3e508909	0.20364775
143	0xbe90a0c9	-0.2824767
144	0xbeca8be4	-0.39559853
145	0xbeb07469	-0.34463814
146	0x3e81712a	0.2528165
147	0x3ddaed2c	0.10689768
148	0xbe982c11	-0.2972112
149	0x3e84168b	0.2579845
150	0xbc428e01	-0.011874677
151	0x3e83485c	0.25641143
152	0xbde9c20c	-0.11413965
153	0xbcb5d4fa	-0.022196282
154	0xbe252cfe	-0.16130444
155	0x3e8f338f	0.27969024
156	0x3e731a85	0.23740585
157	0xbd3483b7	-0.044070926
158	0x3d9f7585	0.07786087
159	0xbe373d35	-0.17894442
160	0x3e3ae36c	0.18250817
161	0xbd0495a6	-0.03236928
162	0xbe21f973	-0.15817814
163	0xbe185fae	-0.14880249
164	0xbeb02bf2	-0.34408528
165	0xbe7e392c	-0.24826497
166	0x3eb7e852	0.35919434
167	0xbd9abf65	-0.07556037
168	0x3e2edf0f	0.17077278
169	0x3b993c43	0.004676373
170	0xbeb9c3e6	-0.3628227
171	0x3ea047f5	0.313049
172	0x3f0d3585	0.5515979
173	0x3e49d3a0	0.19709635
174	0x3ecda29a	0.40163118
175	0xbe9784db	-0.29593548
176	0x3e4aa2bc	0.1978864
177	0xbec99dc3	-0.39378175
178	0xbec9dd7d	-0.39426795
179	0xbe20f799	-0.15719451
180	0x3da9db02	0.082937256
181	0xbe84736b	-0.25869307
182	0xbe009313	-0.12556104
183	0x3f374ae3	0.71598643
184	0x3d93d8eb	0.07219108
185	0xbe9658fa	-0.2936476
186	0xbd919e1a	-0.071102336
187	0x3e46acbc	0.1940183
188	0xbe1fc7ed	-0.1560361
189	0xbd8e807f	-0.069581024
190	0x3d9ab5d2	0.07554211
191	0xbd351cc4	-0.044216886
192	0x3ec6de84	0.3884164
193	0xbebe45f0	-0.37162733
194	0xbd522952	-0.051308937
195	0xbb183b25	-0.0023228612
196	0xbe923887	-0.28558752
197	0xbdc6a1a0	-0.09698796
198	0x3e1afd7a	0.15135756
199	0x3e868c15	0.2627875
200	0x3d0924bf	0.03348231
201	0xbe374da1	-0.17900707
202	0x3e190650	0.14943814
203	0x3e291e18	0.16515386
204	0xbe4d1e4c	-0.20031089
205	0x3dc501dd	0.09619496
206	0xbd973a04	-0.073841125
207	0x3da7c37d	0.08191583
208	0xbeb201af	-0.3476691
209	0x3f262606	0.6490177
210	0x3f0606d0	0.52354145
211	0x3d6e554f	0.058186825
212	0xbe8ced80	-0.27524948
213	0x3d8f8bbc	0.07009074
214	0xbe0b3d1a	-0.13597527
215	0x3e683120	0.2267499
216	0x3d5af050	0.053451836
217	0x3e9496d4	0.29021323
218	0xbd87d746	-0.06632857
219	0xbd3407eb	-0.043952864
220	0xbe159ccd	-0.14610596
221	0x3e87b4bb	0.26505074
222	0x3d48e90f	0.049050387
223	0xbd28d6ba	-0.041220404
224	0xbde43c8e	-0.111443624
225	0x3dcc808d	0.099854566
226	0xbe010294	-0.1259864
227	0xbe7ca42b	-0.24672
228	0xbc227df6	-0.009917727
229	0xbda3a278	-0.07989973
230	0xbe869b15	-0.26290193
231	0xbf248cad	-0.64277154
232	0x3de7278f	0.11286842
233	0xbe1c3dfe	-0.15258023
234	0x3e02b26d	0.12763377
235	0x39253eec	0.00015759066
236	0x3e19b1e0	0.1500926
237	0x3d10240b	0.035190623
238	0xbda57450	-0.080788255
239	0x3dc4ae46	0.096035525
240	0xbe756841	-0.23965551
241	0xbe9342f4	-0.2876202
242	0xbf23241b	-0.6372697
243	0xbe366596	-0.1781219
244	0x3df8d427	0.1214984
245	0x3ee638cf	0.44965217
246	0x3ddeb09b	0.108735286
247	0xbe6b015d	-0.22949739
248	0xbc8ad086	-0.016945135
249	0x3e6c8c38	0.23100364
250	0x3e59c6ff	0.21267317
251	0x3e493792	0.19650105
252	0xbefa0e19	-0.4883888
253	0x3ea926e0	0.33037472
254	0x3e6eb305	0.23310478
255	0xbe586c71	-0.21135117

actor.init_leaf_node_embed.2.add_bias._bias f4 [64, 1]
0	0xbd81baac	-0.06334433
1	0xbd54b5d5	-0.05193122
2	0x3b4a96f8	0.0030912738
3	0x3c99314e	0.018700268
4	0xbd6f7f60	-0.058471084
5	0x3ea6bcd9	0.32565954
6	0x3da0e436	0.07856028
7	0xbc8b9205	-0.017037401
8	0xbd9a36d6	-0.075299904
9	0x3db2ffc2	0.08740188
10	0xbdbe7ad1	-0.09300769
11	0x3e6fbc9c	0.23411793
12	0xbd66ad8f	-0.056317862
13	0xbe810687	-0.25200292
14	0xbf05f13e	-0.5232123
15	0x3ce2009a	0.027588177
16	0xbd88148c	-0.06644544
17	0x3e1f73af	0.15571474
18	0xbe523763	-0.20528941
19	0xbd1d64a1	-0.038426045
20	0xbe120744	-0.14260584
21	0x3e20b47d	0.15693851
22	0x3e111435	0.14167865
23	0x3e4eae58	0.20183694
24	0xbd41ac0f	-0.04728323
25	0x3e743051	0.23846556
26	0xbe7c44a3	-0.24635558
27	0x3e0f41af	0.139899
28	0xbe1bfb7a	-0.1523265
29	0xbe8de56b	-0.27714095
30	0x3dd5c4aa	0.10437901
31	0xbd2f731e	-0.042834394
32	0xbd89d643	-0.0673032
33	0xbb012e94	-0.00197116
34	0xbe6ac81b	-0.22927897
35	0x3e1a80d2	0.15088204
36	0xbddbfcf8	-0.10741609
37	0xbced719d	-0.02898484
38	0xbdff9809	-0.1248017
39	0xbd88fadc	-0.06688473
40	0xbe481236	-0.19538197
41	0x3b81c558	0.003960293
42	0xbbb33538	-0.0054689907
43	0xbda4d109	-0.08047683
44	0x3d20d560	0.03926599
45	0x3db34cb8	0.08754867
46	0x3d087448	0.03331402
47	0x3e887190	0.2664914
48	0x3c903450	0.01760307
49	0x3dc85d78	0.09783453
50	0x3dee7cf7	0.11644929
51	0xb99eaa0c	-0.00030262803
52	0xbd0a4a0e	-0.03376203
53	0x3e0de185	0.1385556
54	0xbd2cc819	-0.042183015
55	0xbd98c6c8	-0.074597895
56	0xbdf05d08	-0.11736494
57	0xbdb0bcd3	-0.08629765
58	0xbdf6cb5a	-0.12050505
59	0x3e9239f8	0.28559852
60	0x3e2c7ef8	0.1684531
61	0x3c78cfc8	0.015186258
62	0x3e429652	0.19002655
63	0xbe3d2256	-0.1847013

actor.init_next_embed.0.module.weight f4 [32, 6]
0	0xbf5cc63f	-0.8624
1	0x3e2a50d2	0.16632393
2	0xbdab0421	-0.08350397
3	0x3ec1b7e7	0.3783562
4	0x3f833f4b	1.025369
5	0xbf6c8147	-0.9238476
6	0x3ee191c0	0.4405651
7	0x3ea6499a	0.3247803
8	0x3c08bccb	0.008345793
9	0x3e8d71e6	0.2762596
10	0xbe2d95be	-0.16951653
11	0xbde960db	-0.11395427
12	0xbdab88d8	-0.0837571
13	0xbec7c889	-0.39020184
14	0x3e75c4b2	0.24000815
15	0xbf093617	-0.5359816
16	0x3dbe6cae	0.09298073
17	0x3d177ee5	0.03698625
18	0x3fedcc0f	1.8577899
19	0x3f11a812	0.5689708
20	0x3de5af6b	0.11215099
21	0x3ee65e47	0.44993803
22	0x3dcd1686	0.10014062
23	0xbc2c1276	-0.010502448
24	0xbeaacad7	-0.3335788
25	0xbd760fcd	-0.060073663
26	0xbe45cc60	-0.19316244
27	0x3e3ae3d3	0.1825097
28	0x3cb30f4e	0.021857884
29	0xbe410b62	-0.18851998
30	0xbe280382	-0.16407588
31	0x3debed70	0.11519897
32	0x3eead23d	0.45863524
33	0x3daf54d3	0.08561101
34	0xbddcf8b9	-0.107896276
35	0x3cf8849f	0.030336676
36	0x3e433e1d	0.19066663
37	0xbe687a25	-0.22702844
38	0xbcc0a703	-0.023517137
39	0xbea89632	-0.3292709
40	0xbe80add9	-0.25132635
41	0x3e9e5ce4	0.30930245
42	0xbe4ebd10	-0.20189309
43	0xbebb3c5b	-0.36569485
44	0x3e81cea5	0.2535297
45	0x3df4b28a	0.11948116
46	0xbe12b318	-0.14326131
47	0x3d50cd9f	0.050977346
48	0xbe2b5bc5	-0.16734226
49	0xbe82989e	-0.25507063
50	0x3eafc820	0.3433237
51	0xbe88aaff	-0.2669296
52	0x3da6a6c0	0.08137274
53	0xbcd4a521	-0.025957646
54	0xbebfa5d5	-0.37431207
55	0xbe211ec8	-0.15734398
56	0xbe148fe1	-0.1450801
57	0x3ec87481	0.39151385
58	0xbe727086	-0.23675737
59	0xbe039aae	-0.12851974
60	0x3f2eb004	0.6823733
61	0xbd42dcbc	-0.04757379
62	0xbe18e41f	-0.14930771
63	0xbef9cf7c	-0.4879111
64	0xbe6ac31a	-0.22925988
65	0x3dc3d317	0.095617466
66	0x3e0f0d61	0.13969947
67	0xbe425303	-0.18976979
68	0xbe95245b	-0.291293
69	0x3da00826	0.07814054
70	0xbd62c6d4	-0.0553654
71	0xbdd6d5a1	-0.10489965
72	0x3ecd9d99	0.401593
73	0xbf28a741	-0.6588021
74	0xbd32aed1	-0.04362375
75	0xbd90f36c	-0.07077679
76	0x3d251489	0.040302787
77	0xbdeed402	-0.11661531
78	0x3e62242d	0.22084112
79	0xbe851c31	-0.2599807
80	0x3e9e7a93	0.30952892
81	0x3e4dc9f8	0.20096576
82	0x3dd0b1e2	0.101901785
83	0xbe731c09	-0.23741163
84	0x3f88657b	1.0655969
85	0x3d59fc8c	0.053219363
86	0xbdd8ba48	-0.10582405
87	0xbf16d588	-0.5891957
88	0xbe45b3cf	-0.19306873
89	0x3f1f5ad5	0.62247974
90	0x3c0dbb67	0.008650637
91	0x3d8cc9c0	0.06874418
92	0x3e6ea4b5	0.23305018
93	0xbe9eb3ce	-0.30996555
94	0xbd124b58	-0.035716385
95	0xbe8052ff	-0.2506332
96	0xbe29f153	-0.16595964
97	0xbe13f899	-0.14450301
98	0xbe02e279	-0.12781705
99	0x3979be6a	0.00023817425
100	0x3c9daab2	0.019246433
101	0x3ea2d236	0.31801003
102	0x3e4acf97	0.19805752
103	0x3ee89ebe	0.4543361
104	0x3efee7dd	0.49786273
105	0x3ecd5a65	0.40108028
106	0x3d9d2f5a	0.07675047
107	0x3e02c4c7	0.12770377
108	0xbe33ec86	-0.17570695
109	0xbc6e357c	-0.014539119
110	0xbeb1dd26	-0.34739035
111	0xbd647f3f	-0.055785414
112	0xbdff6ed3	-0.1247231
113	0xbed8e770	-0.42364073
114	0x3ff08ed6	1.879359
115	0xbe657c30	-0.22410655
116	0x3e46d7c0	0.1941824
117	0xbb24e17d	-0.0025158816
118	0x3de81251	0.113316186
119	0xbdb27cf8	-0.08715242
120	0x3dbf6fd9	0.09347505
121	0x3ebac6c4	0.3647977
122	0x3e2433e6	0.16035423
123	0xbec252d9	-0.37953833
124	0xbe62b962	-0.2214103
125	0x3e5676aa	0.20943704
126	0x3f44dc97	0.76899093
127	0xbe358e76	-0.17730126
128	0x3daa14f6	0.08304779
129	0x3eed9765	0.46404567
130	0x3e4e2a34	0.20133287
131	0xbe87757a	-0.26456815
132	0xbe6ae0a4	-0.22937256
133	0x3ce290a6	0.027656864
134	0xbdbaacad	-0.091149665
135	0x3d560f08	0.05226043
136	0xbec78991	-0.38972142
137	0xbd70d870	-0.05880016
138	0x3ccd43ba	0.025056709
139	0xbe42394a	-0.18967167
140	0xbe063252	-0.13105133
141	0xbeeeb091	-0.46619084
142	0xbda00d93	-0.07815089
143	0xbe72ac65	-0.23698576
144	0xbe980173	-0.29688606
145	0xbd95fb09	-0.07323272
146	0x3eaccdd3	0.3375078
147	0xbec9deeb	-0.39427885
148	0x3f0d5052	0.55200684
149	0xbee5b441	-0.44864085
150	0x3e30b1e7	0.17255364
151	0xbd5412ab	-0.051775616
152	0x3d116b6e	0.035502844
153	0xbf067912	-0.5252849
154	0xbf25a4c0	-0.64704514
155	0x3e7706ce	0.2412369
156	0xbed01600	-0.40641785
157	0xbe2e9e7e	-0.17052647
158	0x3edaf998	0.4276855
159	0x3e8c5064	0.27405083
160	0xbdd8ba09	-0.105823584
161	0xbea25e5e	-0.3171262
162	0x3df9daf5	0.12199966
163	0xbdc8a5f6	-0.097972795
164	0x3e0d4c72	0.13798693
165	0xbd5e3681	-0.054251198
166	0xbd38a34b	-0.045077603
167	0xbe8ef1bc	-0.27918804
168	0xbe08eabf	-0.13370799
169	0x3dd7fafe	0.1054592
170	0xbf04f1a5	-0.5193122
171	0xbe89dcd7	-0.269263
172	0xbd3baf18	-0.04582128
173	0xbcba8ff4	-0.02277372
174	0x3e31f67e	0.17379186
175	0xbd2e7b76	-0.04259821
176	0x3ea90181	0.3300896
177	0xbe9e8bb0	-0.30965948
178	0xbe087bb7	-0.13328443
179	0x3d73d094	0.059525087
180	0xbe4553ae	-0.19270203
181	0xbcb7722a	-0.022393305
182	0xba81aad3	-0.0009892829
183	0xbd153212	-0.036424704
184	0xbf326960	-0.6969204
185	0x3f13297f	0.57485193
186	0x3d8157a7	0.063155465
187	0xbde14cbe	-0.110009655
188	0xbe1fc54d	-0.15602608
189	0xbdb9ec6d	-0.09078298
190	0x3bf94347	0.007606897
191	0xbe2fd90f	-0.17172645

actor.init_next_embed.0.add_bias._bias f4 [32, 1]
0	0xbe44f5c9	-0.19234385
1	0xbc706ab8	-0.014673881
2	0xbd061a41	-0.03273988
3	0x3f2bfdb1	0.6718398
4	0xbd59c461	-0.053165797
5	0xbc036aa8	-0.008021034
6	0x3e06c147	0.13159667
7	0xbd943469	-0.07236559
8	0xbdb7373f	-0.08946084
9	0xbe08c133	-0.1335495
10	0xbe95f8a0	-0.29291248
11	0xbdebdb87	-0.11516481
12	0xbd817fdb	-0.063232146
13	0x3e02232c	0.1270873
14	0x3f20b54e	0.6277665
15	0xbc2c5577	-0.010518423
16	0xbce8a636	-0.028399568
17	0x3c8436e2	0.016139451
18	0x3d5537a0	0.052055
19	0x3ef205c1	0.47270015
20	0xbe826290	-0.25465822
21	0xbdcfe219	-0.101505466
22	0x3cf9f6ce	0.030513193
23	0x3c8897bb	0.016673913
24	0xbdaddd34	-0.08489457
25	0xbe8632b5	-0.2621056
26	0xbe75abee	-0.23991367
27	0x3e0585f3	0.13039379
28	0xbe17c507	-0.14821254
29	0x3e4b4a97	0.19852673
30	0x3bb49267	0.0055106166
31	0xbd302b87	-0.04301026

actor.init_next_embed.2.module.weight f4 [64, 32]
0	0xbea1b85d	-0.3158597
1	0x3d744857	0.0596393
2	0x3e246a26	0.16056117
3	0x3e985fa6	0.29760474
4	0x3e319bf1	0.17344643
5	0xbdb30969	-0.08742029
6	0x3ef0bd09	0.47019222
7	0x3e8d0150	0.27540064
8	0x3e048f98	0.12945402
9	0x3d1d6139	0.038422797
10	0x3e707d60	0.23485327
11	0xbd29fbd9	-0.041499946
12	0x3d691899	0.056908224
13	0x3c9a957c	0.018870108
14	0x3f5b78da	0.8573128
15	0xbc91a92f	-0.017780868
16	0x3e975344	0.29555714
17	0x3e34f586	0.17671785
18	0xbcaaee44	-0.020865567
19	0x3eb25cd3	0.34836444
20	0x3e80bf71	0.25146058
21	0xbeb3b8c0	-0.3510189
22	0x3e7bd813	0.24594145
23	0x3f378e88	0.7170186
24	0x3dae63eb	0.085151516
25	0x3e254cdb	0.161426
26	0x3bc21500	0.0059229136
27	0xbe0d3cf7	-0.13792787
28	0xbd144507	-0.036198642
29	0x3dcdd60d	0.100505926
30	0x3e3a9585	0.182211
31	0xbdd4e62c	-0.10395464
32	0x3dfe00d9	0.124025054
33	0xbbe7adef	-0.007070295
34	0xbd595b74	-0.053065732
35	0xbefc211e	-0.49244016
36	0x3e4b6ddb	0.19866125
37	0x3e397931	0.18112637
38	0xbedba72c	-0.4290098
39	0x3df6a560	0.120432615
40	0xbd130faf	-0.03590363
41	0x3dafbcd5	0.08580939
42	0xbead796f	-0.3388171
43	0xbe6152b9	-0.22004212
44	0xbe036859	-0.12832774
45	0xbd15f7b7	-0.036613192
46	0xbd6d7a53	-0.057977986
47	0x3e94f37a	0.29092008
48	0xbdd016ba	-0.10160585
49	0x3d936349	0.071966715
50	0x3e1dd989	0.15415014
51	0xbf4876a7	-0.7830605
52	0xbdd49478	-0.10379881
53	0xbedf6315	-0.4363028
54	0xbe655c21	-0.22398426
55	0x3d10dfaf	0.03536957
56	0xbdb845be	-0.08997677
57	0x3da05e92	0.07830538
58	0x3d5f8138	0.054566592
59	0xbddae35d	-0.10687897
60	0x3da0fa49	0.07860238
61	0xbe35c1fd	-0.17749782
62	0xbcef4528	-0.029207781
63	0xbe04c062	-0.12964013
64	0x3e27c89f	0.16385125
65	0x3ed45fe4	0.4147941
66	0x3e07ab40	0.1324892
67	0x3f072fe3	0.52807444
68	0x3d8108d6	0.063005134
69	0x3d8af6ba	0.067853406
70	0xbb53246a	-0.003221775
71	0xbe6d0f3b	-0.23150341
72	0x3e11fbbb	0.14256184
73	0xbdfd8b78	-0.12380117
74	0xbc015dbe	-0.007895885
75	0x3d0d8530	0.034550846
76	0x3dbce17d	0.09222696
77	0xbe6c7d35	-0.23094638
78	0x3e695a23	0.2278829
79	0x3bf27a46	0.00739983
80	0x3e8bca74	0.27302897
81	0xbd9461c7	-0.07245212
82	0x3d2704f3	0.040776204
83	0x3e84024f	0.2578301
84	0xbe6428ef	-0.2228124
85	0x3f1df95b	0.6170861
86	0x3e2e8a1f	0.17044877
87	0xbdd9f004	-0.106414825
88	0x3e04f1ad	0.12982817
89	0xbe960f8d	-0.2930874
90	0x3cdf3dff	0.027251242
91	0x3dab1398	0.083533466
92	0x3e84aae3	0.25911626
93	0xbdc14c9b	-0.094384395
94	0xbeb23eab	-0.34813437
95	0x3e36bbeb	0.17845123
96	0x3eb7683c	0.35821712
97	0x3e47e287	0.19520007
98	0xbe687877	-0.22702204
99	0x3e9701a7	0.29493448
100	0x3e3b9bac	0.18321103
101	0xbd2208e3	-0.039559256
102	0x3df9b912	0.121935025
103	0xbcea6dbf	-0.028616784
104	0x3b5da31c	0.0033819145
105	0x3ec78d11	0.38974813
106	0xbdbbc1e5	-0.09167842
107	0x3e061919	0.13095511
108	0x3dba5b71	0.09099472
109	0x3e6e577d	0.23275562
110	0x3bd1adf8	0.0063989125
111	0x3da83518	0.08213252
112	0x3ee1f186	0.4412958
113	0x3e1460ca	0.14490047
114	0xbdd6c3df	-0.10486578
115	0x3efe1793	0.4962736
116	0x3dc682e6	0.09692936
117	0x3de47058	0.1115424
118	0xbe03a734	-0.12856752
119	0xbee841d9	-0.45362738
120	0xbdc1fac4	-0.09471658
121	0xbe34faa9	-0.17673744
122	0xbe918e20	-0.28428745
123	0x3daae4d3	0.08344426
124	0x3df32b00	0.11873436
125	0xbd13e49f	-0.036106702
126	0x3d372aa7	0.04471841
127	0x3d062e9a	0.032759286
128	0x3f0f44fe	0.5596465
129	0x3ce12a79	0.027486073
130	0xbe36243e	-0.17787263
131	0xbd2d5266	-0.04231491
132	0x3e5eb161	0.21747352
133	0x3df49ffe	0.119445786
134	0xbddeeaed	-0.10884652
135	0x3e263c02	0.16233829
136	0x3e30c5e3	0.17262988
137	0xbdb7683a	-0.089554265
138	0xbe65846b	-0.22413795
139	0xbd6b5e66	-0.057463072
140	0xbd62efa0	-0.055404305
141	0xbe999516	-0.29996556
142	0xbed602b4	-0.41798937
143	0xbea86ed6	-0.3289706
144	0x3e69a256	0.22815832
145	0x3d34f465	0.044178385
146	0x3d27e749	0.040992055
147	0xbeb1e286	-0.34743136
148	0x3e217864	0.15768582
149	0x3e4b3827	0.19845639
150	0xbc99780f	-0.018734006
151	0xbedfa51a	-0.4368065
152	0x3e3908bd	0.1806974
153	0x3dbcbb5c	0.092154235
154	0x3e337906	0.17526636
155	0xbeba3fc0	-0.36376762
156	0x3d817dab	0.063227974
157	0x3cc273e6	0.023736905
158	0xbd1cc76e	-0.03827613
159	0xbdf047be	-0.11732434
160	0xbe4cca77	-0.19999109
161	0xbec178b5	-0.37787405
162	0xbdf4565b	-0.119305335
163	0x3e906de8	0.28208852
164	0x3c85c9f1	0.016331645
165	0x3e62560d	0.22103138
166	0xbc918b7f	-0.017766712
167	0x3e180f1f	0.14849518
168	0x3dbc21fe	0.09186171
169	0x3e09a1fa	0.13440695
170	0xbd7c5adb	-0.061610084
171	0x3c892610	0.016741782
172	0xbd5e5db7	-0.054288592
173	0x3d5c8c30	0.05384463
174	0x3d5ea1cf	0.05435353
175	0x3e03fb99	0.12888946
176	0xbdfdd802	-0.12394716
177	0x3d53f0c6	0.05174329
178	0x3e2dac3c	0.16960233
179	0x3f3fc08f	0.74903196
180	0xbe262514	-0.16225082
181	0xbd412e11	-0.047163073
182	0x3d8a883f	0.06764268
183	0xbe43f2f6	-0.19135651
184	0xbe5e6fc6	-0.21722326
185	0xbe94880c	-0.29010046
186	0xbdf887b6	-0.1213526
187	0x3e668e5a	0.2251524
188	0x3df91510	0.121622205
189	0xbdf3234d	-0.118719675
190	0xbd094ff1	-0.033523504
191	0xbe2bacd7	-0.16765152
192	0x3eee0e28	0.46495175
193	0xbe759f23	-0.23986487
194	0xbdd8a63e	-0.10578583
195	0xbf0b1f4a	-0.5434462
196	0xbcec55d8	-0.028849527
197	0x3c140208	0.009033687
198	0xbea7406e	-0.32666343
199	0xbc713064	-0.01472101
200	0x3ef0ffe4	0.4707023
201	0x3d69ea97	0.057108488
202	0xbda37f76	-0.079832956
203	0xbe54d853	-0.20785646
204	0xbe9b5e85	-0.3034555
205	0x3dffeae0	0.12495971
206	0xbf2da076	-0.6782297
207	0xbe8ecaed	-0.27889195
208	0xbdf78b99	-0.12087173
209	0x3ef526ed	0.4788126
210	0xbeb3e0fc	-0.35132587
211	0xbf10478c	-0.5635917
212	0xbe8457b4	-0.25848162
213	0x3e5d4934	0.21609956
214	0x3d7daad3	0.06193049
215	0xbeeb07e8	-0.4590447
216	0xbd004007	-0.03131106
217	0xbe8e2db3	-0.2776924
218	0x3d410e01	0.047132496
219	0xbe61af55	-0.2203954
220	0xbd14aeeb	-0.036299627
221	0xbc6aeb6a	-0.014338354
222	0xbe787338	-0.24262702
223	0x3e15c019	0.1462406
224	0x3dfc5527	0.12320929
225	0x3daffb01	0.08592797
226	0xbdb05995	-0.086108364
227	0x3df9386a	0.12168963
228	0x3dddbbb2	0.10826816
229	0xbeabf6c9	-0.3358672
230	0xbe9c9c28	-0.30587888
231	0x3e1743ec	0.14772004
232	0xbd2e4b17	-0.04255208
233	0x3ddd6c58	0.108116806
234	0x3daf2611	0.085521825
235	0x3d49cfe9	0.049270544
236	0x3eb8a1cc	0.3606094
237	0xbd2711cd	-0.04078846
238	0x3e90c1c0	0.2827282
239	0xbe1d7c00	-0.15379333
240	0xbe14e401	-0.14540102
241	0xbe0780ed	-0.13232775
242	0x3d749d99	0.05972061
243	0xbcca36d2	-0.024684343
244	0xbef66851	-0.48126462
245	0xbdce3944	-0.10069516
246	0x3e2f7fee	0.17138645
247	0x3e9e7417	0.30947945
248	0x3e697005	0.22796638
249	0x3e3fec52	0.18742493
250	0xbe911826	-0.28338736
251	0x3c455af7	0.0120456135
252	0xbe5e5ea8	-0.21715796
253	0xbd8d6321	-0.06903673
254	0x3ead9d82	0.3390923
255	0x3d4ef429	0.050525818

actor.init_next_embed.2.add_bias._bias f4 [64, 1]
0	0x3f29387f	0.6610183
1	0xbf65c026	-0.8974632
2	0x3f27e854	0.6558888
3	0x3f438400	0.7637329
4	0xbe905db2	-0.28196484
5	0x3ee82750	0.45342493
6	0xbf1cafb7	-0.6120562
7	0x3e8d4eda	0.2759922
8	0xbece4ae9	-0.40291527
9	0xbdc8cf2d	-0.09805141
10	0xbed06a0b	-0.40705904
11	0x3e7b9f92	0.2457259
12	0x3ed0d8c8	0.4079039
13	0xbf0658bd	-0.52479154
14	0xbf3f0671	-0.74619204
15	0x3ed009c6	0.40632457
16	0x3e6c0c08	0.23051465
17	0x3f58bf6b	0.8466708
18	0xbf7e99cc	-0.99453425
19	0xbf2b8499	-0.669992
20	0xbf17c694	-0.5928738
21	0x3eb52f84	0.35387814
22	0x3c47cd37	0.012194923
23	0x3f1a2f81	0.60228735
24	0xbe73adfb	-0.23796837
25	0xbf17bcf9	-0.59272724
26	0xbd926ddb	-0.071498595
27	0x3decfebf	0.115720265
28	0xbeb74698	-0.35796046
29	0xbea04ad5	-0.31307092
30	0xbe46fc5d	-0.19432206
31	0x3f238d6b	0.6388766
32	0x3ea50393	0.3222929
33	0x3f196a9c	0.599283
34	0x3fa92c76	1.3216693
35	0x3ed03b08	0.40670037
36	0xbed55af4	-0.41670954
37	0x3e8c18f5	0.2736279
38	0xbe4954f3	-0.19661312
39	0x3f193212	0.59842026
40	0xbf734567	-0.95027775
41	0xbf83a081	-1.0283357
42	0xbefedc47	-0.49777433
43	0x3ebf3eba	0.37352544
44	0xbe3525f8	-0.17690265
45	0xbf2a434a	-0.66508925
46	0xbeb0ac5a	-0.34506494
47	0x3f113b22	0.56730855
48	0x3e1a911e	0.1509442
49	0xbf183ada	-0.594648
50	0xbf44337c	-0.7664106
51	0xbed568af	-0.4168143
52	0x3ef443a2	0.4770785
53	0xbe4cf55f	-0.20015477
54	0xbe8f950c	-0.280434
55	0xbe18d7fb	-0.1492614
56	0xbea003f2	-0.3125301
57	0xbea3188a	-0.3185466
58	0xbe353ab6	-0.17698178
59	0x3e8242f8	0.25441718
60	0xbe47eafa	-0.1952323
61	0x3e3fd0ec	0.18732041
62	0xbd38a6a7	-0.045080807
63	0x3f5583b3	0.8340408
