pretrained_models/experiment/Discrete_acktr_10x10x10Bin_s42_inh_800_defaultBox-2022.08.19-23-47-51/PCT-Discrete_acktr_10x10x10Bin_s42_inh_800_defaultBox-2022.08.19-23-47-51_2022.08.20-03-28-26.pt (torch, 236314 bytes, 24 tensors)

actor.init_internal_node_embed.0.module.weight f4 [32, 6]
000000 80 8a 22 bc 5a 20 81 3e cb 0d b4 3c 98 7d a7 be
       -0.009920716 0.25219995 0.021979233 -0.32713008
000010 7b 9a 0f 3e 9b d3 f7 bd ad 5d cd 3e a1 3e b6 3e
       0.14023773 -0.121009074 0.4011053 0.35594657
000020 58 78 8b be 73 95 97 be 7d 43 7b be 94 97 dc bd
       -0.27240252 -0.29606208 -0.24537463 -0.10771099
000030 68 75 0a 3e 80 40 7b 3d 44 90 27 be 0a e7 36 3e
       0.1352135 0.06134081 -0.16363627 0.17861572
000040 59 ca 92 be c4 7a de bd 38 fd f8 bd f1 7c c1 3c
       -0.28670004 -0.108632594 -0.12157673 0.023619147
000050 13 2a ec be 0a e6 9b 3e 6d 6f 5f 3e df ed 07 3f
       -0.4612585 0.30448943 0.2181985 0.5309734
000060 e6 a0 09 3f fb b7 0d 3d ca 78 05 3f 49 1e c1 3e
       0.53761137 0.034599286 0.52137434 0.37718418
000070 95 3f e1 3d cd 47 0e 3d b4 22 39 3d d9 85 2b 3d
       0.109984554 0.034736443 0.04519911 0.041875694
000080 93 3f 43 be 21 6d ed 3d 8e b8 fc be e0 23 c8 be
       -0.1906722 0.1159308 -0.49359554 -0.3908987
000090 f8 91 5b bf 27 9a 3d 3f 4e 64 d7 3e cd 28 5d 3f
       -0.85769606 0.7406334 0.42068714 0.8639038
0000a0 83 7a 53 bf d5 52 ef bd 50 c9 93 3e a7 1d 63 be
       -0.82608813 -0.11685721 0.28864527 -0.2217928
0000b0 24 8e 7f 3f f4 9f 24 be b9 df 8e be d5 07 91 be
       0.99826264 -0.16076642 -0.27905062 -0.28326288
0000c0 05 87 3c bf 98 eb ce be ed 54 eb be 66 c8 02 3f
       -0.73643523 -0.4041412 -0.4596323 0.51087034
0000d0 37 2e 08 3f 8c e5 bf 3d 46 9c 3d 3f 20 d6 ae 3d
       0.5319552 0.093699545 0.7406658 0.08536935
0000e0 2c ed f7 be 6c 48 0a 3f c8 db 89 3e 9f 12 33 bd
       -0.48423135 0.54016757 0.26925492 -0.04371893
0000f0 ab ba 0e 3d 24 bd c7 3e 0a 45 90 be ca 88 82 3c
       0.03484599 0.3901149 -0.28177673 0.015934367
000100 a1 e0 39 3e 54 b6 c2 be 86 48 64 be 09 cf 12 3e
       0.18152095 -0.3802973 -0.2229329 0.1433679
000110 73 1d eb bd c9 09 7e be ce 6b 70 bd 93 e4 89 be
       -0.11480226 -0.2480842 -0.05869656 -0.269322
000120 b1 f0 8c 3e 6b aa dc be 9c c6 2e bd 89 a2 96 3e
       0.27527383 -0.4309877 -0.042669877 0.2942088
000130 ca 20 a1 bc da 33 1c be d4 fb 31 3f d6 f7 c9 3e
       -0.019668955 -0.15254155 0.69524884 0.39446896
000140 68 06 3a be 23 04 e2 be 3b 6b 4c 3e 01 65 85 bc
       -0.18166506 -0.4414378 0.1996278 -0.016283514
000150 90 fd 4a be c4 32 80 bd 84 0c b8 be 7a 43 19 3e
       -0.19823289 -0.06259683 -0.3594705 0.14967147
000160 8d af d4 3e 15 4d fe be 98 fd ac bd d7 86 c1 be
       0.41540185 -0.49668184 -0.08446807 -0.37798187
000170 18 2b f3 bd d4 1b 07 3e a3 b9 b3 3e af ab ec be
       -0.11873454 0.1319421 0.35102567 -0.46224734
000180 ac bc 91 3e 7e 1e 4d be 11 81 8a 3f fa 9d 2f bf
       0.28464258 -0.20031163 1.0820638 -0.6860043
000190 28 66 9b 3e cd f2 08 be 21 a5 77 bd e1 51 3e 3e
       0.30351377 -0.13373871 -0.060460214 0.18585922
0001a0 18 2e 00 bb 6f 00 19 3e cb d9 05 bf e9 3e 87 be
       -0.0019558724 0.14941572 -0.5228545 -0.26415184
0001b0 69 45 f4 bc 8c d2 e7 bc f6 9c 30 bf 2a 75 c8 bb
       -0.029818254 -0.028298639 -0.68989503 -0.0061174827
0001c0 40 05 b1 3b da 4f 30 3e f2 5b c0 3e eb cd d1 be
       0.005402237 0.17217961 0.3757015 -0.40977415
0001d0 4e be 99 3c e5 f2 eb be a8 34 37 3e 46 0b bb 3e
       0.018767502 -0.4608375 0.1789118 0.36532038
0001e0 45 e9 b4 3e 93 6b 4e 3f 31 02 98 3d 09 3f f0 3e
       0.3533422 0.80632895 0.07422293 0.46923092
0001f0 c0 2f ec 3d 26 d2 22 bf ca 61 52 be a6 c8 99 bd
       0.11532545 -0.6360191 -0.20545116 -0.07508974
000200 86 4f 36 be 09 9b 7e 3d 89 88 b1 bd 25 39 d7 be
       -0.17803773 0.06215957 -0.0866862 -0.42035785
000210 43 45 0f bf 4b 82 01 bf ef 8c 4d be 45 fc 09 3f
       -0.5596506 -0.50589436 -0.20073293 0.5390056
000220 66 32 6d 3e 80 76 32 3e 2e 72 06 3d 92 60 86 3d
       0.23163757 0.17428017 0.032823734 0.06561388
000230 ad 3c 82 bf 73 6c 26 be f9 c9 b1 be 39 79 3a 3f
       -1.0174767 -0.16252308 -0.34724405 0.7284122
000240 a5 ac 3f be 26 19 3e be 35 1b 1c 3f 8f a0 f7 3d
       -0.18718202 -0.18564281 0.60979015 0.12091171
000250 7a d1 2f 3c d7 34 94 3d 29 fa 02 3e 53 98 eb 3d
       0.010731095 0.07236641 0.12790741 0.11503663
000260 7d c7 97 3e 35 7c c5 be e6 d7 b3 be f0 b7 f7 3e
       0.29644385 -0.38571325 -0.35125655 0.4838252
000270 8c 97 06 be 0a d6 b5 3e a7 bd 79 bd 6a d4 57 3e
       -0.13143748 0.3551486 -0.060971882 0.21077123
000280 a3 13 4c 3e f0 25 cd be 59 fc a1 bd 95 a1 20 3e
       0.19929366 -0.40068007 -0.079094596 0.15686639
000290 07 12 3a 3f bc 22 aa be 5a 4a ad 3d 3c 57 30 3e
       0.7268376 -0.33229625 0.08461447 0.17220777
0002a0 1a e3 8e be fe b3 1d bf 1b 22 39 bb b0 0a 8a 3d
       -0.2790764 -0.6160277 -0.0028249088 0.0674032
0002b0 87 02 44 3c b6 e5 4c be f6 a2 aa be 54 3d dc 3d
       0.011963493 -0.20009503 -0.33327454 0.10753885
0002c0 29 a9 6c 3e 99 4b 28 be 8b 02 1f 3e 5e 50 84 bd
       0.23111404 -0.16435088 0.15528314 -0.06460641
0002d0 da d5 19 3e 9a ad 3b 3e 80 c4 13 bb 34 61 e9 3c
       0.15022984 0.18327942 -0.0022547543 0.028488733
0002e0 16 3c 04 be 01 69 a3 be ca c8 f5 3e b8 02 6f 3e
       -0.12913546 -0.3191605 0.48004752 0.23340881
0002f0 f3 94 20 bf 15 de ae be 1f df 3d be 36 b0 86 3e
       -0.6272728 -0.3415381 -0.18542145 0.26306313

actor.init_internal_node_embed.0.add_bias._bias f4 [32, 1]
000000 37 c9 53 bb f7 58 75 3b 0a 38 00 bc 89 2a 34 3d
       -0.0032315978 0.003743706 -0.007825861 0.043985877
000010 67 eb c1 3d 14 fd 50 3a 9f 08 92 bc 84 ae 04 bb
       0.094687276 0.0007972282 -0.017826376 -0.002024562
000020 cb 33 35 3c c4 c4 e1 3d 8c 57 19 3d 30 ee 87 3c
       0.011059712 0.11023858 0.037437007 0.016593069
000030 6f c2 9e 3c 57 25 6d 3c 41 1a 29 bc d3 6a 50 bc
       0.019379823 0.014474235 -0.010321201 -0.012720781
000040 69 9d 31 3b f3 8e 0f 3b f8 7e a4 bb bf 50 93 3c
       0.002710188 0.0021905273 -0.0050200187 0.017982839
000050 da 5a c2 3c c0 08 1c bd 68 ba 44 3c 0d cb 21 3c
       0.023724962 -0.038094282 0.012007333 0.009875071
000060 0b db 6a 3d c4 bb 85 3b 09 91 2c bb 70 a4 9c bb
       0.057337802 0.0040812213 -0.0026331565 -0.0047803447
000070 57 86 49 bd b5 d7 dd bb 8f 6a 79 bc 54 48 7d bb
       -0.049200382 -0.006770099 -0.015223159 -0.0038647847

actor.init_internal_node_embed.2.module.weight f4 [64, 32]
000000 fa e0 91 be fd 2b 0f 3e fd 98 23 bd e6 2f 28 3e
       -0.28491956 0.13981624 -0.039940823 0.16424522
000010 c7 1a 86 3f b4 84 58 3d be 0a f9 3d 5d 32 cf 3d
       1.0476922 0.05286093 0.12160252 0.10117028
000020 86 34 df be 67 2f 51 be 5a 45 cc be 15 33 1a 3e
       -0.4359476 -0.20428239 -0.3989666 0.15058549
000030 bb fa 6c be 79 bd 27 be ce 57 aa 3d 5b b9 3f be
       -0.23142521 -0.16380872 0.08317529 -0.18723051
000040 b3 d2 91 3e 98 d7 07 bd 68 47 b8 bd 31 50 30 3e
       0.28481063 -0.03316459 -0.08997995 0.1721809
000050 cb 8d 99 bc 61 b6 11 be c3 ab b4 be 54 d6 06 bf
       -0.01874437 -0.14229728 -0.35287294 -0.5267079
000060 87 a0 de bd d4 56 ba 3e 54 da 27 bd 7c a9 0d 3f
       -0.10870462 0.3639437 -0.0409797 0.5533674
000070 ea 13 90 bd da 22 6a be bd bf 7f be aa b1 37 bd
       -0.07035048 -0.22864857 -0.24975486 -0.044847168
000080 2b 4c 73 bd 37 1d ec be a6 32 4e be 8c 48 a8 bd
       -0.05939881 -0.4611604 -0.20136508 -0.08216962
000090 5a 7e 16 be e5 fb 5a 3e 93 c2 38 bd fe db f1 3e
       -0.14696637 0.21385153 -0.045107435 0.47238153
0000a0 86 7d a8 bd 47 7c 0e be 45 32 65 3e 62 53 72 be
       -0.08227067 -0.13914596 0.22382458 -0.2366462
0000b0 4d af 53 be 2f 42 4e bd d7 01 e6 3d 67 94 8a 3e
       -0.2067234 -0.050356086 0.1123082 0.27066347
0000c0 9b c9 0c be df dc b9 bd 82 99 c5 bd 1d 6e 59 be
       -0.13748781 -0.09075331 -0.0964842 -0.21233411
0000d0 37 e9 7d 3e ed 52 f0 3c 90 89 e7 3e af 0b 29 be
       0.24795996 0.029336417 0.4522214 -0.16508363
0000e0 53 ad 46 3e d1 38 c1 bd a4 2a 9b bc cf 91 0e 3e
       0.19402055 -0.09434665 -0.018941231 0.13922809
0000f0 dd 57 8a be 32 ab 27 3e eb 0c 17 3f 81 c1 f0 3c
       -0.2702016 0.163739 0.59004086 0.029389145
000100 c1 70 d4 3e a8 3b 1c be e0 30 9a bd 08 2d 09 3f
       0.41492274 -0.15257132 -0.075288534 0.5358434
000110 e4 dd 32 3e a2 3b 82 3e ff 0e b5 be 28 8f 60 be
       0.17467457 0.2543612 -0.35363004 -0.2192961
000120 ba ff 03 3f 27 9e b7 3d 12 72 bf be bb bb 85 be
       0.5156208 0.08965712 -0.37391716 -0.2611979
000130 c5 b7 d9 3e 1d 05 ab be 70 30 33 bd 2e cc 2e bd
       0.42523018 -0.3340234 -0.043747365 -0.04267519
000140 86 a2 91 3e e8 08 db 3d c5 c5 2c be 7f e0 02 3c
       0.28444308 0.10695058 -0.16872318 0.007988094
000150 97 f5 d6 be c7 7d e4 3c 05 25 fb 3e 78 10 83 be
       -0.41984245 0.027892007 0.4905168 -0.25598502
000160 4e 46 04 be dc 8e c6 bd 10 01 03 bf 2f 39 95 3e
       -0.12917444 -0.09695217 -0.51173496 0.2914519
000170 1b ab 5a bd 17 01 07 3d 7d 41 6d 3e 3c 60 97 bd
       -0.053385835 0.032960024 0.23169513 -0.07391402
000180 a2 64 88 3b 30 00 ce 3e 01 29 b3 bd 1a 70 a0 3e
       0.004162387 0.40234518 -0.08748055 0.31335527
000190 75 50 07 3e 92 ee 16 be 7b e1 88 be 2b 50 ed 3d
       0.13214286 -0.14739445 -0.26734528 0.115875565
0001a0 9f a0 af 3e 0f 5d 1a 3d 3a db 8c 3e a3 27 aa 3e
       0.34302232 0.037686404 0.27511007 0.33233365
0001b0 9d 2f 98 be 97 dc f7 3c 0a 2a aa 3d f1 35 b5 bd
       -0.29723826 0.030256553 0.083087996 -0.08848179
0001c0 01 a6 51 bd ec d2 55 be 55 03 6d 3d ea d4 d0 bd
       -0.051183704 -0.20881242 0.057864506 -0.1019686
0001d0 2d bd 53 3e f8 9e e9 3c 74 61 bf 3e 17 33 ef 3c
       0.20677634 0.028518185 0.37379038 0.029199166
0001e0 3d 4b c8 be ca 8a f1 3d 85 61 c1 3e c1 9a 7a 3d
       -0.39119902 0.1179405 0.37769714 0.06118274
0001f0 b7 6f 15 3e c5 b1 98 3e b2 0c 61 3e ef e5 41 3d
       0.14593397 0.29823127 0.21977499 0.047338422
000200 76 37 82 be cc c2 10 3d 62 94 4f 3e a5 d8 7f be
       -0.25432938 0.035342023 0.20271447 -0.24984987
000210 4c f0 c4 be 76 7e 89 3c 2d ac 33 be 91 17 af 3d
       -0.38464582 0.016783934 -0.17546149 0.08549417
000220 b5 16 e1 bc 12 64 f6 3e 53 a3 f9 3e 23 09 10 bd
       -0.027476648 0.48123223 0.4875742 -0.035164963
000230 5d 28 99 3d 0f 68 cb 3d 53 69 5a bd 0a 01 26 bd
       0.07478402 0.09931957 -0.0533231 -0.040528335
000240 3a 69 cb 3d 77 bc f1 3d bb 07 05 be 5b 10 8d be
       0.0993218 0.11803525 -0.1299123 -0.2755154
000250 ad 74 88 3e 7e 51 7b 3d 9b 8c 94 3d 7e c7 85 be
       0.26651517 0.061357014 0.07253381 -0.26128763
000260 56 8b 11 bd 9f 5e cf 3d ce 63 c9 3e 8c d4 98 be
       -0.03553327 0.101254694 0.39333957 -0.2984966
000270 c4 fc 99 3e d6 ca 94 3d 69 9d 1c be 49 aa 6f be
       0.30075657 0.072652504 -0.15294422 -0.23404802
000280 8f 60 22 3d ef 7b 65 3d ab b2 4b be e9 4a b7 3e
       0.039642867 0.056026395 -0.19892375 0.3579934
000290 b1 fd b5 3d b1 6e d0 bc bd 17 28 3e 70 a1 ab be
       0.088862784 -0.025443407 0.16415305 -0.33521605
0002a0 83 b4 98 3e 3b 1c 56 3e b0 a0 16 3f a4 5d 9a ba
       0.2982522 0.20909207 0.5883894 -0.0011777175
0002b0 34 6f ca 3e 8a 0b a4 bd cb 25 98 3e e8 fd 31 bd
       0.39537966 -0.080100134 0.29716334 -0.043455034
0002c0 82 c9 8a bd 6a cb 48 bd c1 78 7e 3e f7 19 13 be
       -0.06776716 -0.049022116 0.24850751 -0.14365374
0002d0 29 cd 7e 3e 9e 20 bc bd 79 9d 0c 3e f7 79 6b 3c
       0.2488295 -0.09185909 0.13731946 0.01437234
0002e0 c4 6e bf 3b bb 24 da bc 10 67 05 bd 5f 1b a7 be
       0.0058420617 -0.026628843 -0.03256899 -0.3263807
0002f0 d7 79 a0 bc 8f 07 31 3e ed 25 c9 3d 2c f1 a8 3d
       -0.019589348 0.1728804 0.09821687 0.08249125
000300 6c 67 12 be d6 37 c1 be 12 9d 2c be 26 51 15 3e
       -0.14297265 -0.37737912 -0.16856793 0.14581737
000310 e2 ce da bb 67 00 24 3d 86 fa 31 bd 5d 0f 7b be
       -0.0066774944 0.040039446 -0.04345181 -0.2451758
000320 50 3f 3f 3d 08 ab 20 3f ac 8e b9 be d3 84 6d 3e
       0.04669124 0.6276097 -0.36241663 0.231952
000330 9f 5d 97 3e 2a b1 06 3e e4 01 46 be 5b 43 01 bd
       0.29563615 0.1315352 -0.19336659 -0.031558376
000340 89 8f ad bd e3 5f 82 be 52 67 57 3e eb ef 94 3e
       -0.08474643 -0.2546378 0.21035507 0.29089293
000350 93 cb 0f be 3e e7 c7 3d 39 59 a6 be 7c cb 00 3f
       -0.14042501 0.09760903 -0.32489946 0.5031049
000360 a2 f2 1c bf de 1f 96 be 04 6c 0b 3e c6 c9 8c 3c
       -0.6130773 -0.29321188 0.13615423 0.017186057
000370 a5 c8 eb 3c 44 11 04 3f 46 5c e2 be c1 ff a2 be
       0.028782198 0.51588845 -0.44211024 -0.3183575
000380 21 35 d2 3e 7d 2a cb 3e 94 1f 8e 3e 30 55 01 bd
       0.4105616 0.39680853 0.27758467 -0.03157538
000390 ac 1a d0 3c 52 1e b1 3d 02 91 fd 3e 66 0b 69 3e
       0.025403343 0.08648361 0.49524695 0.22758254
0003a0 89 66 11 bf 91 4b 39 bf ab 51 bb be 0f 7b e6 bd
       -0.5679708 -0.7238093 -0.36585745 -0.1125394
0003b0 9e bb dd 3e 51 82 ae be a4 25 07 be c1 95 70 3d
       0.43307203 -0.340838 -0.13197953 0.058736566
0003c0 4f e2 6a 3d 45 fc 16 ba b1 7d af 3d c4 95 88 3d
       0.05734473 -0.0005759637 0.085688956 0.066691905
0003d0 fd 60 64 bf a2 d7 41 bd 75 3d d0 3e 47 0c c4 3e
       -0.8921049 -0.047324784 0.40671888 0.38290617
0003e0 fa 1a 27 3f 87 84 66 3d 69 5d de be f3 ac 2f 3e
       0.6527554 0.05627873 -0.4343064 0.17155819
0003f0 77 b7 93 3d f7 01 24 3e 4e 3a a3 be 27 1a 5f be
       0.072127275 0.16016375 -0.3188042 -0.2178732

actor.init_internal_node_embed.2.add_bias._bias f4 [64, 1]
000000 22 d9 12 bc c0 01 d4 bc 79 60 86 3d d0 7e cb 3c
       -0.008962901 -0.02587974 0.065613694 0.024840742
000010 1b de bd 3b 19 a1 43 3d b6 6b 24 bc d7 f9 cb 3c
       0.0057942993 0.047761057 -0.010035446 0.024899406
000020 55 d8 fb bc ca d4 3c bd fb 67 09 bc f7 cf fa bc
       -0.030742804 -0.04610137 -0.008386607 -0.030616743
000030 e4 4b c2 bc 9c b5 47 bd 49 e8 4b bd 4a 16 90 bb
       -0.023717828 -0.04875718 -0.04978207 -0.0043971883
000040 a6 33 95 3d c5 35 3e bc 66 e5 79 bc 1d b6 28 bd
       0.07285242 -0.011609499 -0.015252447 -0.0411893
000050 27 aa 7d bc f8 8c b7 3c d2 d7 10 3d 1b 18 ce 3d
       -0.015482462 0.022406086 0.035362072 0.100631915
000060 8d 27 46 38 76 8c 57 bd 70 96 f7 3b 4c 7a 66 3d
       4.7243713e-05 -0.05262419 0.0075557753 0.056268975
000070 0f c0 28 3d 69 cb 3f bd f1 60 c8 3d 8e 9e 59 3b
       0.041198786 -0.046824846 0.09784115 0.0033206078
000080 1d 9b eb bc 23 f3 65 bd 65 f3 59 bd 62 72 13 bc
       -0.028760487 -0.056140076 -0.053210635 -0.008999439
000090 83 42 1c 3c 07 d7 fe bc af 1e 81 3d fb 0b 27 3d
       0.009537342 -0.031108392 0.063046806 0.04078291
0000a0 f0 f9 8a bd ea 56 05 3d 4c c5 93 3d 2f db 22 3d
       -0.06785953 0.03255359 0.07215366 0.03975981
0000b0 9f 78 ec 3c 88 2d 21 bd 93 f3 27 3d 2c b2 e1 3d
       0.02886611 -0.039350063 0.041003775 0.11020312
0000c0 13 2b eb bb 60 43 ce 3b 6b 17 3d 3d 33 38 1c 3d
       -0.0071767657 0.006294653 0.04616491 0.038139533
0000d0 c6 ba 1d bd 76 f4 44 bd 83 1f 4d bd 6d 68 a1 3d
       -0.0385082 -0.0480847 -0.05007888 0.07881246
0000e0 44 79 19 3d ab ea 04 bd cb 49 d0 3c 57 56 c2 bc
       0.037469164 -0.03245036 0.025425812 -0.02372281
0000f0 04 85 ac bc 87 6a ca bb c7 19 81 bc b7 03 51 3c
       -0.02105952 -0.00617725 -0.015759362 0.012757233

actor.init_leaf_node_embed.0.module.weight f4 [32, 8]
000000 b9 44 5a be b4 2f b0 be 34 7c 55 3e 9b 72 51 3e
       -0.21315278 -0.34411395 0.20848161 0.20453875
000010 d5 b9 f7 3c 60 be 01 3f d6 8f aa be 3f c3 9e be
       0.030239979 0.50681114 -0.33312863 -0.31008336
000020 f5 46 e4 be e5 5d f2 bd 1b f7 cb 3e 5f 36 3c bd
       -0.44585386 -0.11834315 0.39836964 -0.04595029
000030 e9 11 53 3e 89 81 5c be 96 8d 7a 3e 93 04 58 bd
       0.20612301 -0.21533789 0.24468073 -0.052738737
000040 41 6c 32 bc aa 0d e8 3d d7 ae 88 be 3a 2a a8 bc
       -0.010890068 0.11330731 -0.26695892 -0.020527948
000050 3b d8 6b be 09 21 5f be 66 01 a2 3d b7 65 c5 bd
       -0.23031704 -0.21789946 0.07910423 -0.09638541
000060 16 1b cb be 2b 5c 83 3c ff ff 58 3e 93 c6 eb bc
       -0.39669102 0.01603516 0.21191405 -0.028781211
000070 d9 0a b5 3e 92 70 c1 3c 13 7c 80 be db a0 49 3c
       0.3535984 0.023613248 -0.2509466 0.012306417
000080 c7 1f 8c 3c d9 a7 0e bf 61 50 b9 3e ee 56 b5 bd
       0.017104996 -0.55724865 0.36194137 -0.08854471
000090 29 88 bf bd 82 5d 9c 3c 86 2d 2a be 19 bb 11 3e
       -0.09352142 0.019087557 -0.16618928 0.14231528
0000a0 f9 89 b7 be 85 7b 78 bc 8d 1e 7d be a4 b2 3a 3e
       -0.35847452 -0.015166168 -0.24718685 0.18232208
0000b0 8a 1c 26 be 2f ca fc 3d 3e c0 2b be 66 5a 30 3c
       -0.16221824 0.12343251 -0.16772553 0.01076374
0000c0 67 d5 88 be 70 cf 4f 3e 25 73 c2 bd 15 05 da 3d
       -0.26725313 0.20293975 -0.09494618 0.106455006
0000d0 0b b9 a9 bd 1d 4e c3 bd 9e b3 39 3d 92 28 27 3e
       -0.08287247 -0.09536383 0.045337312 0.1632407
0000e0 08 39 51 3e fc 1f 43 3e 49 cd d3 3e 2f f4 03 be
       0.20431912 0.1905517 0.41367558 -0.12886117
0000f0 36 5c 2b be a8 93 e8 bc c2 df 28 bf 7b 28 a8 bd
       -0.16734394 -0.02839072 -0.6596643 -0.08210846
000100 7b 17 02 bd e0 cd a9 3d d7 81 5c 3e cf a1 03 3d
       -0.031760674 0.08291221 0.21533905 0.032136735
000110 a8 85 84 3d 62 82 9c 3e a0 2f 57 3d 6a 5c 32 3d
       0.064708054 0.30568224 0.052535653 0.043545164
000120 1e a6 fb be a7 7a fe bd 53 96 89 3d 02 a9 ae 3d
       -0.49150175 -0.12425738 0.06718125 0.085283294
000130 b6 6c b2 3e 64 4b 55 be e5 5d d7 ba b9 5f 04 bf
       0.34848565 -0.2082954 -0.0016431181 -0.5170856
000140 c4 7b cf be 39 e3 57 3d 23 a8 ad be 78 ec 14 be
       -0.40524113 0.05270693 -0.3391734 -0.1454333
000150 46 c1 f2 3e 52 84 8b 3e 5b 21 6b be b4 5d ff b9
       0.4741308 0.2724939 -0.22961943 -0.00048707204
000160 79 aa 06 3e 14 32 aa bd 2d fb 92 3e 61 41 7f be
       0.13150968 -0.08310333 0.28707257 -0.24927284
000170 20 89 a4 bd 0b 6d 9c be eb 3e d6 3e 29 94 58 3c
       -0.08033967 -0.30551943 0.41844878 0.013218918
000180 78 3d 70 be b4 6e 3f be 15 a9 c0 3e bd fe e4 3e
       -0.23460948 -0.18694574 0.37629 0.447256
000190 11 43 86 3e 14 93 b7 3d 4a df ad 3e 1e 36 de 3e
       0.26223043 0.089636 0.3395942 0.43400663
0001a0 b4 7e 05 3e 78 ba af 3e d4 33 84 3e e3 1c 75 bd
       0.13036615 0.34321952 0.25820792 -0.059842
0001b0 6e 5e 08 bf e1 bc eb ba 3f 4e 4a bd eb 74 65 be
       -0.5326909 -0.0017985367 -0.049391028 -0.22407882
0001c0 ee b2 e5 3e 88 13 d5 3e 61 62 ca 3d ec d1 cc 3e
       0.44863075 0.41616464 0.098820455 0.40003908
0001d0 54 c8 93 3d d2 d6 40 3d 20 50 0a 3e 16 e2 1d 3e
       0.07215944 0.04707987 0.13507128 0.15418276
0001e0 6d f4 46 3d 7a a3 d0 bd 2e 8c 9c bd f9 72 4b 3e
       0.048572946 -0.10187431 -0.07643925 0.19868077
0001f0 e7 05 2e be fc 59 9d 3e 8d d3 2d 3d ab ae 31 3e
       -0.16994439 0.30732715 0.04243808 0.17351787
000200 dc 6e 98 3e 51 ce 9e 3e 68 9e d8 bd af 90 e0 be
       0.2977208 0.31016782 -0.105770886 -0.43860385
000210 37 7b c5 3c 6d 65 80 be f7 85 63 be ad f6 2d 3e
       0.024106605 -0.25077382 -0.22219072 0.1698863
000220 cd 2b a1 be 16 1d 94 3e 00 60 b9 be 8b 4a e6 3e
       -0.3147873 0.2892844 -0.36206055 0.44978747
000230 ba 96 23 be 86 4f c7 bd 78 f0 57 be e2 f2 62 3e
       -0.15975466 -0.09731965 -0.21087825 0.22162965
000240 1a f3 8d 3d f7 2e 81 3b e3 50 12 bf dd c2 2f be
       0.069311336 0.003942366 -0.57154673 -0.17164178
000250 25 99 79 3e d6 33 c9 3e 58 11 bf 3d b9 51 23 be
       0.24374826 0.3929736 0.0932948 -0.15949143
000260 f4 99 4a be 79 a4 8c bd 74 a9 ed be 33 db fe bd
       -0.19785291 -0.06867308 -0.46418345 -0.12444153
000270 9b f4 8b be ed b1 fd be 86 3e 7f 3e ca 62 9f bd
       -0.27335057 -0.4954981 0.24926195 -0.077825144
000280 16 7d 0f 3e c1 1c c4 3b 73 72 38 3e 1e c8 e8 3e
       0.1401256 0.005984873 0.18012409 0.45465177
000290 1b c9 fc 3e 1e e4 ab bd 76 72 96 3e ad a4 9c bd
       0.4937218 -0.08393119 0.29384202 -0.07648597
0002a0 4c 62 8c be 27 ae ec 3e b4 cb 18 3e b2 92 4f be
       -0.27418745 0.46226618 0.14921457 -0.20270804
0002b0 ec 60 ae 3e 4d fc 89 be d0 2c 2b bd 85 7a 49 3e
       0.3405832 -0.26950303 -0.041790783 0.19675644
0002c0 68 d9 20 3e ba 06 d3 be a5 c2 24 be 83 87 b0 be
       0.15707934 -0.4121607 -0.16089876 -0.34478387
0002d0 41 29 c7 3e 18 02 a3 bc 12 fd e1 3e 0d 1c 6b 3e
       0.38898662 -0.01989846 0.4413839 0.2295992
0002e0 02 01 9d 3d 6a 9d 09 3f a1 b2 5f 3e ad 88 1b bf
       0.07666208 0.5375582 0.21845485 -0.60755426
0002f0 02 76 18 be f6 8b 1f 3f ac dd 0f 3e 11 3e ca 3e
       -0.14888766 0.6232294 0.14049405 0.39500478
000300 e0 87 0e be 4e 18 91 be a3 9f 4b be fc 15 1a be
       -0.1391902 -0.28338856 -0.19885115 -0.15047449
000310 c3 65 36 3e c8 12 b3 be 5e d5 9a bd ca 4f 16 3f
       0.17812257 -0.34975266 -0.07560228 0.587155
000320 7b 1b 2d 3e d4 7f b7 bd e4 39 43 be f8 99 10 3e
       0.16905014 -0.08959928 -0.19065052 0.14121234
000330 f0 93 c4 be 41 04 72 bc 9e 2c a2 bb cf 25 ba 3e
       -0.38394117 -0.014771522 -0.0049491664 0.3635697
000340 1c 5d 88 be cf 01 32 3e c5 1b 03 3e 64 9a 91 be
       -0.26633537 0.17383502 0.12803562 -0.28438103
000350 a7 e8 f2 be 00 cc 1a be b9 0b d0 3e b1 12 44 be
       -0.47443125 -0.15116882 0.40633944 -0.19147755
000360 83 7f 16 be fb 51 87 3e d8 37 8c 3e b0 56 20 3e
       -0.1469708 0.26429734 0.27386355 0.15658069
000370 48 58 cf bd b3 af ea 3e 65 5c 9c 3e 15 dc 43 be
       -0.1012426 0.45837173 0.3053924 -0.19126923
000380 b7 fa 6f 3d 90 ee ea bb 54 f4 ae 3e 1a 5a 0f be
       0.05858871 -0.007169552 0.34170783 -0.13999215
000390 de a8 ee bd 60 b4 00 bf 60 38 76 be d6 e0 b8 bd
       -0.116533026 -0.5027523 -0.24044943 -0.09027259
0003a0 56 2a a6 3e e6 b6 8d 3e 65 81 67 be 03 e3 52 3e
       0.32454175 0.27678603 -0.22607954 0.2059441
0003b0 78 fb 02 3f ed ab 79 bd 73 cd 24 3e 62 4f ff be
       0.5116496 -0.060954977 0.16093998 -0.49865252
0003c0 9b b1 3a 3d 57 a5 bd be 88 f1 38 be 51 ae b0 be
       0.045579534 -0.37040207 -0.18060887 -0.34507993
0003d0 bc 26 8e be e6 24 cb 3e 9b 47 a3 3d 76 3a 80 be
       -0.27763927 0.3967659 0.07972642 -0.25044602
0003e0 a6 d4 e6 be 19 e5 2d 3d c4 79 63 be bd da 8e bd
       -0.45084113 0.042454813 -0.22214419 -0.06975315
0003f0 a0 5f 8e be 3d cb 21 be 6b f0 8d 3e b2 03 55 be
       -0.2780733 -0.15800186 0.27722487 -0.20802191

actor.init_leaf_node_embed.0.add_bias._bias f4 [32, 1]
000000 d1 fa ae 3d 47 e2 55 3a 8b 38 89 bd e5 82 e7 3c
       0.08543933 0.0008159023 -0.06700238 0.028260658
000010 7c e6 6d 3c e6 b1 8a bd 20 13 24 3d d9 33 e9 3b
       0.014520284 -0.06772213 0.0400573 0.0071167764
000020 be 7c f6 bc 48 e9 b0 3c 25 a5 a4 3c 48 19 72 bd
       -0.030088779 0.021595612 0.020098278 -0.05910614
000030 39 8a 14 3e d4 b6 71 3c 99 26 c1 3d e3 90 e2 bc
       0.14505853 0.014753062 0.0943119 -0.027656978
000040 45 ad a0 3d da 85 14 bd 79 45 ba bd 60 4e 6a be
       0.078455485 -0.036260463 -0.09095282 -0.2288146
000050 7c 7c 44 bd 9e dc a6 3a 0a 5e 29 3c 8e bf 4e bd
       -0.04797028 0.0012730544 0.010337362 -0.05047565
000060 1c 86 28 be f4 f1 fc bb 2d 60 14 be 55 e1 a8 3d
       -0.16457409 -0.0077192727 -0.14489813 0.08246104
000070 ed 30 43 bd 4a 7e d9 3d e3 62 e8 3a ce 59 c0 3b
       -0.04765408 0.10619791 0.0017729666 0.0058700806

actor.init_leaf_node_embed.2.module.weight f4 [64, 32]
000000 b7 41 32 3d 8f af 74 be a4 e5 8f be 9b 1f dc bd
       0.0435197 -0.23895095 -0.2810489 -0.10748216
000010 79 9d 24 3e 4b fe 4d 3e cb de 9a 3d 4b a6 03 3d
       0.16075696 0.20116536 0.07562026 0.03214101
000020 2e 19 e5 3d c6 c5 cf 3d a7 62 95 3e 05 8b 8a be
       0.11186443 0.10145144 0.29176828 -0.27059188
000030 3b 45 1e be 55 df f1 3d 33 3b 09 bf 9b 8e a6 bc
       -0.15456097 0.11810175 -0.53605956 -0.020331671
000040 cd c8 44 3e 1c 41 2a 3e f2 99 26 be ca c3 d8 bd
       0.19217224 0.166264 -0.16269663 -0.10584219
000050 00 58 e9 3d ac f7 7d be af 43 95 3e e9 0c 14 3e
       0.11393738 -0.2480151 0.291532 0.1445805
000060 b0 df 8b 3d a3 db ac be 99 2b d4 bd c8 6c 54 bb
       0.068297744 -0.3376132 -0.10359878 -0.0032413471
000070 89 14 10 3e 82 a3 2c 3d f1 a7 8f bd b3 52 17 bd
       0.14070334 0.04214812 -0.07014454 -0.036944102
000080 34 2f a5 bd 8d 45 75 3e 69 1c fb 3c ed ab 11 bd
       -0.08065644 0.23952313 0.030653195 -0.03556435
000090 9a 66 1f 3d 1f 8b 56 3e 29 3a dc 3d 46 0d b5 bd
       0.038916208 0.20951508 0.10753281 -0.08840422
0000a0 ac ac 18 be 2b 4f 68 be 0d 41 f1 3e 1f 20 28 bd
       -0.14909619 -0.2268645 0.47119942 -0.041046258
0000b0 6b 15 b6 bd f4 e9 a0 3d 32 5a e8 3d b2 1a 86 be
       -0.08890804 0.07857123 0.113453284 -0.26192242
0000c0 46 f3 0a be a4 88 33 be 9f 3a fe bd d6 00 45 be
       -0.13569364 -0.17532593 -0.12413525 -0.192386
0000d0 60 bc d2 bd a9 38 de bd c5 88 75 3d a5 99 47 be
       -0.10289836 -0.10850651 0.059944887 -0.19492204
0000e0 a5 05 c1 be 8e 23 6c be e3 a9 a2 3b bd c8 3a 3e
       -0.3769962 -0.23060438 0.0049640997 0.18240638
0000f0 52 43 8a be f7 d4 ca bd 37 ed 5a 3e 5c a2 b5 3e
       -0.27004486 -0.09903901 0.21379553 0.35475433
000100 6e 0a 4e 3e 5c 35 59 bc 48 26 01 be 24 d4 c4 3d
       0.20121166 -0.013257351 -0.1261226 0.09610775
000110 1b 2c 14 3e 53 1f e0 3a 12 8b aa bd 2a 1b 11 3d
       0.1446995 0.0017099179 -0.08327307 0.035426296
000120 ab 90 d2 be 35 c4 a9 bc 2a e9 c3 be 89 df 32 be
       -0.41125998 -0.020723442 -0.38263828 -0.17468084
000130 cb 9f 61 be 13 28 f3 3d f7 cf 62 3e 06 91 3a be
       -0.22033612 0.11872878 0.22149645 -0.18219385
000140 36 d0 d3 bd 95 44 b7 3e 6e 02 8f be 8e 68 f0 bd
       -0.103424475 0.3579451 -0.2793154 -0.11738692
000150 a8 da c9 3c 23 e0 a6 3c 02 6a 78 3d 9f a0 a7 be
       0.024640396 0.020370549 0.060647972 -0.32739732
000160 04 c9 8c bc af 4f da 3d 1b e9 bf bd 24 cb 3f be
       -0.017185695 0.1065973 -0.09370633 -0.18729836
000170 7c 0b 4b be e2 fe bb bd a4 d7 d6 3d 47 1f 1c 3e
       -0.198286 -0.091794744 0.10490349 0.15246306
000180 a4 68 bd bd 8a 54 3f 3e 48 e8 46 3e 05 74 a7 3d
       -0.09248474 0.18684593 0.19424546 0.08176426
000190 54 01 31 3e 78 de 98 3d 76 bd 8b bc 81 f8 4e 3e
       0.17285663 0.074643075 -0.017058115 0.20211984
0001a0 08 7d 20 3e 09 1d f6 bd d8 1f 9a be 59 e9 81 3e
       0.15672696 -0.12017257 -0.3010242 0.25373343
0001b0 bf 61 88 be a1 36 46 3d 63 fe d3 bd 0f 77 34 3e
       -0.26637074 0.048391942 -0.10351255 0.17623542
0001c0 c8 d4 c4 bd 57 a5 b9 3e 42 9d ad be 54 40 1a bc
       -0.09610897 0.36258957 -0.3390904 -0.009414751
0001d0 88 db 50 3d bd 27 5c 3c 68 1d 7f be a3 86 f2 3e
       0.05099061 0.013437209 -0.24913561 0.47368345
0001e0 6b d2 9d 3c 8a be 0d 3d 4f 37 2c 3e 49 86 6b 3e
       0.019265374 0.03460554 0.16817974 0.23000444
0001f0 26 05 98 3e c4 9d 12 bc 81 2b d5 3d 40 b9 15 3e
       0.29691428 -0.008948747 0.10408688 0.14621449
000200 89 e2 b5 bd fe ae fa bd 22 18 90 3d 16 b5 05 3d
       -0.08881099 -0.12240408 0.07035853 0.0326434
000210 c1 c9 91 3d 5d 4c ea be 93 e4 62 3e 7b 66 f5 3d
       0.0711856 -0.45761386 0.22157507 0.11982437
000220 b1 6b 69 3d 3c 1b 97 3d db 46 46 be 36 63 b9 be
       0.05698747 0.073782414 -0.19362967 -0.36208504
000230 8c c7 ce bd f9 57 74 3e 0f c5 35 3e 70 91 5d be
       -0.10096654 0.23861684 0.17750953 -0.21637511
000240 9b de dc be 27 b2 d6 be b7 b2 4e 3e cd 1c e0 3d
       -0.43138584 -0.41932794 0.20185362 0.10942993
000250 5e 30 98 be 17 e8 77 3e ca 41 c7 bc c8 d2 5f 3e
       -0.297244 0.24209629 -0.024323363 0.2185775
000260 ea 99 fb bd 79 16 2a bc ef 3d 30 be f3 a4 92 3e
       -0.12285216 -0.010381334 -0.17211126 0.2864147
000270 95 3b 78 3e 34 18 62 3c d9 5e d2 3d 5a 3d 40 be
       0.24241479 0.013799716 0.10271997 -0.18773404
000280 d2 1b 60 3e e3 ca 12 bd 5a 11 22 be c0 fa 7e bd
       0.21885613 -0.03583802 -0.15826932 -0.062250853
000290 62 d5 ae be aa a1 3c be d6 ac b2 3e 3f 19 b9 bd
       -0.34147173 -0.18421045 0.34897488 -0.090380184
0002a0 d1 31 2f 3e 27 1b 1b 3c b1 49 ce be 94 80 9f 3e
       0.17108847 0.009466923 -0.40290597 0.31152785
0002b0 ea 30 12 3f 67 d3 0a 3e 10 6a a4 3e ce 67 97 be
       0.57105887 0.13557206 0.3211217 -0.29571384
0002c0 82 be 39 3e a7 fa a9 be d6 e2 cb be d2 bc 22 be
       0.18139079 -0.33199045 -0.398215 -0.15892342
0002d0 be 2c e1 3d c2 4f 99 be ec 3a cc bd 92 49 2d 3f
       0.10994862 -0.29943663 -0.09972176 0.67690384
0002e0 37 df 96 3d 6b 11 86 be cf 8b 97 bd eb 0c 55 3e
       0.073667936 -0.26185164 -0.07399713 0.20805709
0002f0 d5 c6 22 be 17 2f 15 bd 91 82 59 3d 44 40 4e bd
       -0.15896161 -0.03642186 0.053103033 -0.050354257
000300 a2 8d b8 3e 86 7a a1 be 10 7b 45 bd 6d 38 9c bd
       0.36045557 -0.3153879 -0.048213065 -0.0762795
000310 65 8d 7d be e3 09 dd bd 5e f1 4c 3e b2 48 9b 3e
       -0.24760969 -0.10792901 0.2001395 0.303289
000320 80 04 9b 3d b3 bc 31 be ac 06 20 3e 54 5f 2c 3e
       0.07569218 -0.1735714 0.15627545 0.1683324
000330 07 b5 28 be 23 5d 03 3e 67 f6 d2 bd 4f cf da 3c
       -0.16475306 0.12828498 -0.10300904 0.02671018
000340 4e 8a c4 be ee 69 fc 3e b6 4f e3 3e 94 0d 7b 3d
       -0.38386768 0.49299568 0.44396752 0.061292246
000350 9b 33 7e be e2 2c 67 3d e5 96 0e be e4 f9 7b 3e
       -0.24824373 0.056439288 -0.13924749 0.24607044
000360 bf 41 47 3d 44 9d 4a 3e 89 e2 8c bd e6 c0 92 bc
       0.048646685 0.19786555 -0.06879146 -0.017914247
000370 66 4a 11 be 2b c9 70 3e 6a 7e dc 3c ed 6f 3a bd
       -0.14188537 0.2351424 0.026915748 -0.045516897
000380 14 58 f4 bd d4 2c 8f 3d 78 5b 01 be 19 fd 71 be
       -0.11930862 0.06990972 -0.12632549 -0.23631705
000390 1e ad 80 3d 67 78 db bd 26 f5 75 be f6 bf 1c bf
       0.062830195 -0.10716324 -0.24019298 -0.6123041
0003a0 d6 4f 15 3e d4 7f 01 be 93 25 28 3e 7c 1e ce 3b
       0.14581236 -0.12646419 0.16420583 0.006290255
0003b0 a6 d8 4b 3e e6 e2 c6 3d 92 e7 92 bd bc 3c 9f 3d
       0.19906864 0.09711246 -0.07173075 0.07775256
0003c0 63 0e 83 be d7 ce 25 be 65 81 13 bf 6b a2 35 be
       -0.25596914 -0.16192184 -0.57619315 -0.17737739
0003d0 d9 88 11 3e f2 4e d6 3e 79 6c fd 3d e7 62 75 be
       0.1421236 0.41857105 0.12374205 -0.2396351
0003e0 9b 12 dc bc a6 ec 50 3e c5 6a 53 3e 88 b6 2d 3e
       -0.02686434 0.20402774 0.20646198 0.16964161
0003f0 a2 0e f8 be af 04 8d 3e ef 8a 2a 3e 50 d4 59 be
       -0.48448664 0.27542636 0.16654561 -0.21272397

actor.init_leaf_node_embed.2.add_bias._bias f4 [64, 1]
000000 4c 4f 90 bd 7f 9a 47 bd f0 7e 3a 3c 23 4c 8b 3c
       -0.07046375 -0.048731323 0.011382803 0.017004078
000010 85 b0 58 bd 09 42 aa 3e 47 90 8f 3d a2 3c a9 3a
       -0.052902717 0.33253506 0.070099406 0.0012911747
000020 0c 2b 8b bd 8b 57 9f 3d 86 69 9a bd 2e 27 73 3e
       -0.0679532 0.07780369 -0.07539658 0.23745415
000030 e1 c4 6d bd 32 73 79 be fe 5a 06 bf e6 4a c2 3c
       -0.058049086 -0.2436035 -0.52482593 0.023717355
000040 2b 55 67 bd 0e 25 1b 3e 74 9d 4e be ed 6b 1c bd
       -0.056477707 0.15150854 -0.20177251 -0.038188864
000050 1e 3a 12 be 12 d2 1c 3e da 51 11 3e 3d e7 53 3e
       -0.14279982 0.1531451 0.1419138 0.20693679
000060 8c 58 46 bd f0 e1 79 3e 0a 15 77 be 50 2e 08 3e
       -0.04842429 0.24402595 -0.2412912 0.13298917
000070 6a 1d 16 be 02 65 87 be bd 31 d0 3d 65 5f 45 bd
       -0.14659658 -0.2644425 0.10165737 -0.04818668
000080 95 81 8e bd 5a e2 0d bc 30 da 71 be dd 74 1c 3e
       -0.069583096 -0.008659923 -0.23618388 0.15278955
000090 a8 0c e5 bd 8d 45 0e bd 10 fa 01 be 33 26 87 bd
       -0.111840546 -0.034734298 -0.12693048 -0.06599083
0000a0 b4 b7 46 be 50 0c 5b 3c 63 23 08 ba d8 01 b3 bd
       -0.19406015 0.013369635 -0.00051932613 -0.08740586
0000b0 01 60 0d 3d 65 de b5 3d a1 60 e3 3c 08 6e 85 3e
       0.034515385 0.08880309 0.027756037 0.2606051
0000c0 86 71 0b 3c df b8 ce 3d b8 9e ed 3d 08 7e 67 3c
       0.008510953 0.10093855 0.11602539 0.014129169
0000d0 9e f1 2f bd c3 91 0d 3e c4 3a 34 bd 0c 7c a1 bd
       -0.042955033 0.13825135 -0.044001356 -0.07884988
0000e0 35 94 ed bd e4 15 b7 bd 84 a9 ea bd fa 1f 93 3e
       -0.11600534 -0.08939722 -0.11458114 0.28735334
0000f0 44 88 1d 3e 03 07 61 3c 8e 25 3b 3e 84 69 4c be
       0.15384012 0.013734582 0.18276045 -0.19962126

actor.init_next_embed.0.module.weight f4 [32, 6]
000000 ab be 5c bf d2 50 2a 3e 21 04 ab bd 17 0b c8 3e
       -0.86228436 0.16632393 -0.08350397 0.3907096
000010 35 b6 84 3f 41 65 6a bf 47 02 c7 3e 9a 49 a6 3e
       1.0368105 -0.9156075 0.38868925 0.3247803
000020 cb bc 08 3c 8a a4 12 3e dc 81 8c bb 12 d7 ea bd
       0.008345793 0.14320579 -0.0042879414 -0.11466803
000030 ca a9 ac bd 89 c8 c7 be b2 c4 75 3e 12 c6 0b bf
       -0.08430822 -0.39020184 0.24000815 -0.54599106
000040 64 79 cb 3d d1 a9 14 3d a3 ed de 3f 12 a8 11 3f
       0.09935263 0.036294762 1.7416271 0.5689708
000050 6b af e5 3d 6c a1 e3 3e 65 dd 30 3e bb 7f 5d bd
       0.11215099 0.44459093 0.17271955 -0.05407689
000060 cc fa a9 be cd 0f 76 bd 60 cc 45 be 32 56 36 3e
       -0.33199155 -0.060073663 -0.19316244 0.17806318
000070 41 52 b2 3c b6 fb 3d be ef 11 16 be 70 ed eb 3d
       0.021767737 -0.18553051 -0.14655279 0.11519897
000080 3d d2 ea 3e 62 e6 e2 3d d4 01 05 be f8 a8 d5 3c
       0.45863524 0.11079098 -0.12988979 0.026081547
000090 c6 7e 0a 3e 25 7a 68 be 03 a7 c0 bc 26 c1 81 be
       0.13524923 -0.22702844 -0.023517137 -0.25342673
0000a0 e4 ee 2e be 12 66 97 3e 44 e8 51 be 5b 3c bb be
       -0.17083317 0.2957006 -0.20498759 -0.36569485
0000b0 a5 ce 81 3e 98 7c e1 3d 3e c6 18 be eb 36 1b 3d
       0.2535297 0.110100925 -0.14919373 0.03789417
0000c0 a1 aa 26 be 9e 98 82 be 20 c8 af 3e 18 28 84 be
       -0.16276027 -0.25507063 0.3433237 -0.2581184
0000d0 9a 9a cb 3d f2 4a bf ba 1a 85 be be c8 1e 21 be
       0.09941597 -0.0014594479 -0.37210923 -0.15734398
0000e0 e1 8f 14 be b5 7f cd 3e 4f 04 66 be 2a 34 eb bd
       -0.1450801 0.40136495 -0.22462581 -0.11484559
0000f0 71 2c 32 3f bc dc 42 bd 1f e4 18 be ab b6 ec be
       0.6959906 -0.04757379 -0.14930771 -0.46233115
000100 ab 90 42 be 9a 80 19 3e de 45 14 3e 03 53 42 be
       -0.19000499 0.14990464 0.14479777 -0.18976979
000110 5b 24 95 be 87 1c ac 3d 8f 4d 28 bd 76 2c aa bd
       -0.291293 0.08403879 -0.04108959 -0.083092615
000120 02 78 ce 3e 41 a7 28 bf d1 ae 32 bd fc 15 8c bd
       0.40325934 -0.6588021 -0.04362375 -0.06840131
000130 82 61 38 3d cc 72 e1 bd 22 b9 2b 3e 31 1c 85 be
       0.045014866 -0.11008224 0.16769841 -0.2599807
000140 93 7a 9e 3e 99 2d 61 3e d8 db 39 be f8 cc 08 be
       0.30952892 0.2199005 -0.1815027 -0.1335944
000150 02 21 9d 3f 8c fc 59 3d 48 ba d8 bd e2 c2 0f bf
       1.2275698 0.053219363 -0.10582405 -0.5615674
000160 49 25 7b be 71 07 27 3f e0 68 2a 3c c0 c9 8c 3d
       -0.24525942 0.6524573 0.010400981 0.06874418
000170 b5 a4 6e 3e 55 af 9d be df d2 00 bd 48 47 7a be
       0.23305018 -0.3079783 -0.031451102 -0.24441254
000180 45 5d 7d be 99 f8 13 be 79 e2 02 be 96 3b 35 3e
       -0.24742611 -0.14450301 -0.12781705 0.17698511
000190 6e 17 4a 3e fe 54 ae 3e ba 50 09 3e be 9e e8 3e
       0.197355 0.3404922 0.13409701 0.4543361
0001a0 dd e7 fe 3e 3b 09 98 3e 94 57 2a 3e b3 16 d9 3d
       0.49786273 0.29694542 0.16634971 0.10600033
0001b0 fa ed 32 be 7c 35 6e bc 26 dd b1 be 30 63 7c bd
       -0.17473593 -0.014539119 -0.34739035 -0.06161803
0001c0 e8 58 06 be c4 57 de be ca 74 e1 3f 30 7c 65 be
       -0.13119853 -0.43426335 1.7613766 -0.22410655
0001d0 c0 d7 46 3e 8a dc 82 3c 2f 2d 57 3e 57 54 36 bd
       0.1941824 0.015974302 0.2101333 -0.044514026
0001e0 0d 0b c1 3d c4 c6 ba 3e e6 33 24 3e 23 fc bc be
       0.09425936 0.3647977 0.16035423 -0.36911115
0001f0 5a 45 5a be 50 c3 5f 3e 8a fc 31 3f 76 8e 35 be
       -0.21315518 0.2185185 0.6952597 -0.17730126
000200 f6 14 aa 3d 53 4a 22 3f 2c 5c d3 3d 5b ea 1b be
       0.08304779 0.6339466 0.10320315 -0.15226118
000210 f7 9c 63 be a6 90 e2 3c ad ac ba bd ff 45 17 3d
       -0.22227846 0.027656864 -0.091149665 0.036931988
000220 ba 30 c7 be 09 27 4b bb e2 1b fd 3c 4a 39 42 be
       -0.38904363 -0.0030998609 0.030897085 -0.18967167
000230 52 32 06 be 2d 49 e8 be 6b 63 7e bd ae 7c 60 be
       -0.13105133 -0.4536833 -0.06210653 -0.21922562
000240 3e 7f 98 be 09 fb 95 bd d3 cd ac 3e a1 fb c9 be
       -0.29784578 -0.07323272 0.3375078 -0.3944979
000250 43 8a 0d 3f 46 36 e8 be 48 d1 37 3e ab 12 54 bd
       0.55289096 -0.45353907 0.17950928 -0.051775616
000260 6e 6b 11 3d b9 83 03 bf e6 eb 20 bf eb ac 87 3e
       0.035502844 -0.5137287 -0.6285995 0.26499113
000270 6c e8 c9 be 7e 9e 2e be 98 f9 da 3e b5 12 99 3e
       -0.39435136 -0.17052647 0.4276855 0.29897085
000280 81 e3 89 bd be 0a 86 be 65 8d cd 3e f6 a5 c8 bd
       -0.06732846 -0.2618007 0.40146938 -0.097972795
000290 72 4c 0d 3e e3 64 3a bd a3 81 4b be d7 b5 4c be
       0.13798693 -0.04550637 -0.19873671 -0.19991241
0002a0 a5 e3 ff bd fe fa d7 3d a5 f1 04 bf 22 ca 7c be
       -0.124945916 0.1054592 -0.5193122 -0.24686483
0002b0 28 cc a2 bc d9 c9 85 3c 8c 0f 14 3e 76 7b 2e bd
       -0.01987274 0.0163316 0.14459056 -0.04259821
0002c0 81 01 a9 3e d0 6a a0 be d5 ab 70 bd 5f 3b 97 3d
       0.3300896 -0.3133149 -0.05875762 0.07384371
0002d0 44 7c 8c be 2a 72 b7 bc a4 aa 81 ba c1 de d8 bb
       -0.27438557 -0.022393305 -0.0009892774 -0.006618351
0002e0 5d c8 20 bf 9b 2c 06 3f b8 5c 87 3d be 4c e1 bd
       -0.6280573 0.5241181 0.066094816 -0.110009655
0002f0 4d c5 1f be c8 cc b1 bd 12 d9 83 3c 13 cb 24 be
       -0.15602608 -0.08681637 0.016094718 -0.16093092

actor.init_next_embed.0.add_bias._bias f4 [32, 1]
000000 a7 36 4d be b2 d0 8b bd f7 09 26 bd 46 27 22 3f
       -0.2004038 -0.06826915 -0.040536847 0.63341177
000010 f7 1a 39 bd 6e 99 ee 3a 39 39 22 3e 0a 7f d2 bd
       -0.04519173 0.0018203685 0.15842141 -0.10278137
000020 35 64 22 bd 68 00 e7 bd 14 77 2e be 95 b8 8d bd
       -0.039646346 -0.11279374 -0.17037612 -0.06919972
000030 bd c2 3d bd 52 0c bd bc 7f 36 2c 3f 2a c2 54 3c
       -0.046328295 -0.023077164 0.67270654 0.012985745
000040 ab cc 94 3d 7a 7b 10 bd df ac 5a 3d 16 1e 06 3f
       0.072656 -0.035274006 0.05338752 0.5238966
000050 43 24 74 be 55 c3 82 bd 67 73 d2 3c df 44 84 3d
       -0.23841958 -0.06384913 0.025689794 0.064584486
000060 ef 3d d0 bd de c1 50 be e0 fb e4 bd fd 25 21 3e
       -0.10168063 -0.20386454 -0.11180854 0.15737148
000070 b3 ac 78 bd 3e 61 35 3e bc 43 fe bb 51 69 93 bc
       -0.060711574 0.17712876 -0.0077595394 -0.017994555

actor.init_next_embed.2.module.weight f4 [64, 32]
000000 07 9b 9f be 79 fe 6e 3d 95 30 24 3e 1f 66 25 3e
       -0.31172964 0.058348153 0.16034158 0.16152237
000010 33 76 32 3e e4 51 b4 bd ad 82 a6 3e 96 27 8d 3e
       0.17427902 -0.08804682 0.32521573 0.27569264
000020 b5 36 04 3e 89 9d 20 3d ab 60 70 3e d8 87 27 bd
       0.12911494 0.039212737 0.23474376 -0.040901035
000030 33 26 69 3d dd c5 1d 3d 2b 3e 09 3f c5 4c 92 bc
       0.056921195 0.038518775 0.53610486 -0.017858872
000040 3f a3 a4 3e 4d a0 56 3e 7c 7e a8 bc 83 22 78 3e
       0.32155797 0.20959587 -0.020568125 0.24231915
000050 9e 65 80 3e e3 e7 a2 be 2a bb 81 3e e9 56 37 3f
       0.25077528 -0.3181754 0.25338107 0.7161699
000060 ea 7e b0 3d 11 e3 23 3e c4 ed d3 3b 21 92 27 be
       0.08617957 0.16004588 0.006467553 -0.16364338
000070 6c d1 14 bd 2a 29 ba 3c b7 7a ea 3d 98 fd d4 bd
       -0.036332533 0.022724707 0.11449187 -0.10399932
000080 bc 89 07 3e a9 22 26 3c e6 50 4d bd cb 1f e5 be
       0.13236135 0.0101401 -0.05012598 -0.4475082
000090 7d b2 4b 3e 89 d4 34 3e 10 7a fd be ff 91 f3 3d
       0.19892307 0.176592 -0.4950719 0.11893081
0000a0 25 01 0b bd 7b 0f a7 3d 01 b1 ae be de e1 62 be
       -0.03393664 0.081572495 -0.34119418 -0.22156474
0000b0 f5 fd 02 be 47 b0 eb bc 12 d5 6d bd 6c 6b 95 3e
       -0.1279219 -0.028770579 -0.058064528 0.2918352
0000c0 a6 75 56 be de ba a3 bb 2e 2d 1f 3e bc b8 3a bf
       -0.20943317 -0.0049966415 0.15544578 -0.7293813
0000d0 7e 37 d5 bd be 29 d1 be 78 2a 68 be 24 cb 16 3d
       -0.10410975 -0.4085216 -0.2267245 0.036814824
0000e0 2e 3c ae bd 36 6f 9b 3d 4b 87 56 3d 9c 72 06 be
       -0.08507572 0.07589571 0.05237512 -0.13129658
0000f0 d9 45 a1 3d fc 7a c5 bd d3 de 24 3c a5 2c 04 be
       0.078746505 -0.09642598 0.010062891 -0.12907656
000100 17 12 26 3e aa 9d d6 3e 60 5d 07 3e 9a 4a 03 3f
       0.16217838 0.41917163 0.13219213 0.5128571
000110 fb ec 7f 3d 4b 65 83 3d 37 78 a5 3d db 00 6d be
       0.06248186 0.064158045 0.0807957 -0.23144858
000120 e5 9a 12 3e 89 d0 fc bd 52 6c dd bb 94 95 0d 3d
       0.143169 -0.123444624 -0.0067572976 0.034566477
000130 9d 70 bd 3d fd aa 99 be c7 bc 8c 3e e9 8a f2 3b
       0.09249995 -0.30013266 0.27487776 0.0074018133
000140 a2 26 74 3e c5 fb 21 bd 4f 64 25 3d ca 21 65 3e
       0.23842862 -0.039546747 0.040378865 0.22376171
000150 36 53 63 be 10 3d 1b 3f 95 72 28 3e 3c 97 d7 bd
       -0.22199711 0.6064005 0.1644996 -0.105268925
000160 0c 7b 04 3e a0 55 95 be 45 93 eb 3c 25 1c 5a 3d
       0.12937564 -0.2916689 0.028756747 0.053249497
000170 c0 f7 84 3e 30 8e 5c bd 36 fb a5 be 0c 13 37 3e
       0.25970268 -0.053846538 -0.3241822 0.1787836
000180 ac 3a b6 3e cf 4c 5d 3e d5 df 68 be cb fc 57 3d
       0.35591638 0.21611331 -0.22741635 0.052731317
000190 96 10 3c 3e b2 cf 16 bd 83 7c a4 3d 0e 25 e6 bc
       0.18365702 -0.036819167 0.08031561 -0.02809384
0001a0 1b 5a 59 3b 9f 0a c8 3e 18 ee b9 bd 09 9e 06 3e
       0.003316528 0.39070603 -0.09078616 0.13146223
0001b0 34 4f ba 3d 8d 29 2c 3e b6 d5 28 be 69 b8 a9 3d
       0.09097138 0.16812725 -0.16487774 0.082871266
0001c0 99 93 c9 3e d4 f0 ab 3d f7 57 d5 bd d5 7a 81 3e
       0.3937042 0.08395544 -0.104171686 0.25289026
0001d0 bf d8 c7 3d 6a db 04 3e 8b 05 fb bd fb 27 e8 be
       0.09758138 0.12974325 -0.122569166 -0.45343003
0001e0 e2 fc c2 bd 25 4b 33 be 66 72 91 be c8 0c 8f 3d
       -0.0952089 -0.17509134 -0.28407592 0.0698486
0001f0 8f fd f3 3d c7 ec b6 bd c7 c9 43 3e 04 06 08 3d
       0.11913597 -0.089318804 0.1911994 0.033208862
000200 e1 65 10 3f e8 0a 2a 3c 8f 69 35 be f5 93 f6 bd
       0.56405455 0.010378577 -0.17716049 -0.12039939
000210 74 ae 5e 3e 24 97 f3 3d 30 90 8e bd 50 41 26 3e
       0.21746236 0.11894062 -0.06961095 0.16235852
000220 ae eb 30 3e a2 a0 b9 bd 8d 0c 67 be 28 b9 6e bd
       0.17277405 -0.090638414 -0.22563381 -0.058282048
000230 dd 24 64 bd 04 90 85 be df a4 08 bf bd 3e a9 be
       -0.055699218 -0.26086438 -0.53376573 -0.33055678
000240 57 06 88 3e db fb d4 3d 24 40 23 3d b1 5c ca be
       0.26567337 0.103996 0.03985609 -0.39523843
000250 57 08 22 3e 1d ca 48 3e a3 6a 96 bc f1 82 e0 be
       0.15823494 0.1960835 -0.018361395 -0.438499
000260 80 2d 39 3e af 4d bb 3d 9e 69 32 3e 32 31 be be
       0.18083763 0.09145676 0.17423102 -0.37146908
000270 63 5f 80 3d f9 e6 90 bd d4 42 b6 bd f4 19 f2 bd
       0.062681936 -0.070753045 -0.08899465 -0.118213564
000280 43 50 45 be b6 49 c2 be 6e 99 ed bd 15 28 71 3e
       -0.19268899 -0.37946862 -0.1160153 0.23550446
000290 ca cf 88 3c 39 3e 60 3e 60 8d 98 bd 6d 35 17 3e
       0.016700644 0.21898736 -0.0744884 0.14766474
0002a0 4c 83 be 3d ca 74 05 3e 82 58 83 bd e0 65 7b 3c
       0.09302387 0.13032833 -0.06413366 0.015344113
0002b0 9b 61 5f bd b9 b2 62 3d cf 1f 75 3c d6 55 03 3e
       -0.054536443 0.055346224 0.014961197 0.12825713
0002c0 76 bc 86 bd e1 a7 fc 3d b6 b9 2c 3e 40 67 2d 3f
       -0.06578915 0.12336708 0.16867718 0.6773567
0002d0 91 9f 26 be 99 dc 49 3d e7 f7 93 3d 15 1b 45 be
       -0.16271807 0.049282644 0.07225018 -0.19248612
0002e0 fb c6 5a be 7e 38 96 be 49 9a ff bd 01 46 26 3e
       -0.21364968 -0.29339975 -0.124805994 0.16237642
0002f0 59 f3 f7 3d 68 b8 e8 bd b2 88 3b 3d 8c 14 2c be
       0.12106962 -0.11363298 0.04578466 -0.16804713
000300 b6 a7 ee 3e 8d db 6c be fc ef d6 bd 84 b4 23 bf
       0.46612328 -0.23130627 -0.10494992 -0.6394732
000310 b7 3e ea bc 33 c2 59 3c 41 42 9e be 0d 4a 77 bc
       -0.028594358 0.01329093 -0.30909923 -0.015093339
000320 aa 26 f1 3e 8d 2d 65 3d 5a 37 a5 bd 69 50 55 be
       0.4709981 0.055951644 -0.08067198 -0.20831455
000330 99 71 9b be 43 b3 dd 3d da c9 33 bf be b7 8e be
       -0.30360106 0.10825207 -0.70229876 -0.2787456
000340 ee bb 1a be ab 3d ef 3e 28 e5 b3 be 67 0b 25 bf
       -0.15110752 0.46726736 -0.3513577 -0.64470524
000350 e2 40 84 be 38 64 6a 3e 39 b7 82 3d ec 15 eb be
       -0.25830752 0.22889793 0.06382603 -0.45915163
000360 ca cc fc bc 7f 3c 8e be cf e8 3b 3d 54 72 75 be
       -0.03085937 -0.2778053 0.04587632 -0.23969394
000370 a1 68 14 bd b8 ff 2c bc c8 7c 04 be 75 e9 15 3e
       -0.036232594 -0.010559015 -0.12938225 0.14639838
000380 01 29 ff 3d e4 d1 9e 3d 4f c2 ad bd f4 2d 56 3e
       0.12458993 0.07754877 -0.08484327 0.20915967
000390 3f a3 dd 3d 58 7c ac be 40 32 a3 be 22 f2 16 3e
       0.10822152 -0.33688617 -0.31874275 0.14740804
0003a0 7c f7 2c bd 01 b3 d9 3d 24 58 ad 3d 33 93 47 3d
       -0.042228207 0.106298454 0.08464077 0.048724364
0003b0 8f 86 b8 3e 12 29 e3 bc 15 ac e0 3e f2 c3 1d be
       0.3604016 -0.027729545 0.43881288 -0.15406778
0003c0 6e 11 cb bd 82 1e 07 be 38 e3 72 3d 94 ac e7 3a
       -0.09915434 -0.13195232 0.059298724 0.0017675334
0003d0 5a ac f6 be ec 69 aa bd 8a 3f 2f 3e a4 2c 9e 3e
       -0.4817837 -0.08320984 0.17114082 0.30893433
0003e0 6c da 6a 3e 95 38 3e 3e 4e 16 92 be 83 6a 01 bd
       0.22934884 0.18576272 -0.28532642 -0.031595718
0003f0 26 e0 5e be 46 e8 fa bc 36 8d a4 3e 03 53 4d 3d
       -0.21765193 -0.030628335 0.32138985 0.050127994

actor.init_next_embed.2.add_bias._bias f4 [64, 1]
000000 b0 92 a4 3e 5c 12 68 bf 90 7f 38 3f 2b ad c8 3e
       0.32143164 -0.90653014 0.72069645 0.39194617
000010 59 15 c8 be 9b db ef 3e 3c 36 3b bf 83 22 e4 3e
       -0.39078787 0.46847233 -0.7312963 0.4455758
000020 10 90 04 bf 10 80 cd 3c 74 11 00 bf af 67 bf 3d
       -0.5178232 0.025085479 -0.5002663 0.09345948
000030 f8 d3 e6 3e 48 16 89 be ae 50 42 bf 3e 68 5b 3e
       0.45083594 -0.26774812 -0.7590436 0.21426484
000040 27 c8 d7 3e d7 65 31 3f 26 ad 68 bf 7b aa 13 bf
       0.42144892 0.6929602 -0.90889204 -0.5768201
000050 6c a1 f9 be 26 f3 bc 3e b5 bc b3 bd b0 5e c6 3e
       -0.48755968 0.36904258 -0.087762274 0.38744116
000060 00 02 cf bd 03 95 2b bf 5f 88 93 be d3 ab 33 3e
       -0.10107803 -0.6702425 -0.2881498 0.17546014
000070 76 27 de bd 68 e4 35 be b3 a5 bc bd fa 77 1c 3f
       -0.1084737 -0.17762911 -0.09211292 0.6112057
000080 2e 66 1d 3f 11 7b 4e 3c 3b 7b 8e 3f 4c 64 f3 3e
       0.6148404 0.0126025835 1.1131357 0.47537458
000090 74 71 35 be be be df 3e b6 05 a7 be 7f 06 5e 3f
       -0.1771906 0.43700212 -0.32621545 0.8672866
0000a0 f3 e5 53 bf 8c 2a 86 bf 94 2b 7b be dd fa fe 3e
       -0.8277275 -1.0481734 -0.24528342 0.49800768
0000b0 35 9b 89 be 55 00 4f bf bb f8 03 bf a5 5c 3b 3f
       -0.26876226 -0.8085988 -0.5155141 0.7318824
0000c0 01 0a 2e 3e d1 0a 23 bf a5 ed 83 bf 7c 47 2c bf
       0.16996004 -0.6368838 -1.0306898 -0.67296576
0000d0 95 63 15 3f d8 83 e6 3d 8f a8 59 be 0f b7 d9 bd
       0.58355075 0.11255616 -0.21255706 -0.10630619
0000e0 12 1d 0f bf 39 a7 85 be 42 de bb be 92 27 bd 3d
       -0.5590373 -0.26104143 -0.36693007 0.09236063
0000f0 0a 1c 6a 3e 40 f5 7b be fb 62 09 3e 2e 6c 43 3f
       0.22862259 -0.24605274 0.13416664 0.76336944
