pretrained_models/experiment/Discrete_acktr_10x10x10Bin_s42_inh_800_defaultBox-2022.08.19-23-47-51/PCT-Discrete_acktr_10x10x10Bin_s42_inh_800_defaultBox-2022.08.19-23-47-51_2022.08.20-03-17-28.pt (torch, 236314 bytes, 24 tensors)

actor.init_internal_node_embed.0.module.weight f4 [32, 6]
00000000: 2bb2 9fbc 8295 833e 5cc3 ea3c a68d a3be
00000010: 7c77 0c3e 8be6 febd 2a16 cf3e ce9c b43e
00000020: e015 8bbe c80d 9bbe ea52 79be 0859 d2bd
00000030: 0048 113e 6cd6 7f3d 0cdb 2cbe 438b 313e
00000040: 97d6 95be 2c15 c9bd 2f33 e6bd 47ea ce3c
00000050: e31f f0be d01e 983e 0895 5f3e ab80 083f
00000060: 6340 0d3f 65e7 3c3d 1553 073f d900 be3e
00000070: 9afb ca3d 69c7 033d 5cdb 3c3d 336b 873d
00000080: 4663 47be c2be bd3d dd82 02bf e109 bfbe
00000090: 8ab6 5cbf 61b8 3e3f d5a5 d53e 5c7e 5e3f
000000a0: bc09 54bf 1965 fabd 8e53 8e3e f63f 62be
000000b0: cfe2 7f3f 7abf 1abe 9e9f 92be 40e8 8cbe
000000c0: 1352 39bf 23f6 c1be b2eb ebbe 431d 003f
000000d0: be2a 033f 4d32 cb3d 4285 3c3f 5b86 ab3d
000000e0: 3909 f2be 7875 0c3f 9e4b 8a3e 0c4c 5dbd
000000f0: efdb f93c 5a04 c83e cb47 94be 3ca8 8a3c
00000100: e1c7 353e 1259 bebe 3eee 60be 32da 0c3e
00000110: 54bb debd f225 83be a722 4abd c6cc 8fbe
00000120: b41c a13e f906 d4be e1bd 30bd f2a7 833e
00000130: 79fd 03bd 93d9 0abe 3679 2d3f c82d c43e
00000140: 1336 34be 0a4e d8be ad01 533e cad3 babc
00000150: fac2 49be bd7a 89bd 305f babe d997 123e
00000160: 3fc4 d63e 25ec fabe 86ca 66bd e088 acbe
00000170: 18d9 f4bd 1d1c d53d c441 a53e c624 e8be
00000180: 535b 8f3e 27df 51be 45ef 893f 0ff9 2fbf
00000190: 4e7b 9a3e 724b efbd 531e 8cbd a48d 2c3e
000001a0: 85bf e13b c92b 143e 6c08 00bf 911d 8abe
000001b0: f416 bcbc ecc6 b7bc ac47 2fbf 347f 23bc
000001c0: 08ac 9b3a 0d11 2f3e d76d ba3e 2b88 d5be
000001d0: 1cb1 ee3b ca50 e5be 9aea 383e 402e bd3e
000001e0: 760d c73e 9474 503f 0a6a 683d c636 de3e
000001f0: f549 e93d 303a 1fbf 75b2 51be f5ed 96bd
00000200: 4db7 37be 4e0a 813d 7e5b aebd 951f d8be
00000210: d161 11bf 14e1 02bf c062 51be c208 0c3f
00000220: b362 703e a889 313e a115 e73c 6d89 5f3d
00000230: e491 81bf 66d8 21be 4838 acbe 368b 383f
00000240: 09fa 43be 409b 49be 646f 1d3f 8d42 013e
00000250: d6a3 9c3c e88d 8d3d 3882 0a3e b452 d03d
00000260: 431f a93e 2ff3 c5be c38f a8be c7f4 e63e
00000270: d9a5 dcbd 3abc bd3e 81bb 93bd e8e3 3e3e
00000280: b9d9 3c3e 2584 c3be dc4b b1bd 086f 143e
00000290: 5f0b 3b3f 9c0f a9be c44f c63d d328 2e3e
000002a0: 364a 8fbe 0b8b 1ebf 4d23 59bb cca3 843d
000002b0: 667b 023c cceb 4ebe cad5 adbe d5be f53d
000002c0: 1cb6 703e 2c30 23be 085d 123e dfe6 7abd
000002d0: 69b1 193e 8046 393e 5546 2abc 812f c43c
000002e0: eb30 03be d618 9fbe 6171 f73e 7ea4 693e
000002f0: 60e0 1dbf f395 b0be cd63 37be 543d 823e
-0.019494137 0.25700003 0.028657608 -0.31944007 0.13717455 -0.12446316 0.40446597 0.35275882
-0.27165127 -0.30283952 -0.24348035 -0.102708876 0.14187622 0.062460348 -0.16880435 0.1733828
-0.29265282 -0.09818491 -0.11240231 0.025258197 -0.46899328 0.29711008 0.21834195 0.5332133
0.5517637 0.046119113 0.5286115 0.37110022 0.099112704 0.032172594 0.046107635 0.066122435
-0.19471464 0.092649 -0.5098093 -0.37312225 -0.8621603 0.7450009 0.41728082 0.8691156
-0.82827353 -0.12226314 0.27798122 -0.22094712 0.9995546 -0.15112105 -0.28637403 -0.27520943
-0.7239086 -0.378831 -0.4607826 0.5004465 0.51237094 0.099217035 0.73640835 0.08375236
-0.4727266 0.54866743 0.27010816 -0.054027602 0.03050038 0.3906582 -0.28961024 0.016925924
0.17752029 -0.3717733 -0.21965882 0.1375511 -0.10875574 -0.25614887 -0.049349453 -0.28085917
0.3146721 -0.4141157 -0.043149833 0.2571407 -0.032224152 -0.1355956 0.6776308 0.38316178
-0.17598753 -0.4224704 0.20606108 -0.022806067 -0.19703284 -0.067128636 -0.36400747 0.14315738
0.419466 -0.4900829 -0.056345485 -0.33698177 -0.1195547 0.10405753 0.32276738 -0.45340556
0.27999362 -0.20495282 1.0776144 -0.6873941 0.301722 -0.11684312 -0.068417214 0.16850907
0.006889286 0.14469828 -0.5001285 -0.26975682 -0.022960164 -0.02243372 -0.6846874 -0.009979058
0.0011876831 0.17096348 0.36411926 -0.4170545 0.0072842967 -0.447882 0.18058243 0.36949348
0.38877457 0.81427884 0.05674175 0.43401164 0.11391059 -0.6219816 -0.20478232 -0.073696055
-0.17941017 0.063007936 -0.085135445 -0.42211595 -0.5678988 -0.5112469 -0.20447826 0.54700863
0.23475151 0.17337668 0.028208556 0.05457442 -1.0122647 -0.15805206 -0.3363669 0.7208742
-0.1913835 -0.1968813 0.61498094 0.12623043 0.019121092 0.06911832 0.13526237 0.10172024
0.33031663 -0.38662097 -0.3292218 0.45108625 -0.107738204 0.37057668 -0.07213498 0.18641627
0.1844243 -0.38186756 -0.08657047 0.1449548 0.73064226 -0.33019722 0.09683183 0.1700776
-0.27986306 -0.6193091 -0.0033132613 0.06476554 0.007963991 -0.20207137 -0.3395217 0.11999289
0.23506969 -0.15936345 0.14293301 -0.061255332 0.15009083 0.180933 -0.010392745 0.023948433
-0.1281163 -0.31073636 0.4832869 0.22816655 -0.61670494 -0.34489402 -0.17909165 0.25437415

actor.init_internal_node_embed.0.add_bias._bias f4 [32, 1]
00000000: cbaa 53bb 8af0 743b 9625 00bc 3b00 343d
00000010: 6cbc c13d 83fa dc38 8b42 92bc c348 02bb
00000020: 70d7 333c fc9e e13d bc64 193d ad81 7b3c
00000030: 20f7 9e3c 936d 6d3c b1a5 28bc 98f8 51bc
00000040: cbb3 343b 023a 0c3b 1fa9 a4bb 108b 933c
00000050: c5d9 c13c 4ec4 02bd 1de3 443c f6a8 213c
00000060: 92fb 6a3d d260 833b 8073 2cbb c7ae 9cbb
00000070: 7bca 5abd 4ad0 ddbb 074c 79bc 86b0 80bb
-0.0032297845 0.0037374818 -0.007821461 0.043945532 0.09459767 0.00010537079 -0.017853996 -0.0019879795
0.010976657 0.11016652 0.037449583 0.015350741 0.019404948 0.014491457 -0.01029341 -0.012815617
0.0027572985 0.002139688 -0.0050250436 0.018010646 0.02366341 -0.031925492 0.012017039 0.009866944
0.057368822 0.0040093446 -0.002631396 -0.0047815773 -0.053415757 -0.0067692148 -0.01521588 -0.0039272932

actor.init_internal_node_embed.2.module.weight f4 [64, 32]
00000000: 4ffa 91be 8737 143e ebcd 0dbd ca45 223e
00000010: 0741 853f 09dc 583d 0f5c f33d ae33 d93d
00000020: 8ac1 debe 4fc0 4cbe 2831 ccbe fa1b 153e
00000030: 8174 6fbe 8423 21be 5ddd b73d f0be 39be
00000040: 8d2f 923e 32ff 09bd 6678 b8bd 1009 3a3e
00000050: 9d65 46bc 969e 11be c826 b1be 1e49 03bf
00000060: 318b d7bd ff47 ba3e 9523 0ebd 6359 0c3f
00000070: 480b 90bd 3064 6ebe cd4d 73be c0a3 3bbd
00000080: 3be6 80bd 7f3f e8be 2e7b 51be 5ccd b4bd
00000090: 7c72 23be e1e8 5b3e ce41 39bd 876a ee3e
000000a0: 4490 abbd bb2b 01be 0f41 793e 13c5 66be
000000b0: cd72 53be 4536 55bd b04e 053e 7635 853e
000000c0: bea0 0fbe bc62 b8bd aa39 cabd e0e7 5bbe
000000d0: 1ce2 833e be4b f13c 339d df3e 3df5 23be
000000e0: 9b14 383e 5948 bfbd 6a56 d6bb 5399 063e
000000f0: 9159 8abe f810 2a3e e206 153f 6ca8 dc3c
00000100: dfea d23e 785d 22be 640f adbd 3546 063f
00000110: 2f4c 3a3e b434 823e b458 b3be 0c3b 64be
00000120: 708d 013f 2101 883d 9e64 b8be 3025 84be
00000130: 8e49 d43e 540e a7be 1f7d 06bd e2f0 a4bc
00000140: 305a 923e bd4a dc3d f1e5 35be 65ed 913c
00000150: bd66 d1be 39d8 e63c 6b4f f23e 8b22 90be
00000160: 394a e3bd db6d b8bd 9eb1 00bf 9cb6 953e
00000170: 3478 5dbd 51c9 033d 8a2d 623e 78a3 97bd
00000180: acec b93b 2d45 d23e 6d6a bcbd 1485 9e3e
00000190: 93f7 093e 4be8 15be 4fca 82be f225 eb3d
000001a0: c326 ac3e db80 4d3d 20a1 8e3e 5cff ae3e
000001b0: 009e a1be 1784 a43c 65c1 9f3d 6517 e2bd
000001c0: 4f57 6ebd 19db 54be 8a25 783d 42fb 05be
000001d0: b78d 4d3e cf06 e73c 8b6d bb3e c378 ad3c
000001e0: 0427 ccbe f78f d93d 7d02 bf3e 0905 8f3d
000001f0: 82aa 153e 3189 923e 2294 643e e71e 173d
00000200: 36ca 85be 4829 0f3d 175c 4b3e 21ae 76be
00000210: bcb6 babe 0ad7 7d3c 915a 23be 608e c93d
00000220: 0b0a 2dbd f750 e93e 0414 f73e 05b0 36bd
00000230: 03fe 6c3d 9ce6 bc3d 24fa 71bd 4413 19bd
00000240: fbb3 cb3d 7090 ee3d 57af 01be ec56 85be
00000250: 4611 7c3e 8bc9 793d 378f 953d d02a 7bbe
00000260: 944b b3bc 23b0 e93d 8bf0 c73e b5f1 92be
00000270: c7ef 993e 53a6 8e3d 5a32 18be db65 6cbe
00000280: 247b 1a3d f99d 603d 222e 49be 5bc8 bb3e
00000290: fa69 b33d c983 cdbc db1f 303e 3a37 abbe
000002a0: eb20 943e 926f 4e3e 4806 163f 3cbd 03bb
000002b0: 5026 cb3e 5cb7 b8bd 7dc7 953e ef02 41bd
000002c0: 10f7 8fbd f418 49bd 0e5f 7e3e fcc0 07be
000002d0: 0806 6b3e ee36 bcbd 82cc 093e aba0 fc3c
000002e0: d2f2 8c3c 5dd6 c9bc 0048 13bd be85 a6be
000002f0: 9a44 a0bc e14c 353e b557 c93d d8e4 ac3d
00000300: 7f34 0fbe 4579 c2be 613d 34be a73f 1a3e
00000310: c31d e93b c82e 213d 3118 84bd 36ad 7bbe
00000320: 8b1b 1b3d 7aa4 213f b9a5 bbbe b3b3 673e
00000330: bbee 903e 59be 0b3e 3456 47be 40d3 12bd
00000340: 59af 96bd 0fd9 82be 39ba 533e ea62 953e
00000350: ac8f 14be 914c c73d e62f a6be 2df8 f23e
00000360: 2b2a 1dbf 9932 95be abf1 153e 2ee0 c13c
00000370: 0175 ef3c fcc3 043f ebeb e2be 3fa0 a0be
00000380: 5560 d03e ca6b cc3e 6317 8c3e 34aa d3bc
00000390: 39db 083d 058b b03d 761c ff3e a223 613e
000003a0: 6926 0ebf c1c1 3bbf eb86 c5be 895d eebd
000003b0: 1c77 e23e 0950 b3be 0b1d f5bd b036 903d
000003c0: 5bfd 5d3d d909 b7ba e24f 9e3d 1b9a a03d
000003d0: d671 69bf db0b 42bd df14 db3e 380f bf3e
000003e0: 8ff0 293f 4998 853d c4b0 e0be e929 323e
000003f0: 281c 943d e77f 2d3e 9efe a4be a03e 55be
-0.28511283 0.14474307 -0.034620207 0.15846935 1.041047 0.052944217 0.11882793 0.1060556
-0.43507034 -0.19995235 -0.39881253 0.14561453 -0.23384286 -0.15736204 0.089777686 -0.18139243
0.28551903 -0.03369064 -0.09007339 0.1816752 -0.012109187 -0.14220652 -0.345999 -0.5128344
-0.105245955 0.36383054 -0.034701902 0.54823893 -0.07033402 -0.23280406 -0.23760147 -0.04581046
-0.06293913 -0.45360944 -0.20457146 -0.08828232 -0.15961641 0.21475555 -0.045228772 0.4656565
-0.08377126 -0.12614338 0.24341224 -0.22536115 -0.20649262 -0.05205371 0.13018298 0.2601735
-0.14026162 -0.09003207 -0.0987428 -0.21475172 0.25758445 0.029455062 0.4367462 -0.1601152
0.1797661 -0.09339971 -0.006541063 0.13144426 -0.2702146 0.16608036 0.5821363 0.026935779
0.41194817 -0.15855968 -0.08450201 0.5245088 0.18193124 0.25430834 -0.35028613 -0.2228815
0.5060644 0.0664084 -0.36014265 -0.25809622 0.41462368 -0.3262812 -0.03283417 -0.020134393
0.28584433 0.10756443 -0.17763497 0.017813394 -0.40898696 0.028179275 0.47326216 -0.28151354
-0.11098141 -0.09005328 -0.5027102 0.29240882 -0.054069713 0.032174412 0.22087684 -0.07404226
0.0056739654 0.41068402 -0.091999866 0.30960906 0.13473348 -0.14639394 -0.25544974 0.11481847
0.33623323 0.050171714 0.27857304 0.341792 -0.31565857 0.020082517 0.07800559 -0.110396184
-0.058188733 -0.20786704 0.060582675 -0.13084128 0.20073591 0.028201489 0.36607012 0.021175748
-0.39873517 0.10623162 0.37306586 0.06983382 0.14615825 0.28620294 0.22322133 0.036894705
-0.26130837 0.03495148 0.19859348 -0.24089862 -0.3646754 0.015493164 -0.15952517 0.09841609
-0.042245906 0.45569584 0.48257458 -0.04460146 0.057859432 0.09223673 -0.059076443 -0.03737189
0.09946438 0.11648643 -0.12664543 -0.2604288 0.24615964 0.060983222 0.07302707 -0.2452805
-0.021886624 0.114105485 0.39050707 -0.28700033 0.30065748 0.069653176 -0.14862958 -0.2308573
0.037715092 0.054838154 -0.19646505 0.36676297 0.08760448 -0.025087254 0.17199652 -0.33440572
0.28931364 0.20159748 0.58603334 -0.0020101806 0.39677668 -0.09019348 0.2925376 -0.04712194
-0.07029545 -0.049096063 0.24840948 -0.13257211 0.2295152 -0.091901645 0.1345692 0.030838331
0.01720563 -0.02463835 -0.035957336 -0.32523912 -0.019563962 0.17705108 0.09831182 0.08442086
-0.1398487 -0.37983146 -0.17601539 0.15063344 0.0071141436 0.039351255 -0.06449927 -0.24577793
0.037868064 0.63141596 -0.36649874 0.22627144 0.28307137 0.1364683 -0.19466478 -0.035845995
-0.07357664 -0.25556228 0.20676507 0.29177028 -0.14507931 0.09731401 -0.3245842 0.47454968
-0.6139247 -0.29140165 0.1464297 0.023666468 0.029230596 0.5186155 -0.44320616 -0.31372258
0.40698496 0.39925987 0.27361593 -0.025837995 0.033412192 0.08620266 0.498264 0.21986249
-0.5552736 -0.7334252 -0.38579497 -0.11638934 0.44231498 -0.35022 -0.1196843 0.07041681
0.054196697 -0.0013964727 0.0773008 0.07841893 -0.91189325 -0.047374588 0.4278936 0.37316298
0.6638269 0.06523187 -0.4388486 0.173988 0.07231933 0.16943322 -0.32225507 -0.20824671

actor.init_internal_node_embed.2.add_bias._bias f4 [64, 1]
00000000: 7eb8 11bc 758a d4bc 49dd 843d 2d18 cc3c
00000010: eaaa b03b 0edc 413d d8bc 1cbc 93c2 c83c
00000020: be70 ffbc e0cd 3bbd 20ef 0abc 71ef fbbc
00000030: 667b c0bc 9fe1 48bd d0b8 4bbd b119 7ebb
00000040: 8c23 953d f1df 3abc 75f5 81bc 289f 29bd
00000050: c902 85bc eec9 b63c f7cf 133d 3901 ce3d
00000060: 3c8d 4139 6f3a 59bd 849e 013c cd25 663d
00000070: 8b12 283d ec8c 42bd e9da c83d 4cc7 783b
00000080: 6936 ebbc 9cf4 64bd c6d0 5abd 17e6 0dbc
00000090: ee6c 173c 5325 febc c6c1 813d 2787 253d
000000a0: 2d38 8bbd 4c5e 013d 3881 933d ef02 223d
000000b0: 3f78 ee3c d27e 1ebd 37b1 243d 5b83 e23d
000000c0: fcba d9bb 4ca0 e63b e74b 3d3d df82 1d3d
000000d0: 5c46 21bd 2ba8 45bd 08c9 4bbd a229 a23d
000000e0: 328f 173d 50d8 06bd 86e2 d03c 2d79 c7bc
000000f0: 40b6 adbc 60c8 bcbb bd2c 73bc 0ca3 513c
-0.008894084 -0.025944928 0.06487519 0.024913872 0.0053914683 0.047329 -0.009566508 0.024506843
-0.03118169 -0.045850635 -0.008479863 -0.030753823 -0.023496341 -0.049043294 -0.049736798 -0.0038772637
0.07282171 -0.011405931 -0.015864113 -0.04141155 -0.01623668 0.022313084 0.036087003 0.10058827
0.00018458528 -0.053034242 0.007911328 0.056188393 0.04103331 -0.047497675 0.09807379 0.0037960587
-0.028712468 -0.05589734 -0.053421758 -0.008660815 0.009242279 -0.031023657 0.063357875 0.040412094
-0.06797824 0.03158407 0.07202381 0.03955358 0.029110072 -0.038695164 0.040208068 0.1106021
-0.0066446047 0.007038152 0.046214964 0.038454887 -0.03937374 -0.04825608 -0.049752265 0.07918097
0.037001796 -0.032921135 0.02549864 -0.024349773 -0.021205068 -0.0057611912 -0.014842209 0.012795221

actor.init_leaf_node_embed.0.module.weight f4 [32, 8]
00000000: 3cb8 5cbe 410b b0be 7883 563e ac7d 533e
00000010: 4065 fb3c 1b65 013f d68f aabe 3fc3 9ebe
00000020: 22be e4be b026 f2bd 1bfb cb3e 7014 37bd
00000030: d11a 533e 2a0f 5dbe 968d 7a3e 9304 58bd
00000040: 3fdf 32bc e29a eb3d 3bd7 86be c1c5 b4bc
00000050: 8a12 6bbe d695 5fbe 6601 a23d b765 c5bd
00000060: 15a1 cabe 5850 9c3c bbae 593e 961f f4bc
00000070: 2856 b33e 405a cb3c 137c 80be dba0 493c
00000080: bec0 853c ff87 0ebf 9e22 b93e ff1b b4bd
00000090: 7afa bfbd 60fc 9b3c 862d 2abe 19bb 113e
000000a0: 7fc4 b7be 438e 7ebc bcbe 7dbe a339 3b3e
000000b0: e4c1 25be 43f0 fc3d 3ec0 2bbe 665a 303c
000000c0: 31e0 88be c952 503e 7abf c2bd 2ec3 da3d
000000d0: dd36 abbd 6122 c3bd 9eb3 393d 9228 273e
000000e0: a50e 523e 7167 433e 399c d33e 0380 04be
000000f0: 8a62 2bbe 7001 e7bc c2df 28bf 7b28 a8bd
00000100: 586c f3bc caaf ae3d 5248 5b3e 42b0 fb3c
00000110: d564 7f3d 0220 9d3e a02f 573d 6a5c 323d
00000120: b76c fbbe 18e4 fdbd 8759 893d 986a ad3d
00000130: fd38 b23e 08e0 54be e55d d7ba b95f 04bf
00000140: d421 cfbe 857d 5c3d 20b4 adbe 647d 15be
00000150: 1631 f23e 279e 8b3e 5b21 6bbe b45d ffb9
00000160: d0fd 073e c5ea a4bd 9992 943e 4046 7ebe
00000170: 2cc4 a3bd 11fd 9bbe eb3e d63e 2994 583c
00000180: f928 71be 1d9c 3fbe e69b c03e 62c4 e53e
00000190: 4488 863e e34c b63d 4adf ad3e 1e36 de3e
000001a0: a363 053e b727 af3e 3cd3 843e 88b3 74bd
000001b0: 1e0d 08bf 84ab 22bb 3f4e 4abd eb74 65be
000001c0: 93ab e33e 2ea4 d53e 377a c73d 45dd ce3e
000001d0: 4237 943d babb 3a3d 2050 0a3e 16e2 1d3e
000001e0: 5f3b 483d dec0 cdbd 46d3 9bbd 567d 4b3e
000001f0: 6a72 2fbe fa6b 9d3e 8dd3 2d3d abae 313e
00000200: 7e5a 983e 01e8 9e3e 5ae4 d7bd 0f7f e0be
00000210: c54b c43c 6877 80be f785 63be adf6 2d3e
00000220: 3e6f a1be 212d 943e 5658 b9be 5a82 e63e
00000230: 79a1 23be 4c94 c7bd 78f0 57be e2f2 623e
00000240: 48b5 8d3d af5d 7f3b 8e47 12bf 0799 2fbe
00000250: 41b6 793e 3223 c93e 5811 bf3d b951 23be
00000260: aa83 46be 4c29 87bd 1125 ecbe d258 f9bd
00000270: fe0b 8abe cf9b fbbe 863e 7f3e ca62 9fbd
00000280: 3947 113e c41c dc3b c812 3a3e f8bf e73e
00000290: 7747 fc3e a4f6 aabd 7672 963e ada4 9cbd
000002a0: 5955 8cbe 196b ec3e 2475 183e 1585 4fbe
000002b0: 46ac ae3e b51b 8abe d02c 2bbd 857a 493e
000002c0: 4543 213e 24cb d2be 02f1 24be 26aa b0be
000002d0: bed7 c63e 5abc a0bc 12fd e13e 0d1c 6b3e
000002e0: db3a 9d3d cebf 093f 7b95 5d3e 915e 1bbf
000002f0: 7572 18be c8a5 1f3f acdd 0f3e 113e ca3e
00000300: 0b00 0fbe 5a03 94be 57f8 46be df95 16be
00000310: 25d8 343e 4e51 b0be 5ed5 9abd ca4f 163f
00000320: 1858 2d3e ba4f b9bd c610 44be 964a 103e
00000330: 6be6 c3be af33 74bc 9e2c a2bb cf25 ba3e
00000340: 91b6 87be da32 313e 0ce9 053e 3652 90be
00000350: c277 f3be fd3f 1abe b90b d03e b112 44be
00000360: 06b2 16be fb2a 873e 9722 8d3e d8d5 1f3e
00000370: 8afb cfbd ca9b ea3e 655c 9c3e 15dc 43be
00000380: 9a5f 6f3d d414 bcbb 7b10 af3e dfa5 0ebe
00000390: 85d4 e8bd ff71 ffbe 6038 76be d6e0 b8bd
000003a0: 02f6 a73e c042 8d3e d188 67be 3882 503e
000003b0: 582f 033f 0695 76bd 73cd 243e 624f ffbe
000003c0: 84ff 403d f0fc bcbe 54e4 38be 055f b1be
000003d0: b691 8ebe ee40 cb3e 9b47 a33d 763a 80be
000003e0: db0a e9be bc33 263d be62 60be 1762 a4bd
000003f0: 119d 92be 1e05 2abe 6bf0 8d3e b203 55be
-0.21554655 -0.34383586 0.20948589 0.20653409 0.030687928 0.505449 -0.33312863 -0.31008336
-0.4467631 -0.11823785 0.39840016 -0.044697225 0.20615698 -0.21587816 0.24468073 -0.052738737
-0.010917484 0.11504151 -0.26336083 -0.022066953 -0.22956291 -0.21834502 0.07910423 -0.09638541
-0.3957602 0.01908128 0.2125806 -0.029800218 0.3502667 0.024823308 -0.2509466 0.012306417
0.016327258 -0.55676264 0.36159223 -0.08794402 -0.093739465 0.01904124 -0.16618928 0.14231528
-0.35892102 -0.0155368475 -0.2477979 0.18283705 -0.16187245 0.12350514 -0.16772553 0.01076374
-0.26733544 0.2034408 -0.095091775 0.10681759 -0.08360074 -0.09528042 0.045337312 0.1632407
0.20513399 0.19082429 0.41330126 -0.12939458 -0.16736808 -0.028198928 -0.6596643 -0.08210846
-0.029714748 0.08529623 0.21414307 0.030723695 0.06235202 0.30688483 0.052535653 0.043545164
-0.4910638 -0.12397021 0.06706529 0.08467597 0.34809104 -0.20788586 -0.0016431181 -0.5170856
-0.40455496 0.053830642 -0.33926487 -0.14598614 0.47303075 0.27269098 -0.22961943 -0.00048707204
0.13280416 -0.08052591 0.29018095 -0.24831486 -0.07996401 -0.30466512 0.41844878 0.013218918
-0.23550786 -0.18711896 0.3761894 0.4487639 0.26275837 0.08901384 0.3395942 0.43400663
0.1302629 0.34209988 0.2594241 -0.059741527 -0.53145015 -0.002482147 -0.049391028 -0.22407882
0.44466838 0.41726822 0.097401075 0.4040319 0.07237102 0.045589186 0.13507128 0.15418276
0.048884746 -0.10046552 -0.076086566 0.1987203 -0.17133489 0.30746442 0.04243808 0.17351787
0.2975654 0.3103638 -0.105416015 -0.43846938 0.023961911 -0.250911 -0.22219072 0.1698863
-0.31530184 0.2894068 -0.36200207 0.45021325 -0.15979566 -0.09745082 -0.21087825 0.22162965
0.06919342 0.0038965752 -0.57140434 -0.17148219 0.2438593 0.39284664 0.0932948 -0.15949143
-0.19386163 -0.06599674 -0.4612203 -0.12175144 -0.26962274 -0.4914231 0.24926195 -0.077825144
0.14187326 0.0067172963 0.18171227 0.45263648 0.49273273 -0.08347824 0.29384202 -0.07648597
-0.27408865 0.4617546 0.14888436 -0.2026561 0.3411581 -0.26974264 -0.041790783 0.19675644
0.15748318 -0.4117061 -0.16107562 -0.34504813 0.38836473 -0.019621063 0.4413839 0.2295992
0.076772414 0.53808296 0.21639054 -0.6069117 -0.14887412 0.6236234 0.14049405 0.39500478
-0.1396486 -0.28908807 -0.19430672 -0.14705609 0.17660578 -0.3443703 -0.07560228 0.587155
0.16928136 -0.0904841 -0.19147024 0.14090952 -0.38261732 -0.0149049 -0.0049491664 0.3635697
-0.26506475 0.17304555 0.13077182 -0.28187722 -0.47552305 -0.15063472 0.40633944 -0.19147755
-0.14716348 0.2639998 0.27565452 0.15608919 -0.10155399 0.45821983 0.3053924 -0.19126923
0.058440782 -0.0057397876 0.3419226 -0.13930462 -0.1136866 -0.4989166 -0.24044943 -0.09027259
0.32804877 0.2758999 -0.22610785 0.20362175 0.51244116 -0.060200714 0.16093998 -0.49865252
0.04711868 -0.36911726 -0.1805585 -0.34642807 -0.27845544 0.39697975 0.07972642 -0.25044602
-0.45516095 0.04057668 -0.21912667 -0.08026522 -0.28635457 -0.16603515 0.27722487 -0.20802191

actor.init_leaf_node_embed.0.add_bias._bias f4 [32, 1]
00000000: 6aa3 ae3d a78b 4d3a 06d0 88bd c95a e83c
00000010: 7452 6d3c e58a 8abd 7fe7 233d 6a74 ea3b
00000020: 7317 f7bc b801 b13c d22f a33c 5c9e 6cbd
00000030: c5a5 143e 0eb1 733c b664 c03d 97af e2bc
00000040: 1dac a03d b88b 14bd ff39 babd 77b8 64be
00000050: 7d43 44bd 5b91 9a3a 4ee9 283c 7939 4ebd
00000060: 3b17 23be b621 febb 6378 13be 95c6 a83d
00000070: 6415 35bd ec72 da3d 3493 d63a f2ef 73bb
0.085272625 0.0007840939 -0.06680302 0.028363602 0.01448499 -0.06764773 0.040015694 0.007154991
-0.030162549 0.021607265 0.019920263 -0.05776821 0.14516361 0.014873756 0.09394209 -0.027671618
0.07845328 -0.03626606 -0.09093093 -0.22335993 -0.047915924 0.0011792587 0.01030953 -0.05034778
-0.1592683 -0.0077554835 -0.14401393 0.082410015 -0.044209853 0.10666451 0.0016370774 -0.0037221876

actor.init_leaf_node_embed.2.module.weight f4 [64, 32]
00000000: 5c14 223d b832 75be b43b 90be 0e6e e8bd
00000010: e47b 2b3e d056 413e 15a9 953d 2983 073d
00000020: 4694 e43d 215f cf3d 391d 8b3e 4de7 8abe
00000030: 5fab 21be d23a fb3d fb2a 06bf cd6c abbc
00000040: a216 4b3e 6d6a 233e d86a 26be 6cad dabd
00000050: d529 d73d ae21 7fbe 8d5e 963e 21ad 2f3e
00000060: 8c2c 8d3d 64dd abbe 8864 d4bd cc0c 6eba
00000070: de4d 103e d8cb 013d 00bf b0bd 7bf5 19bd
00000080: bb82 b2bd 21bd 6a3e 9fc2 003d 18dd 1bbd
00000090: d0d6 3a3d 3068 523e 4d26 f03d f5fa a9bd
000000a0: 5cd6 17be c480 6cbe bffb f53e 1ff4 24bd
000000b0: debb cfbd 7fdf b43d 40d9 013e 2437 84be
000000c0: 9302 05be 90a3 1bbe 2378 cabd 8153 44be
000000d0: 8231 d4bd 28ed dcbd 0a0f 7d3d 9f12 4dbe
000000e0: 1137 c1be cf82 65be 86db 9f3b 4289 3b3e
000000f0: 33f8 89be 1d5e ccbd c9d9 5c3e 8802 b63e
00000100: 942a 513e 55bf 98bc 8f68 00be 47fc ba3d
00000110: bc80 1b3e 9e8a 123a 0a05 a4bd 7885 613d
00000120: 4d21 d5be 9211 6abc 2ca2 c4be b4bc 32be
00000130: 06cb 65be ef75 fd3d bd21 5f3e f3c4 31be
00000140: 1486 d5bd 43c6 b63e 2071 8cbe 3e05 f0bd
00000150: 67a6 9c3c f062 df3c 6a8d 853d b8dd a4be
00000160: 86bb 87bc 4419 e23d d284 c0bd c839 3ebe
00000170: 959e 4abe 132c bebd 1aab bd3d 940c 1d3e
00000180: f831 c3bd 8786 3e3e 5b7b 473e beeb ae3d
00000190: 5f6e 313e f738 8e3d d322 5ebc 03b5 4d3e
000001a0: c9b5 213e 063b f9bd 1b53 97be 0dbf 813e
000001b0: d160 87be 12fc 593d b225 d7bd d890 353e
000001c0: 4932 bbbd b6ba b93e ba73 abbe 37c4 24bc
000001d0: 808c 6e3d 9492 ab3c 8aa2 7fbe 9b91 ed3e
000001e0: 8c41 aa3c e7ab 003d 989d 2b3e e549 6e3e
000001f0: 4676 983e 4df3 5abc 6b4b d23d afd3 163e
00000200: ecf4 b8bd 58db e3bd 5024 8f3d b4c4 183d
00000210: 1e69 a03d aa84 e5be 2c2b 713e 3813 e33d
00000220: 49ec 783d 45d6 913d c3a5 4cbe 061b b9be
00000230: 2868 e4bd cfc4 663e f33e 3c3e 1b55 5abe
00000240: 8f34 dbbe d510 dabe 0431 573e 397a e03d
00000250: 6414 9abe a01c 743e 19ee c8bc 208c 663e
00000260: f9ec fdbd ea42 3f3c c2eb 2fbe 8a48 913e
00000270: c98e 773e 2e62 953c 110b f33d b60d 41be
00000280: 381b 5b3e 276b eebc 59ba 21be 15c5 6dbd
00000290: d881 a8be 5420 36be 9934 b43e 1b3b c9bd
000002a0: 13a2 2c3e 3a32 bd3b 73af cfbe 0843 9f3e
000002b0: c9ed 113f 0542 043e 9b54 a63e 12a8 96be
000002c0: 5406 393e 9148 a4be 8e29 d1be a0fc 22be
000002d0: 9aa2 e63d 7a59 98be fd16 cdbd 51ab 2d3f
000002e0: a9be 993d 7c34 80be 7a25 99bd 89b3 543e
000002f0: 3298 21be d039 0abd 59ff 743d e115 4abd
00000300: f9f1 b83e 5e43 a3be 14f3 47bd 49af b5bd
00000310: 47d3 78be b6f9 dbbd 6dec 4e3e 3f38 983e
00000320: 46a6 ab3d ea27 2dbe 9a14 263e edb9 2c3e
00000330: 6f03 21be 0e7a 023e 3b26 ecbd c478 a53c
00000340: 843d c4be 0ee3 fd3e 77ec dd3e c68a 7d3d
00000350: 4b00 77be 8420 663d fe64 0ebe 3bc0 793e
00000360: d9ca 403d b53b 343e 843a 8bbd 1ebe 79bc
00000370: 4052 12be dd7b 6e3e dc6e 953c 10df 3fbd
00000380: acf8 f6bd 423d 943d 09ad 02be 2846 74be
00000390: f681 993d 2421 e4bd a948 76be 6b3f 1cbf
000003a0: 28be 143e 7145 03be 900d 363e 1e63 c73b
000003b0: d383 513e 973c cc3d 3aa3 9ebd 3dc1 983d
000003c0: a1e9 83be 2006 19be b7be 0ebf e3e3 35be
000003d0: 891d 183e b6f2 d23e a815 073e 4b32 7bbe
000003e0: 9acb ddbc eb6b 453e 78b3 533e c903 263e
000003f0: 0551 f8be 3bc2 8f3e 09c3 283e a593 5abe
0.039570197 -0.23945129 -0.2817055 -0.11349116 0.1674648 0.18880773 0.073076405 0.03308407
0.111610934 0.10125566 0.27170733 -0.27129593 -0.15788029 0.122670785 -0.52409333 -0.020925904
0.19832852 0.15958567 -0.16251695 -0.10677609 0.10506026 -0.24915192 0.29369012 0.17155887
0.06893262 -0.33567345 -0.10370737 -0.00090808864 0.14092204 0.03168854 -0.0863018 -0.037587624
-0.08716341 0.2292371 0.031435605 -0.03805265 0.045615017 0.20547557 0.11726055 -0.082998194
-0.14827865 -0.23095995 0.4804363 -0.040271875 -0.10143255 0.08831691 0.1268053 -0.2582332
-0.12989263 -0.15199113 -0.098861955 -0.19172479 -0.10361005 -0.107874215 0.06178192 -0.20026635
-0.37737325 -0.22413181 0.004878464 0.18314078 -0.26947173 -0.09978888 0.21567453 0.35548806
0.20426399 -0.018645922 -0.12539886 0.09130149 0.15185827 0.00055901136 -0.080087736 0.055058926
-0.4162697 -0.014286416 -0.38404977 -0.17454797 -0.22440729 0.1237601 0.21790214 -0.17360286
-0.10425964 0.35698137 -0.27430058 -0.1171975 0.019122316 0.027268857 0.06521113 -0.32200408
-0.01656891 0.11039975 -0.094003335 -0.1857673 -0.19787057 -0.0928575 0.09261151 0.1533683
-0.09531015 0.18606006 0.1948065 0.08541058 0.1732726 0.06944459 -0.013558107 0.20088582
0.15792002 -0.12169461 -0.29555592 0.25341073 -0.26441053 0.05321891 -0.10505237 0.17731035
-0.091404505 0.36275262 -0.3348673 -0.010056547 0.05823946 0.020943917 -0.24964347 0.4640015
0.020783208 0.03141394 0.16759336 0.23270376 0.29777735 -0.0133636715 0.10268291 0.14729188
-0.0903109 -0.11125821 0.06989348 0.037296966 0.078325495 -0.44827777 0.23551625 0.1108765
0.060772214 0.07120947 -0.19985108 -0.3615343 -0.11152679 0.22536014 0.18383388 -0.21321528
-0.42813537 -0.42590967 0.21014792 0.10960812 -0.30093682 0.23839045 -0.024527596 0.22514391
-0.123987146 0.011673668 -0.17179778 0.28375655 0.24175562 0.018235292 0.11867345 -0.18852887
0.21397102 -0.029103829 -0.15793742 -0.05804928 -0.32911563 -0.1778577 0.3519638 -0.098257266
0.16858701 0.0057738097 -0.40563545 0.31105828 0.57003456 0.1291581 0.32486424 -0.29425102
0.1806882 -0.32086614 -0.40852016 -0.15916681 0.112614825 -0.29755765 -0.1001415 0.67839533
0.07507069 -0.25040042 -0.07477851 0.20771612 -0.15780714 -0.03374654 0.05981383 -0.04933727
0.3612211 -0.31887335 -0.0488158 -0.088713236 -0.24299346 -0.10740988 0.20207377 0.29730412
0.083813235 -0.16909757 0.16218796 0.168678 -0.15723966 0.12741873 -0.115307294 0.020199187
-0.38328183 0.4958729 0.4334447 0.061899923 -0.24121206 0.056183353 -0.13905713 0.24389736
0.04706845 0.17600901 -0.0679827 -0.015243081 -0.14289188 0.23289438 0.018241338 -0.04684359
-0.12059149 0.072382465 -0.1276132 -0.23854887 0.07495491 -0.111391336 -0.24051155 -0.6103427
0.14525664 -0.12819459 0.17778611 0.0060848137 0.20460443 0.09972494 -0.07745977 0.07458732
-0.25764182 -0.14943743 -0.5575976 -0.17762713 0.14855017 0.412008 0.13191855 -0.24530904
-0.027074624 0.19279449 0.2067393 0.16212381 -0.48499313 0.28077874 0.1648065 -0.21345384

actor.init_leaf_node_embed.2.add_bias._bias f4 [64, 1]
00000000: 2e6a 92bd fa1d 3fbd 4570 2a3c 94d1 953c
00000010: 0acb 55bd 0442 aa3e b939 8d3d 1cb1 593b
00000020: c52d 87bd dee1 a03d 33af 9abd 12a8 713e
00000030: 960d 6bbd bd13 7abe b369 06bf a49e b23c
00000040: 1e95 67bd 0d3b 1c3e 5e6e 4fbe ed53 1ebd
00000050: 0968 11be 2914 1d3e 0bdc 103e 051b 543e
00000060: 1197 3fbd 4343 793e 9a0d 77be d7c1 083e
00000070: fbde 13be 61fa 85be 9872 d33d 3078 41bd
00000080: 1fb2 90bd f622 03bc 1cae 72be 4bdb 1b3e
00000090: 5765 e8bd 8896 0ebd 5d5f 01be 4867 88bd
000000a0: 97eb 46be 1d1d 483c adf5 0c3a ab1e b6bd
000000b0: 2cf1 083d 1ab0 b23d 76f8 ea3c df2a 853e
000000c0: dabb 103c c036 cc3d 05ad ee3d 1f3d 753c
000000d0: ee42 2fbd b7b3 0b3e 192b 2abd abb3 a0bd
000000e0: 283f edbd ce84 b1bd 6166 e7bd 9b2a 933e
000000f0: efa5 1e3e e88a 413c 84e8 3a3e 64b3 4abe
-0.071491584 -0.046659447 0.010402744 0.018288411 -0.052195586 0.3325349 0.06895775 0.0033217138
-0.06600527 0.07855581 -0.07552948 0.2359927 -0.057386003 -0.24421592 -0.52505034 0.021804161
-0.056538694 0.15256901 -0.20256945 -0.038654257 -0.14199843 0.15339722 0.1414644 0.20713432
-0.046774928 0.24342065 -0.24126282 0.13355194 -0.14440529 -0.26167586 0.103245914 -0.04723376
-0.07065224 -0.008003941 -0.2369923 0.15220372 -0.11347454 -0.034811527 -0.12634034 -0.06660324
-0.19425808 0.012213972 0.0005377185 -0.08892568 0.033433124 0.08724995 0.028682929 0.2600927
0.00883385 0.0997138 0.116540946 0.014968186 -0.04278844 0.13642775 -0.041545007 -0.07846769
-0.11584312 -0.086679086 -0.11298824 0.28743443 0.15492986 0.011812903 0.1825276 -0.19794995

actor.init_next_embed.0.module.weight f4 [32, 6]
00000000: dfd9 5cbf d250 2a3e 2104 abbd f354 c73e
00000010: 382b 843f 420a 6bbf e94d c73e 9a49 a63e
00000020: cbbc 083c ee6a 173e 289c f6ba 2987 e4bd
00000030: bec4 acbd 89c8 c7be b2c4 753e 8bda 0bbf
00000040: 4374 cb3d bde0 133d be3f db3f 12a8 113f
00000050: 6baf e53d 2806 c43e 7122 3f3e 9de6 c3bc
00000060: e5e9 a9be cd0f 76bd 60cc 45be 5e6f 363e
00000070: 6efe b03c ee83 3ebe 0bd4 16be 70ed eb3d
00000080: 3dd2 ea3e 1fc4 df3d 7399 07be 710b b63c
00000090: 04f4 263e 257a 68be 03a7 c0bc bb44 92be
000000a0: ab12 22be a9d1 9a3e 95aa 51be 5b3c bbbe
000000b0: a5ce 813e 8803 e33d 2145 15be c972 263d
000000c0: 7bd8 26be 9e98 82be 20c8 af3e c011 84be
000000d0: 947f ca3d a506 f4ba c558 bebe c81e 21be
000000e0: e18f 14be 572f ce3e eb3e 62be ed68 e3bd
000000f0: 6964 323f bcdc 42bd 1fe4 18be a3a3 ebbe
00000100: 7169 3abe 2435 203e 7306 153e 0353 42be
00000110: 5b24 95be 5c03 ae3d fec9 15bd 166c a1bd
00000120: 2986 ce3e 41a7 28bf d1ae 32bd e83f 8bbd
00000130: 6c24 3f3d b87f dfbd a1c0 2a3e 311c 85be
00000140: 937a 9e3e 96bd 5e3e a473 3fbe a918 0fbe
00000150: 7d5e 983f 8cfc 593d 48ba d8bd 74c6 14bf
00000160: acdd 73be 7553 233f f3f9 2a3c c0c9 8c3d
00000170: b5a4 6e3e 619c 9dbe e29a 00bd 8073 79be
00000180: 81ee 71be 99f8 13be 79e2 02be f458 023e
00000190: 1cdd 2c3e 5475 b33e 09aa eb3d be9e e83e
000001a0: dde7 fe3e e2c7 9e3e 1de9 2b3e 4300 073e
000001b0: 6218 33be 7c35 6ebc 26dd b1be 0de1 7dbd
000001c0: 11fa 05be 027b debe 45d1 df3f 307c 65be
000001d0: c0d7 463e 905e 603d f372 223e 91d9 71bc
000001e0: 091d c13d c4c6 ba3e e633 243e f3da bcbe
000001f0: c9b5 5bbe a514 603e df15 263f 768e 35be
00000200: f614 aa3d b5f6 223f 47b9 483e c302 44be
00000210: 31cb 63be a690 e23c adac babd 0b16 143d
00000220: 9eb0 c7be 4f8d 98bb 38b8 243d 4a39 42be
00000230: 5232 06be 2324 e5be 8c0e 72bd 524c 60be
00000240: 2c85 98be 09fb 95bd d3cd ac3e 17df c9be
00000250: b7a8 0d3f b431 e8be 7268 383e ab12 54bd
00000260: 6e6b 113d e7f7 02bf 43cf 1fbf 91a4 893e
00000270: eea8 c9be 7e9e 2ebe 98f9 da3e 2241 9a3e
00000280: 60ea 86bd ea72 84be 185b c73e f6a5 c8bd
00000290: 724c 0d3e 3cf9 80bd 08fe 4bbe aa44 44be
000002a0: 3b70 ffbd fefa d73d a5f1 04bf 3d42 7cbe
000002b0: 8c87 a2bc 8b38 913c 429f 0c3e 767b 2ebd
000002c0: 8101 a93e ee69 8dbe efbe 91bd 6f5a 933d
000002d0: 3839 3abe 2a72 b7bc d4aa 81ba 75a9 98bd
000002e0: 3891 12bf ec9f 073f 499d 873d be4c e1bd
000002f0: 4dc5 1fbe d764 b1bd 47d5 883c 2410 24be
-0.86269945 0.16632393 -0.08350397 0.38932 1.0325689 -0.9181253 0.38926628 0.3247803
0.008345793 0.14786884 -0.0018814849 -0.11158592 -0.08435963 -0.39020184 0.24000815 -0.54630345
0.099342845 0.036103 1.7128828 0.5689708 0.11215099 0.38285947 0.18665482 -0.023913676
-0.3318626 -0.060073663 -0.19316244 0.1781592 0.021605697 -0.18605015 -0.14729325 0.11519897
0.45863524 0.10926079 -0.1324213 0.022222253 0.16304022 -0.22702844 -0.023517137 -0.28568062
-0.15827434 0.30238083 -0.20475228 -0.36569485 0.2535297 0.11084658 -0.14577152 0.04063681
-0.16293518 -0.25507063 0.3433237 -0.25794792 0.09887615 -0.0018617703 -0.371771 -0.15734398
-0.1450801 0.40270492 -0.22094314 -0.111039974 0.69684464 -0.04757379 -0.14930771 -0.46023282
-0.18204285 0.15645272 0.14553241 -0.18976979 -0.291293 0.084967345 -0.036569588 -0.07881944
0.4033673 -0.6588021 -0.04362375 -0.067992985 0.046665594 -0.10913032 0.16675045 -0.2599807
0.30952892 0.21752009 -0.18696457 -0.13974251 1.1903836 0.053219363 -0.10582405 -0.58115315
-0.2381503 0.6379922 0.010435569 0.06874418 0.23305018 -0.3078337 -0.031397708 -0.24360466
-0.23626138 -0.14450301 -0.12781705 0.12729245 0.16881222 0.35050452 0.11507041 0.4543361
0.49786273 0.31011873 0.16788144 0.13183694 -0.1748977 -0.014539119 -0.34739035 -0.061982203
-0.13083674 -0.43453223 1.7485739 -0.22410655 0.1941824 0.05477768 0.15864162 -0.0147613445
0.09429366 0.3647977 0.16035423 -0.36885795 -0.21456064 0.21882875 0.6487712 -0.17730126
0.08304779 0.63657695 0.19601928 -0.19141679 -0.2224548 0.027656864 -0.091149665 0.036153834
-0.39001936 -0.004655517 0.040214747 -0.18967167 -0.13105133 -0.44754133 -0.059095904 -0.21904114
-0.29789102 -0.07323272 0.3375078 -0.39428017 0.55335563 -0.4535042 0.18008593 -0.051775616
0.035502844 -0.5115952 -0.6242563 0.26883367 -0.39386696 -0.17052647 0.4276855 0.30127817
-0.06587672 -0.25868922 0.38936687 -0.097972795 0.13798693 -0.06297538 -0.19921124 -0.19166818
-0.12472578 0.1054592 -0.5193122 -0.24634643 -0.019840024 0.017727157 0.13732627 -0.04259821
0.3300896 -0.2761988 -0.07116496 0.07194983 -0.1818589 -0.022393305 -0.000989283 -0.07454196
-0.57252836 0.52978396 0.06621797 -0.110009655 -0.15602608 -0.08661812 0.016703261 -0.16021782

actor.init_next_embed.0.add_bias._bias f4 [32, 1]
00000000: 7e6f 50be eeb7 80bd f027 28bd 7138 223f
00000010: 7d1e 32bd 76bb 8abb d58b 123e d0b4 c8bd
00000020: bfca 30bd a314 dfbd 8ec3 27be 2e60 7dbd
00000030: 1ee5 38bd dda5 e8bc 65b0 293f 95ee 813c
00000040: d5fe 993d 686d 0ebd 6f89 693d 74e4 063f
00000050: 9c34 79be 31c1 87bd 17c3 e43c 7ade 993d
00000060: 0f96 cdbd c33c 4cbe af88 e4bd 2c8f 1d3e
00000070: b245 83bd 9cc5 353e 3ff5 503c 68be 8cbc
-0.20355031 -0.06285082 -0.041053712 0.6336737 -0.043486107 -0.004233773 0.14311154 -0.09800112
-0.043162104 -0.10892608 -0.16383192 -0.061859302 -0.04514038 -0.028399402 0.6628478 0.015860835
0.075193085 -0.034772307 0.057015833 0.5269234 -0.24336475 -0.06628645 0.027925057 0.07513137
-0.10038387 -0.19945054 -0.11158883 0.15386647 -0.06409778 0.17751163 0.012753784 -0.017180637

actor.init_next_embed.2.module.weight f4 [64, 32]
00000000: c6d8 9fbe 2e16 6f3d 8231 243e 9d65 223e
00000010: ba71 323e f13c b4bd 7d3f aa3e 002d 8d3e
00000020: 4a2c 043e 78d4 203d d37d 703e 5376 27bd
00000030: f61d 693d 130f 1e3d 1aae 0e3f e69c 91bc
00000040: 8b60 9d3e 4a5f 473e fb72 a7bc 4f12 793e
00000050: c970 803e 3782 a9be 68d3 813e 7e6a 373f
00000060: fc22 b03d 7231 243e 9cc0 d33b 27ff 11be
00000070: eab0 14bd 1b40 d83c fb98 153e a1f6 d4bd
00000080: b2c1 063e 2751 283c cf41 4ebd 9401 d1be
00000090: 8ab5 4b3e 65f3 343e ca61 f1be 31a7 f33d
000000a0: 4db5 0bbd 737a a73d a6b1 aebe 51d5 62be
000000b0: 4a08 03be ba22 eabc ac66 1ebc c56f 953e
000000c0: 1a02 64be 1732 65bc 5862 1f3e d06d 33bf
000000d0: d556 d5bd d39d cbbe 5fd8 67be ee4c 173d
000000e0: 0e4d afbd 80fd 9b3d 37f8 563d c45a d4bd
000000f0: 6d25 a13d 9d7f 9fbd e522 0f3d bc2a 04be
00000100: e7e6 253e 5b9a d63e a06a 073e 4caf e83e
00000110: 5f15 803d 1e6b 833d a5d2 be3d e6db 6cbe
00000120: c5a7 123e 0d4b fcbd 1c42 d0bb 562a 0e3d
00000130: efa4 bd3d b2b6 99be d3de 823e 4427 f83b
00000140: 6275 5f3e 4d65 84bd 9e19 263d ce8c 333e
00000150: d80e 63be 7502 153f be83 283e 1bd3 d7bd
00000160: 2a85 043e 7d14 95be 42cd ed3c 288e 723d
00000170: 550f 853e 05ff 94bd 979f 9bbe f92f 373e
00000180: 6bfe b53e df55 5d3e ded7 68be 2e3d 023d
00000190: 3f06 3c3e ba89 16bd 6fb7 ab3d b4e9 e5bc
000001a0: c581 573b 7f04 c83e e1ff b9bd f18c 063e
000001b0: 1a1e ba3d ab4d 2c3e deac 2fbe 3d98 a93d
000001c0: 63bc c63e c40f bf3d e078 d5bd 6e9a 743e
000001d0: 6024 c83d 3265 063e 6da4 fabd 410c e8be
000001e0: a579 c3bd 7b0d 33be c783 91be 5a78 8c3d
000001f0: 07ed f33d 8eb1 96bd dbb8 533e 8db9 073d
00000200: bc3f 103f 42cd 2a3c 5092 35be 5e1b 16be
00000210: 7ec2 5e3e d7e2 f33d d24e 94bd 6369 263e
00000220: 33d1 303e 7000 b9bd 0504 67be ae7e 6ebd
00000230: ba37 64bd fb65 85be 95e2 0dbf 6032 a9be
00000240: 291f 6d3e b119 b23d 737d 243d e26a d8be
00000250: bd29 223e ee28 433e 01ea 92bc 3f7b e0be
00000260: 81c5 383e c24b bc3d 1da0 323e b27b b3be
00000270: 9655 803d ea87 94bd 6f21 bcbd 3e09 f2bd
00000280: 0fbd 45be 1b4b c2be cf84 edbd 27c6 4d3e
00000290: 113f 883c b045 603e a439 5fbd ca46 173e
000002a0: 2d8e be3d 7d7a 053e ef06 83bd 632f 7b3c
000002b0: 1f9c 5fbd 5063 623d c6a7 963c b635 033e
000002c0: 8c0c 69bd d17c 083e f67d 2c3e d00a 263f
000002d0: 3261 26be 47e1 2b3d 3ffb 933d 3336 45be
000002e0: e4fa 5abe 9215 96be 50b7 ffbd c997 173e
000002f0: a911 f83d 593e edbd 37f1 873d ec26 2cbe
00000300: 7b8d ee3e 71d5 6cbe 781c d7bd fe93 23bf
00000310: ccff e9bc 8aad 5a3c 0f65 a2be 859c 76bc
00000320: b41e f13e 3f84 653d ea63 a5bd 9a51 55be
00000330: 8775 9bbe 3a09 de3d fef2 35bf 43b8 8ebe
00000340: a2b0 20be 7ef0 ee3e aad9 b3be fd42 26bf
00000350: 5643 84be 5ec0 6e3e f613 833d b020 ebbe
00000360: 5976 febc fb30 8ebe bf0d 3c3d 7b0d 70be
00000370: 7fa6 14bd 6c00 1cbb 2361 09be 63e6 153e
00000380: 9c53 ff3d 50c9 9e3d 8bbc adbd e091 583e
00000390: ed95 dd3d 9c81 acbe 1083 9cbe 3bee 163e
000003a0: 07eb 2cbd 40a4 d93d 667e ad3d efa2 473d
000003b0: 1f87 b83e 5d8f e4bc af5e e93e 65d6 1dbe
000003c0: 0e49 b1bd 194f 02be f93f 723d bf62 d93a
000003d0: 94ac f6be 3a1d a0bd a913 2f3e 7221 9e3e
000003e0: d7e8 6a3e 3520 3e3e 3c19 92be 565f 27bd
000003f0: f6d7 5ebe bd8f 2cbd 92ec a23e bb3e 4d3d
-0.31220073 0.05837076 0.1603451 0.15859075 0.17426196 -0.08800686 0.33251563 0.27573395
0.1290752 0.039265126 0.23485498 -0.040884327 0.05691334 0.038588595 0.5573441 -0.01777501
0.3073772 0.19469944 -0.02044057 0.2432339 0.25086048 -0.3310716 0.25356603 0.7164687
0.08600423 0.16034487 0.00646217 -0.14257489 -0.03630153 0.026397755 0.14609139 -0.10398603
0.13159826 0.0102732545 -0.05035573 -0.40821517 0.1989347 0.17670973 -0.4714492 0.118971236
-0.03410845 0.08177652 -0.3411991 -0.22151686 -0.12796131 -0.028581012 -0.009668034 0.29186836
-0.22266427 -0.013988993 0.15564859 -0.70089436 -0.104169525 -0.39768848 -0.22641133 0.0369386
-0.08559619 0.07616711 0.05248281 -0.10368875 0.078684665 -0.07788012 0.034945387 -0.12906927
0.16201364 0.4191464 0.13224268 0.4544624 0.06254076 0.06416915 0.09317521 -0.2313076
0.14321811 -0.12319002 -0.006355537 0.034708343 0.09259974 -0.30022198 0.25560626 0.00757304
0.21822122 -0.06464634 0.040551774 0.17534181 -0.22173631 0.58206874 0.16456506 -0.10538312
0.12941423 -0.29117194 0.029028539 0.059217602 0.2598826 -0.072752036 -0.30395195 0.17889394
0.35545668 0.21614788 -0.22738597 0.031796627 0.18361758 -0.03675244 0.083845966 -0.02806554
0.0032883745 0.3906593 -0.09082008 0.13139702 0.09087773 0.16826503 -0.17155787 0.0828099
0.38815603 0.09329179 -0.10423446 0.23887035 0.09772563 0.1312454 -0.12238393 -0.4532185
-0.09544686 -0.17485611 -0.2842085 0.06858893 0.11910444 -0.073580846 0.20675986 0.03313594
0.5634725 0.010424914 -0.17731595 -0.14658877 0.2175388 0.11908501 -0.07241596 0.1625114
0.17267303 -0.090332866 -0.22560127 -0.05822628 -0.055717207 -0.26054367 -0.5542386 -0.33046246
0.23156418 0.086963065 0.0401587 -0.42269045 0.15836234 0.19058582 -0.017933847 -0.4384403
0.18044092 0.09194137 0.17443891 -0.3505531 0.06266324 -0.07252486 -0.091860645 -0.11818169
-0.19310401 -0.37947926 -0.11597597 0.2009512 0.016631635 0.21901584 -0.05449833 0.14773098
0.09304462 0.13035007 -0.06397807 0.015331122 -0.054592248 0.055270493 0.018390547 0.12813458
-0.05689673 0.13328864 0.16844925 0.6486025 -0.16248015 0.041962888 0.07225656 -0.19258957
-0.2138477 -0.29313332 -0.12486136 0.14803995 0.121127434 -0.115841575 0.06637805 -0.16811723
0.46592316 -0.23128296 -0.10503477 -0.63897693 -0.028564356 0.013347039 -0.31717727 -0.015051966
0.47093737 0.056034323 -0.08075698 -0.2083191 -0.30363104 0.108416036 -0.710739 -0.27874956
-0.1569238 0.46667856 -0.35127002 -0.64945966 -0.25832623 0.2331557 0.064002916 -0.45923376
-0.031062292 -0.27771744 0.045911547 -0.23442642 -0.036291596 -0.0023803962 -0.13415961 0.14638667
0.12467119 0.07753241 -0.08483227 0.21149397 0.10819612 -0.33692634 -0.30568743 0.14739315
-0.042216327 0.10627031 0.08471374 0.04873937 0.3604059 -0.027900392 0.4558005 -0.15413816
-0.08656512 -0.12725486 0.05914304 0.0016585215 -0.48178542 -0.078180745 0.17097344 0.30884892
0.22940384 0.18566974 -0.28534877 -0.040862404 -0.2176207 -0.042129267 0.31821114 0.050108653

actor.init_next_embed.2.add_bias._bias f4 [64, 1]
00000000: a376 ac3e a57e 5abf 4609 263f 6df6 bf3e
00000010: 37f9 dabe 0ff1 e23e 9fd2 3ebf ee6f ea3e
00000020: f01f 02bf 0289 153d 63db ffbe 5202 b7bb
00000030: cef8 b33e 00f7 9dbe f527 32bf 7eed 753e
00000040: dd93 e83e 8ba2 413f bff0 72bf 158b 19bf
00000050: dccf e3be d978 8b3e 61f2 e8bd 3fe6 d03e
00000060: d2c7 04be 9e03 2bbf c4ae 8dbe a996 463e
00000070: 4477 e0bd 1e2b 16be a208 ccbd 0493 103f
00000080: 6326 273f e209 66bb 1f17 833f e685 e63e
00000090: 2516 50be 8f48 bd3e f125 b2be 897a 603f
000000a0: dda8 4cbf f52d 88bf 50f5 76be a20f ed3e
000000b0: 7344 8dbe 253a 52bf 876e 00bf d32b 403f
000000c0: be4f 3d3e fa2f 1abf cad9 81bf 4f56 27bf
000000d0: 6628 0e3f 2903 8e3d bc43 3cbe 02ca a1bd
000000e0: 81d0 0fbf 84e8 95be c2a8 afbe e8bb c53d
000000f0: df6c 8d3e 0671 87be 057e fa3d 90bd 3d3f
0.33684263 -0.85349494 0.648579 0.37492695 -0.4276826 0.44324538 -0.7454013 0.4578852
-0.5082998 0.036507614 -0.49972066 -0.0055849934 0.3515076 -0.3085251 -0.6959222 0.24016377
0.4542531 0.75638646 -0.948986 -0.5997785 -0.44494522 0.27240637 -0.11374355 0.40800664
-0.1296685 -0.66802394 -0.27672398 0.1939341 -0.10960248 -0.14664885 -0.09962584 0.5647433
0.6529295 -0.0035101105 1.0241431 0.4502403 -0.20320947 0.3696942 -0.34794572 0.87686974
-0.79945165 -1.0639025 -0.24117017 0.4630099 -0.27591285 -0.8211997 -0.5016865 0.7506687
0.1848745 -0.60229456 -1.0144589 -0.6536607 0.55530393 0.069341965 -0.18385214 -0.07899858
-0.56177527 -0.29278958 -0.3430844 0.09654981 0.27622125 -0.26453418 0.122310676 0.74117374

actor.embedder.layers.0.0.module.W_query.weight f4 [64, 64]
00000000: 39c0 53be 7053 a63d e655 c4bd d30a 9dbd
00000010: a352 dabd e911 15bd f30e c0bd f302 dabb
00000020: 5dad 1abd ded7 93bd dbb5 a23d 0c2e 0abb
00000030: 7917 893d afa5 563d 2685 ae3d 7f07 633b
00000040: b58c b5bd 1f15 f1bb 437b fb3c 99be 243e
00000050: 3f1b aabd 0fb7 9fbb 94b0 72bd ca3d 3dbe
00000060: eb1e f83b 1959 9dbd 7206 543d e681 bebd
00000070: 6591 efbd cedb 043e 3b22 4dbe e9e7 ae3d
00000080: 0e90 dd3d ade0 04be b1b4 f3bd 2ae7 cfbb
00000090: 2fc6 bdbd d942 be3d ff7d f33c c76d d43a
000000a0: 5f8d 653e 5769 c7bd f929 51be 8c65 59be
000000b0: bac4 733d 4f8a 6dbe 0f64 1b3e 62fb 883c
000000c0: caa5 f63d 3e4b b3bc 82cd 59be f7b4 74bd
000000d0: da04 0bbe 3afb 90bd 81a4 48bd 7d85 c8bc
000000e0: 8550 60be 404b acbd df34 e4bd fe89 173e
000000f0: 25a4 18be bcdb 803c 09bc 113e bf1e 953d
00000100: c0f9 993d 15e9 073e c65f 61bd 75a5 4e3b
00000110: 58e9 8bbd 6c51 d73d d15f 123d 7c5c c63d
00000120: 3b99 f43d 6b41 b1bd c248 9cbd 6121 e1bc
00000130: f316 8d3d 69f8 3bbe 4ae5 3f3d 1182 02bd
00000140: d45a 48bc 36f5 0b3c 32ff dbbd 2ab7 c73d
00000150: 6e61 a33d bc09 423d df75 db3d ffa0 91bd
00000160: aa57 dd3d f589 56be cf06 243d 5d2b dcbd
00000170: 5e82 943d 2d65 87bd 541f 933d 6c71 923d
00000180: 9883 04be 3b57 cf3c 63da 963d 217c 99bd
00000190: b274 babc e61b bdbd f2c7 32bd 2be2 673d
000001a0: 1d94 563d 754f e4bc 012a d8bc cac7 823d
000001b0: c408 b63d fb4b ba3d 1661 f5bc ced1 09bd
000001c0: 2eb3 a3bd 835c 053e 742b 943c 834b 573d
000001d0: 9d4d 7b3c 2782 05be 6e23 21be 7c84 033e
000001e0: 66c4 0b3d 3a76 253e bd5b fb3d e025 d9bd
000001f0: fef4 af3d aca6 26bd 9426 67be 47d2 ab3d
00000200: b8bb 9cbd df08 fb3d cff9 003e 13f4 38bd
00000210: 9fe8 e7bc 5eb1 193e df6f f8bd 747f 4c3d
00000220: 558d fc3c 3556 473d 3421 cabd ef18 293e
00000230: c522 82bd 2bc3 263d 5128 26be e8ed f2bd
00000240: c425 523c 5730 103d be63 08be f0ef c5bd
00000250: 4151 923d 9ea3 a93d 9030 82bd 8045 d53c
00000260: 00f8 963c 60ee 333e 51f2 abbd 969e 81bb
00000270: 1c22 543d 7640 0dbd c9f1 8d3d 2a8f 90bc
00000280: 7f19 c43d 532c 743c c328 de3b 1c11 893d
00000290: 9727 69bd 53ec bb3d ff1f a9bd ce42 f2bd
000002a0: 3871 dcbd 4c4d d73d 0855 e23d 775c f5bd
000002b0: 03fa afbd 2a5b a6bc 99b5 1abb 5b98 b13c
000002c0: 22d7 f3bb 57f7 d03b c84d 8cbc 43fb 8b3d
000002d0: 544b 65bd 93bc 863d c1dd 40bd 2229 b4bd
000002e0: c456 e33d 3e04 43bd 96ac e7bc c192 233e
000002f0: 0dc2 253e aee8 8cbd 2c91 e53d eb3b a13d
00000300: a6c1 b43d 1596 353e 9d93 ab3d a69b 1b3e
00000310: 70be b1bd 1e38 2abc 4c8f 0fbe 76d9 28be
00000320: 8ada a9bd f7cd cebd adc7 28be 405b dcbd
00000330: 1cdd 81bc b14a f8bb 2fa7 bc3d 522d 993d
00000340: 1e66 10bd f7dd e73c 2573 23bd 73ae 1db9
00000350: b3cf 323e fa83 123d efcc 533d 4c85 a03c
00000360: 3464 4bbd 4daf c83c 46ea fabd e3d2 a9bd
00000370: 3272 1c3e 91d7 133e 1334 44be eded b33d
00000380: 92ad 573e 15de a7bd 1c2c 4b3d 4d95 413d
00000390: 66af 2d3e 09d7 893d 3dce b03d a301 f7bc
000003a0: d2a4 0e3e b986 e43b def0 99bb ba6b e23d
000003b0: 94e5 dbbd e772 0bbd 6358 923d d729 0dbe
000003c0: 1617 643d dbb2 a03d 0e2a 13be 5120 313d
000003d0: b998 0bbe 6b8c 97bb 9de8 27bd af01 a93d
000003e0: 9bec fbbd 8e27 863c 6a51 053e ed69 95bd
000003f0: 5718 3abd c837 debc d157 24bd 9d54 f93d
-0.20678796 0.08121383 -0.09586696 -0.0766808 -0.10660293 -0.036394034 -0.09377851 -0.0066531836
-0.03776299 -0.07218908 0.079448424 -0.0021084575 0.0669393 0.052404102 0.0852149 0.003464192
-0.08864728 -0.007357254 0.030698424 0.16088332 -0.08305978 -0.004874117 -0.05925043 -0.18480602
0.007572045 -0.0768301 0.05176396 -0.0930212 -0.11697654 0.12974474 -0.20032589 0.08540327
0.10818492 -0.12976332 -0.118996985 -0.0063446956 -0.09266316 0.09290094 0.029723166 0.0016207033
0.2241721 -0.09736889 -0.20426168 -0.21230143 0.059513785 -0.23197292 0.15174888 0.016721431
0.120433405 -0.021886464 -0.21269801 -0.059742894 -0.1357607 -0.07079168 -0.04898501 -0.024477715
-0.21905716 -0.0841279 -0.11142897 0.14798734 -0.14906366 0.015729778 0.14231886 0.07281255
0.07518339 0.13272507 -0.055022977 0.0031531726 -0.06831616 0.10513577 0.03573591 0.09685609
0.11943289 -0.086550556 -0.07631065 -0.027481737 0.06889143 -0.1835648 0.046849526 -0.031862322
-0.012228686 0.00854235 -0.10742034 0.09751733 0.079775676 0.047372565 0.107158415 -0.07110786
0.10807736 -0.20951064 0.040045556 -0.107504584 0.07251428 -0.066110946 0.0718371 0.0715054
-0.12940824 0.02531015 0.07365873 -0.07494379 -0.022760723 -0.09233837 -0.043647714 0.056612175
0.052387346 -0.02786992 -0.026387217 0.06385763 0.08888391 0.090965234 -0.02995352 -0.03364735
-0.0799316 0.13023572 0.018087126 0.052562248 0.015338329 -0.1303793 -0.15736172 0.12843508
0.034122847 0.16158381 0.12273357 -0.10602927 0.085916504 -0.040686294 -0.2257331 0.083897166
-0.07652992 0.122575514 0.12595294 -0.045154642 -0.028309165 0.15009066 -0.12130713 0.049926236
0.030829111 0.048666198 -0.09869614 0.16513418 -0.06354288 0.04071347 -0.16226317 -0.11861783
0.012826387 0.03520235 -0.13319299 -0.09664905 0.07144404 0.082831606 -0.06356919 0.026034117
0.018428802 0.17571402 -0.083958276 -0.0039556725 0.05179034 -0.034485303 0.069308825 -0.017646391
0.095751755 0.014903146 0.0067797615 0.066927165 -0.05692252 0.09175935 -0.08258056 -0.11829148
-0.10763782 0.1051279 0.11051375 -0.11980527 -0.08592608 -0.020307142 -0.0023606776 0.021679094
-0.0074414173 0.0063771415 -0.017126933 0.06835034 -0.05598004 0.065789364 -0.04708648 -0.08796908
0.111005336 -0.047611468 -0.028280538 0.15973951 0.16187306 -0.06880318 0.1120933 0.078727566
0.08825998 0.17733033 0.083777644 0.15196094 -0.08678901 -0.010389356 -0.14019507 -0.16489205
-0.08293636 -0.100978784 -0.1648242 -0.10759592 -0.015852503 -0.0075772633 0.09211575 0.07479347
-0.035253637 0.028304083 -0.039904732 -0.00015037674 0.17462043 0.035770394 0.05170911 0.01959481
-0.049656108 0.024497652 -0.12251715 -0.082921766 0.15277937 0.14437701 -0.1916049 0.08785615
0.21062306 -0.08196656 0.049602613 0.047261525 0.1696144 0.06730468 0.08633087 -0.030152148
0.13930061 0.006974068 -0.004697903 0.110557035 -0.10737148 -0.034045126 0.07145765 -0.13785492
0.05568608 0.07846614 -0.14371511 0.04324371 -0.13632478 -0.0046248934 -0.04099332 0.08252274
-0.12300988 0.016376283 0.13019338 -0.07295594 -0.04543337 -0.027126208 -0.04012281 0.12174342
