trained_models/experiment/Discrete_A2C_20x10x10Bin_s42_inh_800_defaultBox-2022.08.18-19-42-34/PCT-Discrete_A2C_20x10x10Bin_s42_inh_800_defaultBox-2022.08.18-19-42-34_2022.08.18-21-03-49.pt (torch, 236314 bytes, 24 tensors)

actor.init_internal_node_embed.0.module.weight f4 [32, 6]
0.19215693 0.6149522 0.6152038 -0.24449906 -0.0144077195 0.20435789 0.16559765 0.43677896
-0.04122896 -0.1043717 -0.34213853 -0.079192325 0.026301848 -0.04329553 0.050176177 0.112993605
-0.27593684 0.091635 -0.46680343 -0.021135762 -0.37239465 0.50100744 0.27630165 0.87807167
0.48300815 -0.14993589 -0.06280907 0.094800755 -0.042732097 -0.14537552 0.2150601 0.12369909
-0.39045644 0.42087197 -0.12548089 -0.25621632 -0.43979028 0.20646365 0.13901973 0.1900177
-0.32796416 -0.16640045 0.22083324 -0.14669727 0.5088046 0.00085725676 -0.7025679 0.13938428
-0.42148668 0.11144845 -0.76183605 0.38947102 0.042579442 0.03228601 0.611946 -0.009764241
-0.10628635 0.16785723 -0.19897978 -0.13061784 0.029603563 0.13412203 -0.31846273 0.46820283
0.49140948 -0.6054339 -0.1976362 -0.1541208 -0.122208394 -0.10991606 -0.34120932 -0.19292755
0.8292992 0.108430296 0.10104185 -0.0403186 -0.112592734 -0.19424167 0.42354643 0.08109106
-0.23762316 -0.102808446 0.25609535 -0.332349 0.3141914 0.44666642 -0.34780625 0.008272792
0.054299816 -0.058892258 -0.0354914 -0.2893707 -0.24332619 -0.08554983 0.14594297 -0.28763714
0.0003283621 -0.13887958 0.3795948 -0.6087055 0.5044046 0.46432203 0.03313657 0.03157905
0.10135722 0.25198698 -0.5636282 -0.35845172 0.28609058 0.101378776 -0.4976849 0.3008843
0.13098513 -0.068563946 0.35411784 -0.17623216 0.063342646 -0.2223158 -0.11013841 0.10165389
0.039226938 0.29058498 -0.4106884 0.30660075 -0.029245568 -0.49438432 -0.16786873 -0.10315877
-0.24516337 0.16054974 -0.113673836 -0.4297081 -0.78125757 -0.8737356 -0.88159615 0.5468579
0.4518337 0.44479516 -0.2529722 -0.06826622 -0.21824892 0.03062567 -0.05840826 0.66044796
-0.110120445 0.009839716 1.0379974 0.33209673 0.09941993 0.24034989 -0.09802262 0.29816696
0.28008422 -0.26067084 -0.08677214 0.44814822 -0.25047895 0.038386405 -0.19980513 -0.025841422
0.31118974 -0.06502375 -0.0713738 0.02653756 0.34726825 -0.3671164 -0.046614926 -0.18942499
-0.34709737 -0.61723703 -0.05701809 0.03946534 0.17640485 0.027374769 -0.24698447 0.19116697
0.20951326 -0.22893842 -0.09962605 -0.055321593 0.3564013 0.011792532 0.031781778 -0.05983332
0.21601167 -0.40585345 0.21105844 0.2045675 -0.24497339 -0.13730898 -0.03108643 0.35401148
00000000: c9c4 443e 826d 1d3f ff7d 1d3f f65d 7abe
00000010: 5b0e 6cbc 3243 513e 6e92 293e 7ea1 df3e
00000020: b3df 28bd d4c0 d5bd c82c afbe 962f a2bd
00000030: f976 d73c a756 31bd 8985 4d3d 3169 e73d
00000040: 9847 8dbe 22ab bb3d dc00 efbe e824 adbc
00000050: 83aa bebe 0642 003f 6977 8d3e 4ec9 603f
00000060: d84c f73e cb88 19be 0ba2 80bd e626 c23d
00000070: da07 2fbd 52dd 14be b738 5c3e f355 fd3d
00000080: e8e9 c7be 887c d73e 107e 00be c92e 83be
00000090: 312c e1be 356b 533e 305b 0e3e 0094 423e
000000a0: ebea a7be e164 2abe 1c22 623e cf37 16be
000000b0: 0541 023f 87b9 603a 7ddb 33bf c1ba 0e3e
000000c0: 1acd d7be 163f e43d b007 43bf bf68 c73e
000000d0: c867 2e3d 563e 043d 7ea8 1c3f 32fa 1fbc
000000e0: a8ac d9bd c4e2 2b3e 5bc1 4bbe afc0 05be
000000f0: 2c83 f23c 4957 093e 8c0d a3be 48b8 ef3e
00000100: 069a fb3e b7fd 1abf 2561 4abe d8d1 1dbe
00000110: 6548 fabd ac1b e1bd fdb2 aebe cd8e 45be
00000120: f44c 543f b410 de3d 08ef ce3d 1e25 25bd
00000130: 0597 e6bd 4ae7 46be 14db d83e 1213 a63d
00000140: 7c53 73be 3c8d d2bd ee1e 833e a629 aabe
00000150: b2dd a03e 76b1 e43e a913 b2be 9b8a 073c
00000160: 7c69 5e3d 0239 71bd 6e5f 11bd 6528 94be
00000170: 802a 79be c034 afbd 1372 153e 2d45 93be
00000180: 0428 ac39 7336 0ebe 405a c23e 20d4 1bbf
00000190: a920 013f 9ebb ed3e 36ba 073d 0959 013d
000001a0: 6094 cf3d 7004 813e f049 10bf fc86 b7be
000001b0: 777a 923e ad9f cf3d 8ed0 febe 820d 9a3e
000001c0: f720 063e 416b 8cbd ef4e b53e 3476 34be
000001d0: cab9 813d c1a6 63be 3f90 e1bd ea2f d03d
000001e0: 6dac 203d 8ec7 943e c045 d2be c6fa 9c3e
000001f0: 6794 efbc f11f fdbe c8e5 2bbe e844 d3bd
00000200: 1b0c 7bbe 2767 243e d4cd e8bd b302 dcbe
00000210: 7f00 48bf 23ad 5fbf 49b0 61bf e1fe 0b3f
00000220: bf56 e73e 31bc e33e 9285 81be 29cf 8bbd
00000230: a57c 5fbe afe2 fa3c 803d 6fbd 1e13 293f
00000240: d486 e1bd c336 213c 19dd 843f 9508 aa3e
00000250: ad9c cb3d 481e 763e 15c0 c8bd 57a9 983e
00000260: 3367 8f3e a676 85be 97b5 b1bd af73 e53e
00000270: c73e 80be 103b 1d3d b799 4cbe 64b1 d3bc
00000280: 4354 9f3e 2c2b 85bd 6d2c 92bd 4c65 d93c
00000290: 25cd b13e aef6 bbbe 4bef 3ebd a0f8 41be
000002a0: bfb6 b1be 3f03 1ebf cd8b 69bd 69a6 213d
000002b0: 79a3 343e 0d41 e03c 7fe9 7cbe 46c1 433e
000002c0: a58a 563e d56e 6abe be08 ccbd e598 62bd
000002d0: 3b7a b63e 7735 413c 9c2d 023d c913 75bd
000002e0: 2a32 5d3e 06cc cfbe b41f 583e 257a 513e
000002f0: 4eda 7abe ba9a 0cbe f8a8 febc fe40 b53e

actor.init_internal_node_embed.0.add_bias._bias f4 [32, 1]
0.03188203 0.01621871 -0.02982466 0.061416984 0.1228861 0.010923149 -0.02859574 0.021998107
0.02839509 0.079104416 0.024566388 0.018117178 0.039828926 0.023666892 0.005684979 -0.006900033
0.012724868 0.010649315 0.001243237 0.00037827744 -0.011863436 0.021537257 -0.004744804 -0.0067727743
0.065271504 0.015426467 -0.01133634 -0.011482577 0.0035042346 -0.0027051696 0.011466621 0.037158445
00000000: bb96 023d 1add 843c d852 f4bc 6090 7b3d
00000010: b5ab fb3d 02f7 323c 9d41 eabc 6035 b43c
00000020: d29c e83c 7f01 a23d 733f c93c 7a6a 943c
00000030: a823 233d 12e1 c13c 0f49 ba3b ac19 e2bb
00000040: f77b 503c 777a 2e3c 1df4 a23a 8a53 c639
00000050: db5e 42bc e76e b03c 4d7a 9bbb 26ee ddbb
00000060: 11ad 853d 4bbf 7c3c 0ebc 39bc 6b21 3cbc
00000070: 4da7 653b 3749 31bb 7fde 3b3c 7433 183d

actor.init_internal_node_embed.2.module.weight f4 [64, 32]
-0.26132676 0.03910424 -0.1612646 0.34521526 0.1602097 0.0218468 0.08305411 0.10197632
-0.18454617 -0.30139574 -0.10382382 0.039739057 -0.27433065 -0.15574117 0.07227681 -0.17578296
0.3950659 -0.08289281 -0.08447063 0.23002319 0.010748323 -0.21828258 -0.04777693 -0.11860888
0.07186097 0.32860067 0.17733599 0.09973911 -0.012667378 -0.21200298 -0.16820629 0.16250975
-0.33980942 -0.31540617 -0.35756576 -0.25957453 0.038943846 0.1293176 0.0029537852 0.41791198
-0.017732976 -0.122538365 -0.0545146 -0.05288714 -0.30210948 0.08461172 -0.22792254 0.16272447
0.07471252 0.006590997 -0.42480955 -0.1527062 0.27125698 0.09527131 0.15913941 -0.23832259
-0.28274435 0.083162785 -0.009792097 0.16344146 -0.22221516 0.21299335 0.3393635 0.019149208
0.78509647 -0.16650745 -0.054201234 0.42501745 -0.30562276 0.26558083 -0.27005872 -0.19541174
0.08779199 0.26578 0.10767819 -0.28885487 0.8062991 -0.19825004 0.11907331 -0.0126404315
0.20991622 0.06385147 0.09544782 0.2291318 -0.36458972 -0.07401919 -0.07921097 -0.20446186
0.69574994 -0.22966015 -0.16622578 -0.050860267 -0.009747818 0.031786952 0.23446621 0.09209232
-0.030476201 0.52271235 -0.097377874 -0.3198761 0.043465775 -0.16172683 -0.31367168 0.09105528
-0.23117626 -0.0122243315 -0.045716703 0.45854566 0.07296374 -0.11864884 -0.14297542 -0.17321528
-0.07957604 -0.17831619 -0.16868278 -0.1825254 -0.28123847 0.050895542 0.22514556 0.11895241
-0.29147103 0.16281773 0.087935425 0.03744416 0.1273529 0.13200684 0.048316237 -0.08993784
-0.35345316 -0.020339563 0.118410066 -0.04718863 -0.17849101 -0.042130724 -0.121295266 -0.04029761
0.14069873 0.08444897 0.07535902 -0.24100776 0.012916191 0.25358588 0.121157765 -0.011442895
0.10918624 0.06462324 -0.30992925 -0.17048174 -0.030545842 -0.044148263 0.5873302 -0.1787724
-0.48305348 0.03360279 0.14691752 0.010287878 0.2537255 -0.029554216 0.1588603 -0.0066345083
-0.3532234 0.09841364 -0.10967706 0.10142719 0.6082874 0.124564186 0.29134786 -0.39592588
0.2876726 0.45933583 0.59419584 0.17507358 0.13301876 0.15921009 0.36079645 -0.010179177
-0.20367451 0.018092126 0.06987285 -0.13756599 0.3408098 -0.036103107 -0.03827531 -0.052207034
-0.8881887 0.05927175 -0.23218982 -0.23359168 -0.050820127 0.012313725 0.37499362 -0.040561046
-0.040585455 -0.25386736 -0.17254119 -0.48943958 0.10708947 0.15327692 -0.058706883 -0.10648519
-0.19258411 0.6067536 -0.073979005 0.10982125 0.6218221 0.027101578 0.16210115 -0.049204342
-0.26617616 -0.25688273 0.681857 0.19038203 -0.19755875 0.09601659 -0.31024718 0.0070163077
-0.94390225 -0.2808017 0.034667123 0.04517564 0.13195552 0.2513718 -0.03347593 -0.20143704
0.8355468 0.23985294 0.27291676 0.37333262 -0.1816286 0.13000852 0.28481856 0.10709257
-0.31912753 -0.38674158 -0.015294122 -0.22098923 0.56094736 -0.33391827 -0.021343604 0.045956016
0.038325045 -0.03922627 0.28803945 -0.004943567 -0.034772623 -0.16010639 0.08445579 0.054368477
0.7346516 0.01942586 0.24214107 -0.0348958 0.13895324 0.31722713 -0.45474923 -0.16034287
00000000: 9fcc 85be c42b 203d 8c22 25be 0ec0 b03e
00000010: 030e 243e 0ff8 b23c 4618 aa3d f6d8 d03d
00000020: acf9 3cbe 8b50 9abe 95a1 d4bd 6cc5 223d
00000030: 1175 8cbe 9d7a 1fbe dd05 943d 7300 34be
00000040: 1446 ca3e b5c3 a9bd f0fe acbd 338b 6b3e
00000050: bc19 303c 7885 5fbe beb1 43bd 36e9 f2bd
00000060: d82b 933d 593e a83e 9197 353e 0544 cc3d
00000070: d68a 4fbc 4f17 59be 453e 2cbe f568 263e
00000080: 80fb adbe eb7c a1be dc12 b7be f4e6 84be
00000090: 9583 1f3d d56b 043e 4b94 413b 8ff8 d53e
000000a0: bf44 91bc 65f5 fabd b44a 5fbd 30a0 58bd
000000b0: 18ae 9abe e948 ad3d 8764 69be 3ea1 263e
000000c0: e102 993d 4af9 d73b a380 d9be 045f 1cbe
000000d0: 32e2 8a3e 9b1d c33d 71f5 223e d60a 74be
000000e0: dec3 90be 4051 aa3d 086f 20bc 335d 273e
000000f0: 5f8c 63be ee1a 5a3e 0dc1 ad3e cdde 9c3c
00000100: 15fc 483f ee80 2abe 1d02 5ebd e39b d93e
00000110: 967a 9cbe 36fa 873e 2345 8abe 041a 48be
00000120: 49cc b33d 5114 883e 6286 dc3d c9e4 93be
00000130: 9e69 4e3f 0f02 4bbe b5dc f33d d019 4fbc
00000140: 47f4 563e 8fc4 823d 267a c33d 87a1 6a3e
00000150: 81ab babe 6097 97bd 5c39 a2bd 735e 51be
00000160: ab1c 323f 082c 6bbe 1737 2abe db52 50bd
00000170: 50b5 1fbc 0933 023d e917 703e e69a bc3d
00000180: 3aa9 f9bc 7ad0 053f 0d6e c7bd cdc6 a3be
00000190: 2b09 323d b89b 25be 9399 a0be 317b ba3d
000001a0: 78b9 6cbe 9048 48bc 7041 3bbd 7fc6 ea3e
000001b0: 036e 953d 2afe f2bd 2668 12be 595f 31be
000001c0: c3f8 a2bd 8598 36be 2ebb 2cbe f0e7 3abe
000001d0: 7dfe 8fbe d877 503d 8f8c 663e 529d f33d
000001e0: b13b 95be b1b9 263e 7d17 b43d 0c5f 193d
000001f0: cc68 023e cd2c 073e 3fe7 453d 5531 b8bd
00000200: d0f7 b4be 289f a6bc fa80 f23d dd48 41bd
00000210: 59c6 36be 4491 2cbd a769 f8bd 1b0f 25bd
00000220: 5413 103e 95f3 ac3d d455 9a3d bdca 76be
00000230: 6e9e 533c 02d6 813e 9021 f83d fb7a 3bbc
00000240: 099d df3d 3059 843d 0caf 9ebe c492 2ebe
00000250: 463b fabc cfd4 34bd 465b 163f 1d10 37be
00000260: c952 f7be 14a3 093d 8c71 163e 7d8e 283c
00000270: 4fe8 813e af1b f2bc 46ac 223e 4a66 d9bb
00000280: b3d9 b4be 178d c93d 5e9e e0bd 0fb9 cf3d
00000290: b9b8 1b3f 821b ff3d 8c2b 953e ccb6 cabe
000002a0: d349 933e 112e eb3e 381d 183f 7d46 333e
000002b0: 1236 083e f807 233e 50ba b83e 90c6 26bc
000002c0: 0d90 50be f035 943c 7f19 8f3d 19de 0cbe
000002d0: 9f7e ae3e dae0 13bd 92c6 1cbd 0bd7 55bd
000002e0: 5660 63bf efc6 723d 2bc3 6dbe a832 6fbe
000002f0: c428 50bd 82bf 493c 2aff bf3e 5723 26bd
00000300: ef3c 26bd e7fa 81be a3ae 30be d397 fabe
00000310: b951 db3d a0f4 1c3e a176 70bd e814 dabd
00000320: c534 45be 3454 1b3f 4e82 97bd f7e9 e03d
00000330: bc2f 1f3f 2104 de3c d8fd 253e 7e8a 49bd
00000340: 3e48 88be 2286 83be 2e8e 2e3f 82f3 423e
00000350: d74c 4abe 59a4 c43d b8d8 9ebe 0ee9 e53b
00000360: 94a3 71bf 3ec5 8fbe 1dff 0d3d 180a 393d
00000370: 591f 073e ceb3 803e 0f1e 09bd 8345 4ebe
00000380: 65e6 553f 029c 753e bfbb 8b3e 7425 bf3e
00000390: d9fc 39be f420 053e bdd3 913e 5953 db3d
000003a0: af64 a3be fe02 c6be 3294 7abc 004b 62be
000003b0: 3f9a 0f3f 56f7 aabe c8d8 aebc 603c 3c3d
000003c0: b9fa 1c3d baab 20bd e879 933e a5fd a1bb
000003d0: bd6d 0ebd eef2 23be 28f7 ac3d 7bb1 5e3d
000003e0: 2112 3c3f fb22 9f3c d4f3 773e e6ee 0ebd
000003f0: c249 0e3e 986b a23e e4d4 e8be ec30 24be

actor.init_internal_node_embed.2.add_bias._bias f4 [64, 1]
-0.014316209 -0.054229863 0.09072262 -0.048771035 -0.040665913 0.04299162 -0.051097486 0.09242017
0.0017656427 -0.059667207 -0.0179552 -0.0295487 -0.13792956 -0.051798917 -0.027512465 0.029814951
-0.07302632 -0.051137593 -0.14849068 0.011173775 -0.06355684 -0.04190397 0.018620787 0.09335095
-0.024937801 -0.00816936 -0.019398004 -0.0015254982 0.02097017 -0.10178672 0.07141581 -0.12999249
0.09838678 0.08160604 -0.032476217 -0.04666017 0.05583591 -0.03414793 0.023589725 0.06509125
-0.05259388 -0.052595306 0.2409638 -0.014195185 -0.07648487 -0.02261531 0.038785115 0.04739302
0.06257969 -0.13201572 0.050092235 0.074815914 0.073704764 -0.11340971 -0.042825732 0.14018817
0.13892925 0.007419762 -0.004875903 0.0017196205 -0.036686875 0.01104703 -0.054011643 0.078309104
00000000: 888e 6abc 2220 5ebd c8cc b93d 23c4 47bd
00000010: 4d91 26bd fb17 303d 994b 51bd c946 bd3d
00000020: 236d e73a 9a65 74bd c916 93bc 1e10 f2bc
00000030: 683d 0dbe 1a2b 54bd d261 e1bc 7c3e f43c
00000040: d38e 95bd a775 51bd f10d 18be 3612 373c
00000050: 172a 82bd 7fa3 2bbd 9f8a 983c c82e bf3d
00000060: 5c4a ccbc c8d8 05bc 90e8 9ebc 3af3 c7ba
00000070: a2c9 ab3c 8e75 d0bd 7442 923d c01c 05be
00000080: 027f c93d 1121 a73d c805 05bd bc1e 3fbd
00000090: 32b4 643d b3de 0bbd 3d3f c13c 904e 853d
000000a0: ae6c 57bd 2d6e 57bd 37bf 763e ec92 68bc
000000b0: 19a4 9cbd be43 b9bc 24dd 1e3d 2f1f 423d
000000c0: c829 803d 212f 07be 842d 4d3d 1639 993d
000000d0: 86f2 963d 5a43 e8bd 096a 2fbd 7d8d 0f3e
000000e0: 7843 0e3e 7a21 f33b 0ac6 9fbb e464 e13a
000000f0: fa44 16bd 9afe 343c 503b 5dbd 8660 a03d

actor.init_leaf_node_embed.0.module.weight f4 [32, 8]
-0.17703213 -0.51380116 0.34587416 0.36805326 0.22042046 0.35536537 -0.33312863 -0.31008336
-0.5084644 -0.16956411 0.2724923 0.06576583 0.18934864 -0.24099901 0.24468073 -0.052738737
0.003955352 0.08070517 -0.28514633 -0.043742746 -0.18965015 -0.16996537 0.07910423 -0.09638541
-0.18610057 0.19105881 0.4456369 -0.23956352 0.098393194 0.21356744 -0.2509466 0.012306417
0.05472973 -0.58363545 0.39138108 -0.16811755 -0.14228596 0.09172468 -0.16618928 0.14231528
-0.38776475 0.017033573 -0.31720912 0.17045003 -0.05369577 0.117429584 -0.16772553 0.01076374
-0.34561762 0.12922074 -0.108556464 0.13945049 -0.02279646 -0.12544005 0.045337312 0.1632407
0.3120843 0.19938254 0.38984188 -0.09391362 -0.18830198 -0.07709235 -0.6596643 -0.08210846
-0.0507598 0.097255275 0.19783753 -0.07832578 -0.029503644 0.26063767 0.052535653 0.043545164
-0.62116194 -0.4036243 0.04159754 0.27049112 0.51002294 -0.32562646 -0.0016431181 -0.5170856
-0.3342156 0.15624496 -0.46819183 -0.18515435 0.38133287 0.17364858 -0.22961943 -0.00048707204
0.05732958 -0.09432242 0.29290104 -0.32445905 -0.09015592 -0.3878903 0.41844878 0.013218918
-0.14480469 -0.08825539 0.24307509 0.55977374 0.20009373 0.23883697 0.3395942 0.43400663
0.08792876 0.30734265 0.17713623 -0.0481768 -0.43062386 -0.059500314 -0.049391028 -0.22407882
0.45053154 0.49364835 0.29084343 0.31176323 -0.01602255 -0.08441045 0.13507128 0.15418276
0.008302098 -0.18374611 -0.071467526 0.26797476 -0.16067727 0.24270786 0.04243808 0.17351787
0.22168192 0.3248166 -0.077580236 -0.51646674 0.023501288 -0.3342895 -0.22219072 0.1698863
-0.30168524 0.27551547 -0.32628873 0.41869947 -0.17834036 -0.08417974 -0.21087825 0.22162965
0.07628247 -0.09700432 -0.8093236 -0.11401752 0.2869471 0.33792204 0.0932948 -0.15949143
-0.21092787 -0.121156774 -0.52199787 0.05145409 -0.113444686 -0.0396553 0.24926195 -0.077825144
0.17715389 -0.047795337 0.3144376 0.32458302 0.36046878 0.03526369 0.29384202 -0.07648597
-0.3194514 0.23392907 0.1596462 -0.12906645 0.2955624 -0.3100578 -0.041790783 0.19675644
0.17782447 -0.2433416 -0.2372374 -0.35353 0.26141092 0.04638722 0.4413839 0.2295992
-0.09553827 0.48940727 0.1739255 -0.49065083 -0.0122909 0.6524403 0.14049405 0.39500478
-0.120555975 -0.2924276 -0.09792451 -0.098847516 0.21282324 -0.15881534 -0.07560228 0.587155
-0.0094353175 -0.256438 -0.40843594 0.27523863 -0.19973749 -0.14329427 -0.0049491664 0.3635697
-0.28218466 0.17029418 0.16112478 -0.21380603 -0.40460098 -0.103965804 0.40633944 -0.19147755
-0.2420841 0.2227143 0.32922116 0.2644894 0.005100914 0.29968446 0.3053924 -0.19126923
0.016093725 -0.021707956 0.34472802 -0.16720816 -0.11460177 -0.51833856 -0.24044943 -0.09027259
0.43573135 0.34212127 -0.32986417 0.34871224 0.6153153 0.040849335 0.16093998 -0.49865252
0.081400596 -0.33734426 -0.15840892 -0.39599094 -0.2814735 0.4529879 0.07972642 -0.25044602
-0.46022567 0.024176646 -0.27463156 -0.07655181 -0.3248002 -0.158631 0.27722487 -0.20802191
00000000: e947 35be 7988 03bf 6b16 b13e 7a71 bc3e
00000010: e7b5 613e 73f2 b53e d68f aabe 3fc3 9ebe
00000020: b92a 02bf 37a2 2dbe 1c84 8b3e 3cb0 863d
00000030: 9ce4 413e 72c8 76be 968d 7a3e 9304 58bd
00000040: e69b 813b c148 a53d b3fe 91be 982b 33bd
00000050: a633 42be 670b 2ebe 6601 a23d b765 c5bd
00000060: 2691 3ebe eca4 433e 852a e43e 2450 75be
00000070: 5f82 c93d 6cb1 5a3e 137c 80be dba0 493c
00000080: 482c 603d 2269 15bf 1a63 c83e 0227 2cbe
00000090: 69b3 11be 26da bb3d 862d 2abe 19bb 113e
000000a0: 1a89 c6be fe89 8b3c 3c69 a2be 748a 2e3e
000000b0: 19f0 5bbd ec7e f03d 3ec0 2bbe 665a 303c
000000c0: cbf4 b0be 7152 043e da52 debd 1ccc 0e3e
000000d0: a4bf babc 5b73 00be 9eb3 393d 9228 273e
000000e0: 83c9 9f3e f02a 4c3e 5b99 c73e c955 c0bd
000000f0: 3cd2 40be 98e2 9dbd c2df 28bf 7b28 a8bd
00000100: 82e9 4fbd c62d c73d ec95 4a3e 4469 a0bd
00000110: a0b1 f1bc 4d72 853e a02f 573d 6a5c 323d
00000120: 7804 1fbf d8a7 cebe 2f62 2a3d d07d 8a3e
00000130: dd90 023f 83b8 a6be e55d d7ba b95f 04bf
00000140: 4f1e abbe aefe 1f3e d7b6 efbe 1a99 3dbe
00000150: 103e c33e efd0 313e 5b21 6bbe b45d ffb9
00000160: 6cd2 6a3d 1d2c c1bd 20f7 953e 7f1f a6be
00000170: aba3 b8bd 8f99 c6be eb3e d63e 2994 583c
00000180: ae47 14be 3ebf b4bd ade8 783e 554d 0f3f
00000190: 5fe5 4c3e ae91 743e 4adf ad3e 1e36 de3e
000001a0: fe13 b43d 045c 9d3e 3363 353e 0955 45bd
000001b0: bb7a dcbe 9ab6 73bd 3f4e 4abd eb74 65be
000001c0: 12ac e63e 7abf fc3e 6ee9 943e 6e9f 9f3e
000001d0: b941 83bc 63df acbd 2050 0a3e 16e2 1d3e
000001e0: 8605 083c f127 3cbe 915d 92bd fd33 893e
000001f0: 9588 24be 6988 783e 8dd3 2d3d abae 313e
00000200: 9600 633e 5d4e a63e 63e2 9ebd 2a37 04bf
00000210: c685 c03c fe27 abbe f785 63be adf6 2d3e
00000220: 7d76 9abe 5d10 8d3e 510f a7be c75f d63e
00000230: db9e 36be 6d66 acbd 78f0 57be e2f2 623e
00000240: fc39 9c3d 33aa c6bd d52f 4fbf 0482 e9bd
00000250: bbea 923e 1e04 ad3e 5811 bf3d b951 23be
00000260: 7afd 57be 0b21 f8bd a7a1 05bf 86c1 523d
00000270: b055 e8bd 996d 22bd 863e 7f3e ca62 9fbd
00000280: d467 353e 0bc5 43bd f7fd a03e bf2f a63e
00000290: 5d8f b83e a970 103d 7672 963e ada4 9cbd
000002a0: 228f a3be 1a8b 6f3e 4b7a 233e ff29 04be
000002b0: f453 973e e5bf 9ebe d02c 2bbd 857a 493e
000002c0: 9e17 363e 8a2e 79be 5cee 72be e201 b5be
000002d0: a7d7 853e 8700 3e3d 12fd e13e 0d1c 6b3e
000002e0: 92a9 c3bd 9793 fa3e 8719 323e 9636 fbbe
000002f0: c55f 49bc 5406 273f acdd 0f3e 113e ca3e
00000300: 0de6 f6bd 12b9 95be a58c c8bd 9170 cabd
00000310: 56ee 593e 7da0 22be 5ed5 9abd ca4f 163f
00000320: 9796 1abc d74b 83be 841e d1be 14ec 8c3e
00000330: fc87 4cbe bcbb 12be 9e2c a2bb cf25 ba3e
00000340: 827a 90be 9961 2e3e e5fd 243e f8ef 5abe
00000350: dc27 cfbe 06ec d4bd b90b d03e b112 44be
00000360: e5e4 77be 380f 643e ad8f a83e 286b 873e
00000370: 9125 a73b 3e70 993e 655c 9c3e 15dc 43be
00000380: fdd6 833c e2d4 b1bc 3180 b03e 9e38 2bbe
00000390: 55b4 eabd d6b1 04bf 6038 76be d6e0 b8bd
000003a0: 2e18 df3e 852a af3e f5e3 a8be 698a b23e
000003b0: 4e85 1d3f a251 273d 73cd 243e 624f ffbe
000003c0: 5bb5 a63d 63b8 acbe f335 22be 53bf cabe
000003d0: 4b1d 90be 08ee e73e 9b47 a33d 763a 80be
000003e0: b3a2 ebbe 1a0e c63c 829c 8cbe 32c7 9cbd
000003f0: 364c a6be 2a70 22be 6bf0 8d3e b203 55be

actor.init_leaf_node_embed.0.add_bias._bias f4 [32, 1]
0.17028062 -0.016355192 -0.009535228 0.08731823 0.011356331 -0.036053486 0.021934645 0.027340338
-0.13445851 0.007958768 -0.045662172 -0.21251854 0.28802502 -0.01705632 -0.030382914 -0.023633527
0.0045979684 -0.039813284 -0.08486572 0.15635933 -0.048377555 -0.04519063 0.035961192 -0.009552655
0.052776087 -0.06418808 -0.046645697 0.024810359 -0.12215224 0.29581922 0.024470618 -0.019564599
00000000: 0b5e 2e3e 53fb 85bc a539 1cbc e6d3 b23d
00000010: e80f 3a3c d2ac 13bd 49b0 b33c d8f8 df3c
00000020: 7eaf 09be 7e65 023c 4208 3bbd 769e 59be
00000030: 0478 933e b2b9 8bbc 97e5 f8bc 199b c1bc
00000040: 8eaa 963b 4113 23bd 14ce adbd a91c 203e
00000050: 8b27 46bd cf19 39bd 0b4c 133d bd82 1cbc
00000060: bd2b 583d 0a75 83bd 8f0f 3fbd 183f cb3c
00000070: f42a fabd 9e75 973e 9b76 c83c f045 a0bc

actor.init_leaf_node_embed.2.module.weight f4 [64, 32]
-0.1475297 -0.3261166 -0.27513182 -0.14495267 0.17628312 0.019542612 0.07921499 0.121276565
0.2010735 0.07001541 0.026856137 -0.26833358 -0.3597779 0.030134985 -0.29962814 -0.12181672
0.2170511 -0.083829485 -0.14231642 -0.112213165 0.087189004 -0.27984253 0.19356485 0.10784455
0.093860954 -0.42749894 -0.08600614 0.064656906 0.14170921 -0.23905934 -0.09362969 -0.01131166
0.086334795 0.15490283 0.058573168 0.10610844 0.045210227 0.05172886 0.13010676 -0.15500477
-0.13255987 -0.24774653 0.44479647 -0.020073952 -0.04278993 0.10308178 0.18404868 -0.28103462
-0.10317671 -0.12445447 -0.16980998 -0.21053585 0.10676087 -0.083436 0.0766191 -0.13036355
-0.37953308 -0.14155169 -0.011045099 0.2610188 -0.26225036 -0.1469888 -0.03632084 0.38982826
0.27433515 0.009649956 -0.15442313 -0.083197266 0.14269403 -0.051067352 -0.13772519 0.056333326
-0.4457957 -0.107651375 -0.46748737 -0.17046282 -0.27409747 0.050887648 0.28026533 -0.076288626
-0.08975003 0.2010059 -0.28608152 -0.108553514 -0.06071815 -0.061766576 0.019922512 -0.104197286
-0.046420574 -0.036297612 -0.093280055 -0.16763237 -0.20341863 -0.025049215 0.21245335 0.12090017
0.003399479 0.21937995 0.17875797 0.10557729 0.11367392 0.0548994 -0.051326312 0.11758524
0.030133847 -0.1260128 -0.18230309 0.24490355 -0.25384137 0.036593817 0.025006201 0.16775933
-0.10544294 0.3683142 -0.26078412 -0.008809964 0.107708104 0.16057092 -0.20447592 0.15727173
0.031357963 0.08790516 0.16504815 0.15525573 0.29611245 0.041757494 0.19238424 0.17336851
-0.06394372 -0.041140124 0.063111804 0.09684579 0.25994265 -0.4595409 0.23583446 -0.10029089
0.045993734 0.11898493 -0.107315145 -0.3598772 -0.08618407 0.24116708 0.13697626 -0.110277355
-0.4310781 -0.2544668 0.24345864 0.09037648 -0.29431656 0.14231391 -0.04640723 0.0033482776
-0.12829512 0.0073529542 -0.1510119 0.15532213 0.24629377 0.11363942 -0.014619612 -0.1846604
0.050086826 -0.012071703 -0.18308151 0.08586479 -0.17776228 -0.060859032 0.36452094 -0.36899737
-0.070006646 0.09232152 -0.19750169 0.28953162 0.55342454 0.03333068 0.15650672 -0.16923754
0.13614558 0.06414294 -0.18532878 -0.13709867 0.106719434 -0.16530406 0.020458374 0.43256104
0.07926593 -0.13854404 -0.076633915 0.08588841 -0.17142199 0.30008528 0.27428964 -0.103554904
0.3023088 -0.30950788 -0.055010185 0.060696676 -0.13758619 -0.12604223 0.15938246 -0.06064845
0.19115862 -0.037480474 0.22830857 0.17827451 0.20434865 0.1239987 -0.2288177 -0.09488934
-0.44495496 0.25139815 -0.000830731 0.10327526 0.03294433 0.025005924 -0.0807758 0.032841776
0.03625622 -0.07523901 -0.07442813 0.1243217 -0.14320004 0.201599 -0.090228096 -0.07419995
-0.1554081 0.029607287 -0.122444056 -0.33128637 0.12654762 -0.061002027 -0.20989525 -0.32564807
0.16379087 -0.11012909 0.27772048 0.010609804 0.19909063 0.07949862 -0.1431418 0.27635786
-0.22415712 -0.0062972233 -0.044251326 -0.085448965 -0.007558421 0.3373758 0.08976537 0.064267665
-0.05082291 0.17091884 0.18541484 0.18573406 -0.48973018 0.34092999 0.32507667 -0.23935732
00000000: 0712 17be c1f8 a6be 14de 8cbe 796e 14be
00000010: 9083 343e d417 a03c 783b a23d d95f f83d
00000020: 36e6 4d3e 3d64 8f3d 6701 dc3c 0563 89be
00000030: cf34 b8be a5dd f63c dc68 99be 0b7b f9bd
00000040: a542 5e3e cbae abbd 65bb 11be 04d0 e5bd
00000050: 2690 b23d 8547 8fbe dd35 463e 9add dc3d
00000060: 2c3a c03d 24e1 dabe fd23 b0bd d76a 843d
00000070: 381c 113e f9cb 74be ecc0 bfbd 8a54 39bc
00000080: 4cd0 b03d d99e 1e3e 6bea 6f3d 624f d93d
00000090: 5c2e 393d a4e1 533d b53a 053e 92b9 1ebe
000000a0: c6bd 07be 44b1 7dbe 5dbc e33e 2172 a4bc
000000b0: 7e44 2fbd 8a1c d33d 4277 3c3e c5e3 8fbe
000000c0: 504e d3bd fce1 febd abe2 2dbe b696 57be
000000d0: 71a5 da3d 7ee0 aabd 7aea 9c3d 067e 05be
000000e0: 2952 c2be edf2 10be 81f6 34bc 42a4 853e
000000f0: ae45 86be 3b84 16be 29c5 14bd 9297 c73e
00000100: a875 8c3e d91a 1e3c 1921 1ebe 5463 aabd
00000110: 621e 123e 002c 51bd d507 0dbe c6bd 663d
00000120: 563f e4be 5378 dcbd 815a efbe ce8d 2ebe
00000130: 8156 8cbe 916f 503d f07e 8f3e 363d 9cbd
00000140: ddce b7bd 7ed4 4d3e 4779 92be 4e51 debd
00000150: 98b3 78bd f3fe 7cbd 8934 a33c 6365 d5bd
00000160: 8023 3ebd ceac 14bd 9d09 bfbd d2a7 2bbe
00000170: f94c 50be 0334 cdbc 5f8d 593e 829a f73d
00000180: cbc9 5e3b 23a5 603e 540c 373e e838 d83d
00000190: dfcd e83d 31de 603d 8a3b 52bd 88d0 f03d
000001a0: 42db f63c 8009 01be a9ad 3abe ffc7 7a3e
000001b0: 7ff7 81be 66e3 153d ced9 cc3c 1ac9 2b3e
000001c0: 78f2 d7bd ae93 bc3e 7f85 85be ab57 10bc
000001d0: 1196 dc3d b46c 243e 2362 51be d70b 213e
000001e0: 3571 003d 9f07 b43d 6202 293e 5cfb 1e3e
000001f0: 0d9c 973e e809 2b3d 6000 453e 8487 313e
00000200: edf4 82bd 8c82 28bd c340 813d 1657 c63d
00000210: 3417 853e f248 ebbe 977e 713e 4f65 cdbd
00000220: ed63 3c3d 5fae f33d 0bc8 dbbd d341 b8be
00000230: 4681 b0bd 81f4 763e 8143 0c3e 18d9 e1bd
00000240: 45b6 dcbe 7949 82be 394d 793e 4e17 b93d
00000250: a9b0 96be bdba 113e 8215 3ebd c76e 5b3b
00000260: cc5f 03be 0df1 f03b dda2 1abe c40c 1f3e
00000270: 6f34 7c3e c9bb e83d 1987 6fbc 9e17 3dbe
00000280: d827 4d3d 64c8 45bc b879 3bbe e1d9 af3d
00000290: 5107 36be 5247 79bd 7da2 ba3e 39ed bcbe
000002a0: a55f 8fbd 1113 bd3d e23d 4abe 7d3d 943e
000002b0: 3bad 0d3f c085 083d 4c43 203e 9b4c 2dbe
000002c0: bf69 0b3e 605d 833d d4c6 3dbe 9863 0cbe
000002d0: b88f da3d 7845 29be 5298 a73c a478 dd3e
000002e0: 2d56 a23d 7dde 0dbe 3ef2 9cbd 43e6 af3d
000002f0: 3f89 2fbe c7a4 993e b16f 8c3e 9814 d4bd
00000300: 38c8 9a3e d177 9ebe 5c52 61bd 149d 783d
00000310: 65e3 0cbe 3711 01be 2835 233e 826a 78bd
00000320: 16bf 433e 2085 19bd b9c9 693e 988d 363e
00000330: c640 513e 08f3 fd3d 304f 6abe 5855 c2bd
00000340: 23d1 e3be 42b7 803e 6ac5 59ba fb81 d33d
00000350: a2f0 063d 39d9 cc3c c86d a5bd 1985 063d
00000360: 6781 143d e916 9abd c76d 98bd 609c fe3d
00000370: 08a3 12be f86f 4e3e 82c9 b8bd 25f6 97bd
00000380: 4d23 1fbe fb8a f23c f3c3 fabd 5e9e a9be
00000390: b395 013e 43dd 79bd c8ee 56be 58bb a6be
000003a0: cbb8 273e 5c8b e1bd 6131 8e3e bed4 2d3c
000003b0: 6ade 4b3e 2cd0 a23d c493 12be c77e 8d3e
000003c0: 7289 65be f058 cebb e140 35bd deff aebd
000003d0: a2ac f7bb 85bc ac3e e8d6 b73d c49e 833d
000003e0: af2b 50bd 5905 2f3e 63dd 3d3e 1231 3e3e
000003f0: eabd fabe 608e ae3e 7370 a63e 161a 75be

actor.init_leaf_node_embed.2.add_bias._bias f4 [64, 1]
-0.32383585 0.12964895 -0.019130066 -0.007494587 -0.013298503 0.32289752 0.2048205 0.16905683
0.41801396 -0.1480311 -0.076595135 0.093810104 -0.033582523 0.107368186 -0.41736394 -0.11723308
-0.0972637 0.14370961 0.019797396 0.1328804 -0.27991772 -0.03701536 0.04957116 0.19533378
-0.13291396 0.0005337861 0.013963798 -0.041489128 -0.16511793 0.27249864 0.08366127 0.047229335
0.13014033 -0.26902735 -0.15551779 0.042699426 0.09220785 0.31626487 0.39202654 0.44313553
0.16376705 0.27420884 -0.09166891 0.115046114 -0.053698327 -0.25943956 -0.32751513 -0.16886179
0.37330076 -0.08428401 -0.15819666 0.43424144 0.0010060285 0.1899655 -0.24560867 -0.1681489
0.16042411 0.34958297 0.1521019 0.15633057 0.15036957 0.42914182 -0.2307841 -0.13476309
00000000: d0cd a5be b2c2 043e a8b6 9cbc 2795 f5bb
00000010: f7e1 59bc d352 a53e 77bc 513e 3c1d 2d3e
00000020: ed05 d63e 7795 17be e9dd 9cbd 831f c03d
00000030: d48d 09bd dae3 db3d bab0 d5be e617 f0bd
00000040: 3132 c7bd 9d28 133e 262e a23c cd11 083e
00000050: 6051 8fbe 6b9d 17bd 210b 4b3d 9405 483e
00000060: 991a 08be c7ed 0b3a 6ac8 643c 81f0 29bd
00000070: ad14 29be f184 8b3e 9a56 ab3d 8c73 413d
00000080: 8243 053e f4bd 89be 0e40 1fbe 98e5 2e3d
00000090: 78d7 bc3d 78ed a13e b4b7 c83e a9e2 e23e
000000a0: 8db2 273e 1a65 8c3e e9bc bbbd 4c9d eb3d
000000b0: c7f2 5bbd 43d5 84be 10b0 a7be 1bea 2cbe
000000c0: 4721 bf3e 189d acbd 4efe 21be e554 de3e
000000d0: b7dc 833a 5186 423e d780 7bbe 3a2f 2cbe
000000e0: 3846 243e 8afc b23e 9ac0 1b3e 1f15 203e
000000f0: 7bfa 193e 7ab8 db3e ab52 6cbe 56ff 09be

actor.init_next_embed.0.module.weight f4 [32, 6]
-0.23286548 0.16632393 -0.08350397 0.4705893 0.27394128 -0.023793742 0.20931338 0.3247803
0.008345852 0.1619862 0.08832003 -0.23832387 0.09373833 -0.39020184 0.24000815 -0.80117905
0.10924376 0.17471582 0.669695 0.5689708 0.11215101 -0.17791046 0.23061016 0.2205553
-0.32594898 -0.060073663 -0.19316244 0.18307097 0.03773922 -0.17131773 -0.1762942 0.11519897
0.45863524 -0.021275269 -0.36359784 -0.11968915 -0.18479756 -0.22702844 -0.02351719 -0.5200772
0.027192572 0.49915582 -0.19753578 -0.36569485 0.2535297 0.09733884 -0.12287665 0.05023067
-0.13466202 -0.25507063 0.3433237 -0.22878867 0.08565575 -0.007927435 -0.35874388 -0.15734398
-0.1450801 0.45399973 -0.17049125 -0.060366057 0.2810493 -0.04757379 -0.14930771 0.029706357
-0.2605207 -0.10041406 -0.2056986 -0.18976979 -0.291293 -0.36826143 -0.01627405 -0.012418213
0.29887977 -0.6588021 -0.04362375 -0.10658263 -0.10794353 -0.22519746 0.16936268 -0.2599807
0.30952892 0.45080137 0.052055527 0.10169046 -0.1321878 0.053219363 -0.10582405 -0.30510885
0.07336878 0.1477793 0.009734099 0.06874418 0.23305018 -0.3130443 -0.032998063 -0.24966434
-0.04603521 -0.14450301 -0.12781705 -0.48690006 0.2656359 0.13202848 -0.23259802 0.4543361
0.49786273 0.11475351 0.12846999 0.53053534 -0.18354106 -0.014539119 -0.34739035 -0.075815596
-0.14184873 -0.4498094 0.08131448 -0.22410655 0.1941824 0.3058361 -0.118417345 -0.14834619
0.15331633 0.3647977 0.16035423 -1.2085845 -0.2751819 0.35528842 0.43003622 -0.17730126
0.08304779 0.40154874 0.2970876 0.52884763 -0.22626254 0.027656864 -0.091149665 0.029604929
-0.39976773 -0.019701406 -0.09033224 -0.18967167 -0.13105133 -0.11405275 -0.07804505 -0.03492427
-0.2261287 -0.07323272 0.3375078 -0.333449 0.535456 -0.35767248 -0.13422503 -0.051775616
0.035502844 -0.11964291 -0.48586527 0.37179363 -0.3882384 -0.17052647 0.4276855 0.43830562
0.0035941664 -0.2975327 0.30817625 -0.097972795 0.13798693 -0.31765994 0.077876635 -0.15002528
-0.11307202 0.1054592 -0.5193122 -0.17523147 0.03740772 0.064189605 0.17979756 -0.04259821
0.3300896 -0.22190318 -0.15408432 -0.08631947 -0.07804596 -0.022393305 -0.0009892428 -0.119046785
-0.55053955 0.5945493 0.069094636 -0.110009655 -0.15602608 -0.08943786 0.022044873 -0.1548481
00000000: 4a74 6ebe d250 2a3e 2104 abbd 15f1 f03e
00000010: 0842 8c3e 18eb c2bc 3f56 563e 9a49 a63e
00000020: 0abd 083c b6df 253e 22e1 b43d 2c0b 74be
00000030: e2f9 bf3d 89c8 c7be b2c4 753e 121a 4dbf
00000040: 31bb df3d b4e8 323e 2271 2b3f 12a8 113f
00000050: 6eaf e53d 292e 36be 1225 6c3e 40d9 613e
00000060: c9e2 a6be cd0f 76bd 60cc 45be f576 3b3e
00000070: 7194 1a3d ea6d 2fbe 7786 34be 70ed eb3d
00000080: 3dd2 ea3e 7949 aebc 7f29 babe 961f f5bd
00000090: 923b 3dbe 257a 68be 1fa7 c0bc c823 05bf
000000a0: f5c2 de3c 5a91 ff3e d246 4abe 5b3c bbbe
000000b0: a5ce 813e 9659 c73d c1a6 fbbd adbe 4d3d
000000c0: d7e4 09be 9e98 82be 20c8 af3e 9447 6abe
000000d0: 486c af3d 13e2 01bc 47ad b7be c81e 21be
000000e0: e18f 14be a772 e83e 4295 2ebe 6642 77bd
000000f0: b2e5 8f3e bcdc 42bd 1fe4 18be bf5a f33c
00000100: f862 85be e3a5 cdbd a7a2 52be 0353 42be
00000110: 5b24 95be c38c bcbe 2851 85bc c375 4bbc
00000120: c506 993e 41a7 28bf d1ae 32bd fe47 dabd
00000130: 7f11 ddbd 2a9a 66be 696d 2d3e 311c 85be
00000140: 937a 9e3e 70cf e63e 2d38 553d 1743 d03d
00000150: 3d5c 07be 8cfc 593d 48ba d8bd 3a37 9cbe
00000160: 5f42 963d 7553 173e c57b 1f3c c0c9 8c3d
00000170: b5a4 6e3e 5847 a0be fa28 07bd 02a8 7fbe
00000180: 6b8f 3cbd 99f8 13be 79e2 02be f74a f9be
00000190: 6e01 883e 7932 073e 2d2e 6ebe be9e e83e
000001a0: dde7 fe3e e303 eb3d a38d 033e 2ad1 073f
000001b0: 30f2 3bbe 7c35 6ebc 26dd b1be 3545 9bbd
000001c0: cb40 11be 6b4d e6be 3588 a63d 307c 65be
000001d0: c0d7 463e 8d96 9c3e cb84 f2bd 10e8 17be
000001e0: f5fe 1c3e c4c6 ba3e e633 243e e6b2 9abf
000001f0: a4e4 8cbe 5de8 b53e b52d dc3e 768e 35be
00000200: f614 aa3d cc97 cd3e de1b 983e 8f62 073f
00000210: 5eb1 67be a690 e23c adac babd 0986 f23c
00000220: 5bae ccbe d864 a1bc 1c00 b9bd 4a39 42be
00000230: 5232 06be 7d94 e9bd 15d6 9fbd c00c 0fbd
00000240: 488e 67be 09fb 95bd d3cd ac3e d4b9 aabe
00000250: a513 093f d920 b7be 4972 09be ab12 54bd
00000260: 6e6b 113d 5807 f5bd 55c3 f8be bc5b be3e
00000270: 2fc7 c6be 7e9e 2ebe 98f9 da3e 9869 e03e
00000280: 1b8c 6b3b 3556 98be 47c9 9d3e f6a5 c8bd
00000290: 724c 0d3e 53a4 a2be c97d 9f3d 3aa0 19be
000002a0: 4e92 e7bd fefa d73d a5f1 04bf e16f 33be
000002b0: d638 193d d775 833d da1c 383e 767b 2ebd
000002c0: 8101 a93e 963a 63be 48c8 1dbe 43c8 b0bd
000002d0: 8fd6 9fbd 2a72 b7bc 7ba9 81ba cdce f3bd
000002e0: 29f0 0cbf 6234 183f 7d81 8d3d be4c e1bd
000002f0: 4dc5 1fbe 322b b7bd 7397 b43c 8090 1ebe

actor.init_next_embed.0.add_bias._bias f4 [32, 1]
0.65214247 -0.10896884 -0.10541963 0.37908253 -0.00034182443 -0.037086606 0.2912126 -0.029360257
-0.042776313 -0.052962914 -0.16827397 0.24616975 -0.011976822 0.34164646 -0.0719077 -0.024112731
-0.024720551 0.28791323 -0.014144537 -0.13176873 0.54409045 0.06906464 0.014696951 -0.042147055
-0.022273596 -0.0663988 -0.040775385 -0.009720584 -0.03121407 -0.009524244 -0.020724943 0.0061172806
00000000: cff2 263f 0e2b dfbd 3fe6 d7bd 1b17 c23e
00000010: e636 b3b9 20e8 17bd d119 953e ec84 f0bc
00000020: 3736 2fbd a4ef 58bd 0350 2cbe ec13 7c3e
00000030: 6f3a 44bc 49ec ae3e 5844 93bd 1088 c5bc
00000040: c182 cabc 5d69 933e 7dbe 67bc 62ee 06be
00000050: 8349 0b3f c371 8d3d 7bcb 703c 64a2 2cbd
00000060: 1e77 b6bc 18fc 87bd 1704 27bd 1643 1fbc
00000070: a6b4 ffbc 930b 1cbc 5bc7 a9bc 7873 c83b

actor.init_next_embed.2.module.weight f4 [64, 32]
-0.32265434 0.11029929 0.09320197 0.11201098 0.175753 -0.113670364 0.010614739 0.27998805
0.12118463 0.04198168 0.13800243 -0.26225668 0.002398483 0.14733483 0.20067379 -0.0185956
0.3416716 0.22292538 -0.019466588 0.16722214 0.06529892 -0.18959443 0.25282314 0.5297925
0.07060021 0.02147366 -0.0026478225 -0.15045375 -0.073520035 -0.1100711 -0.0010767641 -0.10421807
0.35896334 -0.021979924 -0.14124617 0.11596028 0.19876051 0.16981076 -0.23531936 0.113116
-0.03648077 0.08066698 -0.13754322 -0.284885 -0.27341548 0.08269355 0.42748922 0.29015756
-0.24219197 0.15134834 0.15390363 -0.25221917 -0.30159274 -0.08682062 -0.22841866 -0.06350414
-0.052582465 0.12050481 0.08188 -0.1566673 0.07471106 0.060237214 -0.062054284 -0.12958269
0.17697048 0.38932255 0.08132367 0.10195209 0.0636251 0.12236697 0.109935336 -0.23437396
0.1395526 -0.121534765 -0.06120974 -0.27404445 -0.031429756 -0.37267146 -0.12529282 0.0084806215
0.012128621 -0.06431829 0.04220204 -0.3242133 -0.41333187 0.39142027 0.16595748 -0.10964074
0.16050495 -0.3266227 0.03894751 0.15755005 0.2585448 -0.094160564 -0.34132168 0.17974785
0.5184075 0.24749272 -0.15198226 0.22950093 0.18313049 -0.0148104485 0.036189295 -0.031038838
0.010857277 0.38847062 0.14919229 0.36196432 0.073765635 0.28743032 -0.18163443 0.082440786
0.14725474 0.28036878 -0.10600042 0.17792232 0.24055658 0.14485408 -0.123697415 -0.2770494
-0.05334481 -0.0170055 -0.2651836 0.15273896 0.09891724 0.04501268 0.21052359 0.032889016
0.42374498 -0.021577151 -0.0021005075 0.28876552 0.21600482 0.16790678 0.05834506 0.164552
0.17649184 -0.09011034 -0.020512259 -0.12363293 -0.13709241 0.0056667435 -0.1802264 -0.32831773
0.085882254 0.055605706 0.042079296 -0.2939015 0.40321955 0.19773297 -0.015807465 -0.015668048
0.16593389 0.18158697 0.15974566 -0.097379886 0.057423953 0.03722309 0.10999095 -0.11749353
-0.5216327 -0.5050669 -0.059823185 -0.40573388 0.017119752 0.15135081 -0.11788595 0.15113103
0.090981446 0.13368402 -0.20609155 -0.23866475 -0.027454466 -0.019788561 -0.055275556 0.12863883
0.005855559 0.063794345 0.16861063 -0.010999077 -0.37555364 -0.02514481 0.070505396 -0.062972024
-0.22757146 -0.21974453 -0.1363762 -0.17802852 0.12420828 -0.21164188 0.009655019 -0.168096
0.14885461 -0.1650602 -0.06584323 0.038095612 -0.02814916 0.07641897 -0.14692357 -0.012276208
0.46401626 0.056224305 -0.041881464 -0.08475441 -0.20426515 -0.02485961 -0.34447196 -0.27418587
-0.42162707 -0.0123214 -0.34531742 -0.14046289 -0.25664812 0.024430107 0.06730916 -0.07764581
-0.052028697 -0.18062109 0.03277107 0.03078116 -0.072993785 0.20169996 -0.012749017 0.14854412
0.64240104 0.14848657 0.026934544 0.26595843 0.10903919 -0.23742966 -0.02131944 0.14586549
-0.048609834 0.10588049 0.04523382 0.5068925 0.3400654 -0.19039303 0.28306028 -0.15673386
0.09116686 0.13515729 0.05686384 -0.07403608 -0.21388067 0.50081265 0.16943021 0.06885691
0.22160992 0.05013085 -0.26826167 -0.113167964 -0.1767932 -0.16964243 0.40382552 0.049308468
00000000: f332 a5be 98e4 e13d ade0 be3d 0366 e53d
00000010: 98f8 333e 02cc e8bd 71e9 2d3c 985a 8f3e
00000020: a62f f83d fbf4 2b3d 8250 0d3e 8246 86be
00000030: de2f 1d3b f1de 163e 6e7d 4d3e cd55 98bc
00000040: 94ef ae3e 8d46 643e 6578 9fbc 483c 2b3e
00000050: 71bb 853d 0b25 42be 0972 813e 7ba0 073f
00000060: d896 903d 87e9 af3c 1787 2dbb 8c10 1abe
00000070: ac91 96bd f56c e1bd 3522 8dba 4970 d5bd
00000080: 0bca b73e 3e0f b4bc d6a2 10be 957c ed3d
00000090: e087 4b3e dfe2 2d3e 8ff7 70be 5da9 e73d
000000a0: dc6c 15bd bb34 a53d 21d8 0cbe 72dc 91be
000000b0: 1dfd 8bbe 3c5b a93d dedf da3e 888f 943e
000000c0: 2c01 78be 0ffb 1a3e ea98 1d3e df22 81be
000000d0: 5d6a 9abe 02cf b1bd 95e6 69be 750e 82bd
000000e0: b660 57bd 3acb f63d b4b0 a73d 656d 20be
000000f0: 1d02 993d 4cbb 763d a22c 7ebd 53b1 04be
00000100: c037 353e 4955 c73e 068d a63d 42cc d03d
00000110: e04d 823d 899b fa3d c725 e13d baff 6fbe
00000120: e0e6 0e3e 38e7 f8bd 10b7 7abd 8e4f 8cbe
00000130: 7dbc 00bd cbce bebe c34c 00be 4ef2 0a3c
00000140: 20b7 463c 4fb9 83bd 0cdc 2c3d 49ff a5be
00000150: 3ca0 d3be 3d68 c83e c2f0 293e 538b e0bd
00000160: 695b 243e 173b a7be 6d87 1f3d cd54 213e
00000170: fc5f 843e 41d7 c0bd b7c1 aebe d20f 383e
00000180: 5bb6 043f bb6e 7d3e 3da1 1bbe 4b02 6b3e
00000190: 8f86 3b3e 86a7 72bc 3a3b 143d 2945 febc
000001a0: b8e2 313c 9fe5 c63e ddc5 183e 6353 b93e
000001b0: 7012 973d 112a 933e 60fe 39be b7d6 a83d
000001c0: f2c9 163e 7f8c 8f3e c016 d9bd 4531 363e
000001d0: 7754 763e a154 143e 1255 fdbd 6bd9 8dbe
000001e0: 1680 5abd 1e4f 8bbc 25c6 87be 9a67 1c3e
000001f0: 1f95 ca3d 375f 383d 7f93 573e a2b6 063d
00000200: 1af5 d83e 91c2 b0bc aba8 09bb 13d9 933e
00000210: 5e30 5d3e c1ef 2b3e 3bfb 6e3d 5280 283e
00000220: 47ba 343e c58b b8bd 5309 a8bc 4333 fdbd
00000230: f461 0cbe 17b0 b93b 458d 38be 4319 a8be
00000240: 09e3 af3d cfc2 633d 575b 2c3d 427a 96be
00000250: cb72 ce3e 837a 4a3e a87e 81bc 475a 80bc
00000260: 93ea 293e eff1 393e 5e94 233e 1b6f c7bd
00000270: 6135 6b3d 3d77 183d ef42 e13d 73a0 f0bd
00000280: b889 05bf 104c 01bf 2809 75bd 5abc cfbe
00000290: b93e 8c3c b5fb 1a3e 306e f1bd 18c2 1a3e
000002a0: 7b54 ba3d 77e4 083e aa09 53be 8864 74be
000002b0: 30e8 e0bc 9f1b a2bc 9f68 62bd e6b9 033e
000002c0: fddf bf3b 9ca6 823d 44a8 2c3e 7935 34bc
000002d0: 9148 c0be 7dfc cdbc 2265 903d 7af7 80bd
000002e0: 7e08 69be b604 61be 34a6 0bbe 1c4d 36be
000002f0: e960 fe3d a6b8 58be 1630 1e3c 5c21 2cbe
00000300: 586d 183e 8b05 29be d1d8 86bd 250a 1c3d
00000310: 1199 e6bc 8d81 9c3d 2273 16be 2622 49bc
00000320: 8a93 ed3e 754b 663d e68b 2bbd b893 adbd
00000330: e22a 51be 61a6 cbbc a15e b0be 1762 8cbe
00000340: 81df d7be b3df 49bc 72cd b0be 81d5 0fbe
00000350: 6267 83be a621 c83c 63d9 893d c404 9fbd
00000360: 0b1c 55bd bcf4 38be f53a 063d c528 fc3c
00000370: c47d 95bd 6f8a 4e3e 41e1 50bc f31b 183e
00000380: 6574 243f dd0c 183e d5a5 dc3c b42b 883e
00000390: f04f df3d c320 73be 1ba6 aebc c35d 153e
000003a0: 1b1b 47bd dfd7 d83d 1947 393d b5c3 013f
000003b0: 0d1d ae3e 64f6 42be 47ed 903e d77e 20be
000003c0: b1b5 ba3d ac66 0a3e 0fea 683d 3aa0 97bd
000003d0: 8903 5bbe 4235 003f 1d7f 2d3e da04 8d3d
000003e0: b6ed 623e 0256 4d3d 9859 89be 9bc4 e7bd
000003f0: 4709 35be bfb6 2dbe 38c2 ce3e adf7 493d

actor.init_next_embed.2.add_bias._bias f4 [64, 1]
-0.1940228 -0.012274715 -0.05655736 0.63818306 0.35445714 -0.610998 -0.057808556 0.4723608
-0.46421266 0.053035058 0.013635256 0.25566047 0.07400317 -0.35664532 0.43011132 -0.4245338
0.115803376 0.3722195 -0.028487138 0.30001825 -0.28563392 -0.07310742 -0.10530571 -0.33641627
-0.28053486 -0.20120129 -0.63234246 0.10998724 0.8513718 -0.030806798 -0.08441074 0.4470616
-0.00025844315 0.14689519 -0.033302967 -0.11250712 -0.34656957 -0.52250266 -0.54531235 -0.58628374
-0.19553874 -0.01882572 -0.21657659 -0.28687024 -0.42249405 0.54839426 0.07582465 -0.08980123
0.3659505 0.20548221 -0.89002234 -0.42423335 0.0574856 -0.28063008 0.5687636 -0.27902025
0.05804812 -0.5971534 -0.02001315 0.30866012 0.15511441 0.28208655 -0.3722447 0.03437349
00000000: eaad 46be e31b 49bc b1a8 67bd f75f 233f
00000010: 687b b53e 5d6a 1cbf aac8 6cbd 46d9 f13e
00000020: 48ad edbe 4a3b 593d 6966 5f3c eee5 823e
00000030: f98e 973d 379a b6be 8d37 dc3e 7f5c d9be
00000040: 522a ed3d 8e93 be3e dc5d e9bc fe9b 993e
00000050: 9c3e 92be 58b9 95bd 85aa d7bd c13e acbe
00000060: 44a2 8fbe b607 4ebe 32e1 21bf fd40 e13d
00000070: 81f3 593f 8a5e fcbc 8adf acbd 42e5 e43e
00000080: a77f 87b9 b16b 163e b168 08bd 226a e6bd
00000090: 9171 b1be bcc2 05bf 9799 0bbf b116 16bf
000000a0: 4f3b 48be 6538 9abc 41c6 5dbe a8e0 92be
000000b0: 2451 d8be 9163 0c3f f449 9b3d b5e9 b7bd
000000c0: dd5d bb3e ee69 523e 81d8 63bf 1d35 d9be
000000d0: 0576 6b3d bfae 8fbe 7e9a 113f bedb 8ebe
000000e0: dec3 6d3d 0cdf 18bf 9ef2 a3bc b308 9e3e
000000f0: 50d6 1e3e a66d 903e db96 bebe 37cb 0c3d

actor.embedder.layers.0.0.module.W_query.weight f4 [64, 64]
-0.08262616 0.017758025 -0.17301787 -0.06893639 -0.13137266 0.03399851 -0.046484746 -0.1186412
0.0038038476 -0.067389324 0.042027805 0.0025987127 0.1263168 0.096959434 -0.09224899 -0.0021588937
-0.11914818 0.09793885 -0.020359784 0.07100234 -0.13467434 0.03967845 -0.08682369 -0.05207172
-0.016606545 0.06916273 0.05557796 -0.092646845 -0.1325177 0.11205724 -0.06636101 0.005867378
0.08574322 -0.12192622 -0.0961467 0.02709281 -0.05987129 -0.0026463654 0.07394073 0.021130307
0.021911904 -0.03236009 -0.14025387 -0.13537301 -0.0070782863 -0.11623111 0.10268723 0.061961528
0.044528767 -0.020110952 -0.07840823 0.049055353 -0.13584752 -0.09334311 -0.093064524 -0.12045293
-0.077035956 0.061408468 -0.053785317 0.093875095 -0.0691225 0.04880536 0.06063651 0.101379625
0.055420153 0.10417557 -0.022615425 -0.042007416 -0.006190784 0.106610626 0.037237674 0.0792111
0.0725256 -0.12797026 -0.04307943 0.09746426 0.07974826 -0.17571984 0.10652187 -0.03901181
0.038329855 0.020109015 -0.029873434 0.08516606 0.039930772 0.14783946 0.11711732 -0.08554317
0.01849504 -0.11133491 0.10667941 -0.077867955 0.08991667 -0.14332165 0.12141033 0.095383696
-0.0955512 -0.04932539 0.021113113 -0.019326624 -0.10757308 -0.080552526 -0.06694513 -0.0524628
0.11850702 -0.06326318 0.09976026 -0.032149304 0.020341929 0.0774522 -0.0018607853 -0.00572388
-0.11312398 0.08839229 0.015968999 0.0073548434 0.005052775 -0.05525532 -0.09633637 0.0032089634
0.045586284 0.05677595 0.06209738 0.008592805 0.07804618 -0.048881188 -0.11742141 0.07213494
-0.09250309 0.124991015 0.14152578 -0.080929585 -0.035691157 0.1443624 -0.091902755 0.06411964
0.122251295 -0.046444695 -0.08703288 0.09167964 -0.16171809 0.05368147 -0.14574997 -0.14462495
-0.00031988075 0.052105173 -0.12956052 -0.08110641 0.07437618 -0.0028520762 -0.026159674 0.03136309
-0.017496167 0.109830275 -0.062102262 -0.051531404 0.09594731 -0.07514628 0.14136757 0.023328863
0.101646475 0.09765372 -0.014457353 0.024811976 -0.019618163 0.11457968 0.004081367 -0.039338056
-0.07617466 0.10466491 0.14506848 -0.10341846 -0.1561901 -0.11405304 -0.03482003 -0.06010505
-0.016842633 -0.057225436 -0.06978423 0.1507803 -0.04423131 0.07546204 -0.07818746 -0.10756604
0.09497913 0.027088916 0.013440025 0.12785073 0.11033849 -0.017312653 0.07137718 0.07906997
0.0323395 0.04636034 0.01074671 0.12892228 -0.043425415 -0.07454743 -0.088328056 -0.062142987
-0.10461811 -0.044523247 -0.09165577 -0.055793375 -0.088983774 0.00792296 0.058096156 0.03779307
-0.0011940517 0.022624103 -0.059464823 0.036347464 0.09437668 0.07841512 -0.063904546 0.08024064
-0.06755115 0.03325808 -0.08605348 -0.02337729 0.14143965 0.006818538 -0.08729792 0.05436644
0.13929841 -0.010217822 -0.0040989975 0.09875561 0.06954875 0.09983537 0.012390346 -0.09875666
0.10706916 -0.05986189 0.012861961 0.06929436 -0.055879656 -0.012015462 0.0858325 -0.06344267
0.071404494 0.07489897 -0.019385485 0.011723539 -0.08164008 0.0200455 0.021159405 0.06645427
-0.046894677 -0.090589225 -0.003526708 -0.046430394 -0.107972644 -0.044670466 0.0713222 0.029433763
00000000: e737 a9bd 4779 913c 992b 31be 862e 8dbd
00000010: 8e86 06be 0642 0b3d ca66 3ebd 28fa f2bd
00000020: f949 793b 6a03 8abd 5925 2c3d 2a4f 2a3b
00000030: 3159 013e ab92 c63d 0aed bcbd 3a7c 0dbb
00000040: f603 f4bd 2a94 c83d 90c9 a6bc ad69 913d
00000050: 12e8 09be df85 223d 9ed0 b1bd 2849 55bd
00000060: 730a 88bc 30a5 8d3d b7a5 633d a1bd bdbd
00000070: b8b2 07be 447e e53d 48e8 87bd 2243 c03b
00000080: 249a af3d 74b4 f9bd 90e8 c4bd bef1 dd3c
00000090: 993b 75bd a56e 2dbb 3d6e 973d 7719 ad3c
000000a0: 9880 b33c 048c 04bd b69e 0fbe 399f 0abe
000000b0: f8f0 e7bb 940a eebd af4d d23d 5fcb 7d3d
000000c0: cc63 363d b9bf a4bc 7e94 a0bd 44ee 483d
000000d0: 9d1b 0bbe ac2a bfbd 9d98 bebd 07b0 f6bd
000000e0: 07c5 9dbd 7287 7b3d fe4d 5cbd 9641 c03d
000000f0: 1990 8dbd 21e8 473d fd5d 783d 1fa0 cf3d
00000100: 3e00 633d 005a d53d fc43 b9bc f80f 2cbd
00000110: 0fdc cabb ac56 da3d 8886 183d 6e39 a23d
00000120: 4d88 943d a30a 03be 0e74 30bd 589b c73d
00000130: 0e53 a33d e7ef 33be 2328 da3d d9ca 1fbd
00000140: c4ff 1c3d a9bb a43c 22b9 f4bc 8b6b ae3d
00000150: 738e 233d 3a63 173e 35db ef3d 4231 afbd
00000160: e982 973c 8f03 e4bd bc7a da3d 3c79 9fbd
00000170: 3b26 b83d e9c2 12be fba5 f83d 8758 c33d
00000180: 59b0 c3bd 6c09 4abd 68f5 ac3c de52 9ebc
00000190: 464f dcbd b9f8 a4bd 871a 89bd 3ce3 56bd
000001a0: cfb3 f23d 2090 81bd 1b4f cc3d fdae 03bd
000001b0: 1ea4 a63c 429f 9e3d 98e5 f3ba 638f bbbb
000001c0: 8cad e7bd 0407 b53d 6bd1 823c e600 f13b
000001d0: c091 a53b 6753 62bd 014c c5bd 794d 523b
000001e0: afb8 3a3d e68d 683d d359 7e3d d6c8 0c3c
000001f0: add6 9f3d a437 48bd a37a f0bd 7cbb 933d
00000200: 4372 bdbd 4afb ff3d 22ec 103e 69be a5bd
00000210: e430 12bd bdd3 133e 8337 bcbd 2851 833d
00000220: e35e fa3d cb3c 3ebd 4b3e b2bd 89c2 bb3d
00000230: 6d99 25be 1ae1 5b3d 7b3f 15be 9018 14be
00000240: abb5 a7b9 3c6c 553d 83ab 04be 1e1b a6bd
00000250: 8a52 983d e6e9 3abb d04c d6bc 9576 003d
00000260: 1f54 8fbc b2ee e03d f15e 7ebd 9812 53bd
00000270: 0680 c43d 4be6 99bd a9c2 103e 2c1c bf3c
00000280: 072c d03d acfe c73d 89de 6cbc 7c42 cb3c
00000290: 45b6 a0bc c0a8 ea3d fdbc 853b f120 21bd
000002a0: 7601 9cbd 8e5a d63d d58c 143e 0fcd d3bd
000002b0: 4cf0 1fbe a494 e9bd 739f 0ebd b730 76bd
000002c0: 90f9 89bc 3865 6abd 09eb 8ebd 2766 1a3e
000002d0: e42b 35bd d88b 9a3d bf20 a0bd 954b dcbd
000002e0: 6b84 c23d 93e9 dd3c 8d33 5c3c 4deb 023e
000002f0: 25f9 e13d 44d3 8dbc 332e 923d 70ef a13d
00000300: 6c76 043d 57e4 3d3d f812 303c 3404 043e
00000310: d9de 31bd 53ac 98bd 57e5 b4bd a589 7ebd
00000320: 0542 d6bd 025e 36bd 05b6 bbbd 9887 64bd
00000330: 203d b6bd 4ecf 013c 3cf6 6d3d e8cc 1a3d
00000340: ba81 9cba 2f56 b93c 6391 73bd 14e1 143d
00000350: 9048 c13d 1b98 a03d 63e0 82bd 3455 a43d
00000360: 4258 8abd a039 083d cf3c b0bd bb81 bfbc
00000370: 8ed5 103e 0b6e df3b 40c9 b2bd 58af 5e3d
00000380: 3ea4 0e3e a768 27bc e250 86bb 6240 ca3d
00000390: 936f 8e3d 7d76 cc3d e100 4b3c ef40 cabd
000003a0: 1347 db3d be31 75bd f9ba 523c 34ea 8d3d
000003b0: 11e2 64bd 80dc 44bc f3c8 af3d 3bee 81bd
000003c0: 853c 923d a264 993d 4fce 9ebc 1614 403c
000003d0: ea32 a7bd 7636 a43c 7d56 ad3c 2d19 883d
000003e0: a214 40bd d886 b9bd 5820 67bb cc2d 3ebd
000003f0: c320 ddbd 61f8 36bd 6011 923d 131f f13c
