trained_models/experiment/Discrete_A2C_20x10x10Bin_s42_inh_800_defaultBox-2022.08.18-19-42-34/PCT-Discrete_A2C_20x10x10Bin_s42_inh_800_defaultBox-2022.08.18-19-42-34_2022.08.18-23-18-51.pt (torch, 236314 bytes, 24 tensors)

actor.init_internal_node_embed.0.module.weight f4 [32, 6]
0	0x3e7b8a44	0.24564463
1	0x3f14b17c	0.5808332
2	0x3f20b49c	0.6277559
3	0xbe984795	-0.29742113
4	0x3cbccedd	0.023047859
5	0x3e3a5bd9	0.181991
6	0x3e420406	0.18946847
7	0x3ed35ce8	0.4128182
8	0xbcbf9e44	-0.023390897
9	0xbdf9864e	-0.1218382
10	0xbe9f0f2e	-0.3106627
11	0xbde43161	-0.11142231
12	0x3d4544fd	0.048161495
13	0xbd3228f6	-0.043496095
14	0x3d4a561a	0.04939852
15	0x3dc5199a	0.09624024
16	0xbe8c9404	-0.27456677
17	0x3da99026	0.08279447
18	0xbf08bb59	-0.5341087
19	0xbce7741a	-0.028253604
20	0xbec7436f	-0.38918635
21	0x3f0ecb06	0.5577854
22	0x3e92f524	0.28702652
23	0x3f5e9041	0.86938864
24	0x3ef31b5b	0.47481808
25	0xbe3bf99c	-0.18356937
26	0x3c35cd23	0.011096272
27	0x3da2825d	0.07935021
28	0x3b60014b	0.0034180458
29	0xbde3ecd3	-0.11129155
30	0x3e80d645	0.25163475
31	0x3dec576e	0.115401134
32	0xbeb3ad7d	-0.350933
33	0x3ecc2b6a	0.39876872
34	0xbdfe04b8	-0.12403244
35	0xbe9f9128	-0.31165433
36	0xbedd2aed	-0.43196812
37	0x3e5897e2	0.21151689
38	0x3e15984c	0.14608878
39	0x3e49808b	0.19677942
40	0xbea61489	-0.32437542
41	0xbe27531d	-0.16340299
42	0x3e4e591f	0.20151184
43	0xbdcafd33	-0.09911575
44	0x3eee2a23	0.46516523
45	0x3d16ee81	0.03684855
46	0xbf402a7b	-0.7506482
47	0x3e06fc3d	0.13182159
48	0xbee5205c	-0.4475125
49	0x3db6fba1	0.08934713
50	0xbf509fc4	-0.81493783
51	0x3ed376c6	0.41301554
52	0x3d17e5c0	0.03708434
53	0x3d982492	0.0742885
54	0x3f2659cf	0.6498079
55	0xbd03b608	-0.03215602
56	0xbdd8c582	-0.105845466
57	0x3e16f832	0.14743116
58	0xbe4f7952	-0.20261124
59	0xbe321278	-0.17389858
60	0xbd4d9d57	-0.05019888
61	0x3dc3d02e	0.095611915
62	0xbeb04716	-0.34429234
63	0x3f0cebc2	0.5504724
64	0x3f0665fe	0.5249938
65	0xbf22636a	-0.63432944
66	0xbe601782	-0.21883968
67	0xbe342d4f	-0.17595409
68	0xbe2a73ed	-0.16645785
69	0xbd7c3780	-0.061576366
70	0xbeb0ca9e	-0.34529585
71	0xbe4eb330	-0.20185542
72	0x3f6ea8f7	0.9322657
73	0x3de29dd8	0.110652626
74	0x3df733c2	0.12070419
75	0xbe051d18	-0.1299938
76	0xbde8d254	-0.11368242
77	0xbe55f259	-0.2089323
78	0x3ece1908	0.40253472
79	0x3d09ed50	0.033673584
80	0xbe3bb6c7	-0.18331443
81	0xbde00fe9	-0.109405346
82	0x3e9c8fa0	0.30578327
83	0xbead38c7	-0.3383238
84	0x3eccc917	0.3999717
85	0x3ee87033	0.453981
86	0xbeb2ff55	-0.34960428
87	0xbd871709	-0.065961905
88	0x3d94d374	0.07266894
89	0xbdb37021	-0.08761621
90	0xbcf8d3c3	-0.030374413
91	0xbe92794d	-0.2860817
92	0xbe72d46f	-0.2371385
93	0xbda64308	-0.08118254
94	0x3e12278c	0.14272898
95	0xbe8dfbd0	-0.2773118
96	0x3e2c2472	0.16810778
97	0xbe002607	-0.12514506
98	0x3ed29f48	0.41137147
99	0xbf459206	-0.7717594
100	0x3efb3e83	0.4907113
101	0x3efdc1f6	0.49562043
102	0x3db67592	0.089091435
103	0x3d5e25fd	0.054235447
104	0x3dcefe6c	0.10107121
105	0x3e439824	0.19101006
106	0xbf0d1956	-0.55116785
107	0xbeb40281	-0.3515816
108	0x3eaf44a4	0.34232056
109	0x3ddada02	0.10686113
110	0xbee4d19b	-0.44691166
111	0x3e661db1	0.22472264
112	0x3e149480	0.14509773
113	0xbd34f581	-0.044179443
114	0x3ebb57dc	0.3659047
115	0xbe4e7872	-0.20163134
116	0x3d508a26	0.050913
117	0xbe7754cb	-0.2415344
118	0xbdbac2a8	-0.09119159
119	0x3dfd9794	0.12382427
120	0x3dcdb3e1	0.10044075
121	0x3e76028a	0.24024406
122	0xbee6a645	-0.4504873
123	0x3e7b1803	0.24520878
124	0x3c93f1c3	0.018059617
125	0xbefc90a0	-0.4932909
126	0xbe1ae25e	-0.15125415
127	0xbdb970e9	-0.09054739
128	0xbe945661	-0.28972152
129	0x3e0094d8	0.1255678
130	0xbde2e469	-0.11078722
131	0xbec0e7f9	-0.3767698
132	0xbf408e77	-0.75217384
133	0xbf5a8287	-0.8535542
134	0xbf5740b3	-0.840831
135	0x3f05efea	0.52319205
136	0x3ee3dd49	0.44504765
137	0x3edfccd7	0.43710968
138	0xbe8e54a3	-0.27798948
139	0xbdb8452f	-0.08997571
140	0xbe3fa318	-0.18714559
141	0x3d82950c	0.06376085
142	0xbd1ec6c9	-0.038763795
143	0x3f1c89ef	0.6114797
144	0xbe081bd0	-0.1329186
145	0xbce101dd	-0.027466709
146	0x3f843dcf	1.0331362
147	0x3eb7a7e8	0.3587029
148	0x3debcb65	0.11513404
149	0x3e66079a	0.22463837
150	0xbd7c8aa7	-0.061655667
151	0x3e8242a6	0.25441474
152	0x3eba5fae	0.36401123
153	0xbe9ce2b3	-0.30641708
154	0xbd9baf0f	-0.07601749
155	0x3eeb4e26	0.4595806
156	0xbe8ce5f8	-0.27519202
157	0x3cbf281f	0.02333456
158	0xbe828930	-0.2549529
159	0x3d1461d2	0.0362261
160	0x3e8d7e64	0.2763549
161	0xbdd24c24	-0.10268429
162	0xbda5fc35	-0.08104745
163	0x3cdc81da	0.026917387
164	0x3eb26e9a	0.34850007
165	0xbec08f09	-0.37609127
166	0xbd3a74ca	-0.045521535
167	0xbe41967e	-0.18905064
168	0xbebaad90	-0.36460543
169	0xbf179340	-0.5920906
170	0xbd9119b9	-0.07084984
171	0x3d5ab654	0.053396538
172	0x3e1bb7af	0.15206788
173	0x3d75d224	0.06001486
174	0xbe6cb7c5	-0.23116978
175	0x3e3fca65	0.18729551
176	0x3ea11bae	0.3146643
177	0xbe7c1d71	-0.24620606
178	0xbdcca7c1	-0.09992934
179	0xbd2b236e	-0.041781835
180	0x3ecab74f	0.39592978
181	0x3c558159	0.013031327
182	0x3d070af7	0.03296944
183	0xbdb23263	-0.08701017
184	0x3e43e56d	0.19130488
185	0xbed8205d	-0.4221219
186	0x3e86fa7b	0.26362976
187	0x3e42b110	0.19012856
188	0xbe870beb	-0.2637628
189	0xbe36f729	-0.17867722
190	0x3ab056aa	0.0013453562
191	0x3ea37305	0.3192369

actor.init_internal_node_embed.0.add_bias._bias f4 [32, 1]
0	0x3d0265b8	0.031835288
1	0x3c858174	0.01629708
2	0xbcf43967	-0.029812528
3	0x3d7b5590	0.061360896
4	0x3dfc2926	0.12312536
5	0x3c2d8a65	0.010592078
6	0xbc9fdc22	-0.019514147
7	0x3cb55fc5	0.022140393
8	0x3ce91cc5	0.028456101
9	0x3da1d549	0.07902009
10	0x3cccf9fe	0.02502155
11	0x3c9f2ca7	0.019430472
12	0x3d22ab70	0.039714277
13	0x3cc21f0f	0.02369645
14	0x3bc27124	0.0059338976
15	0xbb86e39f	-0.00411649
16	0x3c4c11f0	0.0124554485
17	0x3c2beb44	0.010493103
18	0x3ab645f9	0.0013906352
19	0x39d03099	0.0003970906
20	0xbc43ae2d	-0.011943382
21	0x3cb23199	0.021752166
22	0xbb9066aa	-0.0044067698
23	0xbbdaa208	-0.0066721477
24	0x3d85d3bc	0.06534526
25	0x3c7cfb31	0.015440748
26	0xbc3ad163	-0.011402461
27	0xbca07375	-0.019586304
28	0x3b6a052a	0.0035708644
29	0xba91a8cf	-0.0011112931
30	0x3c36c5f6	0.011155596
31	0x3d17bea1	0.037047032

actor.init_internal_node_embed.2.module.weight f4 [64, 32]
0	0xbe6e37c4	-0.2326346
1	0x3d71237b	0.058871727
2	0xbdeb260b	-0.114818655
3	0x3ebfa787	0.374325
4	0x3e1e2673	0.15444355
5	0x3d25ca1d	0.040475953
6	0x3daa6c10	0.083213925
7	0x3dfd69e0	0.1237371
8	0xbe9cef4a	-0.30651313
9	0xbe949dae	-0.2902655
10	0xbdfd2094	-0.123597294
11	0xbc5aba01	-0.013350011
12	0xbead8038	-0.33886886
13	0xbe17cde0	-0.14824629
14	0x3c453092	0.012035506
15	0xbe336ab2	-0.1752117
16	0x3ecfeb99	0.40609434
17	0xbda36278	-0.07977766
18	0xbe27c57c	-0.16383928
19	0x3e857423	0.26065168
20	0x3daffd21	0.085932024
21	0xbe8d414c	-0.2758888
22	0xbde23148	-0.11044556
23	0xbe3fbb5a	-0.18723813
24	0x3e1eb2b7	0.15497862
25	0x3eadef72	0.33971745
26	0x3e14ea0c	0.14542407
27	0x3dcc481c	0.09974691
28	0xbd8e67d0	-0.069533944
29	0xbe31e8e0	-0.17373991
30	0xbe3eb666	-0.18624267
31	0x3e10a59e	0.14125678
32	0xbec65e65	-0.38743892
33	0xbeb79757	-0.3585765
34	0xbebc4e26	-0.36778373
35	0xbe8c78d6	-0.2743594
36	0x3d78db13	0.0607558
37	0x3e6fd3e0	0.23420668
38	0x3b56c4b8	0.0032771062
39	0x3ecf25c0	0.40458488
40	0xbca037a5	-0.019557783
41	0xbdaffbc8	-0.08592945
42	0xbd10c68f	-0.03534561
43	0xbd4a4f65	-0.049392123
44	0xbea4e722	-0.3220759
45	0x3dd9eddd	0.10641072
46	0xbe639e3b	-0.22228329
47	0x3e265399	0.16242827
48	0x3d640c32	0.055675693
49	0x3ca9f8ae	0.020748463
50	0xbed038ce	-0.4066834
51	0xbe2bc568	-0.16774523
52	0x3eb75a0d	0.3581089
53	0x3dcb1c97	0.099175625
54	0x3dfd66ae	0.123731
55	0xbe915613	-0.28385982
56	0xbe8b6f52	-0.27233368
57	0x3db8abbf	0.09017133
58	0xbd21717d	-0.03941487
59	0x3e26e4f2	0.16298273
60	0xbe80e688	-0.2517588
61	0x3e4bbc36	0.19896016
62	0x3ebe2a68	0.37141728
63	0xbc320117	-0.010864518
64	0x3f45ea1f	0.77310365
65	0xbe42935b	-0.19001524
66	0xbcad6814	-0.021167792
67	0x3ebbb386	0.36660403
68	0xbe92e0cb	-0.28687128
69	0x3e70d986	0.23520479
70	0xbe8a8874	-0.2705723
71	0xbe04723b	-0.129342
72	0x3e57cbe6	0.21073875
73	0x3e95b2bd	0.2923793
74	0x3df81eda	0.121152595
75	0xbeaf85c7	-0.34281752
76	0x3f69c47e	0.9131545
77	0xbe320801	-0.17385866
78	0x3e11ada4	0.14226395
79	0xbc37bbef	-0.01121424
80	0x3e8c74c5	0.27432838
81	0x3dcdafc3	0.100432895
82	0x3d58d934	0.052941516
83	0x3e6e8cb3	0.2329586
84	0xbec1073b	-0.3770083
85	0xbe06e1a2	-0.1317201
86	0x3d963831	0.073349364
87	0xbdb9a1e8	-0.09064084
88	0x3f18a5dc	0.5962808
89	0xbe6aa430	-0.22914195
90	0xbdf4b196	-0.11947934
91	0xbd4ccfc9	-0.050002847
92	0x3de9cef4	0.11416426
93	0x3da4d87d	0.08049104
94	0x3e92fd09	0.28708676
95	0x3df7e86a	0.12104876
96	0xbce7fc1e	-0.028318461
97	0x3f1c1507	0.60969585
98	0xbdf07c3e	-0.11742447
99	0xbee39774	-0.44451487
100	0x3d27d0fc	0.040970787
101	0xbe2638e3	-0.16232638
102	0xbe9fd11c	-0.31214225
103	0x3d69a9ba	0.05704663
104	0xbe723272	-0.23652056
105	0x3c02c349	0.00798113
106	0xbd8d8a15	-0.06911103
107	0x3effd778	0.49969077
108	0x3e096710	0.13418221
109	0xbe138b5d	-0.14408632
110	0xbdfe2b61	-0.124106176
111	0xbe30f9af	-0.17282747
112	0xbe0d24c8	-0.13783562
113	0xbe2aa76e	-0.16665432
114	0xbe556822	-0.20840505
115	0xbe4c9e67	-0.199823
116	0xbe9a5c85	-0.30148712
117	0x3dc855cd	0.0978199
118	0x3e839f04	0.25707257
119	0x3e62cac0	0.22147655
120	0xbebcfb28	-0.36910367
121	0x3e283ab6	0.16428646
122	0x3e0a72da	0.13520375
123	0x3d1deaab	0.038553875
124	0x3e45084e	0.19241449
125	0x3e0a9ff2	0.13537577
126	0x3d8eb629	0.06968338
127	0xbdbc27a4	-0.09187248
128	0xbeaefdf5	-0.3417813
129	0xbd53004f	-0.051513966
130	0x3e07a54c	0.1324665
131	0xbab7fb87	-0.0014036753
132	0xbe322021	-0.17395069
133	0x3c4f1ddf	0.012641399
134	0xbdfa855a	-0.12232466
135	0xbd98adba	-0.07455011
136	0x3dc776dd	0.09739468
137	0x3dfc58c4	0.12321618
138	0x3d3351b5	0.043779094
139	0xbe8e958c	-0.2784847
140	0xb9baf85b	-0.00035661724
141	0x3e92a564	0.28641808
142	0x3e04471d	0.12917753
143	0xbc33fd1a	-0.010985637
144	0x3da34a7d	0.07973192
145	0x3d686baa	0.0567433
146	0xbe984a84	-0.2974435
147	0xbe489dba	-0.19591418
148	0xbd402586	-0.046910785
149	0xbdab6e76	-0.08370678
150	0x3f0d3736	0.5516237
151	0xbe62dd99	-0.22154845
152	0xbee835fc	-0.45353687
153	0x3cb830dd	0.022484237
154	0x3e0ed843	0.13949685
155	0x3c23fdb4	0.010009218
156	0x3e3d9e01	0.18517305
157	0xbc4799ba	-0.012182647
158	0x3e168ea1	0.14702846
159	0x3c44b8a6	0.012006914
160	0xbec6adc6	-0.38804454
161	0x3d6e4a11	0.058176104
162	0xbddbadb6	-0.10726492
163	0x3d64c73b	0.055854063
164	0x3f1b71b8	0.60720396
165	0x3e4bd9c9	0.19907297
166	0x3e955ea3	0.29173765
167	0xbec3e15c	-0.38257873
168	0x3ea41a07	0.32051107
169	0x3ef1e70d	0.4724659
170	0x3f1a77d6	0.60339105
171	0x3e3fad7c	0.18718523
172	0x3e05aae7	0.13053475
173	0x3e510a25	0.20414026
174	0x3eba51b6	0.36390465
175	0xbc271e15	-0.010200043
176	0xbe51b88a	-0.20480552
177	0x3ccbe6c5	0.024890313
178	0x3d9a6db2	0.07540454
179	0xbe1ebf15	-0.1550258
180	0x3ecaae81	0.3958626
181	0xbcb756bf	-0.022380231
182	0xbd83c593	-0.06434169
183	0xbd9a0ead	-0.075223304
184	0xbf64171a	-0.8909775
185	0x3db23c11	0.08702863
186	0xbe84bc18	-0.25924754
187	0xbe6f113a	-0.23346415
188	0xbd77cca4	-0.060497895
189	0x3b3a14b5	0.002839369
190	0x3ede0e74	0.43370402
191	0xbda1bcfe	-0.078973755
192	0x3d5ff60b	0.054678004
193	0xbe5e1252	-0.21686676
194	0xbe15ca57	-0.14627968
195	0xbef45d69	-0.47727516
196	0x3d317af9	0.043330166
197	0x3cf30036	0.029663187
198	0xbd71834d	-0.05896311
199	0xbda23547	-0.07920318
200	0xbe01112f	-0.12604211
201	0x3f13124a	0.5744978
202	0xbdd44a5e	-0.10365747
203	0x3d9330f2	0.0718707
204	0x3f3b13c6	0.73077047
205	0xbcca540e	-0.024698284
206	0x3e3248e4	0.17410618
207	0xbd47ff1a	-0.04882727
208	0xbe56a338	-0.209607
209	0xbe7ba6b9	-0.24575318
210	0x3f262151	0.64894587
211	0x3e44ccbf	0.1921873
212	0xbeb372a1	-0.35048392
213	0x3d61b9e3	0.055108916
214	0xbe04407b	-0.12915222
215	0x3e0032c9	0.12519373
216	0xbf724d4f	-0.94649214
217	0xbe841979	-0.25800684
218	0x3e1ea447	0.15492354
219	0x3d3bcfc6	0.045852445
220	0x3e785c63	0.24253993
221	0x3e9752f5	0.2955548
222	0xbd5b38ac	-0.053520843
223	0xbe24a798	-0.16079557
224	0x3f40c4e0	0.7530041
225	0x3e5e4057	0.21704231
226	0x3e9262a8	0.28590894
227	0x3eb0c1d1	0.3452287
228	0xbdf693df	-0.12039923
229	0x3e04a556	0.12953696
230	0x3e918272	0.28419834
231	0x3dfee8e1	0.12446762
232	0xbe6abecf	-0.2292435
233	0xbeb43cdd	-0.35202685
234	0xbc9cbec3	-0.019133931
235	0xbe71f5e1	-0.23628952
236	0x3f0558e8	0.52088785
237	0xbea8889e	-0.3291673
238	0xbcf302fc	-0.029664509
239	0x3d402cc5	0.046917696
240	0x3c5c5987	0.013449079
241	0xbd450c36	-0.04810735
242	0x3e851b26	0.25997275
243	0xbd66eaa4	-0.056376114
244	0xbd5466c5	-0.05185582
245	0xbe34bd95	-0.17650445
246	0x3d3b336c	0.045703337
247	0x3db2a338	0.08722538
248	0x3f23a46a	0.6392275
249	0x3bc8ea8a	0.006131475
250	0x3e6a2455	0.22865422
251	0xbd0d3b15	-0.034480173
252	0x3e24dcc3	0.16099839
253	0x3eb1f6a0	0.34758472
254	0xbef2bf58	-0.4741161
255	0xbe235a16	-0.15952334

actor.init_internal_node_embed.2.add_bias._bias f4 [64, 1]
0	0xbc7ad696	-0.01530995
1	0xbd55ff0b	-0.05224518
2	0x3dbf7fea	0.093505695
3	0xbd6033aa	-0.05473677
4	0xbd13cf94	-0.036086634
5	0x3d34cd6d	0.04414122
6	0xbd503719	-0.050833795
7	0x3dba152d	0.0908607
8	0x3b6fe27d	0.0036603503
9	0xbd73010e	-0.059327178
10	0xbc8e8702	-0.017398361
11	0xbd14948b	-0.036274474
12	0xbe0cc06c	-0.13745278
13	0xbd550958	-0.052010864
14	0xbceaf7d9	-0.028682636
15	0x3cf44c20	0.029821455
16	0xbd904f41	-0.070463665
17	0xbd506063	-0.05087317
18	0xbe16ab85	-0.14713867
19	0x3c6f4ff5	0.014606466
20	0xbd843128	-0.06454688
21	0xbd19c5c4	-0.03754212
22	0x3c8b279c	0.01698666
23	0x3db13bec	0.08654007
24	0xbcbc7a14	-0.02300743
25	0xbc2962f1	-0.010338531
26	0xbca9144a	-0.020639557
27	0xba4baf16	-0.0007769925
28	0x3c980027	0.01855476
29	0xbdd928e4	-0.106035024
30	0x3d95de02	0.07317735
31	0xbe070a8c	-0.13187617
32	0x3dcaf767	0.099104695
33	0x3dae62ab	0.08514913
34	0xbd185cfd	-0.037198056
35	0xbd2a0b1a	-0.041514494
36	0x3d621599	0.05519638
37	0xbd11b2b2	-0.035570808
38	0x3cb6627e	0.022263762
39	0x3d868c27	0.06569701
40	0xbd57ce55	-0.052687008
41	0xbd43a4db	-0.04776464
42	0x3e732039	0.2374276
43	0xbc6ba14b	-0.014381717
44	0xbd98ee56	-0.07467334
45	0xbcd6ebe1	-0.026235523
46	0x3d3b55b8	0.045736045
47	0x3d3d9207	0.04628184
48	0x3d752f9d	0.05985986
49	0xbe06b794	-0.13155967
50	0x3d5e142d	0.05421846
51	0x3d9b9d36	0.07598345
52	0x3d8d4281	0.0689745
53	0xbddc3e4b	-0.10754069
54	0xbd1d4655	-0.038397152
55	0x3e0a20d3	0.13489084
56	0x3e105879	0.1409625
57	0x3bb97e59	0.005660814
58	0xba1e187c	-0.000603087
59	0x3b33054f	0.0027316397
60	0xbd07fbfc	-0.033199295
61	0x3c8541b7	0.016266687
62	0xbd58d9f7	-0.052942242
63	0x3d92170c	0.07133302

actor.init_leaf_node_embed.0.module.weight f4 [32, 8]
0	0xbe2408b6	-0.16018948
1	0xbef38a1a	-0.475663
2	0x3eb6ed9e	0.35728163
3	0x3eb11029	0.34582642
4	0x3e3f7bbf	0.18699549
5	0x3ebd7782	0.3700524
6	0xbeaa8fd6	-0.33312863
7	0xbe9ec33f	-0.31008336
8	0xbf07b531	-0.5301085
9	0xbe31adf0	-0.17351508
10	0x3e912bb3	0.28353652
11	0x3dbfe2e7	0.0936945
12	0x3e4cda31	0.20005108
13	0xbe87dca1	-0.26535514
14	0x3e7a8d96	0.24468073
15	0xbd580493	-0.052738737
16	0x3c032e1f	0.008006602
17	0x3d93e77c	0.072218865
18	0xbe9177d8	-0.28411746
19	0xbd191dec	-0.03738205
20	0xbe44ebe3	-0.19230609
21	0xbe28af3e	-0.164731
22	0x3da20166	0.07910423
23	0xbdc565b7	-0.09638541
24	0xbe4f9c6b	-0.20274512
25	0x3e248df1	0.16069771
26	0x3ee1f478	0.44131827
27	0xbe60c8f3	-0.21951656
28	0x3df8ec05	0.12154392
29	0x3e4e0a5b	0.20121138
30	0xbe807c13	-0.2509466
31	0x3c49a0db	0.012306417
32	0x3daa3fb8	0.08312935
33	0xbf1247c5	-0.5714076
34	0x3ed084ea	0.40726405
35	0xbe43b609	-0.1911241
36	0xbe17f16c	-0.14838189
37	0x3dae257e	0.08503245
38	0xbe2a2d86	-0.16618928
39	0x3e11bb19	0.14231528
40	0xbec6168f	-0.38689086
41	0x3c8d63e0	0.017259538
42	0xbe9f338a	-0.3109401
43	0x3e2ebb90	0.17063737
44	0xbd6070f4	-0.05479522
45	0x3de9a56f	0.11408507
46	0xbe2bc03e	-0.16772553
47	0x3c305a66	0.01076374
48	0xbea7389e	-0.32660383
49	0x3dd6c4d8	0.10486764
50	0xbd7d4517	-0.061833467
51	0x3e06420a	0.1311113
52	0xbcc4727d	-0.023980374
53	0xbe0ea653	-0.13930635
54	0x3d39b39e	0.045337312
55	0x3e272892	0.1632407
56	0x3e9faea1	0.3118792
57	0x3e4b9ad9	0.19883288
58	0x3ec7d620	0.39030552
59	0xbdc03440	-0.09384966
60	0xbe4002f5	-0.18751128
61	0xbd9ea632	-0.07746543
62	0xbf28dfc2	-0.6596643
63	0xbda8287b	-0.08210846
64	0xbd32f829	-0.043693695
65	0x3de0c37b	0.10974785
66	0x3e478780	0.19485283
67	0xbdb19986	-0.086718604
68	0xbd34c46a	-0.044132628
69	0x3e89cc92	0.26913887
70	0x3d572fa0	0.052535653
71	0x3d325c6a	0.043545164
72	0xbf1ceb3c	-0.6129644
73	0xbeca1721	-0.3947077
74	0x3d1c0ea7	0.03809991
75	0x3e864187	0.26221868
76	0x3f000250	0.5000353
77	0xbea389f2	-0.3194118
78	0xbad75de5	-0.0016431181
79	0xbf045fb9	-0.5170856
80	0xbea9ed95	-0.33189073
81	0x3e1d9b6c	0.1539132
82	0xbef0163c	-0.46891963
83	0xbe3f2dde	-0.1866984
84	0x3ec3cb74	0.3824116
85	0x3e31d54e	0.17366526
86	0xbe6b215b	-0.22961943
87	0xb9ff5db4	-0.00048707204
88	0x3d242455	0.04007371
89	0xbde8cbc9	-0.11366994
90	0x3e99ee8a	0.30064803
91	0xbeb1dca6	-0.34738654
92	0xbde974bb	-0.11399218
93	0xbed07c21	-0.40719703
94	0x3ed63eeb	0.41844878
95	0x3c589429	0.013218918
96	0xbe19aa69	-0.15006413
97	0xbd879511	-0.06620229
98	0x3e7e31e5	0.24823721
99	0x3f0f3dd8	0.5595374
100	0x3e3659bc	0.17807668
101	0x3e7c0484	0.24611098
102	0x3eaddf4a	0.3395942
103	0x3ede361e	0.43400663
104	0x3dd7c00d	0.10534678
105	0x3ea57a25	0.3231975
106	0x3e5fb116	0.21844897
107	0xbd48b8a0	-0.049004197
108	0xbef0ec6e	-0.47055382
109	0xbd5f9877	-0.05458876
110	0xbd4a4e3f	-0.049391028
111	0xbe6574eb	-0.22407882
112	0x3eec5f92	0.46166664
113	0x3ef47e9d	0.47752848
114	0x3e94b5d5	0.29044977
115	0x3e990430	0.29886007
116	0xbb088ebf	-0.0020837036
117	0xbdad7dce	-0.08471261
118	0x3e0a5020	0.13507128
119	0x3e1de216	0.15418276
120	0x3bdedde9	0.006801356
121	0xbe3e0ae9	-0.1855885
122	0xbd94ba87	-0.0726214
123	0x3e8a6c9b	0.27035984
124	0xbe23009c	-0.15918201
125	0x3e774fba	0.24151507
126	0x3d2dd38d	0.04243808
127	0x3e31aeab	0.17351787
128	0x3e6b0ee7	0.22954904
129	0x3ea258ec	0.31708467
130	0xbd94c9ee	-0.072650775
131	0xbf0068d3	-0.5015995
132	0x3cbe5c75	0.023237446
133	0xbea62e5e	-0.3245725
134	0xbe6385f7	-0.22219072
135	0x3e2df6ad	0.1698863
136	0xbe98f2a2	-0.29872614
137	0x3e90c4ec	0.2827524
138	0xbea586b0	-0.3232932
139	0x3ed2f4d1	0.41202405
140	0xbe414793	-0.1887496
141	0xbda01dbb	-0.07818171
142	0xbe57f078	-0.21087825
143	0x3e62f2e2	0.22162965
144	0x3d958535	0.07300798
145	0xbdc217f3	-0.09477224
146	0xbf4f407c	-0.8095777
147	0xbde1695c	-0.11006424
148	0x3e925314	0.2857901
149	0x3eac588e	0.33661312
150	0x3dbf1158	0.0932948
151	0xbe2351b9	-0.15949143
152	0xbe5277ce	-0.20553514
153	0xbde7cd93	-0.11318507
154	0xbf034edd	-0.5129221
155	0x3d1ee602	0.03879357
156	0xbdfc5acb	-0.12322005
157	0xbce7d0c4	-0.02829779
158	0x3e7f3e86	0.24926195
159	0xbd9f62ca	-0.077825144
160	0x3e1fbd51	0.15599562
161	0xbd1dd438	-0.038532466
162	0x3ea230c0	0.31677818
163	0x3eb215c5	0.34782234
164	0x3eb1cf88	0.34728646
165	0x3cf7bcaa	0.03024133
166	0x3e967276	0.29384202
167	0xbd9ca4ad	-0.07648597
168	0xbea610c1	-0.32434657
169	0x3e636b13	0.22208814
170	0x3e1f544f	0.15559505
171	0xbe02a32b	-0.12757556
172	0x3ea21882	0.31659323
173	0xbea09b28	-0.31368375
174	0xbd2b2cd0	-0.041790783
175	0x3e497a85	0.19675644
176	0x3e3b1642	0.1827021
177	0xbe82b54c	-0.25528944
178	0xbe784f5d	-0.24249025
179	0xbeb66056	-0.35620373
180	0x3e8b135f	0.27163216
181	0x3d3b9397	0.04579505
182	0x3ee1fd12	0.4413839
183	0x3e6b1c0d	0.2295992
184	0xbdc1bd8b	-0.094599806
185	0x3efc3e98	0.49266505
186	0x3e34f1d1	0.1767037
187	0xbefb6659	-0.49101523
188	0xbc7a1cc3	-0.015265646
189	0x3f26fa8d	0.6522606
190	0x3e0fddac	0.14049405
191	0x3eca3e11	0.39500478
192	0xbe0207d9	-0.12698306
193	0xbe9e97f0	-0.30975294
194	0xbddeaa27	-0.10872298
195	0xbdc0ca98	-0.09413642
196	0x3e69846e	0.22804424
197	0xbe208bae	-0.15678284
198	0xbd9ad55e	-0.07560228
199	0x3f164fca	0.587155
200	0xbc56a184	-0.013100032
201	0xbe83ce1e	-0.25743192
202	0xbed0a3bd	-0.40749922
203	0x3e8e62a2	0.27809626
204	0xbe4c30ff	-0.19940566
205	0xbe13c85e	-0.14431903
206	0xbba22c9e	-0.0049491664
207	0x3eba25cf	0.3635697
208	0xbe9101b8	-0.28321624
209	0x3e2c3b53	0.16819505
210	0x3e27b245	0.16376598
211	0xbe53d685	-0.20687301
212	0xbed13e06	-0.40867633
213	0xbdd0d693	-0.10197177
214	0x3ed00bb9	0.40633944
215	0xbe4412b1	-0.19147755
216	0xbe6e4b27	-0.23270856
217	0x3e702155	0.23450215
218	0x3ea91780	0.33025742
219	0x3e81fd45	0.25388542
220	0xbb653191	-0.003497217
221	0x3e9cb3db	0.3060597
222	0x3e9c5c65	0.3053924
223	0xbe43dc15	-0.19126923
224	0x3cd90ac0	0.026494384
225	0xbd0630fa	-0.03276155
226	0x3eaee08a	0.34155685
227	0xbe227b9f	-0.1586747
228	0xbe018a6c	-0.1265046
229	0xbf088530	-0.5332823
230	0xbe763860	-0.24044943
231	0xbdb8e0d6	-0.09027259
232	0x3edf57de	0.43621725
233	0x3eb038ae	0.34418243
234	0xbea89e4f	-0.3293328
235	0x3eb19b5c	0.34688842
236	0x3f1d3288	0.6140523
237	0x3d2bb010	0.041915953
238	0x3e24cd73	0.16093998
239	0xbeff4f62	-0.49865252
240	0x3d8e8fcc	0.06961021
241	0xbeb2a6c6	-0.34892863
242	0xbdee2868	-0.11628801
243	0xbecc2183	-0.39869317
244	0xbe8aec22	-0.2713328
245	0x3ee6a81d	0.45050135
246	0x3da3479b	0.07972642
247	0xbe803a76	-0.25044602
248	0xbef98f72	-0.48742253
249	0x3c79afa2	0.015239628
250	0xbe908145	-0.28223625
251	0xbde29fbb	-0.110656224
252	0xbeb07134	-0.34461367
253	0xbe4165a1	-0.18886425
254	0x3e8df06b	0.27722487
255	0xbe5503b2	-0.20802191

actor.init_leaf_node_embed.0.add_bias._bias f4 [32, 1]
0	0x3e2ee52b	0.17079608
1	0xbc92a345	-0.017900119
2	0xbabd4d89	-0.0014442663
3	0x3db168a3	0.08662536
4	0x3c1c53cd	0.009541464
5	0xbd152f11	-0.03642184
6	0x3cbbdc96	0.022932332
7	0x3ce01f4f	0.02735868
8	0xbe0a0793	-0.13479452
9	0x3bf914df	0.007601365
10	0xbd3b9fcb	-0.045806687
11	0xbe790a5f	-0.24320363
12	0x3e9363d9	0.28787115
13	0xbc3e6533	-0.011620807
14	0xbcfe8f3a	-0.031074155
15	0xbcc1f500	-0.023676395
16	0x3ce17bb3	0.027524805
17	0xbd24aa10	-0.040201247
18	0xbdadaf7d	-0.08480737
19	0x3e21cf4e	0.15801737
20	0xbd47e59d	-0.04880296
21	0xbd35a09e	-0.04434263
22	0x3d13eaca	0.036112584
23	0xbc1a0031	-0.00939946
24	0x3d5bc737	0.053656783
25	0xbd83cec6	-0.06435923
26	0xbd2fa7b0	-0.04288453
27	0x3cd08dc9	0.025458233
28	0xbe1513f7	-0.14558397
29	0x3e97650b	0.29569277
30	0x3ce15343	0.027505523
31	0xbd9a84d2	-0.07544865

actor.init_leaf_node_embed.2.module.weight f4 [64, 32]
0	0xbe07536f	-0.13215421
1	0xbeb2251e	-0.34793943
2	0xbe8b6167	-0.2722275
3	0xbe06dbed	-0.13169833
4	0x3e314f15	0.17315324
5	0x3c9ef033	0.019401645
6	0x3d7336c2	0.059378393
7	0x3e0357be	0.1282644
8	0x3e4ec443	0.20192055
9	0x3d50111d	0.05079757
10	0x3d9558c4	0.07292321
11	0xbe870b2b	-0.26375708
12	0xbea74287	-0.32667944
13	0x3cac4081	0.021026852
14	0xbe8e0b02	-0.27742773
15	0xbdfac80f	-0.122451894
16	0x3e56283f	0.2091379
17	0xbd90f6d1	-0.070783265
18	0xbe2c39b1	-0.16818883
19	0xbda5cdc7	-0.080958895
20	0x3d9888dc	0.07447979
21	0xbe965465	-0.29361263
22	0x3e6b84c5	0.22999866
23	0x3e081006	0.13287362
24	0x3df6a756	0.120436355
25	0xbf050e11	-0.5197459
26	0xbda4791e	-0.08030914
27	0x3ddffa06	0.1093636
28	0x3e0efa80	0.13962746
29	0xbe692e21	-0.22771503
30	0xbd198032	-0.037475772
31	0xbc3c0787	-0.011476404
32	0x3d04ca9f	0.032419797
33	0x3e1a3fee	0.1506345
34	0x3d753281	0.059862617
35	0x3dcbde7e	0.099545464
36	0x3d13b177	0.036057916
37	0x3c8a4473	0.016878342
38	0x3dd518f3	0.10405149
39	0xbe23495e	-0.15945956
40	0xbde081f1	-0.10962284
41	0xbe908c42	-0.28232008
42	0x3ed9894b	0.4248756
43	0xbcad32d8	-0.021142408
44	0xbd03b44d	-0.03215437
45	0x3dd40d24	0.10354069
46	0x3e49c7b9	0.19705094
47	0xbe98107e	-0.29700083
48	0xbdc208ef	-0.0947436
49	0xbe2c2216	-0.16809878
50	0xbe452e54	-0.19255954
51	0xbe58b662	-0.21163324
52	0x3dd4624f	0.103703134
53	0xbd890acb	-0.06691512
54	0x3cd5f4d9	0.026117729
55	0xbe003441	-0.12519933
56	0xbee305c3	-0.44340333
57	0xbdd47b12	-0.10375036
58	0xbc741db3	-0.014899659
59	0x3e72a5e6	0.23696098
60	0xbe84d7d0	-0.25945902
61	0xbe234ad9	-0.15946521
62	0xbd4ba151	-0.04971439
63	0x3ec7a264	0.38991082
64	0x3ea2e2f4	0.31813776
65	0x3c4ec82f	0.01262097
66	0xbe1e76aa	-0.15474954
67	0xbd557bfa	-0.052120186
68	0x3e21819e	0.15772101
69	0xbd9b8c0d	-0.07595072
70	0xbdf85361	-0.12125278
71	0x3de63937	0.112413816
72	0xbee590e5	-0.44837108
73	0xbdda8c09	-0.10671241
74	0xbeef8cd0	-0.4678712
75	0xbe2b3e5c	-0.16723007
76	0xbe8d8952	-0.2764383
77	0x3d495d84	0.04916145
78	0x3e982b53	0.29720554
79	0xbdbeabd0	-0.093101144
80	0xbdc7c6de	-0.09754728
81	0x3e699cc5	0.22813709
82	0xbe9db4cc	-0.30802
83	0xbdf0a685	-0.11750511
84	0xbccc905f	-0.024971185
85	0xbdd0adfa	-0.101894334
86	0x3cb1c9d8	0.021702692
87	0xbdbef1a8	-0.09323436
88	0xbab90a93	-0.0014117531
89	0xbd6e95f7	-0.058248486
90	0xbdb108f1	-0.086442836
91	0xbdea2adf	-0.11433958
92	0xbe53f55c	-0.20699066
93	0xbca8731a	-0.020562697
94	0x3e3d136b	0.18464439
95	0x3df63f5e	0.12023805
96	0x3cadc28f	0.021210937
97	0x3e788040	0.24267673
98	0x3e34619f	0.17615364
99	0x3e05855b	0.13039152
100	0x3df47991	0.119372495
101	0x3d0e3ded	0.034727026
102	0xbd03a670	-0.03214115
103	0x3e29706e	0.16546795
104	0xbcb3b9bd	-0.021939153
105	0xbe04af1f	-0.12957428
106	0xbe2837ed	-0.16427584
107	0x3e765ca4	0.24058777
108	0xbe7e9ae4	-0.24863774
109	0x3d8046b9	0.06263489
110	0x3d48fb9d	0.049068082
111	0x3e1bf400	0.15229797
112	0xbdd63357	-0.10459011
113	0x3e786a7e	0.24259374
114	0xbe9c5cc1	-0.30539516
115	0x3d212184	0.039338604
116	0x3d82be16	0.06383912
117	0x3e14c753	0.14529161
118	0xbe4cc5fe	-0.19997403
119	0x3e56edd4	0.20989162
120	0xbc43aea4	-0.011943493
121	0x3de5eeaa	0.11227162
122	0x3e244b41	0.16044332
123	0x3e2a6c05	0.16642769
124	0x3e990a0b	0.29890475
125	0xbd0e8578	-0.034795254
126	0x3e4f4c6e	0.20244
127	0x3e306d99	0.17229308
128	0xbdbd323a	-0.092380956
129	0xbd88d69c	-0.066815585
130	0x3d872323	0.06598499
131	0x3d1944b8	0.03741905
132	0x3e6f2865	0.23355253
133	0xbeedbd5a	-0.46433526
134	0x3e6984d5	0.22804578
135	0xbe16b60f	-0.14717887
136	0x3d7a965c	0.06117855
137	0x3d599a34	0.053125575
138	0xbde920ab	-0.11383184
139	0xbeb5c99c	-0.35505378
140	0xbdac57df	-0.084151976
141	0x3e524785	0.20535095
142	0x3e02e911	0.1278422
143	0xbe06bb7a	-0.13157454
144	0xbede534c	-0.43422925
145	0xbe92b922	-0.2865687
146	0x3e2854b5	0.16438563
147	0x3d5dc355	0.05414136
148	0xbe8b49a6	-0.27204627
149	0x3e203542	0.15645316
150	0xbd66a6e9	-0.05631152
151	0xbc1a6483	-0.009423378
152	0xbdc23f28	-0.09484702
153	0xbd299f52	-0.041411705
154	0xbe155e8c	-0.14586848
155	0x3e25aeef	0.16180013
156	0x3e7a5508	0.244465
157	0x3e346228	0.17615569
158	0x3ce810e6	0.02832837
159	0xbe3be616	-0.1834949
160	0x3d6a1b9c	0.057155237
161	0xbc359084	-0.0110818185
162	0xbe3b665d	-0.18300767
163	0x3d8d8c5d	0.06911538
164	0xbe5d117a	-0.21588698
165	0xbd6fb637	-0.058523383
166	0x3eb4287d	0.3518714
167	0xbea4a8db	-0.32160076
168	0xbdd0a4bf	-0.10187673
169	0x3d8e6eaa	0.06954701
170	0xbe36f672	-0.17867449
171	0x3e940e03	0.2891694
172	0x3f138867	0.5763001
173	0x3d437246	0.0477164
174	0x3e48fff7	0.19628893
175	0xbe50c442	-0.20387366
176	0x3e0e2e7b	0.13884918
177	0x3ce19abb	0.027539602
178	0xbe884ecf	-0.26622626
179	0xbdc5f13e	-0.09665154
180	0x3db083af	0.08618867
181	0xbe1dd579	-0.15413465
182	0x3d8c8c9e	0.06862758
183	0x3ed7f7fc	0.42181385
184	0x3daa041f	0.08301567
185	0xbe272015	-0.16320832
186	0xbd9ee68f	-0.07758819
187	0x3e282647	0.16420852
188	0xbe2e7fca	-0.17040935
189	0x3e5e6b7d	0.21720691
190	0x3e8cfe8d	0.27537957
191	0xbdd370a9	-0.103242226
192	0x3e8b1772	0.27166325
193	0xbe9f90dd	-0.3116521
194	0xbd63b853	-0.055595707
195	0x3ded3585	0.11582474
196	0xbdd7f09e	-0.10543941
197	0xbe10d195	-0.14142449
198	0x3e27e148	0.16394532
199	0x3cf0e986	0.029408228
200	0x3e53d65b	0.20687239
201	0xbd4360b3	-0.04769964
202	0x3e743ddc	0.23851722
203	0x3e3679cb	0.17819898
204	0x3e3f0514	0.18654281
205	0x3e0a2e87	0.13494311
206	0xbe046a54	-0.12931186
207	0xbdaff719	-0.08592052
208	0xbee474c4	-0.44620335
209	0x3e9139a5	0.28364292
210	0x3d80b1d3	0.06283917
211	0x3e033902	0.12814716
212	0xbc42c7f4	-0.011888493
213	0x3c16ea12	0.00921108
214	0xbd3ecbc6	-0.046581052
215	0x3d7fc058	0.062439293
216	0x3d4825e1	0.04886425
217	0xbd3ff474	-0.046863988
218	0xbd95371e	-0.072859034
219	0x3e1ce26e	0.15320751
220	0xbe13c78c	-0.1443159
221	0x3e60e1e8	0.21961176
222	0xbdc19429	-0.094520874
223	0xbd997976	-0.0749387
224	0xbdfd3600	-0.12363815
225	0x3ce113fe	0.027475353
226	0xbdf80d32	-0.12111892
227	0xbe9a2542	-0.3010655
228	0x3dfc5066	0.12320022
229	0xbd2281c3	-0.03967453
230	0xbe4bde7b	-0.19909088
231	0xbe837a0f	-0.2567906
232	0x3e4618db	0.19345419
233	0xbdeee516	-0.116647884
234	0x3e8ff936	0.2811982
235	0x3c63e89a	0.013910437
236	0x3e29c586	0.16579255
237	0x3d866483	0.0656214
238	0xbe061e06	-0.1309739
239	0x3e97cd5f	0.29648873
240	0xbe6899d5	-0.22714932
241	0xbdb18287	-0.08667474
242	0x3cf81a0b	0.030285856
243	0xbd9f47c7	-0.07777362
244	0x3c94e0d4	0.018173613
245	0x3e9f8299	0.31154326
246	0x3d87a85a	0.066239074
247	0x3d8347cb	0.06410178
248	0x3c0ce78b	0.008600126
249	0x3e55c0a5	0.2087427
250	0x3e436cfd	0.19084544
251	0x3e39fb72	0.18162325
252	0xbefc4e9c	-0.49278724
253	0x3ead3ba4	0.33834565
254	0x3e95b14f	0.29236838
255	0xbe7580d1	-0.23974921

actor.init_leaf_node_embed.2.add_bias._bias f4 [64, 1]
0	0xbe8d62d7	-0.2761447
1	0x3de9d442	0.11417438
2	0x3ca1b356	0.019738834
3	0xbc81541f	-0.015787182
4	0xbc01eb06	-0.007929569
5	0x3e9add00	0.30246735
6	0x3e67095f	0.22562169
7	0x3e3393d8	0.17536867
8	0x3ec0b548	0.37638307
9	0xbe2b6aa6	-0.16739902
10	0xbcb1d2b2	-0.021706913
11	0x3d5300b6	0.05151435
12	0xbd39fda0	-0.04540789
13	0x3dd16f4a	0.10226305
14	0xbeeb26a2	-0.45927912
15	0xbe05dd99	-0.13072814
16	0xbd8b62f8	-0.06805986
17	0x3de1c446	0.11023764
18	0x3cd56c07	0.026052488
19	0x3e172a5d	0.14762254
20	0xbe86ee5e	-0.26353735
21	0xbcdd8198	-0.027039334
22	0x3c2b510c	0.010456335
23	0x3e0d7a7d	0.13816257
24	0xbe1267ba	-0.14297381
25	0xbcc4d39a	-0.02402668
26	0x3cc4036d	0.023927415
27	0xbd177071	-0.036972467
28	0xbe29b822	-0.16574147
29	0x3e8e4b1c	0.2779168
30	0x3d89158a	0.066935614
31	0x3d271b65	0.04079761
32	0x3da955eb	0.08268341
33	0xbe63b5ef	-0.22237371
34	0xbe33506b	-0.17511146
35	0x3d519645	0.0511687
36	0x3dcfe364	0.10150793
37	0x3eae8a02	0.34089667
38	0x3ec58b63	0.38582906
39	0x3edf90ce	0.43665165
40	0x3e352bff	0.17692564
41	0x3e816e9f	0.2527971
42	0xbdf32b84	-0.11873534
43	0x3dfb435b	0.122687064
44	0xbd82b794	-0.06382671
45	0xbe835586	-0.25651187
46	0xbeaa9b00	-0.3332138
47	0xbe18d686	-0.14925584
48	0x3ec26f24	0.3797542
49	0xbd8f0b0d	-0.0698453
50	0xbe3666dd	-0.17812677
51	0x3ed527bc	0.41631877
52	0xbc72c4b2	-0.014817404
53	0x3e533672	0.20626238
54	0xbe9cda9a	-0.3063553
55	0xbe2f4a93	-0.17118292
56	0x3e0116f3	0.1260641
57	0x3eb72536	0.35770577
58	0x3e2acce9	0.1667973
59	0x3e28e816	0.16494784
60	0x3e2f20f2	0.17102411
61	0x3ecdb608	0.4017794
62	0xbe91e2a2	-0.2849322
63	0xbe36afc3	-0.17840485

actor.init_next_embed.0.module.weight f4 [32, 6]
0	0xbe4d403e	-0.20044038
1	0x3e2a50d2	0.16632393
2	0xbdab0421	-0.08350397
3	0x3f0aec77	0.54267067
4	0x3e88e004	0.2673341
5	0xbd70b71e	-0.058768384
6	0x3e564b9e	0.20927283
7	0x3ea6499a	0.3247803
8	0x3c08bd0a	0.008345852
9	0x3e24db77	0.16099344
10	0x3db7ad01	0.08968545
11	0xbe71f734	-0.23629457
12	0x3dbf7c1e	0.09349845
13	0xbec7c889	-0.39020184
14	0x3e75c4b2	0.24000815
15	0xbf4ce237	-0.80032676
16	0x3de271c0	0.11056852
17	0x3e339c21	0.17540027
18	0x3f2ab521	0.6668263
19	0x3f11a812	0.5689708
20	0x3de5af6e	0.11215101
21	0xbdcf5d57	-0.10125225
22	0x3e8ca6e2	0.2747107
23	0x3e55eb58	0.20890558
24	0xbea75204	-0.3267976
25	0xbd760fcd	-0.060073663
26	0xbe45cc60	-0.19316244
27	0x3e36dc6f	0.17857526
28	0x3d0ee44e	0.034885697
29	0xbe31efd7	-0.17376648
30	0xbe347cbc	-0.17625707
31	0x3debed70	0.11519897
32	0x3eead23d	0.45863524
33	0xbcb690dc	-0.022285871
34	0xbeba8b99	-0.3643463
35	0xbdf51e59	-0.11968679
36	0xbe313daf	-0.17308687
37	0xbe687a25	-0.22702844
38	0xbcc0a71f	-0.02351719
39	0xbf03d558	-0.5149741
40	0xbc850b86	-0.016240846
41	0x3f000734	0.5001099
42	0xbe4a8bb9	-0.19779862
43	0xbebb3c5b	-0.36569485
44	0x3e81cea5	0.2535297
45	0x3dc5d4a8	0.096597016
46	0xbdf8ba13	-0.12144866
47	0x3d5228fa	0.05130861
48	0xbe0a0c7b	-0.13481323
49	0xbe82989e	-0.25507063
50	0x3eafc820	0.3433237
51	0xbe6c1c8e	-0.23057768
52	0x3db18756	0.086683914
53	0xbbd57950	-0.0065147057
54	0xbeb7da75	-0.35908857
55	0xbe211ec8	-0.15734398
56	0xbe148fe1	-0.1450801
57	0x3ee85193	0.45374736
58	0xbe2ebfe1	-0.17065383
59	0xbd79c938	-0.060982913
60	0x3e9019c3	0.28144655
61	0xbd42dcbc	-0.04757379
62	0xbe18e41f	-0.14930771
63	0x3cf89c2f	0.030347912
64	0xbe858882	-0.2608071
65	0xbdcd5dc7	-0.10027652
66	0xbe75c49e	-0.24000785
67	0xbe425303	-0.18976979
68	0xbe95245b	-0.291293
69	0xbe9b2cc0	-0.3030758
70	0xbcb6b260	-0.022301853
71	0xbc608b04	-0.013705019
72	0x3e990dd3	0.2989336
73	0xbf28a741	-0.6588021
74	0xbd32aed1	-0.04362375
75	0xbdd97ddf	-0.10619711
76	0xbdddd9de	-0.108325705
77	0xbe661e32	-0.22472456
78	0x3e345b32	0.17612913
79	0xbe851c31	-0.2599807
80	0x3e9e7a93	0.30952892
81	0x3f0e5e59	0.55612713
82	0x3d6bda6f	0.05758136
83	0xbd08b301	-0.033373836
84	0xbe07aca5	-0.13249452
85	0x3d59fc8c	0.053219363
86	0xbdd8ba48	-0.10582405
87	0xbe9c16bd	-0.30486098
88	0x3d94bbde	0.07262395
89	0x3e156520	0.14589357
90	0x3c19a448	0.009377547
91	0x3d8cc9c0	0.06874418
92	0x3e6ea4b5	0.23305018
93	0xbea027fd	-0.3128051
94	0xbd0b89e2	-0.034067042
95	0xbe80e03b	-0.25171074
96	0xbdb22bf7	-0.08699792
97	0xbe13f899	-0.14450301
98	0xbe02e279	-0.12781705
99	0xbf33ff72	-0.70311654
100	0x3ea22366	0.31667632
101	0x3e96c859	0.29449728
102	0xbe82633a	-0.2546633
103	0x3ee89ebe	0.4543361
104	0x3efee7dd	0.49786273
105	0x3e064d56	0.13115439
106	0x3e67ee9f	0.2264962
107	0x3f0f5811	0.55993754
108	0xbe3c280f	-0.18374656
109	0xbc6e357c	-0.014539119
110	0xbeb1dd26	-0.34739035
111	0xbd9bea75	-0.076130785
112	0xbe116e58	-0.14202249
113	0xbee69413	-0.45034847
114	0x3da5e5ec	0.08100495
115	0xbe657c30	-0.22410655
116	0x3e46d7c0	0.1941824
117	0x3e9c6dc8	0.30552506
118	0xbdf1c47a	-0.11805053
119	0xbe17cb97	-0.14823757
120	0x3d5f835e	0.05456864
121	0x3ebac6c4	0.3647977
122	0x3e2433e6	0.16035423
123	0xbf9d7ad3	-1.2303108
124	0xbe8285ff	-0.25492856
125	0x3ec0cd42	0.376566
126	0x3ef20141	0.47266582
127	0xbe358e76	-0.17730126
128	0x3daa14f6	0.08304779
129	0x3ec88053	0.39160404
130	0x3ec288ce	0.37995
131	0x3f1fba80	0.6239395
132	0xbe67f3a3	-0.22651534
133	0x3ce290a6	0.027656864
134	0xbdbaacad	-0.091149665
135	0x3cec5898	0.028850839
136	0xbecc0be0	-0.3985281
137	0xbc970787	-0.018436207
138	0xbdb92419	-0.09040088
139	0xbe42394a	-0.18967167
140	0xbe063252	-0.13105133
141	0xbdeb482c	-0.11488375
142	0xbd9f14be	-0.07767628
143	0xbd0bdaa3	-0.034144055
144	0xbe679ad6	-0.22617659
145	0xbd95fb09	-0.07323272
146	0x3eaccdd3	0.3375078
147	0xbeab5614	-0.3346411
148	0x3f092f48	0.5358777
149	0xbeb6c064	-0.35693657
150	0xbe09bf18	-0.13451803
151	0xbd5412ab	-0.051775616
152	0x3d116b6e	0.035502844
153	0xbdf6d605	-0.1205254
154	0xbef88da1	-0.48545554
155	0x3ebe7ff1	0.37206987
156	0xbec6e9f1	-0.38850358
157	0xbe2e9e7e	-0.17052647
158	0x3edaf998	0.4276855
159	0x3ee0659e	0.43827528
160	0x3b8e1b8b	0.0043367795
161	0xbe9882e7	-0.2978737
162	0x3e9dd9ac	0.30830133
163	0xbdc8a5f6	-0.097972795
164	0x3e0d4c72	0.13798693
165	0xbea26884	-0.31720364
166	0x3d9f6c3b	0.07784315
167	0xbe193606	-0.14962015
168	0xbde73ba0	-0.112906694
169	0x3dd7fafe	0.1054592
170	0xbf04f1a5	-0.5193122
171	0xbe338f6f	-0.17535184
172	0x3d18ea9a	0.03733311
173	0x3d8374e7	0.06418782
174	0x3e382f5a	0.17986813
175	0xbd2e7b76	-0.04259821
176	0x3ea90181	0.3300896
177	0xbe63592e	-0.22201988
178	0xbe1ddb84	-0.1541577
179	0xbdb027a1	-0.086013086
180	0xbdaeb379	-0.085303254
181	0xbcb7722a	-0.022393305
182	0xba81a97b	-0.0009892428
183	0xbe241bd3	-0.16026239
184	0xbf1e04c6	-0.61726034
185	0x3f176862	0.5914365
186	0x3d89bef5	0.06725875
187	0xbde14cbe	-0.110009655
188	0xbe1fc54d	-0.15602608
189	0xbdbc8361	-0.09204746
190	0x3c90675d	0.017627412
191	0xbe22dc5c	-0.15904373

actor.init_next_embed.0.add_bias._bias f4 [32, 1]
0	0x3f1e2a92	0.6178371
1	0xbdd581bf	-0.10425138
2	0xbdd0d8a1	-0.10197569
3	0x3ed3e521	0.4138575
4	0xbc33bf2c	-0.010970872
5	0xbd131608	-0.035909683
6	0x3e8effd7	0.27929565
7	0xbce05a29	-0.027386742
8	0xbd225843	-0.039634954
9	0xbd635504	-0.055501
10	0xbe2b61b1	-0.16736485
11	0x3e599f56	0.21252188
12	0xbc53539e	-0.012898354
13	0x3ea3a61f	0.31962678
14	0xbda109cb	-0.07863196
15	0xbd01fe6d	-0.03173678
16	0xbcb54eeb	-0.022132358
17	0x3eb925e7	0.3616173
18	0xbc933af3	-0.017972445
19	0xbe0a413e	-0.1350145
20	0x3f08f0fb	0.53492707
21	0x3e0ab117	0.13544117
22	0x3c93b1fd	0.018029207
23	0xbd26150c	-0.040547416
24	0xbc97938d	-0.018502975
25	0xbd893d4d	-0.06701145
26	0xbd3043eb	-0.04303352
27	0xbbed6373	-0.0072445213
28	0xbcf09f34	-0.029372789
29	0xbc00aea9	-0.007854142
30	0xbc509d2d	-0.012732786
31	0x3bd0b8ec	0.0063697007

actor.init_next_embed.2.module.weight f4 [64, 32]
0	0xbe99f88c	-0.3007244
1	0x3de1b6c9	0.110211916
2	0x3dc078b7	0.093980245
3	0x3e5f6ba7	0.2181841
4	0x3e33cdd6	0.17558989
5	0xbdea9cdc	-0.114557
6	0x3d21af34	0.039473727
7	0x3e8f31bd	0.27967635
8	0x3df8ca2e	0.12147938
9	0x3d290e59	0.04127345
10	0x3e0ca061	0.13733055
11	0xbe601be6	-0.21885642
12	0x3b098696	0.002098476
13	0x3de1ffb7	0.11035102
14	0x3e4dea0c	0.20108813
15	0xbc98ebd8	-0.018667147
16	0x3ea5de40	0.32396126
17	0x3e9380fd	0.28809348
18	0xbca3e364	-0.02000589
19	0x3e2aaab4	0.1666668
20	0x3d9632bb	0.07333895
21	0xbde42236	-0.11139338
22	0x3e80faf8	0.25191474
23	0x3f0796d6	0.5296453
24	0x3d92dade	0.07170652
25	0x3ca9d9f6	0.020733815
26	0xbb48e647	-0.0030654834
27	0xbe19ce65	-0.1502014
28	0xbd962be3	-0.073325895
29	0xbde1fcec	-0.11034569
30	0x3d096428	0.033542782
31	0xbdd6cfea	-0.10488875
32	0x3ec1c247	0.37843534
33	0xbcb1b026	-0.02169044
34	0xbe117560	-0.14204931
35	0x3d8d70d5	0.069062866
36	0x3e4bd056	0.19903693
37	0x3e2e5e2a	0.17028108
38	0xbeaed194	-0.3414427
39	0x3de7de31	0.113216765
40	0xbd16468c	-0.036688372
41	0x3da6279b	0.08113023
42	0xbe0c734d	-0.13715859
43	0xbe9099cf	-0.28242347
44	0xbe8bd19c	-0.27308357
45	0x3dc09dd0	0.094051
46	0x3edaa6e2	0.42705446
47	0x3e94a3bf	0.29031178
48	0xbe92d0cd	-0.28674927
49	0x3da61423	0.081093095
50	0x3e1e4826	0.1545721
51	0xbe80e864	-0.251773
52	0xbec8f998	-0.39252925
53	0xbe24f5e9	-0.16109432
54	0xbe697aeb	-0.22800796
55	0xbd81fd81	-0.0634718
56	0xbd58742b	-0.05284516
57	0x3df6a8ea	0.120439366
58	0x3da8f4df	0.082498305
59	0xbe207f2a	-0.15673509
60	0x3d988716	0.074476406
61	0x3d773915	0.060357172
62	0xbda411ba	-0.080111936
63	0xbe047706	-0.12936029
64	0x3e1da596	0.15395197
65	0x3ec73aaa	0.38911945
66	0x3da76697	0.08173864
67	0x3e03ebe5	0.12882955
68	0x3d81fa0b	0.0634652
69	0x3dfa8d1b	0.12233945
70	0x3e527296	0.20551524
71	0xbe6ffd7c	-0.2343654
72	0x3e0ef9b5	0.13962443
73	0xbdf93940	-0.12169123
74	0xbd7aeace	-0.061259083
75	0xbe92f8e5	-0.28705516
76	0xbd012918	-0.03153333
77	0xbebe7333	-0.37197265
78	0xbe00195a	-0.12509671
79	0x3c0aaea7	0.008464492
80	0x3cedd8cb	0.029034039
81	0xbd5c7740	-0.053824663
82	0x3d2bccc8	0.04194334
83	0xbea616ee	-0.3243937
84	0xbea4cc8a	-0.321873
85	0x3ec7328c	0.38905752
86	0x3e29f4f8	0.16597354
87	0xbde074ab	-0.10959753
88	0x3e243a2e	0.16037819
89	0xbea714d4	-0.32633078
90	0x3d1e1e50	0.038603127
91	0x3e215b83	0.15757565
92	0x3e846ff9	0.25866678
93	0xbdc0bd63	-0.09411123
94	0xbeb37161	-0.3504744
95	0x3e37fadc	0.17966789
96	0x3f1a9a4a	0.60391676
97	0x3e7d3767	0.24728166
98	0xbe1ba724	-0.15200478
99	0x3ea1aa8c	0.3157543
100	0x3e3b6f8e	0.18304273
101	0xbc7750e3	-0.0150949685
102	0x3ddc311a	0.10751553
103	0xbcfecb65	-0.031102845
104	0x3c3114e0	0.0108082
105	0x3ec6d16d	0.38831654
106	0x3e1860ea	0.1488072
107	0x3ec0f1b6	0.3768441
108	0x3d96afbe	0.07357739
109	0x3eb0abfa	0.34506208
110	0xbe3a022e	-0.18164894
111	0x3da86c35	0.08223764
112	0x3e269bf4	0.16270429
113	0x3eb7d41d	0.35904017
114	0xbdd9dbf1	-0.106376536
115	0x3e35e827	0.1776434
116	0x3ea14b97	0.31502983
117	0x3e4790b3	0.19488792
118	0xbdfdaf73	-0.1238698
119	0xbe8de85b	-0.27716336
120	0xbd5a9e23	-0.053373467
121	0xbc8c3ddd	-0.017119342
122	0xbe87e35b	-0.26540646
123	0x3e1c5818	0.1526798
124	0x3dca979d	0.09892199
125	0x3d37dc2a	0.0448877
126	0x3e4fd9ad	0.2029788
127	0x3d06bff9	0.032897923
128	0x3ee3d4a1	0.4449816
129	0xbcb1b641	-0.02169335
130	0xbab5e48a	-0.0013877314
131	0x3eb8bdc2	0.36082274
132	0x3e5d1017	0.21588169
133	0x3e2b7bbc	0.1674642
134	0x3d9cbeef	0.07653605
135	0x3e2833d4	0.16426021
136	0x3e34fc9f	0.17674492
137	0xbdb9f3fb	-0.09079739
138	0xbcac5370	-0.02103588
139	0xbd3962ee	-0.045260362
140	0xbe0c5c02	-0.13706973
141	0xbc076318	-0.008263372
142	0xbe384ddf	-0.17998455
143	0xbea7f5b3	-0.3280464
144	0x3db6fbdc	0.08934757
145	0x3db91db0	0.090388656
146	0x3d2c2dd9	0.04203591
147	0xbe96c16d	-0.29444447
148	0x3eff7895	0.49896684
149	0x3e408d13	0.18803816
150	0xbc8581dd	-0.016297275
151	0xbc808ecb	-0.015693089
152	0x3e2aeb10	0.16691232
153	0x3e394f69	0.18096699
154	0x3e232a53	0.15934114
155	0xbdc690f1	-0.09695614
156	0x3d6bcec0	0.05757022
157	0x3d18a186	0.037263416
158	0x3e1199b2	0.14218786
159	0xbdf135ed	-0.11777864
160	0xbf232bc5	-0.6373866
161	0xbf013207	-0.5046696
162	0xbd75315f	-0.059861537
163	0xbf052abe	-0.52018344
164	0x3c8dc9c5	0.017308125
165	0x3e1b51ba	0.15167895
166	0xbe674668	-0.22585452
167	0x3e1ad0a1	0.15118648
168	0x3dba79f2	0.091052905
169	0x3e09228f	0.1339209
170	0xbe528e6e	-0.20562145
171	0xbe8d239e	-0.27566236
172	0xbcdeb14f	-0.027184157
173	0xbdbbd3c6	-0.09171252
174	0xbd62860f	-0.05530363
175	0x3e040e7b	0.12896149
176	0xbb1b99d9	-0.0023742823
177	0xbd7317c2	-0.05934883
178	0x3e2d3db6	0.16918072
179	0xbc2d4f7d	-0.0105780335
180	0xbf007be9	-0.5018907
181	0xbde78e3d	-0.11306427
182	0x3d90ae07	0.07064443
183	0xbd80ab85	-0.06282715
184	0xbe68c29f	-0.22730492
185	0xbe611e58	-0.21984231
186	0xbe0b3866	-0.13595733
187	0xbe362ca0	-0.1779046
188	0x3dfe5830	0.12419164
189	0xbe5893e7	-0.2115017
190	0x3bc244c2	0.0059286067
191	0xbe2c0105	-0.16797264
192	0x3e34c9f0	0.17655158
193	0xbe294bd7	-0.16532837
194	0xbd863744	-0.0655351
195	0x3da66240	0.081242085
196	0xbce7e9b2	-0.028309677
197	0x3d9c9c0c	0.07646951
198	0xbd7a9dfa	-0.061185814
199	0xbc499a35	-0.012304832
200	0x3eed9744	0.4640447
201	0x3d655cad	0.055996586
202	0xbd2c0b42	-0.042002924
203	0xbd900c3a	-0.07033582
204	0xbe5126ca	-0.20424953
205	0xbba801c0	-0.0051271617
206	0xbeb05470	-0.3443942
207	0xbe8c58be	-0.27411455
208	0xbee5248c	-0.44754446
209	0x3ba8d04d	0.0051517845
210	0xbeb0d8eb	-0.34540495
211	0xbe101d15	-0.14073594
212	0xbddd8aa3	-0.108174585
213	0x3c453e4d	0.012038779
214	0x3d8a1a33	0.06743278
215	0xbd9ef1b3	-0.07760944
216	0xbd55b466	-0.052173994
217	0xbe38b752	-0.18038681
218	0x3d04be06	0.032407783
219	0x3cfcec0f	0.03087428
220	0xbd955bbe	-0.07292889
221	0x3e4eadf0	0.2018354
222	0xbd278b44	-0.0409043
223	0x3e1836cf	0.14864658
224	0x3f326da4	0.6969855
225	0x3e17df18	0.14831197
226	0x3cde2a95	0.027119914
227	0x3e94301a	0.2894295
228	0x3ddf19cc	0.10893592
229	0xbe739421	-0.23786975
230	0x3d68de15	0.05685242
231	0x3e1543d6	0.14576659
232	0xbd46ea0a	-0.04856304
233	0x3dd85e8f	0.105649106
234	0x3d37710e	0.04478555
235	0x3efaac3e	0.48959535
236	0x3eadf8b5	0.3397881
237	0xbe069457	-0.13142525
238	0x3e90fc18	0.28317332
239	0xbe20bb13	-0.15696363
240	0x3db7be86	0.08971886
241	0x3e526a20	0.20548296
242	0x3d66d2b6	0.056353293
243	0xbd98488e	-0.07435714
244	0xbe16b53d	-0.14717574
245	0x3f16359c	0.5867555
246	0x3e2d2394	0.16908103
247	0x3d8ccb18	0.068746746
248	0x3e6320b4	0.22180444
249	0x3d4c699c	0.049905404
250	0xbe89818a	-0.26856643
251	0xbde7d7a0	-0.11320424
252	0xbe34f426	-0.1767126
253	0xbe2de888	-0.16983235
254	0x3ec8ec5e	0.39242834
255	0x3d49bef0	0.049254358

actor.init_next_embed.2.add_bias._bias f4 [64, 1]
0	0xbdeefb95	-0.11669079
1	0xbdc432f7	-0.09580033
2	0xbb26da9b	-0.002545989
3	0x3f4e4cd8	0.80586004
4	0x3eeb61f5	0.45973173
5	0xbf571fe2	-0.84033024
6	0x3d7f558e	0.06233745
7	0x3f14712c	0.57985187
8	0xbea7ec33	-0.32797393
9	0xbcc29151	-0.023750933
10	0x3dfb97fa	0.122848466
11	0x3ea5ae4c	0.3235954
12	0x3dfabe11	0.122432835
13	0xbe9a8cfc	-0.30185688
14	0x3f1546e5	0.583113
15	0xbed4bcab	-0.41550192
16	0x3e2108e0	0.15726042
17	0x3eae0885	0.33990875
18	0x3e1bb18a	0.15204445
19	0x3e651825	0.22372492
20	0xbe5e3c52	-0.21702698
21	0x3d14e747	0.036353376
22	0xbe089610	-0.13338494
23	0xbeca28db	-0.39484295
24	0xbe1726f7	-0.14760958
25	0xbe4b708c	-0.19867152
26	0xbf2111db	-0.6291787
27	0xbd7d39ae	-0.061822586
28	0x3f573d7e	0.84078205
29	0xbd65d2ff	-0.056109425
30	0xbe779c28	-0.24180663
31	0x3ee9f2d3	0.45693073
32	0xbe0bd9c8	-0.13657296
33	0x3e0c9421	0.13728382
34	0xbd8cc9a0	-0.068743944
35	0xbe40f180	-0.18842125
36	0xbeb8b755	-0.3607737
37	0xbf209fa0	-0.6274357
38	0xbf12c6a9	-0.5733438
39	0xbf1b7702	-0.60728467
40	0xbdb2d5cb	-0.08732184
41	0xbdbf0789	-0.09327609
42	0xbe1bf19d	-0.15228887
43	0xbeb268f7	-0.34845707
44	0xbe976aa5	-0.2957355
45	0x3f26a2a1	0.650919
46	0x3dd7e29e	0.10541271
47	0x3d171c50	0.036892235
48	0x3f0b5d52	0.5443927
49	0x3e5ba2b1	0.2144878
50	0xbf7c21d1	-0.984891
51	0xbef1e16d	-0.472423
52	0x3e15fe4b	0.14647786
53	0xbef3d2da	-0.47621804
54	0x3f520095	0.8203214
55	0xbe742683	-0.23842816
56	0xbd103f5f	-0.035216685
57	0xbf14119a	-0.5783936
58	0x3a8fd042	0.00109721
59	0x3ed0d308	0.40786004
60	0x3dee5a73	0.116383456
61	0x3e8df3df	0.2772512
62	0xbe3fd40c	-0.18733233
63	0xbd88be7c	-0.06676957
