trained_models/experiment/Discrete_A2C_20x10x10Bin_s42_inh_800_defaultBox-2022.08.18-19-42-34/PCT-Discrete_A2C_20x10x10Bin_s42_inh_800_defaultBox-2022.08.18-19-42-34_2022.08.18-21-26-26.pt (torch, 236314 bytes, 24 tensors)

actor.init_internal_node_embed.0.module.weight f4 [32, 6]
0	0x3e542488	0.2071706
1	0x3f19a942	0.6002389
2	0x3f1e852a	0.6192194
3	0xbe8441ef	-0.25831553
4	0xba9c018d	-0.0011902318
5	0x3e48cae4	0.19608647
6	0x3e328271	0.17432572
7	0x3edff692	0.43742806
8	0xbd2e2e6f	-0.04252475
9	0xbde561de	-0.11200307
10	0xbeadafef	-0.3392329
11	0xbda37dbb	-0.079829656
12	0x3d0a687b	0.033791047
13	0xbd33399d	-0.043756116
14	0x3d5362c1	0.05160785
15	0x3ddaacee	0.10677515
16	0xbe8ce16a	-0.27515727
17	0x3db5420c	0.08850488
18	0xbefae4c8	-0.4900267
19	0xbca0bca1	-0.019621195
20	0xbec26caf	-0.37973544
21	0x3f056ee4	0.5212233
22	0x3e8e70fb	0.27820572
23	0x3f600bbf	0.87517923
24	0x3ef77069	0.4832795
25	0xbe163495	-0.14668496
26	0xbd510b86	-0.05103638
27	0x3db453e8	0.08805066
28	0xbd2e816c	-0.042603895
29	0xbe068f7b	-0.13140671
30	0x3e706a60	0.23478079
31	0x3e07215f	0.13196324
32	0xbebfa7b7	-0.37432644
33	0x3ed24bd5	0.4107348
34	0xbe020c04	-0.12699896
35	0xbe941190	-0.2891965
36	0xbee3738b	-0.4442409
37	0x3e53027b	0.20606415
38	0x3e0f09b5	0.13968547
39	0x3e3ca238	0.18421257
40	0xbea8c095	-0.32959428
41	0xbe2b6e8c	-0.16741389
42	0x3e6c42a1	0.23072292
43	0xbe06843e	-0.13136384
44	0x3efedaca	0.49776298
45	0xbbb8edf9	-0.005643603
46	0xbf35836d	-0.70903665
47	0x3e068367	0.13136064
48	0xbedf5f1f	-0.4362726
49	0x3dd9d282	0.10635854
50	0xbf47f571	-0.7810889
51	0x3ecf1537	0.40445873
52	0x3d11e633	0.035619926
53	0x3d2b3548	0.04179886
54	0x3f1f7f6a	0.62303793
55	0xbcaf744d	-0.021417761
56	0xbdcea6fa	-0.10090442
57	0x3e2450d0	0.16046453
58	0xbe443f54	-0.19164783
59	0xbe15bb5d	-0.14622255
60	0xbce81818	-0.028331801
61	0x3de1e01e	0.11029075
62	0xbeaa23c4	-0.33230412
63	0x3f05875c	0.52159667
64	0x3f02a49b	0.5103242
65	0xbf1a4c86	-0.60273015
66	0xbe48b82d	-0.19601507
67	0xbe220a71	-0.15824296
68	0xbe12f934	-0.14352876
69	0xbdd0b1ad	-0.10190139
70	0xbeaf59f5	-0.3424832
71	0xbe50d93b	-0.20395367
72	0x3f5f4856	0.8721975
73	0x3df04aac	0.117329925
74	0x3ddc108a	0.10745342
75	0xbd9c2739	-0.07624669
76	0xbdf3ca3a	-0.11903806
77	0xbe4f578c	-0.2024824
78	0x3ed1e496	0.4099471
79	0x3d88b101	0.06674386
80	0xbe6624c4	-0.22474962
81	0xbdcdf06e	-0.10055624
82	0x3e8a3635	0.26994482
83	0xbea97cbd	-0.3310298
84	0x3ea7bf32	0.32763058
85	0x3ee486af	0.44634005
86	0xbeb1790c	-0.34662664
87	0xbada77d8	-0.0016667796
88	0x3d8c77a5	0.06858758
89	0xbd9496fa	-0.07255359
90	0xbd09e9bd	-0.033670176
91	0xbe939f3a	-0.28832418
92	0xbe77a08f	-0.24182342
93	0xbda3823e	-0.07983826
94	0x3e1da40b	0.15394609
95	0xbe90644b	-0.28201517
96	0x3d0a8f5d	0.033828128
97	0xbe046f06	-0.12932977
98	0x3ecccdfc	0.40000904
99	0xbf25925b	-0.64676446
100	0x3f006146	0.5014843
101	0x3ef56799	0.479306
102	0x3d45caf4	0.048289254
103	0x3ce8f111	0.028435262
104	0x3dd95670	0.1061219
105	0x3e7d1ff6	0.24719223
106	0xbf130ecd	-0.5744446
107	0xbeb80c1b	-0.35946736
108	0x3e9beb56	0.30452985
109	0x3e004986	0.12528047
110	0xbef957b1	-0.48699716
111	0x3e8f8440	0.28030586
112	0x3de65634	0.11246911
113	0xbd906e6a	-0.0705231
114	0x3eb42285	0.35182586
115	0xbe45be1e	-0.19310805
116	0x3d8a28f9	0.06746096
117	0xbe65393e	-0.22385117
118	0xbdcd0e3a	-0.10012479
119	0x3dda1db6	0.10650198
120	0x3d36fce9	0.044674788
121	0x3e8e9bb3	0.27853164
122	0xbeda270d	-0.42607918
123	0x3e9a57f6	0.30145234
124	0xbc8a4806	-0.016880047
125	0xbf00373d	-0.50084287
126	0xbe260ec3	-0.16216569
127	0xbdd3512c	-0.10318217
128	0xbe8c68b6	-0.27423638
129	0x3e1bc7f9	0.15213002
130	0xbddf42d8	-0.10901421
131	0xbed7211a	-0.42017442
132	0xbf46f5cb	-0.777188
133	0xbf5cfa6a	-0.863196
134	0xbf5e4343	-0.86821383
135	0x3f0b7719	0.54478604
136	0x3ee4f8ea	0.44721156
137	0x3ee0f03c	0.43933284
138	0xbe83edef	-0.25767466
139	0xbd908e7a	-0.07058425
140	0xbe589e27	-0.2115408
141	0x3d1ef6c5	0.038809557
142	0xbd6a2a44	-0.057169214
143	0x3f261959	0.6488243
144	0xbe01bbc8	-0.12669289
145	0xbbed6b3b	-0.007245449
146	0x3f8471ee	1.0347269
147	0x3eb1d882	0.34735495
148	0x3dda8162	0.10669209
149	0x3e7729c0	0.2413702
150	0xbdd538f6	-0.10411255
151	0x3e8fb78e	0.2806973
152	0x3e9c0d1d	0.30478755
153	0xbe880bff	-0.26571652
154	0xbdad53f1	-0.08463276
155	0x3ef43270	0.4769473
156	0xbe60e888	-0.21963704
157	0x3d3ffb1f	0.046870347
158	0xbe512e89	-0.20427908
159	0xbcf337e8	-0.029689744
160	0x3e92ed42	0.28696638
161	0xbde40810	-0.1113435
162	0xbd9488c5	-0.07252649
163	0x3cd96c0e	0.026540782
164	0x3eb21053	0.3477808
165	0xbebc5650	-0.367846
166	0xbd3e3112	-0.046433516
167	0xbe419606	-0.18904886
168	0xbeb03feb	-0.34423766
169	0xbf1ce4d4	-0.61286664
170	0xbd83bc91	-0.064324506
171	0x3d0cf1a5	0.034410138
172	0x3e32a2f0	0.17444968
173	0x3d2911c1	0.041276697
174	0xbe8771f6	-0.26454133
175	0x3e4bab4d	0.19889565
176	0x3e7a9d58	0.24474084
177	0xbe6d24ee	-0.23158619
178	0xbd97c2e9	-0.07410223
179	0xbc260915	-0.010134001
180	0x3ec08e3b	0.37608513
181	0xbb6175a3	-0.0034402392
182	0x3d539613	0.051656794
183	0xbd9f4ebb	-0.077786885
184	0x3e5ee40a	0.21766677
185	0xbed32ab4	-0.41243517
186	0x3e655207	0.22394572
187	0x3e581dfe	0.21105191
188	0xbe859309	-0.2608874
189	0xbe09bed7	-0.13451706
190	0xbd0702ed	-0.032961775
191	0x3ea61e71	0.324451

actor.init_internal_node_embed.0.add_bias._bias f4 [32, 1]
0	0x3d0294c2	0.031880148
1	0x3c84fccb	0.016233822
2	0xbcf460d2	-0.029831324
3	0x3d7b7a8b	0.061396163
4	0x3dfb97d4	0.12284818
5	0x3c31ee60	0.010860056
6	0xbcfaff9c	-0.030639462
7	0x3cb41ab9	0.021985399
8	0x3ce83488	0.028345361
9	0x3da217e4	0.07914713
10	0x3ccb8c16	0.024847072
11	0x3c99a69a	0.0187562
12	0x3d22e6cf	0.039770897
13	0x3cc1739b	0.023614695
14	0x3bc018af	0.0058623175
15	0xbb8b2d4a	-0.0042473422
16	0x3c504960	0.012712806
17	0x3c2ec648	0.010667391
18	0x3a90806b	0.00110246
19	0x39c40eed	0.00037395154
20	0xbc433a6d	-0.011915785
21	0x3cb1164e	0.021617081
22	0xbb97a872	-0.0046282345
23	0xbbdc8623	-0.0067298575
24	0x3d85ca30	0.06532705
25	0x3c7d6430	0.015465781
26	0xbc3cd765	-0.011525963
27	0xbc435904	-0.011923078
28	0x3b68577f	0.0035452542
29	0xba95f21e	-0.0011439954
30	0x3c39f636	0.011350205
31	0x3d181eb0	0.03713864

actor.init_internal_node_embed.2.module.weight f4 [64, 32]
0	0xbe88112c	-0.265756
1	0x3d499926	0.04921832
2	0xbe190b79	-0.14945783
3	0x3eb2efa2	0.3494845
4	0x3e2bd143	0.16779046
5	0x3d2cd571	0.04219574
6	0x3daac9fa	0.08339305
7	0x3de33b8d	0.11095343
8	0xbe61d16c	-0.22052544
9	0xbe99041f	-0.29885957
10	0xbde388ba	-0.11110063
11	0x3cfc2cf6	0.030783158
12	0xbe9a54ea	-0.3014291
13	0xbe18ba57	-0.14914833
14	0x3d5196c4	0.051169172
15	0xbe342598	-0.17592466
16	0x3ecdb446	0.401766
17	0xbda8bfec	-0.08239731
18	0xbdf43803	-0.11924746
19	0x3e742dd1	0.23845603
20	0x3d243faa	0.040099777
21	0xbe6922fe	-0.22767255
22	0xbda3ceda	-0.07998438
23	0xbe0694eb	-0.13142745
24	0x3da01837	0.078171186
25	0x3eaffafe	0.3437118
26	0x3e2af6ce	0.16695711
27	0x3dcc6285	0.099797286
28	0xbc9f22ff	-0.019425867
29	0xbe511687	-0.2041875
30	0xbe1f17bd	-0.15536399
31	0x3e1ece0e	0.15508291
32	0xbeae75fe	-0.34074396
33	0xbea67915	-0.32514253
34	0xbeb7286c	-0.35773027
35	0xbe6f7464	-0.23384243
36	0x3d1b96d1	0.037985627
37	0x3e1de662	0.15419915
38	0x3b415436	0.0029499657
39	0x3ed359c5	0.41279426
40	0xbccd31bb	-0.025048127
41	0xbdeb1178	-0.11477941
42	0xbd27f322	-0.041003354
43	0xbd53b68e	-0.05168777
44	0xbe9eb7c0	-0.30999565
45	0x3dc89ef7	0.09795945
46	0xbe5e12ad	-0.21686812
47	0x3e268ba7	0.1626421
48	0x3d8a1ea2	0.06744124
49	0x3b8534ab	0.0040651164
50	0xbed210ca	-0.41028434
51	0xbe1b9ee8	-0.15197337
52	0x3e912202	0.28346258
53	0x3dc62243	0.09674504
54	0x3e1f25b2	0.15541723
55	0xbe814120	-0.25245
56	0xbe88633a	-0.26638204
57	0x3dab9154	0.083773285
58	0xbbd07a1a	-0.006362212
59	0x3e2725e5	0.1632305
60	0xbe6ffd7a	-0.23436537
61	0x3e58304b	0.21112172
62	0x3eaf905c	0.34289825
63	0x3c9442ed	0.018098319
64	0x3f4da7ae	0.80333984
65	0xbe34efbc	-0.17669576
66	0xbd2bac81	-0.04191256
67	0x3edb0d42	0.42783552
68	0xbea019d0	-0.31269693
69	0x3e71bf9d	0.23608251
70	0xbe8a6fd4	-0.27038443
71	0xbe3b3ad2	-0.18284157
72	0x3e02ed52	0.12785843
73	0x3e87b86e	0.26507896
74	0x3e0cc950	0.1374867
75	0xbe9b505e	-0.30334753
76	0x3f5cbcef	0.8622579
77	0xbe5e3442	-0.21699622
78	0x3de92ff4	0.113860995
79	0xbc4e814b	-0.012604068
80	0x3e62d2d8	0.22150743
81	0x3d926550	0.0714823
82	0x3dd8999c	0.10576174
83	0x3e6ec20c	0.2331621
84	0xbec83f80	-0.39110947
85	0xbdb7a900	-0.08967781
86	0xbcf8951e	-0.030344542
87	0xbe42b838	-0.19015586
88	0x3f329d8d	0.69771653
89	0xbe7837e9	-0.24240078
90	0xbe15ef7b	-0.14642136
91	0xbd4f9f92	-0.050689287
92	0x3d77556f	0.06038421
93	0x3d2c9a15	0.04213913
94	0x3e7c101d	0.24615522
95	0x3dcc1766	0.099654004
96	0xbcea59f6	-0.02860735
97	0x3f0c3ba4	0.54778504
98	0xbdc7592e	-0.097338066
99	0xbeb5205c	-0.3537625
100	0x3d2cc31d	0.042178262
101	0xbe27e56c	-0.16396111
102	0xbea07555	-0.31339517
103	0x3da7bfcc	0.08190879
104	0xbe7a1050	-0.24420285
105	0xbb3849c8	-0.002812015
106	0xbd3816a0	-0.044943452
107	0x3eed504c	0.46350324
108	0x3dda5155	0.10660044
109	0xbe07154c	-0.13191718
110	0xbe07f642	-0.13277534
111	0xbe31484c	-0.17312735
112	0xbdb56b39	-0.08858342
113	0xbe2bf498	-0.16792524
114	0xbe25209c	-0.1612572
115	0xbe39cedc	-0.18145317
116	0xbe97af42	-0.296259
117	0x3d667668	0.056265265
118	0x3e6ea9e2	0.23306993
119	0x3e154324	0.14576393
120	0xbea372e0	-0.3192358
121	0x3e105d84	0.14098173
122	0x3dd857aa	0.105635956
123	0x3d1a960f	0.037740763
124	0x3e1a84f2	0.15089777
125	0x3e075aeb	0.13218276
126	0x3d3acf54	0.04560788
127	0xbdaab3fd	-0.08335111
128	0xbeadf809	-0.33978298
129	0xbd0b032f	-0.033938583
130	0x3dfca5c4	0.12336305
131	0xbd15b2ed	-0.03654759
132	0xbe3779b0	-0.17917514
133	0xbc848eba	-0.016181339
134	0xbdf93288	-0.12167841
135	0xbd3d5df4	-0.04623218
136	0x3ded3f43	0.11584332
137	0x3dce39d7	0.10069626
138	0x3d9e9f79	0.07745261
139	0xbe7ec186	-0.24878511
140	0x3d167e82	0.03674174
141	0x3e8dfc54	0.27731574
142	0x3e0ec1d9	0.13941135
143	0xbc3cf5d3	-0.011533218
144	0x3de61153	0.11233773
145	0x3d6628f6	0.056191407
146	0xbe93ed2d	-0.28891888
147	0xbe2e23d9	-0.17005862
148	0xbd07fe57	-0.03320154
149	0xbd55dbd1	-0.052211586
150	0x3f133af9	0.5751186
151	0xbe3b723f	-0.183053
152	0xbef687d1	-0.48150495
153	0x3ceef47e	0.029169317
154	0x3e18b811	0.14913966
155	0x3c25d5e3	0.010121795
156	0x3e756c41	0.23967077
157	0xbcd70d9e	-0.02625161
158	0x3e2edf54	0.1707738
159	0x3be2243a	0.006901291
160	0xbec071ce	-0.37586826
161	0x3dacfd9d	0.084468104
162	0xbdf012bf	-0.117223255
163	0x3dab6139	0.08368153
164	0x3f1ee652	0.6207019
165	0x3e1b9266	0.15192565
166	0x3e9538ea	0.29144984
167	0xbecd0de6	-0.40049666
168	0x3e99a678	0.30009818
169	0x3eef1588	0.46696115
170	0x3f1c186e	0.60974777
171	0x3e3993f6	0.18122849
172	0x3e046b79	0.12931623
173	0x3e3db480	0.18525887
174	0x3ebb1874	0.36542094
175	0xbc23701e	-0.009975461
176	0xbe4bbc28	-0.19895995
177	0x3caf6e50	0.021414906
178	0x3d92d9b2	0.07170428
179	0xbe17d734	-0.14828187
180	0x3eb9dff8	0.36303687
181	0xbceddeed	-0.029036963
182	0xbd69bb09	-0.057063136
183	0xbd82f21c	-0.06393835
184	0xbf69bc2b	-0.91302747
185	0x3d7b5052	0.061355896
186	0xbe76b4af	-0.24092363
187	0xbe6f267e	-0.23354527
188	0xbd6a5298	-0.057207674
189	0x3c268701	0.010164023
190	0x3eca1eee	0.39476722
191	0xbd3fd3eb	-0.04683296
192	0x3a1e563c	0.00060400716
193	0xbe74e37f	-0.23914908
194	0xbe2a627c	-0.16639131
195	0xbef92680	-0.48662186
196	0x3db44128	0.0880149
197	0x3dcb2733	0.09919586
198	0xbd714a89	-0.058908973
199	0xbdd26ba7	-0.10274439
200	0xbe37045a	-0.17872754
201	0x3f17b00e	0.59253013
202	0xbd93b674	-0.072125345
203	0x3dcdb86e	0.10044943
204	0x3f2a98c5	0.6663936
205	0xbc28cb1f	-0.010302334
206	0x3e232284	0.15931135
207	0xbd49f9eb	-0.049310606
208	0xbe80a9cb	-0.25129542
209	0xbe8244a4	-0.25442994
210	0x3f2d8a9a	0.67789614
211	0x3e42be92	0.1901801
212	0xbe80d3c7	-0.25161573
213	0x3daf792f	0.08568036
214	0xbe887f08	-0.26659417
215	0x3d123b3d	0.035701025
216	0xbf715b0c	-0.9427955
217	0xbe939915	-0.2882773
218	0x3d8bef1d	0.068327166
219	0x3d3a115a	0.045426704
220	0x3e420ab7	0.189494
221	0x3e8542e3	0.26027593
222	0xbd3e9804	-0.046531692
223	0xbe3b942b	-0.1831824
224	0x3f518480	0.81842804
225	0x3e682263	0.22669367
226	0x3e8c3a9d	0.27388468
227	0x3ebf82f6	0.37404603
228	0xbe2f2165	-0.17102583
229	0x3de13e63	0.109982274
230	0x3e919573	0.28434333
231	0x3de32bf7	0.1109237
232	0xbe9144b4	-0.2837273
233	0xbec95700	-0.39324188
234	0xbc83211c	-0.016006999
235	0xbe6758e1	-0.22592498
236	0x3f0dc904	0.5538485
237	0xbeb0e296	-0.3454787
238	0xbd3884cc	-0.04504852
239	0x3d3d213c	0.046174273
240	0x3d541f50	0.051787674
241	0xbd39d0ab	-0.045365017
242	0x3e8a94ac	0.27066553
243	0xbc905026	-0.017616343
244	0xbd192862	-0.037392028
245	0xbe297ed2	-0.16552284
246	0x3db89fcf	0.09014856
247	0x3d9b58af	0.075852744
248	0x3f353008	0.70776415
249	0x3cdf2930	0.02724132
250	0x3e7024c5	0.23451526
251	0xbd0e68e7	-0.03476801
252	0x3e2f7032	0.17132643
253	0x3ea809b5	0.32819906
254	0xbeeb818d	-0.45997277
255	0xbe1df7ad	-0.15426512

actor.init_internal_node_embed.2.add_bias._bias f4 [64, 1]
0	0xbc73d053	-0.014881211
1	0xbd52efe5	-0.051498313
2	0x3dbfa435	0.09357492
3	0xbd4db0a7	-0.050217297
4	0xbd19d062	-0.037552245
5	0x3d329283	0.043596756
6	0xbd51b4e0	-0.051197886
7	0x3dbae8b4	0.09126416
8	0x3b1b4ccc	0.0023696898
9	0xbd7655ab	-0.060140293
10	0xbc8f2121	-0.017471852
11	0xbd0272c7	-0.03184774
12	0xbe0dbd7d	-0.13841815
13	0xbd4e0b73	-0.050303888
14	0xbcf943e8	-0.030427888
15	0x3cf67494	0.030084886
16	0xbd90e370	-0.0707463
17	0xbd52adb6	-0.051435195
18	0xbe188f7f	-0.1489849
19	0x3c48cb6b	0.01225553
20	0xbd84acb4	-0.06478253
21	0xbd2b86a3	-0.041876446
22	0x3c953dcc	0.018217944
23	0x3dbbc7a8	0.09168941
24	0xbccc52a8	-0.024941757
25	0xbc1ab51f	-0.009442597
26	0xbca70951	-0.020390185
27	0xbb4a4bb9	-0.0030867888
28	0x3c956f35	0.018241504
29	0xbdd5d448	-0.1044088
30	0x3d911ac2	0.07085182
31	0xbe044749	-0.12917818
32	0x3dca78b0	0.098863006
33	0x3da65b2d	0.08122859
34	0xbd0a2479	-0.03372619
35	0xbd371b1d	-0.04470359
36	0x3d6a0795	0.057136137
37	0xbd0b666c	-0.034033224
38	0x3ccebe40	0.025237203
39	0x3d83721e	0.064182505
40	0xbd55f276	-0.052233182
41	0xbd4fb6d8	-0.050711483
42	0x3e75b8f8	0.23996341
43	0xbc56ace7	-0.013102747
44	0xbd9c2835	-0.076248564
45	0xbcca841a	-0.024721194
46	0x3d2c167b	0.042013627
47	0x3d3ee6a5	0.04660668
48	0x3d73c802	0.059516914
49	0xbe06f1b9	-0.13178147
50	0x3d566546	0.052342676
51	0x3d95cd3f	0.07314538
52	0x3d920ec9	0.07131726
53	0xbde378a9	-0.111069985
54	0xbd24b78b	-0.040214103
55	0x3e0e87cc	0.1391899
56	0x3e0f5abc	0.13999456
57	0x3bdf6f0a	0.006818657
58	0xbb81b5bb	-0.0039584315
59	0x3af8ca21	0.0018981138
60	0xbd0e8205	-0.034791965
61	0x3c5dccde	0.013537614
62	0xbd610311	-0.054934565
63	0x3d9988c3	0.07496788

actor.init_leaf_node_embed.0.module.weight f4 [32, 8]
0	0xbe2d9a61	-0.16953422
1	0xbf0102a9	-0.50394684
2	0x3eb24fb9	0.3482645
3	0x3eb7dc32	0.35910183
4	0x3e58c825	0.21170099
5	0x3eb83bb4	0.3598305
6	0xbeaa8fd6	-0.33312863
7	0xbe9ec33f	-0.31008336
8	0xbf073258	-0.52811193
9	0xbe372883	-0.17886548
10	0x3e8c4132	0.2739349
11	0x3db14aad	0.086568214
12	0x3e4c74a6	0.19966373
13	0xbe80bb64	-0.25142968
14	0x3e7a8d96	0.24468073
15	0xbd580493	-0.052738737
16	0xb9c1ac68	-0.0003694028
17	0x3da050cb	0.0782791
18	0xbe90c619	-0.28276137
19	0xbd4687d2	-0.048469372
20	0xbe45e10a	-0.19324127
21	0xbe315f94	-0.17321616
22	0x3da20166	0.07910423
23	0xbdc565b7	-0.09638541
24	0xbe429bd6	-0.19004759
25	0x3e3dc849	0.18533434
26	0x3ee3ed2d	0.44516888
27	0xbe702d85	-0.23454864
28	0x3dd1d907	0.10246473
29	0x3e58c970	0.21170592
30	0xbe807c13	-0.2509466
31	0x3c49a0db	0.012306417
32	0x3d938a61	0.07204128
33	0xbf14f179	-0.5818096
34	0x3ece1456	0.4024989
35	0xbe3b7370	-0.18305755
36	0xbe134ae0	-0.14384031
37	0x3db53149	0.08847291
38	0xbe2a2d86	-0.16618928
39	0x3e11bb19	0.14231528
40	0xbec66d34	-0.3875519
41	0x3c82b935	0.015957454
42	0xbea151b2	-0.3150764
43	0x3e2ec5ca	0.17067638
44	0xbd589c73	-0.052883577
45	0x3ded3c42	0.11583759
46	0xbe2bc03e	-0.16772553
47	0x3c305a66	0.01076374
48	0xbeb10cb9	-0.3458002
49	0x3df86c5a	0.121300414
50	0xbddb255d	-0.10700486
51	0x3e100dcf	0.14067768
52	0xbc66df66	-0.014091348
53	0xbe05e057	-0.1307386
54	0x3d39b39e	0.045337312
55	0x3e272892	0.1632407
56	0x3e9fa4d3	0.31180438
57	0x3e4c5920	0.19955873
58	0x3ec7a9ae	0.38996643
59	0xbdbfc62a	-0.09363969
60	0xbe40fada	-0.18845692
61	0xbd9e093f	-0.07716607
62	0xbf28dfc2	-0.6596643
63	0xbda8287b	-0.08210846
64	0xbd4ccdc1	-0.05000091
65	0x3dce06ce	0.10059892
66	0x3e493a19	0.19651069
67	0xbda216e7	-0.079145245
68	0xbd05981c	-0.032615766
69	0x3e862b13	0.26204738
70	0x3d572fa0	0.052535653
71	0x3d325c6a	0.043545164
72	0xbf1e2eee	-0.6179036
73	0xbeccc7fa	-0.3999632
74	0x3d23c7eb	0.03998558
75	0x3e88d03a	0.26721364
76	0x3f01ba6e	0.50675094
77	0xbea59787	-0.3234217
78	0xbad75de5	-0.0016431181
79	0xbf045fb9	-0.5170856
80	0xbeaab0e0	-0.3333807
81	0x3e1f931a	0.15583459
82	0xbeef712b	-0.46766028
83	0xbe3e56a2	-0.18587735
84	0x3ec32033	0.38110504
85	0x3e31b29b	0.17353289
86	0xbe6b215b	-0.22961943
87	0xb9ff5db4	-0.00048707204
88	0x3d4c23a2	0.04983867
89	0xbdd0cc1e	-0.10195182
90	0x3e9694a7	0.29410288
91	0xbeac107e	-0.33606333
92	0xbdcc59ab	-0.0997804
93	0xbecdf057	-0.40222427
94	0x3ed63eeb	0.41844878
95	0x3c589429	0.013218918
96	0xbe144313	-0.14478712
97	0xbda72a5c	-0.08162376
98	0x3e79018e	0.24317
99	0x3f0f09b7	0.558742
100	0x3e44eb37	0.19230352
101	0x3e783c01	0.2424164
102	0x3eaddf4a	0.3395942
103	0x3ede361e	0.43400663
104	0x3dbeda41	0.093189724
105	0x3e9c05cc	0.30473173
106	0x3e44d557	0.19222008
107	0xbd2db86a	-0.0424122
108	0xbee2f654	-0.44328558
109	0xbd697683	-0.056997787
110	0xbd4a4e3f	-0.049391028
111	0xbe6574eb	-0.22407882
112	0x3ee8fe89	0.45506695
113	0x3efe6d97	0.49692985
114	0x3e954bc8	0.2915938
115	0x3e9cebab	0.3064855
116	0xbc983639	-0.018580543
117	0xbda9149a	-0.082558826
118	0x3e0a5020	0.13507128
119	0x3e1de216	0.15418276
120	0x3c134101	0.008987666
121	0xbe3d6a88	-0.1849767
122	0xbd950b96	-0.072776005
123	0x3e890d3f	0.26767918
124	0xbe2389d5	-0.15970547
125	0x3e7896ce	0.24276277
126	0x3d2dd38d	0.04243808
127	0x3e31aeab	0.17351787
128	0x3e67ea03	0.22647862
129	0x3ea78708	0.32720208
130	0xbd9d12c9	-0.076695986
131	0xbf02c77a	-0.5108563
132	0x3cd600fc	0.026123516
133	0xbea8dff9	-0.32983378
134	0xbe6385f7	-0.22219072
135	0x3e2df6ad	0.1698863
136	0xbe9986dc	-0.29985702
137	0x3e8e556d	0.2779955
138	0xbea68ffc	-0.32531726
139	0x3ed50a95	0.41609636
140	0xbe395d3b	-0.18101971
141	0xbda96b66	-0.08272438
142	0xbe57f078	-0.21087825
143	0x3e62f2e2	0.22162965
144	0x3d9af0d3	0.07565465
145	0xbdc5a7a2	-0.09651114
146	0xbf4f3276	-0.8093637
147	0xbde77cec	-0.11303124
148	0x3e92e599	0.28690794
149	0x3eacc0a7	0.33740732
150	0x3dbf1158	0.0932948
151	0xbe2351b9	-0.15949143
152	0xbe5334aa	-0.20625558
153	0xbde99d4d	-0.11406956
154	0xbf041339	-0.5159183
155	0x3d341e45	0.04397418
156	0xbdf4639b	-0.11933061
157	0xbd1482df	-0.03625762
158	0x3e7f3e86	0.24926195
159	0xbd9f62ca	-0.077825144
160	0x3e36db27	0.17857037
161	0xbd28417a	-0.04107807
162	0x3ea67c91	0.32516912
163	0x3ea6351f	0.32462403
164	0x3eb379be	0.3505382
165	0x3d0db8a5	0.03459992
166	0x3e967276	0.29384202
167	0xbd9ca4ad	-0.07648597
168	0xbea297c7	-0.31756422
169	0x3e6b20cd	0.22961731
170	0x3e1eb470	0.15498519
171	0xbe05dd98	-0.13072813
172	0x3e998194	0.29981673
173	0xbe9e71bb	-0.30946144
174	0xbd2b2cd0	-0.041790783
175	0x3e497a85	0.19675644
176	0x3e36d66e	0.17855236
177	0xbe7bf90d	-0.24606724
178	0xbe734ccd	-0.23759766
179	0xbeb523cd	-0.35378876
180	0x3e86d1e5	0.26332012
181	0x3d3b794b	0.04576997
182	0x3ee1fd12	0.4413839
183	0x3e6b1c0d	0.2295992
184	0xbdc31e71	-0.095272906
185	0x3efbbcd0	0.4916749
186	0x3e3291f1	0.17438485
187	0xbefb4b72	-0.49080998
188	0xbc660601	-0.014039517
189	0x3f272062	0.6528379
190	0x3e0fddac	0.14049405
191	0x3eca3e11	0.39500478
192	0xbdfcc640	-0.12342501
193	0xbe995506	-0.2994768
194	0xbdd145da	-0.10218401
195	0xbdc5a9fd	-0.09651563
196	0x3e5fd2db	0.21857779
197	0xbe21cce4	-0.15800816
198	0xbd9ad55e	-0.07560228
199	0x3f164fca	0.587155
200	0xbc23e838	-0.010004096
201	0xbe8395f9	-0.25700358
202	0xbed0d470	-0.40787077
203	0x3e8d2291	0.27565435
204	0xbe4c5513	-0.19954328
205	0xbe12feee	-0.1435506
206	0xbba22c9e	-0.0049491664
207	0x3eba25cf	0.3635697
208	0xbe925d32	-0.28586727
209	0x3e2bc340	0.167737
210	0x3e257398	0.16157377
211	0xbe5ee873	-0.2176836
212	0xbecffe17	-0.40623543
213	0xbdd3b77e	-0.10337733
214	0x3ed00bb9	0.40633944
215	0xbe4412b1	-0.19147755
216	0xbe7858f2	-0.2425268
217	0x3e68c199	0.22730102
218	0x3ea5975e	0.32342046
219	0x3e877b30	0.26461172
220	0x3b83c42e	0.004021189
221	0x3e9a76f6	0.30168885
222	0x3e9c5c65	0.3053924
223	0xbe43dc15	-0.19126923
224	0x3c301782	0.010747792
225	0xbcd731d8	-0.026268885
226	0x3eafb2e9	0.34316185
227	0xbe33f26d	-0.17572947
228	0xbdfb7424	-0.122780114
229	0xbf0816f4	-0.53160024
230	0xbe763860	-0.24044943
231	0xbdb8e0d6	-0.09027259
232	0x3eddad93	0.4329649
233	0x3eb1044a	0.34573585
234	0xbeaadb32	-0.33370358
235	0x3eb3eacc	0.35140073
236	0x3f1d327a	0.61405146
237	0x3d29c9b7	0.041452136
238	0x3e24cd73	0.16093998
239	0xbeff4f62	-0.49865252
240	0x3d9f6bec	0.07784256
241	0xbeb12bf8	-0.34603858
242	0xbe1a987e	-0.15097234
243	0xbecb410e	-0.3969807
244	0xbe8ea58c	-0.27860677
245	0x3eeaa763	0.4583083
246	0x3da3479b	0.07972642
247	0xbe803a76	-0.25044602
248	0xbeeef649	-0.46672276
249	0x3ca94f3e	0.020667668
250	0xbe8cf02c	-0.27526987
251	0xbdb01d80	-0.08599377
252	0xbea9827b	-0.3310736
253	0xbe2da6bc	-0.16958135
254	0x3e8df06b	0.27722487
255	0xbe5503b2	-0.20802191

actor.init_leaf_node_embed.0.add_bias._bias f4 [32, 1]
0	0x3e2e40a7	0.1701685
1	0xbc854b98	-0.016271397
2	0xbc6eb5b7	-0.014569691
3	0x3db37b74	0.08763781
4	0x3c29e5f8	0.01036977
5	0xbd142c0b	-0.036174815
6	0x3cb05603	0.021525389
7	0x3ce003f8	0.027345642
8	0xbe09c993	-0.134558
9	0x3c00cdc0	0.007861555
10	0xbd3b986c	-0.045799658
11	0xbe70494c	-0.2346546
12	0x3e937ec2	0.28807646
13	0xbc553ca2	-0.013014944
14	0xbcf9dece	-0.03050175
15	0xbcc1f2e7	-0.023675395
16	0x3c435cc8	0.011923976
17	0xbd237806	-0.039909385
18	0xbdadb78b	-0.08482274
19	0x3e2064c9	0.15663446
20	0xbd44e7a1	-0.04807246
21	0xbd39b293	-0.045336317
22	0x3d12c7dc	0.035835132
23	0xbc1ab4b8	-0.009442501
24	0x3d5987ab	0.0531079
25	0xbd83824c	-0.064213365
26	0xbd423bb6	-0.047420226
27	0x3ccc60f6	0.024948578
28	0xbe14b686	-0.14522752
29	0x3e977737	0.2958314
30	0x3cd7d32a	0.026345808
31	0xbd223a83	-0.039606582

actor.init_leaf_node_embed.2.module.weight f4 [64, 32]
0	0xbe1e1dd0	-0.1544106
1	0xbeaa954d	-0.33317032
2	0xbe8c1cee	-0.27365822
3	0xbe1943c8	-0.14967263
4	0x3e341e27	0.17589627
5	0x3cf6b242	0.030114297
6	0x3d9a98d7	0.07548683
7	0x3dffb7b3	0.1248621
8	0x3e5101fa	0.2041091
9	0x3d902ab1	0.07039393
10	0x3d47bef6	0.0487661
11	0xbe89052f	-0.26761767
12	0xbeb51844	-0.35370076
13	0x3cd7724c	0.026299618
14	0xbea01d13	-0.31272182
15	0xbdfe9585	-0.12430862
16	0x3e5e550a	0.21712127
17	0xbd0076e0	-0.031363368
18	0xbe07d709	-0.13265623
19	0xbdd086aa	-0.10181935
20	0x3d944fd5	0.07241789
21	0xbe90b363	-0.2826186
22	0x3e558063	0.20849757
23	0x3df0a80d	0.11750803
24	0x3dca1571	0.09867371
25	0xbee1157d	-0.43961707
26	0xbdade547	-0.08490997
27	0x3dae7d2e	0.0851997
28	0x3e1078e8	0.14108622
29	0xbe6fd19e	-0.23419806
30	0xbd8984b4	-0.06714764
31	0xbc3ab235	-0.011395027
32	0x3d8f3304	0.06992152
33	0x3e1cc11b	0.15308039
34	0x3d724088	0.059143573
35	0x3de675c8	0.11252934
36	0x3d417d3b	0.04723857
37	0x3d3ababe	0.045588247
38	0x3e01c8bb	0.12674229
39	0xbe1fcf6d	-0.1560647
40	0xbdfb524e	-0.12271558
41	0xbe860107	-0.2617266
42	0x3ed945e1	0.42436126
43	0xbca63ecf	-0.020293621
44	0xbd1e14dc	-0.03859411
45	0x3dcc96a3	0.09989669
46	0x3e4211a2	0.18952039
47	0xbe90cb8d	-0.28280297
48	0xbdd74c19	-0.10512561
49	0xbe27d93c	-0.16391462
50	0xbe38a804	-0.18032843
51	0xbe5f612a	-0.21814409
52	0x3deb27a0	0.11482167
53	0xbd99b534	-0.07505265
54	0x3d52bf6c	0.051452085
55	0xbe0bd4f5	-0.13655455
56	0xbecc8551	-0.39945462
57	0xbe02bb5f	-0.12766789
58	0xbc505a90	-0.012716904
59	0x3e778983	0.2417355
60	0xbe859178	-0.26087546
61	0xbe249d6a	-0.16075674
62	0xbd299ab6	-0.04140731
63	0x3ec7b393	0.39004192
64	0x3e98fd61	0.29880813
65	0x3c16d4b7	0.009205989
66	0xbe1e4839	-0.15457238
67	0xbda3e9b8	-0.08003563
68	0x3e1629b7	0.1466435
69	0xbd6603f8	-0.05615613
70	0xbe0c15dd	-0.13680215
71	0x3db5e26b	0.088810764
72	0xbee1469d	-0.43999186
73	0xbdd92064	-0.10601881
74	0xbef4911c	-0.4776696
75	0xbe2d8dff	-0.16948698
76	0xbe8df6de	-0.27727407
77	0x3d59dec4	0.05319096
78	0x3e9540e4	0.2915107
79	0xbd949575	-0.07255069
80	0xbdb0ecf4	-0.08638945
81	0x3e520b7e	0.20512196
82	0xbe98ae26	-0.29820365
83	0xbde837eb	-0.113387905
84	0xbd29b018	-0.0414277
85	0xbd943f21	-0.072386034
86	0x3cd9eec5	0.026603112
87	0xbdba1c33	-0.0908741
88	0xbcbc23d2	-0.0229663
89	0xbd3207b5	-0.04346438
90	0xbdb9aba7	-0.09065943
91	0xbe1a5440	-0.15071201
92	0xbe52072a	-0.20510545
93	0xbc33efe6	-0.010982489
94	0x3e58d7ac	0.21176022
95	0x3df61f33	0.120176695
96	0xbae72fc0	-0.0017638132
97	0x3e64b5b9	0.22334947
98	0x3e3662b6	0.17811093
99	0x3dd29411	0.10282148
100	0x3deffbfa	0.117179826
101	0x3d4de592	0.050267763
102	0xbd4ef1e7	-0.050523665
103	0x3dfca603	0.12336352
104	0x3c8e10c1	0.017341973
105	0xbe057e2d	-0.13036413
106	0xbe2d1e8a	-0.16906181
107	0x3e79a9b2	0.2438114
108	0xbe80490e	-0.25055736
109	0x3d27145c	0.0407909
110	0x3c955e15	0.018233338
111	0x3e3779a6	0.17917499
112	0xbddc2079	-0.10748381
113	0x3eaddd86	0.3395807
114	0xbe88341f	-0.26602265
115	0x3c803ca5	0.015653918
116	0x3d9eeb3d	0.07759712
117	0x3e1e2947	0.15445434
118	0xbe4c43f8	-0.19947803
119	0x3e403730	0.18771052
120	0x3c0d60f3	0.0086290715
121	0x3dc58ea3	0.096463464
122	0x3e27606c	0.16345376
123	0x3e142459	0.1446699
124	0x3e97f3e7	0.2967827
125	0x3cdbe611	0.026843103
126	0x3e5dc7e3	0.21658282
127	0x3e31ad96	0.17351374
128	0xbda01e27	-0.07818251
129	0xbd3c16c1	-0.045920137
130	0x3d830ca7	0.063988976
131	0x3daa6afd	0.08321188
132	0x3e824e68	0.25450444
133	0xbeede452	-0.46463257
134	0x3e6ecf82	0.23321345
135	0xbe00b022	-0.1256719
136	0x3d3d8025	0.046264786
137	0x3dc26098	0.0949108
138	0xbde3ae23	-0.11117198
139	0xbeb7eb16	-0.35921544
140	0xbdc76ed7	-0.09737938
141	0x3e70c361	0.23512031
142	0x3e0c53c0	0.13703823
143	0xbdda74b9	-0.10666794
144	0xbedc47ac	-0.4302343
145	0xbe8c8c47	-0.27450773
146	0x3e61e9b5	0.22061808
147	0x3d9326c7	0.071851306
148	0xbe9cb915	-0.30609956
149	0x3e1bef7f	0.1522808
150	0xbd3e29f0	-0.046426713
151	0x3c23108c	0.009952676
152	0xbdf536d3	-0.119733475
153	0x3c41ccaf	0.0118285855
154	0xbe19de22	-0.15026143
155	0x3e16b55c	0.1471762
156	0x3e7be0c7	0.24597465
157	0x3e004dbd	0.12529655
158	0x3c3416f6	0.010991802
159	0xbe3cd952	-0.18442276
160	0x3d98e5fe	0.074657425
161	0xbbf8fa14	-0.007598171
162	0xbe3bca84	-0.18338972
163	0x3de56c60	0.112023115
164	0xbe348b85	-0.17631347
165	0xbd82f07f	-0.06393527
166	0x3eba26bb	0.36357674
167	0xbeb3c1a9	-0.35108688
168	0xbdae7111	-0.085176595
169	0x3dba1c79	0.09087462
170	0xbe5b7a03	-0.21433263
171	0x3e94139c	0.2892121
172	0x3f10e845	0.56604415
173	0x3d193ae1	0.037409667
174	0x3e36425d	0.17798753
175	0xbe2be219	-0.16785468
176	0x3e0a462f	0.13503335
177	0x3bf95cac	0.0076099243
178	0xbe45f539	-0.19331826
179	0xbe00aa60	-0.12564993
180	0x3de2a917	0.110674076
181	0xbe2a2f9b	-0.16619723
182	0x3cc3c16a	0.023895938
183	0x3eda7a0f	0.42671248
184	0x3d98ad29	0.07454903
185	0xbe075569	-0.13216175
186	0xbd9eaa5a	-0.07747336
187	0x3db72e02	0.08944322
188	0xbe2ef86e	-0.17086956
189	0x3e8d0362	0.27541643
190	0x3e899eca	0.2687896
191	0xbdd44504	-0.10364726
192	0x3e9a9a81	0.30196002
193	0xbe9d6bb2	-0.30746228
194	0xbd63ca53	-0.055612873
195	0x3db79061	0.08963085
196	0xbe03149c	-0.1280083
197	0xbe028f88	-0.12750065
198	0x3e23a833	0.15982132
199	0xbbc50eb6	-0.0060137166
200	0x3e46c465	0.19410856
201	0xbd2c4241	-0.042055372
202	0x3e7612de	0.24030635
203	0x3e369a2d	0.17832251
204	0x3e44ed20	0.19231081
205	0x3e00cd43	0.12578301
206	0xbe4d5786	-0.20052919
207	0xbdd1727b	-0.102269135
208	0xbee373c8	-0.44424272
209	0x3e82baee	0.2553324
210	0x3b1e2ea5	0.002413669
211	0x3de435e0	0.11143088
212	0x3cb00dea	0.02149101
213	0x3c9f9d37	0.019484146
214	0xbd9073c2	-0.07053329
215	0x3d5a0056	0.053222977
216	0x3d239acc	0.039942548
217	0xbd9f43e1	-0.07776619
218	0xbd96d770	-0.0736531
219	0x3e18f4f3	0.1493719
220	0xbe1312c0	-0.14362621
221	0x3e361749	0.1778232
222	0xbdbd2c86	-0.09237008
223	0xbd98df49	-0.07464463
224	0xbe125f12	-0.14294079
225	0x3cd5c947	0.026096953
226	0xbdfa1654	-0.1221129
227	0xbea9e097	-0.3317916
228	0x3dfe073e	0.12403725
229	0xbd379bb9	-0.044826243
230	0xbe535715	-0.20638688
231	0xbea1de0f	-0.3161473
232	0x3e38ab28	0.18034041
233	0xbde45629	-0.11149246
234	0x3e977fa3	0.29589567
235	0x3c3e0f13	0.011600274
236	0x3e43b5fd	0.19112392
237	0x3d9faab8	0.07796234
238	0xbe1b3880	-0.15158272
239	0x3e94c767	0.29058382
240	0xbe624bee	-0.22099277
241	0xbd04b6e0	-0.032400966
242	0xbc27a16d	-0.010231358
243	0xbdade953	-0.08491769
244	0x3bcb1913	0.0061980574
245	0x3ea87f1a	0.3290947
246	0x3da1376c	0.07871899
247	0x3d95c80f	0.07313549
248	0xbcb3c226	-0.021943163
249	0x3e3e26f5	0.18569548
250	0x3e4058c5	0.18783863
251	0x3e3c54a2	0.1839166
252	0xbefb9a7a	-0.49141294
253	0x3eb94f7f	0.36193463
254	0x3ea3b65e	0.31975073
255	0xbe757894	-0.23971778

actor.init_leaf_node_embed.2.add_bias._bias f4 [64, 1]
0	0xbe9c328f	-0.30507323
1	0x3e01bde5	0.12670095
2	0x3b94b42f	0.004538081
3	0xbbe56663	-0.007000731
4	0xbcc1c070	-0.023651332
5	0x3ea954f8	0.3307264
6	0x3e510f31	0.20415951
7	0x3e410782	0.1885052
8	0x3ed357cf	0.4127793
9	0xbe29f4cf	-0.16597293
10	0xbd47778c	-0.048697993
11	0x3da18b8d	0.07887945
12	0xbccff018	-0.02538304
13	0x3dd46c90	0.10372269
14	0xbedece06	-0.43516558
15	0xbdeca0e9	-0.11554129
16	0xbdbbbb07	-0.09166532
17	0x3e005290	0.12531495
18	0x3c0979c1	0.008390845
19	0x3e0e6ba1	0.13908245
20	0xbe8b23c2	-0.2717572
21	0xbd251b31	-0.040309135
22	0x3cf485ab	0.029848894
23	0x3e473a17	0.19455753
24	0xbe03d33e	-0.12873551
25	0xbad15629	-0.0015971112
26	0x3c32460e	0.01088096
27	0xbd2e5e99	-0.042570684
28	0xbe2b737a	-0.1674327
29	0x3e8f0bec	0.27938783
30	0x3d901e34	0.07037011
31	0x3d50e2fc	0.05099772
32	0x3e00afbf	0.12567042
33	0xbe883fb9	-0.26611117
34	0xbe2298b0	-0.15878558
35	0x3d499f39	0.049224112
36	0x3dd9f627	0.10642653
37	0x3e996d52	0.29966217
38	0x3eca2439	0.3948076
39	0x3ee33cab	0.44382223
40	0x3e251406	0.1612092
41	0x3e835ea2	0.25658137
42	0xbdb3b43a	-0.0877461
43	0x3e02dafb	0.12778847
44	0xbcdbbbce	-0.02682295
45	0xbe840ba9	-0.25790146
46	0xbea05b90	-0.31319857
47	0xbe281c9f	-0.16417168
48	0x3ebbeeda	0.36705667
49	0xbd93153a	-0.07181783
50	0xbe3357b7	-0.1751393
51	0x3edbffcc	0.42968595
52	0xbc062e6b	-0.008189778
53	0x3e52d23a	0.20588008
54	0xbe87d461	-0.2652922
55	0xbe2ea924	-0.1705671
56	0x3e22b166	0.15887985
57	0x3eb78b08	0.3584826
58	0x3e1d5b39	0.1536683
59	0x3e292574	0.16518193
60	0x3e2d4d55	0.16924031
61	0x3ed1e214	0.40992796
62	0xbe7f26ff	-0.2491722
63	0xbe21a409	-0.1578523

actor.init_next_embed.0.module.weight f4 [32, 6]
0	0xbe6aab48	-0.22916901
1	0x3e2a50d2	0.16632393
2	0xbdab0421	-0.08350397
3	0x3ee5dcf6	0.44895142
4	0x3e94b5aa	0.2904485
5	0xbd37d37a	-0.044879414
6	0x3e564e91	0.20928408
7	0x3ea6499a	0.3247803
8	0x3c08bd0a	0.008345852
9	0x3e259262	0.16169122
10	0x3db5639d	0.0885689
11	0xbe73bde4	-0.23802906
12	0x3dbfe8e2	0.09370591
13	0xbec7c889	-0.39020184
14	0x3e75c4b2	0.24000815
15	0xbf4cefa6	-0.80053174
16	0x3de0d033	0.10977211
17	0x3e3357f1	0.17514016
18	0x3f2b527f	0.66922754
19	0x3f11a812	0.5689708
20	0x3de5af6e	0.11215101
21	0xbe1be1b8	-0.15222824
22	0x3e7e722e	0.24848244
23	0x3e65dfc3	0.2244864
24	0xbea6e49f	-0.325963
25	0xbd760fcd	-0.060073663
26	0xbe45cc60	-0.19316244
27	0x3e3b3885	0.18283279
28	0x3d1a4122	0.03765977
29	0xbe2f3801	-0.17111208
30	0xbe349b73	-0.17637424
31	0x3debed70	0.11519897
32	0x3eead23d	0.45863524
33	0xbcb3acbb	-0.02193295
34	0xbeba8f05	-0.3643724
35	0xbdf70b2f	-0.1206268
36	0xbe30d450	-0.17268491
37	0xbe687a25	-0.22702844
38	0xbcc0a71f	-0.02351719
39	0xbf09bfc2	-0.53808224
40	0x3caed6fa	0.021342743
41	0x3efc34c8	0.4925902
42	0xbe4a5e6d	-0.19762583
43	0xbebb3c5b	-0.36569485
44	0x3e81cea5	0.2535297
45	0x3dc7de07	0.09759145
46	0xbdfadf01	-0.12249566
47	0x3d4ed008	0.050491363
48	0xbe09e3cb	-0.13465802
49	0xbe82989e	-0.25507063
50	0x3eafc820	0.3433237
51	0xbe6a955c	-0.22908539
52	0x3db04349	0.086065836
53	0xbbf296d0	-0.007403232
54	0xbeb7c4cf	-0.3589234
55	0xbe211ec8	-0.15734398
56	0xbe148fe1	-0.1450801
57	0x3ee87247	0.45399687
58	0xbe2f67d8	-0.17129457
59	0xbd7a66b2	-0.061133094
60	0x3e90051a	0.28128892
61	0xbd42dcbc	-0.04757379
62	0xbe18e41f	-0.14930771
63	0x3cf00a50	0.029301792
64	0xbe851c02	-0.2599793
65	0xbdccf655	-0.100079216
66	0xbe5b194a	-0.21396366
67	0xbe425303	-0.18976979
68	0xbe95245b	-0.291293
69	0xbebdaa43	-0.37043962
70	0xbd0ef8aa	-0.034905113
71	0x3ca8005a	0.02050798
72	0x3e991074	0.29895365
73	0xbf28a741	-0.6588021
74	0xbd32aed1	-0.04362375
75	0xbdda8456	-0.10669772
76	0xbddd2b98	-0.107993305
77	0xbe664edd	-0.22491021
78	0x3e16caa0	0.14725733
79	0xbe851c31	-0.2599807
80	0x3e9e7a93	0.30952892
81	0x3ef67135	0.48133245
82	0x3d7b0bf2	0.06129069
83	0x3d216430	0.039402187
84	0xbe079004	-0.13238531
85	0x3d59fc8c	0.053219363
86	0xbdd8ba48	-0.10582405
87	0xbe9c3f06	-0.30516833
88	0x3d9525f4	0.072826296
89	0x3e166877	0.14688288
90	0x3c1fb186	0.009746915
91	0x3d8cc9c0	0.06874418
92	0x3e6ea4b5	0.23305018
93	0xbea0215b	-0.31275448
94	0xbd0853bb	-0.033282977
95	0xbe7ff20b	-0.24994676
96	0xbd4ca24c	-0.049959466
97	0xbe13f899	-0.14450301
98	0xbe02e279	-0.12781705
99	0xbf060082	-0.52344525
100	0x3e8abe57	0.27098343
101	0x3e3ce21c	0.18445629
102	0xbe739152	-0.23785904
103	0x3ee89ebe	0.4543361
104	0x3efee7dd	0.49786273
105	0x3e1d553f	0.1536455
106	0x3e3b06d2	0.1826432
107	0x3f0d5b55	0.55217487
108	0xbe3bd99b	-0.18344729
109	0xbc6e357c	-0.014539119
110	0xbeb1dd26	-0.34739035
111	0xbd9b013c	-0.07568595
112	0xbe1079c8	-0.14108956
113	0xbee61653	-0.44938907
114	0x3da64891	0.0811931
115	0xbe657c30	-0.22410655
116	0x3e46d7c0	0.1941824
117	0x3e9c85fa	0.30570966
118	0xbdf2c027	-0.118530564
119	0xbe17fc7d	-0.1484241
120	0x3dee167c	0.11625382
121	0x3ebac6c4	0.3647977
122	0x3e2433e6	0.16035423
123	0xbf9b62d6	-1.2139537
124	0xbe8b23a0	-0.27175617
125	0x3ec05c64	0.37570488
126	0x3eea6959	0.457835
127	0xbe358e76	-0.17730126
128	0x3daa14f6	0.08304779
129	0x3ed30eef	0.4122233
130	0x3eb2ea7d	0.34944525
131	0x3f105f81	0.5639573
132	0xbe67cc3f	-0.22636507
133	0x3ce290a6	0.027656864
134	0xbdbaacad	-0.091149665
135	0x3cf33a7f	0.029690979
136	0xbecc5c58	-0.39914203
137	0xbc9e7ea8	-0.019347504
138	0xbdb958ac	-0.09050116
139	0xbe42394a	-0.18967167
140	0xbe063252	-0.13105133
141	0xbdea81f0	-0.11450565
142	0xbda0420c	-0.078250974
143	0xbd0fe14c	-0.03512697
144	0xbe67a763	-0.22622447
145	0xbd95fb09	-0.07323272
146	0x3eaccdd3	0.3375078
147	0xbeaae740	-0.33379555
148	0x3f0919c0	0.53554916
149	0xbeb723d3	-0.3576952
150	0xbe0968c3	-0.1341887
151	0xbd5412ab	-0.051775616
152	0x3d116b6e	0.035502844
153	0xbdf525d2	-0.11970104
154	0xbef8946f	-0.48550746
155	0x3ebeb036	0.37243813
156	0xbec6cb53	-0.38827
157	0xbe2e9e7e	-0.17052647
158	0x3edaf998	0.4276855
159	0x3ee0999a	0.4386719
160	0x3b85b5d2	0.0040805126
161	0xbe981a42	-0.29707533
162	0x3e9dda91	0.30830815
163	0xbdc8a5f6	-0.097972795
164	0x3e0d4c72	0.13798693
165	0xbea2a061	-0.31762984
166	0x3d9effda	0.077636436
167	0xbe198610	-0.14992547
168	0xbde7aa23	-0.11311748
169	0x3dd7fafe	0.1054592
170	0xbf04f1a5	-0.5193122
171	0xbe33826d	-0.17530222
172	0x3d18d10a	0.03730873
173	0x3d82aa59	0.063801475
174	0x3e3828c0	0.17984295
175	0xbd2e7b76	-0.04259821
176	0x3ea90181	0.3300896
177	0xbe633e23	-0.22191672
178	0xbe1dddfa	-0.15416709
179	0xbdb122dc	-0.08649227
180	0xbda786a9	-0.08179981
181	0xbcb7722a	-0.022393305
182	0xba81a97b	-0.0009892428
183	0xbe029e8f	-0.12755798
184	0xbf1206ac	-0.5704143
185	0x3f118764	0.56847215
186	0x3d8d5905	0.06901745
187	0xbde14cbe	-0.110009655
188	0xbe1fc54d	-0.15602608
189	0xbdb6ea25	-0.08931378
190	0x3cb1a503	0.021685129
191	0xbe1e8710	-0.1548121

actor.init_next_embed.0.add_bias._bias f4 [32, 1]
0	0x3f22beaf	0.6357221
1	0xbddf5664	-0.109051496
2	0xbdd25b6a	-0.10271342
3	0x3ed55dce	0.4167313
4	0x3a04ba7d	0.00050631893
5	0xbd23e126	-0.04000964
6	0x3e9282f8	0.28615546
7	0xbcef7ea8	-0.0292352
8	0xbd29d2ee	-0.041460924
9	0xbd654c61	-0.055981044
10	0xbe2aa57b	-0.16664688
11	0x3e79de6f	0.24401258
12	0xbc43d7ff	-0.011953353
13	0x3ea4ccd1	0.32187513
14	0xbd9876c8	-0.07444531
15	0xbcc9d6d1	-0.024638565
16	0xbcbc5331	-0.022988888
17	0x3ea2a106	0.31763476
18	0xbc4fab62	-0.012675138
19	0xbe08dbaa	-0.13365045
20	0x3f0c5920	0.54823494
21	0x3dde460d	0.10853205
22	0x3c7331b5	0.014843394
23	0xbd338909	-0.04383186
24	0xbcb6a450	-0.022295147
25	0xbd850377	-0.064948015
26	0xbd21ec1a	-0.039531805
27	0xbc0340e0	-0.008011073
28	0xbd0370e3	-0.03209008
29	0xbc22585b	-0.009908761
30	0xbce70091	-0.028198512
31	0x3ba8a302	0.005146385

actor.init_next_embed.2.module.weight f4 [64, 32]
0	0xbea6cd4a	-0.32578498
1	0x3de1c47b	0.11023804
2	0x3dbf402c	0.09338412
3	0x3df57560	0.11985278
4	0x3e33e72f	0.17568658
5	0xbde92fe6	-0.11386089
6	0x3cf4c7ec	0.029880486
7	0x3e8f5454	0.27994025
8	0x3df84d29	0.12124092
9	0x3d2b6f27	0.04185405
10	0x3e0d3026	0.13787898
11	0xbe7fafd1	-0.24969412
12	0x3b164774	0.0022930773
13	0x3e1a456d	0.15065546
14	0x3e4d9973	0.20078067
15	0xbc98f042	-0.018669251
16	0x3eab7e02	0.33494574
17	0x3e6d7599	0.23189391
18	0xbca118f9	-0.019665228
19	0x3e2b1bc2	0.16709808
20	0x3d97068a	0.07374294
21	0xbe2195b6	-0.15779766
22	0x3e815c3c	0.25265682
23	0x3f079e57	0.5297598
24	0x3d90d0bd	0.07071064
25	0x3caf88d4	0.02142755
26	0xbb368d0e	-0.0027855071
27	0xbe1a0ebe	-0.15044686
28	0xbd96751c	-0.073465556
29	0xbde19267	-0.11014252
30	0xba93c6fb	-0.0011274511
31	0xbdd58686	-0.10426049
32	0x3ebf8d50	0.374125
33	0xbcb34605	-0.021883974
34	0xbe10e8ea	-0.1415135
35	0x3dddbce0	0.10827041
36	0x3e4ba0a2	0.19885495
37	0x3e2e00c5	0.16992481
38	0xbe84c0db	-0.25928387
39	0x3de7b280	0.11313343
40	0xbd15b1c6	-0.03654649
41	0x3da57c3e	0.08080338
42	0xbe0cc09c	-0.1374535
43	0xbe92d028	-0.28674436
44	0xbe8bf0b5	-0.27332082
45	0x3dbc1fce	0.09185754
46	0x3edaccab	0.42734274
47	0x3e94951f	0.2902002
48	0xbe817e93	-0.2529188
49	0x3e023b60	0.12717962
50	0x3e1dcd2f	0.15410303
51	0xbe811260	-0.25209332
52	0xbea4ef11	-0.32213643
53	0xbdcfa6c1	-0.10139228
54	0xbe69cc7b	-0.2283191
55	0xbd820e82	-0.063504234
56	0xbd578be3	-0.05262364
57	0x3df6a2b9	0.12042756
58	0x3da8194a	0.082079485
59	0xbe207189	-0.1566831
60	0x3d98da73	0.07463541
61	0x3d76d363	0.060260188
62	0xbd89e7b9	-0.06733651
63	0xbe04a829	-0.12954773
64	0x3e4edd0b	0.20201509
65	0x3ec74c98	0.38925624
66	0x3da67b7d	0.08129022
67	0x3e05b980	0.13059044
68	0x3d82465e	0.06361078
69	0x3dfab065	0.12240676
70	0x3dfb7656	0.1227843
71	0xbe700085	-0.23437698
72	0x3e0edf14	0.13952285
73	0xbdf8f84d	-0.121567346
74	0xbd7ae42c	-0.061252758
75	0xbe85aee6	-0.2611
76	0xbd009d75	-0.031400163
77	0xbeb958c8	-0.36200547
78	0xbe0057bb	-0.12533467
79	0x3c0b3e3e	0.008498726
80	0x3c286e4e	0.010280205
81	0xbd524084	-0.05133106
82	0x3d2cf721	0.042227868
83	0xbea60704	-0.32427227
84	0xbec04a9c	-0.37556922
85	0x3ec53b8e	0.38522
86	0x3e2a01c1	0.16602232
87	0xbde08da4	-0.10964516
88	0x3e244893	0.1604331
89	0xbea7366d	-0.3265871
90	0x3d1f5a44	0.038904443
91	0x3e21587e	0.15756413
92	0x3e845d56	0.2585246
93	0xbdc0c367	-0.0941227
94	0xbeafb9ff	-0.3432159
95	0x3e38138c	0.17976207
96	0x3f0a9db5	0.5414689
97	0x3e7d63b4	0.24745065
98	0xbe1b9d1a	-0.15196648
99	0x3e80d335	0.25161138
100	0x3e3b8342	0.1831179
101	0xbc7479e6	-0.014921641
102	0x3d293d30	0.04131812
103	0xbcfe9070	-0.031074733
104	0x3c31e47a	0.010857696
105	0x3ec6dba1	0.3883944
106	0x3e18a002	0.14904788
107	0x3ebd707a	0.36999875
108	0x3d96fa52	0.073719636
109	0x3e9a614c	0.30152357
110	0xbe39fd97	-0.18163143
111	0x3da8c55b	0.082407676
112	0x3e1d5df8	0.15367877
113	0x3e9c954d	0.30582657
114	0xbdd945de	-0.10609029
115	0x3e361886	0.17782792
116	0x3e80fdd2	0.2519365
117	0x3e19ab2f	0.15006708
118	0xbdfd8635	-0.123791136
119	0xbe8dde13	-0.27708492
120	0xbd5a23f7	-0.053256955
121	0xbc8c3294	-0.017113961
122	0xbe87cda4	-0.2652408
123	0x3e1c6ab1	0.15275075
124	0x3dca96a7	0.09892016
125	0x3d38357e	0.04497289
126	0x3e50bf7a	0.20385543
127	0x3d06bd74	0.03289552
128	0x3ee42e82	0.44566733
129	0xbcb13441	-0.021631362
130	0xbaf81cd5	-0.0018929491
131	0x3e99d5c6	0.3004591
132	0x3e5d238a	0.21595588
133	0x3e2babd7	0.1676477
134	0x3d9b944f	0.07596647
135	0x3e2865a6	0.16445026
136	0x3e34cdf5	0.17656691
137	0xbdb8fc1e	-0.090324625
138	0xbcaa160e	-0.02076247
139	0xbdda5aa7	-0.10661822
140	0xbe0c78c7	-0.13717948
141	0x3cbf13dd	0.023324901
142	0xbe387496	-0.18013224
143	0xbea81b68	-0.3283341
144	0x3dc97ad5	0.098378815
145	0x3da800fb	0.08203312
146	0x3d2baa61	0.041910533
147	0xbe969484	-0.29410183
148	0x3ed755cc	0.42057645
149	0x3e554aec	0.20829362
150	0xbc8392c5	-0.016061196
151	0xbc80bec3	-0.015715962
152	0x3e2a3d81	0.16625024
153	0x3e39b110	0.1813395
154	0x3e236b97	0.15959011
155	0xbdc7462a	-0.097301796
156	0x3d6b72d7	0.057482567
157	0x3d182fe4	0.037155047
158	0x3dce64eb	0.10077842
159	0xbdf0982d	-0.11747775
160	0xbf0bfeb1	-0.54685503
161	0xbf0140f7	-0.50489753
162	0xbd75cafa	-0.060008027
163	0xbee114ec	-0.43961275
164	0x3c8d19f6	0.017224293
165	0x3e1b0a43	0.15140633
166	0xbe237b50	-0.15965009
167	0x3e1aca9c	0.15116352
168	0x3dba48ad	0.09095893
169	0x3e0910fd	0.13385387
170	0xbe52e61e	-0.20595595
171	0xbe860dc9	-0.26182392
172	0xbce09b59	-0.027417826
173	0xbd093cfb	-0.03350542
174	0xbd62af57	-0.055343
175	0x3e03bbfc	0.12864679
176	0x3b082ad6	0.0020777485
177	0x3cffc390	0.031221181
178	0x3e2cc958	0.16873682
179	0xbc30ff0e	-0.010802997
180	0xbee533a6	-0.44765967
181	0xbd0cf517	-0.034413423
182	0x3d90696e	0.07051359
183	0xbd80f2c4	-0.06296304
184	0xbe68fd47	-0.22752868
185	0xbe611ca1	-0.21983577
186	0xbe0b6969	-0.1361443
187	0xbe365721	-0.17806675
188	0x3dfe4c31	0.12416876
189	0xbe58c0ed	-0.21167345
190	0x3b620354	0.0034486847
191	0xbe2c1e27	-0.16808377
192	0x3e37f055	0.17962773
193	0xbe292343	-0.16517358
194	0xbd86cec0	-0.06582403
195	0x3d946405	0.0724564
196	0xbce6fb36	-0.028195959
197	0x3d9c8802	0.07643129
198	0xbdf8edf7	-0.12154763
199	0xbc496222	-0.012291463
200	0x3eed909c	0.4639939
201	0x3d65f911	0.05614573
202	0xbd2be369	-0.041964922
203	0xbd837bf5	-0.06420127
204	0xbe5127b5	-0.20425303
205	0xbc17ae80	-0.009257913
206	0xbeb061a4	-0.34449494
207	0xbe8c6179	-0.27418116
208	0xbedbc1b2	-0.42921215
209	0x3be2d4a4	0.0069223214
210	0xbeb0d040	-0.34533882
211	0xbe0ff3c3	-0.14057831
212	0xbe4db1a2	-0.20087293
213	0x3ccbf1bc	0.024895541
214	0x3d89f5d6	0.067363426
215	0xbd9f09d4	-0.077655464
216	0xbd55755a	-0.05211387
217	0xbe38e560	-0.1805625
218	0x3d05c894	0.03266199
219	0x3cfc5146	0.030800473
220	0xbd9581ef	-0.073001735
221	0x3e4e94a6	0.20173892
222	0xbc85189b	-0.016247084
223	0x3e181dc5	0.14855106
224	0x3f2d121b	0.6760575
225	0x3e17f2a9	0.14838661
226	0x3cdd79b4	0.027035572
227	0x3e9314ca	0.28726798
228	0x3ddf2f8c	0.10897741
229	0xbe734649	-0.2375728
230	0x3c89b420	0.016809523
231	0x3e1550a9	0.1458155
232	0xbd4706d9	-0.048590515
233	0x3dd8946d	0.10575185
234	0x3d389328	0.045062214
235	0x3f048406	0.5176395
236	0x3eae134d	0.339991
237	0xbe2f491e	-0.17117736
238	0x3e90f2dd	0.2831029
239	0xbe208d21	-0.15678836
240	0x3dbaca01	0.091205604
241	0x3e2bd350	0.16779828
242	0x3d684578	0.056706876
243	0xbd97f329	-0.07419426
244	0xbe3268ca	-0.17422786
245	0x3f0582ac	0.52152514
246	0x3e2d631d	0.1693234
247	0x3d8cefa6	0.06881647
248	0x3e62fd6f	0.2216699
249	0x3d4d1763	0.05007113
250	0xbe896d00	-0.26840973
251	0xbde7bdc1	-0.113154896
252	0xbe35019b	-0.17676394
253	0xbe2dc0a1	-0.16968013
254	0x3eccd8ec	0.40009248
255	0x3d49e70e	0.049292617

actor.init_next_embed.2.add_bias._bias f4 [64, 1]
0	0xbe38a0ee	-0.1803014
1	0xbcdb1bb1	-0.026746603
2	0xbc2f533a	-0.010700995
3	0x3f2e5f6b	0.68114346
4	0x3ecd2ff2	0.40075642
5	0xbf2e61b9	-0.6811786
6	0x3b6dcd3d	0.0036285662
7	0x3f08f362	0.5349637
8	0xbed73cf4	-0.4203869
9	0x3d17a5cc	0.03702335
10	0x3d217a0e	0.03942304
11	0x3e7dbd14	0.24779159
12	0x3e1055f4	0.14095289
13	0xbecc623f	-0.39918706
14	0x3ef0cf28	0.47033048
15	0xbecec2f6	-0.40383118
16	0x3df66d33	0.12032547
17	0x3ebc5893	0.36786327
18	0x3bee72df	0.0072768773
19	0x3e8327a0	0.2561617
20	0xbe765dc0	-0.240592
21	0xbd479c60	-0.048733115
22	0xbdfc2cae	-0.123132095
23	0xbeba45e2	-0.3638144
24	0xbe3bb4ff	-0.18330763
25	0xbe4fe4b4	-0.20302087
26	0xbf29cb2f	-0.6632566
27	0x3d92bb3a	0.07164617
28	0x3f5b693d	0.85707456
29	0xbd457eea	-0.048216738
30	0xbdca4299	-0.09875984
31	0x3ef0137b	0.46889862
32	0xbc8f240e	-0.017473247
33	0x3ddbd270	0.10733497
34	0xbd4bab1a	-0.049723722
35	0xbdd28234	-0.102787405
36	0xbeb6c6d1	-0.3569856
37	0xbf0bda0a	-0.54629576
38	0xbf0b33ee	-0.54376113
39	0xbf14e3df	-0.58160204
40	0xbe5d866b	-0.21633308
41	0xbd95e09e	-0.07318233
42	0xbe5e95a5	-0.21736772
43	0xbe9711f6	-0.2950589
44	0xbec79674	-0.38981974
45	0x3f098eb8	0.53733397
46	0x3d7bd0bc	0.06147836
47	0xbd8086f1	-0.06275738
48	0x3edc5d06	0.4303972
49	0x3e5e0f74	0.21685582
50	0xbf681c0d	-0.906678
51	0xbedce739	-0.4314516
52	0x3d00dfc4	0.0314634
53	0xbeb0e03b	-0.34546074
54	0x3f34de94	0.7065213
55	0xbe8dc25a	-0.2768734
56	0xbb97280e	-0.004612929
57	0xbf1bfc5c	-0.60931945
58	0xbd810385	-0.062994994
59	0x3eaab330	0.33339834
60	0x3e35c178	0.17749584
61	0x3e97a0c3	0.2961484
62	0xbe9a4b7c	-0.30135715
63	0x3c04bb80	0.008101344
