trained_models/experiment/Discrete_A2C_20x10x10Bin_s42_inh_800_defaultBox-2022.08.18-19-42-34/PCT-Discrete_A2C_20x10x10Bin_s42_inh_800_defaultBox-2022.08.18-19-42-34_2022.08.18-20-41-04.pt (torch, 236314 bytes, 24 tensors)

actor.init_internal_node_embed.0.module.weight f4 [32, 6]
0.18781172 0.62031806 0.6247257 -0.24338509 -0.01898348 0.21016866 0.15307114 0.44668767
-0.03685789 -0.0945471 -0.35414433 -0.07481804 0.017351076 -0.0382357 0.04046742 0.119756706
-0.27704045 0.095078796 -0.40859225 -0.015064036 -0.37029412 0.45660692 0.27100703 0.8719479
0.45732662 -0.16626994 -0.0924507 0.117829196 -0.034902815 -0.14120248 0.20472334 0.10993328
-0.37483555 0.42843807 -0.12600844 -0.23023313 -0.4453082 0.2043482 0.13750562 0.18515149
-0.329859 -0.16771665 0.21527153 -0.14735219 0.49842212 -0.00065368915 -0.69569933 0.14978278
-0.40196815 0.116041146 -0.7056605 0.36806434 0.04905528 0.022199916 0.6143854 -0.0016325722
-0.07350893 0.16890286 -0.22243237 -0.13487369 0.10873514 0.1756313 -0.35861897 0.4012521
0.4716887 -0.6072891 -0.202754 -0.13453403 -0.097803935 -0.12548448 -0.33565548 -0.17420842
0.7728611 0.106687404 0.08475636 0.010085805 -0.11733213 -0.17934145 0.43850765 0.08839945
-0.23583937 -0.111633636 0.23472033 -0.32725596 0.30019167 0.43326965 -0.3460971 0.034351837
0.06363361 -0.07053029 -0.03771278 -0.2916204 -0.24705862 -0.08610609 0.15017414 -0.29357377
0.007018868 -0.13174585 0.27565166 -0.5638175 0.464232 0.3615092 0.025607593 0.05238614
0.1033716 0.23812081 -0.5431539 -0.3442054 0.27790222 0.09045624 -0.5085173 0.30938286
0.15473694 -0.072064504 0.34017342 -0.14632669 0.052512497 -0.20615385 -0.12270072 0.090950735
0.03694338 0.31742638 -0.4027063 0.30241334 -0.041186005 -0.480986 -0.17451885 -0.10264591
-0.22579536 0.17270799 -0.11451373 -0.44787407 -0.7594145 -0.8447243 -0.8751468 0.5321415
0.4292391 0.42658022 -0.24880111 -0.08606071 -0.25568077 0.015339003 -0.048352707 0.70144665
-0.103577375 0.029320762 1.0558022 0.32447857 0.08481073 0.23755093 -0.10323238 0.32305434
0.24939787 -0.25461975 -0.08117238 0.43658257 -0.31640863 0.020027898 -0.17395894 -0.010161321
0.3528072 0.030075047 -0.06905239 0.027131632 0.34762573 -0.36423665 -0.04549898 -0.18854043
-0.35206237 -0.62073445 -0.042170968 0.04935544 0.17120548 0.008209448 -0.2501949 0.20610587
0.20130792 -0.22614759 -0.084940985 -0.056413528 0.33175442 0.0013703095 0.016952405 -0.038361657
0.23056753 -0.39713812 0.20512618 0.22539945 -0.19184077 -0.14240703 -0.051169556 0.3606574
00000000: b751 403e 2acd 1e3f 06ee 1f3f f139 79be
00000010: 3e83 9bbc 7436 573e aebe 1c3e 3fb4 e43e
00000020: 4df8 16bd e9a1 c1bd 6852 b5be 333a 99bd
00000030: d823 8e3c 0a9d 1cbd 2ac1 253d 0143 f53d
00000040: 3fd8 8dbe acb8 c23d 0133 d1be 25cf 76bc
00000050: 3197 bdbe 62c8 e93e 6fc1 8a3e fa37 5f3f
00000060: b726 ea3e ab42 2abe cb56 bdbd 6f50 f13d
00000070: 41f6 0ebd 6297 10be ffa2 513e b324 e13d
00000080: 72ea bfbe 3c5c db3e 5b08 01be 3cc2 6bbe
00000090: 70ff e3be a840 513e 46ce 0c3e 5a98 3d3e
000000a0: 47e3 a8be eabd 2bbe 2470 5c3e 7ee3 16be
000000b0: 2f31 ff3e 565c 2bba 5a19 32bf a860 193e
000000c0: c5ce cdbe fba6 ed3d 2ba6 34bf ee72 bc3e
000000d0: 30ee 483d 99dc b53c 5d48 1d3f 08fc d5ba
000000e0: da8b 96bd dff4 2c3e 50c5 63be 541c 0abe
000000f0: 87b0 de3d b1d8 333e e89c b7be ea70 cd3e
00000100: 2e81 f13e 4c77 1bbf bf9e 4fbe 4ac3 09be
00000110: 6e4d c8bd 017f 00be 09db abbe b163 32be
00000120: 3ada 453f ed7e da3d be94 ad3d ef3e 253c
00000130: d44b f0bd 49a5 37be 1384 e03e c50a b53d
00000140: e07f 71be 2da0 e4bd 875a 703e 188e a7be
00000150: b9b2 993e 85d5 dd3e a433 b1be 83b4 0c3d
00000160: 5752 823d 2f72 90bd b778 1abd 454f 95be
00000170: effc 7cbe 6458 b0bd 40c7 193e 4d4f 96be
00000180: 88fe e53b 62e8 06be 3722 8d3e 5856 10bf
00000190: d1af ed3e bc17 b93e 04c7 d13c d992 563d
000001a0: 7db4 d33d f1d5 733e 220c 0bbf b13b b0be
000001b0: 3349 8e3e 1f41 b93d 312e 02bf 6e67 9e3e
000001c0: 5c73 1e3e 8e96 93bd 362b ae3e aad6 15be
000001d0: 5817 573d ff19 53be 844a fbbd 6144 ba3d
000001e0: f151 173d b685 a23e 852f cebe ecd5 9a3e
000001f0: a8b2 28bd cc43 f6be 12b5 32be 0538 d2bd
00000200: e636 67be 5dda 303e 2d86 eabd c04f e5be
00000210: fd68 42bf da3f 58bf 9f09 60bf 6d3a 083f
00000220: 3ac5 db3e b968 da3e b8c5 7ebe 9940 b0bd
00000230: 97e8 82be 7150 7b3c 7d0d 46bd 0292 333f
00000240: 6020 d4bd 1832 f03c 8724 873f 0e22 a63e
00000250: 3fb1 ad3d 8d40 733e 7f6b d3bd 6167 a53e
00000260: 2862 7f3e 855d 82be b43d a6bd c087 df3e
00000270: 5000 a2be 8c11 a43c 4b22 32be ab7b 26bc
00000280: 25a3 b43e f25f f63c 576b 8dbd 2843 de3c
00000290: 00fc b13e 3a7d babe 235d 3abd be10 41be
000002a0: 8541 b4be 74e8 1ebf 77bb 2cbd ee28 4a3d
000002b0: 7d50 2f3e ec80 063c 8c19 80be 6b0d 533e
000002c0: aa23 4e3e 3c93 67be 8af5 adbd df11 67bd
000002d0: b7db a93e f59b b33a c5df 8a3c 1d21 1dbd
000002e0: e519 6c3e b055 cbbe 990c 523e 1dcf 663e
000002f0: e871 44be 26d3 11be 2b97 51bd 16a8 b83e

actor.init_internal_node_embed.0.add_bias._bias f4 [32, 1]
0.031870972 0.016173588 -0.029840667 0.06143868 0.122928776 0.011207978 -0.033923052 0.021938818
0.028467473 0.07895615 0.024379808 0.018342113 0.039887056 0.023513475 0.0057831006 -0.006134088
0.012341083 0.010757727 0.0013528316 0.00037569384 -0.011833822 0.021442998 -0.0049788193 -0.0067903968
0.06515036 0.0154404985 -0.010999947 -0.006387228 0.0034377808 -0.002644606 0.0115907155 0.037058927
00000000: 238b 023d 797e 843c 6a74 f4bc 20a7 7b3d
00000010: 15c2 fb3d aba1 373c e6f2 0abd 09b9 b33c
00000020: 9e34 e93c c3b3 a13d 2ab8 c73c 3342 963c
00000030: 9c60 233d 559f c03c 2a80 bd3b 7600 c9bb
00000040: 4132 4a3c 2d41 303c 7f51 b13a c6f8 c439
00000050: a6e2 41bc 3aa9 af3c 5d25 a3bb fa81 debb
00000060: 8d6d 853d 25fa 7c3c 1f39 34bc f44b d1bb
00000070: 644c 613b 2051 2dbb fce6 3d3c 1acb 173d

actor.init_internal_node_embed.2.module.weight f4 [64, 32]
-0.23571064 0.038304076 -0.18671794 0.38207874 0.1491265 -0.010495874 0.08210789 0.08889241
-0.16576427 -0.29104996 -0.09536127 0.05009768 -0.22343698 -0.1764934 0.112119935 -0.17605968
0.3545011 -0.0946624 -0.014105668 0.21544807 -0.041022267 -0.20405482 -0.033600867 -0.104613036
0.10091369 0.29909092 0.19726236 0.0988256 -0.038446773 -0.21702547 -0.20115283 0.17886156
-0.3485552 -0.305575 -0.3597221 -0.3030416 0.050153486 0.11239545 0.0029747847 0.41621974
-0.017795172 -0.1238379 -0.048428085 -0.050150916 -0.29379666 0.08621807 -0.22444926 0.1628772
0.061309174 0.0064392476 -0.42331842 -0.15095602 0.26501954 0.098625235 0.14334919 -0.23929001
-0.32042906 0.07327299 -0.006688801 0.16348517 -0.22165324 0.21292157 0.33946815 0.013120574
0.76398903 -0.15243098 -0.07011327 0.4278303 -0.30713537 0.29932922 -0.26994556 -0.20998316
0.048360202 0.26127616 0.072273895 -0.26970705 0.75582606 -0.17144436 0.11304816 -0.012649249
0.22331703 0.04473034 0.06716084 0.21119705 -0.31864607 -0.05107167 -0.11856959 -0.2201004
0.71022004 -0.20504342 -0.20789091 -0.051265337 -0.05034231 0.028312478 0.23501754 0.067692235
-0.020912096 0.5073779 -0.07925996 -0.2500944 0.020642934 -0.13238095 -0.31349012 0.0855166
-0.2234387 -0.033873644 -0.0316978 0.43702266 0.043242723 -0.11193283 -0.14460267 -0.17336561
-0.07137862 -0.19171128 -0.15812688 -0.18459989 -0.26943678 0.024509545 0.22636098 0.086612895
-0.24565943 0.17980663 0.06712536 0.037550215 0.12743367 0.13497601 0.06136118 -0.09822659
-0.36760885 -0.008840851 0.12925498 -0.044564728 -0.16505764 -0.07484979 -0.12086338 -0.03357006
0.15761654 0.066637754 0.05715707 -0.23326853 -0.030928064 0.21022646 0.09000442 -0.011457016
0.103797294 0.07943038 -0.34918472 -0.16736524 -0.04466843 -0.036074586 0.5949923 -0.18821897
-0.48817298 0.03767874 0.1462771 0.010348327 0.25109053 -0.029732399 0.1333809 -0.02742215
-0.3295231 0.098712705 -0.09944552 0.10081582 0.5836234 0.09961307 0.29135975 -0.38714117
0.2773625 0.44866005 0.57485247 0.17063461 0.13139904 0.12976246 0.3465848 -0.0102940975
-0.21166518 0.009872004 0.050502956 -0.13041912 0.32207537 -0.04162736 -0.024649823 -0.05002294
-0.83823884 0.053205337 -0.2271142 -0.23341158 -0.045922622 0.013059687 0.35606912 -0.04264309
-0.08078125 -0.26809976 -0.18869036 -0.42605284 0.070866935 0.18816856 -0.05880946 -0.09631791
-0.19801842 0.5809425 -0.11365445 0.12718494 0.5369625 0.044115733 0.14466543 -0.049181424
-0.2370659 -0.2485207 0.652354 0.18973927 -0.1648419 0.11818539 -0.286947 0.0084075695
-0.8806832 -0.2550554 -6.180885e-05 0.044614263 0.08230397 0.24400397 -0.051195443 -0.2235968
0.82972795 0.2460617 0.26070932 0.35396805 -0.19618842 0.16018534 0.28471303 0.10714669
-0.37380233 -0.37212726 -0.028403318 -0.19750167 0.5539222 -0.2986694 0.007332584 0.045779485
0.021944027 -0.04157665 0.27414376 0.004190695 -0.026610434 -0.13078092 0.050863456 0.021827016
0.7434118 -0.0061715427 0.23910448 -0.03559078 0.10453707 0.30937997 -0.44868857 -0.17494401
00000000: 215e 71be bce4 1c3d fd32 3fbe d39f c33e
00000010: 9eb4 183e e3f6 2bbc 2e28 a83d 390d b63d
00000020: 1cbe 29be 8004 95be c54c c3bd 3a33 4d3d
00000030: aacc 64be b0ba 34be 239f e53d fd48 34be
00000040: 2b81 b53e 5cde c1bd 761b 67bc 6b9e 5c3e
00000050: f706 28bd bff3 50be 10a1 09bd 5c3f d6bd
00000060: d6ab ce3d 7222 993e 25ff 493e 1465 ca3d
00000070: 5d7a 1dbd ed3b 5ebe 02fb 4dbe 7c27 373e
00000080: d475 b2be 5474 9cbe 7f2d b8be 4528 9bbe
00000090: be6d 4d3d 962f e63d 9bf4 423b c11a d53e
000000a0: 2ec7 91bc ba9e fdbd 875c 46bd 0c6b 4dbd
000000b0: 846c 96be 1993 b03d 07d6 65be 48c9 263e
000000c0: 541f 7b3d 5300 d33b 31bd d8be 3794 1abe
000000d0: a4b0 873e 07fc c93d 21ca 123e 7108 75be
000000e0: 470f a4be 2610 963d bb2d dbbb a868 273e
000000f0: 11f9 62be 1d08 5a3e c5ce ad3e adf7 563c
00000100: c994 433f de16 1cbe 8c97 8fbd 930c db3e
00000110: d940 9dbe ae41 993e 4e36 8abe d305 57be
00000120: 5915 463d fdc5 853e 5604 943d 0b17 8abe
00000130: d17d 413f 1c8f 2fbe cb85 e73d cc3e 4fbc
00000140: 38ad 643e 2937 373d 9f8b 893d 0a44 583e
00000150: 9425 a3be 8730 51bd 9dd4 f2bd 0062 61be
00000160: fbd0 353f e7f6 51be 5be1 54be 9afb 51bd
00000170: bd33 4ebd 92ef e73c 70a8 703e 3aa2 8a3d
00000180: d84f abbc 85e3 013f 0c53 a2bd 600c 80be
00000190: 5f1b a93c df8e 07be c781 a0be 5423 af3d
000001a0: 1dcd 64be 17bf 0abd 8dd5 01bd 6fc1 df3e
000001b0: 481f 313d 0a3d e5bd b912 14be c186 31be
000001c0: f42e 92bd f64f 44be 03ec 21be c107 3dbe
000001d0: 9ef3 89be 3ec8 c83c 2ccb 673e 1a62 b13d
000001e0: 258e 7bbe 3b1f 383e 0579 893d 41ce 193d
000001f0: f97d 023e 2737 0a3e dc55 7b3d 062b c9bd
00000200: 3a37 bcbe 37d9 10bc 6b5b 043e 8189 36bd
00000210: df04 29be d94a 99bd 3887 f7bd c280 09bd
00000220: 3b66 213e 6079 883d 881d 6a3d f2dd 6ebe
00000230: da5c fdbc 9b45 573e 3d54 b83d 35b6 3bbc
00000240: ad93 d43d 65ac a23d 57c8 b2be cb61 2bbe
00000250: 3ef6 36bd f2c2 13bd 6a51 183f 79bc 40be
00000260: cff1 f9be 0655 1a3d aac9 153e 088c 293c
00000270: f08e 803e 5c91 f3bc 0195 083e 6ba4 e0bc
00000280: 40b7 a8be e329 ca3d 18aa cbbd 8678 ce3d
00000290: 5868 153f f001 cc3d 1b2d 953e 5e37 c6be
000002a0: 7502 8e3e c5b6 e53e 8829 133f d7ba 2e3e
000002b0: 788d 063e 73e0 043e 9073 b13e 93a8 28bc
000002c0: c2be 58be 30be 213c 30dc 4e3d 978c 05be
000002d0: 10e7 a43e 7381 2abd 6dee c9bc dbe4 4cbd
000002e0: d296 56bf d7ed 593d a090 68be 7203 6fbe
000002f0: 5c19 3cbd 4cf8 553c b14e b63e 85aa 2ebd
00000300: a470 a5bd 5f44 89be 0c38 41be 9923 dabe
00000310: af22 913d 42af 403e 30e2 70bd 5342 c5bd
00000320: 57c5 4abe a6b8 143f aac3 e8bd c53c 023e
00000330: 6076 093f b3b2 343d 2d23 143e 7672 49bd
00000340: 67c1 72be 367c 7ebe ac00 273f 034b 423e
00000350: 51cc 28be 2f0b f23d b8ea 92be e7bf 093c
00000360: 7474 61bf 9f96 82be 609f 81b8 72bd 363d
00000370: fc8e a83d 2ddc 793e 50b2 51bd 8ff6 64be
00000380: 0d69 543f 99f7 7b3e b17b 853e 4d3b b53e
00000390: 9ee5 48be a007 243e e8c5 913e b96f db3d
000003a0: 0563 bfbe 7787 bebe 13ae e8bc e13d 4abe
000003b0: d8cd 0d3f 32eb 98be 2c46 f03b 4583 3b3d
000003c0: f6c3 b33c 474c 2abd 925c 8c3e 1952 893b
000003d0: 20fe d9bc 6feb 05be 3356 503d 92ce b23c
000003e0: 3c50 3e3f a73a cabb ced7 743e a3c7 11bd
000003f0: 8817 d63d 0d67 9e3e 82ba e5be 8624 33be

actor.init_internal_node_embed.2.add_bias._bias f4 [64, 1]
-0.008835148 -0.057567395 0.089124136 -0.046485335 -0.044045553 0.040629894 -0.053736813 0.08987211
-0.0012585173 -0.061668582 -0.020531613 -0.02793257 -0.13418935 -0.049234197 -0.024993457 0.026957268
-0.07215339 -0.05017802 -0.14372294 0.011344727 -0.06960041 -0.04219454 0.020074917 0.09047064
-0.027791774 -0.0044685043 -0.020185055 0.0008039905 0.019218298 -0.100430846 0.07302351 -0.13267882
0.093940414 0.079660505 -0.030739322 -0.05256429 0.055450007 -0.037397962 0.022441639 0.064404786
-0.051422987 -0.05252219 0.24040624 -0.014838294 -0.076441735 -0.024961838 0.036012303 0.049743842
0.060400665 -0.12959619 0.047598522 0.07225619 0.07190538 -0.112176664 -0.041640103 0.14087702
0.13493386 0.007485353 -0.0070161223 -0.0007090779 -0.0376525 0.012213749 -0.051570773 0.081389196
00000000: 4cc1 10bc cacb 6bbd b786 b63d 6867 3ebd
00000010: 1c69 34bd 886b 263d 221b 5cbd de0e b83d
00000020: d5f4 a4ba 3298 7cbd ea31 a8bc d8d2 e4bc
00000030: ef68 09be cca9 49bd 14bf ccbc 7dd5 dc3c
00000040: 28c5 93bd 7887 4dbd 1b2c 13be 3cdf 393c
00000050: a98a 8ebd 2fd4 2cbd 2774 a43c ac48 b93d
00000060: 93ab e3bc 886c 92bb 215b a5bc e4c2 523a
00000070: b16f 9d3c b0ae cdbd 5a8d 953d f5dc 07be
00000080: d563 c03d 0c25 a33d 08d1 fbbc a74d 57bd
00000090: 8c1f 633d 9b2e 19bd 87d7 b73c a8e6 833d
000000a0: e9a0 52bd 8221 57bd 0e2d 763e 511c 73bc
000000b0: 7c8d 9cbd c57c ccbc a381 133d 33c0 4b3d
000000c0: b066 773d ddb4 04be abf6 423d 0efb 933d
000000d0: 2143 933d e1bc e5bd d08e 2abd 1142 103e
000000e0: 1a2c 0a3e b147 f53b 80e7 e5bb 6ae1 39ba
000000f0: 8239 1abd 2d1c 483c e03b 53bd 61af a63d

actor.init_leaf_node_embed.0.module.weight f4 [32, 8]
-0.18011935 -0.52137804 0.34599432 0.3737538 0.22605099 0.35108072 -0.33312863 -0.31008336
-0.4914783 -0.15994479 0.26840985 0.044705372 0.18639514 -0.23208116 0.24468073 -0.052738737
0.0041079 0.080947936 -0.28355455 -0.042877175 -0.18644242 -0.15970251 0.07910423 -0.09638541
-0.18851608 0.1945062 0.4445692 -0.23825192 0.099835664 0.21293683 -0.2509466 0.012306417
0.043859236 -0.5886676 0.37397838 -0.15964659 -0.1405615 0.1001279 -0.16618928 0.14231528
-0.38663375 0.018826643 -0.31941077 0.16912997 -0.055857494 0.119608425 -0.16772553 0.01076374
-0.33765066 0.13487302 -0.10960354 0.13124725 -0.034451094 -0.11720133 0.045337312 0.1632407
0.31265855 0.19988263 0.38981298 -0.09456298 -0.18892825 -0.076591715 -0.6596643 -0.08210846
-0.053678375 0.097286455 0.19721806 -0.07511398 -0.028733065 0.25934666 0.052535653 0.043545164
-0.62563807 -0.40961042 0.042894077 0.2747373 0.51564974 -0.3283079 -0.0016431181 -0.5170856
-0.3337085 0.15504271 -0.4691 -0.18562192 0.3826247 0.17390065 -0.22961943 -0.00048707204
0.06620359 -0.08853888 0.30206546 -0.3139174 -0.07510902 -0.3642855 0.41844878 0.013218918
-0.1470633 -0.09120559 0.24805151 0.5635663 0.2041322 0.23292114 0.3395942 0.43400663
0.08888789 0.30574855 0.1810563 -0.048984565 -0.42981893 -0.060788654 -0.049391028 -0.22407882
0.45193094 0.49431646 0.28655508 0.310071 -0.01754853 -0.08078446 0.13507128 0.15418276
0.009299518 -0.18559013 -0.0702746 0.2668233 -0.15837961 0.24207348 0.04243808 0.17351787
0.21766266 0.32331425 -0.082184985 -0.5211583 0.019945743 -0.33944336 -0.22219072 0.1698863
-0.30005077 0.27763 -0.32505396 0.4164581 -0.18058872 -0.08304535 -0.21087825 0.22162965
0.07642189 -0.097115055 -0.8083307 -0.11451745 0.28684628 0.33776626 0.0932948 -0.15949143
-0.21201868 -0.12859672 -0.51890165 0.05447273 -0.10817794 -0.044033945 0.24926195 -0.077825144
0.16088519 -0.044659823 0.31752884 0.33842203 0.3587709 0.032704607 0.29384202 -0.07648597
-0.3188862 0.23230295 0.16440965 -0.12872124 0.29898956 -0.31400737 -0.041790783 0.19675644
0.18175498 -0.23934501 -0.23683394 -0.35203487 0.257341 0.04115942 0.4413839 0.2295992
-0.09715364 0.4918559 0.1746543 -0.48943102 -0.014518255 0.65221804 0.14049405 0.39500478
-0.12013521 -0.29115823 -0.09467167 -0.09865941 0.21267067 -0.16144054 -0.07560228 0.587155
-0.00836064 -0.2590011 -0.40793 0.274463 -0.19728787 -0.14409745 -0.0049491664 0.3635697
-0.28097773 0.16726589 0.16202433 -0.21625814 -0.4086852 -0.10033095 0.40633944 -0.19147755
-0.24386059 0.23213188 0.32487643 0.26654586 -0.0036775025 0.30249992 0.3053924 -0.19126923
0.022901367 -0.022246646 0.34643155 -0.15973766 -0.112772755 -0.5122143 -0.24044943 -0.09027259
0.4303718 0.3590254 -0.3370113 0.35321304 0.5997174 0.047338594 0.16093998 -0.49865252
0.08273278 -0.344009 -0.15677075 -0.3967342 -0.2724683 0.44832745 0.07972642 -0.25044602
-0.45431194 0.0259416 -0.27512923 -0.06635607 -0.31579387 -0.14618534 0.27722487 -0.20802191
00000000: 3571 38be 0879 05bf 2b26 b13e a85c bf3e
00000010: e979 673e dac0 b33e d68f aabe 3fc3 9ebe
00000020: 0ba3 fbbe 91c8 23be 046d 893e fb1c 373d
00000030: 5ede 3e3e afa6 6dbe 968d 7a3e 9304 58bd
00000040: 909b 863b 08c8 a53d 102e 91be fa9f 2fbd
00000050: c3ea 3ebe 0e89 23be 6601 a23d b765 c5bd
00000060: 5c0a 41be a22c 473e 939e e33e 50f8 73be
00000070: a476 cc3d 1d0c 5a3e 137c 80be dba0 493c
00000080: bea5 333d ebb2 16bf 187a bf3e 657a 23be
00000090: 5bef 0fbe db0f cd3d 862d 2abe 19bb 113e
000000a0: dcf4 c5be 553a 9a3c cf89 a3be 6830 2d3e
000000b0: d4ca 64bd 43f5 f43d 3ec0 2bbe 665a 303c
000000c0: 8ce0 acbe 271c 0a3e d277 e0bd ae65 063e
000000d0: 971c 0dbd 4007 f0bd 9eb3 393d 9228 273e
000000e0: c814 a03e 08ae 4c3e 9195 c73e 3caa c1bd
000000f0: 6876 41be 1edc 9cbd c2df 28bf 7b28 a8bd
00000100: dbdd 5bbd 1f3e c73d 88f3 493e 5cd5 99bd
00000110: 9b61 ebbc 16c9 843e a02f 573d 6a5c 323d
00000120: d129 20bf 75b8 d1be b3b1 2f3d 5eaa 8c3e
00000130: 9f01 043f f917 a8be e55d d7ba b95f 04bf
00000140: d7db aabe 84c3 1e3e e02d f0be ac13 3ebe
00000150: 62e7 c33e 0313 323e 5b21 6bbe b45d ffb9
00000160: bf95 873d df53 b5bd 53a8 9a3e c8b9 a0be
00000170: c2d2 99bd a183 babe eb3e d63e 2994 583c
00000180: c397 16be ffc9 babd 3701 7e3e e245 103f
00000190: 0808 513e e182 6e3e 4adf ad3e 1e36 de3e
000001a0: db0a b63d 138b 9c3e d366 393e 0aa4 48bd
000001b0: 3a11 dcbe 86fd 78bd 3f4e 4abd eb74 65be
000001c0: 7e63 e73e 0c17 fd3e 59b7 923e a0c1 9e3e
000001d0: efc1 8fbc 5372 a5bd 2050 0a3e 16e2 1d3e
000001e0: 015d 183c 570b 3ebe 21ec 8fbd 109d 883e
000001f0: 442e 22be 1ce2 773e 8dd3 2d3d abae 313e
00000200: f6e2 5e3e 7289 a53e 9a50 a8bd a16a 05bf
00000210: 4165 a33c 85cb adbe f785 63be adf6 2d3e
00000220: 41a0 99be 8525 8e3e 796d a6be ff39 d53e
00000230: 40ec 38be ae13 aabd 78f0 57be e2f2 623e
00000240: 1483 9c3d 42e4 c6bd c3ee 4ebf 2088 eabd
00000250: 84dd 923e b3ef ac3e 5811 bf3d b951 23be
00000260: 6d1b 59be dcae 03be bdd6 04bf cc1e 5f3d
00000270: 658c ddbd f05c 34bd 863e 7f3e ca62 9fbd
00000280: 16bf 243e 38ed 36bd 2493 a23e a745 ad3e
00000290: d2b0 b73e 44f5 053d 7672 963e ada4 9cbd
000002a0: 0d45 a3be d3e0 6d3e 015b 283e 80cf 03be
000002b0: 2915 993e 93c5 a0be d02c 2bbd 857a 493e
000002c0: fa1d 3a3e dc16 75be 9984 72be ea3d b4be
000002d0: 33c2 833e c896 283d 12fd e13e 0d1c 6b3e
000002e0: 7df8 c6bd 89d4 fb3e 94d8 323e b496 fabe
000002f0: fadd 6dbc c3f7 263f acdd 0f3e 113e ca3e
00000300: 7309 f6bd b112 95be 38e3 c1bd f20d cabd
00000310: 57c6 593e ab50 25be 5ed5 9abd ca4f 163f
00000320: 11fb 08bc cb9b 84be 33dc d0be 6a86 8c3e
00000330: d505 4abe 488e 13be 9e2c a2bb cf25 ba3e
00000340: 50dc 8fbe c047 2b3e b5e9 253e c672 5dbe
00000350: 303f d1be 507a cdbd b90b d03e b112 44be
00000360: 97b6 79be fbb3 6d3e 3456 a63e b378 883e
00000370: 4102 71bb 45e1 9a3e 655c 9c3e 15dc 43be
00000380: a69b bb3c 993e b6bc 7a5f b13e 4592 23be
00000390: 67f5 e6bd 7a20 03bf 6038 76be d6e0 b8bd
000003a0: b159 dc3e 2dd2 b73e bf8c acbe 57d8 b43e
000003b0: 1487 193f 1de6 413d 73cd 243e 624f ffbe
000003c0: ce6f a93d f321 b0be 8388 20be bf20 cbbe
000003d0: f780 8bbe 2d8b e53e 9b47 a33d 763a 80be
000003e0: 939b e8be 7a83 d43c bddd 8cbe b1e5 87bd
000003f0: bcaf a1be 9cb1 15be 6bf0 8d3e b203 55be

actor.init_leaf_node_embed.0.add_bias._bias f4 [32, 1]
0.17032923 -0.016461896 0.00095489377 0.08761011 0.01221971 -0.036040295 0.021894138 0.027354319
-0.13442408 0.008158435 -0.045577206 -0.17660978 0.2878922 -0.017036105 -0.030136503 -0.023530621
-0.0036848711 -0.039859053 -0.08497081 0.15626542 -0.04802201 -0.045074385 0.03486179 -0.009744188
0.05251333 -0.06417416 -0.042522512 0.024565883 -0.11110169 0.29599163 0.02424855 0.0027600036
00000000: c96a 2e3e 19db 86bc d651 7a3a ee6c b33d
00000010: 2e35 483c fd9e 13bd 565b b33c 2a16 e03c
00000020: 77a6 09be f5aa 053c 2aaf 3abd 32d9 34be
00000030: 9b66 933e 4d8f 8bbc d4e0 f6bc 4ac3 c0bc
00000040: e17d 71bb 3f43 23bd 2d05 aebd 0b04 203e
00000050: bab2 44bd eb9f 38bd 3ccb 0e3d 16a6 1fbc
00000060: 3818 573d be6d 83bd 162c 2ebd 643e c93c
00000070: 4889 e3bd 378c 973e e5a4 c63c 2de1 343b

actor.init_leaf_node_embed.2.module.weight f4 [64, 32]
-0.12673584 -0.32003036 -0.27587995 -0.13919607 0.17568131 0.023318209 0.07970254 0.14110033
0.19606332 0.08572313 0.019268943 -0.26897156 -0.35807416 0.031979814 -0.29964572 -0.11268571
0.21674491 -0.046187565 -0.1586816 -0.11125779 0.08644652 -0.2854225 0.19490695 0.096367076
0.09056579 -0.38916734 -0.08609958 0.07064804 0.14182475 -0.28190136 -0.11549644 -0.01165233
0.08321457 0.15744278 0.057185467 0.10456934 0.040747 0.05721604 0.13366842 -0.17829031
-0.13656454 -0.2417649 0.43610594 -0.021391366 -0.05774523 0.10401005 0.19578272 -0.27319682
-0.10487602 -0.13834943 -0.14355965 -0.2133515 0.119660944 -0.08552556 0.071026154 -0.14347555
-0.36742926 -0.14278768 -0.011355491 0.24256165 -0.26267007 -0.12745206 -0.041738473 0.390941
0.25643128 0.008496381 -0.1525311 -0.09695945 0.13037968 -0.04607091 -0.14050244 0.024458626
-0.45438412 -0.09219539 -0.43146178 -0.16960393 -0.2847198 0.048902467 0.23451833 -0.08219984
-0.087994434 0.19105466 -0.25917777 -0.09821579 -0.08199544 -0.059084535 0.03151034 -0.1006462
-0.057661247 -0.03341168 -0.09332381 -0.1904602 -0.20312902 -0.0081073465 0.21386348 0.1196862
0.011243206 0.21193929 0.17912143 0.09621958 0.11358346 0.057246845 -0.052152112 0.10634457
0.042167667 -0.14104989 -0.18475075 0.24557249 -0.25701445 0.03404291 -0.0013585745 0.16947816
-0.10609435 0.3748436 -0.23014419 -0.015590298 0.10668221 0.17228843 -0.20805879 0.13510275
0.044601616 0.07094193 0.16529006 0.14663653 0.29615456 0.045240883 0.19517012 0.17449492
-0.07069071 -0.037951987 0.06306772 0.09677733 0.26508012 -0.45240068 0.23841366 -0.09053337
0.052378125 0.122888386 -0.09957855 -0.3602198 -0.08483676 0.24223882 0.14188306 -0.111302264
-0.43095165 -0.24314916 0.25203535 0.09839768 -0.28407067 0.1359026 -0.047516037 0.0032028914
-0.12776105 0.017953703 -0.15135199 0.14697425 0.2461813 0.12930165 -0.029307608 -0.1850374
0.053725153 -0.010866468 -0.18334796 0.09288352 -0.1707692 -0.058440242 0.36581206 -0.3780404
-0.05548845 0.09511573 -0.20553908 0.2895674 0.5444328 0.032672364 0.13257048 -0.1733958
0.13571447 0.076735266 -0.1671084 -0.14013062 0.11604112 -0.1630243 0.013015124 0.44284067
0.08613793 -0.13608925 -0.076715074 0.07240609 -0.17139691 0.29744515 0.2683213 -0.10313764
0.32572475 -0.30958536 -0.055567816 0.06745267 -0.14883253 -0.13340135 0.15759324 -0.07752384
0.17095491 -0.027306497 0.21242599 0.17821716 0.20683923 0.12597232 -0.24959293 -0.115679815
-0.44444343 0.26661217 -0.03483993 0.088699326 0.051339235 0.028853906 -0.08248236 0.018812347
0.034360465 -0.084237576 -0.074294575 0.13516417 -0.14290197 0.16963318 -0.09700778 -0.07452262
-0.15698163 0.033080947 -0.12259583 -0.3267969 0.12638617 -0.08093859 -0.2131778 -0.3268347
0.14064784 -0.12492378 0.2541013 0.0103553925 0.19509356 0.08323841 -0.11685268 0.2643724
-0.22273561 -0.030888123 -0.09664234 -0.09811805 -0.013328078 0.33816844 0.08867363 0.06231138
-0.06183389 0.16565853 0.18538913 0.1844196 -0.48949626 0.3261338 0.3315868 -0.24054813
00000000: 0ac7 01be 05db a3be 2340 8dbe 6a89 0ebe
00000010: cde5 333e d405 bf3c 163b a33d 9b7c 103e
00000020: d3c4 483e 9c8f af3d e7d9 9d3c a4b6 89be
00000030: 7f55 b7be 44fd 023d 2a6b 99be c4c7 e6bd
00000040: 61f2 5d3e 2c2f 3dbd 6e7d 22be 20db e3bd
00000050: e00a b13d e622 92be b095 473e 1a5c c53d
00000060: 8f7a b93d f140 c7be fa54 b0bd ebaf 903d
00000070: 823a 113e 6055 90be 6689 ecbd 6ae9 3ebc
00000080: 676c aa3d ae38 213e 4f3b 6a3d 7328 d63d
00000090: 54e6 263d 5e5b 6a3d 60e0 083e bc91 36be
000000a0: 93d7 0bbe 3891 77be 4749 df3e f23c afbc
000000b0: 4386 6cbd 3903 d53d 447b 483e 74e0 8bbe
000000c0: 3dc9 d6bd 79ab 0dbe 4d01 13be d178 5abe
000000d0: cc10 f53d 0628 afbd 2976 913d 41eb 12be
000000e0: b01f bcbe ef36 12be 620c 3abc 1562 783e
000000f0: b17c 86be cb82 02be f6f5 2abd 6b29 c83e
00000100: f64a 833e 6834 0b3c 1d31 1cbe ad92 c6bd
00000110: 4082 053e dab4 3cbd dfdf 0fbe 755d c83c
00000120: 09a5 e8be f0d0 bcbd 8fe8 dcbe a7ac 2dbe
00000130: cbc6 91be f44d 483d 9325 703e 6458 a8bd
00000140: 6d36 b4bd d5a3 433e f3b2 84be 5c25 c9bd
00000150: 3aed a7bd a002 72bd fc10 013d 981f cebd
00000160: 332e 6cbd b0da 08bd 8e20 bfbd 0008 43be
00000170: 0e01 50be add4 04bc 07ff 5a3e 0a1e f53d
00000180: 6d35 383c 9d06 593e 9c6b 373e c50e c53d
00000190: 729e e83d ab7b 6a3d 749d 55bd 2fcb d93d
000001a0: 01b8 2c3d 626f 10be 4d2f 3dbe 5b77 7b3e
000001b0: 6697 83be 9470 0b3d 3212 b2ba af8b 2d3e
000001c0: ff47 d9bd 80eb bf3e ebaa 6bbe 736e 7fbc
000001d0: 347c da3d 616c 303e 5d0d 55be 6058 0a3e
000001e0: 2fb0 363d 014a 913d cc41 293e e327 163e
000001f0: 92a1 973e 814e 393d adda 473e ccae 323e
00000200: 4ac6 90bd 8b73 1bbd a629 813d 3133 c63d
00000210: 95b8 873e 10a1 e7be b622 743e 8f69 b9bd
00000220: 728a 563d e8ac fb3d d7ef cbbd bb6e b8be
00000230: e5be adbd 740d 783e cb49 113e 71f2 e3bd
00000240: b2a5 dcbe 18fc 78be c70a 813e b984 c93d
00000250: b671 91be 0d2a 0b3e 2da0 42bd 9ae7 513b
00000260: cbd3 02be a513 933c 04fc 1abe 6b80 163e
00000270: f316 7c3e a767 043e 8216 f0bc 727a 3dbe
00000280: e80e 5c3d 4509 32bc 91bf 3bbe b739 be3d
00000290: 1fde 2ebe 095f 6fbd b84b bb3e 838e c1be
000002a0: db47 63bd 09cc c23d d678 52be 2e42 943e
000002b0: f35f 0b3f 75d3 053d 8ec0 073e ab8e 31be
000002c0: bcf8 0a3e 6127 9d3d 771e 2bbe 677e 0fbe
000002d0: f7a6 ed3d d8ef 26be 633d 553c 03bc e23e
000002e0: 1569 b03d fb5a 0bbe cb1c 9dbd a549 943d
000002f0: ac82 2fbe bb4a 983e 6961 893e d439 d3bd
00000300: 65c5 a63e f981 9ebe 149b 63bd a024 8a3d
00000310: 8e67 18be 5d9a 08be 1f60 213e d2c4 9ebd
00000320: ce0e 2f3e e0b1 dfbc 3386 593e 8f7e 363e
00000330: aacd 533e e3fe 003e 4a95 7fbe 8ae9 ecbd
00000340: 178e e3be 6481 883e 50b4 0ebd fea7 b53d
00000350: 1749 523d 075f ec3c 83ec a8bd 5a1c 9a3c
00000360: 8fbd 0c3d c084 acbd c127 98bd 7a68 0a3e
00000370: e554 12be 52b4 2d3e 04ac c6bd 519f 98bd
00000380: cbbf 20be e37f 073d 8613 fbbd ec51 a7be
00000390: 606b 013e 22c3 a5bd 484b 5abe e156 a7be
000003a0: fd05 103e 0ad8 ffbd 9119 823e aaa9 293c
000003b0: 9bc6 473e e678 aa3d 7550 efbd d25b 873e
000003c0: ce14 64be 1709 fdbc 6bec c5bd 1ef2 c8bd
000003d0: 035e 5abc 6a24 ad3e 859a b53d 383a 7f3d
000003e0: 8845 7dbd 64a2 293e a6d6 3d3e 7ed8 3c3e
000003f0: 419f fabe 02fb a63e bfc5 a93e 4052 76be

actor.init_leaf_node_embed.2.add_bias._bias f4 [64, 1]
-0.34787464 0.1292937 -0.03745852 -0.011538334 -0.012434122 0.32243007 0.1895255 0.16276468
0.42370802 -0.12744655 -0.11054583 0.09666068 -0.038904183 0.1020285 -0.4023121 -0.11289159
-0.105090946 0.14603218 0.031891655 0.12848407 -0.27793905 -0.02607561 0.053382527 0.18848087
-0.14058003 -0.0007458124 0.0061305747 -0.029374566 -0.17079194 0.27099353 0.08450044 0.037065938
0.1363494 -0.28123358 -0.14866747 0.04254737 0.086233124 0.31882584 0.38537398 0.41588372
0.16626023 0.28226832 -0.08455445 0.10861901 -0.06253076 -0.269284 -0.32786983 -0.19672956
0.37713736 -0.08094611 -0.1434853 0.4270883 -0.021437287 0.17286131 -0.26388952 -0.17836055
0.17551953 0.34879434 0.16451979 0.15451728 0.1362434 0.42078578 -0.20239072 -0.1363189
00000000: a01c b2be 9165 043e 1b6e 19bd 480b 3dbc
00000010: 7db8 4bbc 8e15 a53e f912 423e c9ab 263e
00000020: 42f0 d83e 5981 02be da65 e2bd 09f6 c53d
00000030: fe59 1fbd 51f4 d03d dafb cdbe b533 e7bd
00000040: ec39 d7bd 7689 153e d3a0 023d 5491 033e
00000050: 074e 8ebe 859c d5bc a3a7 5a3d 2101 413e
00000060: 36f4 0fbe 9f82 43ba fde2 c83b eea2 f0bc
00000070: 15e4 2ebe aabf 8a3e 910e ad3d 74d2 173d
00000080: 2d9f 0b3e d9fd 8fbe 493c 18be 2746 2e3d
00000090: fe9a b03d 243d a33e bd4f c53e b6ee d43e
000000a0: 1f40 2a3e 7985 903e e22a adbd a573 de3d
000000b0: 2110 80bd 98df 89be 8ede a7be 7973 49be
000000c0: 2618 c13e 13c7 a5bd cfed 12be 51ab da3e
000000d0: 409d afbc 8e02 313e 871c 87be 26a4 36be
000000e0: 64bb 333e 2c95 b23e e077 283e c739 1e3e
000000f0: 6483 0b3e 3c71 d73e 833f 4fbe 2f97 0bbe

actor.init_next_embed.0.module.weight f4 [32, 6]
-0.2664461 0.16632393 -0.08350397 0.46381637 0.27392024 -0.05071649 0.2093318 0.3247803
0.008345852 0.16264233 0.08867721 -0.23820022 0.09387005 -0.39020184 0.24000815 -0.80194366
0.10849972 0.17482805 0.6803078 0.5689708 0.11215101 -0.1776921 0.25145397 0.22406894
-0.32608154 -0.060073663 -0.19316244 0.183112 0.037403286 -0.17142683 -0.17663218 0.11519897
0.45863524 -0.021138996 -0.36354437 -0.120201826 -0.19547908 -0.22702844 -0.02351719 -0.5087694
0.07262344 0.52685195 -0.19747713 -0.36569485 0.2535297 0.097349584 -0.12313463 0.05009778
-0.13480994 -0.25507063 0.3433237 -0.2287568 0.08546024 -0.008314928 -0.35880294 -0.15734398
-0.1450801 0.453775 -0.17049643 -0.06022939 0.28118455 -0.04757379 -0.14930771 0.030607954
-0.25939465 -0.09988235 -0.1761925 -0.18976979 -0.291293 -0.3382908 0.033353314 0.06883611
0.29935655 -0.6588021 -0.04362375 -0.10512095 -0.10615933 -0.22340454 0.16928326 -0.2599807
0.30952892 0.33681554 -0.025538815 0.029974973 -0.13200676 0.053219363 -0.10582405 -0.30541003
0.07348676 0.14807858 0.009923694 0.06874418 0.23305018 -0.31314307 -0.032688692 -0.24893221
-0.041655105 -0.14450301 -0.12781705 -0.4787552 0.25168172 0.12550762 -0.23854111 0.4543361
0.49786273 0.055539954 0.09607089 0.54050636 -0.18326564 -0.014539119 -0.34739035 -0.07527596
-0.14093596 -0.44917718 0.081412464 -0.22410655 0.1941824 0.3059346 -0.11821529 -0.14802274
0.21728525 0.3647977 0.16035423 -1.2167835 -0.27201846 0.37874427 0.39761725 -0.17730126
0.08304779 0.43674925 0.3353293 0.53891355 -0.22629309 0.027656864 -0.091149665 0.029310564
-0.40007368 -0.019645264 -0.09053525 -0.18967167 -0.13105133 -0.11448228 -0.07872176 -0.03562254
-0.22639215 -0.07323272 0.3375078 -0.33393288 0.5346447 -0.358743 -0.13408928 -0.051775616
0.035502844 -0.11914598 -0.48589057 0.37193334 -0.38805905 -0.17052647 0.4276855 0.43810076
0.0031331948 -0.29771245 0.30835944 -0.097972795 0.13798693 -0.31696123 0.07844627 -0.14970481
-0.11325151 0.1054592 -0.5193122 -0.17556393 0.037313838 0.06384921 0.17970991 -0.04259821
0.3300896 -0.22183761 -0.15399425 -0.08621477 -0.07712117 -0.022393305 -0.0009892428 -0.12617238
-0.5313701 0.6078245 0.0690098 -0.110009655 -0.15602608 -0.0895651 0.021767493 -0.15471083
00000000: a06b 88be d250 2a3e 2104 abbd 5779 ed3e
00000010: 463f 8c3e 18bc 4fbd 135b 563e 9a49 a63e
00000020: 0abd 083c b68b 263e 669c b53d c2ea 73be
00000030: f13e c03d 89c8 c7be b2c4 753e 2e4c 4dbf
00000040: 1a35 de3d 2006 333e a728 2e3f 12a8 113f
00000050: 6eaf e53d ebf4 35be 93be 803e 5472 653e
00000060: 29f4 a6be cd0f 76bd 60cc 45be b681 3b3e
00000070: 3034 193d 848a 2fbe 11df 34be 70ed eb3d
00000080: 3dd2 ea3e b02b adbc 7d22 babe 602c f6bd
00000090: ab2b 48be 257a 68be 1fa7 c0bc b63e 02bf
000000a0: 99bb 943d c5df 063f 7237 4abe 5b3c bbbe
000000b0: a5ce 813e 385f c73d 022e fcbd 5433 4d3d
000000c0: 9e0b 0abe 9e98 82be 20c8 af3e 393f 6abe
000000d0: c705 af3d 563b 08bc 05b5 b7be c81e 21be
000000e0: e18f 14be 3255 e83e 9e96 2ebe 18b3 76bd
000000f0: 6cf7 8f3e bcdc 42bd 1fe4 18be 88bd fa3c
00000100: 60cf 84be 1e8f ccbd cf6b 34be 0353 42be
00000110: 5b24 95be 7434 adbe 7c9d 083d f2f9 8c3d
00000120: 4345 993e 41a7 28bf d1ae 32bd a749 d7bd
00000130: 106a d9bd 29c4 64be 9758 2d3e 311c 85be
00000140: 937a 9e3e 1673 ac3e c736 d1bc 138e f53c
00000150: c82c 07be 8cfc 593d 48ba d8bd b45e 9cbe
00000160: 3a80 963d e9a1 173e fd96 223c c0c9 8c3d
00000170: b5a4 6e3e 4a54 a0be 94e4 05bd 16e8 7ebe
00000180: 8b9e 2abd 99f8 13be 79e2 02be 671f f5be
00000190: 6ddc 803e 1285 003e 1f44 74be be9e e83e
000001a0: dde7 fe3e dd7d 633d d1c0 c43d a05e 0a3f
000001b0: fda9 3bbe 7c35 6ebc 26dd b1be 482a 9abd
000001c0: 8451 10be 8dfa e5be 94bb a63d 307c 65be
000001d0: c0d7 463e 76a3 9c3e dc1a f2bd 4693 17be
000001e0: 0680 5e3e c4c6 ba3e e633 243e 90bf 9bbf
000001f0: 0146 8bbe c5ea c13e 7d94 cb3e 768e 35be
00000200: f614 aa3d 999d df3e 48b0 ab3e 3df6 093f
00000210: 60b9 67be a690 e23c adac babd b51c f03c
00000220: 75d6 ccbe 1bef a0bc 8c6a b9bd 4a39 42be
00000230: 5232 06be b075 eabd e038 a1bd f1e8 11bd
00000240: 58d3 67be 09fb 95bd d3cd ac3e 40f9 aabe
00000250: 7ade 083f 2aad b7be b34e 09be ab12 54bd
00000260: 6e6b 113d cf02 f4bd a6c6 f8be 0c6e be3e
00000270: adaf c6be 7e9e 2ebe 98f9 da3e be4e e03e
00000280: 4956 4d3b c46d 98be 4ae1 9d3e f6a5 c8bd
00000290: 724c 0d3e be48 a2be 70a8 a03d 384c 19be
000002a0: 68f0 e7bd fefa d73d a5f1 04bf 08c7 33be
000002b0: 65d6 183d 60c3 823d e005 383e 767b 2ebd
000002c0: 8101 a93e 6629 63be abb0 1dbe 5f91 b0bd
000002d0: b4f1 9dbd 2a72 b7bc 7ba9 81ba 5533 01be
000002e0: df07 08bf 639a 1b3f 0355 8d3d be4c e1bd
000002f0: 4dc5 1fbe e86d b7bd be51 b23c 846c 1ebe

actor.init_next_embed.0.add_bias._bias f4 [32, 1]
0.61109203 -0.10813776 -0.10477419 0.43171993 0.00063350186 -0.040343527 0.27261636 -0.028305957
-0.045708127 -0.05449711 -0.16471088 0.29870847 -0.0060269684 0.25392768 -0.067644514 -0.021624649
-0.051193696 0.23963639 -0.01005527 -0.12882014 0.57740134 0.12705168 0.015216985 -0.04201905
-0.0254548 -0.06472437 -0.04027912 -0.009288889 -0.03344757 -0.011028282 -0.013996282 0.0042489446
00000000: 8770 1c3f 5477 ddbd da93 d6bd 650a dd3e
00000010: 9711 263a 413f 25bd 5f94 8b3e e5e1 e7bc
00000020: 7238 3bbd 5d38 5fbd f8a9 28be 51f0 983e
00000030: e07d c5bb cf02 823e 3589 8abd 2d26 b1bc
00000040: 7bb0 51bd 3e63 753e dcbe 24bc 6de9 03be
00000050: 93d0 133f d619 023e a950 793c 2b1c 2cbd
00000060: 9686 d0bc 368e 84bd b8fb 24bd 6d30 18bc
00000070: 5200 09bd f8af 34bc a950 65bc bb3a 8b3b

actor.init_next_embed.2.module.weight f4 [64, 32]
-0.26524666 0.11013185 0.093215644 0.15675308 0.175698 -0.11370162 0.035790388 0.27995196
0.12113604 0.04184173 0.13781962 -0.20186794 0.0024118207 0.15922153 0.20064141 -0.01859843
0.3475874 0.25242093 -0.019514414 0.16702826 0.15331724 -0.17391692 0.25285572 0.52976084
0.07051964 0.021486506 -0.0028157155 -0.15041785 -0.07354339 -0.11003383 -0.014194974 -0.10420393
0.3107652 -0.0219949 -0.14097862 0.107884444 0.19870871 0.169838 -0.23769645 0.11311249
-0.036405616 0.08058005 -0.13748486 -0.26666364 -0.2733938 0.0397161 0.42761344 0.29024002
-0.237708 0.13775234 0.15391126 -0.25224817 -0.29135996 -0.089815386 -0.22842415 -0.06345423
-0.052515246 0.12059878 0.08176964 -0.15659186 0.07477638 0.060297314 -0.061050683 -0.12956883
0.18191582 0.38929257 0.08132836 0.10264839 0.063587986 0.12216933 0.13199085 -0.2343667
0.13956104 -0.12152152 -0.061305467 -0.31364152 -0.031618197 -0.34488225 -0.12521875 0.008278534
0.012595373 -0.031375103 0.041901454 -0.32423583 -0.4521857 0.42189074 0.16579701 -0.10969836
0.16047682 -0.3266181 0.038901817 0.1574308 0.2585746 -0.094316 -0.3366536 0.17964585
0.49381024 0.24757296 -0.15189306 0.22977975 0.1831427 -0.014847019 0.04125237 -0.031056847
0.010920005 0.3884609 0.14924438 0.3435076 0.073765 0.26461563 -0.18157668 0.082476445
0.14758177 0.26630336 -0.10597457 0.17796391 0.2180855 0.14687246 -0.1237777 -0.27703562
-0.053180344 -0.017086698 -0.265148 0.15277669 0.09895177 0.044997334 0.21313898 0.032892413
0.42023033 -0.021504559 -0.0021462347 0.28456995 0.21605386 0.16795745 0.037459347 0.16454794
0.17648949 -0.090083785 -0.020467615 -0.1101506 -0.13702482 -0.02092754 -0.18026882 -0.328248
0.08233112 0.03903306 0.042209864 -0.2938514 0.39733627 0.19541776 -0.015789282 -0.015654255
0.16601247 0.18150592 0.15982899 -0.09733731 0.057402585 0.037254706 0.092136264 -0.11745092
-0.553999 -0.5051986 -0.05945402 -0.4098125 0.01700296 0.15141691 -0.093025066 0.15112369
0.09106115 0.13351087 -0.20607401 -0.21489832 -0.027422914 -0.04232596 -0.05513013 0.12874742
0.009990391 0.06685006 0.16859332 -0.011133651 -0.30808693 -0.040200688 0.07057278 -0.06290991
-0.22759786 -0.21952522 -0.13662422 -0.17793052 0.12428936 -0.21152085 0.020916576 -0.16807902
0.09000704 -0.16499944 -0.06577372 -0.0034738083 -0.02816693 0.07637093 -0.16005468 -0.012200008
0.4640524 0.056360815 -0.04174869 -0.14558387 -0.20442818 -0.015418025 -0.34434256 -0.27436054
-0.41921222 -0.0105676185 -0.34554642 -0.14031789 -0.36522502 0.022088166 0.06724367 -0.07763298
-0.052143387 -0.1804341 0.032801773 0.030641818 -0.07294125 0.20158161 -0.011156612 0.148431
0.6842833 0.14838284 0.026794413 0.2976827 0.10900207 -0.23750581 -0.0065324865 0.14590424
-0.048685726 0.105931774 0.04514777 0.49076238 0.33992475 -0.12521946 0.28304213 -0.15695523
0.08681581 0.17868353 0.056621574 -0.07407591 -0.23747337 0.51361877 0.16942902 0.068801686
0.22135176 0.050263096 -0.26831537 -0.11331551 -0.1768208 -0.1697532 0.39612955 0.049201947
00000000: 69ce 87be cf8c e13d d8e7 be3d e183 203e
00000010: 2dea 333e 65dc e8bd f198 123d dd55 8f3e
00000020: 2c16 f83d 3c62 2b3d 9620 0d3e 78b6 4ebe
00000030: a30f 1e3b f80a 233e f174 4d3e bc5b 98bc
00000040: faf6 b13e 513d 813e b1dc 9fbc 7509 2b3e
00000050: 32ff 1c3e 4717 32be 4e76 813e 689e 073f
00000060: 9a6c 903d 7804 b03c de87 38bb 2307 1abe
00000070: eb9d 96bd 6b59 e1bd 0992 68bc df68 d5bd
00000080: 9e1c 9f3e a62e b4bc b35c 10be 85f2 dc3d
00000090: 4c7a 4b3e 03ea 2d3e b366 73be 85a7 e73d
000000a0: 0e1e 15bd 2707 a53d d5c8 0cbe 2388 88be
000000b0: 46fa 8bbe 59ad 223d 26f0 da3e 579a 943e
000000c0: ba69 73be f30e 0d3e ea9a 1d3e ac26 81be
000000d0: 222d 95be 21f1 b7bd 05e8 69be 4bf4 81bd
000000e0: 3a1a 57bd 7efc f63d d776 a73d 9e59 20be
000000f0: 5c24 993d 51fa 763d 4810 7abd b1ad 04be
00000100: 2448 3a3e 5b51 c73e 7c8f a63d 5239 d23d
00000110: 6b3a 823d ea33 fa3d 9c28 073e d3fd 6fbe
00000120: 17e9 0e3e 46e0 f8bd 711b 7bbd 9f95 a0be
00000130: 1582 01bd 6894 b0be 5839 00be b0a2 073c
00000140: d35c 4e3c 2e83 00bd dca0 2b3d 3d02 a6be
00000150: e284 e7be 1002 d83e b1c6 293e 89a9 e0bd
00000160: 0954 243e 7d3a a7be 8357 1f3d 8a35 213e
00000170: e463 843e bf28 c1bd dc5d acbe 15f5 373e
00000180: b2d4 fc3e c483 7d3e db89 1bbe 624b 6b3e
00000190: c389 3b3e e940 73bc 3ff8 283d ee6a febc
000001a0: d2e9 323c 59e4 c63e 85d3 183e 3ae0 af3e
000001b0: 1b12 973d b37b 873e 3def 39be 69e9 a83d
000001c0: ad1f 173e ea58 883e 3209 d9bd 2c3c 363e
000001d0: ce51 5f3e bc65 163e 2a7f fdbd 9dd7 8dbe
000001e0: a2d3 59bd 67f9 8bbc 7bc1 87be 7e71 1c3e
000001f0: 3aa7 ca3d 204f 383d 1b41 5a3e 32ba 063d
00000200: 6e28 d73e 542a b0bc d8a7 0cbb 27b3 913e
00000210: 393d 5d3e 0afd 2b3e f96e 193d 417f 283e
00000220: a9b9 343e d97d b8bd b3ab a7bc a396 e1bd
00000230: 3c50 0cbe 3b70 abbc 6498 38be 1f10 a8be
00000240: 389d a83d 21e1 1f3d 40e4 2c3d b173 96be
00000250: a96f cb3e 981b 483e 8658 81bc 5a3d 80bc
00000260: 2cff 293e b0dc 393e 36aa 233e c958 c7bd
00000270: f91e 6b3d 6498 183d f0b1 bc3d 1c8a f0bd
00000280: e1d2 0dbf b254 01bf 0f86 73bd f2d2 d1be
00000290: cb49 8b3c 090d 1b3e ed83 bebd 2bc0 1a3e
000002a0: 457e ba3d 13b7 083e 1105 53be 4e0e 5cbe
000002b0: 05a6 e0bc fc5d 2dbd 22d0 61bd 5dd6 033e
000002c0: bdae 233c afe8 883d baa3 2c3e eb69 36bc
000002d0: 92bd 9dbe 7aa9 24bd 7688 903d e9d6 80bd
000002e0: 6a0f 69be 38cb 60be 38e7 0bbe 6b33 36be
000002f0: 6c8b fe3d ec98 58be 3d59 ab3c e81c 2cbe
00000300: 9c55 b83d 9df5 28be 5fb4 86bd d5a8 63bb
00000310: 55be e6bc 5d68 9c3d 60e5 23be 8be2 47bc
00000320: 4798 ed3e 99da 663d ad00 2bbd f013 15be
00000330: 9f55 51be e29b 7cbc ab4d b0be fc78 8cbe
00000340: fca2 d6be ce23 2dbc 76eb b0be 7eaf 0fbe
00000350: c6fe babe 3ef2 b43c 0db7 893d 0afe 9ebd
00000360: 4e94 55bd b7c3 38be 275b 063d 8d04 fb3c
00000370: 3962 95bd 696b 4e3e 39ca 36bc 4cfe 173e
00000380: 312d 2f3f acf1 173e f57f db3c de69 983e
00000390: 7a3c df3d b934 73be 780e d6bb ec67 153e
000003a0: af6a 47bd c2f2 d83d deec 383d 3545 fb3e
000003b0: 9e0a ae3e 8839 00be e6ea 903e dfb8 20be
000003c0: 7dcc b13d d1f8 363e 06ec 673d 1cb5 97bd
000003d0: 382c 73be 857c 033f cd7e 2d3e e6e7 8c3d
000003e0: 09aa 623e ade0 4d3d a260 89be f611 e8bd
000003f0: 8310 35be c8d3 2dbe 7ed1 ca3e fb87 493d

actor.init_next_embed.2.add_bias._bias f4 [64, 1]
-0.097934276 -0.048521984 -0.0548172 0.59025455 0.32824317 -0.62449557 -0.15403439 0.5436451
-0.5064539 -0.07623056 -0.047379445 0.24108052 0.018939156 -0.32963434 0.46085402 -0.43318024
0.05572136 0.28294256 -0.14109832 0.27931556 -0.21254694 -0.11475379 -0.0035182321 -0.31148943
-0.23290907 -0.18850838 -0.6004164 0.056760658 0.94344985 -0.10516915 -0.06363605 0.39908117
0.21902621 0.21063675 0.00013226751 -0.21856059 -0.31590408 -0.46061215 -0.5759609 -0.55891776
-0.14467858 -0.13526085 -0.2515641 -0.19879818 -0.3033691 0.44040212 0.06763595 -0.15301436
0.3490823 0.18516538 -0.7196989 -0.4782183 0.046062637 -0.29446924 0.6082528 -0.15304641
0.05020286 -0.70580935 -0.081625685 0.2334223 0.14533994 0.34014818 -0.39577466 0.05791948
00000000: c491 c8bd fdbe 46bd 0088 60bd ec1a 173f
00000010: 7d0f a83e f1de 1fbf 31bb 1dbe 532c 0b3f
00000020: f6a6 01bf c51e 9cbd f310 42bd d0dd 763e
00000030: 4a26 9b3c d5c5 a8be 0ff5 eb3e cdc9 ddbe
00000040: 153c 643d d9dd 903e 147c 10be 7302 8f3e
00000050: e8a5 59be 0904 ebbd 2492 66bb 8b7b 9fbe
00000060: b77f 6ebe 5708 41be e4b4 19bf dd7d 683d
00000070: ee85 713f ec62 d7bd 9e53 82bd 5e54 cc3e
00000080: 6848 603e 29b1 573e 4ab1 0a39 59ce 5fbe
00000090: 2ebe a1be 5bd5 ebbe 2c72 13bf 3c15 0fbf
000000a0: 9f26 14be d281 0abe 02cd 80be c091 4bbe
000000b0: 3253 9bbe 637c e13e b884 8a3d ccaf 1cbe
000000c0: eaba b23e fe9b 3d3e 303e 38bf 07d9 f4be
000000d0: 2dac 3c3d acc4 96be 75b6 1b3f 33b8 1cbe
000000e0: 84a1 4d3d ecaf 34bf 5e2b a7bd 4106 6f3e
000000f0: fed3 143e e727 ae3e faa2 cabe fa3c 6d3d

actor.embedder.layers.0.0.module.W_query.weight f4 [64, 64]
-0.08471259 0.01643037 -0.16341935 -0.06906067 -0.13337888 0.04071068 -0.043741837 -0.110109285
0.0060639367 -0.0755273 0.042281337 0.0011529347 0.11863691 0.10429705 -0.09213175 -0.001118065
-0.11600859 0.09993038 -0.021031208 0.070615284 -0.13810366 0.033273794 -0.080941275 -0.04851116
-0.021488473 0.07455074 0.042674016 -0.09013673 -0.128179 0.109195605 -0.06150372 0.0018497538
0.09003973 -0.114177994 -0.100092165 0.02518589 -0.055224746 0.0042273165 0.07480122 0.02105686
0.0271196 -0.033253517 -0.13387659 -0.13253377 -0.012805343 -0.12259456 0.10386742 0.065490946
0.05052073 -0.022790153 -0.07586101 0.052672196 -0.13248278 -0.09410135 -0.09428751 -0.1116458
-0.0721879 0.06410944 -0.05671943 0.093656294 -0.06355794 0.043920416 0.05601734 0.09647343
0.05178313 0.10017269 -0.022281613 -0.045649573 -0.0079709105 0.11224331 0.040937178 0.079974
0.07898311 -0.12923907 -0.04833639 0.09200104 0.08008037 -0.16987933 0.10012421 -0.03458942
0.036127765 0.022254176 -0.037796646 0.08415672 0.036861192 0.1448631 0.1166603 -0.08402616
0.019059246 -0.11317766 0.10695536 -0.07905002 0.08600305 -0.14070965 0.124516934 0.09395489
-0.09635702 -0.04794429 0.022206983 -0.021338321 -0.10549536 -0.07671685 -0.06263403 -0.04825371
0.12659435 -0.062027752 0.09491083 -0.026079744 0.01950642 0.07382 -0.0023426628 -0.0029966286
-0.11108532 0.08936319 0.0161177 0.010157145 0.0070675453 -0.05533159 -0.09815522 0.005969501
0.044684324 0.060912076 0.06512501 0.011977613 0.07514062 -0.050312765 -0.119208895 0.070635654
-0.09157204 0.119533546 0.14178143 -0.073617734 -0.03733961 0.14592767 -0.09220573 0.07343828
0.1211981 -0.04500491 -0.091142915 0.09120952 -0.1671745 0.060857393 -0.13578472 -0.1497815
0.0048178663 0.043695163 -0.122931816 -0.07436173 0.06567312 -0.0024217176 -0.032911126 0.03085679
-0.025710205 0.11353422 -0.058621068 -0.05027335 0.09948375 -0.072615474 0.13839732 0.01887022
0.10021655 0.09770418 -0.009484235 0.017675411 -0.023557995 0.110118434 0.0050181914 -0.043422975
-0.06765594 0.10276668 0.1435996 -0.10684776 -0.15045072 -0.11227761 -0.027787767 -0.054106895
-0.02387119 -0.05129623 -0.0636425 0.14595255 -0.051500916 0.075887285 -0.06994117 -0.10159817
0.09366151 0.020941252 0.011714385 0.13163055 0.11135546 -0.02493208 0.07594041 0.08609655
0.031601887 0.0443133 0.013989716 0.12020262 -0.0442705 -0.07222584 -0.09004477 -0.06417592
-0.1012615 -0.04840247 -0.09218879 -0.06216203 -0.08595079 0.013638363 0.053656556 0.050305787
-0.006269756 0.029745312 -0.07261048 0.029660156 0.09577161 0.07560743 -0.056836244 0.0776124
-0.063344605 0.028269012 -0.09173611 -0.02432992 0.13878378 0.0029424063 -0.0834245 0.05689792
0.14233135 -0.00488393 -0.0050742207 0.10221751 0.07141444 0.10271735 0.0104482 -0.09800283
0.11006459 -0.06373948 0.0118520195 0.076799944 -0.057934914 -0.019252539 0.08273911 -0.058997694
0.07753889 0.07016952 -0.023968631 0.01365765 -0.07734877 0.018594638 0.01887174 0.06964435
-0.04902185 -0.088667035 -7.7590856e-05 -0.047400173 -0.11374568 -0.044271477 0.06513626 0.023273494
00000000: cb7d adbd fc98 863c 6757 27be ae6f 8dbd
00000010: 7994 08be 3ec0 263d a42a 33bd fa80 e1bd
00000020: fdb3 c63b 0fae 9abd 322f 2d3d 121e 973a
00000030: e9f7 f23d b199 d53d 92af bcbd 098c 92ba
00000040: e995 edbd 4da8 cc3d a449 acbc bf9e 903d
00000050: 0c6b 0dbe 1a4a 083d 8ac4 a5bd a3b3 46bd
00000060: 9808 b0bc 0fae 983d f3ca 2e3d 9b99 b8bd
00000070: 5b41 03be f2a1 df3d 53eb 7bbd 7073 f23a
00000080: c066 b83d 27d6 e9bd 1ffd ccbd a452 ce3c
00000090: 5833 62bd 4d85 8a3b 6231 993d 707f ac3c
000000a0: ec29 de3c d734 08bd f216 09be efb6 07be
000000b0: 80cd 51bc db12 fbbd 71b8 d43d 1e20 863d
000000c0: d3ee 4e3d 6ab2 babc 045d 9bbd cdbe 573d
000000d0: 91a9 07be 35b8 c0bd cf19 c1bd 8ea6 e4bd
000000e0: 40d7 93bd cf4b 833d a252 68bd dfce bf3d
000000f0: aa2a 82bd e5e5 333d 7072 653d dd93 c53d
00000100: 8c1a 543d 5727 cd3d ee87 b6bc 0cfb 3abd
00000110: 6c98 02bc d2df e53d bead 273d 69c9 a33d
00000120: e6c1 a13d 3f57 04be 61fc 45bd 0b6b bc3d
00000130: 2d01 a43d d9f4 2dbe ec0d cd3d a3ad 0dbd
00000140: b5fa 133d 644e b63c a8d0 1abd 5c5a ac3d
00000150: c3fb 163d fe56 143e 98eb ee3d e815 acbd
00000160: 2322 9c3c b0c9 e7bd 690b db3d fae4 a1bd
00000170: 5e22 b03d 3116 10be bc02 ff3d 6c6b c03d
00000180: d456 c5bd 3b61 44bd 6beb b53c b4cd aebc
00000190: f40d d8bd b91d 9dbd 4546 80bd afa5 45bd
000001a0: f3a1 013e d010 7ebd 9c60 c23d 30a5 d5bc
000001b0: edcb 9f3c f12e 973d 5c87 19bb 1663 44bb
000001c0: b380 e3bd 0c04 b73d 4409 843c 276a 263c
000001d0: de96 e73b 61a3 62bd 9b05 c9bd ce9b c33b
000001e0: e906 373d f17e 793d 4360 853d c03d 443c
000001f0: 53e3 993d c214 4ebd cb23 f4bd 6da9 903d
00000200: 1f8a bbbd 01ce f43d 272f 113e e5c4 96bd
00000210: 6bf1 18bd 106e 153e 5cd6 bcbd cf66 963d
00000220: b636 f83d 1257 38bd 23a9 babd 0fcc ba3d
00000230: cb2f 2bbe 9a45 793d 260b 0bbe 5260 19be
00000240: 31df 9d3b b3f9 323d adc3 fbbd f64a 98bd
00000250: a17f 863d aeb5 1ebb d1cd 06bd 61c7 fc3c
00000260: 359e d2bc a184 e83d a51c 70bd 6eeb 4dbd
00000270: 23be cb3d 6cb7 94bd 07b8 0d3e b895 9a3c
00000280: 563e cd3d 2119 c83d c463 1bbc 06cc 903c
00000290: b2fc c0bc c685 e13d a46f a43b 4adc 31bd
000002a0: 338f 8abd 5677 d23d c60b 133e 00d3 dabd
000002b0: c10f 1abe cef1 e5bd 2ca3 e3bc 319f 5dbd
000002c0: 848d c3bc ff1b 52bd 0057 82bd 9674 153e
000002d0: a0f2 52bd cb6a 9b3d 513d 8fbd b412 d0bd
000002e0: 9bd1 bf3d fd8c ab3c b1ed 3f3c 29ca 063e
000002f0: 550e e43d 5d3e ccbc a586 9b3d 6353 b03d
00000300: fb70 013d dd81 353d 1f35 653c cb2c f63d
00000310: fc54 35bd 24eb 93bd 6469 b8bd aa6e 83bd
00000320: 3062 cfbd ab41 46bd 7acd bcbd 9d9d 7ebd
00000330: f806 b0bd 7173 5f3c fac6 5b3d 710d 4e3d
00000340: 8672 cdbb 71ac f33c ceb4 94bd dbf9 f23c
00000350: e823 c43d 11d8 9a3d 1fcd 68bd 40f3 9e3d
00000360: d1ba 81bd 6a94 e73c 24e0 bbbd 8a4f c7bc
00000370: 561d 0e3e 63d5 403b 77da aabd cb0d 693d
00000380: 4fbf 113e 6009 a0bb a645 a6bb 6a57 d13d
00000390: bc41 923d 795d d23d ed2e 2b3c b5b5 c8bd
000003a0: 8b69 e13d d889 82bd f92e 423c 4a49 9d3d
000003b0: 294d 6dbd 80b7 9dbc 1f73 a93d 91a7 71bd
000003c0: b6cc 9e3d 0ab5 8f3d dd59 c4bc 56c4 5f3c
000003d0: 0869 9ebd c853 983c e898 9a3c b2a1 8e3d
000003e0: 23cb 48bd 1097 b5bd 46b8 a2b8 af26 42bd
000003f0: 7ff3 e8bd 0256 35bd 2966 853d 0ea8 be3c
