logs/experiment/Discrete_acktr_20x10x10Bin_s42_inh_800_defaultBox-2022.08.18-13-06-52/PCT-Discrete_acktr_20x10x10Bin_s42_inh_800_defaultBox-2022.08.18-13-06-52_2022.08.18-17-05-24.pt (torch, 236314 bytes, 24 tensors)

actor.init_internal_node_embed.0.module.weight f4 [32, 6]
00000000: 07bd 7e3e fa3e 133f ab3d 213f defa 99be
00000010: 4f60 e53c f459 383e 3a55 493e 1318 d13e
00000020: ec20 b1bc c99c 03be 741e 9cbe dd9d ebbd
00000030: 45ad 693d 37e5 23bd 1027 543d ce47 b53d
00000040: 8a93 8bbe 6eb3 9c3d 07c2 08bf b4bb fdbc
00000050: 61d4 c7be 12ec 0e3f c100 943e 372d 5e3f
00000060: 4212 f33e caa6 3fbe 5935 f23b f593 9e3d
00000070: 4f58 d83b 1a0b cfbd cbde 783e c526 ed3d
00000080: f372 b4be e757 cf3e 81df ffbd 81a1 9bbe
00000090: b90b ddbe 067f 593e e210 163e 988e 493e
000000a0: b599 a5be fbce 26be 20e5 5d3e 6a9b b7bd
000000b0: 3400 ee3e 7359 c63c 3758 40bf f24e 003e
000000c0: 05b6 e4be d936 b13d d8e2 50bf 37cc d23e
000000d0: 2925 1d3d c3ec 9d3d c06e 233f 95a9 e3bc
000000e0: 4fa3 c4bd 2390 223e f24b 54be 1fa8 37be
000000f0: 455d 56bd 75c4 c13d 4735 b2be de19 0d3f
00000100: 3aef 073f eb40 22bf 22c7 68be ca3f 33be
00000110: de20 2dbe 111c 5fbd 028f afbe 742f 48be
00000120: 55e3 6e3f 6627 db3d 93f1 f93d 04fd 06be
00000130: 9eab e3bd a7fc 54be fe5e d13e f21b e33c
00000140: e4d0 3bbe 8177 efbd 6fc6 9f3e efa5 adbe
00000150: d25f ca3e a3bf e73e 5026 b2be 51cf 84bd
00000160: 5e0b 9f3d 643d abbd 9b39 01bd a6ff 92be
00000170: bb45 73be 7eab a3bd 0943 143e 04dc 8dbe
00000180: 0943 483e bbdd 05be aaea d13e 3456 4bbf
00000190: 2e74 fc3e 61f0 fa3e 665e bc3d f8d5 6c3d
000001a0: 93bf db3d ce3a 3e3e 14bf 0cbf c826 b5be
000001b0: a7b4 b33e 3bab da3d 1e3f e5be 51c0 5e3e
000001c0: c0d7 133e ac3c 30bd 48f6 be3e 0605 50be
000001d0: c085 423d caaa 7fbe 4a65 b3bd ee82 033e
000001e0: cac0 c43d bf48 713e 604e e7be 806a 7e3e
000001f0: 0b0d bf3c 2576 fdbe 926c 1ebe d84e b2bd
00000200: f5b2 96be 13fa 013e 4065 ebbd d533 bdbe
00000210: fc2a 3ebf e1a3 5abf a95d 56bf 2038 033f
00000220: 57a5 e43e 3796 e13e 7177 92be c545 c9bd
00000230: acdc 36be def5 903d 30a9 f4bc d61f 1a3f
00000240: 9be5 0bbe 747a edbc c4a8 843f 325f b93e
00000250: 5f6b ec3d e623 643e c2dd 41bd 526f 803e
00000260: f946 bc3e 4568 a2be b30a 99bd d077 e73e
00000270: 0f47 92be 336d bc3c 313b 89be c181 323d
00000280: 1355 8c3e 85c9 b9bd 5c98 a1bd ddb9 e73c
00000290: f288 b23e 9008 bfbe 82b2 30bd 6253 40be
000002a0: 1325 babe 8c7a 16bf 8eab 9ebd 43eb 563d
000002b0: a0d8 163e aaec 873d 3c79 68be fa5f 3f3e
000002c0: 1baa a33e d6f0 81be 7825 b0bd b774 4bbd
000002d0: c740 cd3e 3dbd 443c 52f8 093d 4bf3 babd
000002e0: 349a 433e a230 d8be 4bdd 893e 3712 3e3e
000002f0: 2653 85be 259a 3cbe 1c63 503b 3d34 a33e
0.24876796 0.5751797 0.6298472 -0.3007421 0.028000025 0.18003064 0.19661418 0.4083868
-0.021622144 -0.12852778 -0.30491984 -0.115047194 0.05705001 -0.04001352 0.051795065 0.08851586
-0.27261 0.07651411 -0.5342106 -0.030973293 -0.3902922 0.55828965 0.28906825 0.8678774
0.47474867 -0.18715969 0.0073916134 0.07743064 0.006602324 -0.10109539 0.24303739 0.1157966
-0.3524395 0.40496752 -0.12493802 -0.30396655 -0.43173006 0.21239862 0.14654878 0.19683301
-0.32343832 -0.16289894 0.21669436 -0.0896519 0.4648453 0.024212575 -0.75134605 0.12530115
-0.4467012 0.086530395 -0.81596136 0.4117143 0.038365517 0.07711174 0.63840866 -0.027790824
-0.09601461 0.15875296 -0.20732096 -0.17935227 -0.052335043 0.09461299 -0.34806272 0.55117595
0.53099406 -0.63380307 -0.22732213 -0.17504802 -0.16907069 -0.054470126 -0.34288794 -0.19549352
0.9331563 0.10700874 0.1220428 -0.13182455 -0.11116718 -0.20799504 0.40892786 0.027723286
-0.18341404 -0.116927154 0.3120608 -0.3391566 0.3952623 0.45263395 -0.34794855 -0.06484855
0.0776584 -0.08361319 -0.031549077 -0.2871067 -0.23757069 -0.07991694 0.14478697 -0.2770692
0.19556822 -0.13072865 0.40999347 -0.7942841 0.49307388 0.4901152 0.091976926 0.057821244
0.10729899 0.1857712 -0.5497906 -0.3538115 0.35098764 0.10677191 -0.44774717 0.2175305
0.14437771 -0.04302661 0.37297273 -0.20314416 0.047490835 -0.24967495 -0.08759554 0.12842914
0.09607084 0.23562907 -0.45176983 0.24845314 0.023321649 -0.495042 -0.15471104 -0.087064445
-0.29433408 0.12693052 -0.11493921 -0.36953607 -0.7428434 -0.8540631 -0.83736664 0.51257515
0.44657394 0.44059917 -0.28606752 -0.098277606 -0.17857617 0.070781454 -0.029865831 0.6020483
-0.13661806 -0.028989054 1.0364003 0.3620544 0.11543917 0.22279319 -0.047330625 0.2508493
0.36772898 -0.31720176 -0.07472744 0.45208597 -0.28569838 0.023001289 -0.26802972 0.043580774
0.27408656 -0.0907164 -0.07890388 0.028286869 0.34870106 -0.3731122 -0.04313899 -0.18781808
-0.3635641 -0.5878074 -0.07747565 0.052470457 0.14731073 0.06636937 -0.22702497 0.18688956
0.31965718 -0.25379056 -0.086008966 -0.049671855 0.40088484 0.012008009 0.033684082 -0.09128436
0.19101793 -0.42224604 0.26926646 0.18561636 -0.2604 -0.18418176 0.0031797355 0.31875792

actor.init_internal_node_embed.0.add_bias._bias f4 [32, 1]
00000000: 8167 023d ee89 853c 473b f4bc c758 7b3d
00000010: c34c fc3d efcc 2d3c e7ce 97bc 5d74 b53c
00000020: 8d33 e93c 74d4 a13d 9e59 cd3c e129 a33c
00000030: 80a8 223d 182b c23c 186a c43b d74b 81bb
00000040: 3438 4b3c b7f3 2b3c fd77 bb3a 3157 d839
00000050: f6b1 43bc 2822 b03c fefe 8fbb b84c dabb
00000060: d7d4 853d c96a 7c3c e851 3bbc 359d 8fbc
00000070: 1060 6a3b 2cb0 8cba c85e 363c 05b8 173d
0.03183699 0.016301122 -0.029813422 0.06136396 0.12319329 0.010607942 -0.018531276 0.022150213
0.028466964 0.0790185 0.025067147 0.01991743 0.039711475 0.02370219 0.0059940927 -0.0039458084
0.012403537 0.010495118 0.0014302727 0.00041263693 -0.011944285 0.021500662 -0.004394411 -0.0066619776
0.065347366 0.015406319 -0.011433102 -0.017531017 0.0035762824 -0.0010733656 0.011130996 0.03704073

actor.init_internal_node_embed.2.module.weight f4 [64, 32]
00000000: 0949 6ebe 6d56 6c3d 54a6 febd b67c bd3e
00000010: 18ea 1d3e b0c0 203d 744b aa3d 483c 063e
00000020: dc33 9dbe 0693 95be 9e65 e7bd 0222 a7bc
00000030: e5f3 acbe eea9 24be 991b c53b ce3a 33be
00000040: db77 cc3e 2bf5 a5bd 5f8d 29be 97d0 893e
00000050: 49f6 ae3d 8fcc 90be be26 f9bd 0794 44be
00000060: 0bb8 1d3e 09e8 ae3e 72ac 0f3e 8b66 cc3d
00000070: 59e7 54bd be91 2dbe aaf4 49be 6046 193e
00000080: d0ea c9be 4520 b9be 6649 b9be b91a 91be
00000090: 5732 813d b410 773e 93d9 533b b62f d13e
000000a0: 79ec 68bc 8bce 9bbd 55ec 2fbd 7f1c 4abd
000000b0: 06b8 a6be cf55 e33d 127a 64be b652 263e
000000c0: 92a5 563d b0f2 d93c 2124 cebe e94c 2cbe
000000d0: a465 ba3e 4255 cb3d 3691 033e dd6b 95be
000000e0: ebc3 8fbe 8b66 a73d 706e 2bbd b2d8 263e
000000f0: 1df7 86be b49c 4a3e d4a0 be3e d25f 7bbc
00000100: 4888 473f 2660 42be d02f d1bc 2026 bb3e
00000110: 87da 91be a5cc 713e f0a7 8abe 705c f1bd
00000120: 75e8 593e 3b40 933e e59f f43d 00f6 b3be
00000130: 3d6d 6a3f 8740 39be a77d 053e c044 34bc
00000140: 1a7c 903e 4917 d43d 8987 413d 4ff6 733e
00000150: 5a4f bebe 6ff9 0fbe 185f b43d ef49 abbd
00000160: 4f1d 183f c1b4 66be 54b9 f3bd 9244 4cbd
00000170: 2aa6 123e 1db6 ac3d 439c 963e e844 033e
00000180: 6017 e6bc 91a9 1d3f 6e75 f1bd cfd1 eabe
00000190: abf2 263d 0340 1fbe cfab 9fbe d79e 623d
000001a0: 7f6e 74be 6a7c 783c fb9a 8ebd c8c0 003f
000001b0: 2a7b 0f3e 1651 19be 0a28 00be 90f7 30be
000001c0: f6d4 0fbe c5eb 2ebe 3573 5bbe 34bc 52be
000001d0: a3f8 99be dc39 d03d 55c6 833e 59f6 6c3e
000001e0: 2033 bebe dc98 243e 0845 0f3e 2a86 1e3d
000001f0: d9f0 4f3e 6575 0b3e 373a 9f3d 334a c6bd
00000200: 5161 aebe f359 59bd ee19 023e 1e35 a0bb
00000210: 3f4a 2cbe c176 713c 672d fbbd 2db3 9ebd
00000220: e49d ba3d 1640 f93d a41c 443d 96cd 90be
00000230: 823b 7dbb e16f 943e 106f ed3d e539 2fbc
00000240: a4ab 9c3d fe6f 683d ddcd 9abe e520 48be
00000250: b303 51bd ce55 b4bd 4c52 0d3f 2547 6abe
00000260: 0c8a ecbe a127 8a3c 3ba0 0d3e c2da 263c
00000270: ee09 513e a6dc 10bc 7584 183e e39a 963c
00000280: c81e c5be eee5 663d 73c2 ccbd e7c3 813d
00000290: ff6e 1a3f c776 4d3e 8f5b 953e a794 c0be
000002a0: 1761 a23e f285 ef3e 248b 193f 0417 413e
000002b0: b59e 073e 24df 523e 9b04 bb3e 08f3 28bc
000002c0: adbb 4ebe f7fa f53c 52ad 9c3d 9a14 1ebe
000002d0: 4e05 ca3e 3460 afbc 53d1 82bd d4da 94bd
000002e0: c73d 60bf 07e4 bb3d b456 83be b318 6fbe
000002f0: 1bae 81bd f3ae d93a 62e4 de3e 5c0d adbd
00000300: fea5 603d 0d9c 59be 837e 18be 7e71 f4be
00000310: 1fab 363d eaf8 073d 2e96 71bd 3c36 97bd
00000320: 7297 fbbd 7efa 113f afa5 dcbd 7821 933d
00000330: 9364 3c3f 9ce4 e3bc b836 2e3e b966 47bd
00000340: dd26 5bbe 8857 79be 6976 233f 885f 483e
00000350: 1731 babe c9f9 613d f3e4 eebd ee0a 053e
00000360: 249e 75bf ee9c 84be 66ce 283e 947b 3c3d
00000370: c40c 893e 1aa9 983e b6e5 34bd 5996 1cbe
00000380: bd79 403f 467f 5f3e b93a 933e 86f6 b43e
00000390: 3330 f3bd ac06 033e d765 913e 8e74 073e
000003a0: b86f 67be bcf5 b7be 7746 aebc 4787 72be
000003b0: 79e8 033f 035d acbe ab54 25bd 7780 403d
000003c0: 3082 913c 9517 47bd e19a 863e 8563 73bd
000003d0: 3827 56bd 4494 35be abfd 293d d128 b43d
000003e0: 576f 233f 04c2 983b f059 6d3e 7f15 0dbd
000003f0: 29d0 303e 759b b23e 830c f7be 7e70 21be
-0.23270048 0.05769961 -0.12434068 0.3700921 0.15421331 0.03924626 0.08315173 0.13108933
-0.30703628 -0.29213732 -0.11298679 -0.020401958 -0.33779827 -0.16080448 0.006015253 -0.17502901
0.39935192 -0.08103403 -0.16557835 0.26916954 0.08543069 -0.28281066 -0.121655926 -0.19197093
0.15402238 0.34161404 0.14030626 0.09980496 -0.051978443 -0.16950127 -0.19722238 0.14968252
-0.3943696 -0.36157432 -0.3618881 -0.283407 0.0630843 0.24127465 0.003232573 0.40856713
-0.014216536 -0.07607754 -0.042949993 -0.049343582 -0.32562274 0.11100351 -0.22312191 0.16242489
0.052403994 0.02660498 -0.4026194 -0.16826214 0.3640567 0.09928371 0.12848362 -0.29183856
-0.2807916 0.081738554 -0.04185337 0.162936 -0.26360407 0.1978634 0.37232077 -0.01534267
0.77942324 -0.1898199 -0.025535494 0.36552525 -0.28487036 0.23613222 -0.2708125 -0.11785209
0.21280082 0.2875994 0.1194456 -0.3514862 0.91572934 -0.18091021 0.13036214 -0.011002719
0.28219682 0.10356004 0.047248397 0.23824428 -0.37169915 -0.14059995 0.088072 -0.08363711
0.5941972 -0.2252989 -0.11900583 -0.04987008 0.14321199 0.08433173 0.29416093 0.12819254
-0.028087318 0.6158686 -0.11789976 -0.45863196 0.04075877 -0.15551762 -0.31185767 0.055327263
-0.23870276 0.015166381 -0.06963154 0.5029416 0.14011827 -0.14972338 -0.12515274 -0.17281938
-0.14046082 -0.17082126 -0.21430667 -0.20579606 -0.30072507 0.10167286 0.25737253 0.23140849
-0.3714838 0.16073936 0.13991177 0.038702168 0.2030672 0.13619001 0.077747755 -0.09682121
-0.34058622 -0.053064298 0.12705204 -0.0048891446 -0.16825198 0.014737786 -0.12264519 -0.07749019
0.091121465 0.121704265 0.047878876 -0.2828185 -0.0038640206 0.28991607 0.11593449 -0.0106949555
0.07649925 0.05674743 -0.30235186 -0.19543798 -0.05102892 -0.088054284 0.552037 -0.22878702
-0.4619907 0.0168646 0.13830654 0.010183992 0.20413944 -0.008841669 0.14894278 0.018384403
-0.38500047 0.05637162 -0.09998026 0.063361935 0.60325617 0.20064841 0.29171416 -0.37613413
0.317147 0.4678188 0.59977937 0.18856436 0.13244136 0.20592934 0.3652695 -0.010311849
-0.2018878 0.030026896 0.07650246 -0.15437546 0.39457172 -0.021408178 -0.06387582 -0.07268301
-0.87594265 0.09174352 -0.25652087 -0.23349266 -0.06332036 0.0016607925 0.43533617 -0.08449814
0.054845802 -0.21250935 -0.1489201 -0.47742838 0.044596788 0.033196367 -0.058981113 -0.07383391
-0.12284745 0.57022846 -0.10773789 0.07184118 0.73590964 -0.02781897 0.17013061 -0.04868195
-0.21401544 -0.24349797 0.63852555 0.19567692 -0.36365578 0.055169854 -0.11664762 0.1299245
-0.9594443 -0.25900978 0.16484985 0.04601629 0.26767552 0.29816514 -0.044164382 -0.15291728
0.7518576 0.21825895 0.2875574 0.35344332 -0.11874428 0.12795514 0.2839801 0.13228056
-0.22601211 -0.35929668 -0.021273835 -0.23684417 0.515266 -0.33664712 -0.04036395 0.046997514
0.017762274 -0.048606474 0.26290038 -0.05942108 -0.052283496 -0.1773234 0.041501682 0.087968476
0.63841766 0.0046618003 0.2317884 -0.03444433 0.17266907 0.3488423 -0.48251733 -0.15765569

actor.init_internal_node_embed.2.add_bias._bias f4 [64, 1]
00000000: d753 80bc 751b 58bd b6d1 bf3d 6f60 61bd
00000010: 66fa 15bd f71e 383d 7b44 51bd 148d b93d
00000020: 127d 7e3b f45e 72bd 34ed 8dbc d2a7 14bd
00000030: 0439 0cbe bd3e 56bd 4923 e8bc 5826 f43c
00000040: 96d5 8fbd 6c9f 50bd f525 16be c78d 743c
00000050: 2309 84bd ad2a 17bd d652 8d3c 6b58 b13d
00000060: 2a46 b4bc 04f4 32bc 5a7e a5bc 459d 82b9
00000070: 9899 a03c 85ad d9bd 954c 963d dd00 07be
00000080: cd3a ca3d 5bdf ae3d 1739 18bd 08c5 29bd
00000090: 8df7 603d 7db4 13bd b19e b33c a2d4 863d
000000a0: 8268 59bd de3c 45bd 27c2 723e 9f64 64bc
000000b0: a1a1 99bd b5d7 d7bc d35c 393d 5d6b 3c3d
000000c0: 8617 763d 1c3f 06be e2f5 5c3d 22ba 9c3d
000000d0: 5a35 8b3d 4ebf dbbd f972 1fbd 69bf 093e
000000e0: 8bd5 0f3e 4a78 b43b d425 99b9 f1de 623b
000000f0: 1336 08bd ca81 873c 36b4 58bd 1346 913d
-0.015664978 -0.05276056 0.09366171 -0.055023607 -0.03661575 0.044951405 -0.0510907 0.09060112
0.0038831872 -0.059172586 -0.017325021 -0.03629286 -0.13693625 -0.052305926 -0.028337138 0.02980344
-0.0702316 -0.050933287 -0.14662917 0.0149263805 -0.06447055 -0.036905933 0.017251413 0.086594425
-0.022006113 -0.010922436 -0.02020185 -0.00024912707 0.01960449 -0.10628799 0.073388256 -0.13183923
0.098744966 0.085386954 -0.03716382 -0.04144767 0.054923583 -0.0360608 0.021926256 0.06583525
-0.053078182 -0.04815375 0.23706876 -0.013940006 -0.075015314 -0.026347974 0.04525454 0.046000827
0.060081027 -0.13110012 0.05394543 0.076526895 0.067972854 -0.10729848 -0.038928006 0.13451923
0.14046304 0.0055075036 -0.00029210618 0.0034617747 -0.033254694 0.01654138 -0.052906238 0.07093444

actor.init_leaf_node_embed.0.module.weight f4 [32, 8]
00000000: 45d7 25be d522 f3be 9783 b73e 161e b23e
00000010: df9d 3e3e 3ae5 bc3e d68f aabe 3fc3 9ebe
00000020: 8885 09bf b8ec 2ebe 9cff 933e 95d3 cb3d
00000030: 47e9 4e3e 8ce3 89be 968d 7a3e 9304 58bd
00000040: 89a8 2b3c fc97 923d f24d 92be e2d1 06bd
00000050: 1490 44be ff1a 27be 6601 a23d b765 c5bd
00000060: 9c72 4dbe 935c 233e c6c3 e13e 4e62 63be
00000070: a101 fa3d e34c 4f3e 137c 80be dba0 493c
00000080: 17db ab3d 2da6 11bf 27bd cf3e b08c 44be
00000090: e1ca 19be c9b8 b03d 862d 2abe 19bb 113e
000000a0: 7817 c6be e270 953c c8c3 9ebe 19c4 2e3e
000000b0: 85d4 65bd 458b e93d 3ec0 2bbe 665a 303c
000000c0: 4f98 a8be 356f dc3d 7d66 8dbd b5e1 073e
000000d0: 81cb b0bc c0f6 0cbe 9eb3 393d 9228 273e
000000e0: 61ca 9f3e 47e1 4b3e 60c9 c73e 0a9f c0bd
000000f0: b223 40be fc70 9ebd c2df 28bf 7b28 a8bd
00000100: 3cf1 2fbd 0ff7 e23d 7964 473e d79a b3bd
00000110: f320 3abd cc49 8a3e a02f 573d 6a5c 323d
00000120: 01b5 1cbf 671b cabe 296d 1b3d decc 853e
00000130: 8c00 003f e357 a3be e55d d7ba b95f 04bf
00000140: 62b6 a9be 94de 1c3e 672d f0be 297e 3fbe
00000150: 1234 c43e b9b6 313e 5b21 6bbe b45d ffb9
00000160: 2a78 1e3d 3628 ecbd 3d3e 9b3e f4be b1be
00000170: 2810 ecbd 689a d0be eb3e d63e 2994 583c
00000180: 846f 19be ce27 81bd 6ad2 7f3e 6216 0f3f
00000190: 7dcf 323e f83e 7c3e 4adf ad3e 1e36 de3e
000001a0: 1495 d43d 8339 a73e 73d0 5d3e 508a 45bd
000001b0: 9969 f2be 36b4 59bd 3f4e 4abd eb74 65be
000001c0: e9d1 ed3e 346f f43e 42e8 943e 4159 973e
000001d0: 2445 37bb bae4 aabd 2050 0a3e 16e2 1d3e
000001e0: f626 d03b e48b 3ebe fadf 94bd 39c0 8a3e
000001f0: 62e7 22be 6d0d 773e 8dd3 2d3d abae 313e
00000200: 2f08 6d3e e80e a23e aa40 93bd 7201 00bf
00000210: 1601 b73c 6601 a7be f785 63be adf6 2d3e
00000220: 2066 98be 15dd 903e 7293 a5be 9666 d23e
00000230: 35bb 41be 9afa 9ebd 78f0 57be e2f2 623e
00000240: 6323 943d 2ba2 c1bd 4c41 4fbf 490a e0bd
00000250: ae3e 923e 3246 ac3e 5811 bf3d b951 23be
00000260: 0cd6 52be c7f9 e8bd 7a54 03bf 3311 203d
00000270: b48b fbbd dada e7bc 863e 7f3e ca62 9fbd
00000280: 1cad 1d3e b6f1 29bd 26a4 a23e 74ea b23e
00000290: 2764 b33e fad7 e93c 7672 963e ada4 9cbd
000002a0: e6eb a5be bc2b 5f3e c775 203e 515d 03be
000002b0: 3a87 a43e c143 a1be d02c 2bbd 857a 493e
000002c0: a97f 3c3e db5b 83be 14a2 79be 4cfc b6be
000002d0: 1087 8b3e 179d 3e3d 12fd e13e 0d1c 6b3e
000002e0: b730 c0bd 2ecd fb3e e55e 363e 39c8 fbbe
000002f0: cdf0 70bc 59e9 263f acdd 0f3e 113e ca3e
00000300: 0a8b 02be d808 9fbe 8ba5 dfbd d9f1 bfbd
00000310: 3961 6a3e f398 20be 5ed5 9abd ca4f 163f
00000320: 2a49 62bc 8d15 83be 0641 d0be f183 8e3e
00000330: 1c45 4dbe eace 13be 9e2c a2bb cf25 ba3e
00000340: f385 91be 4691 2c3e b2b0 2b3e ce95 53be
00000350: e3f9 cfbe 5c3b d0bd b90b d03e b112 44be
00000360: 6fac 6ebe 1e2d 713e 9e00 a93e d744 823e
00000370: df3c 98bb f2f5 9c3e 655c 9c3e 15dc 43be
00000380: 6111 043d f7cf 12bd f49f ae3e 7d45 1bbe
00000390: 0918 04be 27c1 07bf 6038 76be d6e0 b8bd
000003a0: 015e e03e ac32 b23e 8971 a8be 885a b03e
000003b0: d232 1c3f 2ba9 333d 73cd 243e 624f ffbe
000003c0: 37ab 8a3d 4e86 b4be 1d68 ecbd ef0e ccbe
000003d0: 7629 89be 6afa e63e 9b47 a33d 763a 80be
000003e0: bdce fbbe cb3e 4e3c 6510 8fbe e4c3 f0bd
000003f0: ba94 b2be ec23 45be 6bf0 8d3e b203 55be
-0.161954 -0.47487512 0.35842583 0.3478858 0.1861491 0.36893636 -0.33312863 -0.31008336
-0.5371938 -0.17082489 0.28905952 0.099524654 0.20206176 -0.26931417 0.24468073 -0.052738737
0.010477194 0.07157895 -0.28575093 -0.032915004 -0.19195586 -0.16318892 0.07910423 -0.09638541
-0.20063251 0.15953283 0.44094676 -0.22205469 0.12207342 0.20244174 -0.2509466 0.012306417
0.083913974 -0.5689419 0.40574 -0.19194293 -0.15018798 0.08628995 -0.16618928 0.14231528
-0.3868978 0.018242303 -0.31008744 0.17066993 -0.056110878 0.11403517 -0.16772553 0.01076374
-0.32928702 0.107633986 -0.06904314 0.13269694 -0.021581413 -0.13766003 0.045337312 0.1632407
0.3120909 0.19910155 0.39020824 -0.09405334 -0.18763617 -0.07736394 -0.6596643 -0.08210846
-0.04295467 0.11082279 0.19471921 -0.08769768 -0.04544158 0.27009428 0.052535653 0.043545164
-0.6121369 -0.3947403 0.0379459 0.26132864 0.50000834 -0.3190299 -0.0016431181 -0.5170856
-0.3314696 0.15319282 -0.4690964 -0.1870047 0.38320976 0.1735486 -0.22961943 -0.00048707204
0.038688816 -0.11531107 0.30320922 -0.34715998 -0.11526519 -0.40742803 0.41844878 0.013218918
-0.14983946 -0.0630642 0.2498261 0.5589353 0.17461963 0.24633396 0.3395942 0.43400663
0.10379997 0.32661065 0.21661548 -0.04822761 -0.4734619 -0.05315038 -0.049391028 -0.22407882
0.4644921 0.4774109 0.2908345 0.29560283 -0.0027964795 -0.083444074 0.13507128 0.15418276
0.0063523008 -0.18608052 -0.07269283 0.2709978 -0.15908578 0.24126215 0.04243808 0.17351787
0.23147653 0.31651998 -0.07190068 -0.50002205 0.022339385 -0.32618254 -0.22219072 0.1698863
-0.29765415 0.28293672 -0.32339054 0.41093892 -0.1891907 -0.07762642 -0.21087825 0.22162965
0.07233312 -0.09454759 -0.8095901 -0.10939462 0.28563446 0.33647305 0.0932948 -0.15949143
-0.20589465 -0.11375766 -0.51300776 0.039078902 -0.12282506 -0.028302599 0.24926195 -0.077825144
0.15398067 -0.04149028 0.3176586 0.349445 0.35037348 0.028545368 0.29384202 -0.07648597
-0.3240654 0.21794027 0.15669928 -0.12828566 0.3213442 -0.31497005 -0.041790783 0.19675644
0.18408073 -0.25656018 -0.24378234 -0.35739362 0.27251482 0.04653653 0.4413839 0.2295992
-0.093842916 0.49179977 0.17809637 -0.49176195 -0.014705849 0.6519981 0.14049405 0.39500478
-0.12748352 -0.31061435 -0.10920247 -0.09372301 0.2288865 -0.15683345 -0.07560228 0.587155
-0.013811389 -0.2560238 -0.4067461 0.27835038 -0.20045894 -0.144344 -0.0049491664 0.3635697
-0.28422508 0.16852292 0.16766623 -0.20662615 -0.40620336 -0.10167572 0.40633944 -0.19147755
-0.23307966 0.23552367 0.33008283 0.25443146 -0.0046459283 0.3065639 0.3053924 -0.19126923
0.032243136 -0.035842862 0.3410641 -0.15163226 -0.12899794 -0.530291 -0.24044943 -0.09027259
0.4382172 0.34804285 -0.3289912 0.3444407 0.61015046 0.043862503 0.16093998 -0.49865252
0.06770938 -0.35258716 -0.115432955 -0.39855143 -0.26789445 0.45112926 0.07972642 -0.25044602
-0.49181166 0.012588213 -0.27942196 -0.11756113 -0.34879094 -0.19251984 0.27722487 -0.20802191

actor.init_leaf_node_embed.0.add_bias._bias f4 [32, 1]
00000000: d2d0 2e3e 79cb 8ebc 20f1 ab3a 907d b13d
00000010: 27d8 1c3c 2180 15bd e840 bf3c 092b e03c
00000020: 5803 0abe 3f1e f93b e289 3bbd 08f2 78be
00000030: db3d 933e d5a7 3fbc bd63 ffbc 5135 c2bc
00000040: 247f d93c f6ad 24bd e6a9 adbd 0ed7 213e
00000050: 5a38 48bd fb30 35bd 4928 143d e8fb 18bc
00000060: 40eb 5b3d 84eb 83bd 3e3b 2bbd b2bc d13c
00000070: a050 10be 6863 973e 4bc6 e43c a53a a8bd
0.17071846 -0.017431008 0.0013118125 0.08666527 0.009573019 -0.036499146 0.02334638 0.02736427
-0.13477838 0.0076024826 -0.045785792 -0.24311078 0.2875813 -0.011697729 -0.031175489 -0.023707064
0.026549883 -0.040204965 -0.08479671 0.15804693 -0.048881866 -0.044236165 0.03617123 -0.009337403
0.05369115 -0.064414054 -0.041804545 0.025602672 -0.14093256 0.29568028 0.027926585 -0.082143106

actor.init_leaf_node_embed.2.module.weight f4 [64, 32]
00000000: f168 17be c6c5 b2be 6613 8bbe caab 0abe
00000010: 82c0 353e 605d ba3c 8440 6f3d b961 fe3d
00000020: 0e8e 4b3e 9c86 6b3d df9b a33d 47c3 86be
00000030: 9500 a8be 9be3 a43c 4380 87be f3dd ffbd
00000040: f4e6 513e 3a5c 80bd 2a66 1abe ff2e 96bd
00000050: 18e9 8b3d 31b1 95be 0c2c 743e fff8 073e
00000060: 4802 f43d 4b08 06bf 46e4 a2bd eaf3 f43d
00000070: 3735 0e3e 7cf4 57be fe15 c7bc 520b 36bc
00000080: 40fc dc3c 99c4 1b3e 9176 733d 7c37 cc3d
00000090: a34d 1a3d a22f 073c d57d d13d 7884 1ebe
000000a0: e79b dfbd dfaa 91be 9a96 d63e 88d2 afbc
000000b0: 1704 12bd 4689 d93d 1bda 553e 8b29 9abe
000000c0: ccb1 b9bd cb9b 34be 267b 4dbe 7b80 53be
000000d0: 77fe d63d af2c 81bd d288 cf3c aea5 ffbd
000000e0: ec9c e4be cfae e6bd 5efe 79bc 79e4 743e
000000f0: dd91 84be 82f2 26be d8b3 47bd fc78 c73e
00000100: d56d a63e 5d9c 253c 08d7 1dbe 5b04 3abd
00000110: c840 1b3e 3559 9cbd 0be6 f3bd 85c3 fe3d
00000120: bc59 e8be 62d3 ddbd c2df f0be 2f7a 2abe
00000130: 0877 90be f246 453d c3a1 993e d8f9 c2bd
00000140: 7e98 d1bd 4e95 4a3e 02bb a4be a519 ecbd
00000150: 5119 bcbc c094 d8bd 396a 5e3c 035f b6bd
00000160: 7928 d9bb 6192 3dbd f0a5 afbd d544 fdbd
00000170: 1e86 54be 6eaf 00bd 26e0 3d3e ebdd f63d
00000180: 3032 e43c d588 7a3e 1701 343e 6a6a 093e
00000190: eaae f03d 2a0a 323d 1707 f4bc 87fe 293e
000001a0: 2c32 ffbc 33e6 00be 401f 18be 95b5 753e
000001b0: 561d 83be 74ae 853d fb93 5d3d 6ce9 213e
000001c0: 4581 dcbd ff96 763e f4f8 93be 6949 4b3d
000001d0: 05be 8d3d f4b6 123e 02e1 4abe 0128 593e
000001e0: 219c 45bc eb67 013e 3d68 233e 17f0 213e
000001f0: 163a 993e 02c0 22bd 2d72 563e 9a12 303e
00000200: 36e6 bdbd 7954 8fbd 53f3 883d dd04 213d
00000210: 187c 633e fa61 ebbe 47ff 673e 060b 0bbe
00000220: 9240 7a3d 8d93 323d e707 d3bd 963b b5be
00000230: 6829 abbd c459 4b3e 297d 053e 1576 f9bd
00000240: 6304 dfbe 7a61 9cbe 5bd1 233e 3467 623d
00000250: 71c4 8dbe 09de 1c3e 9a16 50bd 4ecd b93a
00000260: 803b c1bd e73e b6bc 422f 14be d2c0 153e
00000270: 877a 793e d941 343e f47d fc3c 6e58 3bbe
00000280: 4876 5b3d 5eb9 3ebc 3b98 3bbe 71c4 983d
00000290: 1deb 5abe bb4b 85bd 50ca b33e 1f18 9fbe
000002a0: bb5d ccbd 2b80 673d fd40 39be ac0e 943e
000002b0: 95fb 123f 22c7 403d ac62 553e f0ce 4fbe
000002c0: 5952 123e 2a01 bf3c e30b 91be e07f c2bd
000002d0: c0dd 9b3d 61eb 18be 211d 993d a6d1 df3e
000002e0: 2216 b13d 6b02 33be 25a5 9ebd b901 2f3e
000002f0: bf2f 2ebe 7a66 493e 89c5 8e3e 2e9c d3bd
00000300: 3434 8b3e 6553 a0be 87fc 62bd deb0 ed3d
00000310: 02a4 d8bd eba1 12be 1096 273e c134 ed3c
00000320: e161 513e 367c 46bd bbfd 763e 76bc 363e
00000330: c0df 3c3e 249e 0b3e 1b00 f4bd 76ad adbd
00000340: 3659 e4be 4c16 8d3e e39c 913d bc45 0b3e
00000350: f335 53bc 9eb5 0d3c 9e7e 2dbd b89e 7d3d
00000360: 726d 353d e13d 18bd 29a8 94bd 6e6c 183e
00000370: 11eb 13be 714f 633e cfba c2bd 6e58 99bd
00000380: a9b9 06be bf68 d93c 62b1 f7bd dd26 9cbe
00000390: 4250 013e 5ebc 34bd d2ad 4bbe 33ae 86be
000003a0: 2487 493e 600a eebd f189 903e 01fd 653c
000003b0: aa41 2b3e 8ee0 893d 4ab4 04be 2d5a 963e
000003c0: eeb0 67be 2aa3 9ebd bf35 1a3d 6d62 99bd
000003d0: cb08 923c 323f a03e 3d72 983d ff50 823d
000003e0: e47a 0f3c 847b 443e 509d 433e 5ad2 3a3e
000003f0: b855 fcbe 16b3 b23e b68f 993e 3262 75be
-0.14786126 -0.34916514 -0.27163237 -0.13542095 0.17749217 0.022749603 0.058411136 0.12420983
0.19878408 0.05750142 0.079887144 -0.2632086 -0.32812944 0.020128062 -0.26465043 -0.12493505
0.20498258 -0.06267591 -0.15078035 -0.073331825 0.068315685 -0.2923675 0.23844928 0.13278578
0.119144976 -0.52356404 -0.07953696 0.119605854 0.13887487 -0.21089357 -0.024302479 -0.011111097
0.02697575 0.15211715 0.059439246 0.0997152 0.037671696 0.008251103 0.10229079 -0.1548022
-0.10918408 -0.28450677 0.41911775 -0.021462694 -0.03564843 0.10621886 0.20883982 -0.3010982
-0.09067115 -0.17637555 -0.20066509 -0.2065448 0.10497754 -0.06307351 0.025333796 -0.12482773
-0.44650972 -0.11263811 -0.0152584 0.2391528 -0.25892535 -0.16303447 -0.048755497 0.3895949
0.3250567 0.010108081 -0.15414059 -0.04541431 0.15161431 -0.076342024 -0.119091116 0.12439636
-0.45380962 -0.10831334 -0.47045714 -0.16648172 -0.28215814 0.04816336 0.30006227 -0.0952031
-0.10234164 0.19783518 -0.32173926 -0.11528329 -0.02296129 -0.10575247 0.01357513 -0.08904841
-0.006627139 -0.046282176 -0.08576572 -0.12366644 -0.20754287 -0.031417303 0.18542537 0.12054046
0.027855963 0.2446626 0.1757854 0.134195 0.11752112 0.043466724 -0.029788537 0.16601
-0.031151854 -0.12587814 -0.14855671 0.2399505 -0.2560832 0.06527415 0.054096203 0.158117
-0.10766844 0.24081038 -0.28900874 0.049630556 0.06921009 0.14327604 -0.19812396 0.21206667
-0.01206115 0.12637298 0.15957732 0.15814243 0.2992713 -0.039733894 0.20941992 0.17194596
-0.09272425 -0.06998534 0.066870354 0.03931128 0.22215307 -0.45973188 0.22655974 -0.13578424
0.061096735 0.043597747 -0.103042416 -0.35397023 -0.08357507 0.19858462 0.13036026 -0.121807255
-0.43558034 -0.3054312 0.15997832 0.055274203 -0.27688935 0.15319075 -0.050802805 0.0014175565
-0.09435177 -0.022246791 -0.14471152 0.14624336 0.24363147 0.17603244 0.030821778 -0.18295452
0.0535796 -0.011640875 -0.1831979 0.07459343 -0.21378751 -0.06508585 0.3511529 -0.3107309
-0.09978815 0.056518715 -0.18091197 0.28917444 0.57415134 0.047064908 0.20838422 -0.20293784
0.14289226 0.023315985 -0.2832938 -0.094970465 0.07610655 -0.1493354 0.07476259 0.43714637
0.086467996 -0.17481391 -0.077463426 0.17090501 -0.17010401 0.19667998 0.27885082 -0.10332523
0.27188265 -0.31313625 -0.05541661 0.11606 -0.10578157 -0.1431958 0.16365838 0.02895582
0.20447494 -0.0484583 0.24120228 0.1784533 0.18444729 0.13634545 -0.119140826 -0.08480351
-0.44599313 0.27556074 0.07110002 0.1360082 -0.01289128 0.008649258 -0.04235708 0.061918944
0.04429383 -0.037168387 -0.072586365 0.14885113 -0.1444514 0.22198273 -0.09508287 -0.0748757
-0.13156761 0.026539205 -0.1209438 -0.304984 0.12628272 -0.044124953 -0.19890526 -0.26304778
0.19680458 -0.116230726 0.2823024 0.014037372 0.16724268 0.067322835 -0.129594 0.29365674
-0.22626087 -0.07745965 0.037648913 -0.07489476 0.017826458 0.31298214 0.07443664 0.06363105
0.008757327 0.19187742 0.19102979 0.18244305 -0.49284148 0.34902257 0.29992455 -0.2396324

actor.init_leaf_node_embed.2.add_bias._bias f4 [64, 1]
00000000: 7776 89be e9be e23d 6ee1 4f3c 7f6e 8fbc
00000010: 913e 06bc 6ef3 953e 83ff 683e 4db5 373e
00000020: 1079 c23e 7ac6 2abe 33dd ccbc 07af 313d
00000030: 27d6 31bd fb84 d93d de71 e8be 57ee 0cbe
00000040: 535f 6dbd 765d e03d 3133 f43c b5ec 153e
00000050: c109 87be f655 d4bc 92db e03a 5be0 083e
00000060: 9c47 17be e8a2 babc 1386 db3c d349 1bbd
00000070: 5bd5 27be b3c9 973e 9f0b 8c3d fa8f 083d
00000080: 4a4e a43d bfe5 62be 7515 2ebe 0d61 403d
00000090: a3a5 f63d 5234 ad3e 226b ca3e fb40 e33e
000000a0: 7ffd 3c3e 062f 7d3e e12f f3bd 0860 033e
000000b0: d1f7 7bbd b45b 87be 0413 abbe b882 1ebe
000000c0: df8d c53e 58f2 92bd 9ab9 2fbe f21c d53e
000000d0: 9a34 5cbc d754 5a3e 87bc 9bbe 5c1e 39be
000000e0: ef03 013e 654d b43e 6975 283e 9f7a 2f3e
000000f0: b58c 343e 2933 cf3e 2e00 95be 12c1 36be
-0.26848194 0.110715695 0.012688024 -0.017508743 -0.008193628 0.29287285 0.2275372 0.17940255
0.37982988 -0.16677275 -0.02500782 0.04337981 -0.043417122 0.10621067 -0.45399374 -0.13762794
-0.057952236 0.10955326 0.029809566 0.14641078 -0.2637463 -0.025919896 0.0017155281 0.13366835
-0.1477341 -0.022782758 0.02679733 -0.0379122 -0.16389982 0.29646072 0.06838154 0.03334043
0.08022745 -0.22157954 -0.17000373 0.046967555 0.120433114 0.3382898 0.3953486 0.44385514
0.18456076 0.2472497 -0.118743666 0.12829602 -0.061515633 -0.2643715 -0.33412945 -0.15479553
0.38584802 -0.0717513 -0.17160645 0.41623646 -0.013440276 0.21321426 -0.30417272 -0.18077987
0.12599157 0.35215297 0.16451038 0.1713662 0.176318 0.4046872 -0.291017 -0.17847088

actor.init_next_embed.0.module.weight f4 [32, 6]
00000000: 386c 57be d250 2a3e 2104 abbd 412f 133f
00000010: 836b 863e e526 7dbd fd3f 563e 9a49 a63e
00000020: 0abd 083c 6ec7 243e 7dd5 b73d 3d09 72be
00000030: 017f bf3d 89c8 c7be b2c4 753e 55e5 4cbf
00000040: 2ff5 e23d 92ba 333e fdfb 283f 12a8 113f
00000050: 6eaf e53d 5ee2 dfbd 1cc0 923e 3753 543e
00000060: a354 a7be cd0f 76bd 60cc 45be f1ae 363e
00000070: 8542 0f3d 7808 32be 337c 34be 70ed eb3d
00000080: 3dd2 ea3e 9fc5 b6bc 2a81 babe 461f f5bd
00000090: 97d4 27be 257a 68be 1fa7 c0bc b4fc 04bf
000000a0: fb3c 1cbc 8268 013f 45a9 4abe 5b3c bbbe
000000b0: a5ce 813e 4158 c53d 3b6d f8bd ca36 513d
000000c0: b009 0abe 9e98 82be 20c8 af3e 2073 6cbe
000000d0: 6e42 b23d 36a7 d2bb efe2 b7be c81e 21be
000000e0: e18f 14be e823 e83e dee6 2ebe c200 7bbd
000000f0: 7725 903e bcdc 42bd 1fe4 18be 777b fb3c
00000100: 1f90 85be 7808 cdbd 413c 76be 0353 42be
00000110: 5b24 95be 6983 96be c268 d1bc 9194 61bc
00000120: 8d0e 993e 41a7 28bf d1ae 32bd 4424 d9bd
00000130: 6293 debd 4543 66be 6f59 293e 311c 85be
00000140: 937a 9e3e 95cf 143f 272f 7b3d d616 d3bc
00000150: 5cc9 07be 8cfc 593d 48ba d8bd a215 9cbe
00000160: 656f 943d b42c 153e e045 193c c0c9 8c3d
00000170: b5a4 6e3e 7126 a0be 8dfa 0bbd 20f7 80be
00000180: 10b0 afbd 99f8 13be 79e2 02be 104c 39bf
00000190: f6cc aa3e 7937 9f3e f27a 82be be9e e83e
000001a0: dde7 fe3e 3a52 ff3d f48d 723e dfa0 0f3f
000001b0: cc1d 3cbe 7c35 6ebc 26dd b1be 8602 9cbd
000001c0: d071 11be 1397 e6be a7d1 a53d 307c 65be
000001d0: c0d7 463e 0f5f 9c3e 3102 f2bd 6807 18be
000001e0: 1cc3 553d c4c6 ba3e e633 243e 3f56 a0bf
000001f0: 0e9c 7ebe 3506 bd3e eee3 f33e 768e 35be
00000200: f614 aa3d 31ac c33e 361e cd3e 9cb1 1f3f
00000210: 34f5 67be a690 e23c adac babd e11b eb3c
00000220: ceeb cbbe e699 96bc 2449 b9bd 4a39 42be
00000230: 5232 06be a200 ebbd 0624 9fbd 7bfe 0bbd
00000240: 32b1 67be 09fb 95bd d3cd ac3e 2a6f abbe
00000250: d834 093f 28d3 b6be f3cb 09be ab12 54bd
00000260: 6e6b 113d 7006 f7bd 818d f8be b36b be3e
00000270: 64f8 c6be 7e9e 2ebe 98f9 da3e 334d e03e
00000280: 1b42 873b c8a9 98be dfd7 9d3e f6a5 c8bd
00000290: 724c 0d3e 985e a2be e23c 9f3d d74d 19be
000002a0: a72c e7bd fefa d73d a5f1 04bf 1b98 33be
000002b0: 295d 193d 69b8 833d 853c 383e 767b 2ebd
000002c0: 8101 a93e 4b6c 63be 2ee4 1dbe 822b b0bd
000002d0: 9b17 a9bd 2a72 b7bc 7ba9 81ba 2162 18be
000002e0: bd3f 20bf 071e 183f 2eb2 893d be4c e1bd
000002f0: 4dc5 1fbe 0ed1 bdbd 0684 8f3c 7c1a 23be
-0.21037376 0.16632393 -0.08350397 0.5749398 0.262539 -0.06180467 0.20922847 0.3247803
0.008345852 0.16091701 0.089762665 -0.23636337 0.09350396 -0.39020184 0.24000815 -0.8003743
0.11081921 0.1755164 0.66009504 0.5689708 0.11215101 -0.10931848 0.28662193 0.20734869
-0.3268176 -0.060073663 -0.19316244 0.17840172 0.034975547 -0.17386043 -0.17625503 0.11519897
0.45863524 -0.02231103 -0.3642667 -0.119688556 -0.1638969 -0.22702844 -0.02351719 -0.51948094
-0.009536023 0.5055009 -0.19791134 -0.36569485 0.2535297 0.09635974 -0.12130209 0.05107764
-0.13480258 -0.25507063 0.3433237 -0.23090792 0.08704077 -0.0064286245 -0.35915324 -0.15734398
-0.1450801 0.45339894 -0.17080256 -0.06128002 0.28153583 -0.04757379 -0.14930771 0.030698521
-0.26086518 -0.10011381 -0.24046423 -0.18976979 -0.291293 -0.29397133 -0.025562648 -0.013768331
0.29893914 -0.6588021 -0.04362375 -0.1060262 -0.10867955 -0.22486599 0.16538022 -0.2599807
0.30952892 0.58129245 0.061324265 -0.025767725 -0.13260406 0.053219363 -0.10582405 -0.30485255
0.07247809 0.14567834 0.009355038 0.06874418 0.23305018 -0.31279328 -0.03417449 -0.2518854
-0.08578503 -0.14450301 -0.12781705 -0.7238169 0.33359498 0.3109701 -0.25484425 0.4543361
0.49786273 0.12466855 0.23686963 0.56104845 -0.18370742 -0.014539119 -0.34739035 -0.07617669
-0.14203572 -0.45037135 0.08096629 -0.22410655 0.1941824 0.30541274 -0.11816824 -0.14846575
0.052188024 0.3647977 0.16035423 -1.252632 -0.24864218 0.36918798 0.47634834 -0.17730126
0.08304779 0.3821731 0.40062112 0.62380385 -0.22652131 0.027656864 -0.091149665 0.028699817
-0.39828342 -0.018383931 -0.090471536 -0.18967167 -0.13105133 -0.1147473 -0.07770543 -0.03417824
-0.22626188 -0.07323272 0.3375078 -0.3348325 0.5359626 -0.35707974 -0.13456707 -0.051775616
0.035502844 -0.12061775 -0.4854546 0.37191543 -0.38861382 -0.17052647 0.4276855 0.43808898
0.0041277534 -0.29817033 0.3082876 -0.097972795 0.13798693 -0.31712794 0.07775284 -0.149711
-0.11287814 0.1054592 -0.5193122 -0.17538492 0.03744236 0.06431658 0.17991836 -0.04259821
0.3300896 -0.22209279 -0.15419075 -0.086020485 -0.082564555 -0.022393305 -0.0009892428 -0.14881183
-0.62597257 0.5942082 0.06723438 -0.110009655 -0.15602608 -0.0926839 0.017519008 -0.15928072

actor.init_next_embed.0.add_bias._bias f4 [32, 1]
00000000: a890 1d3f b9ec d5bd d408 d0bd d4bf d33e
00000010: d523 30bc 708a 11bd 1011 913e 7771 e2bc
00000020: 18a4 1fbd fab5 66bd b957 2bbe 37eb 553e
00000030: 8936 63bc 5879 a43e a5df a2bd f853 05bd
00000040: 2e4c a5bc 94c4 bd3e 8c3e 96bc 3f49 0bbe
00000050: fb5f 073f 143b 033e fea1 963c e2b9 24bd
00000060: d465 95bc 83e4 89bd 7581 34bd 546b f3bb
00000070: 8ba6 ecbc 4577 04bc b1a9 44bc ffab c63b
0.6154885 -0.10445542 -0.10157934 0.4135729 -0.0107507305 -0.035532415 0.2833333 -0.027641995
-0.03897485 -0.05632589 -0.16732682 0.20890509 -0.013867983 0.32123828 -0.07952813 -0.032550782
-0.020177927 0.3706404 -0.018340372 -0.1360216 0.5288083 0.12815505 0.01838779 -0.040216334
-0.018237032 -0.06733038 -0.044068772 -0.007428566 -0.028888008 -0.008085077 -0.012003348 0.006062984

actor.init_next_embed.2.module.weight f4 [64, 32]
00000000: e44b 99be c9cb e13d b871 c03d acbd 643e
00000010: c0d4 333e dfb3 eabd 80d1 1b3d dc2f 8f3e
00000020: 65d0 f83d 2f0e 293d cb99 0c3e ae31 57be
00000030: 6516 093b 9997 e73d 83e9 4d3e 24e2 98bc
00000040: 53a9 a23e f5e6 903e 64d7 a3bc 38ad 2a3e
00000050: e66e 763d b349 d5bd 59f3 803e 2196 073f
00000060: df0d 933d 5e12 a93c 9e54 46bb 9fcb 19be
00000070: 962c 96bd 630a e2bd 3ef0 cf3c efc8 d6bd
00000080: c930 c03e 65cf b1bc e87f 11be cdd0 783d
00000090: 4fcf 4b3e 896f 2e3e baed b0be 51ec e73d
000000a0: 025e 16bd 333d a63d 6c66 0cbe c5b5 90be
000000b0: abcf 8bbe b30d c23d 70a4 da3e 18a3 943e
000000c0: 2518 93be 068c a23d 4e4d 1e3e b0e4 80be
000000d0: 938f c8be 1c0c 26be 7467 69be cff7 81bd
000000e0: daeb 58bd 28da f63d c3f8 a83d cd85 20be
000000f0: 2e81 983d 2a4f 773d 98a1 9ebd d879 04be
00000100: c56c 1d3e 6a3b c73e 6d92 a73d 0832 0c3e
00000110: eef5 813d ce6d fa3d 981a 5d3e e505 70be
00000120: 8402 0f3e 255a f9bd f919 7bbd 9a00 94be
00000130: 8831 01bd 0102 c0be 9710 00be 5210 0b3c
00000140: d168 ee3c cdb5 59bd 2cc0 2b3d 961c a6be
00000150: e702 a1be a597 c33e bae2 293e 8676 e0bd
00000160: 3c5b 243e 891f a7be b0fc 1d3d 3166 213e
00000170: a972 843e 5dc0 c0bd f7b8 b4be 39ff 373e
00000180: d378 193f 913e 7d3e 9192 1bbe 9602 a43e
00000190: 7870 3b3e 41c4 78bc 4f8e de3d 2b0f ffbc
000001a0: 73b4 313c 94ca c63e 3d54 183e fa3e be3e
000001b0: f1a2 963d 8dba ac3e ccf6 39be 7070 a83d
000001c0: 7f42 2b3e 3075 b73e e1ec d9bd 26e1 353e
000001d0: c674 9d3e 55e1 453e b6e6 fdbd 82e9 8dbe
000001e0: 89f9 59bd d227 8dbc d8e4 87be 9660 1c3e
000001f0: 5ca3 ca3d 15bd 373d ee7e 4d3e edc9 063d
00000200: 4ee2 e23e b781 b1bc 795a b5ba 0c77 bb3e
00000210: f713 5d3e 916d 2b3e 66ac 9d3d 1931 283e
00000220: a400 353e f8f6 b9bd 449a acbc 9477 14bd
00000230: 9f62 0cbe 6071 c7bb 214b 38be a0f7 a7be
00000240: a66e be3d d04d b03d bb0e 2c3d 94c1 96be
00000250: 5ded fa3e fb18 4e3e f103 86bc 0ca8 80bc
00000260: 48ff 2a3e fb3c 393e 762e 233e 4090 c6bd
00000270: 13d4 6b3d 807f 183d 7500 093e 0535 f1bd
00000280: b0eb 21bf e033 01bf 001c 75bd ce49 03bf
00000290: 13aa 8d3c e753 1b3e 88e1 5fbe 93cf 1a3e
000002a0: 9e7a ba3d dd1b 093e 9892 52be bafb 89be
000002b0: 30a4 debc 80cd b7bd 2f86 62bd 8310 043e
000002c0: 2e60 723b 42d1 67bd 843d 2d3e 73d1 2dbc
000002d0: d3fd f8be 845e e5bd 50b6 903d 9eaa 80bd
000002e0: 5cc6 68be 7419 61be 4c41 0bbe a929 36be
000002f0: a459 fe3d ea8f 58be 00ff 013c 1c00 2cbe
00000300: b977 293e 5c4e 29be 2eed 85bd 30ea aa3d
00000310: 461a e8bc 7089 9c3d f089 57bd 2606 4abc
00000320: 6c9d ed3e d309 653d 5921 2cbd 38c6 93bd
00000330: 9926 51be 4e14 85bc 734c b0be 5653 8cbe
00000340: 965a e2be ee2f 3e3b f5d9 b0be f929 10be
00000350: 0af3 c3bd e352 103b 6c00 8a3d 5beb 9ebd
00000360: 9542 55bd d7be 38be e37b 043d fd5a fd3c
00000370: e649 95bd 0cb2 4e3e 8517 3dbd d03a 183e
00000380: b7a3 313f d2de 173e f79b de3c 476c 943e
00000390: e715 df3d 7b9a 73be e51b 803d 3940 153e
000003a0: b5d4 46bd 004c d83d b05c 373d f8b8 f93e
000003b0: 4bf8 ad3e 5c55 07be 01ff 903e 42b7 20be
000003c0: e139 c23d ea98 503e 2ccc 663d 2955 98bd
000003d0: ad9a 0ebe 9cb2 153f e81b 2d3e 40cc 8c3d
000003e0: 4230 633e fe49 4c3d c584 89be b5cb e7bd
000003f0: a7f0 34be 31e8 2dbe d117 c83e 35c7 493d
-0.29940712 0.11025197 0.0939669 0.22337979 0.17561626 -0.11460089 0.03804159 0.279662
0.12149123 0.041273292 0.13730542 -0.21015045 0.002091789 0.11308212 0.20108609 -0.01866252
0.3176981 0.28301206 -0.020000167 0.1666764 0.060164355 -0.10414448 0.2518566 0.52963454
0.0718038 0.020638641 -0.0030262838 -0.15019082 -0.07332723 -0.11037137 0.025383111 -0.10487544
0.3753722 -0.021705339 -0.14208949 0.060746003 0.199033 0.17034735 -0.3455637 0.11324371
-0.036710747 0.081171416 -0.13710946 -0.2826368 -0.27306876 0.09475269 0.4270358 0.2903068
-0.28729358 0.079368636 0.15459177 -0.25174475 -0.39172038 -0.16215557 -0.2279337 -0.06346094
-0.0529593 0.12053329 0.082505725 -0.15676041 0.07446514 0.06037823 -0.07745665 -0.12937105
0.15373524 0.38912517 0.081822254 0.1369096 0.063457355 0.12227975 0.21592176 -0.23439749
0.13965803 -0.12175397 -0.061304066 -0.2890671 -0.031541377 -0.3750153 -0.12506329 0.008487778
0.029102715 -0.053151894 0.041931316 -0.32443684 -0.31447527 0.38201633 0.16590396 -0.109601066
0.16050428 -0.32641247 0.03857106 0.15761639 0.2586873 -0.094116904 -0.35297367 0.17968453
0.5994999 0.24730898 -0.1519263 0.32033223 0.18304622 -0.015183509 0.10866987 -0.031135162
0.010846245 0.3882643 0.14875884 0.37157422 0.07355297 0.33736077 -0.18160552 0.08224571
0.16724585 0.35831594 -0.10640884 0.17761669 0.30753154 0.19324239 -0.1239752 -0.27717215
-0.05321649 -0.017230902 -0.2654178 0.1527122 0.098944396 0.044858057 0.20067951 0.032907415
0.44313282 -0.021668298 -0.0013836167 0.36614263 0.21589647 0.16741015 0.07698898 0.1642498
0.17676026 -0.09080309 -0.021069653 -0.03624685 -0.13709496 -0.0060865134 -0.1799741 -0.3280611
0.09298448 0.086085916 0.042006236 -0.29444563 0.4900922 0.20126717 -0.016359301 -0.015705131
0.16698945 0.18089668 0.15935692 -0.09695482 0.057575297 0.03723097 0.1337908 -0.11777691
-0.63250256 -0.5046978 -0.059841156 -0.5128449 0.017293012 0.15168725 -0.21863377 0.15118246
0.091054186 0.13389535 -0.20563734 -0.26949865 -0.0271779 -0.08974743 -0.05530375 0.12896924
0.0036983597 -0.05659605 0.16917998 -0.010609019 -0.48631153 -0.11199668 0.07066023 -0.06282543
-0.22731918 -0.21982366 -0.13599128 -0.1778933 0.12419441 -0.21148649 0.007934332 -0.16796917
0.16549577 -0.16533798 -0.06539379 0.08345449 -0.02833284 0.076434016 -0.05262178 -0.012330567
0.46409166 0.055917572 -0.04202399 -0.072155416 -0.2042488 -0.016245034 -0.34433326 -0.2740733
-0.44209737 0.0029020268 -0.34541288 -0.14078511 -0.095678404 0.002202206 0.06738362 -0.07759734
-0.05206545 -0.1804155 0.03234471 0.030927176 -0.07289486 0.20185107 -0.046165008 0.14866185
0.69390434 0.14831093 0.02717398 0.2898886 0.108928494 -0.23789398 0.062553205 0.1457528
-0.048542697 0.10561371 0.044766128 0.48773932 0.33978495 -0.13216156 0.28319553 -0.15694907
0.09483696 0.20370832 0.056347057 -0.07438118 -0.13926192 0.5847566 0.16905177 0.06874895
0.22186378 0.049875252 -0.26859108 -0.11318151 -0.17669927 -0.16983105 0.3908067 0.049262244

actor.init_next_embed.2.add_bias._bias f4 [64, 1]
00000000: 9284 f4bd b0e3 c9bd 7eb8 9e3a c1d0 4c3f
00000010: e1e3 ee3e 575d 52bf 60b3 753d 967c 133f
00000020: 1b33 a5be 0e03 50bd eda0 e63d fec2 a43e
00000030: fc67 fa3d 5841 9abe 40a1 123f dcbf cbbe
00000040: 4dd6 133e 85fd a83e 4a84 253e cf54 583e
00000050: 41d7 6dbe b0ee 243d 0548 fdbd d737 cabe
00000060: 0aa1 04be 3b02 37be df4f 23bf 342a 73bd
00000070: a14d 553f 7e7c 75bd de3f 91be 6f67 e13e
00000080: a75f 25be 1fc5 063e 5246 8fbd 25e1 43be
00000090: 9763 bebe 44f2 24bf bf5b 11bf 8152 19bf
000000a0: 2efb c0bd d39f c8bd 5dba 27be 6eb2 abbe
000000b0: f55c 95be 7946 2c3f 7c78 fc3d b48b 483d
000000c0: 842e 103f 2b1e 5b3e 33d3 7cbf 9153 f0be
000000d0: 27c6 253e f6ba f6be 5f86 523f a92d 81be
000000e0: c0e0 63bd 0dd1 15bf eadb f3bb 3f9c df3e
000000f0: 8624 d33d f01f 863e 1e45 19be 6565 71bd
-0.11939348 -0.09857881 0.0012109426 0.80006033 0.46658233 -0.82173675 0.05998552 0.5761198
-0.32265553 -0.050784163 0.11261163 0.32180017 0.12226865 -0.30127978 0.572773 -0.39794815
0.14437218 0.3300592 0.16163746 0.21126102 -0.23226644 0.040266693 -0.12367252 -0.39495727
-0.12952057 -0.17871945 -0.6379375 -0.05936642 0.8332158 -0.059933178 -0.2836904 0.44024226
-0.1614977 0.13161133 -0.069958344 -0.19128855 -0.37185356 -0.6443217 -0.5678062 -0.59891516
-0.09422909 -0.09796109 -0.16379686 -0.3353457 -0.29172483 0.6729503 0.12327668 0.048961356
0.5632098 0.21398227 -0.98759764 -0.46938756 0.1618887 -0.48189515 0.82236284 -0.25230148
-0.05563426 -0.5852211 -0.0074419873 0.43673894 0.10309701 0.2619624 -0.14967772 -0.058934588

actor.embedder.layers.0.0.module.W_query.weight f4 [64, 64]
00000000: d614 a0bd aeca e13c 22f5 42be a96e 92bd
00000010: 6e62 03be a185 003d da88 42bd dbd1 05be
00000020: 6cc0 673c f786 68bd 330a 2b3d e1fd 603c
00000030: 83c8 113e a530 bc3d 5984 b6bd fee1 b6bb
00000040: ca66 04be 9066 d63d e3e2 f5b9 26d2 903d
00000050: 74db 0bbe 51ac 4b3d c3f3 c6bd 1336 5fbd
00000060: b6c3 65bc 815c 5e3d e920 913d 3957 d6bd
00000070: a5db 14be 4026 083e 002e 96bd 8e79 d63c
00000080: 44e3 983d ca0b 0cbe 6a92 bfbd f89b ee3c
00000090: a4a1 9dbd 342f 19bc 27d0 a13d 630a 943c
000000a0: 72db bd3b 7bec a3bc deff 1abe bfff 0abe
000000b0: a3aa e33b 012f debd be77 bb3d cf6e 633d
000000c0: 7f31 423d 2b15 02bc 280b a7bd d99b 393d
000000d0: 79b0 10be 2bf8 a5bd 2167 b7bd 8512 1dbe
000000e0: 78b5 afbd af08 5d3d 0c81 5ebd e4d8 c63d
000000f0: 06da 93bd cb0f 8f3d 88ef 703d 2192 da3d
00000100: f744 633d db3b d43d fa1c acbc 8c70 0dbd
00000110: 793d 93bb 6232 ca3d ca1c 0b3d d906 b03d
00000120: 5ff7 913d 7164 02be c866 15bd d870 d53d
00000130: 4417 ac3d e47e 3fbe 2a88 cb3d 901a 6dbd
00000140: 60ed 1e3d a967 f13c b2f0 e7bc ca0b b83d
00000150: d5ce 2c3d b4f8 223e ee23 f23d adc7 b4bd
00000160: 6c36 573c 2c34 e0bd b948 da3d 49d9 99bd
00000170: 150a ba3d f3d7 17be 8daf f13d 6205 c33d
00000180: 21bd c1bd df33 77bd e003 9a3c b534 28bc
00000190: 53c6 e3bd cd23 adbd 91a6 96bd 3d7b 58bd
000001a0: ca57 e53d d67c 87bd 88cd e33d daf7 25bd
000001b0: 30be ad3c 77fa a83d ede9 f1bb a730 12bc
000001c0: 39fc d3bd 74cc ad3d 1810 ac3b ffdb bb3b
000001d0: 3eae a83b b0fa 73bd 78aa c5bd b746 c0b9
000001e0: 83e9 433d 1938 723d 0b01 873d c7cf 3b3c
000001f0: ae87 a33d b527 2dbd dca1 01be a859 933d
00000200: d85e b3bd 70e6 ea3d f34b 303e 295b b6bd
00000210: 5ccf 0cbd 738a 173e 4b9a 8ebd fc9f 8d3d
00000220: 15c7 193e b729 68bd 9732 c6bd ffdf 913d
00000230: ce63 42be e915 833d cbec 21be b7c9 08be
00000240: 2645 0bbc f453 8d3d e33d 21be 2a6b acbd
00000250: 2f68 8e3d beca 54bc 05f8 8bbc bd8c 243d
00000260: ce92 d8bc bf5b dd3d d971 bfbd f888 23bd
00000270: 5fe4 b43d 1505 bebd 3c8c 1c3e b848 a13b
00000280: bd82 e03d c6d5 f63d a71d d6bc 15c8 e63c
00000290: df60 78bc 007c fb3d 5f78 a23b f555 1cbd
000002a0: 7216 60bd a42a df3d f36d 2b3e 9d31 d3bd
000002b0: e84d 2ebe a486 05be e71e 1cbd bb9c 86bd
000002c0: da07 5dba 9caa 87bd c67d 73bd 4ea8 0e3e
000002d0: fd36 edbc 7be5 943d 4bcf afbd 7770 b4bd
000002e0: 35ac c63d 4672 583d 261c dc3c 28f4 1b3e
000002f0: d260 e63d ff0f b5bc 0459 143d 84e6 8d3d
00000300: 4acd 883c 7746 343d abd9 4e3c b883 f13d
00000310: 3129 6cbd f757 84bd 7b10 ccbd 401b 50bd
00000320: 2308 e7bd 243a 47bd 540d c2bd 1e0f 6bbd
00000330: 8d98 afbd a4c3 243c 9efe 133d 2f78 ab3c
00000340: e8c3 42bc 0f69 c33c c3b9 98bd a72a f03c
00000350: 5cef c33d fe43 9b3d 1446 8dbd 99a5 a83d
00000360: 821b 80bd 2e15 f53c 9df9 c7bd a1e5 a7bc
00000370: 8724 183e e7b8 983b 359d a2bd 9392 783d
00000380: 01d2 153e a9ec 29bc 40ab 06bc 1d52 db3d
00000390: 4a7e 953d 6fa5 d53d f59a 993c 388a c2bd
000003a0: 41fc ce3d 9416 7dbd 33ec c43c ef10 9e3d
000003b0: 3353 72bd db36 ccbb 4b22 b43d d2b6 7abd
000003c0: a27b b83d d9da 9b3d e3f1 04bd 7222 ea3c
000003d0: 8495 85bd a7eb 323c b5f4 963c 4f81 913d
000003e0: 3c3a 0abd b9de dabd 2033 5cbc cf8e 49bd
000003f0: 5218 eabd 0f09 50bd 0683 8b3d 12a3 0b3d
-0.07816474 0.027562466 -0.19038823 -0.07150013 -0.12830517 0.03137744 -0.047493793 -0.13068335
0.014144998 -0.056769338 0.041757774 0.013732404 0.14236645 0.09188966 -0.08911962 -0.0055811396
-0.12929836 0.10468781 -0.00046899085 0.07071333 -0.13657933 0.04972488 -0.097144626 -0.05449493
-0.014023712 0.054287437 0.07086355 -0.10465855 -0.14536913 0.13295841 -0.073329926 0.026181009
0.074652225 -0.13676372 -0.09354098 0.029127106 -0.07696846 -0.009349633 0.0790103 0.018071359
0.005793982 -0.020010224 -0.15136668 -0.13574122 0.0069478317 -0.10848809 0.091536984 0.055525597
0.047410484 -0.007939617 -0.08156425 0.045314644 -0.14129819 -0.08103975 -0.08955217 -0.15339096
-0.08579534 0.05396336 -0.054322287 0.09709337 -0.07219319 0.06985434 0.058822185 0.10672403
0.055485692 0.10362979 -0.02100991 -0.03453116 -0.004493412 0.09872891 0.033963002 0.08595056
0.071272604 -0.12733628 -0.036474973 0.10421914 0.08402875 -0.18700749 0.099380806 -0.05788666
0.038800597 0.029468374 -0.028313015 0.089866236 0.042189438 0.15915185 0.11823259 -0.08827148
0.013135534 -0.10947451 0.10658402 -0.07512147 0.09083954 -0.14828472 0.11801062 0.09522511
-0.094599016 -0.060352203 0.018800676 -0.010266473 -0.11121812 -0.08454094 -0.07355989 -0.052851904
0.11198385 -0.066156074 0.11123186 -0.040519573 0.021208853 0.082508974 -0.0073826225 -0.008922732
-0.10350842 0.08486262 0.005250942 0.0057330127 0.0051477244 -0.059565246 -0.09651655 -0.0003667378
0.047830116 0.05913553 0.06591996 0.011463112 0.07984863 -0.042274196 -0.126594 0.07194835
-0.087583244 0.11469734 0.17216472 -0.08904106 -0.03437744 0.14798908 -0.06963023 0.0691528
0.1501735 -0.056680407 -0.09677618 0.07122802 -0.18983385 0.064006634 -0.15812986 -0.13358198
-0.008500373 0.069007784 -0.15746264 -0.084188774 0.06953465 -0.012987791 -0.017086038 0.04017328
-0.02643719 0.10808515 -0.093478866 -0.039925545 0.08832621 -0.09278313 0.1528787 0.004921999
0.10962436 0.12052493 -0.026137186 0.028171578 -0.015159815 0.122795105 0.004958197 -0.038167913
-0.054708906 0.10896805 0.16741161 -0.10312197 -0.17021906 -0.13039643 -0.03811541 -0.06572863
-0.0008431651 -0.06624338 -0.05944612 0.1393139 -0.028956885 0.072703324 -0.0858446 -0.088105135
0.09700815 0.052843355 0.026868891 0.15229857 0.11248936 -0.022102354 0.036217704 0.06928733
0.016699452 0.044012513 0.012625138 0.117927015 -0.05765647 -0.064620905 -0.09964081 -0.050807238
-0.11280849 -0.04863943 -0.094751984 -0.057387464 -0.085740186 0.01005641 0.036131494 0.020931331
-0.011887528 0.023853807 -0.07457306 0.029317213 0.095671386 0.07581328 -0.06898132 0.0823471
-0.06255247 0.029917326 -0.09764407 -0.020495238 0.14857684 0.004660714 -0.07940141 0.06068666
0.14630891 -0.010371366 -0.00821954 0.10709021 0.07299478 0.104319446 0.018750647 -0.094990194
0.10106707 -0.06178911 0.02403841 0.077180736 -0.059161376 -0.006232125 0.08795603 -0.061209507
0.09007956 0.07610101 -0.032457244 0.028580878 -0.065226585 0.010920442 0.018427232 0.07104742
-0.033746943 -0.10687012 -0.0134399235 -0.04920846 -0.1143042 -0.05078989 0.068121 0.034091063
