logs/experiment/Discrete_acktr_20x10x10Bin_s42_inh_800_defaultBox-2022.08.18-13-06-52/PCT-Discrete_acktr_20x10x10Bin_s42_inh_800_defaultBox-2022.08.18-13-06-52_2022.08.18-19-19-05.pt (torch, 236314 bytes, 24 tensors)

actor.init_internal_node_embed.0.module.weight f4 [32, 6]
00000000: 7f3c 833e d8ad 0f3f 668e 203f 08a5 9dbe
00000010: 3246 2b3d e2a1 303e 10bf 533e 6b25 c43e
00000020: ab75 2cbc 19dc 0dbe eb88 8fbe e869 06be
00000030: 1f8b ab3d e03d 22bd d1bd 723d 4f24 8b3d
00000040: c754 89be 2e99 763d e651 07bf 5664 25bd
00000050: 6ca6 cfbe 42de 0d3f b294 983e 0fb5 5e3f
00000060: 308f f53e 83f5 6bbe cc8d c73c 8104 933d
00000070: 343d 4b3d 9811 ffbd c99c 673e af68 f63d
00000080: 412d b8be d202 d83e 8b26 0ebe 7a0d 97be
00000090: a918 dbbe ff97 5b3e 1724 1b3e ceff 523e
000000a0: da8f a3be 712f 20be c2d3 533e 86dd 7ebd
000000b0: 1f0b dd3e 013e 413d 3d66 49bf 4afd 023e
000000c0: df37 efbe cf51 963d b00d 53bf e46e db3e
000000d0: 2726 2c3d b281 b73d 0605 1a3f 4cdf 6f3c
000000e0: 94c5 cdbd e010 473e 717f 87be e78d 1dbe
000000f0: dca5 86bd 4ad7 933d a4a4 b1be 4903 0f3f
00000100: 5a71 0d3f 9e05 23bf 2340 83be f421 43be
00000110: f215 37be 3363 f1bc 2151 aabe 9594 46be
00000120: 6918 793f d215 b13d 2b5e 0a3e 7d21 2dbe
00000130: ea18 b2bd d740 67be 000d e23e 0b24 c2ba
00000140: e392 26be f1be 1bbe c82b b33e 2555 b7be
00000150: a9b2 bd3e 7a6f d43e a6d7 aebe 8b41 3ebd
00000160: b8cf c93d 71ce a2bd d6b7 b6bc 02ca 91be
00000170: 1a06 73be bda6 a4bd 61a1 023e f80b 8ebe
00000180: 9090 5e3e 7af2 2cbe e30d d53e 6632 52bf
00000190: 2744 043f 5670 ff3e ab52 e43d 24bc 493d
000001a0: 733f ff3d 7967 2a3e b635 0bbf ea10 b6be
000001b0: bf3b cd3e c45c ab3d dd04 dbbe 2b30 273e
000001c0: 9670 233e 29a8 f6bc 9fc7 be3e be7d 53be
000001d0: 66cf 573d 1cf9 7dbe a185 a3bd fd8e ed3d
000001e0: 3ac8 bc3d fbf6 673e e063 e8be edf7 803e
000001f0: 656e fa3c dc9b fdbe be15 e6bd c1f4 9abd
00000200: 9ae1 95be 3386 b53d 55f9 00be b5c3 b9be
00000210: 0d9b 3ebf beec 5dbf 0101 54bf 4d47 013f
00000220: d8e2 e93e 2a2e e93e 7c99 98be e502 e7bd
00000230: b8b9 24be 5617 ac3d 4229 38bc a144 123f
00000240: 37fc 13be 83f9 02bd 2587 853f ef9a bd3e
00000250: 7785 ea3d 3033 5a3e 959c d4bc abd8 623e
00000260: 2641 c63e 6a51 acbe a8e2 7cbd 9a07 e33e
00000270: 0861 b9be da74 683c 7095 a7be df8d cd3d
00000280: 725a 933e 9fa0 02bd fc1b 8ebd e9fd 053d
00000290: 8897 b53e 12ea b7be c996 03bd 2c1b 36be
000002a0: 64cf b1be 1008 13bf 1e7d afbd dd2c 293d
000002b0: 86b0 0b3e 2dd8 8a3d 508a 8cbe 6323 133e
000002c0: 71ec cd3e 8338 60be 066f 2ebd cc04 c4bd
000002d0: e005 d43e d0a5 0a3d 2021 743c 76c0 d6bd
000002e0: d46f 333e 30fd d0be cd62 9c3e 35de 283e
000002f0: ed2f 87be ed48 5fbe 7130 a13c b981 a63e
0.25632092 0.5612464 0.6271728 -0.3078997 0.04181499 0.17249253 0.20678353 0.38309798
-0.010526101 -0.13853492 -0.28034148 -0.13126338 0.083761446 -0.03960979 0.059263054 0.06794035
-0.26822492 0.060204677 -0.5285934 -0.04037889 -0.40556657 0.55417264 0.29800946 0.86995023
0.47960806 -0.23042874 0.024359606 0.071785934 0.049618915 -0.124545276 0.22618403 0.120316856
-0.35972026 0.42189652 -0.1388189 -0.2950247 -0.42792252 0.214447 0.15150486 0.20605394
-0.31945688 -0.15643097 0.20686248 -0.06222298 0.43172547 0.047178272 -0.7867163 0.12791935
-0.46722314 0.073398225 -0.8244276 0.4285804 0.042028572 0.08960284 0.60163915 0.0146406405
-0.10047451 0.19440031 -0.26464418 -0.15386163 -0.06574604 0.072187975 -0.34695923 0.5586439
0.55251086 -0.63680446 -0.2563487 -0.19055921 -0.17879465 -0.029466247 -0.3326502 -0.19392617
0.9730287 0.0864674 0.13512485 -0.16907306 -0.08696158 -0.22583328 0.44150543 -0.0014811767
-0.1626697 -0.15209557 0.3499434 -0.35807148 0.3705037 0.414913 -0.34148902 -0.046449225
0.09854072 -0.07949532 -0.022304457 -0.28474432 -0.23732796 -0.08039615 0.12756874 -0.27743506
0.21734834 -0.16889372 0.41612157 -0.8210815 0.5166649 0.49890393 0.1114858 0.04925169
0.12463274 0.16641034 -0.5437883 -0.3555978 0.40084645 0.08367303 -0.42777148 0.16326968
0.15960917 -0.030109482 0.37261674 -0.20653436 0.052688025 -0.24802059 -0.07984472 0.115995385
0.09217878 0.2265281 -0.453887 0.25189152 0.030570218 -0.49532974 -0.11234616 -0.07566214
-0.29273683 0.08863487 -0.12595113 -0.36282125 -0.7445534 -0.86689365 -0.8281403 0.5049942
0.4568088 0.45543033 -0.298046 -0.11279849 -0.16086471 0.084028885 -0.011240305 0.5713597
-0.14451681 -0.031976234 1.0431868 0.37032267 0.11451238 0.21308589 -0.02595357 0.22152965
0.3872158 -0.33655864 -0.061739594 0.44341737 -0.3620684 0.014188016 -0.327312 0.100368254
0.28779942 -0.03189146 -0.06938931 0.03271285 0.35467172 -0.3592077 -0.03212622 -0.17783803
-0.3472854 -0.5743418 -0.08568786 0.04130255 0.13641557 0.067795135 -0.27449274 0.14368968
0.40219453 -0.21896558 -0.04258635 -0.095712274 0.41410732 0.033849537 0.014900476 -0.10485928
0.17523128 -0.40818167 0.3054413 0.16491015 -0.26403752 -0.21805163 0.019676419 0.32520846

actor.init_internal_node_embed.0.add_bias._bias f4 [32, 1]
00000000: d556 023d dd97 853c 2729 f4bc d088 7b3d
00000010: 3b91 fc3d 9634 2d3c 3a2c 72bc b9b5 b53c
00000020: 8697 e93c 8789 a13d 5dca cd3c f35a 9e3c
00000030: 67a2 223d 28bc c23c 3f52 c83b 3bcb a5bb
00000040: 739c 4a3c e555 2c3c 4a75 bf3a 2e88 dc39
00000050: c3bf 43bc a0fb b43c 10d4 8ebb 78d3 dabb
00000060: efbb 853d 9f94 7b3c 4d21 38bc baea 94bb
00000070: 49f5 6a3b 5a4f 81ba ce66 353c ae11 183d
0.03182109 0.016307766 -0.02980478 0.06140977 0.12332388 0.0105716195 -0.014781052 0.022181379
0.028514635 0.078875594 0.025120908 0.019330477 0.03970566 0.02377136 0.00611332 -0.0050596274
0.012366402 0.010518526 0.0014607098 0.00042063132 -0.011947575 0.02209264 -0.004358776 -0.006678041
0.06529986 0.015355258 -0.011238408 -0.004544583 0.0035851768 -0.0009865568 0.011071874 0.037126236

actor.init_internal_node_embed.2.module.weight f4 [64, 32]
00000000: 9121 65be ce6a 413d 8450 11be ecfd e63e
00000010: 8624 013e 6f24 403d 2fe9 aa3d 1c17 0e3e
00000020: 7428 a9be ba40 a8be bc67 fdbd 7255 87bd
00000030: 9f6d b6be 5aa0 2cbe 2a8c dcbc ddee 32be
00000040: 7f8e c63e da46 8cbd 534e 43be a4c2 873e
00000050: 30d0 d33d 6126 a5be ce30 d2bd 34a1 3fbe
00000060: 58d8 753e 958d b83e 4a83 013e 719d c93d
00000070: f5a1 48bd 6b0c 18be 5a50 79be fef2 013e
00000080: 7618 d5be 8b98 c7be 05ab b2be 4568 9ebe
00000090: 0bf7 7f3d a508 943e e910 7a3b 1d0b d33e
000000a0: 57fc 123c 074e 5abd 19fc 85bd 51c7 22bd
000000b0: 5496 aebe 3308 ad3d 96cf 62be 67e2 253e
000000c0: b9d1 583d 993f 613d ffea cfbe ace2 2cbe
000000d0: 82b9 cc3e fe04 da3d 1696 f43d 96bb 9fbe
000000e0: 5064 93be ccc4 c13d a918 5fbd 17c0 263e
000000f0: 4b73 88be a60a 373e 79a8 c43e 6b15 f8bc
00000100: bc96 4d3f 60b4 3dbe 44a2 2fbd e15c ad3e
00000110: 4b7c 85be 49bb 4f3e 14a8 8abe ce96 a1bd
00000120: e785 863e 3b5d 963e 889f e03d 1ac6 cfbe
00000130: 6d76 703f 3030 0ebe 85d2 0e3e ff58 24bc
00000140: 81f0 8d3e 8d36 b53d 50c0 0b3d 80f5 743e
00000150: a1eb ccbe d133 42be 6e5d eb3d eab5 c1bd
00000160: 2b0c 073f ae32 81be ae0d b5bd 8b07 4dbd
00000170: 8efd 0d3e c52c d63d c4f2 923e 6b9d 113e
00000180: 4d22 1cbc b348 213f ba1f 06be 68fd 05bf
00000190: 8568 fe3c 9326 24be 196f 9fbe 9c61 543d
000001a0: c965 53be a8d9 063d a1fa 6abd 26ca 053f
000001b0: 2e30 2a3e 5e3e 23be 2a91 05be 1405 31be
000001c0: 567e 21be b575 30be d4d2 5bbe 25d8 4bbe
000001d0: c264 a8be 4bea f93d 18c0 7d3e 65f4 7c3e
000001e0: 135b b9be 4dc7 273e f7ce 243e f682 223d
000001f0: 0e83 463e 23bb 0d3e 81e5 c43d 430c fbbd
00000200: b10d afbe 3573 36bd 6f08 d23d 6297 84bc
00000210: 2a65 0dbe 3095 e03c 8d0b fbbd 31c4 c5bd
00000220: 5fb2 923d d2c4 083e 6873 353d b66c 9fbe
00000230: cf73 57bc 1bf3 aa3e 30de ea3d 72f5 20bc
00000240: 74ea d03c 260f 493d 1c16 a4be 3748 5ebe
00000250: 7d20 50bd c8f4 e4bd 22a7 0a3f 5557 86be
00000260: e186 fdbe 83f8 81bc 66ac 143e 9d6f 203c
00000270: ce23 523e 2d84 15ba 8339 1f3e baf1 413c
00000280: 37b7 cabe 7b9d 233d e18b 7fbd 9b00 593d
00000290: 6fa7 163f 4e6e 5d3e ff65 953e e0a9 b1be
000002a0: ba52 a63e 2ff7 f73e ff83 163f 278c 533e
000002b0: b6a8 063e 3b76 433e fd0a bf3e 2ccf 2abc
000002c0: 1922 5abe 6b6a 443d b50b 8c3d cd7c 13be
000002d0: 483a cf3e 09a2 c2bb c58c 75bd 1e96 c4bd
000002e0: 9bd8 5fbf b190 be3d 95c3 82be 3894 6ebe
000002f0: af93 65bd 2123 0c3b 9f00 e73e dc8d bebd
00000300: 363b 9b3d c935 52be f56c 1dbe 1e1c e9be
00000310: 97ae ae3c 83e4 203d b90a 71bd 9715 7ebd
00000320: 19a3 c0bd fc4b 133f d95d febd c75a 333d
00000330: 0124 473f 6cde b7bc 3fd3 243e 1e75 45bd
00000340: ab9a 44be 7ee9 79be 671e 213f 2ea5 5f3e
00000350: 752f cabe bcdb fa3c 7b72 92bd 62f8 283e
00000360: f947 78bf 7adc 7bbe 1e29 5d3e 7bfb 3c3d
00000370: 561f 903e ff53 a53e 0d8c 3ebd 1023 1bbe
00000380: fda9 3e3f b0f2 633e 2a93 983e f749 b83e
00000390: 88f5 efbd 0604 0f3e 8650 913e 3640 253e
000003a0: 8a51 67be fc66 afbe 6f31 97bc 5f91 82be
000003b0: 19ad 023f 6967 abbe 62b1 2ebd c24a 423d
000003c0: f5bf c43c f197 56bd d9c2 8f3e a35a 82bd
000003d0: a82b 8bbd 301a 47be cfdd 653c 7252 be3d
000003e0: 97f2 233f 9611 48bc 1cf7 753e f391 0dbd
000003f0: b150 243e 8b5c ba3e 08fa 00bf f56a 2fbe
-0.22376086 0.047220998 -0.1419087 0.45115602 0.12611589 0.046909746 0.083452575 0.13876003
-0.33038676 -0.32861882 -0.123733014 -0.06608094 -0.3563051 -0.16858044 -0.026922304 -0.17473932
0.3878059 -0.06849451 -0.19072847 0.26515687 0.10342443 -0.32255843 -0.10263215 -0.18713838
0.2400831 0.3604552 0.12647739 0.09844483 -0.04898258 -0.14848487 -0.24347058 0.1269035
-0.41620225 -0.3898357 -0.34896103 -0.30938926 0.062491458 0.28912845 0.0038157052 0.41219416
0.008971295 -0.05329707 -0.065422244 -0.039740864 -0.34099066 0.084488295 -0.221495 0.16199647
0.052934382 0.054992292 -0.40608975 -0.16883343 0.3998528 0.106454834 0.11942689 -0.31197804
-0.2878747 0.09461364 -0.054466877 0.16284214 -0.26650462 0.17875156 0.38409784 -0.03028365
0.8030813 -0.18525839 -0.042879358 0.33859923 -0.2607139 0.20286287 -0.27081358 -0.07890092
0.26274034 0.29368004 0.10967928 -0.40580827 0.93930703 -0.1388557 0.13947494 -0.010030984
0.27722552 0.08848295 0.03411895 0.23921776 -0.4002352 -0.18965079 0.1149243 -0.094585255
0.5275294 -0.25233978 -0.088405 -0.05005602 0.13866255 0.10457758 0.2870084 0.14220206
-0.009529662 0.63001555 -0.1309804 -0.5233979 0.031055698 -0.1603034 -0.31139448 0.0518509
-0.20644297 0.032922417 -0.057367925 0.5226158 0.16619942 -0.1594176 -0.13043657 -0.17287093
-0.1577085 -0.17232402 -0.21467143 -0.19906671 -0.32889372 0.12202891 0.24780309 0.24702604
-0.36202297 0.16384621 0.16094576 0.039675675 0.19385931 0.13840918 0.09614087 -0.12258198
-0.34190133 -0.044543464 0.10255515 -0.016185466 -0.13808122 0.027414888 -0.122580625 -0.09656561
0.07162928 0.13356331 0.044299513 -0.31137627 -0.0131501695 0.333886 0.1146816 -0.009824144
0.025502421 0.049086712 -0.32048118 -0.21707235 -0.050812233 -0.11179501 0.54161274 -0.26238504
-0.49516967 -0.01586557 0.1451889 0.009792236 0.20521471 -0.00057035947 0.15549283 0.011837417
-0.39592907 0.039945107 -0.06238926 0.052979093 0.58849233 0.21624109 0.2917938 -0.34699917
0.3248499 0.48430774 0.5879516 0.20658933 0.13150296 0.1908807 0.3731307 -0.01042537
-0.2130207 0.04795305 0.068381704 -0.14403076 0.40474153 -0.0059397263 -0.0599487 -0.09598945
-0.8743989 0.093049414 -0.25539842 -0.23298728 -0.056049045 0.0021383243 0.4511766 -0.09304401
0.07579653 -0.2052833 -0.15373595 -0.45529264 0.021323485 0.039280426 -0.058848117 -0.06203231
-0.094061084 0.5753782 -0.12420244 0.043787744 0.7778931 -0.022444926 0.16096209 -0.048207395
-0.19199626 -0.24405476 0.62937015 0.21840355 -0.39489332 0.030622356 -0.07150742 0.16501
-0.9698482 -0.24595824 0.21597716 0.046138268 0.28148907 0.32290646 -0.04652028 -0.15150094
0.7447813 0.22260547 0.29799777 0.3599393 -0.11716753 0.13966379 0.28381747 0.16137776
-0.22589698 -0.34258258 -0.018456189 -0.25501534 0.51045376 -0.33477333 -0.042649634 0.047434576
0.024017313 -0.052390996 0.28078344 -0.06364944 -0.06795436 -0.19443583 0.014029934 0.09293069
0.6404204 -0.012211224 0.24020046 -0.034563016 0.16046406 0.3639873 -0.5038152 -0.17130645

actor.init_internal_node_embed.2.add_bias._bias f4 [64, 1]
00000000: 2df2 80bc 77cd 5cbd b00f bf3d 31c4 64bd
00000010: 695e 18bd b6fb 353d 5534 4cbd 079c ba3d
00000020: df18 8e3b 2bdc 75bd 592d 92bc 2a35 16bd
00000030: 5ee7 0abe d830 5dbd e1a9 f4bc b872 fa3c
00000040: 7547 8abd 552a 4dbd 1bf8 14be b644 813c
00000050: 8bb9 89bd bc15 13bd 47d6 813c 3b6b af3d
00000060: 642c b9bc 0ca3 39bc 7796 adbc bdeb d839
00000070: 897f ab3c 96f3 dabd c09a 963d 6154 07be
00000080: 9ce9 ca3d f8de af3d d368 14bd 1b30 24bd
00000090: 4408 623d 0a4e 18bd 7a15 ad3c fcaf 863d
000000a0: ac62 5ebd 7cd0 44bd e4ee 723e 927b 72bc
000000b0: 8bdd 93bd 7aae d6bc 4232 393d aaef 393d
000000c0: e989 743d c298 05be 3b59 623d 2e7e 9c3d
000000d0: 1b59 873d d861 d9bd fb16 1dbd 720d 093e
000000e0: ffab 0f3e 48c2 983b 3a83 ce3a 1ea3 743b
000000f0: 21f1 07bd 40a1 893c 84d3 58bd a10e 923d
-0.015740478 -0.053906884 0.09329164 -0.055851165 -0.03719941 0.044429503 -0.049854595 0.09111791
0.004336461 -0.06002442 -0.01784389 -0.036671795 -0.13564822 -0.05400166 -0.02986616 0.03057228
-0.067519106 -0.0500892 -0.1454777 0.015779834 -0.06724843 -0.0359094 0.015849246 0.085653745
-0.022604175 -0.011330377 -0.021189911 0.0004137437 0.020934837 -0.106909916 0.07353735 -0.13215782
0.09907839 0.0858745 -0.03623278 -0.04008494 0.055183664 -0.0371838 0.021128405 0.06576535
-0.05429332 -0.04805039 0.23723942 -0.014799969 -0.0721999 -0.026206244 0.045213945 0.045394577
0.059701834 -0.13046554 0.055260878 0.07641254 0.066087924 -0.10614365 -0.038351994 0.13384035
0.14030455 0.004661832 0.0015755661 0.003732867 -0.033188943 0.016800523 -0.052936092 0.071316965

actor.init_leaf_node_embed.0.module.weight f4 [32, 8]
00000000: 18c7 26be 5b46 eebe 47ec b73e d00e b33e
00000010: 4860 353e ff1f bd3e d68f aabe 3fc3 9ebe
00000020: ba5f 04bf ba6a 0cbe 41b7 953e c1b7 a33d
00000030: af87 3a3e a6e8 87be 968d 7a3e 9304 58bd
00000040: a5b4 9c3c 2e24 8f3d b953 93be 3862 bebc
00000050: f85d 48be 2d2f 33be 6601 a23d b765 c5bd
00000060: 3e52 51be b1a1 213e 8a6b e13e 00ff 60be
00000070: 9335 fc3d 8dd5 4e3e 137c 80be dba0 493c
00000080: 7df0 ac3d b865 10bf 68c7 cf3e 85d6 44be
00000090: a82e 1ebe fa9b b33d 862d 2abe 19bb 113e
000000a0: 9a83 c4be fa27 c53c 059c 9cbe 98ea 2b3e
000000b0: 3e76 80bd 3c7e ea3d 3ec0 2bbe 665a 303c
000000c0: ae71 aebe 9639 cc3d 3b43 9ebd ef5c 133e
000000d0: 49b2 2fbc 5922 10be 9eb3 393d 9228 273e
000000e0: e8ad 9f3e ae5a 4a3e c2cd c73e 18ac c0bd
000000f0: d66b 3ebe 5935 9fbd c2df 28bf 7b28 a8bd
00000100: 55bf 17bd 88a8 f53d 7472 473e 7aad c1bd
00000110: 9145 73bd bde2 8d3e a02f 573d 6a5c 323d
00000120: 3924 1cbf eb66 c9be af5a 1c3d 939a 843e
00000130: 34d4 fe3e 8896 a2be e55d d7ba b95f 04bf
00000140: 59fc a8be b55e 1a3e af3b f0be 737d 40be
00000150: 0be3 c53e fbe4 303e 5b21 6bbe b45d ffb9
00000160: 6ed5 0e3d 1014 e7bd b80d 983e d4c5 b9be
00000170: 3c6a f8bd adb4 dabe eb3e d63e 2994 583c
00000180: c030 18be e94a 68bd 9a13 7e3e 8bce 0e3f
00000190: 2a95 2a3e 75f1 7e3e 4adf ad3e 1e36 de3e
000001a0: d8c2 d43d a69f a63e bff0 5a3e 266d 4bbd
000001b0: dd76 f1be d1b7 54bd 3f4e 4abd eb74 65be
000001c0: 3446 ee3e 3126 f63e c8f0 943e 2fb2 963e
000001d0: 43a5 dabb 121e a9bd 2050 0a3e 16e2 1d3e
000001e0: 653e cc3b 7459 3cbe f447 96bd 55e5 8a3e
000001f0: e9e1 26be 1b65 783e 8dd3 2d3d abae 313e
00000200: 0914 743e bc19 9e3e fdab 91bd 24a7 febe
00000210: 652d 663c 65f9 a5be f785 63be adf6 2d3e
00000220: 103c 97be d3fd 903e 4a28 a6be dd27 d13e
00000230: 180d 43be be4c 9bbd 78f0 57be e2f2 623e
00000240: 6e9e 8b3d 1f40 c2bd 4951 4fbf df91 d7bd
00000250: d588 923e 5a9b ab3e 5811 bf3d b951 23be
00000260: 9907 52be 5af8 e3bd 7274 03bf 563b 1c3d
00000270: f266 00be 1611 dbbc 863e 7f3e ca62 9fbd
00000280: 3b3a 203e 4779 13bd 7722 a23e ff2c b13e
00000290: fb59 b13e 1ed2 fa3c 7672 963e ada4 9cbd
000002a0: 3573 a8be dba4 603e 6663 1e3e 8a85 ffbd
000002b0: e579 a63e 0fcc a1be d02c 2bbd 857a 493e
000002c0: b18c 3f3e 2cdd 80be 934f 78be 400e b8be
000002d0: e8de 883e 4d08 403d 12fd e13e 0d1c 6b3e
000002e0: 5cb5 c2bd b071 f93e 5dc3 343e 25e4 fbbe
000002f0: 1973 43bc fd4d 273f acdd 0f3e 113e ca3e
00000300: fd76 04be 81a6 a2be 8817 e6bd bb53 bdbd
00000310: 7cef 703e e381 20be 5ed5 9abd ca4f 163f
00000320: 7a2e 84bc 5881 80be 60a4 cdbe ce62 8e3e
00000330: a943 51be c093 14be 9e2c a2bb cf25 ba3e
00000340: f64c 92be 5ef3 363e afe3 2b3e d145 66be
00000350: 6605 d4be 2a33 01be b90b d03e b112 44be
00000360: e91d 70be 26ef 6a3e bd37 a93e 0072 833e
00000370: d047 7f3a 8508 9c3e 655c 9c3e 15dc 43be
00000380: 02ac 223d 59da 26bd cad5 b23e 5e74 09be
00000390: b3d2 02be 305c 05bf 6038 76be d6e0 b8bd
000003a0: 263d e03e 58f4 aa3e 3fbe a8be 579c b03e
000003b0: d897 1f3f 5976 283d 73cd 243e 624f ffbe
000003c0: 6a91 873d e4fe afbe 633c e5bd bf9d ccbe
000003d0: 6a46 8bbe 1a63 e73e 9b47 a33d 763a 80be
000003e0: c2a9 00bf 2313 803c 0254 90be ce38 fbbd
000003f0: 6b6a afbe 6636 41be 6bf0 8d3e b203 55be
-0.16286886 -0.46538052 0.35922453 0.3497224 0.1771251 0.36938474 -0.33312863 -0.31008336
-0.5170857 -0.13712588 0.29241374 0.07994033 0.18215822 -0.26544684 0.24468073 -0.052738737
0.019129107 0.069893226 -0.28774813 -0.023240194 -0.19567096 -0.17498465 0.07910423 -0.09638541
-0.20441529 0.15784337 0.44027358 -0.21972275 0.12314906 0.2019865 -0.2509466 0.012306417
0.08444307 -0.5640521 0.40581822 -0.19222458 -0.15447485 0.087699845 -0.16618928 0.14231528
-0.38381654 0.024066914 -0.30587783 0.16788709 -0.06272553 0.114498585 -0.16772553 0.01076374
-0.34071106 0.09971921 -0.07727667 0.1439092 -0.010723659 -0.14075603 0.045337312 0.1632407
0.31187367 0.19761154 0.39024168 -0.09407824 -0.18595824 -0.07773847 -0.6596643 -0.08210846
-0.037047703 0.119950354 0.19477254 -0.09456916 -0.059392516 0.2771205 0.052535653 0.043545164
-0.6099277 -0.39336333 0.03817242 0.2589918 0.49771273 -0.3175547 -0.0016431181 -0.5170856
-0.33005026 0.1507519 -0.46920535 -0.18797855 0.38649783 0.17274849 -0.22961943 -0.00048707204
0.03487151 -0.112831235 0.29697967 -0.36283743 -0.121296376 -0.4271597 0.41844878 0.013218918
-0.14862347 -0.056712065 0.24812165 0.5578391 0.16658464 0.24896796 0.3395942 0.43400663
0.10388726 0.32543677 0.213809 -0.04966464 -0.47160998 -0.051933113 -0.049391028 -0.22407882
0.46537936 0.48076013 0.29089952 0.29432818 -0.0066725328 -0.082576886 0.13507128 0.15418276
0.006233024 -0.18393499 -0.07337943 0.2712809 -0.16297115 0.24257319 0.04243808 0.17351787
0.23835768 0.3087901 -0.07112882 -0.49736893 0.014048909 -0.32416835 -0.22219072 0.1698863
-0.29538012 0.28318653 -0.32452613 0.40850726 -0.19047964 -0.07582997 -0.21087825 0.22162965
0.068173274 -0.094848864 -0.80983406 -0.105258696 0.2862002 0.3351696 0.0932948 -0.15949143
-0.20510711 -0.11131354 -0.51349556 0.038142525 -0.1253927 -0.026741546 0.24926195 -0.077825144
0.15647213 -0.03600433 0.3166692 0.34604642 0.34638962 0.03061777 0.29384202 -0.07648597
-0.32900396 0.21937887 0.15467605 -0.124766424 0.32514873 -0.31600997 -0.041790783 0.19675644
0.18706013 -0.2516874 -0.24249105 -0.35948372 0.26732564 0.046882916 0.4413839 0.2295992
-0.09507248 0.4871955 0.1765265 -0.49197498 -0.011929297 0.65353376 0.14049405 0.39500478
-0.12936015 -0.31767657 -0.11234957 -0.09244486 0.23528856 -0.15674548 -0.07560228 0.587155
-0.016135443 -0.2509868 -0.4016447 0.27809757 -0.20435967 -0.14509487 -0.0049491664 0.3635697
-0.28574342 0.17866275 0.16786073 -0.2248757 -0.4141037 -0.12617174 0.40633944 -0.19147755
-0.2344891 0.2294279 0.33050337 0.25672913 0.0009738179 0.3047525 0.3053924 -0.19126923
0.03971482 -0.040735576 0.34928733 -0.13423297 -0.12775688 -0.5209379 -0.24044943 -0.09027259
0.43796653 0.33389544 -0.32957646 0.34494278 0.6234107 0.04112849 0.16093998 -0.49865252
0.066195324 -0.34374154 -0.111931585 -0.399641 -0.2720216 0.45192796 0.07972642 -0.25044602
-0.5025903 0.015634125 -0.28189093 -0.12266694 -0.34260878 -0.18868408 0.27722487 -0.20802191

actor.init_leaf_node_embed.0.add_bias._bias f4 [32, 1]
00000000: ac6a 2e3e 387f 96bc a044 13bc 52d1 b03d
00000010: 4e01 203c e1d8 16bd ecc4 c23c 0447 e03c
00000020: 3d80 0abe 9b40 f73b 0cee 3abd 101b 89be
00000030: d7f9 923e 902a 41bc fd9e 01bd a40c c4bc
00000040: 2c67 ed3c 1bea 24bd dd9c adbd fbf3 213e
00000050: 6d49 49bd 856d 33bd 158f 123d d042 16bc
00000060: dafd 5c3d a9fb 84bd d81f 90bd 8ad7 d53c
00000070: e166 fdbd ca9f 973e cb60 e63c 5f33 a7bd
0.1703288 -0.01837121 -0.008988529 0.08633675 0.009765936 -0.036827926 0.02377554 0.027377613
-0.13525482 0.0075455434 -0.045637175 -0.2677846 0.28706238 -0.011789933 -0.031645764 -0.023931809
0.02897986 -0.040262323 -0.08477185 0.15815727 -0.04914229 -0.043805618 0.035780985 -0.009171203
0.05395303 -0.06493313 -0.07037324 0.026103754 -0.12373138 0.29614097 0.028122326 -0.08164095

actor.init_leaf_node_embed.2.module.weight f4 [64, 32]
00000000: f9c3 16be 865a b8be c903 8bbe 0c86 1abe
00000010: e466 2a3e c4f3 a83c 11eb 6c3d 9f93 0b3e
00000020: da23 3a3e 3d8b a43d a9d7 ad3d 04e5 85be
00000030: 0f87 a8be 9da9 8e3c c5e0 90be 3044 1abe
00000040: 8aa9 463e 8429 c0bd aac1 20be cb56 81bd
00000050: 0a08 8b3d 6942 9cbe 4772 803e 72fc 093e
00000060: 2852 013e 595e 10bf ea95 9cbd 363f 1f3e
00000070: 5405 0c3e fd56 5fbe e285 03bd 9a64 33bc
00000080: ec4c 0a3d da98 183e e147 733d bf61 b13d
00000090: d441 323d 68fa 14bc d3c9 ba3d be7d 27be
000000a0: 7b38 d9bd 6b52 94be 671f da3e 5e66 bcbc
000000b0: 7b95 d9bc a5d4 cf3d c3bb 533e 1e58 a7be
000000c0: 6759 8bbd 602e 4cbe 2db4 46be 561c 4cbe
000000d0: b66e e23d 521c 69bd 5c0f 6f3c c916 06be
000000e0: bd9b eabe c069 04be 80ac 91bc e86f 833e
000000f0: f05d 83be 5971 1dbe 59df 33bd 2689 c73e
00000100: 2de4 9a3e 2ead 0a3c aa90 1dbe 17c8 d1bc
00000110: d0ca 1c3e 83ae 80bd 9d88 f1bd e9fa fa3d
00000120: 43f0 f0be 9856 a8bd f02a e9be 6f43 28be
00000130: d0ba 8dbe 4317 4e3d 0add 923e e859 afbd
00000140: a94e f3bd a320 6b3e 0020 97be 2b13 ccbd
00000150: 81d2 d3bc eae7 fbbd 2ea1 67b7 e68c b6bd
00000160: 6604 99bc 33c6 f9bc 0307 a8bd b544 08be
00000170: 4350 57be a8a1 e1bc d005 503e bbe9 f73d
00000180: e954 113d 55eb 7f3e d455 333e bfef 023e
00000190: 8ad4 f13d b0c7 7a3d 0f52 c1bc df8e 2a3e
000001a0: ee2b 8cbd e33e aebd d143 0cbe cca1 733e
000001b0: 6e21 82be c3dd 883d fc71 8a3d b053 0d3e
000001c0: de97 febd 3792 5d3e ce3c 9bbe 8379 743d
000001d0: 86b0 853d f7a9 173e c5a0 53be efcf 4a3e
000001e0: e4b0 debb b73c 153e 7b8e 203e 6760 363e
000001f0: 1168 993e 813b c7bc 1aa5 4a3e 1694 2f3e
00000200: 172a e8bd 828b 93bd dcc7 893d 3419 2c3c
00000210: 7f76 573e b32a e7be c4c0 5f3e 1626 f5bd
00000220: 375b aa3d 981f b33c 0d0d 32bd 0096 b3be
00000230: 5921 bebd 4a21 413e a394 013e 6b14 e7bd
00000240: 9d34 e5be 71fe 9cbe e148 183e 8b58 c13d
00000250: 5460 8fbe f904 163e c405 01bd 779c dd3c
00000260: a98e c8bd d957 39bd 9b44 0fbe 7814 153e
00000270: 3dea 763e 9007 213e 90f0 aa3d 5d9e 3abe
00000280: 0ee2 5e3d 2169 86bc e515 3bbe 37ef 853d
00000290: 8081 59be 540f 89bd 5fad b23e a35b 9ebe
000002a0: 4bed cbbd be66 bb3c 47de 32be 7964 933e
000002b0: 7870 133f 5361 2e3d b112 643e 79cb 25be
000002c0: 02de 1e3e a449 013d 2fe4 97be 74f0 aebd
000002d0: f0e4 dd3c fec2 22be ead5 c63d 3179 f83e
000002e0: be3b ba3d f835 0dbe a248 a1bd ac25 1c3e
000002f0: 5ba6 2dbe 1a7f 4f3e 9c93 993e d06a d3bd
00000300: 249f 8c3e 2c25 a2be 9d37 63bd 02a3 073e
00000310: f0f8 cbbd e6d1 0fbe e536 283e eee5 3f3d
00000320: 8191 4d3e c2f1 eebc 3ba8 853e de34 373e
00000330: defb 3e3e ee21 0b3e 89ce e5bd 8978 ccbd
00000340: 449a e6be 987d 863e 0353 b83d df5f 2a3e
00000350: a410 93bc 4155 373c beb3 fbbc 814a 7b3d
00000360: 5b31 433d 52de c5bc 8d83 92bd cb14 403e
00000370: 08a7 14be c911 543e f9d5 bcbd 9148 99bd
00000380: d005 febd cd8b d03c 711e f8bd ecaa 97be
00000390: a84e 0a3e 7c89 5ebd d03b 4cbe 4598 63be
000003a0: cb11 443e 0dfb cbbd deee 923e 641e 653c
000003b0: 0bc5 153e 9a99 4e3d d4ee dfbd 232b 953e
000003c0: 036f 6abe 3dcb ecbd f84a 193d f013 8ebd
000003d0: 69ca 28ba 3002 a33e 5c60 b03d 2656 913d
000003e0: 2b49 ab3b bb7c 4f3e 36a0 433e 8f0f 3f3e
000003f0: 1b57 fcbe 473b b33e 8264 983e 124e 76be
-0.14723195 -0.36006564 -0.27151325 -0.15090197 0.16640812 0.020624049 0.057841364 0.13630532
0.18177739 0.0803437 0.084883995 -0.26151288 -0.32915542 0.017414862 -0.28296486 -0.15065074
0.19400612 -0.093829185 -0.15698877 -0.063153826 0.06788643 -0.30519417 0.25087187 0.13475206
0.12628996 -0.56393963 -0.07645781 0.15551457 0.13673908 -0.21810527 -0.032110102 -0.010949278
0.033764765 0.14902058 0.05939472 0.08661222 0.04351981 -0.009092905 0.09120526 -0.1635656
-0.10606476 -0.2896913 0.42602083 -0.022998031 -0.026560536 0.101479806 0.20677094 -0.32684416
-0.068041615 -0.19939566 -0.19404669 -0.19932684 0.11056273 -0.056911774 0.014591064 -0.1309463
-0.45821944 -0.12930965 -0.01778245 0.25671315 -0.25657606 -0.1537527 -0.043914173 0.38971823
0.3025221 0.008464141 -0.15387216 -0.025608106 0.15311742 -0.062832855 -0.11793635 0.122548886
-0.47058305 -0.082196414 -0.4554057 -0.16431974 -0.2768159 0.050315153 0.28684264 -0.0856207
-0.118802376 0.22961669 -0.29516602 -0.099645935 -0.025857212 -0.123000935 -1.38062005e-05 -0.08913593
-0.018678855 -0.030490017 -0.082044624 -0.1330746 -0.21026711 -0.027542904 0.20314717 0.121051274
0.035481367 0.24992116 0.1751321 0.12786768 0.11808117 0.061225593 -0.023598699 0.16656063
-0.068443164 -0.085080884 -0.13697745 0.2379219 -0.2541613 0.06682923 0.06760022 0.13801455
-0.1243131 0.21637808 -0.30319828 0.059686195 0.0652781 0.1481093 -0.20666797 0.19805883
-0.0067959893 0.14573942 0.15679352 0.17810212 0.2996221 -0.024320366 0.19789544 0.17146334
-0.11336153 -0.072043434 0.06727573 0.010504056 0.21041296 -0.45149764 0.21850878 -0.11970155
0.08318179 0.021865651 -0.043469477 -0.35075378 -0.09283704 0.18860355 0.12654357 -0.11283191
-0.44766703 -0.30662873 0.14871551 0.09440716 -0.2800318 0.14650334 -0.03149964 0.027052147
-0.09792835 -0.045249794 -0.13991015 0.1455859 0.24112792 0.15725541 0.08346665 -0.18224473
0.0544148 -0.016407551 -0.18270071 0.06539767 -0.21240807 -0.06692377 0.34897897 -0.30929288
-0.099573694 0.02287614 -0.17467605 0.28787592 0.5759349 0.042573284 0.22272755 -0.161909
0.15514377 0.03156437 -0.29666278 -0.085419565 0.027086705 -0.15894696 0.097087696 0.48529962
0.09093426 -0.13790119 -0.07875182 0.15248746 -0.16957991 0.20263329 0.2999543 -0.10323107
0.27465165 -0.31668985 -0.05547296 0.13245776 -0.099595904 -0.14044914 0.1642719 0.046850137
0.20075037 -0.029168013 0.26104912 0.17891261 0.18650767 0.13587162 -0.11221034 -0.09983928
-0.4503957 0.26267695 0.09000208 0.16638134 -0.01795227 0.01118976 -0.030725356 0.06135035
0.04765449 -0.024153862 -0.071539976 0.18757932 -0.14516842 0.2070991 -0.092204995 -0.07484544
-0.124034524 0.025457287 -0.12115181 -0.2962259 0.13506567 -0.054330334 -0.19944692 -0.22226055
0.19147412 -0.099599935 0.28697866 0.0139842965 0.14625947 0.050439455 -0.10934225 0.29134473
-0.2289391 -0.11562202 0.03742501 -0.069373965 -0.0006438853 0.31837606 0.08612129 0.0709651
0.005227228 0.20262425 0.19104084 0.18658279 -0.49285206 0.35006163 0.2976418 -0.24053219

actor.init_leaf_node_embed.2.add_bias._bias f4 [64, 1]
00000000: 5706 8abe 164b f93d 8043 1b3c ffde 94bb
00000010: a8ff b3bc d0f6 9a3e c531 6f3e 2ef8 353e
00000020: 891a c63e f933 2abe c46c c2bc 06e1 743d
00000030: 4d9a 17bd 4416 d23d 0383 e3be 1fbe 12be
00000040: 43e9 55bd 030f e03d 0fd7 f23c 3430 193e
00000050: 1951 89be 33f1 01bc 0c0d 803a 1315 1c3e
00000060: ad88 04be 3197 06bc c4c6 3d3c 5df9 24bd
00000070: a648 24be 8198 963e 0e9d b13d f3b9 0a3d
00000080: c8df 9d3d 892e 61be c07a 30be 588f 263d
00000090: 0c27 eb3d 3603 ae3e 61d7 c03e b3e8 ec3e
000000a0: 5dc6 3a3e c540 823e 53b2 f8bd 59d6 033e
000000b0: 6131 3dbd 6388 79be a421 abbe 987e 1dbe
000000c0: 6b17 c43e 3183 99bd b0fb 3bbe 6a78 e03e
000000d0: feef 29bc 2cd4 5f3e c811 9cbe ce74 20be
000000e0: b6af fd3d 93f4 bd3e 525e 393e 3389 233e
000000f0: 878d 213e 4bc5 cf3e 1c63 99be eb23 24be
-0.26957962 0.12172525 0.0094765425 -0.004543185 -0.021972492 0.30266428 0.2335883 0.17770454
0.3869212 -0.16621388 -0.023733504 0.05978491 -0.037012387 0.10258153 -0.44435892 -0.14330338
-0.05222441 0.10940363 0.029643564 0.14959794 -0.26819685 -0.0079310415 0.0009769513 0.15242414
-0.12942763 -0.008214758 0.011583034 -0.040276874 -0.16043338 0.29413226 0.08672534 0.03386874
0.077086985 -0.21990408 -0.17234325 0.040664047 0.11482057 0.33986825 0.3766432 0.46271285
0.18239732 0.2544004 -0.12143388 0.12874736 -0.04618967 -0.24368434 -0.33424103 -0.15380323
0.38299116 -0.07495726 -0.1835773 0.4384187 -0.01037216 0.21858281 -0.30482316 -0.15669557
0.1238703 0.37100658 0.18102387 0.15970306 0.15776645 0.4058021 -0.29958427 -0.16029327

actor.init_next_embed.0.module.weight f4 [32, 6]
00000000: ebcd 55be d250 2a3e 2104 abbd 86f6 233f
00000010: 9047 733e a13a aebc 3b53 563e 9a49 a63e
00000020: 0abd 083c eb73 253e 4c95 b83d 1a91 70be
00000030: 3408 bf3d 89c8 c7be b2c4 753e e517 4dbf
00000040: 292d e33d ddff 323e de13 263f 12a8 113f
00000050: 6eaf e53d 7278 11be d070 a13e 7ab0 253e
00000060: c35f a7be cd0f 76bd 60cc 45be 4fd5 363e
00000070: c361 103d 46b0 31be cd66 34be 70ed eb3d
00000080: 3dd2 ea3e edae b0bc 0a68 babe a543 f2bd
00000090: cb48 29be 257a 68be 1fa7 c0bc 9aff fcbe
000000a0: 2cf8 a63c 755a 053f 40af 4abe 5b3c bbbe
000000b0: a5ce 813e e575 c53d bc55 f7bd 6b84 543d
000000c0: 0b3c 0abe 9e98 82be 20c8 af3e c820 6dbe
000000d0: 60fd b13d b585 efbb 1cfb b7be c81e 21be
000000e0: e18f 14be 96da e73e eb64 2ebe f6eb 7bbd
000000f0: 5336 903e bcdc 42bd 1fe4 18be e898 fe3c
00000100: 9cc2 85be 7d6b ccbd 2810 82be 0353 42be
00000110: 5b24 95be dd96 3cbe 5858 22bd b657 b7bc
00000120: 171b 993e 41a7 28bf d1ae 32bd 9cc8 d6bd
00000130: 5a4a dfbd 8701 65be 3460 2d3e 311c 85be
00000140: 937a 9e3e cb69 0e3f f5e2 893d 8cac 91bd
00000150: 70f6 07be 8cfc 593d 48ba d8bd 596b 9cbe
00000160: 65cd 933d 4f39 143e e390 153c c0c9 8c3d
00000170: b5a4 6e3e a131 a0be 23e4 0ebd cf72 81be
00000180: f343 c6bd 99f8 13be 79e2 02be f14c 4abf
00000190: 3540 b93e c1c0 993e 7341 84be be9e e83e
000001a0: dde7 fe3e 3ac1 f63d 83f3 373e 770f 0c3f
000001b0: cf29 3cbe 7c35 6ebc 26dd b1be e303 9dbd
000001c0: 92fe 11be 4cd4 e6be 83a1 a53d 307c 65be
000001d0: c0d7 463e 543f 9c3e 7961 f2bd f28b 18be
000001e0: 6ed2 483d c4c6 ba3e e633 243e 9530 97bf
000001f0: f7a3 4bbe 7208 c33e 8bf4 f33e 768e 35be
00000200: f614 aa3d b24a b43e 9482 c93e fe7f 263f
00000210: 07b8 67be a690 e23c adac babd f21b f03c
00000220: d6a4 cbbe 9795 8cbc 9f6b b8bd 4a39 42be
00000230: 5232 06be 0ee8 e8bd 6479 9dbd f981 02bd
00000240: a1dc 67be 09fb 95bd d3cd ac3e 78e2 abbe
00000250: 581f 093f 4109 b7be 84fb 09be ab12 54bd
00000260: 6e6b 113d e38a f7bd fe96 f8be bc43 be3e
00000270: 0a16 c7be 7e9e 2ebe 98f9 da3e a8b6 df3e
00000280: 7fec 6e3b 0d17 99be 90d5 9d3e f6a5 c8bd
00000290: 724c 0d3e 184d a2be 6e53 9f3d f326 19be
000002a0: b62a e7bd fefa d73d a5f1 04bf 15a9 33be
000002b0: db03 193d 9593 833d 881f 383e 767b 2ebd
000002c0: 8101 a93e cb7b 63be 033e 1ebe 86e1 b0bd
000002d0: c140 84bd 2a72 b7bc 7ba9 81ba 55a3 0dbe
000002e0: 8c13 2dbf 6f55 1c3f cb10 893d be4c e1bd
000002f0: 4dc5 1fbe b811 c0bd d52c 903c d342 24be
-0.20879333 0.16632393 -0.08350397 0.6404804 0.23757768 -0.02126819 0.20930187 0.3247803
0.008345852 0.161575 0.09012851 -0.23492852 0.093277365 -0.39020184 0.24000815 -0.80114585
0.11092598 0.17480417 0.64874065 0.5689708 0.11215101 -0.14206102 0.31531382 0.16180602
-0.32690248 -0.060073663 -0.19316244 0.17854808 0.035249483 -0.17352399 -0.1761734 0.11519897
0.45863524 -0.021567786 -0.364075 -0.118293084 -0.16531675 -0.22702844 -0.02351719 -0.4941376
0.02038201 0.5209115 -0.19793415 -0.36569485 0.2535297 0.09641627 -0.120768994 0.051884096
-0.13499467 -0.25507063 0.3433237 -0.23157036 0.086909056 -0.0073096403 -0.3593377 -0.15734398
-0.1450801 0.45283955 -0.17030685 -0.061504327 0.28166446 -0.04757379 -0.14930771 0.03107877
-0.26125038 -0.09981439 -0.2540295 -0.18976979 -0.291293 -0.18416925 -0.039635032 -0.022380691
0.2990348 -0.6588021 -0.04362375 -0.10487482 -0.10902853 -0.22363864 0.1693123 -0.2599807
0.30952892 0.5563018 0.06732742 -0.07112989 -0.13277602 0.053219363 -0.10582405 -0.3055065
0.0721691 0.14474986 0.009128782 0.06874418 0.23305018 -0.31287864 -0.034885537 -0.25282905
-0.09680929 -0.14450301 -0.12781705 -0.79023653 0.361818 0.30029872 -0.25831184 0.4543361
0.49786273 0.12048574 0.17963986 0.547111 -0.18375324 -0.014539119 -0.34739035 -0.07666757
-0.14257267 -0.45083845 0.080874465 -0.22410655 0.1941824 0.30517066 -0.11834998 -0.14897135
0.049028806 0.3647977 0.16035423 -1.1811701 -0.19886766 0.3809238 0.4764751 -0.17730126
0.08304779 0.35213238 0.39357436 0.6503905 -0.22628795 0.027656864 -0.091149665 0.0293102
-0.39774197 -0.017161174 -0.09004902 -0.18967167 -0.13105133 -0.11372386 -0.07689169 -0.031862233
-0.22642757 -0.07323272 0.3375078 -0.3357122 0.5356345 -0.35749248 -0.13474852 -0.051775616
0.035502844 -0.120870374 -0.48552698 0.37161052 -0.38884002 -0.17052647 0.4276855 0.43694043
0.003645688 -0.299004 0.30826998 -0.097972795 0.13798693 -0.31699443 0.07779585 -0.14956264
-0.11287443 0.1054592 -0.5193122 -0.17544968 0.037357192 0.064246334 0.17980778 -0.04259821
0.3300896 -0.22215192 -0.15453343 -0.08636765 -0.06457663 -0.022393305 -0.0009892428 -0.13831837
-0.6760795 0.6106786 0.06692656 -0.110009655 -0.15602608 -0.093783796 0.017599503 -0.16041116

actor.init_next_embed.0.add_bias._bias f4 [32, 1]
00000000: 982a 203f 0457 d5bd c669 d4bd b6aa b53e
00000010: 277b 3fbc 9c94 0dbd 3782 863e 6260 efbc
00000020: 04a8 26bd 8c3f 72bd 33cd 29be 7f7f 293e
00000030: d709 55bc 45ca a23e 5104 a9bd e308 12bd
00000040: 1ed3 e2bc a44e aa3e ed08 9ebc 3312 0cbe
00000050: 567f 133f 8c59 0c3e 1514 b03c 8557 13bd
00000060: 2b1f a2bc 1674 8ebd 8581 44bd cc67 01bc
00000070: 5f4b e5bc 3f15 1cbc 8107 20bc 9228 fe3a
0.6256499 -0.104169875 -0.10371737 0.35481805 -0.011687077 -0.034565553 0.2627122 -0.029220764
-0.040687576 -0.059142634 -0.16582184 0.16552542 -0.013002834 0.31794944 -0.082527764 -0.035653006
-0.02768856 0.33263123 -0.019291366 -0.13678817 0.57616174 0.13706034 0.02149395 -0.035972137
-0.019790253 -0.069557354 -0.047975082 -0.007898282 -0.027990041 -0.00952655 -0.009767414 0.0019390753

actor.init_next_embed.2.module.weight f4 [64, 32]
00000000: 7c6c 84be f9da e13d 2125 c03d e6bf 7d3e
00000010: 43e1 333e 39af eabd 06bb 933c f229 8f3e
00000020: ddbc f83d 5417 293d b78d 0c3e 834b 31be
00000030: 298c 0d3b 04d8 e93d cecd 4d3e a272 98bc
00000040: 22a7 ac3e 8362 9b3e 14bd a2bc 52ac 2a3e
00000050: 4164 343d 5896 c8bd 66f3 803e 3693 073f
00000060: bc2c 933d c3cb a73c ca4a 40bb 98c2 19be
00000070: a24a 96bd 2c00 e2bd e43c 533d 2fae d6bd
00000080: 2186 9f3e c837 b1bc 794e 11be 1306 2b3a
00000090: 86d4 4b3e c8a9 2e3e 29d4 bdbe d8fb e73d
000000a0: 6c12 16bd ea41 a63d 9726 0cbe f950 8fbe
000000b0: 18bc 8bbe 2aa2 6e3d e3ad da3e 3dbf 943e
000000c0: 53fa 97be 6beb 053d 1d91 1e3e d8d5 80be
000000d0: eb63 cebe 207a 4fbe 6542 69be 4ec2 81bd
000000e0: 45c4 58bd f927 f73d d209 a93d 326a 20be
000000f0: bd95 983d 2aeb 773d f882 b1bd 666a 04be
00000100: 1bc3 203e dc25 c73e 12dd a73d fd62 4e3e
00000110: 04b3 813d fb02 fa3d 782e 903e 7706 70be
00000120: bc01 0f3e 4c95 f9bd b9ee 7bbd d81c aabe
00000130: c1f6 01bd fe16 b7be 41ee ffbd 54c8 073c
00000140: d918 733d 2b14 31bd a42e 2a3d b836 a6be
00000150: 432b 79be e0c8 bc3e 3dc6 293e 2783 e0bd
00000160: 5e43 243e fe13 a7be 8bf0 1c3d ad54 213e
00000170: c878 843e b5f0 c0bd 3e2b aebe a1e9 373e
00000180: 0aca 0f3f 7d5b 7d3e 2a8c 1bbe a8eb a63e
00000190: 327c 3b3e 3dd2 7abc cf52 bb3d 711c ffbc
000001a0: dd1d 323c a7cf c63e 9d4f 183e 63d0 a53e
000001b0: 5383 963d 3d0d a83e 0fea 39be f65c a83d
000001c0: 1363 353e 91f4 a03e 9610 dabd 2eef 353e
000001d0: be08 8b3e 1c53 1d3e bc35 febd d1e8 8dbe
000001e0: dc2c 59bd 217a 8ebc 18db 87be 0960 1c3e
000001f0: f8aa ca3d e867 373d 6a19 4e3e b7d1 063d
00000200: 9610 fa3e 861a b1bc 0d15 ccba 53a2 be3e
00000210: c927 5d3e 8088 2b3e 98b5 683d c324 283e
00000220: 0bf8 343e e1f4 b9bd 22b5 acbc ff35 8b3c
00000230: f13a 0cbe 58d9 c53b 8473 38be 92e5 a7be
00000240: 4196 c33d 528e bb3d 962f 2d3d 54c0 96be
00000250: b58b fa3e 1ebb 4f3e 5064 85bc 86d4 80bc
00000260: 0d17 2b3e 790d 393e e54e 233e e767 c6bd
00000270: e28b 6b3d 5acf 183d 420b 1a3e 0705 f1bd
00000280: a76f 29bf a930 01bf 98e6 74bd 973c 0cbf
00000290: 2fee 8d3c c294 1b3e 2a07 72be 57d4 1a3e
000002a0: d085 ba3d f321 093e 7660 52be 78b8 82be
000002b0: 5328 ddbc 686d dcbd bfa0 62bd 9247 043e
000002c0: f01a 27bb 6827 c6bd 7a8d 2d3e e76b 2cbc
000002d0: 867b f4be 0b4e 23be f21b 913d 8780 80bd
000002e0: 46ca 68be 55ff 60be 7332 0bbe 0810 36be
000002f0: 2b57 fe3d 5765 58be 2c98 873c 6bea 2bbe
00000300: 93ec 0d3e 0c38 29be 3124 86bd afbd af3d
00000310: 8ab9 e7bc 0f61 9c3d af60 85bd 9e97 49bc
00000320: b799 ed3e 857a 653d 941f 2cbd 717d 01be
00000330: 0b38 51be ce73 1fbc db4d b0be e35f 8cbe
00000340: db10 eabe b7d6 23bd 8de5 b0be ba15 10be
00000350: 2fb8 fdbd d6a6 18bd 90da 893d 3bea 9ebd
00000360: b320 55bd 2cd5 38be bddc 043d 6dce fc3c
00000370: b751 95bd c79a 4e3e b655 a0bd 7035 183e
00000380: 1340 263f 5dea 173e f69a de3c 4065 843e
00000390: 2f19 df3d 689c 73be 8375 733d 6b50 153e
000003a0: 02d3 46bd a783 d83d 26b2 373d 7abb e53e
000003b0: 22ee ad3e 81a4 0abe f505 913e f8cf 20be
000003c0: 8577 af3d 37c9 2f3e 2750 663d 6221 98bd
000003d0: d211 2ebe e85c 133f bb19 2d3e 7fd7 8c3d
000003e0: 5417 633e 63bc 4c3d 3481 89be edfa e7bd
000003f0: 68eb 34be 3ff8 2dbe d5ac c53e 638a 493d
-0.25864017 0.11028094 0.09382082 0.24780235 0.175664 -0.11459202 0.018033516 0.2796169
0.12145398 0.041282013 0.13725935 -0.17313962 0.0021598435 0.11418155 0.2009804 -0.018609349
0.33721262 0.30348596 -0.01986555 0.16667297 0.044040922 -0.09794301 0.25185698 0.52959
0.07186267 0.020482903 -0.0029341453 -0.15015638 -0.07338454 -0.11035189 0.05157174 -0.10482442
0.3115702 -0.021633044 -0.14190091 0.00065240375 0.1990529 0.17056954 -0.37075928 0.11327332
-0.036638662 0.08118041 -0.13686596 -0.27991465 -0.27291942 0.05826012 0.4271079 0.29052153
-0.2968317 0.032695215 0.15485044 -0.2516315 -0.40310606 -0.2026143 -0.22779234 -0.06335889
-0.052921552 0.12068171 0.08253826 -0.1566551 0.07450435 0.060527004 -0.086675584 -0.12931213
0.15699427 0.38896072 0.08196463 0.20154949 0.06332973 0.122076 0.28160453 -0.23439966
0.13965505 -0.12186679 -0.06150696 -0.3322513 -0.031729463 -0.3575973 -0.12496615 0.008287508
0.05934987 -0.043232124 0.041548386 -0.32463622 -0.2433291 0.36872005 0.16579528 -0.10962515
0.16041324 -0.3263244 0.038315337 0.15754957 0.258734 -0.09420911 -0.34017366 0.17960216
0.5616766 0.24741931 -0.15190187 0.32601666 0.18309096 -0.015308914 0.09146654 -0.031141492
0.010871378 0.388303 0.1487412 0.3238555 0.07349267 0.328226 -0.18155693 0.08220856
0.17713575 0.3143659 -0.10647695 0.17767021 0.27155107 0.15363735 -0.12412593 -0.27716687
-0.053021297 -0.01739222 -0.26534343 0.1527101 0.09895891 0.044776827 0.20126882 0.032914843
0.4884078 -0.021619093 -0.0015570238 0.3723322 0.21597208 0.1675129 0.056813806 0.16420273
0.17672746 -0.0907991 -0.021082465 0.01699352 -0.1369436 0.0060378723 -0.18012816 -0.32792336
0.09550143 0.09158005 0.04228171 -0.2944361 0.48934713 0.20286223 -0.016283184 -0.01572634
0.16708012 0.18071546 0.15948065 -0.096877865 0.05750645 0.03730712 0.15043357 -0.11768537
-0.6618599 -0.50464875 -0.059790224 -0.5477995 0.017325489 0.15193465 -0.23635545 0.15120064
0.09107554 0.13391857 -0.2054461 -0.25531363 -0.026996767 -0.10763055 -0.05532908 0.12917927
-0.0025498234 -0.09675485 0.169485 -0.010523773 -0.4775049 -0.1594774 0.07085408 -0.06274515
-0.22733411 -0.21972401 -0.13593464 -0.17779553 0.1241897 -0.21132408 0.016552053 -0.16788642
0.13859777 -0.16525286 -0.06549872 0.08581101 -0.028286714 0.076357 -0.065125816 -0.012304215
0.46406338 0.056025047 -0.042022303 -0.12645508 -0.20431535 -0.0097322 -0.344344 -0.27416906
-0.45715985 -0.03999969 -0.34550133 -0.14070788 -0.12388646 -0.037268482 0.067311406 -0.0775952
-0.052033138 -0.18050069 0.032437075 0.03086015 -0.072909765 0.2017623 -0.07828848 0.14864135
0.6494152 0.14835496 0.0271735 0.25858498 0.10893475 -0.23790133 0.05943824 0.14581458
-0.048541076 0.10571986 0.04484763 0.44869596 0.33970743 -0.13539316 0.28324857 -0.15704334
0.085677184 0.17166601 0.056228783 -0.07428242 -0.16998985 0.5756364 0.16904347 0.0687704
0.22176868 0.049984347 -0.26856387 -0.11327157 -0.17667925 -0.1698923 0.38608423 0.04920424

actor.init_next_embed.2.add_bias._bias f4 [64, 1]
00000000: 9ce2 b5bd 340b 37be 1dbc 913d 1250 3e3f
00000010: d415 013f 2c80 5cbf d1bc 243c 7c46 023f
00000020: 7ffe c1be 6283 20be 64b2 ac3d c8aa 9f3e
00000030: 4bef 353e b53c bebe db7a 153f 96d0 b0be
00000040: 1291 b13d 3c9d a83e 1fb4 823e 12d5 2b3e
00000050: 5149 96be 0ac0 e1bb 0fbd 10be a9d2 f0be
00000060: a835 cfbd ae36 46be c03d 38bf 385d 5cbd
00000070: afb8 5a3f 60cf bdbd 545e 8abe b002 d13e
00000080: 7463 1ebe 3515 1f3e 39a1 54bd 2170 5bbe
00000090: b467 b4be fe06 29bf c0bc 11bf 1679 14bf
000000a0: 82f2 73bd e013 ebbd b7d2 e2bd 42d6 b7be
000000b0: b191 8bbe e4c8 323f 9419 ff3d 9e87 43bd
000000c0: f233 093f b76e 3d3e 3601 87bf ce40 03bf
000000d0: 253e 393e 23fe f1be b57e 523f 8116 69be
000000e0: 1a1b 5fbd c934 1fbf 1c0f 493c 8732 db3e
000000f0: 01c8 073e fea6 8b3e f054 f7bd dd96 6c3d
-0.08881113 -0.17875367 0.07115958 0.7434093 0.5042393 -0.86133075 0.010054783 0.508888
-0.37889478 -0.15675119 0.08432463 0.31184983 0.17767064 -0.3715569 0.5839059 -0.34534138
0.08670248 0.3293246 0.25528046 0.16780499 -0.2935281 -0.006889348 -0.1413462 -0.4703572
-0.10117656 -0.19356796 -0.71969223 -0.053799838 0.85438055 -0.09268069 -0.27025092 0.40822363
-0.15467626 0.15535434 -0.051911566 -0.21429493 -0.3523537 -0.66026294 -0.56928635 -0.5799726
-0.059557445 -0.114784 -0.11075347 -0.35905653 -0.2725959 0.69837785 0.124560505 -0.047736757
0.5359489 0.18499266 -1.0547245 -0.5127076 0.18090113 -0.47264203 0.8222459 -0.22762491
-0.054469205 -0.6218992 0.012271669 0.42811987 0.13259889 0.27275842 -0.120767474 0.057761062

actor.embedder.layers.0.0.module.W_query.weight f4 [64, 64]
00000000: d9ad 9fbd 87ac 1c3d 969f 4cbe fe0e 94bd
00000010: 798f 00be b491 3b3d fb68 39bd 0409 14be
00000020: 3eb0 8d3c 755c 6fbd 9eb5 3b3d 0af0 393c
00000030: 08d7 133e eb2e b93d 4be7 bfbd 75d3 623b
00000040: 9e8a 0bbe 1e6f d43d a73a 393b ab04 933d
00000050: d5f7 10be b408 3f3d 4d16 d3bd 52e0 69bd
00000060: f08d bbbb 4a7d 543d c9f3 893d 8a14 dcbd
00000070: 3c63 1bbe 0d87 073e 77a8 99bd 1ffc e33c
00000080: 6ec3 8a3d 2695 0abe fff8 bdbd b701 083d
00000090: 18a4 aabd 5f58 a8bc 1c29 ac3d 07bb b13c
000000a0: e77f 8abb 09f1 89bc 13e5 1cbe 4f6d 0abe
000000b0: e41f ac3b 9775 debd 9a5a bc3d 79cf 563d
000000c0: 123e 383d c426 edbb 95ad 9dbd 74ca 443d
000000d0: 9791 15be 6d12 a1bd 1e9d c3bd c5c0 22be
000000e0: 08e7 9ebd 3792 453d 9fa0 66bd 8a4f ce3d
000000f0: 583b 96bd 5a8c 933d e5af 783d d428 e13d
00000100: e67c 7f3d a345 cf3d 583d 75bc accd 09bd
00000110: 7417 cebb c032 b13d 153c 023d ba8c b33d
00000120: 8cd7 8a3d c246 febd 60fa 08bd c2e5 d83d
00000130: 9029 ae3d 2c93 43be e8cb db3d 9400 8cbd
00000140: 7fe2 273d 618e f93c 506e d5bc a174 b63d
00000150: 5e1a 413d c7d6 283e 1486 ed3d 78b9 c4bd
00000160: 1d61 4f3c a7e4 dcbd e72f de3d 9424 97bd
00000170: beff c13d dc62 20be 7730 e53d 6416 c63d
00000180: 8ff7 c7bd c30c 6cbd e51b 8f3c e541 0abc
00000190: 04cc e7bd e0f1 aabd ee40 a3bd 85cd 6dbd
000001a0: 88c5 e33d a818 8fbd 79ac ed3d 15d1 39bd
000001b0: 247d cb3c 84dd b43d 822b e2bb 5504 3abc
000001c0: 6397 d5bd 1080 aa3d 67e3 3b3b 4587 d53a
000001d0: 053e 6a3b 1efc 7cbd 2cda bbbd d912 deba
000001e0: df4a 373d 1934 763d 4279 853d 8fac 423c
000001f0: da01 a73d 58d4 31bd 8016 05be 9aac 983d
00000200: 87e5 adbd 3bde dc3d f752 413e beb7 cbbd
00000210: 7fa8 f3bc 4ad6 173e 2260 82bd f6f8 923d
00000220: 276b 253e f5a7 70bd 300d d7bd 0932 713d
00000230: 0f83 4cbe 5050 933d 2ddc 27be 48f9 00be
00000240: 2213 03bc 64ae 9b3d 7b97 2abe 72bb aabd
00000250: 47aa 8a3d ef41 82bc 5257 23bc f06b 0d3d
00000260: 1a13 b4bc 1c6c d93d 2022 d3bd 2bb9 23bd
00000270: 5e9c ac3d 2fa6 dbbd 4261 233e 572f 66bb
00000280: 1af9 e03d 1932 083e 83e4 16bd cbb9 f03c
00000290: 3fd1 75bc 7abd 013e 2bc9 f9b9 50a6 10bd
000002a0: b762 26bd 8558 e33d 74e0 2b3e 666b c9bd
000002b0: ad53 37be cfbe 08be c8c3 16bd b4cb 8fbd
000002c0: ba03 0e3a 1694 94bd 0bf6 5cbd 3744 0d3e
000002d0: 45e1 d5bc 9eea 903d 55ab c2bd 4699 a7bd
000002e0: de18 cf3d 788a 873d 3670 053d ebfe 293e
000002f0: 6942 e83d 896b c0bc 99f4 c93c e011 7c3d
00000300: 67d8 743c a0f4 4f3d 7355 733c a604 ed3d
00000310: 477e 81bd 39a8 62bd 82f3 c7bd df69 4fbd
00000320: 9944 f7bd da1b 63bd e839 bbbd 8512 72bd
00000330: 4290 b8bd 4542 2e3c e234 023d 5629 953c
00000340: b60d 89bc 2253 ce3c 18f7 a8bd 6eaa d23c
00000350: c662 bf3d 706a 913d 2303 99bd 7c93 a33d
00000360: c414 7fbd 128f 0c3d 04b5 e0bd 4d07 78bc
00000370: fac4 1e3e 7a28 1bbc 61ec 9bbd 89ab 6a3d
00000380: 8c63 173e 796b 2b3b 7722 25bc 6ad5 e03d
00000390: 6639 9e3d ea1f d43d bafb b93c e08a bfbd
000003a0: 8f81 c83d c280 80bd d028 0d3d 23a9 a53d
000003b0: fa8a 7bbd f39f 67bb 0550 b83d 24b7 87bd
000003c0: 71ae bb3d 73e3 993d 3296 00bd 2bf2 213d
000003d0: 4949 86bd 5b0b 333c 1be7 aa3c 1452 943d
000003e0: dded cabc b310 e9bd fafe 86bc 5c96 46bd
000003f0: d2c7 e7bd 86a6 70bd b3d6 863d fb32 183d
-0.07796831 0.038250472 -0.19982752 -0.07229422 -0.1255473 0.04579325 -0.045266133 -0.14456564
0.017295953 -0.058437783 0.0458275 0.011348734 0.14437497 0.09042152 -0.093702875 0.0034610901
-0.13627097 0.103727564 0.002826372 0.07178625 -0.1415704 0.04663916 -0.10306988 -0.057098694
-0.0057237074 0.051877297 0.067359515 -0.10746105 -0.15174574 0.13235112 -0.07502835 0.027830182
0.067755565 -0.13533458 -0.09276008 0.03320476 -0.0833208 -0.020549951 0.084062785 0.021695627
-0.004226673 -0.016838567 -0.1532176 -0.1351826 0.005252825 -0.10862272 0.091969684 0.052443955
0.04498107 -0.0072372872 -0.07699124 0.048044637 -0.1460632 -0.078648426 -0.09551452 -0.15893848
-0.077589095 0.048235144 -0.056305524 0.100737646 -0.07335538 0.07204504 0.06071462 0.109941155
0.06237497 0.10120704 -0.014968239 -0.03364341 -0.006289417 0.08652258 0.03179558 0.08767076
0.067793936 -0.1241584 -0.0334419 0.10590698 0.08504021 -0.1909911 0.107322514 -0.06836048
0.040987488 0.0304634 -0.026053578 0.08908964 0.047144286 0.16488181 0.11597839 -0.09605688
0.012657431 -0.107857995 0.108489804 -0.073800236 0.09472607 -0.15662712 0.111908846 0.096722394
-0.09764015 -0.057629358 0.017469356 -0.008438562 -0.1131821 -0.08346915 -0.07971369 -0.058057327
0.111216605 -0.06987125 0.11605162 -0.04536541 0.024839945 0.08831313 -0.006902159 -0.011353572
-0.10429265 0.08325207 0.0028669478 0.0016290924 0.0035742533 -0.061763875 -0.09172472 -0.0016942873
0.044749137 0.060108278 0.06517269 0.0118819615 0.0815465 -0.043415397 -0.12996864 0.07454796
-0.084910445 0.107845746 0.18879305 -0.099471554 -0.029743431 0.14827839 -0.06365992 0.07176392
0.16154157 -0.058753926 -0.10500562 0.058885608 -0.1997187 0.07193053 -0.16392584 -0.12595093
-0.008000167 0.07601622 -0.16659348 -0.083365336 0.06770759 -0.01590058 -0.009969549 0.034526765
-0.021981765 0.10616323 -0.10309243 -0.03997151 0.08428262 -0.107250564 0.1595507 -0.0035123432
0.10985012 0.1330036 -0.03683902 0.029385468 -0.015003501 0.12669936 -0.00047642863 -0.035314858
-0.040621486 0.11100868 0.16784841 -0.09834938 -0.17903014 -0.13354038 -0.036807805 -0.07021275
0.00054174254 -0.07254808 -0.053945582 0.13795553 -0.026108393 0.07076 -0.09505335 -0.081835315
0.10112165 0.06618208 0.032577716 0.1660115 0.11340792 -0.023488777 0.024652766 0.061540484
0.014944172 0.050770402 0.014851916 0.11573152 -0.063229136 -0.05533621 -0.09763242 -0.050638076
-0.12073631 -0.055446483 -0.09141904 -0.059099693 -0.0901189 0.010635917 0.031788714 0.018208187
-0.01673017 0.025186125 -0.082502544 0.025716033 0.093450114 0.071003795 -0.074713014 0.07987115
-0.062275663 0.03431613 -0.10972026 -0.015138459 0.15504828 -0.0094701 -0.07613445 0.057292495
0.14784068 0.0026156588 -0.010079018 0.109782055 0.07725792 0.103576496 0.02270304 -0.0935266
0.09790336 -0.062745586 0.03446275 0.08088901 -0.061411835 -0.003534314 0.089996375 -0.06626728
0.091641314 0.075140856 -0.031393237 0.03953759 -0.06556947 0.010928 0.020862153 0.07242218
-0.024771625 -0.11380138 -0.016479004 -0.048483238 -0.113174096 -0.05875256 0.065839194 0.037157994
