logs/experiment/Discrete_acktr_20x10x10Bin_s42_inh_800_defaultBox-2022.08.18-13-06-52/PCT-Discrete_acktr_20x10x10Bin_s42_inh_800_defaultBox-2022.08.18-13-06-52_2022.08.18-19-30-13.pt (torch, 236314 bytes, 24 tensors)

actor.init_internal_node_embed.0.module.weight f4 [32, 6]
000000 56 6e 81 3e 07 71 0f 3f 5d 70 20 3f fa 01 9c be
       0.25279492 0.5603184 0.6267145 -0.30470258
000010 af 09 2c 3d b2 ea 30 3e c9 79 53 3e 5a fb c2 3e
       0.042001422 0.17277029 0.20651926 0.3808239
000020 ec cb 23 bc 07 9f 0d be 47 6f 8e be 17 d1 07 be
       -0.009997349 -0.13830195 -0.27819273 -0.13263355
000030 13 9f b1 3d 08 fc 2a bd cf de 78 3d cb 96 85 3d
       0.08672919 -0.041744262 0.06075936 0.06522902
000040 54 6d 88 be db ff 71 3d bf a5 06 bf d5 e7 22 bd
       -0.2664591 0.059081893 -0.5259666 -0.039771874
000050 93 f8 cf be 47 81 0d 3f 9f c8 97 3e 82 9a 5e 3f
       -0.40619335 0.55275387 0.2964525 0.8695451
000060 de 8f f5 3e a4 2c 6e be 9a ce da 3c 65 5d 92 3d
       0.47961324 -0.23259217 0.026709843 0.0714672
000070 63 49 53 3d 33 8b 01 be d2 c8 61 3e de 11 f9 3d
       0.05158366 -0.12650757 0.22049263 0.12161611
000080 34 05 b9 be 23 13 da 3e f0 22 10 be 48 e9 94 be
       -0.36136782 0.42592725 -0.14075828 -0.2908423
000090 70 ef d8 be 0d a9 5c 3e 47 22 1c 3e fa 65 57 3e
       -0.42370176 0.21548863 0.15247451 0.21034995
0000a0 42 94 a2 be d7 b9 1e be 5d f8 4b 3e 9a fa 82 bd
       -0.31753737 -0.1550058 0.19918962 -0.06395455
0000b0 32 b5 dd 3e e8 6f 5d 3d 2f cf 49 bf 50 6e 05 3e
       0.43302304 0.0540618 -0.7883176 0.13030362
0000c0 f4 9c f1 be 13 c1 94 3d 29 82 53 bf 23 3c dd 3e
       -0.47190058 0.072633885 -0.82620484 0.43209943
0000d0 12 c7 2d 3d b7 0d bc 3d 15 97 19 3f 8a 5d 9a 3c
       0.042426176 0.091823034 0.5999616 0.018843431
0000e0 be ba d0 bd f0 55 49 3e 27 8b 8a be 9b 3f 1a be
       -0.10191868 0.19661689 -0.2705929 -0.15063326
0000f0 35 74 8f bd 8c 50 92 3d df c1 b0 be 7f ee 0f 3f
       -0.070045866 0.07144269 -0.34522912 0.5622329
000100 b7 e2 0d 3f 03 26 23 bf e3 24 85 be 1e a3 44 be
       0.55424064 -0.63729876 -0.26004705 -0.1920285
000110 73 72 36 be ce 33 dd bc 7b 0c aa be fe 3e 45 be
       -0.17817096 -0.027002241 -0.33212647 -0.19262311
000120 90 69 7a 3f 04 70 ae 3d 33 35 0b 3e 8e 0d 32 be
       0.97817326 0.08517459 0.13594513 -0.17387983
000130 44 3a af bd c1 3b 68 be 5b 06 e6 3e 1b 89 a7 bb
       -0.08556035 -0.22679044 0.44926724 -0.00511278
000140 0d f3 24 be a4 fe 21 be e5 73 b5 3e 6a f4 b9 be
       -0.16108342 -0.15819794 0.35439983 -0.36319286
000150 5d 14 bc 3e 2c bf d2 3e 7a 54 ae be 56 c7 36 bd
       0.36734286 0.41161478 -0.34048826 -0.044623695
000160 1f d6 cb 3d 44 78 9f bd 9f 80 b4 bc e0 ef 91 be
       0.0995295 -0.07786611 -0.022033988 -0.28503323
000170 f1 b6 73 be 2f 08 a6 bd 0a 94 00 3e c1 97 8e be
       -0.23800255 -0.0810703 0.12556472 -0.27850154
000180 81 12 65 3e e8 09 30 be aa 82 d3 3e fe f3 53 bf
       0.2237034 -0.17191279 0.41310626 -0.8279418
000190 b2 f1 04 3f 53 5b 00 3f 7a 0f dd 3d 64 15 43 3d
       0.519313 0.5013935 0.107939675 0.04762782
0001a0 cb e2 fc 3d 3b 63 2d 3e b1 5d 0b bf 87 21 b5 be
       0.12347945 0.16932385 -0.54439837 -0.35377142
0001b0 95 b6 ce 3e 9b 8c aa 3d 62 b2 db be 3a 99 23 3e
       0.40373674 0.083275996 -0.42909533 0.1597642
0001c0 4b 7c 23 3e 67 43 f3 bc b5 43 bd 3e 36 f5 51 be
       0.15965383 -0.029695226 0.3696572 -0.20503697
0001d0 20 5e 5b 3d 66 1b 7b be 6c 3c a6 bd 75 c4 eb 3d
       0.05355656 -0.2452217 -0.08116993 0.115120806
0001e0 67 95 b6 3d d9 16 67 3e 44 28 e8 be 91 3d 82 3e
       0.08915215 0.2256731 -0.4534322 0.25437596
0001f0 1b b3 00 3d 04 5c fd be 10 a1 e5 bd 4a 8b 99 bd
       0.03142081 -0.49484265 -0.11212361 -0.074972704
000200 13 ee 95 be 64 7b b5 3d c8 2f 02 be f5 8e b9 be
       -0.292832 0.088614255 -0.1271354 -0.3624188
000210 54 ff 3e bf 22 58 5e bf 84 2a 54 bf 00 54 01 3f
       -0.7460835 -0.8685323 -0.82877374 0.505188
000220 da dc ea 3e bc 42 ea 3e c4 40 97 be bd bc e7 bd
       0.4587162 0.4575404 -0.295416 -0.11315296
000230 fd 91 23 be 06 e5 a7 3d 2e 70 21 bc 3c 59 11 3f
       -0.15973659 0.0819798 -0.009853406 0.56776786
000240 fb bc 12 be 21 1b 02 bd ca 89 85 3f 69 45 bd 3e
       -0.14329903 -0.031764153 1.0432675 0.36967018
000250 4e 96 ea 3d 56 11 59 3e 79 48 c8 bc 2b 10 5e 3e
       0.114544496 0.2119802 -0.02444862 0.21685855
000260 0e 02 c5 3e 18 24 ad be 7a 4e 72 bd cc 46 e3 3e
       0.3847813 -0.338166 -0.059156872 0.4438995
000270 7f 15 bb be ee 2e 91 3c b9 87 a7 be 94 a2 d6 3d
       -0.36539838 0.017722573 -0.32720736 0.10480228
000280 12 00 90 3e c4 7d f9 bc 7b 2b 95 bd 1a 2e 06 3d
       0.28125054 -0.030455478 -0.07283684 0.03275881
000290 71 ce b5 3e 0a c6 b9 be 47 68 06 bd 84 78 36 be
       0.35509065 -0.36283904 -0.03281429 -0.1781941
0002a0 23 f4 b1 be 5d 40 13 bf 6d 1e b1 bd 92 34 2b 3d
       -0.34756574 -0.57520086 -0.086483814 0.04179818
0002b0 6b 7c 0b 3e f8 91 8b 3d c7 6f 8c be ec b1 10 3e
       0.1362168 0.06814951 -0.2742903 0.14130372
0002c0 f1 9a cd 3e 0c f1 61 be 41 26 20 bd 85 97 c0 bd
       0.40157273 -0.22064608 -0.03909898 -0.094039
0002d0 55 e9 d2 3e 2f c7 14 3d 53 2e 5e 3c ee af d1 bd
       0.41193643 0.03632277 0.013560849 -0.10238634
0002e0 37 3b 32 3e e7 90 d0 be e7 21 9d 3e f0 98 2a 3e
       0.17405401 -0.40735552 0.30689928 0.16659904
0002f0 2e 57 88 be 03 78 61 be 74 29 95 3c 67 4d a7 3e
       -0.26629013 -0.22018437 0.018208243 0.3267624

actor.init_internal_node_embed.0.add_bias._bias f4 [32, 1]
000000 bf 59 02 3d e0 9c 85 3c 20 29 f4 bc 68 87 7b 3d
       0.03182387 0.016310155 -0.029804766 0.06140843
000010 74 8d fc 3d 36 21 2d 3c c2 4d 58 bc 3e c4 b5 3c
       0.123316675 0.010567 -0.013202133 0.022188302
000020 28 9e e9 3c 41 89 a1 3d b4 f4 cd 3c 6e ab 9e 3c
       0.028517798 0.07887507 0.025141098 0.019368853
000030 8c 9b 22 3d bb ca c2 3c 39 42 c8 3b 0a 87 ab bb
       0.039699122 0.02377831 0.00611141 -0.005234604
000040 c7 54 4a 3c 5a 3f 2c 3c d4 c2 bb 3a e0 dc d7 39
       0.012349314 0.010513151 0.0014325031 0.0004117256
000050 bd 9e 43 bc 2d c1 b4 3c fa 8a 8e bb 83 31 db bb
       -0.011939702 0.02206477 -0.0043500634 -0.006689252
000060 4e bd 85 3d 4d 52 7b 3c 96 8e 38 bc 3e f5 a7 bb
       0.06530248 0.015339446 -0.011264464 -0.0051256707
000070 78 00 6b 3b 29 42 80 ba 4a c3 35 3c 87 f5 17 3d
       0.0035858434 -0.0009785342 0.011093924 0.037099387

actor.init_internal_node_embed.2.module.weight f4 [64, 32]
000000 4a ee 6a be 3e a8 43 3d ae 14 14 be ce 3c e7 3e
       -0.22942463 0.04776787 -0.14461014 0.45163578
000010 f5 ff 05 3e d8 21 3a 3d 7b 47 ab 3d ae 67 0b 3e
       0.13085921 0.045442432 0.08363243 0.1361377
000020 01 d6 a7 be fe d5 a7 be e3 98 f7 bd f0 17 95 bd
       -0.3278046 -0.3278045 -0.12089708 -0.07279956
000030 7d 79 b8 be 47 05 30 be 3c 9d 98 bc 37 ec 32 be
       -0.36030188 -0.17189513 -0.018629663 -0.17472921
000040 17 37 c7 3e 2d 2e 8c bd 8f f4 43 be 1a 55 86 3e
       0.38909218 -0.06844745 -0.1913626 0.26236802
000050 28 43 d7 3d 1d e1 a9 be 1e 78 d8 bd d6 8f 42 be
       0.10510856 -0.3317956 -0.105697855 -0.19000182
000060 b1 98 76 3e 58 ea b7 3e 8f d1 ff 3d 1e d8 c9 3d
       0.24081685 0.35920978 0.12491142 0.09855674
000070 a7 2f 4b bd f4 01 1d be 35 bb 7e be f4 0b 00 3e
       -0.04960599 -0.15332776 -0.24876101 0.1250456
000080 04 a2 d2 be 58 64 c8 be bc 17 b2 be 21 5b a0 be
       -0.41139233 -0.39139056 -0.34783733 -0.31319526
000090 21 ef 77 3d 72 ab 95 3e 70 b4 73 3b 03 e8 d2 3e
       0.060530785 0.29232365 0.0037186407 0.41192636
0000a0 b9 bb 3f 3c 0b 44 52 bd 32 66 85 bd 9c be 18 bd
       0.011702471 -0.051334422 -0.06513633 -0.037291154
0000b0 0f dd ac be c7 52 a8 3d 0b 13 66 be 38 e0 25 3e
       -0.33762404 0.082189135 -0.22468202 0.16198814
0000c0 09 b6 45 3d ea 23 63 3d f6 f7 cd be cc 24 2d be
       0.048269305 0.055454172 -0.40228242 -0.16908568
0000d0 39 20 cc 3e f9 94 e1 3d b3 91 f6 3d c8 39 a1 be
       0.39868334 0.110147424 0.12039509 -0.31489396
0000e0 86 16 93 be a5 21 be 3d 44 a5 5e bd 0a a7 26 3e
       -0.28728122 0.09283761 -0.05435683 0.16274658
0000f0 df 98 88 be d8 87 39 3e 4e d1 c3 3e 15 ca f5 bc
       -0.2667913 0.18118227 0.38245624 -0.030003587
000100 40 8d 4c 3f b4 a6 3c be 59 7d 34 bd 3c 58 ae 3e
       0.7990303 -0.18422967 -0.044064853 0.34051692
000110 5f c7 84 be 70 b1 53 3e 60 75 8a be a7 ce 9f bd
       -0.25933358 0.20673156 -0.27042675 -0.07803088
000120 7b 75 86 3e cc 07 96 3e 65 21 d1 3d 2c fd d0 be
       0.26261505 0.29302824 0.102114476 -0.40818155
000130 55 19 70 3f 4b e5 0c be 10 76 1c 3e f1 eb 24 bc
       0.93788654 -0.13759343 0.15279412 -0.010066018
000140 e3 83 8b 3e 7b e1 b4 3d 6e cb a0 3c 3e aa 74 3e
       0.2724906 0.088320695 0.019628253 0.23893067
000150 f4 9b ce be b9 65 46 be 84 31 f1 3d 9d 9b b8 bd
       -0.40353358 -0.19374742 0.117770225 -0.09014056
000160 36 b4 06 3f dc 52 83 be 1b 00 b0 bd 33 30 4c bd
       0.5261873 -0.25649154 -0.0859377 -0.049850654
000170 1e 6a 17 3e c2 13 c0 3d d6 d8 99 3e 3c e4 0e 3e
       0.14786574 0.093787685 0.30048245 0.13954252
000180 76 76 d2 bb a0 44 21 3f 27 de 06 be 8f 1b 07 bf
       -0.006422813 0.6299534 -0.13170682 -0.52776426
000190 4a e1 de 3c e4 03 20 be 48 6b 9f be e5 24 4d 3d
       0.027207036 -0.15626484 -0.31136537 0.050084013
0001a0 b6 3d 50 be a8 83 08 3d 8f 3f 71 bd 3d f1 06 3f
       -0.20336041 0.033328682 -0.058898505 0.5271185
0001b0 b2 ea 2e 3e bc 4d 20 be f0 3a 03 be 32 02 31 be
       0.17081717 -0.15654653 -0.12815452 -0.17285994
0001c0 c5 b4 21 be 1f c6 2d be 49 cf 61 be 1b 13 4a be
       -0.15791614 -0.16970108 -0.2205173 -0.1973385
0001d0 df 0a a7 be f6 13 02 3e 9f 1f 7f 3e 6e 36 80 3e
       -0.3262548 0.12702927 0.24914406 0.25041527
0001e0 93 54 b8 be 82 46 2b 3e 2f 16 24 3e 19 49 23 3d
       -0.36002025 0.16726115 0.16024087 0.039864633
0001f0 5d 34 4b 3e 45 27 0f 3e 9d d1 d8 3d 97 d2 ff bd
       0.19844194 0.13979824 0.105868556 -0.12491339
000200 18 04 b0 be 3d 13 37 bd b9 ba ce 3d 63 c8 93 bc
       -0.34378123 -0.04469608 0.10094208 -0.018039888
000210 ca 8c 09 be db 95 f2 3c 95 c4 fa bd 61 0e c7 bd
       -0.13432613 0.029612472 -0.12244526 -0.097195394
000220 b5 f9 88 3d 6d 55 09 3e 70 a8 19 3d 13 36 a2 be
       0.06688253 0.13411494 0.03751415 -0.3168188
000230 61 0f 6c bc ae 6a ab 3e e6 c0 f6 3d 42 bc 21 bc
       -0.0144079635 0.33479828 0.12048511 -0.009871544
000240 b2 95 c8 3c 39 1e 41 3d 0b cb a6 be 0b ef 5b be
       0.024485443 0.047147963 -0.32576784 -0.21477906
000250 81 d2 54 bd 13 68 f3 bd 84 31 09 3f 4b a0 86 be
       -0.051958565 -0.11885085 0.5359118 -0.2629417
000260 cc 96 fa be 1d 84 87 bc b1 12 13 3e 51 53 21 3c
       -0.48943174 -0.016542489 0.14362599 0.009846524
000270 66 d6 52 3e ac 46 d9 bb e9 56 23 3e 34 9e 42 3c
       0.20589599 -0.006630739 0.15951122 0.011878539
000280 b4 fa c9 be a7 16 28 3d 81 2a 7b bd 16 71 4d 3d
       -0.39449084 0.041037228 -0.06131983 0.050156675
000290 bb 68 16 3f 4b 1f 5c 3e e6 5b 95 3e d7 b5 b1 be
       0.58753556 0.21496312 0.29171675 -0.34709045
0002a0 88 d4 a4 3e b0 1f f9 3e f6 d4 16 3f a9 41 55 3e
       0.32193398 0.48656988 0.589187 0.20825829
0002b0 5e f2 08 3e 87 60 45 3e a3 5f bc 3e 47 0f 2b bc
       0.13373706 0.19275104 0.36791715 -0.010440654
0002c0 47 e8 5d be bc e5 46 3d 66 a8 94 3d 47 5a 15 be
       -0.21670638 0.048558936 0.07258682 -0.1458522
0002d0 6d bc d1 3e 80 fc 60 bb df ba 7d bd df 93 cd bd
       0.4096407 -0.003433019 -0.061945792 -0.1003797
0002e0 a5 c9 5f bf 64 d5 bf 3d 9b 9b 83 be fd 9e 6e be
       -0.8741706 0.09366873 -0.25704655 -0.23302837
0002f0 ab 4d 74 bd fd 45 cd 3b 3c 62 e6 3e 12 55 c1 bd
       -0.059644382 0.006264447 0.44996822 -0.09440054
000300 06 c8 92 3d 23 b7 52 be 7d c1 1b be 13 cc e6 be
       0.07167058 -0.20577674 -0.15210529 -0.4507757
000310 4f 37 aa 3c 92 44 2e 3d 32 0b 70 bd f3 fd 74 bd
       0.020778326 0.042545862 -0.058604427 -0.059812497
000320 d4 38 bd bd 14 a1 13 3f 4c bf 03 be c1 a9 2b 3d
       -0.09239355 0.5766766 -0.12865943 0.041909937
000330 a3 50 47 3f e6 c6 a3 bc 54 9f 2d 3e b6 9b 45 bd
       0.77857417 -0.019992303 0.1695531 -0.0482442
000340 cc 2d 4a be f4 b4 77 be 6c eb 1e 3f a0 6c 62 3e
       -0.19744033 -0.24190122 0.62077975 0.2211175
000350 72 b8 cd be 2b af e0 3c 68 49 8d bd 44 30 2b 3e
       -0.40179783 0.027427277 -0.06898767 0.1671763
000360 ce d0 78 bf 77 de 7e be 2f 97 61 3e 1d ac 3d 3d
       -0.9719361 -0.24889551 0.22030328 0.04630672
000370 4c a5 92 3e 85 02 a2 3e d0 3b 12 bd 6a 4f 1c be
       0.28641737 0.31642547 -0.035701573 -0.15264669
000380 88 25 3d 3f 32 a8 64 3e 2a 50 99 3e 26 e9 b9 3e
       0.73885393 0.22329786 0.29943973 0.3631069
000390 0d 61 ef bd a1 08 14 3e 45 6a 91 3e 85 99 26 3e
       -0.11688433 0.14456417 0.2840139 0.162695
0003a0 20 05 69 be c2 2f af be dc ec b6 bc f2 a0 82 be
       -0.22755861 -0.34216124 -0.02232974 -0.25513417
0003b0 ef 62 01 3f 98 0d ab be cb f4 27 bd d4 1e 42 3d
       0.50541586 -0.3340881 -0.041004937 0.04739268
0003c0 a8 29 c0 3c a9 26 57 bd 81 f0 8b 3e 79 de 81 bd
       0.023457363 -0.052527104 0.27331927 -0.063412614
0003d0 d4 ff 89 bd 2d 9a 47 be b8 d7 61 3c 63 aa c1 3d
       -0.067382485 -0.19492407 0.0137843415 0.09456327
0003e0 f7 b6 24 3f b6 95 51 bc dd 7a 76 3e 24 63 0d bd
       0.6434168 -0.0127920415 0.24070306 -0.034518376
0003f0 4b f0 25 3e 44 99 b7 3e 35 fe fe be 89 7d 33 be
       0.16204946 0.3585912 -0.4980332 -0.17528357

actor.init_internal_node_embed.2.add_bias._bias f4 [64, 1]
000000 b9 cd 80 bc 86 94 5c bd fc 94 be 3d eb 2e 64 bd
       -0.015723096 -0.05385258 0.0930576 -0.055708807
000010 06 f6 17 bd 8a 18 36 3d 8e 37 4c bd 94 74 ba 3d
       -0.03709986 0.044456996 -0.04985767 0.09104267
000020 fd de 87 3b f1 60 76 bd 54 78 93 bc 96 a0 15 bd
       0.0041464553 -0.060151044 -0.018001713 -0.0365301
000030 b4 07 0b be 39 10 5c bd 19 e1 f4 bc 5f fb fb 3c
       -0.13577157 -0.05372641 -0.029892491 0.030759512
000040 9e 29 8a bd 4a 2b 4d bd 8f ca 14 be d4 c9 82 3c
       -0.06746219 -0.05009011 -0.14530395 0.01596538
000050 3f e4 89 bd ad 85 12 bd c9 83 83 3c 6f aa af 3d
       -0.067329876 -0.035772014 0.016054051 0.085774295
000060 a5 1d b7 bc bf 1a 38 bc ed 08 ac bc 2c 83 9c 39
       -0.022353003 -0.0112368455 -0.02100035 0.0002985237
000070 f8 d9 ac 3c 23 d6 da bd 12 7c 96 3d b4 52 07 be
       0.02110003 -0.106853746 0.07347883 -0.13215142
000080 af 8e ca 3d 6f 9f af 3d 25 0d 15 bd 4f 56 23 bd
       0.09890496 0.085753314 -0.03638949 -0.039877232
000090 e7 f6 62 3d 0a e1 17 bd 5c e1 ab 3c d0 3d 87 3d
       0.055411246 -0.03707985 0.020981483 0.06603587
0000a0 32 79 5e bd b6 d4 43 bd 0b f6 72 3e 5d e9 6c bc
       -0.0543148 -0.04781028 0.2372667 -0.014459935
0000b0 d7 be 93 bd 68 b1 d5 bc 75 79 38 3d 5d 05 39 3d
       -0.07214134 -0.02608557 0.045037705 0.04517113
0000c0 d1 64 74 3d 75 a5 05 be 56 8e 61 3d e5 43 9c 3d
       0.05966646 -0.13051398 0.055067383 0.07630137
0000d0 42 a5 87 3d 1e 3e d9 bd 1b 06 1d bd 7d 3f 09 3e
       0.06623317 -0.10607551 -0.0383359 0.13403125
0000e0 5c 5c 0f 3e 0d 65 9a 3b 9a a0 da 3a 0c e2 75 3b
       0.14000076 0.004711753 0.0016679943 0.0037518768
0000f0 10 b0 08 bd 61 c3 8a 3c 32 35 59 bd 85 32 92 3d
       -0.03337103 0.016938867 -0.053029247 0.07138542

actor.init_leaf_node_embed.0.module.weight f4 [32, 8]
000000 97 69 26 be 14 d7 ed be cc 48 b8 3e df c9 b2 3e
       -0.16251217 -0.46453154 0.3599304 0.3491964
000010 ab ab 34 3e db 14 bd 3e d6 8f aa be 3f c3 9e be
       0.17643611 0.36929974 -0.33312863 -0.31008336
000020 e9 25 03 bf d6 50 09 be 4d 95 93 3e dc 9c 9b 3d
       -0.5122972 -0.13409743 0.28824845 0.07598278
000030 dd f0 37 3e 8b cd 86 be 96 8d 7a 3e 93 04 58 bd
       0.17962976 -0.26328692 0.24468073 -0.052738737
000040 b6 80 91 3c 4f 8d 8d 3d 08 9d 92 be 7a a0 ca bc
       0.01776157 0.06911718 -0.2863543 -0.024734724
000050 8e 27 49 be 81 ca 32 be 66 01 a2 3d b7 65 c5 bd
       -0.19643995 -0.17460062 0.07910423 -0.09638541
000060 a6 55 51 be a8 70 21 3e 64 75 e1 3e 0b f0 60 be
       -0.20442829 0.15765631 0.44034874 -0.21966569
000070 f9 6f fc 3d 67 b0 4e 3e 13 7c 80 be db a0 49 3c
       0.123260446 0.2018448 -0.2509466 0.012306417
000080 dd 42 ad 3d cc 6e 10 bf 16 ed cf 3e 0f f3 44 be
       0.08460019 -0.5641906 0.4061057 -0.19233344
000090 21 13 1e be 28 79 b3 3d 86 2d 2a be 19 bb 11 3e
       -0.15436985 0.08763343 -0.16618928 0.14231528
0000a0 0f 4a c4 be 8a 61 c8 3c 9c 86 9c be 6f 72 2b 3e
       -0.38337752 0.024460573 -0.3057145 0.16742872
0000b0 61 60 81 bd eb e7 ea 3d 3e c0 2b be 66 5a 30 3c
       -0.06317211 0.11470016 -0.16772553 0.01076374
0000c0 00 ca ae be e5 52 cb 3d 7b b0 9e bd 02 14 14 3e
       -0.3413849 0.0992792 -0.07748505 0.14460757
0000d0 7f 27 26 bc f5 72 10 be 9e b3 39 3d 92 28 27 3e
       -0.010141253 -0.14106353 0.045337312 0.1632407
0000e0 46 a1 9f 3e fa 47 4a 3e cc d4 c7 3e b0 a0 c0 bd
       0.3117773 0.1975402 0.3902954 -0.09405649
0000f0 84 59 3e be 50 36 9f bd c2 df 28 bf 7b 28 a8 bd
       -0.18588835 -0.07774031 -0.6596643 -0.08210846
000100 12 5c 14 bd 27 21 f7 3d 80 d4 47 3e 9f 9c c3 bd
       -0.036220618 0.1206687 0.19514656 -0.095513575
000110 d8 1e 77 bd a9 2f 8e 3e a0 2f 57 3d 6a 5c 32 3d
       -0.06033215 0.27770737 0.052535653 0.043545164
000120 79 1e 1c bf 14 50 c9 be ce 9f 1c 3d 76 90 84 3e
       -0.60984 -0.39318907 0.03823834 0.25891465
000130 0c bb fe 3e c7 92 a2 be e5 5d d7 ba b9 5f 04 bf
       0.4975208 -0.31752607 -0.0016431181 -0.5170856
000140 b1 e8 a8 be 94 2c 1a 3e 3b 52 f0 be e2 8b 40 be
       -0.3299003 0.15056068 -0.46937737 -0.18803361
000150 9b f1 c5 3e 7e e8 30 3e 5b 21 6b be b4 5d ff b9
       0.38660893 0.17276189 -0.22961943 -0.00048707204
000160 2e 17 14 3d a4 16 e4 bd 50 44 98 3e cc 13 b9 be
       0.03615492 -0.11137131 0.29739618 -0.36147916
000170 b0 3d f5 bd f6 72 db be eb 3e d6 3e 29 94 58 3c
       -0.119746566 -0.42861146 0.41844878 0.013218918
000180 ea 15 18 be ef 9f 67 bd c6 ff 7e 3e 46 ad 0e 3f
       -0.1485211 -0.05654901 0.24902257 0.55733144
000190 b1 5e 2a 3e bb c8 7e 3e 4a df ad 3e 1e 36 de 3e
       0.16637684 0.2488126 0.3395942 0.43400663
0001a0 a4 67 d4 3d e5 6c a6 3e ba b5 5a 3e a4 30 4b bd
       0.103713304 0.32504955 0.21358386 -0.049606934
0001b0 5e 34 f1 be 04 03 55 bd 3f 4e 4a bd eb 74 65 be
       -0.47110265 -0.05200483 -0.049391028 -0.22407882
0001c0 92 44 ee 3e 53 03 f6 3e d2 3e 95 3e eb 9c 96 3e
       0.4653669 0.4804941 0.2914949 0.29416594
0001d0 01 a0 d3 bb 02 b7 a9 bd 20 50 0a 3e 16 e2 1d 3e
       -0.006458283 -0.08286859 0.13507128 0.15418276
0001e0 11 0e d9 3b 4c d1 3b be 6b f3 95 bd 56 ab 8a 3e
       0.0066239913 -0.18341559 -0.07321819 0.27083844
0001f0 76 8f 27 be 4e a9 78 3e 8d d3 2d 3d ab ae 31 3e
       -0.1636332 0.24283335 0.04243808 0.17351787
000200 57 89 75 3e 6e ad 9e 3e 5c 3c 91 bd 5a 49 fd be
       0.23978172 0.3099169 -0.07091591 -0.49470025
000210 30 92 88 3c 1f ec a3 be f7 85 63 be ad f6 2d 3e
       0.01667127 -0.32016084 -0.22219072 0.1698863
000220 88 47 97 be 89 e9 90 3e e0 33 a6 be 26 35 d1 3e
       -0.29546762 0.28303173 -0.32461452 0.40860862
000230 96 df 42 be 4e 69 9b bd 78 f0 57 be e2 f2 62 3e
       -0.19030604 -0.07588445 -0.21087825 0.22162965
000240 63 23 8b 3d b9 5b c2 bd 3b 4f 4f bf b1 13 d7 bd
       0.06793859 -0.09490151 -0.8098027 -0.10501803
000250 5b 80 92 3e c8 98 ab 3e 58 11 bf 3d b9 51 23 be
       0.28613552 0.33515 0.0932948 -0.15949143
000260 25 ea 51 be ad 13 e4 bd e0 77 03 bf e7 d2 1b 3d
       -0.20499475 -0.11136565 -0.5135479 0.03804293
000270 77 61 00 be d4 6c da bc 86 3e 7f 3e ca 62 9f bd
       -0.1253718 -0.026663221 0.24926195 -0.077825144
000280 a0 49 1f 3e c2 8f 15 bd 30 dd a1 3e f6 ab b1 3e
       0.1555543 -0.03651405 0.31614065 0.34701508
000290 da 99 b1 3e fb 3d f8 3c 76 72 96 3e ad a4 9c bd
       0.34687692 0.030302992 0.29384202 -0.07648597
0002a0 ff 7d a8 be 21 84 60 3e 4a 54 1e 3e 34 6f ff bd
       -0.32908627 0.21925403 0.15461841 -0.12472382
0002b0 ce 89 a6 3e f9 cb a1 be d0 2c 2b bd 85 7a 49 3e
       0.32527012 -0.3160093 -0.041790783 0.19675644
0002c0 99 7a 3f 3e 54 b3 80 be 36 32 78 be 15 08 b8 be
       0.18699111 -0.25136817 -0.24237904 -0.35943666
0002d0 ff d6 88 3e c8 82 3f 3d 12 fd e1 3e 0d 1c 6b 3e
       0.2672653 0.046755582 0.4413839 0.2295992
0002e0 99 89 c2 bd 10 8e f9 3e ea 7e 34 3e c5 d8 fb be
       -0.09498901 0.48741198 0.17626539 -0.4918882
0002f0 4c f0 4b bc b0 52 27 3f ac dd 0f 3e 11 3e ca 3e
       -0.012447428 0.65360546 0.14049405 0.39500478
000300 41 9c 04 be 1f d8 a2 be bf 49 e6 bd 05 1f bd bd
       -0.12950231 -0.31805512 -0.11244535 -0.09234432
000310 7d 53 71 3e 8f 90 20 be 5e d5 9a bd ca 4f 16 3f
       0.23567005 -0.15680145 -0.07560228 0.587155
000320 8c bb 84 bc 3b 6e 80 be bb 8f cd be 36 63 8e 3e
       -0.01620271 -0.250841 -0.4014872 0.27810067
000330 46 67 51 be e6 9d 14 be 9e 2c a2 bb cf 25 ba 3e
       -0.20449552 -0.14513358 -0.0049491664 0.3635697
000340 f6 fc 92 be 14 13 36 3e fe ba 2b 3e f4 38 66 be
       -0.2870862 0.17780715 0.1677055 -0.22482663
000350 4c 3d d4 be c7 49 06 be b9 0b d0 3e b1 12 44 be
       -0.41453016 -0.13114081 0.40633944 -0.19147755
000360 bd 6f 6f be 76 70 6b 3e 74 23 a9 3e 53 30 83 3e
       -0.23382469 0.22992119 0.3303486 0.25622806
000370 3a e8 e2 39 cc 45 9c 3e 65 5c 9c 3e 15 dc 43 be
       0.000432791 0.30522 0.3053924 -0.19126923
000380 80 f8 2f 3d 22 e1 26 bd 4b 8d b3 3e e7 34 07 be
       0.042961597 -0.040742047 0.35068735 -0.13203774
000390 c3 17 04 be e5 30 05 bf 60 38 76 be d6 e0 b8 bd
       -0.1289969 -0.5202773 -0.24044943 -0.09027259
0003a0 ba 96 e0 3e e9 e2 aa 3e 7e b4 a8 be 83 36 b0 3e
       0.43864995 0.33376244 -0.32950205 0.3441659
0003b0 c8 96 1f 3f 8b a2 2a 3d 73 cd 24 3e 62 4f ff be
       0.6233945 0.04165892 0.16093998 -0.49865252
0003c0 d3 77 89 3d a2 3a b0 be 62 7f e4 bd 7b 32 cd be
       0.06712308 -0.34419733 -0.11157109 -0.40077576
0003d0 b9 17 8b be c3 95 e7 3e 9b 47 a3 3d 76 3a 80 be
       -0.27166536 0.45231447 0.07972642 -0.25044602
0003e0 a4 9b 00 bf bb c6 84 3c a2 34 90 be 19 c4 f9 bd
       -0.5023749 0.016208043 -0.28165156 -0.12195606
0003f0 b0 ab ae be 4d 7d 40 be 6b f0 8d 3e b2 03 55 be
       -0.34115362 -0.18797798 0.27722487 -0.20802191

actor.init_leaf_node_embed.0.add_bias._bias f4 [32, 1]
000000 ac 4c 2e 3e eb f3 98 bc 41 a9 0d bc 18 c3 b0 3d
       0.17021435 -0.018670997 -0.00864631 0.08630961
000010 eb 7a 20 3c c8 e7 16 bd 2e ef c2 3c 18 4e e0 3c
       0.009794931 -0.036842138 0.02379569 0.027380988
000020 a9 7b 0a be 46 ee f6 3b c8 ef 3a bd ff 27 89 be
       -0.13523735 0.0075357286 -0.04563883 -0.26788327
000030 e0 e8 92 3e be 37 41 bc 04 ee 01 bd 35 66 c4 bc
       0.28693295 -0.011793075 -0.03172113 -0.023974517
000040 1b e5 10 3d 80 e8 24 bd bb 98 ad bd 65 f8 21 3e
       0.035374742 -0.04026079 -0.08476397 0.15817411
000050 f5 6a 49 bd 97 72 33 bd a6 82 12 3d 7f 2d 17 bc
       -0.049174268 -0.043810453 0.035769127 -0.009227156
000060 e3 09 5d 3d 89 07 85 bd 2b de 99 bd 64 94 d6 3c
       0.053964507 -0.06495578 -0.07513078 0.026193805
000070 41 09 fa bd 44 af 97 3e ba da e6 3c 28 9e a3 bd
       -0.12208796 0.29625905 0.028180469 -0.0798915

actor.init_leaf_node_embed.2.module.weight f4 [64, 32]
000000 e9 1a 1a be a2 94 b8 be cc fc 8a be 75 f6 19 be
       -0.15049328 -0.36050898 -0.27145994 -0.15035422
000010 5f 60 2f 3e 38 85 a5 3c e8 2c 75 3d 72 a8 0d 3e
       0.17126606 0.020205125 0.05985728 0.13833788
000020 ea 95 38 3e f0 3d a3 3d 8f 0c b5 3d c2 e2 85 be
       0.18025938 0.07970798 0.08840286 -0.26149565
000030 8f ba aa be 75 d7 81 3c 04 e8 8b be 15 14 13 be
       -0.33345458 0.015849808 -0.2732545 -0.1436313
000040 56 40 46 3e a4 96 b8 bd a6 c8 19 be e2 91 7a bd
       0.1936048 -0.090131074 -0.15017948 -0.06117428
000050 6c fc 6b 3d 26 bf 9a be 48 72 82 3e d7 64 10 3e
       0.057613775 -0.3022396 0.25477815 0.14100967
000060 84 a0 04 3e ea ca 0f bf 8d 40 9c bd 35 15 1b 3e
       0.12951857 -0.56169 -0.076294996 0.15144809
000070 be c5 0b 3e 5a 88 5a be d2 28 b8 bc aa 71 33 bc
       0.13649651 -0.21341076 -0.022480402 -0.010952393
000080 01 90 10 3d 2b 30 18 3e c0 72 73 3d 2d 19 b9 3d
       0.035293583 0.14862125 0.059435606 0.09038005
000090 bf 47 2e 3d c4 5b 43 bc a9 4f b9 3d 53 50 2b be
       0.04254889 -0.011923734 0.09048397 -0.1672986
0000a0 6f cd dc bd 9a a2 94 be 45 95 d8 3e 5e fc bd bc
       -0.10781371 -0.29030305 0.42301384 -0.023191627
0000b0 61 81 c2 bc cf eb ce 3d 63 78 4f 3e de 24 aa be
       -0.023743333 0.10103571 0.20260768 -0.33231252
0000c0 57 87 8e bd 52 5c 4f be 04 2f 4c be 03 4a 4e be
       -0.06959408 -0.20250061 -0.1993981 -0.2014542
0000d0 06 36 e7 3d 7f b9 65 bd a7 2b 62 3c 01 23 09 be
       0.11289601 -0.056085106 0.013804353 -0.13392259
0000e0 05 57 ea be d9 2f 0a be b6 f9 92 bc a4 b3 84 3e
       -0.45769516 -0.13494815 -0.017941337 0.25918305
0000f0 e5 52 83 be 80 a9 20 be 1b a5 48 bd 93 93 c7 3e
       -0.2564918 -0.15689659 -0.04898558 0.38979778
000100 88 9e 9c 3e 4d 78 17 3c 4a a1 1d be f5 e4 c3 bc
       0.305897 0.009244991 -0.15393558 -0.023912886
000110 72 79 1a 3e 02 3e 82 bd c5 1a f1 bd 1c ce ff 3d
       0.1508539 -0.06359483 -0.11772684 0.12490484
000120 f8 4a ef be 55 03 a4 bd f1 98 eb be ce ef 27 be
       -0.46736884 -0.08008448 -0.46015123 -0.16400072
000130 36 1a 8d be 33 54 49 3d 07 cf 92 3e 24 d3 b3 bd
       -0.2755906 0.049152564 0.28673574 -0.08780506
000140 91 56 ee bd 13 65 6c 3e 9e d9 99 be 44 53 cd bd
       -0.11637605 0.23085432 -0.3004884 -0.10025647
000150 40 cd ca bc f2 20 fc bd 8c 35 68 bb 06 47 b9 bd
       -0.024756074 -0.12310971 -0.0035432307 -0.0904675
000160 55 29 9e bc d9 b4 eb bc da 5c a7 bd 74 c8 05 be
       -0.019306818 -0.028772758 -0.08172007 -0.13064748
000170 8b 5e 57 be 30 08 0a bd 62 ef 4c 3e f4 eb f7 3d
       -0.21032159 -0.033699214 0.20013192 0.12105551
000180 5e 30 01 3d 39 1e 7e 3e 57 59 33 3e 6f bc 00 3e
       0.031540267 0.24816217 0.17514549 0.12571882
000190 2d 51 f8 3d 19 58 80 3d f2 1c c8 bc 78 78 2f 3e
       0.12124858 0.06266803 -0.024427865 0.17135799
0001a0 ed 0a 8d bd 57 52 b1 bd 9f 00 06 be e9 85 73 3e
       -0.068868496 -0.08658283 -0.13086174 0.23781551
0001b0 87 a3 81 be 04 f8 86 3d dd ad 8c 3d 74 fd 0c 3e
       -0.25320074 0.06590274 0.06869099 0.1376856
0001c0 b6 35 fa bd d0 63 5a 3e 39 48 99 be e5 17 82 3d
       -0.12217276 0.21327138 -0.29937914 0.06352214
0001d0 cf 12 7e 3d fb c5 16 3e ac c4 53 be b6 4e 51 3e
       0.062029656 0.14723961 -0.20680493 0.20440182
0001e0 2f d6 07 bc e3 2f 12 3e f5 6c 20 3e 28 68 34 3e
       -0.008290811 0.1427608 0.15666564 0.17617857
0001f0 76 81 99 3e b9 1f b5 bc d0 46 51 3e 91 85 2f 3e
       0.29981583 -0.022109853 0.20437169 0.17140795
000200 f4 cf e3 bd dc 5d 92 bd 33 af 89 3d bd 16 26 3c
       -0.11123648 -0.071468085 0.0672287 0.010137257
000210 07 0f 56 3e 53 6d e9 be 24 13 5f 3e fd 42 f3 bd
       0.2090417 -0.4559122 0.21784645 -0.118780114
000220 4f aa a1 3d 69 45 a1 3c c0 6a 36 bd 6d 7b b3 be
       0.07893812 0.019686418 -0.0445354 -0.35055104
000230 96 01 c0 bd 31 11 3f 3e 8b ec 06 3e 5d e5 e1 bd
       -0.093753025 0.18658902 0.13176171 -0.11030076
000240 38 b0 e4 be 05 9f a1 be af 5f 0f 3e 62 27 c2 3d
       -0.44665694 -0.31566635 0.14001344 0.09480168
000250 e1 a0 91 be 6d 9a 13 3e b0 e7 02 bd 84 1e d2 3c
       -0.28443053 0.14414378 -0.031959236 0.025649317
000260 be 40 cc bd 2d 72 33 bd 02 fb 0e be ac 99 17 3e
       -0.09973286 -0.04381006 -0.1396294 0.14804715
000270 be b6 76 3e dd 82 21 3e 02 d9 a0 3d 1d a9 3a be
       0.24093148 0.15772577 0.07853891 -0.18228574
000280 ac 3f 67 3d 61 58 88 bc f8 0f 3b be 23 c1 88 3d
       0.056457207 -0.016643705 -0.1826781 0.06677463
000290 74 06 5b be 63 66 8c bd aa fd b2 3e 88 d8 9e be
       -0.2138918 -0.06855466 0.34959155 -0.31024575
0002a0 b2 e9 d1 bd 30 16 ba 3c 6c fc 33 be af 54 93 3e
       -0.10249652 0.022715658 -0.1757676 0.28775546
0002b0 ed 9c 13 3f a4 64 2f 3d 8f ac 62 3e 7e 02 28 be
       0.57661325 0.042820588 0.22136138 -0.164072
0002c0 89 60 1d 3e 1a 62 d0 3c 03 35 9a be e1 60 b6 bd
       0.15368856 0.025437403 -0.3011857 -0.08905197
0002d0 b6 31 d2 3c 4a 14 21 be 20 a3 c6 3d 93 7b f7 3e
       0.02565847 -0.15730396 0.096990824 0.48336467
0002e0 2f e6 bb 3d f6 16 13 be a3 6e a1 bd a4 f9 1b 3e
       0.091747634 -0.14364228 -0.078824304 0.15231949
0002f0 ad ad 2d be df 5c 4e 3e d3 38 98 3e 5d 69 d3 bd
       -0.16960783 0.20152615 0.29730853 -0.10322831
000300 a9 ee 8b 3e 86 65 a2 be 31 53 63 bd 1d a4 09 3e
       0.2733052 -0.3171808 -0.05549926 0.1344151
000310 30 f0 c6 bd f3 6a 10 be 83 b3 27 3e 70 d9 49 3d
       -0.09713781 -0.14103298 0.16377072 0.04927963
000320 28 68 4d 3e eb a0 f8 bc 7f fc 85 3e e0 3f 37 3e
       0.20059264 -0.03035017 0.26169202 0.1789546
000330 b1 cb 3b 3e 58 c6 09 3e c7 87 dd bd 3d ca cd bd
       0.18339421 0.13454568 -0.10816913 -0.100483395
000340 d8 c3 e6 be 11 f9 83 3e 6c 58 bc 3d 41 2d 2e 3e
       -0.45071292 0.2577596 0.09196553 0.1700945
000350 5c fd bd bc b1 ba 29 3c 31 53 ef bc e4 91 85 3d
       -0.0231921 0.010359452 -0.029214473 0.06521967
000360 c8 4a 41 3d d6 e0 c2 bc 96 39 92 bd c5 0e 43 3e
       0.047190458 -0.02378885 -0.0713989 0.19048603
000370 13 c7 14 be 28 92 53 3e 88 04 b4 bd da 4c 99 bd
       -0.14529066 0.20661223 -0.08789927 -0.074853614
000380 c2 c2 fb bd 02 7c d6 3c 39 30 f8 bd 29 80 97 be
       -0.122930065 0.026182178 -0.12118573 -0.29589966
000390 c2 22 0d 3e 38 09 5d bd d9 42 4c be ed 8d 61 be
       0.1378279 -0.05396387 -0.19947375 -0.22026797
0003a0 53 1e 47 3e 19 ca c9 bd c2 38 93 3e a8 de 65 3c
       0.19445162 -0.09853 0.2875424 0.014030136
0003b0 ca 0f 13 3e a9 11 4d 3d 4f 10 dc bd 07 cd 93 3e
       0.14361492 0.05006567 -0.10745298 0.2886736
0003c0 50 85 6b be d9 5b f1 bd cf 99 2f 3d b0 4a 89 bd
       -0.23000073 -0.11785097 0.042871293 -0.06703699
0003d0 27 8c 73 3a be 18 a3 3e e0 6e b4 3d c3 87 93 3d
       0.00092905987 0.31854814 0.0881021 0.07203629
0003e0 32 8c 96 3b 42 27 47 3e 47 a8 43 3e f6 e1 3f 3e
       0.0045943493 0.1944857 0.19107161 0.18738541
0003f0 eb 60 fc be a2 bc b3 3e 03 21 9a 3e bd 5d 76 be
       -0.49292693 0.35104853 0.3010331 -0.24059196

actor.init_leaf_node_embed.2.add_bias._bias f4 [64, 1]
000000 9c ae 89 be 24 de f7 3d 43 32 06 3c a8 45 66 bb
       -0.2689103 0.12102917 0.008190694 -0.0035136733
000010 dd a3 ac bc e4 75 9a 3e 6a 66 6e 3e 0f 48 37 3e
       -0.02107423 0.30168068 0.23281255 0.17898582
000020 18 c1 c5 3e 75 9c 2a be 13 e4 d0 bc 26 d4 74 3d
       0.3862388 -0.16661246 -0.02549938 0.059772633
000030 35 08 15 bd ae 24 d3 3d bf 1a e3 be 73 ef 13 be
       -0.03638478 0.103097305 -0.44356343 -0.14446811
000040 87 ed 59 bd f9 22 df 3d 4e 7c f4 3c f2 44 19 3e
       -0.05320504 0.108953424 0.02984443 0.14967707
000050 97 e4 89 be 59 57 15 bc 2c 0b 50 3b d5 eb 1c 3e
       -0.26932213 -0.009115064 0.003174494 0.15324338
000060 26 ef 02 be e1 7a fb bb 03 94 1f 3c b4 a7 26 bd
       -0.1278654 -0.0076745604 0.009739879 -0.040687278
000070 bf 70 23 be 0b a3 97 3e 52 93 b6 3d 9a c2 fe 3c
       -0.15960978 0.2961658 0.08914818 0.031098653
000080 c1 4e a0 3d 11 1c 61 be 9d a3 31 be b2 b7 20 3d
       0.07827521 -0.21983363 -0.1734757 0.039237686
000090 70 e3 ef 3d 21 be ad 3e 93 02 c1 3e 73 98 ec 3e
       0.11713302 0.3393412 0.37697276 0.4621006
0000a0 23 26 3b 3e e6 72 82 3e ae 5a f8 bd 96 bc 02 3e
       0.18276267 0.25478286 -0.12126671 0.12767252
0000b0 0d 96 3a bd fa 35 7b be bf 17 ab be 9a 5f 1d be
       -0.045553256 -0.24532309 -0.33416554 -0.153685
0000c0 e3 d2 c3 3e 01 bb 98 bd fa 8f 3b be 04 1e e0 3e
       0.3824683 -0.07457543 -0.18316641 0.437729
0000d0 06 8a 21 bc dc 10 62 3e d8 b3 9b be 25 c1 1f be
       -0.0098595675 0.22076744 -0.30410647 -0.15601023
0000e0 02 9e fc 3d 8b 55 bd 3e 7a c6 38 3e 25 be 26 3e
       0.12334825 0.36979327 0.18044463 0.16283472
0000f0 75 39 20 3e be 47 d0 3e 93 55 99 be 90 84 23 be
       0.15646918 0.40679735 -0.299481 -0.15968537

actor.init_next_embed.0.module.weight f4 [32, 6]
000000 a8 cd 58 be d2 50 2a 3e 21 04 ab bd e5 4d 22 3f
       -0.21172202 0.16632393 -0.08350397 0.6340011
000010 a8 26 79 3e 7d c3 8a bc a7 45 56 3e 9a 49 a6 3e
       0.24331152 -0.01693892 0.20925008 0.3247803
000020 0a bd 08 3c 7e 3d 25 3e 96 10 b8 3d fc cc 70 be
       0.008345852 0.16136739 0.089875385 -0.23515695
000030 c0 1c bf 3d 89 c8 c7 be b2 c4 75 3e 81 14 4d bf
       0.093316555 -0.39020184 0.24000815 -0.8010941
000040 5a 8e e3 3d e2 39 33 3e db e8 26 3f 12 a8 11 3f
       0.11111136 0.1750255 0.6519906 0.5689708
000050 6e af e5 3d d6 63 0d be 9e 6d a9 3e 00 f8 31 3e
       0.11215101 -0.13807616 0.33091444 0.1737976
000060 38 65 a7 be cd 0f 76 bd 60 cc 45 be 5c a3 36 3e
       -0.3269441 -0.060073663 -0.19316244 0.17835754
000070 4e 52 0f 3d c2 eb 31 be c0 6a 34 be 70 ed eb 3d
       0.0349906 -0.1737509 -0.17618847 0.11519897
000080 3d d2 ea 3e 25 71 b2 bc 99 85 ba be 67 80 f2 bd
       0.45863524 -0.021782467 -0.36430052 -0.11840897
000090 80 9a 24 be 25 7a 68 be 1f a7 c0 bc d5 5f fa be
       -0.16074562 -0.22702844 -0.02351719 -0.4890124
0000a0 78 48 90 3c 73 d1 04 3f 67 b3 4a be 5b 3c bb be
       0.01761268 0.51882094 -0.19794999 -0.36569485
0000b0 a5 ce 81 3e d9 10 c5 3d 66 86 f7 bd c4 3e 54 3d
       0.2535297 0.09622354 -0.12086181 0.05181767
0000c0 d6 36 0a be 9e 98 82 be 20 c8 af 3e f3 3b 6d be
       -0.13497481 -0.25507063 0.3433237 -0.231674
0000d0 de df b1 3d 75 b3 ee bb f2 f9 b7 be c8 1e 21 be
       0.086852774 -0.0072845765 -0.3593288 -0.15734398
0000e0 e1 8f 14 be c1 df e7 3e 8c 5e 2e be a5 b0 7b bd
       -0.1450801 0.45287898 -0.17028254 -0.06144776
0000f0 84 36 90 3e bc dc 42 bd 1f e4 18 be 49 df fe 3c
       0.28166592 -0.04757379 -0.14930771 0.03111233
000100 ff c7 85 be aa 91 cc bd 8a d7 82 be 03 53 42 be
       -0.26129147 -0.09988721 -0.25555068 -0.18976979
000110 5b 24 95 be 7c 6b 3c be e2 ca 33 bd 3e 07 8b bc
       -0.291293 -0.18400377 -0.043894656 -0.016971227
000120 ea 13 99 3e 41 a7 28 bf d1 ae 32 bd dc 0e d7 bd
       0.29898006 -0.6588021 -0.04362375 -0.10500881
000130 9c cb df bd b9 37 65 be 15 af 27 3e 31 1c 85 be
       -0.10927507 -0.22384538 0.16375382 -0.2599807
000140 93 7a 9e 3e 7d 61 0f 3f df f3 a3 3d 6f ec 9d bd
       0.30952892 0.5600813 0.08005499 -0.07711112
000150 e2 fc 07 be 8c fc 59 3d 48 ba d8 bd 8b 63 9c be
       -0.13280061 0.053219363 -0.10582405 -0.30544695
000160 dc 02 94 3d b7 45 14 3e b1 1a 16 3c c0 c9 8c 3d
       0.07227108 0.14479719 0.009161637 0.06874418
000170 b5 a4 6e 3e 0a 25 a0 be c3 53 0e bd c5 52 81 be
       0.23305018 -0.3127826 -0.03474785 -0.2525846
000180 fb 5d c3 bd 99 f8 13 be 79 e2 02 be 68 41 4b bf
       -0.0953941 -0.14450301 -0.12781705 -0.79396677
000190 0f 2a b5 3e df 83 9b 3e 28 31 83 be be 9e e8 3e
       0.3538365 0.30374047 -0.2562344 0.4543361
0001a0 dd e7 fe 3e b8 bf e7 3d 38 37 39 3e 62 b7 0e 3f
       0.49786273 0.11315864 0.1808747 0.5574857
0001b0 3b 18 3c be 7c 35 6e bc 26 dd b1 be 12 ef 9c bd
       -0.18368618 -0.014539119 -0.34739035 -0.076627865
0001c0 d4 d4 11 be 23 b4 e6 be bf 99 a5 3d 30 7c 65 be
       -0.14241344 -0.45059308 0.08085965 -0.22410655
0001d0 c0 d7 46 3e 1d 40 9c 3e 05 7b f2 bd 31 9c 18 be
       0.1941824 0.30517665 -0.1183987 -0.14903332
0001e0 3e a8 4d 3d c4 c6 ba 3e e6 33 24 3e 04 09 98 bf
       0.050209276 0.3647977 0.16035423 -1.1877751
0001f0 17 bf 56 be 66 4a bf 3e d9 ee f5 3e 76 8e 35 be
       -0.20971332 0.3736145 0.4803379 -0.17730126
000200 f6 14 aa 3d 9e 46 ae 3e ec ad c9 3e f2 d3 28 3f
       0.08304779 0.34038252 0.39390504 0.659484
000210 65 bc 67 be a6 90 e2 3c ad ac ba bd 14 ab ee 3c
       -0.2263046 0.027656864 -0.091149665 0.02913431
000220 67 b8 cb be 42 a4 8d bc 47 b1 b8 bd 4a 39 42 be
       -0.39789125 -0.017290238 -0.09018188 -0.18967167
000230 52 32 06 be 15 8e e9 bd 53 60 9e bd e2 f0 04 bd
       -0.13105133 -0.11404053 -0.07733216 -0.032456286
000240 57 e4 67 be 09 fb 95 bd d3 cd ac 3e 30 fa ab be
       -0.22645698 -0.07323272 0.3375078 -0.33589315
000250 a7 19 09 3f 65 1c b7 be e9 f3 09 be ab 12 54 bd
       0.5355477 -0.3576385 -0.1347195 -0.051775616
000260 6e 6b 11 3d 6e 84 f7 bd 08 8d f8 be a1 58 be 3e
       0.035502844 -0.12085806 -0.48545098 0.37176993
000270 dc 13 c7 be 7e 9e 2e be 98 f9 da 3e 1f b4 df 3e
       -0.3888234 -0.17052647 0.4276855 0.4369211
000280 00 8e 78 3b a6 04 99 be 03 d8 9d 3e f6 a5 c8 bd
       0.0037926435 -0.2988636 0.30828866 -0.097972795
000290 72 4c 0d 3e cf 4a a2 be b8 58 9f 3d 8c 20 19 be
       0.13798693 -0.316977 0.07780594 -0.14953822
0002a0 c3 2b e7 bd fe fa d7 3d a5 f1 04 bf 66 b5 33 be
       -0.11287644 0.1054592 -0.5193122 -0.17549667
0002b0 62 b0 18 3d 85 78 83 3d 91 2d 38 3e 76 7b 2e bd
       0.037277587 0.06419472 0.17986132 -0.04259821
0002c0 81 01 a9 3e 44 6a 63 be a0 27 1e be dc 82 b0 bd
       0.3300896 -0.22208506 -0.15444803 -0.086187094
0002d0 ce bc 78 bd 2a 72 b7 bc 7b a9 81 ba 69 59 0c be
       -0.060726933 -0.022393305 -0.0009892428 -0.13705982
0002e0 5a 7c 2a bf 7a 88 1f 3f 8d 2a 89 3d be 4c e1 bd
       -0.66595995 0.6231762 0.06697569 -0.110009655
0002f0 4d c5 1f be 3a f3 bf bd 07 c1 90 3c ae 1d 24 be
       -0.15602608 -0.09372564 0.017670168 -0.16026947

actor.init_next_embed.0.add_bias._bias f4 [32, 1]
000000 10 46 22 3f 4d 54 d7 bd 04 02 d4 bd 8d 38 c1 3e
       0.63388157 -0.10514126 -0.10351947 0.37738457
000010 bc 51 51 bc 06 77 0f bd 7f ee 8d 3e 09 01 f2 bc
       -0.012775835 -0.03502562 0.2772102 -0.02954151
000020 25 94 27 bd 65 94 73 bd e2 c6 29 be d1 c7 31 3e
       -0.040912766 -0.059467692 -0.16579774 0.1736138
000030 7a a4 5d bc 6c 23 a1 3e 42 da a8 bd 34 4b 0f bd
       -0.013527984 0.31472337 -0.082447544 -0.03498383
000040 97 c2 e5 bc 89 19 b0 3e ad ed 96 bc dd 6b 0c be
       -0.02804689 0.34394482 -0.01842388 -0.13713022
000050 d3 c5 11 3f 06 ad 04 3e 2a 65 ac 3c 2d b2 1a bd
       0.5694248 0.12956628 0.021044333 -0.037767578
000060 6c 99 a9 bc 74 ac 8d bd 03 67 43 bd a7 53 f9 bb
       -0.02070304 -0.069176584 -0.04770566 -0.007608849
000070 5b 97 e6 bc b7 53 12 bc 4f 42 a9 bb 55 89 0e 3b
       -0.028148344 -0.008931092 -0.0051653753 0.0021749337

actor.init_next_embed.2.module.weight f4 [64, 32]
000000 c6 27 86 be 26 d5 e1 3d 46 1e c0 3d a7 00 7c 3e
       -0.2620222 0.11026983 0.09380774 0.24609624
000010 9a e0 33 3e 93 97 ea bd 64 7f 09 3c ba 2a 8f 3e
       0.17566147 -0.11454692 0.008392189 0.27962285
000020 76 b7 f8 3d e1 1d 29 3d 81 92 0c 3e 8f 1b 2d be
       0.121443674 0.04128826 0.13727762 -0.16905044
000030 fc 50 0f 3b d2 1d e3 3d 1f c9 4d 3e 2d 40 98 bc
       0.0021868339 0.11089672 0.20096253 -0.018585289
000040 97 06 ae 3e 15 86 98 3e fa 60 a2 bc bc ab 2a 3e
       0.33989403 0.29789796 -0.019821633 0.16667074
000050 9f c4 41 3d b8 70 d1 bd dd f9 80 3e ac 93 07 3f
       0.047306653 -0.102265775 0.2519063 0.52959704
000060 fa 15 93 3d e3 18 a8 3c 5c 34 40 bb 6e c0 19 be
       0.07181926 0.02051968 -0.0029328084 -0.15014812
000070 c9 4e 96 bd 48 f0 e1 bd 75 db 68 3d b9 a8 d6 bd
       -0.07339246 -0.11032158 0.056849916 -0.104814
000080 d7 46 9a 3e d3 16 b1 bc 8f 43 11 be e9 12 98 bb
       0.30132172 -0.021617329 -0.14185928 -0.004640926
000090 1a d5 4b 3e 4c aa 2e 3e 48 eb bd be 79 fb e7 3d
       0.1990551 0.1705715 -0.37093568 0.113272615
0000a0 17 00 16 bd 4f 3f a6 3d 67 21 0c be c7 61 90 be
       -0.03662118 0.08117544 -0.13684617 -0.28199598
0000b0 80 bb 8b be 58 b6 58 3d f8 b0 da 3e a8 c1 94 3e
       -0.2729149 0.05290827 0.4271314 0.29053998
0000c0 e0 44 98 be 06 e6 e7 3c c4 93 1e 3e 50 d4 80 be
       -0.29740047 0.028307926 0.15486056 -0.25161982
0000d0 be 2e d1 be 41 35 54 be 41 45 69 be 32 bd 81 bd
       -0.40855974 -0.2072344 -0.22780325 -0.06334914
0000e0 99 a0 58 bd bf 27 f7 3d 57 0a a9 3d d8 66 20 be
       -0.052887533 0.12068128 0.08253925 -0.15664232
0000f0 a0 9b 98 3d 91 f0 77 3d 9b 30 b7 bd 19 69 04 be
       0.07451558 0.060532156 -0.08944818 -0.12930717
000100 03 48 13 3e ca 27 c7 3e 53 f0 a7 3d 18 3d 45 3e
       0.14382939 0.38897544 0.08200135 0.19261587
000110 2e b5 81 3d 33 15 fa 3d ce c2 8f 3e e5 03 70 be
       0.063333854 0.12211075 0.28078312 -0.23438986
000120 3a 05 0f 3e 1b 90 f9 bd aa b9 7b bd f9 17 ac be
       0.13966838 -0.12185689 -0.06145636 -0.3361204
000130 76 e3 01 bd 33 b3 ba be b9 e3 ff bd 7a 3e 08 3c
       -0.031711064 -0.36464843 -0.124946065 0.008315677
000140 83 ba 7e 3d 43 12 5d bd 76 4d 2a 3d b5 32 a6 be
       0.06218959 -0.053972494 0.04157778 -0.3246056
000150 be 97 7b be 00 f7 b6 3e 68 cb 29 3e 2b 78 e0 bd
       -0.24569604 0.3573532 0.165815 -0.1096042
000160 b6 43 24 3e cc 0f a7 be 6d f5 1c 3d 3c 57 21 3e
       0.16041455 -0.3262924 0.038319994 0.15755934
000170 f1 79 84 3e 15 e7 c0 bd de c5 ab be 27 eb 37 3e
       0.25874284 -0.094190754 -0.33549398 0.17960797
000180 ae 94 10 3f 36 5a 7d 3e 77 8d 1b be c1 79 a7 3e
       0.5647687 0.24741444 -0.15190683 0.32710078
000190 f9 7b 3b 3e e9 ad 7a bc 74 f8 c2 3d 31 18 ff bc
       0.1830901 -0.0153002525 0.09520045 -0.031139465
0001a0 90 0f 32 3c d5 cf c6 3e df 50 18 3e 8f 78 a5 3e
       0.010867968 0.38830438 0.148746 0.3231854
0001b0 50 85 96 3d 73 05 a9 3e 2f eb 39 be f2 5c a8 3d
       0.07349646 0.3301197 -0.18156122 0.08220853
0001c0 fc 0a 37 3e 32 c3 a0 3e 74 0f da bd a0 ef 35 3e
       0.17875284 0.31398922 -0.10647479 0.17767191
0001d0 ec e6 8d 3e e5 ba 1a 3e ae 30 fe bd 67 e8 8d be
       0.27715242 0.15110357 -0.12411629 -0.2771637
0001e0 db 39 59 bd 4f 6a 8e bc 7d db 87 be 85 5f 1c 3e
       -0.05303369 -0.017384676 -0.26534644 0.15270813
0001f0 e6 a9 ca 3d 7c 6b 37 3d ae 8a 51 3e 80 d1 06 3d
       0.09895687 0.04478024 0.20463058 0.03291464
000200 f6 a2 00 3f 9e 7c b1 bc 70 5c cd ba f9 c5 c5 3e
       0.5024866 -0.021665867 -0.0015667807 0.38627604
000210 e3 21 5d 3e 6a 81 2b 3e bb 62 72 3d 37 21 28 3e
       0.21594958 0.16748586 0.059176188 0.1641892
000220 ac f4 34 3e 54 09 ba bd c6 43 ad bc 30 8d c2 3c
       0.1767146 -0.090838104 -0.021150481 0.023748964
000230 55 3e 0c be 61 b7 54 3c 08 78 38 be 28 e8 a7 be
       -0.13695653 0.012983174 -0.18014538 -0.3279431
000240 97 1a d1 3d 3c ae d0 3d 3f 0e 2d 3d ef c8 96 be
       0.1021015 0.101894826 0.042249914 -0.29450175
000250 b1 e2 01 3f e8 45 5b 3e dc 68 85 bc 1f fa 80 bc
       0.5073653 0.21413386 -0.016285352 -0.015744267
000260 df 11 2b 3e 92 0b 39 3e 61 43 23 3e a3 66 c6 bd
       0.16706036 0.1807082 0.15943672 -0.09687545
000270 1f 86 6b 3d ac ce 18 3d 61 5e 1d 3e 29 06 f1 bd
       0.057500955 0.037306473 0.15368034 -0.11768753
000280 d9 ed 29 bf 5e 31 01 bf 75 c4 74 bd 89 d6 0b bf
       -0.6637855 -0.50465953 -0.05975767 -0.5462423
000290 44 d9 8d 3c fa 93 1b 3e 08 f4 6e be 49 d3 1a 3e
       0.017315514 0.15193167 -0.23335278 0.15119661
0002a0 3d 8a ba 3d 94 1c 09 3e 35 62 52 be 29 2c 82 be
       0.09108398 0.13389808 -0.20545276 -0.25424317
0002b0 4a 27 dd bc 83 84 df bd 64 93 62 bd b3 49 04 3e
       -0.026996274 -0.109139465 -0.055316344 0.12918739
0002c0 a3 78 1d ba f3 28 c4 bd 83 8c 2d 3e 72 b3 2c bc
       -0.0006007051 -0.09578123 0.16948132 -0.01054083
0002d0 2a 94 f1 be a8 aa 23 be b3 1a 91 3d ea 7e 80 bd
       -0.47183353 -0.15983069 0.070851706 -0.06274207
0002e0 9c c7 68 be 76 fd 60 be 37 38 0b be 0d 0d 36 be
       -0.22732395 -0.21971688 -0.13595663 -0.17778416
0002f0 fb 5a fe 3d 7a 63 58 be 27 42 8b 3c e4 e9 2b be
       0.12419697 -0.21131697 0.016999317 -0.16788441
000300 60 a4 14 3e 6f 35 29 be a3 3a 86 bd 1c 3b b1 3d
       0.14515829 -0.1652429 -0.06554153 0.08653852
000310 65 9f e7 bc 91 63 9c 3d 78 7b 85 bd b5 92 49 bc
       -0.028274247 0.07636178 -0.065176904 -0.012303044
000320 44 98 ed 3e a4 8c 65 3d 80 1e 2c bd 6c e1 02 be
       0.46405232 0.05604233 -0.042021275 -0.12781304
000330 88 36 51 be e1 6a 97 bb b9 50 b0 be 87 60 8c be
       -0.20430958 -0.0046208953 -0.34436586 -0.27417395
000340 be 20 eb be 00 c3 29 bd 10 e4 b0 be 19 12 10 be
       -0.45923418 -0.041445732 -0.34548998 -0.14069404
000350 fe 36 fd bd 74 da 22 bd 7e dd 89 3d 54 eb 9e bd
       -0.123640046 -0.039759114 0.067316994 -0.07759729
000360 4c 25 55 bd 6b da 38 be a1 f4 04 3d ad bd fc 3c
       -0.052037522 -0.1805207 0.03245986 0.030852163
000370 52 57 95 bd 53 99 4e 3e e6 9a 9d bd f1 35 18 3e
       -0.07292046 0.20175676 -0.0769556 0.14864327
000380 9f b9 26 3f ec e7 17 3e 13 af de 3c ad 8f 85 3e
       0.65126985 0.14834565 0.027183091 0.26086178
000390 97 15 df 3d dd 9f 73 be 38 a8 83 3d 38 50 15 3e
       0.1089279 -0.23791452 0.064285696 0.14581382
0003a0 46 d1 46 bd 54 7f d8 3d d2 a5 37 3d 56 22 e5 3e
       -0.048539422 0.10571161 0.044835873 0.4475276
0003b0 a2 ec ad 3e 9a fb 08 be f4 06 91 3e 2a d3 20 be
       0.339696 -0.13377228 0.28325617 -0.15705553
0003c0 da e5 b2 3d 41 f1 31 3e 20 37 66 3d 8a 26 98 bd
       0.08735247 0.17377187 0.056204915 -0.07429226
0003d0 e3 5c 29 be cf d1 13 3f 5d 17 2d 3e b1 d6 8c 3d
       -0.1653934 0.5774202 0.16903444 0.06876887
0003e0 b1 16 63 3e d0 bf 4c 3d 3e 83 89 be 25 fd e7 bd
       0.22176625 0.049987614 -0.26857942 -0.1132758
0003f0 7b ea 34 be 1f fa 2d be 50 0c c7 3e 53 84 49 3d
       -0.17667572 -0.16989945 0.3887658 0.04919846

actor.init_next_embed.2.add_bias._bias f4 [64, 1]
000000 e5 43 c3 bd 7b a3 40 be 8a 3e 5d 3d e9 77 3f 3f
       -0.09534434 -0.18812363 0.05401472 0.74792343
000010 9e 58 08 3f c2 f3 5b bf ed 24 5d 3c 44 b2 03 3f
       0.5326022 -0.8591882 0.013497573 0.51443887
000020 9b be b5 be d6 fb 37 be b4 85 c2 3d 9f eb 99 3e
       -0.35496983 -0.17967162 0.09498158 0.30062577
000030 3e 22 33 3e ef a3 b9 be 78 51 13 3f 5c 6b af be
       0.17493531 -0.36257884 0.57546186 -0.34261596
000040 a9 a1 9f 3d 8f dd ac 3e 07 cc 80 3e 59 16 25 3e
       0.07794506 0.33762786 0.2515566 0.16121806
000050 fd 13 9f be 79 00 23 bc 5a 0a 1f be da 7c f3 be
       -0.31069937 -0.009948843 -0.15531293 -0.47556192
000060 e2 7f 03 be 63 9d 42 be 08 08 36 bf 80 2c 8d bd
       -0.12841752 -0.19005351 -0.71106005 -0.06893253
000070 d0 9a 57 3f 0d 9c 95 bd 95 93 84 be ed 13 cc 3e
       0.842206 -0.07305155 -0.25893846 0.39858952
000080 17 ae 20 be 54 75 1f 3e 22 ca 81 bd e3 23 5a be
       -0.1569141 0.15572101 -0.06337382 -0.21302752
000090 d8 30 b0 be fa fe 2a bf 58 96 14 bf c0 bc 11 bf
       -0.34412265 -0.66795313 -0.58041906 -0.56928635
0000a0 08 9c 75 bd 79 32 e4 bd a4 58 fe bd 73 8e b6 be
       -0.059963256 -0.111424394 -0.124192506 -0.35655555
0000b0 fc 28 95 be 43 6d 34 3f b4 9f 03 3e 60 68 55 bd
       -0.2913283 0.7047922 0.1285389 -0.052101493
0000c0 3f d9 0f 3f 32 96 38 3e a2 b1 87 bf c1 32 03 bf
       0.56190866 0.18026045 -1.0601084 -0.5124932
0000d0 c1 63 27 3e f7 4b f3 be 16 0f 52 3f 2b 0e 60 be
       0.16346647 -0.47518894 0.8205427 -0.21880405
0000e0 a9 2f 86 bd 64 a9 22 bf 22 4d 00 3a c8 39 da 3e
       -0.06552059 -0.6353972 0.0004894306 0.4262221
0000f0 e6 6e f1 3d 40 77 84 3e c6 43 d8 bd 92 a9 3a 3d
       0.1178873 0.2587223 -0.10559802 0.04557187
