logs/experiment/Discrete_acktr_10x10x10Bin_s42_inh_800_defaultBox-2022.08.19-23-47-51/PCT-Discrete_acktr_10x10x10Bin_s42_inh_800_defaultBox-2022.08.19-23-47-51_2022.08.20-04-01-23.pt (torch, 236314 bytes, 24 tensors)

actor.init_internal_node_embed.0.module.weight f4 [32, 6]
00000000: ce8a 2bbd e4e3 853e 5bc7 bfbc a762 97be
00000010: 6457 023e b565 efbd 7d75 cd3e 7e54 bb3e
00000020: 3447 8fbe ecf5 97be 0033 82be c84f e3bd
00000030: 5195 083e 61d6 823d 8ceb 25be c81e 563e
00000040: c368 9bbe 0601 f0bd 2f06 fbbd 95b5 3b3d
00000050: ef6f e4be 8568 a13e 2c83 443e 061a 033f
00000060: 8636 0b3f a68a 313d effb 013f 6b67 be3e
00000070: c69a e53d 8726 973c 3382 9e3d 2f58 d63c
00000080: 43c6 6ebe 8f14 013e 2e5e fdbe a8c4 d9be
00000090: cc19 58bf ef79 413f 7460 cd3e bb6e 5b3f
000000a0: bf60 57bf 9563 e4bd e864 933e 8719 83be
000000b0: 089f 793f 708b 3bbe 05a0 4fbe 003a aebe
000000c0: 60ab 2ebf b780 b5be 1201 ebbe f802 f03e
000000d0: a554 023f d1fa 883d eec7 3d3f 6547 e33d
000000e0: 4138 04bf dbd3 063f 3b89 7a3e b567 b9bc
000000f0: 3985 bc3c a535 cd3e e050 94be 4bd8 013d
00000100: 189d 273e e858 c1be 9f99 66be be8d 2f3e
00000110: 9db6 97bd 7c79 86be 3024 b0bd 38f0 86be
00000120: 68c2 923e c2fa dfbe 5e4a 7abc 221e 9f3e
00000130: d054 d0bc a849 1fbe 3b20 323f d16f d63e
00000140: 6f86 5bbe 8d51 e8be 7215 4a3e ee02 bebc
00000150: e3fd 5bbe 0838 89bd 7aa3 c0be d585 183e
00000160: 4cba cf3e 4e0f efbe d41e e9bd 28dd ccbe
00000170: 41b9 edbd fa43 183e 0a73 ba3e 56e4 e9be
00000180: af07 a03e 55a2 4bbe e4b5 753f 9a72 32bf
00000190: 1947 ad3e f300 4fbe ec85 5bbd c6cf 693e
000001a0: 6bd9 8dbc 5137 293e 97fb 0abf 92da 96be
000001b0: 4198 b9bc 8d47 10bd 789a 31bf e7cd 39bc
000001c0: b47c 9a3b dda1 3f3e bba6 b73e 01db dabe
000001d0: 4f51 b63c 4513 e2be 489a 3f3e 7cb7 b73e
000001e0: c26e b13e 99f1 4c3f a27d c93d 6729 f63e
000001f0: 1ead 073e 1fbf 30bf 6ac0 4fbe 65bc 9cbd
00000200: b547 33be 69c7 873d adfc b2bd d56c d4be
00000210: 56bd 14bf 3a8a 06bf 4f64 70be 3c2c 113f
00000220: 9756 833e d685 203e 9f51 dd3c 1cb9 833d
00000230: 3cf3 7ebf 468a 1dbe d2a4 abbe a10e 343f
00000240: 4418 49be 8d12 47be 123d 243f 8eb8 003e
00000250: 223f 863c 32b1 923d d80d cf3d e5c1 003e
00000260: 02a8 b73e 97db b8be 6588 c2be 3734 093f
00000270: 9031 efbd 9e27 b73e 6c05 21bc 3fc4 463e
00000280: 9327 4c3e 057f d4be cd63 a0bd f38b 283e
00000290: 08bc 313f 16c6 b7be 408f ea3d 450a 293e
000002a0: 522f 7ebe 366e 18bf a944 f03c 45f9 e83d
000002b0: 51af 403d 488b 0ebe 7289 b3be 87da b63d
000002c0: b232 653e e35c 24be e501 393e f710 82bd
000002d0: 35b3 1f3e 64f3 273e f550 b1bc 6d64 923c
000002e0: 4a0f f5bd f14e 9cbe f05c ec3e 8496 6f3e
000002f0: 4ec8 22bf 6c95 abbe 5374 42be 35ad 8d3e
-0.04188042 0.2615043 -0.02341049 -0.29567453 0.1272865 -0.11689321 0.401287 0.365879
-0.2798401 -0.2967981 -0.25429535 -0.110992014 0.1333821 0.06388546 -0.16203135 0.2091018
-0.30353364 -0.11718945 -0.12257039 0.045827467 -0.4461665 0.31525055 0.19190663 0.51211584
0.5438007 0.043345116 0.50775045 0.37188277 0.11211161 0.018450988 0.07739677 0.026165096
-0.23317818 0.12605499 -0.49485916 -0.4253285 -0.8441436 0.7557668 0.4011265 0.85715836
-0.84132 -0.11151806 0.28787923 -0.25605413 0.9750829 -0.1831491 -0.20275886 -0.34028625
-0.6823025 -0.35449764 -0.45899254 0.46877265 0.5091041 0.066884644 0.74133193 0.11097602
-0.51648337 0.52667016 0.24466412 -0.02263246 0.023012744 0.4007999 -0.28967953 0.031700414
0.1636852 -0.37763143 -0.2251954 0.17143914 -0.074078776 -0.2626456 -0.08600652 -0.26355147
0.28663945 -0.43746 -0.01527652 0.31077677 -0.025431067 -0.15555441 0.6958043 0.41882184
-0.21438001 -0.45374718 0.19734743 -0.023194756 -0.21483569 -0.0670014 -0.37624723 0.14894803
0.4057182 -0.46691364 -0.11382833 -0.4001248 -0.116076 0.14869681 0.36415893 -0.4568202
0.31255862 -0.19886144 0.9598067 -0.6970612 0.33843306 -0.20215206 -0.053594515 0.22833166
-0.017315587 0.16525008 -0.54290146 -0.2946363 -0.022655608 -0.035224486 -0.69376326 -0.011340595
0.004714573 0.1871409 0.35869393 -0.42745212 0.022255568 -0.44155326 0.18711197 0.35882175
0.34654814 0.8005615 0.09838416 0.48078462 0.13249633 -0.6904163 -0.20288244 -0.07653121
-0.17507823 0.06629831 -0.087396 -0.41489282 -0.58101404 -0.52554667 -0.23475765 0.5670812
0.25652 0.15676054 0.027016459 0.06431791 -0.99589896 -0.15384778 -0.33524185 0.7033482
-0.19638163 -0.1944067 0.64155686 0.12570402 0.016387526 0.071627036 0.10110062 0.12573965
0.35870367 -0.36105034 -0.37994686 0.535953 -0.11679375 0.35772413 -0.009827953 0.194108
0.19936971 -0.41503158 -0.078315355 0.16459636 0.6942754 -0.35893315 0.11453104 0.16507824
-0.24822739 -0.5954317 0.029329615 0.113756694 0.047042195 -0.13920319 -0.350658 0.089283995
0.2238262 -0.16051058 0.18067129 -0.06350892 0.15595706 0.1640144 -0.021645049 0.017870152
-0.11965807 -0.30528978 0.46164656 0.23397261 -0.6358689 -0.33512437 -0.18989687 0.2767121

actor.init_internal_node_embed.0.add_bias._bias f4 [32, 1]
00000000: 4826 54bb 94cb 703b fdfb fcbb 3054 333d
00000010: 6491 c13d 97d0 373b 5040 92bc 163f 14bb
00000020: 69c9 323c 00b9 e13d 165b 193d 2b19 933c
00000030: 0e00 9f3c b6d3 6c3c d26d 2bbc 4e5a 50bc
00000040: 2582 0b3b c909 603b 2e81 a5bb 0a28 933c
00000050: 92dc c03c 8001 f0bc ca52 463c 8e0f 223c
00000060: f7fa 6a3d b408 953b 1289 40bb a099 99bb
00000070: 957a 93bb 052a dbbb bec4 7abc 182a 7bbb
-0.003237145 0.0036742436 -0.007720469 0.04378146 0.09451559 0.0028047913 -0.017852932 -0.002262061
0.010912278 0.11021614 0.037440382 0.017956337 0.019409206 0.014454773 -0.010463195 -0.012716843
0.002128729 0.003418552 -0.0050508 0.017963428 0.023542676 -0.02929759 0.012104699 0.009891404
0.057368245 0.0045481566 -0.0029378575 -0.004687503 -0.004500697 -0.0066883587 -0.015305696 -0.003832465

actor.init_internal_node_embed.2.module.weight f4 [64, 32]
00000000: 2ee1 7fbe 22ba 0c3e 9665 48bd 13ef a53e
00000010: cdf1 903f c354 3c3d fa9c 2c3e 534b db3d
00000020: a88d b7be 69ce 83be 0739 11bf 87ab 033e
00000030: 10ac 79be 9ac1 3abe cf41 833d b257 44be
00000040: fdd6 873e a489 20bd c851 99bd 5295 283e
00000050: b08e b4bd 1adc 13be dbac 80be af0a 04bf
00000060: d285 93bd 58c6 ad3e 88a0 aebd 1958 2f3f
00000070: 3e98 93bd 2c39 4cbe 1217 7bbe 21c2 bdbd
00000080: 400b 74bd 9ff2 e3be c103 62be d247 36bd
00000090: eb99 00be b1f1 563e e900 43bd 237d ff3e
000000a0: 704c 99bc 0c2f 25be b54c 423e cf5c 83be
000000b0: 9e69 4bbe e463 97bd 9d49 c93d 4519 8b3e
000000c0: 7bb8 f1bd 171c c1bd 5902 bdbd a393 5dbe
000000d0: 3c97 643e 4e06 eb3c 0c91 003f 55b0 1abe
000000e0: 7686 3f3e 5b4d 05be e707 4dbd 0b4a 2b3e
000000f0: 9917 8abe c64c 273e f4d3 163f 02c1 7cbc
00000100: 56b0 cb3e 87fb 0ebe 004a 6fbd 374d 143f
00000110: b307 263e bd1b 823e 8d7b b0be 3bfd 57be
00000120: e6b4 083f e1b8 f83d 492f b8be 0064 80be
00000130: 44c6 e93e 5cbe a3be 1939 49bd db18 31bd
00000140: 71ff 8c3e 8baa de3d eaa9 25be afa8 d93c
00000150: 2ff6 cebe b4d3 dc3c 309b 053f 9089 61be
00000160: 1421 09be da22 98bd e57a 08bf 490e 903e
00000170: 0fbf 51bd a368 be3c 96de 783e 223b a3bd
00000180: cb51 6f3c 0e9c d43e b5b3 d1bd 5eb1 c23e
00000190: 5bbb 493e e657 1bbe 0e90 6dbe 65cf 083e
000001a0: 263d b03e 4a84 0bbd 1565 523e 197d 9c3e
000001b0: 7fe9 a7be 6850 493c 353b bd3d f17e bcbd
000001c0: 6fbb a6bc ec9f 5abe 820a 693d aaa1 49bd
000001d0: fa91 e03d 9aee ef3c b519 d53e 6f93 343d
000001e0: aabf 98be a615 273e 35d5 b73e d350 173e
000001f0: 6d44 133e 0d08 9e3e 10dc 6d3e 5e02 3b3d
00000200: 0b2b 7fbe dfde 083d 4da2 533e 07a8 66be
00000210: 8408 cbbe 1e59 6e3c 1a1d 3abe 004d 653d
00000220: 9259 dabb 646a ed3e 51fe 033f cc8c 4bbd
00000230: 1152 e83c f33b b23d 852a 89bc 478d 33bd
00000240: 8566 df3d c69e ec3d 35c9 05be 0419 7ebe
00000250: 4195 8e3e 98bc 7a3d 4213 e93d 246c 88be
00000260: 0068 08bd e8eb 2c3e 13d7 e83e d4d0 8cbe
00000270: 6df8 993e 0c8c 8f3d da7f 1ebe 59b7 45be
00000280: 8d0b f83c acea 5f3d a7d3 4cbe f5b0 a03e
00000290: 5f56 353d af75 c6bc d30e e13d dcd6 b1be
000002a0: 5909 b73e 7a74 823e c8e9 2b3f 0ced a73c
000002b0: b22f c73e 496b a3bd 74c3 9d3e adad 17bd
000002c0: b0d9 0bbd 0be6 3cbd 002a 813e 7498 22be
000002d0: 2e26 8e3e 29fa babd 3327 0f3e a5b4 24bd
000002e0: 08f0 dcbc 1b21 8bbd 3e6f 95bc 265d b2be
000002f0: ca35 a3bc 7d88 383e 940c b13d 3326 b93d
00000300: 8de7 21be 134a bdbe 542f 15be b328 d23d
00000310: 48ec b0bd f661 373d a56f 23bd 4991 85be
00000320: 6cc9 193d a8c5 323f 3c93 42be e3a4 7e3e
00000330: e0e3 943e 706f 213e 1303 2bbe 0b60 fdbc
00000340: af3d 2ebd f1cb 80be b045 5c3e 1f29 a03e
00000350: f1ad e9bd 960a cc3d 6876 c1be f925 013f
00000360: 3311 26bf 9b7a 70be f704 3f3e 63e1 e3bc
00000370: ade0 e73c 7ee6 053f 4b1c e7be d5bf 82be
00000380: f186 d43e 47d2 c93e 0d1c 8f3e 5373 b0bc
00000390: b016 be3c e180 ab3d a290 f83e cb35 7d3e
000003a0: 2de1 12bf 64e3 3bbf d337 9bbe ca32 04be
000003b0: 81be d63e 4361 a1be 4d3d febd 6978 703d
000003c0: a931 703d 6689 7abb f7bd a53d 2694 a03d
000003d0: fb64 56bf b89d 46bd 8579 ca3e 4488 c23e
000003e0: bc2b 233f be2b c93d adbb ccbe 760a 2e3e
000003f0: b2e0 943d e2d9 113e 20d6 a2be fdce 3cbe
-0.24988243 0.13742879 -0.048925005 0.32408962 1.1323792 0.045979273 0.16856757 0.10707726
-0.35850263 -0.25743416 -0.5672764 0.12858401 -0.24382043 -0.18237916 0.06409036 -0.19174078
0.2653121 -0.039193764 -0.07486302 0.16463211 -0.08816278 -0.14439431 -0.25131878 -0.515788
-0.072032586 0.33940387 -0.08526713 0.684938 -0.07206772 -0.19943684 -0.2452052 -0.09265543
-0.05958104 -0.44521043 -0.22071745 -0.044502087 -0.12558715 0.20990635 -0.04760829 0.4990016
-0.018713206 -0.16131228 0.18974574 -0.25656745 -0.19864509 -0.073920995 0.09828494 0.27167717
-0.11802765 -0.09429186 -0.092289634 -0.2163835 0.22323316 0.02868953 0.50221324 -0.15106328
0.18703637 -0.1301779 -0.050056364 0.16727464 -0.2697113 0.1633788 0.58917165 -0.015426876
0.3978297 -0.13963138 -0.05842018 0.5793032 0.16213875 0.25411788 -0.34469262 -0.21092694
0.5340103 0.12144638 -0.35973576 -0.25076294 0.45659077 -0.3198117 -0.04912672 -0.043236595
0.27538636 0.10872372 -0.16178098 0.026569692 -0.40422198 0.026956417 0.5218992 -0.22025132
-0.13391525 -0.074285224 -0.5331252 0.281359 -0.0512076 0.023243254 0.2430366 -0.07970263
0.014606903 0.4152531 -0.102393545 0.38025945 0.19700377 -0.1517025 -0.23199484 0.13360365
0.34421653 -0.034061708 0.20546372 0.30564192 -0.3279533 0.012287237 0.092398085 -0.092039
-0.020353047 -0.21350068 0.056894787 -0.04922644 0.10965343 0.029288579 0.41621175 0.044085916
-0.29833728 0.16316852 0.35904852 0.14776926 0.14381571 0.30865517 0.23228478 0.045656554
-0.24918763 0.03341567 0.20667382 -0.22525035 -0.39654934 0.014547614 -0.18175164 0.055981636
-0.0066635096 0.46370232 0.5155993 -0.04969482 0.028359445 0.08702841 -0.016743908 -0.043835904
0.10908226 0.11553721 -0.13065036 -0.2481423 0.27848247 0.061215013 0.11380626 -0.26645005
-0.033302307 0.16886866 0.4547659 -0.27503073 0.30072346 0.07009134 -0.15478459 -0.19308223
0.030278945 0.05466716 -0.20002614 0.31385008 0.044271823 -0.024226038 0.109891556 -0.34734237
0.3574932 0.2547949 0.67153597 0.020498775 0.38903576 -0.079794474 0.3081318 -0.037030865
-0.03414315 -0.046117824 0.25227356 -0.15878469 0.27763504 -0.091297455 0.13979797 -0.04021134
-0.026969925 -0.06793424 -0.018241521 -0.34836692 -0.01992311 0.18020816 0.08644977 0.09040489
-0.15810986 -0.36970577 -0.14568835 0.10261669 -0.08638817 0.044771157 -0.039901394 -0.26087406
0.037545606 0.6983285 -0.19001478 0.24867587 0.29080105 0.15765166 -0.16700391 -0.030929586
-0.042539295 -0.25155595 0.21510959 0.31281373 -0.1141013 0.099629566 -0.3778565 0.50448567
-0.64869994 -0.2348427 0.18654238 -0.027817434 0.028305376 0.5230483 -0.45138773 -0.2553698
0.41509202 0.3941824 0.2795109 -0.021539366 0.023204178 0.08374191 0.48547846 0.24727552
-0.5737484 -0.73393846 -0.30316028 -0.1291 0.41942218 -0.31519517 -0.12414036 0.058708582
0.05864111 -0.0038228869 0.080928735 0.07840757 -0.83747834 -0.048490256 0.39545837 0.37994587
0.6373861 0.09822796 -0.39986935 0.16996178 0.0726942 0.14243272 -0.3180399 -0.18438335

actor.init_internal_node_embed.2.add_bias._bias f4 [64, 1]
00000000: e271 ecbb 04a6 d5bc d3f4 8c3d b54f cb3c
00000010: 0abb e23b d60f 443d fc82 00bc f429 da3c
00000020: 12e6 f8bc 8ace 48bd f45c 2cbc 08a2 f4bc
00000030: 069e d3bc 87fd 46bd 8e7f 5cbd a827 a1bb
00000040: 34d3 953d 5955 2ebc 9aef 8ebc a699 27bd
00000050: 9edb 85bc ed98 a63c a4e9 083d d014 d03d
00000060: 2d70 d439 5762 50bd aabf 9c3b d55d 613d
00000070: 9065 2c3d 08e2 39bd fec7 c83d 3d66 5a3b
00000080: 8a65 fbbc a116 67bd 034f 56bd 884a 2cbc
00000090: 2a49 383c aa24 02bd 82c4 823d 78c9 193d
000000a0: 0809 8cbd c217 033d 6e64 8e3d 79fa 213d
000000b0: 9ce6 ec3c 7b8c 1bbd 7fce 253d 83db e23d
000000c0: ef65 03bc 019e e53b 62a1 383d c809 143d
000000d0: 9d6c 23bd 38d1 3abd c792 4bbd aabb a03d
000000e0: bf3c 193d 1d53 06bd 2b2a d23c 4527 c7bc
000000f0: fb91 acbc 3d9f 6ebb 3dbd 73bc e753 393c
-0.0072157243 -0.026080139 0.06882634 0.02481828 0.0069192695 0.047866665 -0.007843729 0.026631333
-0.030383144 -0.049025096 -0.010520209 -0.029862419 -0.025832187 -0.048581626 -0.053832583 -0.0049180575
0.073156744 -0.010640466 -0.017448235 -0.040918015 -0.016340073 0.020336593 0.033425942 0.1016022
0.00040519368 -0.050875034 0.0047835903 0.055021126 0.042089045 -0.045381576 0.098037705 0.00333251
-0.030688066 -0.056418065 -0.052321445 -0.0105158165 0.011247912 -0.031773247 0.06385137 0.03754565
-0.0683766 0.03200508 0.06952749 0.03954551 0.028918557 -0.03797577 0.040480133 0.11077025
-0.008019908 0.007007361 0.04507578 0.03614214 -0.039898504 -0.045609683 -0.049700525 0.07848294
0.037411448 -0.032794107 0.025654873 -0.024310717 -0.021065703 -0.0036410831 -0.014876661 0.011311508

actor.init_leaf_node_embed.0.module.weight f4 [32, 8]
00000000: 4237 51be efcc afbe 1d2e 563e 7281 493e
00000010: ef2f fb3c 52e3 013f d68f aabe 3fc3 9ebe
00000020: 6687 e3be af52 f2bd f963 cc3e 004d 48bd
00000030: e39c 523e b6fd 5abe 968d 7a3e 9304 58bd
00000040: 5433 1fbc c1f3 d13d 62dd 76be abcf e7bc
00000050: 02d7 7cbe dfe0 71be 6601 a23d b765 c5bd
00000060: 48b1 c7be 1759 be3c 19f1 583e fd93 01bd
00000070: 309a b43e 7e2e a93c 137c 80be dba0 493c
00000080: d7c0 8e3c 297d 0ebf 708f b83e a82d b4bd
00000090: 310b c1bd e33e 9f3c 862d 2abe 19bb 113e
000000a0: 3fd2 b7be 51dc 7cbc d3f4 7bbe e51e 3b3e
000000b0: d3f3 25be ba79 fb3d 3ec0 2bbe 665a 303c
000000c0: 8ebc 8abe fc60 533e 7e64 c2bd 7dcb e23d
000000d0: 2d2d adbd ae45 c5bd 9eb3 393d 9228 273e
000000e0: 1fc1 503e d2a0 423e eda6 d43e f91a 04be
000000f0: ebb6 2bbe 65e8 e8bc c2df 28bf 7b28 a8bd
00000100: e1be 19bd d6d4 a53d 825a 623e 9ed4 123d
00000110: 9998 813d ef69 9c3e a02f 573d 6a5c 323d
00000120: 10af fcbe 93bf fdbd 1143 8b3d db25 b33d
00000130: b231 b23e e821 56be e55d d7ba b95f 04bf
00000140: 7e91 cebe b889 4e3d 0be5 adbe f456 16be
00000150: 0c6c f33e 7823 8b3e 5b21 6bbe b45d ffb9
00000160: f17f 063e d57d acbd e12f 923e 8d0f 81be
00000170: b5da a5bd 1243 9cbe eb3e d63e 2994 583c
00000180: 3beb 68be 84eb 3cbe 0212 c13e 99d1 e13e
00000190: 4737 853e e919 ba3d 4adf ad3e 1e36 de3e
000001a0: 6f49 053e 8c55 af3e 27f6 833e 6035 7fbd
000001b0: 1110 08bf f03f 7eba 3f4e 4abd eb74 65be
000001c0: 2d19 ea3e bad1 d43e 28de ca3d 2f87 c83e
000001d0: 0860 923d 47d5 443d 2050 0a3e 16e2 1d3e
000001e0: 238c 593d 6c13 cdbd 998c 92bd c1ff 463e
000001f0: 533d 30be 18b8 9d3e 8dd3 2d3d abae 313e
00000200: 8faf 973e 1d58 9e3e 45ed d5bd bcc9 debe
00000210: 2037 c53c a69d 81be f785 63be adf6 2d3e
00000220: ee72 a0be c0af 943e 99c5 b9be 2fb3 e53e
00000230: ec1e 24be 6861 c6bd 78f0 57be e2f2 623e
00000240: 7812 8e3d 3ebc 493b 5692 12bf 843f 30be
00000250: b2f7 793e cd6e c93e 5811 bf3d b951 23be
00000260: ae5e 4bbe 9185 81bd 5bef e1be a163 00be
00000270: 546d 8bbe 26b7 ffbe 863e 7f3e ca62 9fbd
00000280: a2bb 0c3e e470 a83b 6947 403e b4d3 ea3e
00000290: 91be fd3e e44a b7bd 7672 963e ada4 9cbd
000002a0: b7e2 8bbe eb83 ed3e 8e62 173e ed1d 4fbe
000002b0: fc47 ae3e e70c 8abe d02c 2bbd 857a 493e
000002c0: 653c 213e a3da d2be 2255 23be d65d b0be
000002d0: 5302 c73e f4fe a8bc 12fd e13e 0d1c 6b3e
000002e0: 54bf 9b3d b470 093f 7e36 5e3e 6d40 1bbf
000002f0: ab3b 17be c97a 1f3f acdd 0f3e 113e ca3e
00000300: 3a20 10be f6d6 8ebe 5f6b 5cbe 9a7f 22be
00000310: 3184 3e3e 2593 bfbe 5ed5 9abd ca4f 163f
00000320: 48c0 2a3e 3e14 bbbd a541 43be ba23 123e
00000330: cb56 c4be 69bd 6dbc 9e2c a2bb cf25 ba3e
00000340: 94b5 89be b030 2f3e e483 d33d ee68 99be
00000350: 5937 fabe 69a9 40be b90b d03e b112 44be
00000360: ca3e 14be b1fe 873e d106 8b3e e4ff 1e3e
00000370: c2aa cfbd a103 eb3e 655c 9c3e 15dc 43be
00000380: ac80 6b3d 3571 7cbc b383 b03e bba1 0bbe
00000390: adee f2bd b70e fdbe 6038 76be d6e0 b8bd
000003a0: f22f a73e 2859 903e 5301 62be 2989 523e
000003b0: 953c 023f f350 82bd 73cd 243e 624f ffbe
000003c0: 6f64 383d 1e0a bebe 5df2 36be 3424 b0be
000003d0: 2216 8ebe c5b9 ca3e 9b47 a33d 763a 80be
000003e0: b3ea e7be 80f4 1c3d fe22 5abe 72b8 9abd
000003f0: 8698 93be 0ac0 2cbe 6bf0 8d3e b203 55be
-0.20431235 -0.3433604 0.20916028 0.19678286 0.030662505 0.5073749 -0.33312863 -0.31008336
-0.44439238 -0.11832177 0.39920023 -0.048901558 0.2056766 -0.21385846 0.24468073 -0.052738737
-0.009716827 0.102515705 -0.24107888 -0.028297266 -0.24691394 -0.23620938 0.07910423 -0.09638541
-0.39002442 0.02323584 0.21185721 -0.031635273 0.35273886 0.020652052 -0.2509466 0.012306417
0.017425938 -0.5565973 0.36046934 -0.08797771 -0.09425963 0.019439166 -0.16618928 0.14231528
-0.35902593 -0.015433387 -0.24605112 0.18273504 -0.16206293 0.12279077 -0.16772553 0.01076374
-0.2709698 0.20642465 -0.094918236 0.110739686 -0.08455882 -0.09632431 0.045337312 0.1632407
0.2038617 0.1900666 0.41533604 -0.12900914 -0.16768996 -0.028431127 -0.6596643 -0.08210846
-0.037535552 0.08097236 0.22104838 0.0358473 0.06327934 0.3054957 0.052535653 0.043545164
-0.49352312 -0.123900555 0.06799901 0.08747455 0.3480354 -0.20911372 -0.0016431181 -0.5170856
-0.40345377 0.050424308 -0.33963808 -0.14681607 0.4754337 0.27175498 -0.22961943 -0.00048707204
0.13134743 -0.08422438 0.28552154 -0.25207177 -0.08098356 -0.3051992 0.41844878 0.013218918
-0.22745983 -0.18449217 0.3770905 0.44105223 0.26018736 0.09086973 0.3395942 0.43400663
0.13016294 0.34244955 0.25773737 -0.06230676 -0.53149515 -0.00096988585 -0.049391028 -0.22407882
0.45722333 0.4156626 0.09905654 0.39165637 0.07147223 0.04805496 0.13507128 0.15418276
0.05311216 -0.1001347 -0.07155723 0.194335 -0.17210893 0.30804515 0.04243808 0.17351787
0.29626128 0.309266 -0.10445646 -0.43513286 0.024074137 -0.2531559 -0.22219072 0.1698863
-0.31337684 0.29040337 -0.36283568 0.4486327 -0.16027421 -0.096865475 -0.21087825 0.22162965
0.069371164 0.0030782367 -0.5725454 -0.1721173 0.24410895 0.39342347 0.0932948 -0.15949143
-0.19860336 -0.06324304 -0.44127926 -0.12538005 -0.27231848 -0.4994442 0.24926195 -0.077825144
0.13743451 0.0051404107 0.18777241 0.45864642 0.49559453 -0.08949831 0.29384202 -0.07648597
-0.27321407 0.46389708 0.1478369 -0.2022626 0.34039295 -0.2696297 -0.041790783 0.19675644
0.15745695 -0.41182432 -0.15950444 -0.3444659 0.3886896 -0.020629384 0.4413839 0.2295992
0.07604852 0.53687596 0.21700475 -0.6064518 -0.14768855 0.6229673 0.14049405 0.39500478
-0.14074793 -0.27898377 -0.21525334 -0.15868989 0.18605115 -0.3741695 -0.07560228 0.587155
0.16674912 -0.0913472 -0.1906801 0.14271441 -0.38347468 -0.014510491 -0.0049491664 0.3635697
-0.26896346 0.17108417 0.103278905 -0.29962867 -0.48870352 -0.18814625 0.40633944 -0.19147755
-0.14477077 0.26561502 0.27153638 0.15527302 -0.10139991 0.45901206 0.3053924 -0.19126923
0.057495758 -0.01540785 0.3447548 -0.13635914 -0.1186193 -0.4942529 -0.24044943 -0.09027259
0.32653767 0.2819302 -0.22070818 0.20560135 0.5087369 -0.06363096 0.16093998 -0.49865252
0.045017656 -0.37117094 -0.17865892 -0.3440262 -0.2775126 0.39594856 0.07972642 -0.25044602
-0.4529625 0.03831911 -0.21302411 -0.075547114 -0.28827304 -0.16870132 0.27722487 -0.20802191

actor.init_leaf_node_embed.0.add_bias._bias f4 [32, 1]
00000000: 8b17 ae3d 590f 893a dfcc acbd a533 e03c
00000010: 5def 6d3c 72ea 8abd b24c 253d 4300 ea3b
00000020: 4a41 f0bc dcc2 b03c 1e22 9e3c 5dba 77bd
00000030: af43 143e c6a8 6d3c 7a98 be3d 4b9a debc
00000040: dfb2 9f3d 1baf 14bd ee91 babd 1c97 6cbe
00000050: 0211 46bd fd36 be3a 6739 293c ba69 4ebd
00000060: 3b1c 40be 999f f7bb accf 3ebe 00ca a83d
00000070: 9cb1 1bbd 02a4 d83d 690b fa3a 3ca1 b0bb
0.08500584 0.0010456844 -0.084375136 0.027368376 0.014522401 -0.06782998 0.040356345 0.0071411445
-0.029328007 0.021577291 0.019303378 -0.060480464 0.14478944 0.014505571 0.09306426 -0.027173182
0.07797789 -0.036299806 -0.09109865 -0.23104519 -0.048356064 0.0014512237 0.010328627 -0.050393797
-0.18760769 -0.0075568673 -0.18633908 0.082416534 -0.03801118 0.10578157 0.0019076887 -0.0053903144

actor.init_leaf_node_embed.2.module.weight f4 [64, 32]
00000000: 0543 443d 52d1 6fbe a4ad 90be 3262 a3bd
00000010: a75d 213e 698b 3b3e 39df 863d d4bf eb3c
00000020: c2d6 063e fcfc c43d 094b 9a3e b63b 89be
00000030: 331e 05be 0554 eb3d 5ca8 0fbf 82ec 25bd
00000040: a758 3c3e f69c 243e e78e 69be 24a0 d3bd
00000050: 6723 073e 5d64 8cbe 1cd1 8f3e 5790 053e
00000060: cd4a 873d ced8 b2be 3e5d d3bd 66ad a43b
00000070: 0055 103e 9dbf ea3c 7f8a b9bd cf97 19bd
00000080: d700 cfbd 77c3 713e b614 053d 2dbf 6dbd
00000090: b7e3 f83c cf14 5d3e d995 f93d 597c 0dbe
000000a0: 694f 1cbe 3c2d 6dbe eb15 fb3e b47c 31bd
000000b0: ee70 e7bd af94 863d 642e 143e 9b0f 7dbe
000000c0: 6b48 ecbd e83c 5bbe aa8d 27be bb78 47be
000000d0: 3635 d5bd 3ee0 d4bd 8a16 4f3d 7d14 34be
000000e0: f1b1 bfbe ac73 65be 9c0a c03b f402 3a3e
000000f0: 2c5f 8abe 55b2 bdbd f888 6a3e 5aa6 b53e
00000100: 6d93 4f3e 085f 0cbd 9bee ffbd 1b09 c53d
00000110: 3636 eb3d 388e 0cbc 9b14 e5bd 3369 173d
00000120: d245 d4be 6bd3 18bd 68da c4be ac0f 34be
00000130: ee73 76be 7b47 e73d ab8f 733e dcaf 1fbe
00000140: b4d0 a9bd 2b8b b63e f5ab 93be 92b5 f0bd
00000150: d327 553a e720 273d db5c 8c3d 6798 a6be
00000160: f45b 87bc 1463 ed3d b834 c0bd 1956 44be
00000170: 2304 4bbe 7941 9fbd edc5 fb3d db63 1b3e
00000180: 8356 a1bd 5d0b 4a3e dc09 463e 7616 b33d
00000190: 16ae 483e 57c1 883d 968c 2ebd a25b 483e
000001a0: 92d0 283e ada2 0abe 0cfc a2be 2fbf 823e
000001b0: a7dc 70be c1d5 313d e6a6 efbd cde2 253e
000001c0: 9546 e9bd 000d b43e 10ff b1be c1b1 17bc
000001d0: 0368 453d 126a 09ba 9bfd 87be 0814 f03e
000001e0: 57ce 8b3c 47f7 5c3c 5119 2c3e 66cb 6c3e
000001f0: 4768 973e 5b3a 99bc bbe9 aa3d 1a23 153e
00000200: f690 b3bd 55ff 0abe 41e0 863d 3d65 303d
00000210: 2327 a23d 5a88 f7be 602b 6a3e 6002 f73d
00000220: 1e9b 893d 3dc1 a33d ca9a 69be cb8e b8be
00000230: 7278 cebd 9a46 743e 5e50 3e3e 3226 73be
00000240: db34 d8be 0d6c cfbe 8d36 593e 0e45 d93d
00000250: 8293 96be a41d 7e3e ef89 26bc d275 6f3e
00000260: 8678 ffbd d4a9 37bc f922 30be a4f5 913e
00000270: e6d2 783e 3093 dcbb 6d24 993d 8933 3dbe
00000280: 9976 603e d351 e6bc 9f46 1fbe fb76 bebd
00000290: 6454 aabe 4677 46be 3777 b93e 33ef eabd
000002a0: 8728 313e 7d75 c03c fe64 c9be de32 a03e
000002b0: fe95 0c3f 32cc 0b3e e7e3 b73e 98b8 95be
000002c0: b92b 3b3e 13d8 b4be 77f5 cabe 81e0 20be
000002d0: 5259 ba3d 923d 8abe 2386 cebd 8049 313f
000002e0: a547 943d f32d 81be c034 95bd 3804 4a3e
000002f0: c9e7 23be f010 3dbd b928 9c3d cd95 5bbd
00000300: 07b6 b63e 01a6 aebe 73f1 53bd 64c2 6dbd
00000310: 033d 85be 2bb7 cfbd 5765 533e 6a0c 9d3e
00000320: 1ba7 7b3d a663 39be 7f8e 193e 6efc 2b3e
00000330: ee67 3ebe f64d 033e 7d49 a8bd 7d3a 263d
00000340: 836d bebe 1b84 083f 20e6 fb3e f2b0 6d3d
00000350: 6df0 83be 1522 963d 327a 0abe 49d5 793e
00000360: e2ac 463d d0b1 613e 2280 8dbd f508 05bd
00000370: c008 11be baf5 7f3e c056 433d bb48 2dbd
00000380: dbb4 e9bd 02f0 933d a4bf ffbd 3201 85be
00000390: 47b4 583d 59a9 b0bd 8ecd 70be 57b4 1bbf
000003a0: 3f06 0f3e 2001 07be 4698 2c3e 2e88 a63b
000003b0: 30b0 3e3e 7ae2 c13d c2c2 90bd eef5 a83d
000003c0: 3ba3 84be 4b6e 55be a6d5 17bf f8b0 35be
000003d0: d4ea 0c3e 82b0 dd3e 320f 083e 3d75 6ebe
000003e0: 9a82 cfbc 16bf 513e 267b 523e 58f2 323e
000003f0: d75d f7be 300b 943e 7b36 493e e73d 59be
0.047915477 -0.23419693 -0.28257477 -0.07977714 0.15758382 0.183149 0.06585545 0.028777994
0.13167861 0.096185654 0.30135372 -0.26803368 -0.12999801 0.11490635 -0.5611627 -0.040508755
0.18393193 0.16075501 -0.22808419 -0.10333279 0.13197099 -0.2742032 0.28089225 0.13043343
0.06606064 -0.34931034 -0.10320519 0.0050255535 0.14094925 0.028655821 -0.09059619 -0.03749829
-0.10107582 0.2360972 0.032490455 -0.058043648 0.03038202 0.21589969 0.12186784 -0.13816966
-0.15264668 -0.23161787 0.4904016 -0.043331817 -0.113008365 0.06571328 0.14470822 -0.24712984
-0.1153725 -0.21409953 -0.16362634 -0.19479649 -0.1041054 -0.10394333 0.050558604 -0.1758594
-0.37440446 -0.22407407 0.0058606397 0.18165189 -0.27025735 -0.0926253 0.22903812 0.3547848
0.20271082 -0.034270316 -0.12496682 0.09620877 0.11484949 -0.0085788295 -0.11185571 0.03696556
-0.4145952 -0.037311 -0.3844788 -0.17584103 -0.24067661 0.11292931 0.23785274 -0.15594429
-0.0829176 0.35653052 -0.2884213 -0.11753382 0.00081312394 0.040802862 0.06853648 -0.3253815
-0.016523339 0.11591163 -0.09385055 -0.19173469 -0.19825797 -0.0777616 0.12293611 0.1517481
-0.07877829 0.19730897 0.19339699 0.087445185 0.19597659 0.06677502 -0.042614542 0.19566205
0.16485813 -0.13538618 -0.31832922 0.25536487 -0.23521672 0.043416742 -0.11701755 0.16199799
-0.113904156 0.35166168 -0.3476491 -0.009258688 0.048194896 -0.0005241941 -0.26560673 0.46890283
0.017066164 0.01348669 0.16806532 0.23124465 0.29571745 -0.018704584 0.08345362 0.14564171
-0.087678835 -0.13573964 0.06585742 0.0430653 0.07917621 -0.48346215 0.22868109 0.12061
0.067190394 0.07995842 -0.22812954 -0.36046442 -0.10081567 0.23855057 0.18585345 -0.23745039
-0.42227826 -0.40512124 0.21212216 0.10608874 -0.29409415 0.24815995 -0.010164722 0.23384789
-0.1247416 -0.011209924 -0.17200841 0.2850772 0.24299201 -0.0067314133 0.07477651 -0.1847669
0.21920241 -0.028115189 -0.15554284 -0.093000375 -0.3326751 -0.19381437 0.36223766 -0.11471405
0.17300616 0.023493523 -0.39334863 0.3128881 0.5491637 0.13652113 0.35916063 -0.29242396
0.18278398 -0.35321102 -0.396404 -0.15710641 0.09099068 -0.270001 -0.10084178 0.6925278
0.072402276 -0.2523037 -0.07285452 0.19728172 -0.16006388 -0.04615873 0.07624955 -0.053609658
0.3568575 -0.34111026 -0.051743936 -0.058046713 -0.2602311 -0.101423584 0.20644127 0.30673534
0.06143866 -0.18104419 0.14995764 0.16795513 -0.18594334 0.12822708 -0.08217142 0.040583123
-0.37192926 0.53326577 0.4919901 0.058030076 -0.25769368 0.073307194 -0.13523176 0.24397768
0.048504718 0.22040486 -0.06909205 -0.032479245 -0.14163494 0.24996081 0.047690153 -0.04230569
-0.114114486 0.07223512 -0.124877244 -0.25977474 0.0529063 -0.086260505 -0.23515913 -0.6082205
0.13967226 -0.13184023 0.16854963 0.005082152 0.18621898 0.09467025 -0.07068397 0.08250032
-0.25905785 -0.20842855 -0.59310377 -0.1774329 0.13761455 0.43298727 0.13287047 -0.2328691
-0.02533083 0.2048305 0.2055479 0.1747526 -0.48313782 0.28914785 0.19649689 -0.2121502

actor.init_leaf_node_embed.2.add_bias._bias f4 [64, 1]
00000000: 8ade 8ebd 7e00 5abd 93c4 083c bb77 aa3c
00000010: e4b0 65bd e98c a83e 6d37 8f3d edd1 0c3b
00000020: d6da 9cbd a622 a73d ca4e a5bd f0f9 6f3e
00000030: 8f52 79bd 7b43 80be 0ef0 03bf 4b07 d23c
00000040: 403b 85bd 9144 1c3e 0405 4bbe e6dd fbbc
00000050: c101 1bbe c9af 213e a726 173e 3d71 503e
00000060: 669b 4dbd 68b8 783e d805 78be 3769 093e
00000070: 0c3c 15be d078 8dbe c168 cc3d ed22 38bd
00000080: be22 96bd 574c 10bc 5c73 69be e64a 173e
00000090: d463 e2bd a97e 00bd 68a7 ffbd d133 91bd
000000a0: df26 48be 8be6 bd3b 30af f7bb 299e a3bd
000000b0: 8950 2b3d d7e6 a63d 167c fa3c 74f9 873e
000000c0: ca66 fc3b 4bb3 d03d f483 e93d 6c8e b834
000000d0: 6f9e ddbc 4a2f 0e3e fa3e 2ebd 4c20 a3bd
000000e0: ae30 ebbd d7c5 babd 9a16 f0bd c83b 923e
000000f0: 2e85 2a3e 48f9 6e3c 0d83 393e 1c17 3ebe
-0.0697604 -0.053223126 0.008347648 0.020809045 -0.0560769 0.32920006 0.069929935 0.002148743
-0.07658927 0.081609055 -0.080716684 0.23435187 -0.06086975 -0.25051484 -0.5153817 0.025638243
-0.06505442 0.15260531 -0.19826132 -0.030745458 -0.15137388 0.15789713 0.14760838 0.20355697
-0.050197028 0.24289095 -0.24220979 0.13419043 -0.14573687 -0.27631235 0.09980918 -0.044955183
-0.07330845 -0.008807263 -0.22797912 0.14774665 -0.11054197 -0.031370793 -0.12483102 -0.07089961
-0.19546078 0.005795305 -0.007558726 -0.07989151 0.04182485 0.08149498 0.030576747 0.26557505
0.007702683 0.101904474 0.11402121 3.4376296e-07 -0.027053086 0.13885227 -0.042540528 -0.079651445
-0.11483894 -0.09119766 -0.11723061 0.28561234 0.16652367 0.0145858005 0.18116398 -0.18563503

actor.init_next_embed.0.module.weight f4 [32, 6]
00000000: 23e3 5cbf d250 2a3e 2104 abbd 9b10 c63e
00000010: 02db 843f f906 6bbf f72b cc3e 9a49 a63e
00000020: cbbc 083c 7417 393e 02bb f7bc 0890 1bbe
00000030: 3f72 abbd 89c8 c7be b2c4 753e 5655 0bbf
00000040: 9ce2 d23d 221e 253d e5cf e23f 12a8 113f
00000050: 6baf e53d 1cbd e23e 2dca 1f3e 7e66 e0bc
00000060: 69a2 aabe cd0f 76bd 60cc 45be 48d8 333e
00000070: b80f a43c 4c1f 42be 0014 27be 70ed eb3d
00000080: 3dd2 ea3e d1c6 ae3d ffd5 d6bd 755b 0a3d
00000090: 5e52 993e 257a 68be 03a7 c0bc 7bb2 89be
000000a0: fa0e 4fbe e7e3 773e 5af7 50be 5b3c bbbe
000000b0: a5ce 813e 3f98 e93d be73 17be cd7e 2a3d
000000c0: 2abb 29be 9e98 82be 20c8 af3e aa1e 87be
000000d0: 7336 b23d 1a90 83bc 3bdb bebe c81e 21be
000000e0: e18f 14be 9202 ce3e 8591 69be a681 f1bd
000000f0: caa7 303f bcdc 42bd 1fe4 18be 930f f0be
00000100: 046a 55be 3be5 023e 6502 123e 0353 42be
00000110: 5b24 95be e134 a83d f7dc 46bd a1ae bfbd
00000120: b1c4 ce3e 41a7 28bf d1ae 32bd 349a 87bd
00000130: bf64 473d 7ddb d6bd b2d1 2a3e 311c 85be
00000140: 937a 9e3e 8ee5 6c3e c036 043a 420f 72bd
00000150: 4122 993f 8cfc 593d 48ba d8bd 5ed5 0fbf
00000160: abc6 7fbe a940 263f 00e5 2d3c c0c9 8c3d
00000170: b5a4 6e3e e4e5 9dbe 4f26 07bd 6ef0 7bbe
00000180: 5e4c 4bbe 99f8 13be 79e2 02be 378a ed3d
00000190: 67a4 893d 850d ac3e d2e3 dc3d be9e e83e
000001a0: dde7 fe3e 300b 9d3e c3fb 393e c2f6 f53d
000001b0: b429 31be 7c35 6ebc 26dd b1be abac 6abd
000001c0: 2304 fdbd 875a d9be 1629 f73f 307c 65be
000001d0: c0d7 463e 03a2 2f3c b62d b03d 04ef a6bd
000001e0: 078a c03d c4c6 ba3e e633 243e a958 bebe
000001f0: 074b 5ebe 3195 5b3e 3b20 1c3f 768e 35be
00000200: f614 aa3d 1ea9 153f 9c39 e03d 207d 4fbe
00000210: 621e 66be a690 e23c adac babd 8e82 743d
00000220: 1f3f c4be 2d9f 12bd c56c f63c 4a39 42be
00000230: 5232 06be 50ce e9be 8d00 8fbd 958c 66be
00000240: dac9 99be 09fb 95bd d3cd ac3e fd1e ccbe
00000250: 9174 0b3f 1413 edbe b49b 333e ab12 54bd
00000260: 6e6b 113d 6086 04bf ac27 24bf 5919 803e
00000270: 3c9f cbbe 7e9e 2ebe 98f9 da3e 8a70 953e
00000280: 19fb aebd c022 91be c70f ad3e f6a5 c8bd
00000290: 724c 0d3e ee37 843d b481 35be ff8b 81be
000002a0: 55ae 02be fefa d73d a5f1 04bf 3afd 81be
000002b0: 0812 f9bc 3c39 0b3b fac5 3a3e 767b 2ebd
000002c0: 8101 a93e 6898 dbbe 42b6 7ebd 8aba b23d
000002d0: 0fab 77be 2a72 b7bc b5aa 81ba 5b95 32bd
000002e0: a8df 21bf ea83 0a3f b947 843d be4c e1bd
000002f0: 4dc5 1fbe b6c9 b5bd 0ee4 4d3c 61f2 29be
-0.86284083 0.16632393 -0.08350397 0.38684544 1.0379336 -0.91807514 0.39877293 0.3247803
0.008345793 0.18075353 -0.03024054 -0.15191662 -0.083714 -0.39020184 0.24000815 -0.5442709
0.102971286 0.04031194 1.7719694 0.5689708 0.11215099 0.44284904 0.15604468 -0.027392622
-0.33327034 -0.060073663 -0.19316244 0.17562973 0.020027027 -0.18957251 -0.16316223 0.11519897
0.45863524 0.08534015 -0.10490035 0.033778626 0.29945654 -0.22702844 -0.023517137 -0.26893982
-0.20220557 0.24208032 -0.20406857 -0.36569485 0.2535297 0.11405992 -0.14790246 0.041624833
-0.16575304 -0.25507063 0.3433237 -0.26390582 0.087017916 -0.016059924 -0.37276635 -0.15734398
-0.1450801 0.40236336 -0.22809418 -0.117923066 0.69006026 -0.04757379 -0.14930771 -0.46886882
-0.20841223 0.12782757 0.14258726 -0.18976979 -0.291293 0.08213211 -0.048550572 -0.0935948
0.4038444 -0.6588021 -0.04362375 -0.06621209 0.048680063 -0.10491083 0.16681555 -0.2599807
0.30952892 0.23134443 0.0005043559 -0.059096582 1.1963578 0.053219363 -0.10582405 -0.5618495
-0.2497813 0.64942414 0.01061368 0.06874418 0.23305018 -0.30839455 -0.03299552 -0.24603435
-0.1985335 -0.14450301 -0.12781705 0.11598628 0.067208104 0.33604065 0.10785641 0.4543361
0.49786273 0.30672598 0.18162446 0.12009956 -0.17301065 -0.014539119 -0.34739035 -0.057293575
-0.12354305 -0.4245188 1.9309413 -0.22410655 0.1941824 0.010719779 0.08602469 -0.08151057
0.094013266 0.3647977 0.16035423 -0.37177017 -0.21708308 0.21443631 0.6098668 -0.17730126
0.08304779 0.5846118 0.10948488 -0.20262575 -0.22472528 0.027656864 -0.091149665 0.05969482
-0.38329408 -0.035796333 0.030081162 -0.18967167 -0.13105133 -0.45665216 -0.06982527 -0.22514565
-0.30036813 -0.07323272 0.3375078 -0.39867392 0.5447474 -0.46303618 0.17539865 -0.051775616
0.035502844 -0.5176754 -0.64123034 0.2501934 -0.39769924 -0.17052647 0.4276855 0.29187423
-0.08543987 -0.28346825 0.338011 -0.097972795 0.13798693 0.0645598 -0.17725259 -0.2530212
-0.12761815 0.1054592 -0.5193122 -0.2538851 -0.030404106 0.002124383 0.18239585 -0.04259821
0.3300896 -0.42889714 -0.062185533 0.08726986 -0.24186347 -0.022393305 -0.0009892794 -0.043599468
-0.632319 0.54107535 0.064589925 -0.110009655 -0.15602608 -0.08876364 0.0125665795 -0.16596366

actor.init_next_embed.0.add_bias._bias f4 [32, 1]
00000000: 6dfb 4bbe 8e51 e2bc 711c f6bc c81a 273f
00000010: bd9c 64bd 6f45 2dbb 854f 243e 44d2 b5bd
00000020: 209b 89bd 2d41 edbd a3c4 60be 1bb8 b2bd
00000030: f475 17bd 8e17 533e 3fd9 253f 172e 793c
00000040: 781a a13b b8f5 173b 1bdc 9c3d 8ebb fd3e
00000050: 504b 7fbe 6cf6 e7bd 2816 1f3d f9c5 583d
00000060: 3148 f4bd 2ec0 72be 4346 24be 1a42 1d3e
00000070: 899d b9bd c88d 273e 7ce8 88bb 8322 dcbc
-0.1992013 -0.027626779 -0.030042859 0.6527524 -0.05581354 -0.002643909 0.1604596 -0.088779956
-0.06719041 -0.11584697 -0.21950011 -0.087265216 -0.036977723 0.20614454 0.64784616 0.015208743
0.0049164854 0.0023187231 0.07659169 0.49557155 -0.24931073 -0.11326298 0.03883949 0.052923176
-0.11927832 -0.23706123 -0.16042428 0.15357247 -0.090632506 0.16362679 -0.004178105 -0.026871925

actor.init_next_embed.2.module.weight f4 [64, 32]
00000000: 1bcb 9fbe 921d 893d 931d 243e 07ed 663e
00000010: cc56 323e 32bc b3bd 5618 b13e 2b23 8d3e
00000020: b833 043e 5fea 203d 523f 703e d1bc 27bd
00000030: af8b 693d c272 c53d 6746 153f 3244 90bc
00000040: 4f60 903e 907f 3d3e f0ff a4bc fffa 943e
00000050: 6a61 803e eb4b a3be ab58 7e3e 306b 373f
00000060: 895d b03d 7f04 243e e1ed d83b b077 0dbe
00000070: 7d4e 15bd 2368 503d 7a13 083e b7d3 d4bd
00000080: 3cd9 063e c34e 123c d005 4ebd 285b 09bf
00000090: fdc0 4b3e 88a0 393e c358 fdbe 2fec f33d
000000a0: 016a 0bbd a2ad a73d c480 aebe b1ca 62be
000000b0: 14ff 02be fd02 0bbd 89f3 c4bd 7162 953e
000000c0: 79c1 66be 0689 26bd 9f31 1f3e 0d51 47bf
000000d0: 717f d4bd 81ec dbbe a21a 67be 22b3 163d
000000e0: c5da aebd b6da 9c3d 1df3 573d c112 dcbd
000000f0: 6c72 a13d 09dc 2bbe 2b63 d0bc b842 04be
00000100: ab97 263e 683b d63e 8e64 073e 82b5 fe3e
00000110: 06c2 803d be91 8b3d 7e26 8f3d 76f9 6cbe
00000120: cf82 123e 5dd7 fcbd d4f4 e0bb 0429 0e3d
00000130: 6b8f bd3d cfac 8dbe 083c 7d3e 4d04 033c
00000140: 9ff6 663e 55da d4bd 196b 283d 600e 6c3e
00000150: eda8 63be 9588 1f3f d739 2d3e 29e5 d6bd
00000160: b7b5 043e 1a5a 95be 5d4f ea3c 4aaa db3d
00000170: a5fb 843e 4d87 7ebd 8bed a6be f34d 373e
00000180: d248 b63e 95ee 5d3e 2250 69be fa52 ba3d
00000190: 8914 3c3e a2b4 20bd ff18 a03d 0130 e6bc
000001a0: d65c 4d3b 5c42 c83e 1443 babd e3b4 063e
000001b0: b640 ba3d 3c86 4b3e 8d0f 4fbe 8fa3 a83d
000001c0: 6031 cd3e 640d f83d 4faa d5bd 0ee5 9b3e
000001d0: 997e c73d efaf 163e 7b27 03be 9350 e8be
000001e0: 1697 c3bd 3b8a 33be fb2b 91be fda7 4f3d
000001f0: 5ea9 f33d e665 c1bd 06b1 303e b668 073d
00000200: 229b 103f 7674 d43b 5ee1 34be 4138 4fbd
00000210: 0785 5e3e 1cc6 f43d 8cd7 9bbd e2f4 253e
00000220: b627 313e 4d38 bbbd 721d 67be 4e5b 6fbd
00000230: 6ed7 63bd 604c 88be 109f dcbe b01b a9be
00000240: 70d8 903e 3f07 fd3d bd02 223d 01ba b9be
00000250: 3b8c 213e a31f 493e 5659 99bc 1562 e0be
00000260: 36fd 393e 385f b93d 5991 313e dfc9 c8be
00000270: 9258 803d 341d 1bbd a282 85bd aae2 f1bd
00000280: 7225 46be dbc0 c1be 3e7a edbd 8457 7f3e
00000290: f07c 863c 6312 623e 817d 8abd 5b0e 173e
000002a0: dc91 be3d 964b 053e 5d50 83bd e333 783c
000002b0: 017e 5fbd 4fc5 9e3d 44ad d23d 484b 033e
000002c0: 5397 a8bd 6da5 ad3d 20b4 2c3e 1e1c 343f
000002d0: 1356 26be 4361 4dbb 8bca 8f3d 34fd 44be
000002e0: 17f7 5abe 8e0d 96be 829b ffbd d453 223e
000002f0: c303 f83d 496b 00be 37de c03c 7d2f 2cbe
00000300: a5ba ee3e 4bbb 70be 4010 d6bd 0f1f 39bf
00000310: a635 ecbc 3f5f 163c 9db2 9fbe 24e0 78bc
00000320: a051 f13e 4e51 643d 3817 a4bd b85e 55be
00000330: 5966 9bbe c12f 5f3d 216b 34bf 72c2 8ebe
00000340: 5368 1fbe f3cd e63e b504 b4be 3707 2bbf
00000350: 2200 84be d4f8 483e 2f97 7f3d faf6 eabe
00000360: 9c94 f7bc 300b 8ebe 3136 3c3d ca07 87be
00000370: ca50 13bd 5d81 e0bc 8559 16be a5e5 153e
00000380: 8309 003e 0f2b 9e3d d393 adbd 550b 123e
00000390: 87ab dd3d 491a acbe 310f a9be ceed 163e
000003a0: cd96 2cbd cc7d d93d b027 ad3d 5f2c 473d
000003b0: 3381 b83e 3515 03bd 089f c03e dfe5 1dbe
000003c0: f0ac 9cbd 0cdf fcbd bedf 713d 6b59 58bd
000003d0: a18b f6be 7cc5 b9bd 61a4 313e 2a0d 9e3e
000003e0: cb00 6b3e 1729 3e3e 7117 92be afbf 88bd
000003f0: e5ce 5ebe 5cfe 80bd 8201 983e b91a 4d3d
-0.31209645 0.06695093 0.16026907 0.22551356 0.17415923 -0.0877613 0.3458888 0.27565894
0.12910354 0.039286014 0.23461655 -0.040951554 0.05701798 0.09641029 0.5831055 -0.017610643
0.28198478 0.18505692 -0.020141572 0.29097745 0.2507432 -0.31893858 0.24838512 0.7164793
0.086115904 0.1601734 0.0066201543 -0.13815188 -0.036451805 0.050880563 0.1328868 -0.10391944
0.13168806 0.008929911 -0.050298512 -0.5365472 0.19897838 0.18127644 -0.49481782 0.11910283
-0.03403664 0.08187415 -0.34082615 -0.22147633 -0.12792617 -0.033938397 -0.09616763 0.29176667
-0.22534741 -0.04065802 0.15546273 -0.7785805 -0.1037587 -0.42953876 -0.22568753 0.036791928
-0.08537821 0.07658903 0.052722085 -0.107457645 0.07883152 -0.16783156 -0.025437912 -0.12916076
0.16268794 0.41842198 0.13221952 0.49747854 0.06287007 0.068149075 0.06989764 -0.23142037
0.14307712 -0.12345765 -0.0068651233 0.034707084 0.092558704 -0.27670905 0.24729931 0.007996631
0.22555016 -0.10393206 0.04111776 0.23052359 -0.22232409 0.6231778 0.16916595 -0.104929276
0.12959944 -0.29170305 0.028602296 0.107258394 0.2597324 -0.06214075 -0.32603106 0.17900829
0.35602432 0.21673043 -0.22784474 0.09097858 0.18367209 -0.039234765 0.078172676 -0.028099062
0.0031335852 0.39113128 -0.090948254 0.1315494 0.09094374 0.19875425 -0.20220776 0.08234321
0.40076733 0.12111929 -0.104328744 0.30448192 0.097409435 0.14715551 -0.1280803 -0.45373973
-0.09550302 -0.175332 -0.28353867 0.050697315 0.118975386 -0.09443264 0.17255029 0.033058845
0.56486714 0.00648361 -0.17664096 -0.050590757 0.21730433 0.11951849 -0.07609472 0.16206697
0.17300305 -0.09141598 -0.22569826 -0.058436684 -0.05562537 -0.2662077 -0.43090105 -0.33028936
0.2829013 0.12354898 0.039553393 -0.36274722 0.1577615 0.19640975 -0.018719357 -0.4382483
0.18162999 0.09051365 0.17340602 -0.39216515 0.062668934 -0.037869647 -0.06519057 -0.11810811
-0.19350222 -0.3784245 -0.115955815 0.24935728 0.016416997 0.22077326 -0.06762219 0.1475157
0.09305164 0.13017115 -0.064118125 0.0151490895 -0.054563526 0.077524774 0.10286954 0.12821686
-0.08231988 0.08478818 0.16865587 0.70355403 -0.16243772 -0.003133849 0.07021054 -0.19237214
-0.2138332 -0.29307216 -0.12480833 0.1585229 0.121100925 -0.12540926 0.02354346 -0.1681499
0.46626773 -0.23508947 -0.10452318 -0.72313017 -0.028834175 0.009177982 -0.3119096 -0.015190158
0.47132587 0.0557416 -0.08012241 -0.20836914 -0.30351523 0.0544889 -0.70475966 -0.27882725
-0.1556714 0.45079002 -0.3515984 -0.66807884 -0.2578135 0.1962617 0.06240004 -0.45891553
-0.03022223 -0.2774291 0.04595012 -0.2637313 -0.03596572 -0.027405435 -0.14682586 0.14638384
0.12503628 0.077230565 -0.08475461 0.14262135 0.10823732 -0.33613804 -0.33019403 0.14739153
-0.042136002 0.10619697 0.084548354 0.0486263 0.3603607 -0.032002646 0.3762133 -0.1541972
-0.07650173 -0.1234723 0.059051268 -0.05281965 -0.48153403 -0.0907087 0.17347862 0.30869418
0.22949521 0.18570362 -0.2853351 -0.06677186 -0.21758612 -0.06298515 0.2968865 0.050074313

actor.init_next_embed.2.add_bias._bias f4 [64, 1]
00000000: 0b72 db3e a906 78bf 447d 273f b551 ef3e
00000010: 3e70 89be 3ce9 f43e f473 4bbf 8f3e a63e
00000020: cf47 17bf 23fe ac3d 6564 dcbe e602 283e
00000030: 2fed e23e 8f33 8cbe f03a 32bf c965 9a3e
00000040: 33a9 b13e b7e2 463f 6b2b 7fbf 64fe 22bf
00000050: ffc4 03bf 3c37 813e addc c7bd 9252 cd3e
00000060: 4f07 27be c910 4abf ecf3 0fbe bc83 c73d
00000070: 28dd 69be e7f1 6ebe 1965 fdbd e041 023f
00000080: e971 1a3f 75b4 113e 716c 8f3f 487e c63e
00000090: 9b98 76be 74d7 963e fcdd 2fbe 4e3e 593f
000000a0: 4073 57bf f7eb 97bf cc87 90be 009a c43e
000000b0: 1525 b7be 9f82 50bf b046 e0be 72f3 323f
000000c0: a6a4 4f3d b535 35bf 4e3e 65bf 930a 0abf
000000d0: c9dc fe3e 2789 053d e6eb 7bbe a2e3 b4bd
000000e0: 6335 f0be 6a4e 59be 72f3 3bbe af6c 1d3e
000000f0: 8571 5c3d 875a 4bbe 950e 013e d6fd 3b3f
0.42860445 -0.9688516 0.65425515 0.46742025 -0.26843446 0.47834194 -0.79473805 0.32469603
-0.59093946 0.0844691 -0.43045345 0.16407356 0.44321582 -0.27383086 -0.6962118 0.3015578
0.346994 0.7768969 -0.99675626 -0.6366942 -0.5147247 0.25237453 -0.097588874 0.4010206
-0.16311382 -0.7893186 -0.14057893 0.09741923 -0.2283827 -0.23334466 -0.123727985 0.5088177
0.60330063 0.14228995 1.1204969 0.3876822 -0.24081652 0.29461253 -0.17174524 0.84860694
-0.8416023 -1.1868886 -0.28228605 0.38398743 -0.3577048 -0.8144931 -0.4380393 0.6990272
0.05069413 -0.70785075 -0.89548194 -0.53922385 0.4977782 0.0326015 -0.24601707 -0.0883248
-0.4691573 -0.21221319 -0.18354586 0.15373491 0.0538192 -0.19858752 0.12603219 0.734342

actor.embedder.layers.0.0.module.W_query.weight f4 [64, 64]
00000000: 1edc 4ebe d103 b33d 8ca7 a9bd b61f 87bd
00000010: 9c1a d0bd 52f9 40bd 835f b5bd 759e 7ebc
00000020: 3c0e 37bd dca2 85bd c82a a43d 5ec3 30bc
00000030: dc47 8e3d bc67 5a3d 1a61 da3d 6c4d e83b
00000040: 5496 c4bd ff35 abbc eb21 3c3d e528 203e
00000050: 899e a9bd a45d 83bc ab2d 89bd 5b4e 47be
00000060: e77e 443c 664d b4bd 0c6f 763d 399e bebd
00000070: 4c84 00be eaee 073e e05e 5cbe 993f c33d
00000080: fa9f e53d 3fd7 00be a2c7 f7bd 0169 e6ba
00000090: d678 a0bd c355 bf3d bbbd 203d c5ab 9c3c
000000a0: 2a8b 5f3e 63ef c8bd ae59 3fbe 13fb 4ebe
000000b0: bc2a 8a3d 2d38 78be 0332 063e 5d38 8b3c
000000c0: 08ae e43d 0982 b9bc adc9 54be 4387 5dbd
000000d0: 92f5 10be d81b 9ebd 8bea 54bd 7df9 97bc
000000e0: 0284 4ebe edbb bbbd 0921 e5bd 78bd 103e
000000f0: ec09 1abe 3698 b03c e00d fe3d 91c5 b23d
00000100: b102 7b3d 79e2 023e 6a29 91bd fda0 5b3a
00000110: 5ce5 a0bd d51e 1c3e 2741 233d ab8a c23d
00000120: 49f8 fd3d b339 a3bd d6fb d7bd 3877 613b
00000130: d629 5c3d 8c26 4abe 07ea 0dbc 1c28 2cbd
00000140: 53cd 04bd 49b1 843d 3d1a 0cbe 4be0 a83d
00000150: cc2d 813d 3264 1b3d 8daa 8c3d 30f5 8ebd
00000160: 7eca 023e 00d0 32be 299f ff3c f2a6 bebd
00000170: 4436 a63d b53a aabd 4286 a33d ba42 813d
00000180: b6b8 0bbe 7a55 de3c fe7c 893d 1882 9bbd
00000190: e342 19bd 07f3 a7bd bda0 42bd 4843 673d
000001a0: eb30 0e3d fc37 17bb 249a a3bc f0a4 ba3d
000001b0: 4f4b 9c3d cd21 b23d 2279 09bd 871f afbc
000001c0: 89af b7bd edc7 033e 1d93 093d 7be5 823d
000001d0: 5253 823a 1d3f 06be b244 19be a230 dd3d
000001e0: 4491 d23b b473 2a3e cd35 e23d 904b e9bd
000001f0: a3b4 d43d 1bee 6fbd c900 53be f23f 883d
00000200: 003f b9bd b302 f73d 698c ee3d e746 4fbd
00000210: 3036 06bd 773e 213e ce9c ebbd 040c 5b3d
00000220: ad6f 023d 6d99 243d 788f d1bd f0b5 2f3e
00000230: 3713 5fbd be14 013d c07d 36be ba91 e9bd
00000240: 8a48 cd3c 164a 213d c492 12be 5fcf abbd
00000250: 1385 773d 3698 cb3d 3e1c 76bd f650 093d
00000260: 9372 7c3c 438d 3f3e 9fd9 c5bd e355 e63b
00000270: 47a7 283d abda 19bd aac5 a83d 83d1 c0bc
00000280: 56a8 b63d 831f da3b f305 6a3a baae 983d
00000290: 8ba5 8bbd f7ab b73d 91cf b6bd 64ab 08be
000002a0: 3a4a d1bd de79 e73d 47cd d73d ab40 ecbd
000002b0: 7e9d b3bd 9331 2bbc 0d5d 483c 26e9 d53c
000002c0: e116 693b 9e3b 153c 51c6 53bc 98a1 823d
000002d0: f561 65bd 66a3 953d 4a77 49bd 4eaa bdbd
000002e0: 438c d93d ee95 40bd f2d3 00bd 9497 343e
000002f0: f5d8 243e 935a 8fbd 796c fb3d 0233 833d
00000300: b96c 8f3d 0633 213e 3d58 763d ccce 2d3e
00000310: 99a3 d9bd a977 043d d8e1 e1bd 9b36 45be
00000320: b0ed 9dbd 0cfe a3bd 8758 36be 515f 99bd
00000330: 059e 34bd 4f66 0bbd 8d27 1b3d 6872 913d
00000340: c074 55bd f5e2 a13d 26d3 32bd a7d2 37bc
00000350: 15ff 1e3e 9102 f13c 9205 5b3c 69c8 e93c
00000360: e5fa e1bc 726d b63d 88dc fbbd 23ac a4bd
00000370: fdc4 133e 5aea ea3d c21a 39be 1bcc d23c
00000380: d638 4e3e 5ff6 c0bd fdfd 553d 2adf 213d
00000390: b84a 0f3e e095 aa3d 0c79 a43d 5231 9bbc
000003a0: f031 ed3d 78b7 b63c 4ee2 afba 0d29 173e
000003b0: 5b67 ddbd 15df 16bd d68c 6f3d fb37 dfbd
000003c0: d049 753d 4e76 813d 21e2 debd 7ea6 813d
000003d0: 0b4b 23be 6689 113c 01ff e1bc 16e1 8c3d
000003e0: 5a00 09be 8105 983c 3615 033e f2a8 94bd
000003f0: 7ca7 b7bc a134 f8bc deb3 2fbd 57c6 043e
-0.20201156 0.08740962 -0.0828391 -0.06597845 -0.10161325 -0.04711277 -0.08856108 -0.015540709
-0.04469131 -0.065252036 0.080159724 -0.010788767 0.069473 0.053321585 0.10663052 0.0070893075
-0.09598985 -0.02089977 0.045930784 0.156406 -0.08282191 -0.016035862 -0.066981636 -0.19463484
0.0119931465 -0.08803825 0.060164496 -0.09307522 -0.12550467 0.13274732 -0.21520567 0.09533615
0.11212154 -0.1258211 -0.12098624 -0.0017578901 -0.078355476 0.093425296 0.03924344 0.019124875
0.2183043 -0.098112844 -0.18686554 -0.20212965 0.06746432 -0.2424018 0.13105015 0.01699465
0.11166006 -0.022645013 -0.20780058 -0.054084074 -0.14156178 -0.077201545 -0.05198149 -0.018551582
-0.20167544 -0.091667034 -0.111879416 0.14134777 -0.15042847 0.021556955 0.1240499 0.08729089
0.061281864 0.12781705 -0.07087977 0.0008378176 -0.07856247 0.15246136 0.039857056 0.09499105
0.12400872 -0.0796999 -0.10546081 0.0034403335 0.053750835 -0.19741267 -0.0086617535 -0.04203044
-0.032422375 0.06479127 -0.13681884 0.082459055 0.06307563 0.03793735 0.068684675 -0.069803596
0.12772557 -0.17462158 0.031203823 -0.09309186 0.08115819 -0.08311979 0.07984592 0.06311555
-0.1364468 0.027140368 0.067132935 -0.07593173 -0.037417304 -0.08200651 -0.047516573 0.05646065
0.03471462 -0.002307414 -0.01997096 0.091134906 0.076315515 0.08697853 -0.033562787 -0.021377338
-0.089690275 0.12869234 0.033587564 0.06391426 0.0009943044 -0.13110013 -0.14967611 0.108002916
0.0064260084 0.166457 0.11045418 -0.113913655 0.10386016 -0.058576684 -0.20605768 0.066528216
-0.090452194 0.12061062 0.11647875 -0.050604727 -0.03276652 0.15746485 -0.115045175 0.053478256
0.031844784 0.04018538 -0.102324426 0.17159247 -0.054461684 0.031513922 -0.17821407 -0.11404748
0.025059003 0.039377294 -0.14313799 -0.08389162 0.060429644 0.09941141 -0.060085528 0.033524476
0.015408176 0.18706231 -0.096606486 0.0070292815 0.041175153 -0.037562054 0.082408264 -0.023537403
0.08918826 0.0066565885 0.0008927278 0.074552014 -0.06818684 0.089683466 -0.08926309 -0.1334663
-0.10219236 0.11302541 0.105372004 -0.11535772 -0.087702736 -0.010448831 0.012229216 0.02611215
0.0035566615 0.009108452 -0.0129257 0.06378478 -0.056001622 0.073065564 -0.04918603 -0.09260999
0.10622456 -0.047017984 -0.031452127 0.17635947 0.16098388 -0.069996975 0.12276549 0.06406213
0.07003159 0.1574212 0.060142744 0.16973418 -0.10626907 0.03234068 -0.110294044 -0.19259112
-0.07711351 -0.0800744 -0.17807208 -0.07488883 -0.04409601 -0.034033116 0.037879515 0.071018994
-0.052113295 0.07904617 -0.043658398 -0.011219657 0.15526994 0.02942017 0.013368027 0.028537946
-0.027585456 0.08907594 -0.122979224 -0.08040645 0.14430614 0.1147048 -0.18076614 0.02573209
0.20138869 -0.094219916 0.052244175 0.039519466 0.13993347 0.08329368 0.080309 -0.018944416
0.115817904 0.022304282 -0.0013418884 0.14761753 -0.10810729 -0.03683384 0.05848392 -0.10899349
0.059884846 0.06321393 -0.108829744 0.06330584 -0.15946595 0.008882856 -0.027587416 0.06878869
-0.1337904 0.018557312 0.1280106 -0.07258786 -0.02241873 -0.030298533 -0.042896144 0.12966286
