logs/experiment/Discrete_acktr_10x10x10Bin_s42_inh_800_defaultBox-2022.08.19-23-47-51/PCT-Discrete_acktr_10x10x10Bin_s42_inh_800_defaultBox-2022.08.19-23-47-51_2022.08.19-23-59-01.pt (torch, 236314 bytes, 24 tensors)

actor.init_internal_node_embed.0.module.weight f4 [32, 6]
0	0xbdb4b53f	-0.088236324
1	0x3eaa1ef4	0.3322674
2	0x3da1bfad	0.078978874
3	0xbe8791ec	-0.26478517
4	0xbd0b3cef	-0.033993658
5	0xbc2452ae	-0.010029478
6	0x3e228d7c	0.15874285
7	0x3f043efc	0.51658607
8	0x3d70a4f9	0.05875108
9	0xbdadaffb	-0.08480831
10	0xbeb7c8bd	-0.3589534
11	0xbe5f7c5b	-0.21824782
12	0xbd328af0	-0.043589532
13	0x3d07a52c	0.033116505
14	0x3dc07fcf	0.093993776
15	0x3d88d1eb	0.06680664
16	0xbe78b748	-0.24288666
17	0x3d69bf68	0.057067305
18	0x3caab514	0.020838298
19	0x3e6bb8e5	0.2301975
20	0xbe38af80	-0.18035698
21	0x3e015bc2	0.12632659
22	0x3d8249a7	0.06361704
23	0x3f104f4d	0.56371003
24	0x3ed3eb94	0.4139067
25	0xbe632f71	-0.22186066
26	0x3e797597	0.24361263
27	0x3ec88534	0.39164126
28	0x3e7573a3	0.23969893
29	0x3ee1f9b8	0.44135833
30	0x3e4a7d22	0.19774297
31	0xbcbd3c6e	-0.023100104
32	0xbe856497	-0.26053306
33	0x3e91ba4a	0.2846244
34	0xbf0ad438	-0.5423007
35	0xbec5eb52	-0.38656098
36	0xbed3f85b	-0.41400418
37	0x3e7800d7	0.2421907
38	0x3ea124c4	0.31473362
39	0x3ea6507a	0.32483274
40	0xbeb64049	-0.3559592
41	0xbd347cb5	-0.044064242
42	0x3e550750	0.20803571
43	0xbd3eb87c	-0.046562657
44	0x3ec38958	0.38190722
45	0x3d1e4e8e	0.038649134
46	0xbf1cd74d	-0.6126602
47	0xbb659ffa	-0.003503798
48	0xbf0de69c	-0.55430007
49	0x3df3ce54	0.11904588
50	0xbea3a50f	-0.31961867
51	0x3eba60b1	0.36401895
52	0x3e39ca78	0.18143642
53	0x3e133eb0	0.14379382
54	0x3f1ae063	0.60498637
55	0x3cb4f77e	0.02209067
56	0xbe818345	-0.25295463
57	0x3f31d996	0.69472635
58	0x3e68f99b	0.22751467
59	0x3d039e24	0.032133237
60	0x3df62cac	0.12020239
61	0x3e836677	0.25664112
62	0xbddb1c55	-0.10698763
63	0x3d95949d	0.07303736
64	0x3e92a7d9	0.28643683
65	0xbeeaf3d2	-0.45889145
66	0xbe0e03ea	-0.1386868
67	0xbd737497	-0.05943736
68	0x3c5b6968	0.01339183
69	0xbd040e97	-0.032240476
70	0xbe5b8f20	-0.21441317
71	0xbb01ce14	-0.001980667
72	0x3f18db2d	0.59709436
73	0xbd932591	-0.071848996
74	0xbda88c63	-0.08229902
75	0x3ae671bb	0.0017581502
76	0xbe8244bf	-0.25443074
77	0xbd44f663	-0.048086535
78	0x3f0950e1	0.53639036
79	0x3e4e173c	0.2012605
80	0xbe43cc5c	-0.19120926
81	0xbe74da8c	-0.23911494
82	0x3e9b4ad5	0.3033053
83	0xbdb9cb94	-0.090720326
84	0x3d6e291a	0.058144666
85	0x3e6301f7	0.22168718
86	0xbf03df6c	-0.5151279
87	0xbdd93748	-0.10606247
88	0x3e0d58e6	0.13803443
89	0xbebe61fa	-0.37184125
90	0xbc7a79a5	-0.015287791
91	0xbe7c78d6	-0.2465547
92	0xbe82d3e2	-0.2555228
93	0xbd95b377	-0.07309621
94	0x3e22ad9d	0.1588654
95	0xbe997128	-0.29969144
96	0x3d86f830	0.06590307
97	0xbe4cce37	-0.2000054
98	0x3ed2507d	0.41077033
99	0xbf182620	-0.59433174
100	0x3e3e9d9a	0.18614808
101	0x3e4d2254	0.20032626
102	0xbc228bbe	-0.009921012
103	0x3d65ddc6	0.056119703
104	0x3e013fc5	0.12621982
105	0x3e55edba	0.20891467
106	0xbf00577e	-0.501335
107	0xbe81be71	-0.25340608
108	0xbc8bd14e	-0.017067578
109	0x3ba6100a	0.00506783
110	0xbe959911	-0.29218343
111	0x3cbe24cf	0.023210911
112	0x3d0a30bd	0.033737887
113	0xbd9cf7ba	-0.076644376
114	0x3e7f7f0e	0.24950811
115	0xbd82e0eb	-0.06390556
116	0x3b7cd075	0.0038576399
117	0xbe7ccb40	-0.24686909
118	0xbdc87795	-0.097884335
119	0x3d0f6396	0.035007082
120	0x3e935232	0.28773648
121	0x3f0208c8	0.5079465
122	0xbe271eb9	-0.16320314
123	0x3edf2da6	0.43589514
124	0x3e68465c	0.2268309
125	0xbea9c390	-0.33157015
126	0xbe2cfa42	-0.16892341
127	0xbd67baef	-0.05657476
128	0xbe1a7c44	-0.15086466
129	0x3e1018d1	0.14071967
130	0xbccff5f6	-0.025385838
131	0xbeaf1ee5	-0.34203258
132	0xbe5a967a	-0.21346465
133	0xbec2aa4d	-0.38020554
134	0xbeb41e81	-0.35179523
135	0x3ea7d703	0.32781228
136	0x3dddb891	0.10826219
137	0x3d8dc1cd	0.0692173
138	0xbd17b6bb	-0.0370395
139	0xbd437445	-0.047718305
140	0xbf1cd0b4	-0.61255956
141	0xbe3c3f22	-0.18383458
142	0xbe61b340	-0.22041035
143	0x3f1d2d71	0.61397463
144	0xbe7f603e	-0.24939057
145	0xbdf7ce9a	-0.12099953
146	0x3f2e245d	0.68024236
147	0x3e2f1c5e	0.17100665
148	0xbd815ea0	-0.063168764
149	0xbd8726da	-0.06599207
150	0xbd0e6ebb	-0.03477357
151	0x3e409487	0.18806659
152	0x3cf4f5df	0.029902397
153	0xbe7db872	-0.24777392
154	0xbe790077	-0.24316584
155	0x3e81b9dc	0.25337112
156	0xbddad48b	-0.106850706
157	0x3e6697d3	0.22518854
158	0xbe73b63e	-0.23799989
159	0xbb87dec5	-0.0041464292
160	0x3e9ceacd	0.3064789
161	0xbda75bc0	-0.08171797
162	0xbe4ac69c	-0.19802326
163	0xbcf6bbd6	-0.030118864
164	0x3f1a5f47	0.6030163
165	0xbe7dd9b6	-0.24790081
166	0x3e7c3a74	0.24631673
167	0x3e22b3aa	0.15888849
168	0xbe90d4e0	-0.2828741
169	0xbf2326b4	-0.6373093
170	0xbca6a720	-0.020343363
171	0x3da822ee	0.08209787
172	0x3c64847d	0.013947603
173	0xbe571340	-0.21003437
174	0xbea38a40	-0.31941414
175	0x3ea88bef	0.3291926
176	0x3e4a47b9	0.19753923
177	0xbe9e1ae3	-0.30879888
178	0x3d8c5ca6	0.06853609
179	0xbcbeee8b	-0.023307106
180	0x3e9b6ff8	0.30358863
181	0xbcf4e3fa	-0.029893864
182	0xbd7e11ef	-0.06202882
183	0xbbf39e20	-0.0074346215
184	0x3e0e453c	0.13893598
185	0xbf052adc	-0.52018523
186	0x3ea088bf	0.3135433
187	0x3e301d93	0.17198782
188	0xbed1f9cd	-0.41010895
189	0xbe30ef19	-0.17278709
190	0xbe13b4b2	-0.14424399
191	0x3e08066c	0.132837

actor.init_internal_node_embed.0.add_bias._bias f4 [32, 1]
0	0xbb46406e	-0.0030250805
1	0x3b95ae71	0.004567914
2	0xbc9a642f	-0.0188466
3	0x3d2fc194	0.04290922
4	0x3dc5d8c1	0.09660483
5	0xbbb6838e	-0.0055698818
6	0xbc9cbd55	-0.01913325
7	0xbafe7457	-0.0019413334
8	0x3c3b50f9	0.01143288
9	0x3de25091	0.11050523
10	0x3d1d0245	0.038332243
11	0x3ba539bf	0.0050422843
12	0x3ca1c78c	0.019748472
13	0x3c70aa5c	0.014689054
14	0xbc3f6136	-0.011680892
15	0xbb086a93	-0.0020815476
16	0x3b87acbd	0.004140465
17	0xba9c4763	-0.001192313
18	0xbbb687b1	-0.005570375
19	0x3baca6d3	0.0052689104
20	0x3cbf89a4	0.023381062
21	0xbb6eea60	-0.0036455616
22	0x3c239ad2	0.0099856425
23	0x3c205dd9	0.009788
24	0x3d663317	0.056201067
25	0x3bb327ac	0.0054673757
26	0xba9ce306	-0.0011969514
27	0xbb9277bd	-0.0044698403
28	0xba6cf7ef	-0.00090396305
29	0xbbfe88bc	-0.007767765
30	0xbc686496	-0.014184138
31	0xbb777cda	-0.0037763626

actor.init_internal_node_embed.2.module.weight f4 [64, 32]
0	0xbebeb8c7	-0.3725035
1	0x3e192be9	0.14958157
2	0xbe1d8892	-0.15384129
3	0x3e88476f	0.26617
4	0x3f309789	0.68981224
5	0x3da2426d	0.07922826
6	0x3d894670	0.06702888
7	0x3d784152	0.06060917
8	0xbe4a24bd	-0.19740577
9	0x3bc40f12	0.005983242
10	0xbe59cc6a	-0.21269384
11	0x3df2c79f	0.11854481
12	0xbdfa495e	-0.12221025
13	0xbdff8c84	-0.12477973
14	0x3ddd0b65	0.10793189
15	0xbe3d4a16	-0.18485293
16	0x3e763a05	0.2404557
17	0xbd4ebb1b	-0.050471406
18	0xbdd08641	-0.10181857
19	0x3e379577	0.1792811
20	0x3e76ea57	0.24112831
21	0xbe0d8185	-0.13818939
22	0xbe7a8bc8	-0.24467385
23	0xbe43abad	-0.19108458
24	0xbe85fa8c	-0.26167715
25	0x3ea3a0b1	0.31958535
26	0x3e224208	0.15845501
27	0x3e3700d2	0.17871407
28	0xbd86971b	-0.0657179
29	0xbe62157f	-0.22078513
30	0xbe62d6e1	-0.22152282
31	0x3e124319	0.14283408
32	0xbe016655	-0.12636693
33	0xbefb19c5	-0.49043098
34	0xbea1caf3	-0.3160015
35	0xbdcffd09	-0.101556845
36	0xbe5fb4cb	-0.21846311
37	0x3e74631c	0.23865932
38	0x3d1ece1f	0.03877079
39	0x3eb78e78	0.35850883
40	0xbdf2d996	-0.118579075
41	0xbe197f8a	-0.14990059
42	0x3d94ffae	0.072753295
43	0xbe25a40c	-0.1617586
44	0xbe04d7f7	-0.12973009
45	0xbd9d66c8	-0.076856196
46	0xbd054785	-0.03253891
47	0x3e32b097	0.17450176
48	0x3c993d82	0.018706087
49	0xbd91405e	-0.07092355
50	0xbe1908a3	-0.14944701
51	0xbe16daef	-0.14731954
52	0x3e1f07c2	0.15530303
53	0x3cdd3767	0.027003957
54	0x3db56522	0.0885718
55	0xbe882a10	-0.2659459
56	0x3e88e74c	0.26738966
57	0xbd14a802	-0.036293037
58	0xbd9e4218	-0.0772745
59	0x3e2f121e	0.17096755
60	0xbe8f8899	-0.28033903
61	0x3e82b5b3	0.2552925
62	0x3ecd2199	0.40064695
63	0xbc815292	-0.015786443
64	0x3eab87c7	0.33502027
65	0xbd5ca9a9	-0.053872738
66	0xbe0a5cae	-0.13511917
67	0x3e63dc21	0.22251941
68	0xbd8d2879	-0.06892485
69	0x3e875cbd	0.2643794
70	0xbe8ba262	-0.27272326
71	0xbe872d13	-0.26401576
72	0x3e413363	0.18867259
73	0x3e3f8909	0.18704619
74	0xbe192f50	-0.14959455
75	0xbe472df5	-0.19451125
76	0x3ed0af72	0.40758854
77	0xbe66e07b	-0.2254657
78	0xbb5ccdb2	-0.003369194
79	0xbb2c2593	-0.0026267513
80	0x3e451652	0.19246796
81	0x3dd750e7	0.10513478
82	0xbe7ded4a	-0.2479755
83	0x3ddadbe5	0.10686473
84	0xbeceaf9d	-0.40368357
85	0x3d1b4c3d	0.037914503
86	0x3de84351	0.113409646
87	0xbe6c1286	-0.23053941
88	0xbbc849e3	-0.0061123236
89	0xbe1eff2b	-0.15527026
90	0xbea556d2	-0.322928
91	0x3bc59b83	0.0060305013
92	0xbd6e774f	-0.05821925
93	0xbc8c2d5f	-0.017111478
94	0x3e69d833	0.2283638
95	0x3ddeddb8	0.10882133
96	0x3c3bedf4	0.011470307
97	0x3edae31e	0.42751402
98	0xbda8bd89	-0.08239276
99	0x3e13c6d3	0.14431314
100	0x3eca3dfa	0.3950041
101	0xbdc90598	-0.0981552
102	0xbe98bb2c	-0.298303
103	0x3d853784	0.065047294
104	0x3c377506	0.011197334
105	0x3c3128f3	0.010812986
106	0xbccfd052	-0.02536789
107	0x3ecc8db1	0.39951852
108	0xbe3a9a1f	-0.18222855
109	0xbbe773db	-0.0070633716
110	0xbda455e3	-0.08024194
111	0xbe2d3245	-0.16913708
112	0xbd1e623c	-0.038667902
113	0xbe4fcb75	-0.20292456
114	0xbc40e198	-0.011772536
115	0xbe5d0acf	-0.21586154
116	0xbc9e5f12	-0.019332442
117	0x3cc7a380	0.024369955
118	0x3e933c2b	0.28756842
119	0x3e0d56db	0.13802664
120	0xbe9e9e14	-0.3097998
121	0x3e12b2a8	0.14325964
122	0x3e27ad00	0.16374588
123	0x3e573f7d	0.21020313
124	0x3e196a55	0.14981969
125	0x3e41d8a6	0.18930301
126	0x3e4a0138	0.19727027
127	0x3d826c01	0.06368256
128	0xbe82fd25	-0.2558376
129	0x3e085c49	0.13316454
130	0x3e43520b	0.19074266
131	0x3dbdc403	0.09265902
132	0xbe01aef5	-0.12664397
133	0xbc14d028	-0.009082831
134	0xbdc45556	-0.09586589
135	0x3d896173	0.0670804
136	0xbcf4d640	-0.029887319
137	0x3e3dd1c5	0.18537052
138	0x3e5533fb	0.2082061
139	0xbe2f9162	-0.17145303
140	0xbccdf049	-0.025138991
141	0x3e432dee	0.1906049
142	0xbd53e79a	-0.051734544
143	0xbc971b67	-0.018445684
144	0x3d82feb9	0.06396241
145	0x3de6ce53	0.11269822
146	0xbdd20bee	-0.10256182
147	0xbe21f326	-0.1581541
148	0x3d0c1ecd	0.03420906
149	0x3d55a66e	0.052160673
150	0x3ebb1fb7	0.36547634
151	0xbdf19610	-0.117962
152	0xbd3cb421	-0.04607022
153	0x3dd959c1	0.10612822
154	0x3e0788f5	0.13235839
155	0xbcde77de	-0.027156767
156	0x3e96a4a7	0.29422495
157	0xbd5598ec	-0.05214779
158	0x3d3d9e61	0.04629362
159	0xbddfaea1	-0.1092198
160	0x3d38da89	0.045130286
161	0x3dda1169	0.10647852
162	0xbd368de6	-0.04456892
163	0x3df15eca	0.11785658
164	0x3daa118e	0.083041295
165	0xbd6facc6	-0.05851438
166	0x3e931ef3	0.2873455
167	0xbeafdadd	-0.34346667
168	0x3d27f566	0.041005515
169	0x3e50f17d	0.2040462
170	0x3f08a8fc	0.5338285
171	0x3dfad82a	0.12248261
172	0x3e46aa80	0.19400978
173	0xbdfe7386	-0.12424378
174	0x3e9c3511	0.30509236
175	0xbc9ff789	-0.019527214
176	0xbe21b428	-0.1579138
177	0xbd44fe7a	-0.04809425
178	0x3e3f79c6	0.18698797
179	0xbd08bcf0	-0.03338331
180	0x3dec3f43	0.11535504
181	0xbdbf1979	-0.093310304
182	0xbdc39b1d	-0.0955107
183	0x3c8a0e27	0.016852451
184	0x3e343fb5	0.17602427
185	0xbca99056	-0.020698708
186	0xbe4f424e	-0.20240137
187	0xbeb857d1	-0.360045
188	0xbc92d873	-0.017925477
189	0xbc03fc3e	-0.008055745
190	0x3e33b149	0.17548098
191	0xbd3fafb0	-0.046798408
192	0xbdc20253	-0.094730996
193	0xbe8cb784	-0.2748376
194	0xbe16278d	-0.14663525
195	0x3d90a11b	0.070619784
196	0x3e1255b2	0.14290503
197	0x3c05a660	0.008157343
198	0xbd83bd42	-0.064325824
199	0xbd8292fe	-0.06375693
200	0xbe540efa	-0.20708838
201	0x3f009444	0.50226235
202	0xbed7a9df	-0.4212179
203	0x3ded2065	0.115784444
204	0x3e5e22ac	0.21692914
205	0x3d1a1415	0.037616808
206	0x3d0b9145	0.034074087
207	0xbd510b7c	-0.051036343
208	0xbdd52d79	-0.10409064
209	0xbe85ec7d	-0.2615699
210	0x3e5668ea	0.20938459
211	0x3e3269a9	0.17423119
212	0x3cb03a10	0.021512061
213	0x3dc724fa	0.097238496
214	0xbdba6593	-0.09101405
215	0x3e3f8d74	0.18706304
216	0xbf28c0b7	-0.6591906
217	0xbe256ad1	-0.16154028
218	0x3d613065	0.054977793
219	0x3d4b20cf	0.049591836
220	0x3cf71b80	0.03016448
221	0x3e756ca1	0.2396722
222	0xbe9ac7f5	-0.3023068
223	0xbe7d60e6	-0.24743995
224	0x3ea8e01e	0.32983488
225	0x3ea6ea2e	0.3260054
226	0x3e6b0dac	0.22954434
227	0xbe61cbd0	-0.22050405
228	0xbe10da44	-0.14145762
229	0x3e07c457	0.13258491
230	0x3e9ccd0a	0.30625182
231	0x3dfbf568	0.12302667
232	0xbf01d50f	-0.50715727
233	0xbecfd5c0	-0.40592766
234	0x3d75b868	0.059990317
235	0xbdee73c6	-0.11643176
236	0x3eeaf5a1	0.45890525
237	0xbe48472e	-0.19558403
238	0xbd150a3c	-0.036386713
239	0x3d514107	0.051087406
240	0xbddc969d	-0.10770915
241	0xbc692f55	-0.014232476
242	0xbce1cc28	-0.02756317
243	0xbd154bc8	-0.036449224
244	0xbe4bcf03	-0.19903187
245	0xbd47a709	-0.04874328
246	0x3e0bba8e	0.13645384
247	0xbd492814	-0.049110487
248	0x3e9a1517	0.30094215
249	0xbdb1bdf8	-0.08678812
250	0x3cccce57	0.025000734
251	0xbe6ec711	-0.23318125
252	0x3d98a5b7	0.074534826
253	0x3e2a4f06	0.16631708
254	0xbeb74a50	-0.35798883
255	0xbd753f97	-0.059875097

actor.init_internal_node_embed.2.add_bias._bias f4 [64, 1]
0	0xbacbb184	-0.0015540575
1	0xbd06f22a	-0.03294579
2	0x3d4cba1a	0.049982168
3	0x3cceee04	0.02525998
4	0x3a931b52	0.0011223352
5	0x3d122ae7	0.035685446
6	0xbcb5c4ae	-0.02218851
7	0x3d18e198	0.037324518
8	0xbd1ef373	-0.03880639
9	0xbce84faf	-0.028358309
10	0xbc7c5c59	-0.015402877
11	0xbd24cf95	-0.04023703
12	0xbcc72425	-0.024309227
13	0xbd6cbdd7	-0.057798233
14	0xbd5d5750	-0.054038346
15	0x3bda5eed	0.006664148
16	0x3dad16f5	0.08451644
17	0xbb2913ff	-0.0025799272
18	0xbcbca825	-0.023029396
19	0xbd6f86e5	-0.058478255
20	0x3be5a1c2	0.0070078084
21	0x3c9477b6	0.018123489
22	0x3cb33926	0.021877836
23	0x3db7c054	0.089722306
24	0x3ad1fef0	0.0016021412
25	0xbd9d65a0	-0.07685399
26	0x3ccd33de	0.025049146
27	0x3d91f19a	0.0712616
28	0x3d458e3c	0.04823135
29	0xbc907c14	-0.01763729
30	0x3dccf43e	0.10007523
31	0x3cbac599	0.0227993
32	0xbc2429af	-0.010019704
33	0xbd489056	-0.048965774
34	0xbd31d7fe	-0.043418877
35	0xbc072c56	-0.008250317
36	0x3c708e82	0.014682414
37	0xbd3f1ccf	-0.046658333
38	0x3d9ac7d1	0.07557643
39	0x3d55ad0e	0.05216699
40	0xbdb7fe25	-0.08984021
41	0x3caafe5a	0.020873237
42	0x3dad9a87	0.084767394
43	0x3c9b55aa	0.018961746
44	0x3c5a84d7	0.013337336
45	0xbd260142	-0.040528543
46	0x3d1acad5	0.037791092
47	0x3dd682c5	0.10474161
48	0xbc1c7667	-0.009549714
49	0xbce4a00c	-0.027908348
50	0x3d7f57f0	0.062339723
51	0x3d295885	0.041344184
52	0xbd397465	-0.045277018
53	0xbd2fcf68	-0.042922407
54	0xbd712079	-0.05886886
55	0x3d783bf4	0.06060405
56	0x3d0f2499	0.03494701
57	0xbc3dbbd2	-0.011580424
58	0x3c8839d1	0.016629132
59	0xbd2b90c1	-0.041886095
60	0xbc002339	-0.007820898
61	0x3c3dee64	0.011592481
62	0xbc847eb8	-0.016173705
63	0x3d090419	0.033451173

actor.init_leaf_node_embed.0.module.weight f4 [32, 8]
0	0xbe554de2	-0.20830491
1	0xbeb72ce3	-0.35776433
2	0x3e544b4c	0.20731848
3	0x3e68c699	0.22732009
4	0x3d6b16d4	0.057394817
5	0x3efa20c5	0.48853126
6	0xbeaa8fd6	-0.33312863
7	0xbe9ec33f	-0.31008336
8	0xbee94c81	-0.4556618
9	0xbdf98e02	-0.12185289
10	0x3ec4328d	0.38319817
11	0xbd1a4544	-0.037663713
12	0x3e5b8871	0.21438767
13	0xbe5a52f3	-0.21320705
14	0x3e7a8d96	0.24468073
15	0xbd580493	-0.052738737
16	0x3bc49f84	0.006000461
17	0x3d9fb450	0.07798064
18	0xbe931dbb	-0.2873362
19	0xbd2cf512	-0.042225905
20	0xbe4a31d6	-0.19745573
21	0xbe26eb4c	-0.16300696
22	0x3da20166	0.07910423
23	0xbdc565b7	-0.09638541
24	0xbea78612	-0.32719475
25	0x3d950f90	0.07278359
26	0x3e81e04b	0.25366434
27	0xbde82a09	-0.113361426
28	0x3e9112c7	0.28334638
29	0x3d78c41a	0.060733892
30	0xbe807c13	-0.2509466
31	0x3c49a0db	0.012306417
32	0xba3358f1	-0.00068415614
33	0xbf0f181c	-0.55896163
34	0x3ebe2bc2	0.3714276
35	0xbd93dd64	-0.07219961
36	0xbdab421a	-0.08362217
37	0x3c5eff40	0.013610661
38	0xbe2a2d86	-0.16618928
39	0x3e11bb19	0.14231528
40	0xbeb2336d	-0.3480486
41	0xbd06e29c	-0.032930955
42	0xbe857e31	-0.2607284
43	0x3e2d52b6	0.16926083
44	0xbe0248da	-0.12723103
45	0x3dedbd9e	0.11608432
46	0xbe2bc03e	-0.16772553
47	0x3c305a66	0.01076374
48	0xbe888aff	-0.26668546
49	0x3e531a1d	0.2061543
50	0xbdbb5295	-0.09146611
51	0x3dd34c0e	0.10317241
52	0xbdefc0cc	-0.11706695
53	0xbe0433a5	-0.12910326
54	0x3d39b39e	0.045337312
55	0x3e272892	0.1632407
56	0x3e541c1c	0.20713848
57	0x3e3dd708	0.18539059
58	0x3eb6a34c	0.3567146
59	0xbdf2463f	-0.11829805
60	0xbe09c78c	-0.13455027
61	0xbd1ebfcd	-0.038757134
62	0xbf28dfc2	-0.6596643
63	0xbda8287b	-0.08210846
64	0xbcccbb5a	-0.02499168
65	0x3e0aef9a	0.13567963
66	0x3dd71ee7	0.10503941
67	0x3d8a06fb	0.06739613
68	0x3d65eec3	0.056135904
69	0x3ea027ae	0.31280273
70	0x3d572fa0	0.052535653
71	0x3d325c6a	0.043545164
72	0xbef5eea6	-0.48033637
73	0xbe05eaa4	-0.1307779
74	0x3d8d38bd	0.068955876
75	0x3d9f350f	0.07773792
76	0x3eb5876f	0.3545489
77	0xbe5802da	-0.21094838
78	0xbad75de5	-0.0016431181
79	0xbf045fb9	-0.5170856
80	0xbed74225	-0.42042652
81	0x3d91d607	0.071209006
82	0xbeb10300	-0.345726
83	0xbe064ae8	-0.13114512
84	0x3eef6de8	0.4676354
85	0x3e8b01ac	0.27149713
86	0xbe6b215b	-0.22961943
87	0xb9ff5db4	-0.00048707204
88	0x3e0cbd20	0.1374402
89	0xbd593016	-0.053024374
90	0x3ea2cea2	0.31798273
91	0xbe54c654	-0.20778781
92	0xbc9462a1	-0.018113436
93	0xbe855976	-0.26044816
94	0x3ed63eeb	0.41844878
95	0x3c589429	0.013218918
96	0xbe72cb7f	-0.2371044
97	0xbe2a9863	-0.16659693
98	0x3ebfef1d	0.37487116
99	0x3ee07af4	0.43843806
100	0x3e7c55fe	0.24642178
101	0x3dcbaf2d	0.099455215
102	0x3eaddf4a	0.3395942
103	0x3ede361e	0.43400663
104	0x3e080c09	0.13285841
105	0x3e9e7ca8	0.3095448
106	0x3e7a2fb6	0.24432263
107	0xbd419841	-0.04726434
108	0xbeefc664	-0.46831048
109	0xbd21cc3e	-0.03950142
110	0xbd4a4e3f	-0.049391028
111	0xbe6574eb	-0.22407882
112	0x3ea0189d	0.31268778
113	0x3eb6fb39	0.35738543
114	0x3da04c4d	0.07827053
115	0x3f0d57d5	0.55212146
116	0x3e0a01bc	0.13477224
117	0x3bc42bdb	0.0059866733
118	0x3e0a5020	0.13507128
119	0x3e1de216	0.15418276
120	0x3d36ed81	0.044660095
121	0xbdb42fd7	-0.08798187
122	0xbd799464	-0.060932532
123	0x3e4b2739	0.19839181
124	0xbe23869b	-0.15969317
125	0x3e98c0c6	0.29834574
126	0x3d2dd38d	0.04243808
127	0x3e31aeab	0.17351787
128	0x3e64db7f	0.22349356
129	0x3ea7d2b5	0.32777944
130	0xbd9ee404	-0.07758334
131	0xbf028b9a	-0.50994265
132	0x3cfcf3ac	0.03087791
133	0xbea600ff	-0.32422635
134	0xbe6385f7	-0.22219072
135	0x3e2df6ad	0.1698863
136	0xbea684bc	-0.32523143
137	0x3e91c2d8	0.28468966
138	0xbeb4132d	-0.3517088
139	0x3eead408	0.45864892
140	0xbe23c1f1	-0.15991952
141	0xbdd4c58f	-0.10389244
142	0xbe57f078	-0.21087825
143	0x3e62f2e2	0.22162965
144	0x3d76446a	0.06012384
145	0xbb1eba12	-0.0024219793
146	0xbf0b4283	-0.54398364
147	0xbe250389	-0.1611463
148	0x3e8065b7	0.25077602
149	0x3ec2b9b6	0.3803231
150	0x3dbf1158	0.0932948
151	0xbe2351b9	-0.15949143
152	0xbe306704	-0.17226797
153	0xbca7073f	-0.020389197
154	0xbee2d5bb	-0.44303688
155	0xbd317f67	-0.04333439
156	0xbe242453	-0.16029482
157	0xbe93b23e	-0.28846925
158	0x3e7f3e86	0.24926195
159	0xbd9f62ca	-0.077825144
160	0x3e593c20	0.21214342
161	0x3d8e40cc	0.06945953
162	0x3e51264b	0.20424764
163	0x3ebfa781	0.37432483
164	0x3ed9aa04	0.42512524
165	0xbd4edca2	-0.05050338
166	0x3e967276	0.29384202
167	0xbd9ca4ad	-0.07648597
168	0xbe6acedb	-0.22930472
169	0x3ef8d793	0.4860197
170	0x3e15e0ab	0.14636485
171	0xbe89e71b	-0.26934132
172	0x3e96f6bf	0.29485127
173	0xbe6fb4fb	-0.23408882
174	0xbd2b2cd0	-0.041790783
175	0x3e497a85	0.19675644
176	0x3e1b9f2a	0.15197435
177	0xbed0885c	-0.40729034
178	0xbe381466	-0.17976531
179	0xbeaf015f	-0.34180734
180	0x3ec77c19	0.38961866
181	0xbc19e99f	-0.0093940785
182	0x3ee1fd12	0.4413839
183	0x3e6b1c0d	0.2295992
184	0xbca90941	-0.020634295
185	0x3f02d3fa	0.511047
186	0x3e59c5e8	0.21266901
187	0xbf07e673	-0.5308601
188	0xbdac13f8	-0.08402246
189	0x3f139424	0.5764792
190	0x3e0fddac	0.14049405
191	0x3eca3e11	0.39500478
192	0xbe24acb1	-0.16081502
193	0xbea5daa8	-0.32393384
194	0xbdf7ccaf	-0.12099587
195	0xbe0d0ccc	-0.13774413
196	0x3e3a83d6	0.18214354
197	0xbe602b68	-0.21891558
198	0xbd9ad55e	-0.07560228
199	0x3f164fca	0.587155
200	0x3e0bc8a9	0.13650765
201	0xbdc99e5f	-0.0984466
202	0xbe58c71f	-0.21169709
203	0x3e2e6e5a	0.17034283
204	0xbebb7fdf	-0.36620995
205	0xbca7dc92	-0.020490918
206	0xbba22c9e	-0.0049491664
207	0x3eba25cf	0.3635697
208	0xbe646f8e	-0.2230818
209	0x3e36c165	0.17847212
210	0x3e4cb4df	0.19990872
211	0xbe698714	-0.22805434
212	0xbee694a3	-0.45035276
213	0xbcc5e4b9	-0.024156915
214	0x3ed00bb9	0.40633944
215	0xbe4412b1	-0.19147755
216	0xbde7cab5	-0.1131796
217	0x3e889e17	0.26683113
218	0x3e8675a7	0.26261637
219	0x3dfce309	0.12347991
220	0xbdf508e0	-0.119645834
221	0x3ef78cfb	0.48349747
222	0x3e9c5c65	0.3053924
223	0xbe43dc15	-0.19126923
224	0x3d4bc159	0.049744938
225	0xbca808a6	-0.020511936
226	0x3eae0bc5	0.33993354
227	0xbe089aab	-0.13340251
228	0xbde30fe8	-0.11087018
229	0xbf014dcb	-0.5050933
230	0xbe763860	-0.24044943
231	0xbdb8e0d6	-0.09027259
232	0x3eb2658d	0.34843102
233	0x3e850b3f	0.25985143
234	0xbe6ec3af	-0.23316835
235	0x3e2a59df	0.16635846
236	0x3efcbd4e	0.49363178
237	0xbd2e401c	-0.04254161
238	0x3e24cd73	0.16093998
239	0xbeff4f62	-0.49865252
240	0x3d69e494	0.057102755
241	0xbebaa3af	-0.36453006
242	0xbe3ac624	-0.18239647
243	0xbeb96eba	-0.3621729
244	0xbe913379	-0.28359583
245	0x3ecd54eb	0.4010385
246	0x3da3479b	0.07972642
247	0xbe803a76	-0.25044602
248	0xbee6ba08	-0.45063806
249	0x3d11b765	0.03557529
250	0xbe7bf9d4	-0.2460702
251	0xbd889c15	-0.06670395
252	0xbe99e3ad	-0.30056515
253	0xbdcd36d4	-0.10020223
254	0x3e8df06b	0.27722487
255	0xbe5503b2	-0.20802191

actor.init_leaf_node_embed.0.add_bias._bias f4 [32, 1]
0	0x3dbd8db9	0.09255547
1	0x3af21ed6	0.0018472325
2	0xbbd97053	-0.0066357045
3	0x3cef8fff	0.029243467
4	0x3ca43e3d	0.020049209
5	0xbd8ffbf6	-0.070304796
6	0x3bdf02a8	0.0068057366
7	0x3aa83e61	0.0012835973
8	0xbd01e173	-0.031709146
9	0x3ca8b396	0.020593446
10	0x3cac3990	0.021023542
11	0x3b807ac8	0.0039208867
12	0x3e139c06	0.14414987
13	0x3bff7a02	0.007796527
14	0x3ddaf7b5	0.106917776
15	0xbcc8d89a	-0.024517346
16	0x3c632af5	0.013865222
17	0xbd1b4107	-0.03790381
18	0xbdb571a5	-0.088595666
19	0xbbbc5912	-0.0057479227
20	0xbd4b215c	-0.04959236
21	0xbbb79eca	-0.005603646
22	0x3c6ba8b5	0.014383485
23	0xbd62d3d4	-0.055377796
24	0xbd21dc30	-0.039516628
25	0xbbee8151	-0.0072785993
26	0xbbc99355	-0.0061515965
27	0x3dade4cc	0.08490905
28	0xbd5a776b	-0.053336542
29	0x3dc37354	0.095434815
30	0xbaee36af	-0.0018174256
31	0x3d2940e1	0.04132164

actor.init_leaf_node_embed.2.module.weight f4 [64, 32]
0	0xbb524489	-0.0032084307
1	0xbe8d06e0	-0.27544308
2	0xbe8ea445	-0.27859703
3	0xbe4be2bd	-0.19910713
4	0x3e03ac8c	0.1285879
5	0x3dbfe312	0.09369482
6	0x3dbe8964	0.09303549
7	0xbd1bf761	-0.038077716
8	0x3da2975f	0.07939028
9	0x3d6349ad	0.055490185
10	0x3e4f0e4b	0.20220296
11	0xbe8e78fb	-0.27826676
12	0xbe8b6598	-0.27225947
13	0x3c6bc5da	0.014390433
14	0xbeb8eac4	-0.36116612
15	0xbcc9d366	-0.024636935
16	0x3e54f834	0.20797807
17	0x3d2f9634	0.042867854
18	0x3c68525d	0.014179793
19	0xbde972ce	-0.113988504
20	0x3d0b3c2e	0.03399294
21	0xbe4eb1b1	-0.20184971
22	0x3e88b610	0.26701403
23	0x3e611c85	0.21983536
24	0x3daac6b6	0.08338682
25	0xbe72c86f	-0.23709272
26	0xbddc6a29	-0.10762436
27	0x3b7c85c4	0.003853188
28	0x3e0c45c3	0.13698487
29	0x3cc531f5	0.024071673
30	0x3cb026d3	0.021502888
31	0xbd07d680	-0.033163548
32	0xbd49cec0	-0.049269438
33	0x3e26d56f	0.16292356
34	0x3d270dbf	0.040784594
35	0x3d495bbe	0.049159758
36	0x3c4cc3ae	0.012497826
37	0x3dc49a97	0.09599798
38	0x3dec1290	0.11526978
39	0xbdade7f2	-0.08491506
40	0xbe48484c	-0.19558829
41	0xbe8a9ea8	-0.2707417
42	0x3ed3672c	0.4128965
43	0xbcca63aa	-0.024705727
44	0xbdc09821	-0.09404016
45	0x3de6dd02	0.11272623
46	0x3e06d96d	0.13168879
47	0xbe984e6b	-0.29747328
48	0xbddaf4d1	-0.10691226
49	0xbdb67ec8	-0.089109
50	0xbe04da72	-0.12973955
51	0xbe463bd1	-0.19358756
52	0xbd20fd45	-0.039304037
53	0xbe1cefc4	-0.15325838
54	0x3de46ab0	0.111531615
55	0xbe2427d2	-0.16030815
56	0xbec7a98b	-0.3899654
57	0xbe1e1fb7	-0.15441786
58	0xbbc36492	-0.0059629166
59	0x3e204263	0.15650325
60	0xbe86b520	-0.26310062
61	0xbe362c62	-0.17790368
62	0x3d66f1ec	0.05638306
63	0x3ebd0226	0.36915702
64	0x3e3c1d80	0.18370628
65	0x3d0a3216	0.033739172
66	0xbe0bff5a	-0.13671628
67	0xbd58216d	-0.052766252
68	0x3e2fd054	0.17169315
69	0xbdd94c9d	-0.10610316
70	0xbdcb6a0b	-0.099323355
71	0xbcfdbb4a	-0.030973095
72	0xbedd70a8	-0.43250012
73	0xbda74a41	-0.0816846
74	0xbee7e20c	-0.45289648
75	0xbe2b8a4b	-0.16751973
76	0xbea75754	-0.32683814
77	0x3d876df2	0.06612767
78	0x3e84fddc	0.2597493
79	0xbe4c4946	-0.19949827
80	0xbdadbb95	-0.08483044
81	0x3e6ae148	0.229375
82	0xbeb8adb5	-0.36070028
83	0xbdf73b68	-0.12071878
84	0xbd1838fe	-0.037163727
85	0xbc6d6472	-0.01448928
86	0x3d37628c	0.044771716
87	0xbe104eb8	-0.14092529
88	0xbcb5a448	-0.022173062
89	0xbc9c73dc	-0.019098215
90	0xbdccc765	-0.09998969
91	0xbdc49ec9	-0.09600598
92	0xbe50f1d1	-0.20404746
93	0xbda6d85c	-0.08146736
94	0x3dbfe7a0	0.09370351
95	0x3e251594	0.16121513
96	0xbe07f706	-0.13277826
97	0x3e414267	0.18872987
98	0x3e39c1ef	0.18140386
99	0x3df797a2	0.120894685
100	0x3e36346c	0.17793435
101	0x3db6d8c5	0.08928064
102	0xbd429791	-0.047507826
103	0x3d84391d	0.06456206
104	0x3dc2b43f	0.095070355
105	0xbd01f36e	-0.031726293
106	0xbe213396	-0.15742335
107	0x3e812473	0.2522312
108	0xbe9e85a6	-0.3096134
109	0x3d8d8cb9	0.06911606
110	0xbdd04c0c	-0.10170755
111	0x3e7619d5	0.24033292
112	0xbdc4626b	-0.09589084
113	0x3ee822ff	0.453392
114	0xbded03fb	-0.11573025
115	0xbcb2f0c9	-0.021843331
116	0x3dce23f0	0.10065448
117	0x3e29a8c5	0.16568287
118	0xbe58d2e6	-0.21174201
119	0x3e3bf3c2	0.18354705
120	0x3d1385f2	0.036016412
121	0x3d91716b	0.07101711
122	0x3e33dd47	0.1756488
123	0x3e395905	0.18100365
124	0x3e98cf36	0.2984559
125	0x3c7002b4	0.014649082
126	0x3e6234be	0.22090432
127	0x3e21586c	0.15756387
128	0xbd604646	-0.054754518
129	0xbc622abd	-0.013804135
130	0x3d72f24d	0.059313107
131	0x3d6b58cd	0.057457734
132	0x3e6cc55a	0.23122159
133	0xbecb8d3f	-0.397562
134	0x3e76df9b	0.24108736
135	0xbddc831f	-0.10767197
136	0x3dbd0568	0.09229547
137	0x3dd288b4	0.1027998
138	0xbd321791	-0.043479506
139	0xbeb93acf	-0.3617768
140	0xbdf7132b	-0.12064203
141	0x3e7493a4	0.23884445
142	0x3e265f92	0.16247395
143	0xbe14d75b	-0.14535277
144	0xbedd12e6	-0.4317848
145	0xbe036ef2	-0.12835291
146	0x3eaa073a	0.33208638
147	0x3dee8377	0.11646169
148	0xbe8c78f6	-0.27436036
149	0x3e2c3d20	0.16820192
150	0xbca84c8c	-0.020544313
151	0x3d1f270d	0.0388556
152	0xbe090013	-0.13378935
153	0x3cf9f987	0.030514492
154	0xbe300e08	-0.17192852
155	0x3e93f222	0.2889567
156	0x3e7730f3	0.24139766
157	0x3dc28ca3	0.094994806
158	0x3cccd7bd	0.025005216
159	0xbe482288	-0.19544423
160	0x3db042a2	0.08606459
161	0xbcb5bd43	-0.022184974
162	0xbe3d594f	-0.184911
163	0x3d89b92d	0.067247726
164	0xbe20be7a	-0.15697661
165	0xbd314c23	-0.0432855
166	0x3eb2eb3b	0.34945092
167	0xbea4f212	-0.32215935
168	0x3cd36799	0.025806235
169	0x3dfa04f2	0.122079745
170	0xbe2eb8ac	-0.17062634
171	0x3e94d114	0.29065764
172	0x3eff27a5	0.49834934
173	0x3c79f0fa	0.015255207
174	0x3ebac26d	0.3647646
175	0xbe4eabc1	-0.20182706
176	0x3e0bb571	0.13643433
177	0x3a36e620	0.00069770403
178	0xbe3ab10f	-0.18231605
179	0xbe36a153	-0.17834978
180	0x3e0bac90	0.13640046
181	0xbdffa895	-0.12483326
182	0xbd18f69d	-0.037344564
183	0x3e9ed38d	0.31020775
184	0x3da6e621	0.08149362
185	0xbdb64833	-0.0890049
186	0xbd9a0410	-0.07520306
187	0x3da8db90	0.08245003
188	0xbe2d9d4a	-0.16954532
189	0x3e3678a7	0.17819463
190	0x3e727a74	0.23679525
191	0xbdce941b	-0.100868426
192	0x3e89a69c	0.26884925
193	0xbe95f58f	-0.2928891
194	0xbd697294	-0.056994036
195	0xbb811dbc	-0.003940312
196	0xbe29eca6	-0.1659418
197	0xbdea396c	-0.114367336
198	0x3e1a8717	0.15090595
199	0xbce30593	-0.027712619
200	0x3ded4de9	0.11587126
201	0xbdb166b5	-0.08662168
202	0x3e74de7d	0.23912998
203	0x3e3592b2	0.17731741
204	0x3cde739e	0.02715474
205	0x3e05c544	0.13063532
206	0xbe48a683	-0.19594769
207	0xbdb75899	-0.089524455
208	0xbee22752	-0.44170624
209	0x3ea14304	0.3149644
210	0x3e3d0a77	0.18461023
211	0x3db06898	0.086137
212	0xbd9250a5	-0.07144288
213	0x3d80eb14	0.062948376
214	0xbdeda477	-0.11603635
215	0x3d4c09d6	0.049814068
216	0x3d1139ff	0.0354557
217	0x3c2eeff7	0.010677329
218	0xbd93d34f	-0.07218038
219	0xbcdecb8d	-0.02719667
220	0xbe123b28	-0.14280379
221	0x3e84d1b7	0.2594125
222	0xbda13019	-0.07870502
223	0xbd907bf7	-0.070548944
224	0xbe035354	-0.12824756
225	0x3d7eaf4d	0.0621789
226	0xbdf24905	-0.118303336
227	0xbe8a4f7b	-0.27013764
228	0x3e0784fb	0.13234322
229	0xbe13281f	-0.14370774
230	0xbe5f838f	-0.2182753
231	0xbec0d2b9	-0.3766077
232	0x3e2015bc	0.15633291
233	0xbe2970af	-0.16546892
234	0x3e3215e0	0.17391157
235	0x3c342fa8	0.01099769
236	0x3e37a5d1	0.17934348
237	0x3df9f51f	0.12204956
238	0xbd1989d9	-0.037484977
239	0x3df01f29	0.11724693
240	0xbe603044	-0.21893412
241	0xbcfabeb0	-0.030608505
242	0xbea96637	-0.33085796
243	0xbe321fef	-0.17394994
244	0x3dd0ddef	0.101985805
245	0x3ea9c237	0.33155987
246	0x3cd53f58	0.026031181
247	0xbdc8ef95	-0.09811322
248	0xbd30c63d	-0.043157805
249	0x3e4bc003	0.19897465
250	0x3e452e2b	0.19255893
251	0x3e43aca7	0.1910883
252	0xbef98795	-0.48736253
253	0x3e80d95b	0.2516583
254	0x3e4db42c	0.20088261
255	0xbe58b4e8	-0.2116276

actor.init_leaf_node_embed.2.add_bias._bias f4 [64, 1]
0	0xbdcb583d	-0.099289395
1	0xbd84c719	-0.06483287
2	0xbc18bda5	-0.0093225585
3	0xbd2db0c9	-0.042404924
4	0x399ed197	0.00030292265
5	0x3e7ecfe1	0.24883987
6	0x3d4d13b8	0.050067633
7	0x3dc5e2d6	0.09662406
8	0xbcc18e62	-0.023627464
9	0x3d92cb92	0.07167734
10	0xbdfaab2c	-0.1223968
11	0x3e61735d	0.22016664
12	0xbd63b01c	-0.055587873
13	0xbe743f49	-0.23852266
14	0xbf0440f5	-0.51661617
15	0xbcb0109c	-0.021492295
16	0xbda7860a	-0.08179863
17	0x3e0f58c7	0.1399871
18	0xbe4ad462	-0.1980758
19	0xbd6a25bc	-0.057164893
20	0xbe19df54	-0.15026599
21	0x3e08554d	0.1331379
22	0x3d6b9cec	0.0575227
23	0x3e53988e	0.20663664
24	0xbd1aa004	-0.03775026
25	0x3e46786d	0.19381876
26	0xbe3eb3fc	-0.18623346
27	0x3dc0560e	0.09391414
28	0xbda0fef8	-0.078611314
29	0xbe4f0e25	-0.2022024
30	0x3e118bd7	0.14213501
31	0xbdb6670b	-0.08906373
32	0xbe11f812	-0.14254788
33	0xbcbd23da	-0.023088384
34	0xbe1db530	-0.15401149
35	0x3e019128	0.12653029
36	0xbe06038e	-0.13087294
37	0xbcbcae57	-0.02303235
38	0xbcd8e2fe	-0.026475426
39	0xbda5b373	-0.08090868
40	0xbe49c0b3	-0.19702415
41	0x3d85ddbd	0.06536434
42	0xbc8b95c1	-0.017039182
43	0xbe14c252	-0.14527252
44	0x3d7c1051	0.061538998
45	0xbb3d96c6	-0.002892898
46	0x3d3b1501	0.045674328
47	0x3e4944b3	0.19655113
48	0x3c4dfa76	0.012571922
49	0x3df09dd5	0.11748854
50	0x3e1ac66a	0.15114751
51	0xbb3e8662	-0.0029071798
52	0xbdd6d4c2	-0.10489799
53	0x3cfab07f	0.030601738
54	0xbd8a4ee3	-0.06753328
55	0xbe45d7e4	-0.19320637
56	0xbdf35044	-0.11880544
57	0xbe146e55	-0.14495213
58	0xbde240d7	-0.110475235
59	0x3e3eb563	0.18623881
60	0x3e0476c4	0.1293593
61	0xbd00e6ab	-0.031469982
62	0x3e6edd1f	0.23326539
63	0xbe6378cc	-0.22214049

actor.init_next_embed.0.module.weight f4 [32, 6]
0	0xbf0f8a2a	-0.56070197
1	0x3e2a50d2	0.16632393
2	0xbdab0421	-0.08350397
3	0x3f0bd56c	0.5462253
4	0x3f0cfda5	0.5507453
5	0xbed556ab	-0.41667685
6	0x3e8c0d12	0.27353722
7	0x3ea6499a	0.3247803
8	0x3c08bd0a	0.008345852
9	0x3dddb764	0.108259946
10	0x3db0c2f2	0.08630933
11	0xbe05c336	-0.13062748
12	0xbdab515f	-0.0836513
13	0xbec7c889	-0.39020184
14	0x3e75c4b2	0.24000815
15	0xbf0d7e8b	-0.55271214
16	0x3dd0e470	0.10199821
17	0x3d374965	0.04474773
18	0x3f195a6a	0.59903586
19	0x3f11a812	0.5689708
20	0x3de5af6e	0.11215101
21	0x3e5e442e	0.21705696
22	0x3ea3435d	0.31887332
23	0x3e056fe7	0.13030969
24	0xbea712cf	-0.32631537
25	0xbd760fcd	-0.060073663
26	0xbe45cc60	-0.19316244
27	0x3e423ed5	0.18969281
28	0x3d237836	0.039909564
29	0xbe2e9943	-0.17050652
30	0xbe1c2b04	-0.15250784
31	0x3debed70	0.11519897
32	0x3eead23d	0.45863524
33	0x3e08c951	0.13358046
34	0xbe029bc4	-0.12754732
35	0x3c572602	0.01313162
36	0xbe9a7bab	-0.30172476
37	0xbe687a25	-0.22702844
38	0xbcc0a71f	-0.02351719
39	0xbee4a6f1	-0.44658616
40	0x3e1137b0	0.141814
41	0x3f165173	0.5871803
42	0xbe4887aa	-0.19583002
43	0xbebb3c5b	-0.36569485
44	0x3e81cea5	0.2535297
45	0x3dd1b472	0.10239495
46	0xbdf480e6	-0.11938648
47	0x3d61d058	0.055130333
48	0xbe077c76	-0.13231072
49	0xbe82989e	-0.25507063
50	0x3eafc820	0.3433237
51	0xbe6bef2d	-0.23040457
52	0x3dbe7252	0.092991486
53	0x3a99acf1	0.0011724514
54	0xbeba5367	-0.36391756
55	0xbe211ec8	-0.15734398
56	0xbe148fe1	-0.1450801
57	0x3ed82760	0.4221754
58	0xbe4a5d52	-0.19762161
59	0xbdaa165d	-0.08305047
60	0x3f0d8b7a	0.5529095
61	0xbd42dcbc	-0.04757379
62	0xbe18e41f	-0.14930771
63	0x3e6a1d5b	0.2286276
64	0x3d19a224	0.037508145
65	0x3e9b035a	0.30275995
66	0xbe2b27ed	-0.16714449
67	0xbe425303	-0.18976979
68	0xbe95245b	-0.291293
69	0xbda1fc92	-0.07909502
70	0x3ecc5dd8	0.39915347
71	0x3ecc0faf	0.39855716
72	0x3eced706	0.40398425
73	0xbf28a741	-0.6588021
74	0xbd32aed1	-0.04362375
75	0xbdb25b80	-0.087088585
76	0x3d3be83d	0.045875777
77	0xbe00cad0	-0.12577367
78	0x3e2b164e	0.16707727
79	0xbe851c31	-0.2599807
80	0x3e9e7a93	0.30952892
81	0x3e62b8d6	0.22140822
82	0xbe4524fe	-0.19252393
83	0xbe14459c	-0.14479679
84	0x3db93d14	0.09044853
85	0x3d59fc8c	0.053219363
86	0xbdd8ba48	-0.10582405
87	0xbdfb54fe	-0.1227207
88	0x3e6955b3	0.22786598
89	0x3eef0420	0.46682835
90	0x3c31ac24	0.010844264
91	0x3d8cc9c0	0.06874418
92	0x3e6ea4b5	0.23305018
93	0xbea0fa86	-0.31441134
94	0xbd045132	-0.032303996
95	0xbe7cbf38	-0.24682319
96	0xbdfc97f7	-0.123336725
97	0xbe13f899	-0.14450301
98	0xbe02e279	-0.12781705
99	0xbe5ab155	-0.2135671
100	0x3ecbca0b	0.39802584
101	0x3e578f03	0.21050648
102	0xbe81e01b	-0.2536629
103	0x3ee89ebe	0.4543361
104	0x3efee7dd	0.49786273
105	0x3d925543	0.07145169
106	0x3e1afd6d	0.15135737
107	0x3f13847f	0.5762405
108	0xbe3a9587	-0.18221103
109	0xbc6e357c	-0.014539119
110	0xbeb1dd26	-0.34739035
111	0xbd978d2a	-0.07399972
112	0xbe10aa6a	-0.14127508
113	0xbee7185a	-0.45135766
114	0x3ec27be3	0.37985143
115	0xbe657c30	-0.22410655
116	0x3e46d7c0	0.1941824
117	0x3eafd871	0.3434482
118	0x3d1dc050	0.03851348
119	0x3e9b2f5e	0.30309576
120	0x3dce8d35	0.10085527
121	0x3ebac6c4	0.3647977
122	0x3e2433e6	0.16035423
123	0xbeb64eca	-0.35606986
124	0xbe48b31e	-0.19599578
125	0x3e7b0136	0.2451218
126	0x3f1059b5	0.5638688
127	0xbe358e76	-0.17730126
128	0x3daa14f6	0.08304779
129	0x3ebf4522	0.37357432
130	0x3eec34e0	0.4613409
131	0x3ee68115	0.45020357
132	0xbe67c6fd	-0.22634502
133	0x3ce290a6	0.027656864
134	0xbdbaacad	-0.091149665
135	0x3cfa1086	0.030525457
136	0xbecc761a	-0.39933854
137	0xbc9c9e88	-0.019118562
138	0x3d504d7a	0.050855137
139	0xbe42394a	-0.18967167
140	0xbe063252	-0.13105133
141	0xbdf4dade	-0.11955808
142	0xbd36a983	-0.044595253
143	0x3e80b1fa	0.25135785
144	0xbe98e0a6	-0.29858893
145	0xbd95fb09	-0.07323272
146	0x3eaccdd3	0.3375078
147	0xbe9a2687	-0.3010752
148	0x3f22873c	0.634876
149	0xbece9466	-0.40347594
150	0xbdf7d1c5	-0.12100557
151	0xbd5412ab	-0.051775616
152	0x3d116b6e	0.035502844
153	0xbc903e62	-0.017607871
154	0xbf1a8cb8	-0.6037097
155	0x3ee9acd5	0.45639673
156	0xbec54217	-0.38526985
157	0xbe2e9e7e	-0.17052647
158	0x3edaf998	0.4276855
159	0x3ea3190b	0.31855044
160	0xbd490a99	-0.049082372
161	0xbe6d9322	-0.23200658
162	0x3e9ea5de	0.30985922
163	0xbdc8a5f6	-0.097972795
164	0x3e0d4c72	0.13798693
165	0xbea1268a	-0.31474715
166	0x3da55eea	0.08074744
167	0xbe17ae6f	-0.14812635
168	0xbdf5ce2d	-0.120022155
169	0x3dd7fafe	0.1054592
170	0xbf04f1a5	-0.5193122
171	0xbe6dc5fb	-0.23220055
172	0xbc93f3cc	-0.018060587
173	0x3cfcce2e	0.030860033
174	0x3e3a8e6d	0.18218394
175	0xbd2e7b76	-0.04259821
176	0x3ea90181	0.3300896
177	0xbe5ed7a2	-0.21761945
178	0xbe17b9e2	-0.14817002
179	0xbd9d4a16	-0.076801464
180	0xbd6eadce	-0.05827122
181	0xbcb7722a	-0.022393305
182	0xba81a99e	-0.0009892469
183	0x3cc59e88	0.024123445
184	0xbe962e9a	-0.2933243
185	0x3f3d1b0c	0.73869395
186	0x3d8ec3b1	0.06970919
187	0xbde14cbe	-0.110009655
188	0xbe1fc54d	-0.15602608
189	0xbdac855a	-0.08423872
190	0x3cba1d08	0.022718921
191	0xbe1e3f8b	-0.15453927

actor.init_next_embed.0.add_bias._bias f4 [32, 1]
0	0xbd6f4e27	-0.05842414
1	0xbd858dee	-0.065212116
2	0xbca44aaa	-0.020055134
3	0x3ed5164e	0.4161858
4	0xbaa14839	-0.0012304849
5	0x3a98bb20	0.0011652447
6	0xbcf68d45	-0.03009666
7	0xbc13669b	-0.008996631
8	0xbc4f70a1	-0.01266113
9	0xbd3ffcec	-0.046872064
10	0x3e38c7e0	0.18044996
11	0x3d475911	0.048668925
12	0xbd96e1e9	-0.07367308
13	0xbd0240e8	-0.03180018
14	0x3ed9447e	0.42435068
15	0xbb72db30	-0.0037056915
16	0xbe02f1ce	-0.12787554
17	0xbd2af1f6	-0.04173466
18	0xbbcf56d5	-0.00632749
19	0x3f049dd4	0.51803327
20	0xbe28ecf7	-0.16496645
21	0x3df352be	0.11881016
22	0x3be5253b	0.0069929636
23	0x3e74d4ed	0.2390935
24	0x3c998eaa	0.018744785
25	0x3d3b69e9	0.0457553
26	0xbd3f0113	-0.046631884
27	0xba7e5d32	-0.0009703218
28	0xbc8b3600	-0.016993523
29	0x3c485e23	0.012229475
30	0x3e530eaa	0.20611063
31	0x3af9ddf5	0.0019063341

actor.init_next_embed.2.module.weight f4 [64, 32]
0	0xbe0eb843	-0.13937478
1	0x3dac8f8c	0.08425817
2	0x3e21020a	0.15723434
3	0x3e547c61	0.20750572
4	0x3e340575	0.17580207
5	0xbdb508aa	-0.08839543
6	0x3e2bd2cb	0.1677963
7	0x3e8f435b	0.27981076
8	0x3df7b55d	0.12095139
9	0x3d2b3b41	0.041804556
10	0x3dfaa74a	0.12238939
11	0xbdb10ba9	-0.08644802
12	0x3d79d9db	0.06099878
13	0x3d217a1b	0.03942309
14	0x3e0b1ce4	0.1358524
15	0xbc9a9953	-0.018871939
16	0x3eb00104	0.34375775
17	0x3e8b818a	0.27247268
18	0xbca288a2	-0.019840542
19	0x3dff64eb	0.124704204
20	0x3e7d6b29	0.2474791
21	0xbe2b1a5b	-0.16709273
22	0x3e8156f4	0.25261652
23	0x3efacf69	0.48986366
24	0x3d85982f	0.06523167
25	0xbb02fa72	-0.0019985703
26	0x3c0fa2fa	0.008766884
27	0xbe1a234f	-0.15052532
28	0xbd1a9634	-0.0377409
29	0xbde1dd11	-0.11028493
30	0xbd4274ac	-0.04747455
31	0xbdd58bc4	-0.10427049
32	0x3dcc501b	0.099762164
33	0x3d312d93	0.043256354
34	0xbd4e795a	-0.0504087
35	0x3d96da89	0.07365901
36	0x3e4b0b71	0.19828583
37	0x3e347c45	0.1762553
38	0xbea80ce7	-0.32822344
39	0x3de7c3a8	0.11316615
40	0xbd14a142	-0.0362866
41	0x3da669b8	0.08125633
42	0xbe17aab5	-0.14811213
43	0xbe522916	-0.20523486
44	0xbe08790a	-0.13327423
45	0xbcf37718	-0.029719874
46	0x3ed0cd36	0.40781564
47	0x3e950af4	0.2910992
48	0xbe0a3173	-0.13495426
49	0x3d8f2b44	0.06990674
50	0x3e1e8d61	0.1548362
51	0xbe60698a	-0.2191526
52	0xbdd77a33	-0.105213545
53	0xbe519362	-0.20466378
54	0xbe68d818	-0.22738683
55	0xbcc7cec2	-0.024390582
56	0xbda8237a	-0.082098916
57	0x3e07a563	0.13246684
58	0x3d55186c	0.052025244
59	0xbe1fc50e	-0.15602514
60	0x3da050cd	0.078279115
61	0x3d7b1a7a	0.061304547
62	0xbcd02c9c	-0.025411896
63	0xbe046d97	-0.1293243
64	0xbbcf3a24	-0.0063240696
65	0x3ec6151a	0.38687974
66	0x3e090a8a	0.13382927
67	0xbc73df25	-0.014884745
68	0x3d816469	0.0631798
69	0x3d844ee0	0.06460357
70	0xbc35bf03	-0.011092904
71	0xbe703edc	-0.23461479
72	0x3e0f9b7f	0.14024161
73	0xbdf9d812	-0.12199415
74	0xbe069e11	-0.13146235
75	0xbe586218	-0.2113117
76	0x3db64f7d	0.0890188
77	0xbe9995f3	-0.29997215
78	0xbe0ca92f	-0.13736413
79	0x3c176553	0.009240466
80	0x3de0355f	0.1094768
81	0xbc303b1a	-0.010756278
82	0x3d2e4709	0.042548213
83	0xbec430ac	-0.38318384
84	0xbe612e26	-0.2199026
85	0x3ea4deed	0.3220133
86	0x3e29e7a4	0.1659227
87	0xbd9e7991	-0.07738031
88	0x3e12b895	0.14328225
89	0xbe9d2cd0	-0.30698252
90	0x3cf7abd5	0.030233303
91	0x3e22458a	0.1584684
92	0x3e85c816	0.26129216
93	0xbdbfb1a9	-0.09360058
94	0xbebb9d2b	-0.36643347
95	0x3e384a42	0.17997077
96	0x3d3b9ee5	0.04580583
97	0x3e4b2940	0.19839954
98	0xbe65d09e	-0.22442862
99	0xbe2fff3b	-0.17187206
100	0x3e3b081d	0.18264814
101	0xbd17a428	-0.037021786
102	0xbc13e871	-0.009027586
103	0xbcfdf64e	-0.031001236
104	0x3c4c3e29	0.012465992
105	0x3ec6be98	0.38817286
106	0x3c10246f	0.008797749
107	0x3d14dc69	0.036343012
108	0x3db18f08	0.08669859
109	0x3e2b6a78	0.16739833
110	0xbe4172e6	-0.18891487
111	0x3dac17a7	0.08402949
112	0x3e8cf274	0.27528727
113	0x3d7ff910	0.062493384
114	0xbdd67dfc	-0.10473248
115	0x3d92db85	0.07170776
116	0x3dcbc9a0	0.09950566
117	0xbe8b447a	-0.2720068
118	0xbdfbcdeb	-0.12295135
119	0xbe9112b2	-0.28334576
120	0xbd64e07e	-0.055878155
121	0x3b8186df	0.0039528455
122	0xbe925527	-0.2858059
123	0x3e1d9cc6	0.15391836
124	0x3df5bac4	0.11998513
125	0x3d3d594e	0.046227746
126	0x3e6f738c	0.23383921
127	0x3d087eb2	0.03332395
128	0x3e853727	0.2601864
129	0x3d169702	0.036765106
130	0xbe344e14	-0.1760791
131	0x3d69d014	0.057083204
132	0x3e5dd2a0	0.21662378
133	0x3df4a8f0	0.11946285
134	0x3d061dbb	0.032743197
135	0x3e289d30	0.16466212
136	0x3e354ea9	0.17705788
137	0xbdbce114	-0.09222618
138	0xbdbca65b	-0.09211417
139	0xbdccf17d	-0.10006998
140	0xbd51d64e	-0.051229768
141	0xbe84ef29	-0.25963715
142	0xbe718711	-0.2358668
143	0xbea82cb4	-0.32846606
144	0x3e29d194	0.16583854
145	0xbdc1f723	-0.09470966
146	0x3d2d8bed	0.04236977
147	0xbea0cfff	-0.31408688
148	0x3e234541	0.15944387
149	0x3da5c086	0.080933616
150	0xbc8253f2	-0.015909169
151	0xbde4bc9f	-0.11168789
152	0x3e390b17	0.18070637
153	0x3e35bbdf	0.17747448
154	0x3e319fb8	0.17346084
155	0xbdc840b1	-0.09777964
156	0x3d817624	0.06321362
157	0x3d17060b	0.036870997
158	0x3d00a7da	0.031410076
159	0xbdf09f76	-0.11749165
160	0xbe821984	-0.25410092
161	0xbee6622a	-0.44996768
162	0xbdeda702	-0.1160412
163	0xbe68eb2f	-0.22745965
164	0x3c8af989	0.01696469
165	0x3e5fdd15	0.2186168
166	0xbcc02a71	-0.023457738
167	0x3e1ad288	0.15119374
168	0x3db979ea	0.090564564
169	0x3e062d8e	0.13103315
170	0xbe82da46	-0.25557154
171	0xbd7bec35	-0.06150456
172	0xbd4f9b30	-0.050685108
173	0x3d60b11f	0.054856416
174	0xbdc700df	-0.09716963
175	0x3e030c89	0.1279775
176	0xbbba5dec	-0.005687466
177	0x3ea927e2	0.3303824
178	0x3e2bcf9a	0.16778412
179	0xbd67a6da	-0.056555606
180	0xbe25ae64	-0.16179806
181	0x3d560d63	0.05225886
182	0x3d909a6a	0.07060702
183	0xbe0b58d1	-0.136081
184	0xbe642072	-0.22278002
185	0xbe6155a9	-0.22005333
186	0xbdff28bf	-0.124589436
187	0xbe36e1c5	-0.17859562
188	0x3df7fd53	0.12108865
189	0xbe58fb73	-0.2118967
190	0x3d8aeb00	0.06783104
191	0xbe2c72a9	-0.16840614
192	0x3d6d5695	0.0579439
193	0xbe29c5c2	-0.16579345
194	0xbdd4adac	-0.10384688
195	0xbdf6b3a1	-0.1204598
196	0xbce917c5	-0.028453717
197	0x3c5aabe5	0.013346647
198	0xbe77e568	-0.24208605
199	0xbc45460f	-0.012040629
200	0x3eedef40	0.46471596
201	0x3d5fde3e	0.054655306
202	0xbe2383c5	-0.15968235
203	0xbe336834	-0.17520219
204	0xbe983a58	-0.29732013
205	0x3de038d6	0.109483406
206	0xbef0f882	-0.47064596
207	0xbe8cd43e	-0.27505678
208	0xbe84bd06	-0.25925463
209	0xbc2f266f	-0.010690316
210	0xbeb19d22	-0.34690195
211	0xbe2e4bb2	-0.17021063
212	0xbe84694d	-0.25861588
213	0xbd417fef	-0.047241148
214	0x3d888665	0.06666259
215	0xbe5ad3d9	-0.21369876
216	0xbd45e780	-0.04831648
217	0xbe1591f1	-0.14606453
218	0x3d3a4e42	0.04548479
219	0x3cf80deb	0.030280074
220	0xbd132ecc	-0.0359333
221	0x3e4de457	0.20106636
222	0xbdae9e9f	-0.08526348
223	0x3e179728	0.14803755
224	0x3ed8ecbb	0.4236811
225	0x3da2d3bf	0.079505436
226	0xbdb0f7ee	-0.08641039
227	0x3d80de90	0.062924504
228	0x3dded792	0.108809605
229	0xbeac4c07	-0.33651754
230	0xbeb6dbcc	-0.35714567
231	0x3e15a86a	0.14615026
232	0xbd482991	-0.048867766
233	0x3ddc9199	0.10769958
234	0x3df23567	0.11826592
235	0x3e5af2a4	0.21381623
236	0x3eb76762	0.35821062
237	0xbce468a4	-0.027881928
238	0x3ebdf9b5	0.37104574
239	0xbe1fc813	-0.15603666
240	0xbcfeda39	-0.031109916
241	0x3c830fd5	0.01599876
242	0x3d6c40fc	0.05767916
243	0xbbf19d8c	-0.0073735174
244	0xbef6fcd9	-0.48239782
245	0x3e952bc8	0.29134965
246	0x3e2e84ab	0.17042796
247	0x3e230c49	0.15922655
248	0x3e687f8b	0.22704904
249	0x3ddecdb8	0.108790815
250	0xbe91a213	-0.28443965
251	0xbde6ecb3	-0.112756155
252	0xbe5f68c3	-0.21817307
253	0xbe2cef75	-0.1688822
254	0x3ec2e587	0.3806574
255	0x3d4a9d96	0.049466692

actor.init_next_embed.2.add_bias._bias f4 [64, 1]
0	0x3d87131f	0.06595444
1	0x3c8dffea	0.017333943
2	0xbd7fb293	-0.06242616
3	0xbd57a0ad	-0.052643467
4	0xbde8f8a7	-0.11375552
5	0xbd2e245a	-0.042515136
6	0xbd328dcb	-0.043592256
7	0xbd4e79f6	-0.05040928
8	0xbddad486	-0.10685067
9	0x3d9bd7b5	0.07609502
10	0x3e9aed1d	0.30259028
11	0x3cfc1168	0.030770019
12	0x3cecc85c	0.028904133
13	0xbea3665d	-0.31914034
14	0x3e8bea97	0.27327415
15	0x3e3ad663	0.18245845
16	0x3b209cef	0.0024507602
17	0xbdec2678	-0.11530775
18	0xbe2f768f	-0.1713507
19	0x3c232aa3	0.009958896
20	0xbcaba984	-0.020954855
21	0xbd0b8413	-0.034061503
22	0xbddd13d8	-0.107948005
23	0xbc8f8cb7	-0.017523153
24	0x3e1de6ac	0.15420026
25	0xbed0faf2	-0.40816456
26	0x3e978f17	0.29601356
27	0x3e83fffc	0.25781238
28	0xbcfc69c8	-0.03081216
29	0x3d0e6436	0.034763537
30	0xbca88fbd	-0.020576352
31	0x3e585869	0.21127476
32	0xbdb06ff3	-0.086151026
33	0x3cf553fc	0.029947273
34	0x3d89f30e	0.06735812
35	0x3d4b00e2	0.04956139
36	0x3e0aea85	0.13566025
37	0xbbabb921	-0.005240575
38	0x3d0d6dfb	0.034528714
39	0x3df7d38b	0.121008955
40	0xbe23a608	-0.15981305
41	0xbd92e242	-0.071720615
42	0xbd88edc7	-0.066859774
43	0x3e00a293	0.12562017
44	0x3db0313e	0.08603142
45	0x3d5ca611	0.05386931
46	0xbe48470e	-0.19558355
47	0xbcb52e8e	-0.022116926
48	0x3d98deb9	0.07464356
49	0xbdad0650	-0.0844847
50	0xbe9b44e5	-0.30326
51	0xbeadabfe	-0.33920282
52	0x3d2df951	0.042474095
53	0x3e3386f9	0.17531957
54	0xbe3070a1	-0.17230465
55	0xbdc90779	-0.098158784
56	0x3ceefbc9	0.029172795
57	0x3c735f0c	0.014854204
58	0x3cb8ceb1	0.022559496
59	0xbd8941d8	-0.06702012
60	0xbe3919b0	-0.18076205
61	0xbdf570ba	-0.119843915
62	0x3dcbd0c7	0.099519305
63	0x3d916b2f	0.07100522
