pretrained_models/experiment/Discrete_acktr_20x10x10Bin_s42_inh_800_defaultBox-2022.08.18-13-06-52/PCT-Discrete_acktr_20x10x10Bin_s42_inh_800_defaultBox-2022.08.18-13-06-52_2022.08.18-18-12-20.pt (torch, 236314 bytes, 24 tensors)

actor.init_internal_node_embed.0.module.weight f4 [32, 6]
000000 3d 56 81 3e c9 30 11 3f 67 d1 20 3f e5 83 9b be
       0.25261107 0.56715065 0.6281952 -0.30374065
000010 f6 3f 13 3d 5d 8c 32 3e 29 09 52 3e 31 64 ca 3e
       0.03594967 0.17436357 0.20511307 0.39529565
000020 19 cc 58 bc 9f db 0b be 7f 3e 95 be 99 b0 00 be
       -0.013232254 -0.13657998 -0.29149243 -0.12567367
000030 84 63 96 3d a3 cd 1d bd 21 ee 5b 3d 5c 15 9b 3d
       0.073432 -0.03852619 0.053693894 0.07572433
000040 91 77 8b be 49 87 8e 3d 5c e4 07 bf a5 27 1d bd
       -0.2723966 0.06959397 -0.53082824 -0.038367886
000050 69 7b cc be ef 3d 0e 3f d0 c4 97 3e 6d 73 5e 3f
       -0.39937904 0.55563253 0.29642344 0.86894876
000060 63 32 f2 3e 74 1e 50 be 39 6b f2 3c bb a3 a2 3d
       0.47304067 -0.20324117 0.029592143 0.07941385
000070 49 28 bf 3c f8 99 f6 bd 96 6e 79 3e 6c 56 e5 3d
       0.02333464 -0.12041086 0.24358591 0.11198124
000080 7d 16 b6 be 96 6c ce 3e cf 9c 01 be 17 95 98 be
       -0.35564032 0.4031722 -0.12657474 -0.29801247
000090 3e 99 da be bc de 5a 3e ea 73 18 3e f8 f9 51 3e
       -0.4269504 0.21374029 0.14887968 0.20505512
0000a0 1d 0a a5 be 2c 2f 24 be a3 dd 5d 3e ae 4b 97 bd
       -0.32234278 -0.1603362 0.21666579 -0.07387482
0000b0 be bf e1 3e f0 64 fa 3c b7 c4 44 bf c1 86 04 3e
       0.440916 0.030565709 -0.76862663 0.1294203
0000c0 ce 80 e9 be 59 10 a3 3d fe 9c 51 bf 15 7e d6 3e
       -0.45606083 0.079621024 -0.81880176 0.41893068
0000d0 77 a2 2b 3d ca af a8 3d f5 7c 1e 3f aa c0 9b bc
       0.041902985 0.08236654 0.6190942 -0.019012768
0000e0 09 07 de bd 8e 00 35 3e eb 39 6a be 17 4d 24 be
       -0.108411856 0.17675993 -0.22873656 -0.16045032
0000f0 80 f8 64 bd f6 09 9f 3d 00 5b b2 be 63 f3 0c 3f
       -0.05590105 0.07765572 -0.34835052 0.5505888
000100 8a 94 0c 3f 47 ff 22 bf 16 31 7e be cf 3e 3c be
       0.5491415 -0.6367077 -0.24823412 -0.18383335
000110 fa 98 31 be 10 7e 12 bd 29 dc ab be 2a 61 49 be
       -0.17343512 -0.035764754 -0.33566406 -0.19665971
000120 4e 4a 74 3f cf 21 d0 3d 79 b6 07 3e 8f 8e 19 be
       0.9542588 0.101626985 0.13253202 -0.14995788
000130 4f 68 d1 bd e3 f3 62 be 50 a4 d7 3e 2f cd 84 3c
       -0.102249734 -0.22163348 0.42117548 0.01621112
000140 ac 4e 2a be 6b b2 02 be 17 89 a7 3e 92 68 b6 be
       -0.16631573 -0.12763374 0.3272178 -0.35626656
000150 c5 2b c6 3e 83 14 d7 3e 90 3a b2 be f0 f5 7d bd
       0.38705269 0.42007837 -0.34810305 -0.062002122
000160 48 52 cf 3d 8a 2e 9f bd 3c a0 e6 bc d0 17 92 be
       0.10123116 -0.077725485 -0.028152578 -0.28533792
000170 e4 83 72 be d2 eb ab bd 5c 23 05 3e 1f 88 8e be
       -0.23683125 -0.083945885 0.1300177 -0.27838227
000180 8b c0 51 3e 53 a2 19 be 5a a6 d4 3e d1 33 4e bf
       0.20483606 -0.15003328 0.41533166 -0.80547816
000190 12 02 01 3f 86 27 fc 3e dd 48 c5 3d 64 3d 70 3d
       0.50393784 0.49248904 0.09633038 0.058652297
0001a0 9e c8 eb 3d 01 b4 37 3e 45 ed 0c bf 7d 33 b2 be
       0.11512874 0.1793976 -0.55049545 -0.34804907
0001b0 4d 92 c4 3e fb 0e b8 3d dd c5 dd be f7 a5 3b 3e
       0.3839287 0.08987232 -0.4331502 0.1832503
0001c0 14 d3 21 3e 3b e5 2c bd 33 7e be 3e ff c7 4c be
       0.15803176 -0.0422108 0.37205657 -0.19998167
0001d0 76 08 66 3d bc c2 7b be 5a 15 b3 bd 13 64 ec 3d
       0.056160413 -0.24586004 -0.08744307 0.11542525
0001e0 64 33 c4 3d 24 c4 6d 3e d7 79 e8 be 44 3d 7e 3e
       0.095801145 0.23219353 -0.45405456 0.24828058
0001f0 a2 d4 d5 3c c6 1b fd be 77 3c 09 be 03 ef a3 bd
       0.026102368 -0.49435252 -0.13401972 -0.08004572
000200 18 88 95 be 53 51 de 3d 5a fd f7 bd 86 59 bc be
       -0.29205394 0.10855355 -0.1210887 -0.3678705
000210 3f a8 3e bf 35 5f 5c bf f4 26 54 bf c5 cc 02 3f
       -0.74475473 -0.86082774 -0.8287194 0.51093704
000220 be fd e7 3e dc 6c e2 3e f9 2c 9a be d2 b9 d1 bd
       0.45310777 0.44223678 -0.30112436 -0.102405205
000230 81 fd 2c be 1b 28 b2 3d 7f 4e c9 bc 16 fe 15 3f
       -0.16893579 0.08699056 -0.024573563 0.5859083
000240 8e 2b 12 be 77 88 fe bc e8 53 85 3f 61 cd bc 3e
       -0.14274427 -0.03107093 1.0416231 0.36875442
000250 92 7e eb 3d 02 67 5d 3e 49 7b e8 bc 25 9e 70 3e
       0.11498751 0.21621326 -0.0283791 0.23497827
000260 14 5d c1 3e ae 97 aa be d9 c9 8d bd a8 45 e3 3e
       0.37766325 -0.33318847 -0.06923265 0.4438908
000270 b4 a2 a4 be 8b e3 6a 3c 97 79 9a be 6e ff 8b 3d
       -0.32155383 0.014336477 -0.3017089 0.06835829
000280 37 dd 93 3e dd d1 77 bd 12 00 98 bd 89 7a f4 3c
       0.2887971 -0.060502876 -0.074218884 0.029843586
000290 21 e6 b2 3e ce a2 bb be 1e da 1c bd 76 37 3d be
       0.349412 -0.36647648 -0.03829395 -0.18478188
0002a0 2f 7b b9 be 8f 50 13 bf 20 8b a3 bd bf 6b 5d 3d
       -0.36226794 -0.575448 -0.0798552 0.054057833
0002b0 c2 e2 0b 3e ce cb 86 3d 35 d2 88 be 10 39 1e 3e
       0.1366072 0.065818414 -0.26722875 0.15451455
0002c0 b9 03 ba 3e 18 f8 64 be 12 a6 70 bd 88 f4 88 bd
       0.36330965 -0.22360265 -0.058752127 -0.06687266
0002d0 f8 4d d2 3e 06 4d be 3c 1e fd 9e 3c 4e d1 cd bd
       0.4107511 0.023230087 0.019407805 -0.10049687
0002e0 07 f0 3a 3e b0 47 d4 be 79 92 99 3e f7 61 2d 3e
       0.18255626 -0.41460943 0.29994562 0.16931902
0002f0 6d f0 84 be 46 b3 5a be 18 87 8e 3c 4a 79 a4 3e
       -0.2596468 -0.2135745 0.017398402 0.32123786

actor.init_internal_node_embed.0.add_bias._bias f4 [32, 1]
000000 ad 60 02 3d 5e 83 85 3c 06 36 f4 bc fc 89 7b 3d
       0.03183048 0.016297992 -0.029810917 0.06141089
000010 47 68 fc 3d 47 05 2d 3c 7d ce 82 bc 02 a6 b5 3c
       0.12324577 0.01056034 -0.015967602 0.022173885
000020 ff 69 e9 3c 2f b5 a1 3d 13 95 cd 3c a1 0f 9f 3c
       0.028492926 0.07895886 0.025095498 0.019416632
000030 21 a1 22 3d 45 9d c2 3c 21 7c c8 3b 1d 61 b7 bb
       0.039704446 0.023756633 0.006118313 -0.0055962936
000040 9b 32 4b 3c 7e ae 2c 3c 23 35 ba 3a 9b f3 db 39
       0.012402202 0.010539649 0.001420651 0.00041952435
000050 5e 03 44 bc c8 da b3 3c d3 89 8f bb 6e 6e da bb
       -0.011963693 0.021954909 -0.0043804436 -0.0066659963
000060 06 ce 85 3d a2 8a 7b 3c 67 d7 38 bc f4 37 2b bc
       0.065334365 0.015352877 -0.011281825 -0.010450352
000070 1d 25 6a 3b 67 26 82 ba d4 b2 35 3c 31 f5 17 3d
       0.0035727688 -0.0009929658 0.011089999 0.037099067

actor.init_internal_node_embed.2.module.weight f4 [64, 32]
000000 05 5d 78 be 04 fa 6a 3d c2 7a 0b be 82 9d cb 3e
       -0.24254234 0.05736734 -0.13621047 0.39768606
000010 2f 96 1a 3e 24 56 f8 3c 82 74 aa 3d 07 61 08 3e
       0.15096353 0.030314513 0.08323003 0.13318263
000020 33 77 a3 be da 3d 9c be 37 d4 e2 bd 9c 86 58 bd
       -0.3192688 -0.3051594 -0.11075633 -0.05286275
000030 45 7f b8 be 23 81 2e be 82 8f 37 bc eb c7 32 be
       -0.360346 -0.17041449 -0.0112036485 -0.17459075
000040 25 aa c9 3e 42 2e 9a bd 6b 61 32 be fd e5 87 3e
       0.39387622 -0.07528354 -0.17419975 0.26542655
000050 9d 29 c4 3d f8 68 9f be a8 e2 e1 bd 52 8f 42 be
       0.095782496 -0.31134772 -0.110295594 -0.18999985
000060 87 bc 3c 3e 34 a7 b3 3e 7f 09 0a 3e 37 c6 cb 3d
       0.18431292 0.35088503 0.13480185 0.09949916
000070 79 ef 50 bd ab 35 26 be 59 81 5e be 54 99 0e 3e
       -0.05100963 -0.1623141 -0.2172903 0.13925678
000080 d4 4c d3 be d5 6b c1 be 23 6e b5 be 2a da 9b be
       -0.41269553 -0.37777582 -0.3543559 -0.30439883
000090 d4 34 88 3d 47 a3 88 3e f0 bc 67 3b 23 6e d1 3e
       0.06650701 0.2668707 0.0035360418 0.4090434
0000a0 bd f1 6b bb 9d 17 87 bd 1d 0b 5e bd cb 1d 28 bd
       -0.0036002242 -0.06596301 -0.054209817 -0.041044038
0000b0 51 f5 a6 be 58 8a df 3d 35 b1 61 be 31 06 26 3e
       -0.32609037 0.10915059 -0.22040255 0.162133
0000c0 dc 6b 5e 3d 98 79 33 3d 3f 5f ce be 30 38 2d be
       0.05430208 0.043817133 -0.40307042 -0.16915965
0000d0 29 30 c5 3e d5 87 d9 3d e2 96 02 3e 8a ff 9a be
       0.38513306 0.10621611 0.1275287 -0.30273086
0000e0 58 01 95 be 0d 77 b6 3d 03 a5 38 bd 2f ae 26 3e
       -0.29102588 0.08909426 -0.045079242 0.16277383
0000f0 83 1a 89 be 1c 2f 44 3e bf df c1 3e 60 31 ce bc
       -0.2677804 0.19158596 0.37866017 -0.025170028
000100 43 ca 4a 3f 7c 80 41 be a4 10 0d bd d9 42 b5 3e
       0.79214877 -0.18896669 -0.034439698 0.35402563
000110 06 47 8a be eb 8d 59 3e 49 b4 8a be db e4 c6 bd
       -0.27007312 0.21245544 -0.27090672 -0.097116195
000120 bf 69 74 3e bb c4 95 3e 4f 61 d7 3d 25 f4 c4 be
       0.23868464 0.29251656 0.10516607 -0.38467517
000130 de 4b 6d 3f 23 d0 28 be 06 80 0f 3e b4 e9 27 bc
       0.9269389 -0.16485648 0.14013681 -0.01024859
000140 a0 c6 8e 3e f2 6d c7 3d ab f0 22 3d 06 5e 7a 3e
       0.27885914 0.09737767 0.0397803 0.2444993
000150 c8 81 c7 be 4a 82 2d be 10 3a d9 3d a1 3f 9f bd
       -0.38966203 -0.16944233 0.10606778 -0.07775808
000160 87 89 0f 3f 27 a7 6f be 66 fe c1 bd 8e f1 4b bd
       0.56069225 -0.23403607 -0.09472351 -0.04979091
000170 b5 dd 13 3e 36 9a bc 3d 78 c6 9d 3e 0f c3 0f 3e
       0.14440043 0.09209101 0.30815482 0.14039253
000180 4e 6a ef bc e8 cc 1f 3f 7e 57 f4 bd 03 f5 fd be
       -0.029225495 0.6242204 -0.1193075 -0.49600992
000190 fb 86 25 3d 9c ff 1a be 4f 7b 9f be 48 6c 44 3d
       0.04041193 -0.1513657 -0.31148764 0.047954828
0001a0 85 74 64 be 5a 64 c7 3c 48 dc 70 bd 1f 4d 04 3f
       -0.22310074 0.024339844 -0.058803827 0.5168018
0001b0 11 09 18 3e 1a e2 18 be 8f 6b 04 be 0e e6 30 be
       0.14847209 -0.14930001 -0.12931655 -0.17275259
0001c0 6f 12 18 be 5f 77 30 be e7 cf 5a be cf 12 50 be
       -0.14850782 -0.17233036 -0.21368371 -0.20319675
0001d0 dc 6c 9d be a3 f4 ed 3d 6f 35 80 3e 54 de 78 3e
       -0.30747116 0.116189264 0.25040767 0.24303561
0001e0 58 8b c3 be f5 36 26 3e 25 20 1c 3e d6 fc 1f 3d
       -0.38192248 0.16231902 0.15246637 0.039059483
0001f0 63 4d 4e 3e e2 b5 0b 3e f4 0c c7 3d 11 d0 e2 bd
       0.20146708 0.13643602 0.097192675 -0.11074842
000200 d7 14 b3 be a8 8c 57 bd 0f 9a e8 3d 3e 3e 91 bc
       -0.34976837 -0.052624375 0.11357509 -0.017729875
000210 7e e5 18 be 6f fc e0 3c 83 1e fb bd e3 0c b4 bd
       -0.14931294 0.02746412 -0.12261679 -0.087915204
000220 bb 77 ae 3d 35 12 0b 3e b4 05 25 3d 58 3a 9a be
       0.085189305 0.13581164 0.040288642 -0.30122638
000230 e5 f0 58 bc 85 2e 9f 3e 76 5b f6 3d 3a 41 23 bc
       -0.0132410275 0.3109018 0.120291635 -0.009964282
000240 15 58 2c 3d fc 1e 51 3d 2c 3b a2 be cf 08 51 be
       0.04207619 0.05105494 -0.3168577 -0.20413516
000250 b8 ab 50 bd 68 36 d3 bd 86 c0 09 3f af b5 83 be
       -0.050945014 -0.103131115 0.5380939 -0.2572455
000260 be 94 f7 be 52 be 4b 39 c3 e6 0a 3e e1 f6 29 3c
       -0.4835567 0.00019430488 0.13564591 0.010373802
000270 ec 5f 52 3e c5 4c c6 b9 09 74 2a 3e a2 d4 82 3c
       0.20544404 -0.000378227 0.16645826 0.015970532
000280 5b bd c5 be d1 c2 46 3d 46 dc a9 bd 8a 6d 7c 3d
       -0.3862103 0.048525635 -0.08293967 0.061627902
000290 b7 4f 17 3f e6 31 57 3e d0 6d 95 3e d8 ed b5 be
       0.5910601 0.21015128 0.29185343 -0.35533023
0002a0 f0 f9 a1 3e c4 14 f3 3e 01 d3 17 3f ff 3a 4a 3e
       0.31636 0.4747678 0.5930634 0.19749068
0002b0 3a 0e 0c 3e 45 c1 46 3e 6d 3d bd 3e ca 5b 2b bc
       0.13677302 0.19409664 0.36960927 -0.010458896
0002c0 98 cc 4c be 22 8b 2a 3d 7f a9 90 3d e2 61 14 be
       -0.19999921 0.041636594 0.07063579 -0.14490464
0002d0 4b 02 ce 3e 6f 8c 6e bc 52 20 8a bd 45 f2 a7 bd
       0.40236124 -0.014559849 -0.06744446 -0.08200506
0002e0 f2 ac 5e bf f7 18 c8 3d c2 a6 84 be a8 f3 6e be
       -0.86982644 0.09770387 -0.25908476 -0.23335135
0002f0 7b 3f 73 bd a5 4c 2f bb d5 e8 df 3e aa e5 b9 bd
       -0.05938671 -0.0026748565 0.43732324 -0.09077008
000300 2c 87 83 3d 6d 7c 53 be 33 46 1b be d2 7c f4 be
       0.06422266 -0.20652933 -0.15163498 -0.4775148
000310 41 79 18 3d 9b d4 0e 3d eb 24 71 bd bd fc 97 bd
       0.03722501 0.034870725 -0.0588731 -0.07421253
000320 b4 0d e6 bd f5 0a 14 3f bf 7d f6 bd 0b aa 69 3d
       -0.112330824 0.5782922 -0.12035703 0.05704693
000330 07 bf 42 3f 35 19 cf bc eb ac 2e 3e ea 52 45 bd
       0.76072735 -0.025280574 0.1705815 -0.048174776
000340 63 00 53 be 90 07 76 be 9c 5e 20 3f 17 65 56 3e
       -0.20605616 -0.24026322 0.6264436 0.20937
000350 f5 76 c3 be bb 6c 30 3d 6f 7f bd bd 9b 6f 15 3e
       -0.38176695 0.043072443 -0.09252822 0.14593355
000360 71 bd 79 bf 00 75 81 be 1a fb 46 3e ae a3 3d 3d
       -0.9755469 -0.25284576 0.19431725 0.046298675
000370 02 2e 90 3e 8c dc 9d 3e 21 bb ef bc 7d ac 19 be
       0.281601 0.30832326 -0.029264035 -0.15007205
000380 f5 99 3d 3f 32 26 60 3e 33 74 95 3e 35 45 b5 3e
       0.74063045 0.2188957 0.29190215 0.35404363
000390 ce 6c ef bd b5 4e 0e 3e ee 66 91 3e 2d 28 17 3e
       -0.11690675 0.13897212 0.28398842 0.1476142
0003a0 3d c2 5d be 9d b5 b1 be 38 55 46 bc 5d 0a 7c be
       -0.21656127 -0.34708872 -0.012105279 -0.24613328
0003b0 c5 89 02 3f 89 75 ad be 95 53 19 bd da 4a 42 3d
       0.5099147 -0.33878735 -0.037433226 0.047434665
0003c0 77 1c 5f 3c 41 ae 51 bd 37 03 88 3e 0f 46 76 bd
       0.013617626 -0.051191572 0.26564953 -0.060125407
0003d0 c8 61 4c bd a3 0c 3e be 5f d0 c0 3c fa 77 b0 3d
       -0.04989794 -0.18559508 0.02353686 0.08616634
0003e0 9b a7 22 3f c9 56 2b bb 86 8d 6d 3e 2f d8 0c bd
       0.63536996 -0.0026144257 0.23198518 -0.034385856
0003f0 68 5b 2d 3e 15 4d b4 3e 02 ec f6 be ef 11 2e be
       0.169294 0.3521506 -0.48226935 -0.16999029

actor.init_internal_node_embed.2.add_bias._bias f4 [64, 1]
000000 03 a1 88 bc 6d d0 5a bd c3 2e c0 3d 5c 57 65 bd
       -0.016678339 -0.053421427 0.09383919 -0.055991516
000010 9a 2a 18 bd d1 86 37 3d b2 17 50 bd 08 1a ba 3d
       -0.037150003 0.044806305 -0.050803848 0.09086996
000020 2d 32 94 3b 89 3a 76 bd de ac 8d bc 76 80 16 bd
       0.004522583 -0.060114417 -0.017294344 -0.036743604
000030 59 16 0b be 26 dc 57 bd 41 46 eb bc 4c 02 f6 3c
       -0.13582744 -0.052700184 -0.028720023 0.030030392
000040 92 5f 8d bd 7e 6b 4d bd 94 50 15 be 21 6f 80 3c
       -0.06902994 -0.05015134 -0.1458152 0.01567799
000050 d4 8e 86 bd e7 32 14 bd 9f 09 81 3c 26 7b af 3d
       -0.06570211 -0.036181357 0.015751658 0.085684106
000060 06 2f b5 bc eb 63 3a bc 04 e7 af bc ed 81 17 ba
       -0.02211715 -0.011376361 -0.021472462 -0.00057795533
000070 ea 0c a3 3c bc 20 dc bd 18 ae 95 3d cd fe 06 be
       0.019903619 -0.10748431 0.073085964 -0.13183136
000080 4a 36 ca 3d b3 ec ae 3d b0 da 16 bd bf c2 25 bd
       0.09873636 0.085412405 -0.03682965 -0.040468927
000090 43 23 61 3d a2 06 17 bd eb 96 af 3c a0 4e 86 3d
       0.05496527 -0.03687156 0.021434268 0.06557965
0000a0 e7 f9 5a bd 85 c1 44 bd fb a7 72 3e 62 3c 73 bc
       -0.05346098 -0.048036117 0.23696892 -0.014845939
0000b0 a0 51 96 bd e2 f2 d7 bc 0c 60 38 3d 48 f9 38 3d
       -0.073397875 -0.026360933 0.045013472 0.045159608
0000c0 32 ce 75 3d d2 bd 05 be 04 ac 61 3d c3 89 9c 3d
       0.060011096 -0.13060692 0.055095688 0.076434635
0000d0 fe 83 87 3d 76 b6 d8 bd 92 02 1e bd 7c fa 08 3e
       0.066169724 -0.10581677 -0.03857667 0.13376802
0000e0 71 d9 0f 3e cd b2 a0 3b 1b 97 82 3a ac 1d 5e 3b
       0.14047791 0.004904127 0.0009963246 0.0033892198
0000f0 14 60 07 bd 03 73 87 3c c1 ce 59 bd b8 07 91 3d
       -0.03305061 0.016534334 -0.05317569 0.0708155

actor.init_leaf_node_embed.0.module.weight f4 [32, 8]
000000 a4 d7 28 be 4a 19 f0 be b0 c5 b7 3e 9a e7 b3 3e
       -0.1648851 -0.46894294 0.3589301 0.35137635
000010 f6 a2 39 3e eb a6 bc 3e d6 8f aa be 3f c3 9e be
       0.18128571 0.36846098 -0.33312863 -0.31008336
000020 f4 ff 06 bf 5c 99 19 be d4 4b 96 3e 46 a8 b9 3d
       -0.52734303 -0.14999908 0.29354727 0.09065299
000030 df 67 43 3e 08 5e 8a be 96 8d 7a 3e 93 04 58 bd
       0.19082592 -0.27024865 0.24468073 -0.052738737
000040 9e 88 80 3c 8a 45 8e 3d 0e e2 92 be a2 b5 f3 bc
       0.015690144 0.06946857 -0.2868809 -0.029749695
000050 df 3f 4a be 1f 45 35 be 66 01 a2 3d b7 65 c5 bd
       -0.19750927 -0.17702149 0.07910423 -0.09638541
000060 42 95 4e be 76 8a 23 3e 35 81 e1 3e f7 0b 63 be
       -0.20174125 0.15970787 0.4404389 -0.22172533
000070 83 d3 f8 3d ac df 4f 3e 13 7c 80 be db a0 49 3c
       0.12149718 0.20300168 -0.2509466 0.012306417
000080 00 c1 ae 3d 4b ab 10 bf 49 bc cf 3e 94 79 45 be
       0.085329056 -0.5651137 0.40573338 -0.1928466
000090 e6 68 1d be b5 8e b3 3d 86 2d 2a be 19 bb 11 3e
       -0.15372047 0.087674536 -0.16618928 0.14231528
0000a0 6b 92 c5 be 50 2d a7 3c f7 48 9d be e6 0e 2e 3e
       -0.3858827 0.020407349 -0.3071973 0.16997871
0000b0 47 78 71 bd 68 90 e8 3d 3e c0 2b be 66 5a 30 3c
       -0.058952596 0.11355668 -0.16772553 0.01076374
0000c0 c8 9c aa be 4b ea d3 3d 92 30 93 bd e3 42 0c 3e
       -0.3332274 0.10347422 -0.071869984 0.1369739
0000d0 92 e1 93 bc 11 2f 0e be 9e b3 39 3d 92 28 27 3e
       -0.018051896 -0.13885142 0.045337312 0.1632407
0000e0 27 c9 9f 3e 01 b2 4a 3e 18 c6 c7 3e 0d c1 c0 bd
       0.31208155 0.19794466 0.3901832 -0.094118215
0000f0 ad db 3e be 5c f4 9e bd c2 df 28 bf 7b 28 a8 bd
       -0.18638487 -0.077614516 -0.6596643 -0.08210846
000100 2d ad 23 bd 6b cf ed 3d d7 11 47 3e 6b a2 ba bd
       -0.039960075 0.116118275 0.19440399 -0.0911301
000110 8c af 55 bd fa d7 8b 3e a0 2f 57 3d 6a 5c 32 3d
       -0.052169368 0.27313215 0.052535653 0.043545164
000120 e6 51 1c bf 68 9e c9 be 83 ca 1b 3d ac ee 84 3e
       -0.6106247 -0.39378667 0.038034927 0.25963342
000130 90 57 ff 3e ba d2 a2 be e5 5d d7 ba b9 5f 04 bf
       0.49871492 -0.31801397 -0.0016431181 -0.5170856
000140 b2 0f a9 be 98 bb 1c 3e 10 85 f0 be 15 79 40 be
       -0.33019787 0.15305936 -0.4697652 -0.18796189
000150 75 60 c4 3e 44 09 32 3e 5b 21 6b be b4 5d ff b9
       0.3835484 0.17386347 -0.22961943 -0.00048707204
000160 68 6c 25 3d 13 01 e0 bd 5f 4c 9c 3e d2 88 b2 be
       0.040386587 -0.10937705 0.30527017 -0.3487001
000170 79 59 da bd 2f 00 ce be eb 3e d6 3e 29 94 58 3c
       -0.10661597 -0.40234515 0.41844878 0.013218918
000180 25 f0 1b be d6 14 7e bd ea 11 7d 3e 76 b9 0f 3f
       -0.15228327 -0.06203159 0.24713865 0.56142366
000190 bf 36 31 3e f5 71 7d 3e 4a df ad 3e 1e 36 de 3e
       0.1730604 0.24750502 0.3395942 0.43400663
0001a0 e4 78 d5 3d ce 25 a7 3e df e4 5c 3e e8 0e 49 bd
       0.10423449 0.3264603 0.21571682 -0.04908648
0001b0 2c 33 f2 be e0 9f 57 bd 3f 4e 4a bd eb 74 65 be
       -0.47304666 -0.052642703 -0.049391028 -0.22407882
0001c0 59 66 ed 3e ae 65 f4 3e da 8b 94 3e 0c 91 97 3e
       0.46367148 0.47733825 0.29012948 0.2960285
0001d0 db f4 1b bb c2 ef aa bd 20 50 0a 3e 16 e2 1d 3e
       -0.0023797068 -0.083465114 0.13507128 0.15418276
0001e0 09 b8 be 3b 61 1f 3d be 2f 3e 95 bd 0e 52 8b 3e
       0.0058202785 -0.18469001 -0.07287251 0.2721104
0001f0 77 97 25 be e0 57 77 3e 8d d3 2d 3d ab ae 31 3e
       -0.1617106 0.24154615 0.04243808 0.17351787
000200 a8 9c 73 3e ba 14 a0 3e 0e 16 8d bd 40 1a fd be
       0.23790228 0.31265813 -0.06888972 -0.4943409
000210 fd 3c 99 3c 2a 77 a5 be f7 85 63 be ad f6 2d 3e
       0.01870584 -0.32317477 -0.22219072 0.1698863
000220 6f 0c 98 be e3 b4 90 3e 0a cb a5 be 83 d9 d1 3e
       -0.29696986 0.28263006 -0.3238147 0.4098626
000230 2b 47 42 be 1d f0 9c bd 78 f0 57 be e2 f2 62 3e
       -0.18972461 -0.076629855 -0.21087825 0.22162965
000240 9d 66 8f 3d e3 e9 c2 bd b7 3b 4f bf 7c 22 db bd
       0.07001994 -0.095172666 -0.8095049 -0.10699937
000250 f1 af 92 3e 4c b6 ab 3e 58 11 bf 3d b9 51 23 be
       0.28649858 0.3353752 0.0932948 -0.15949143
000260 d2 62 52 be 56 fa e4 bd 5c 61 03 bf 55 1d 1e 3d
       -0.2054551 -0.1118056 -0.51320434 0.038602192
000270 ea c5 ff bd c1 4a e0 bc 86 3e 7f 3e ca 62 9f bd
       -0.12488921 -0.027379395 0.24926195 -0.077825144
000280 e4 ed 1d 3e 38 f3 23 bd 45 f4 a1 3e 31 5f b2 3e
       0.1542278 -0.040026873 0.31631675 0.3483825
000290 e7 2a b3 3e 5d c3 f1 3c 76 72 96 3e ad a4 9c bd
       0.3499367 0.029512102 0.29384202 -0.07648597
0002a0 24 56 a7 be 1c 85 62 3e 05 8c 1e 3e d4 ee 00 be
       -0.32682908 0.2212109 0.154831 -0.12591106
0002b0 fe 09 a4 3e 8e 0e a1 be d0 2c 2b bd 85 7a 49 3e
       0.32038873 -0.31456417 -0.041790783 0.19675644
0002c0 1b 77 3f 3e 0d 71 82 be 9a 57 78 be a1 42 b8 be
       0.18697779 -0.25476876 -0.24252167 -0.35988334
0002d0 66 a9 8a 3e df 12 3f 3d 12 fd e1 3e 0d 1c 6b 3e
       0.27082366 0.046648856 0.4413839 0.2295992
0002e0 2a 03 c3 bd 9e 14 fa 3e aa 0a 35 3e dd 40 fb be
       -0.09522088 0.48843855 0.1767985 -0.49072924
0002f0 10 5f 45 bc c8 d7 26 3f ac dd 0f 3e 11 3e ca 3e
       -0.01204659 0.65173006 0.14049405 0.39500478
000300 c4 93 03 be 83 56 a0 be 2e 26 e2 bd 0a 26 be bd
       -0.12849337 -0.31316003 -0.110424384 -0.09284599
000310 de e8 6c 3e c8 ce 20 be 5e d5 9a bd ca 4f 16 3f
       0.23135707 -0.15703881 -0.07560228 0.587155
000320 a2 82 7c bc 1a 0f 82 be 7e f3 ce be 70 94 8e 3e
       -0.015412005 -0.25402147 -0.40420145 0.27847624
000330 0d 95 4e be bc 78 14 be 9e 2c a2 bb cf 25 ba 3e
       -0.20174046 -0.14499182 -0.0049491664 0.3635697
000340 ac 30 95 be 24 09 31 3e bc fd 2e 3e e1 56 5d be
       -0.29138696 0.17288643 0.1708898 -0.21615173
000350 fa 75 ce be 72 3c d8 bd b9 0b d0 3e b1 12 44 be
       -0.40324384 -0.10558404 0.40633944 -0.19147755
000360 33 de 6e be ff b4 6e 3e c4 c1 a9 3e 6d 9b 82 3e
       -0.2332695 0.23311232 0.33155644 0.25509205
000370 0f d6 6d bb 75 4c 9c 3e 65 5c 9c 3e 15 dc 43 be
       -0.003629092 0.30527082 0.3053924 -0.19126923
000380 a9 3b e8 3c b8 8b 0e bd d7 45 b2 3e 37 5a 1e be
       0.02834876 -0.034801215 0.3481891 -0.15464102
000390 c0 96 03 be 56 a2 08 bf 60 38 76 be d6 e0 b8 bd
       -0.12850475 -0.53372705 -0.24044943 -0.09027259
0003a0 9d ed e0 3e 93 eb ad 3e 57 6d a8 be 24 c4 af 3e
       0.43931285 0.3396879 -0.3289592 0.3432933
0003b0 a9 df 1d 3f 8e cc 2f 3d 73 cd 24 3e 62 4f ff be
       0.61669403 0.042919688 0.16093998 -0.49865252
0003c0 9b a5 84 3d 4d e8 ae be 5c 71 e2 bd 68 61 cb be
       0.06476899 -0.34161606 -0.11056778 -0.39722753
0003d0 53 b9 8b be 9e e6 e5 3e 9b 47 a3 3d 76 3a 80 be
       -0.2728983 0.4490251 0.07972642 -0.25044602
0003e0 74 27 ff be d9 38 78 3c 17 f4 8f be ba 42 f6 bd
       -0.49834788 0.015150272 -0.28115913 -0.12024446
0003f0 02 6c b0 be ff 44 47 be 6b f0 8d 3e b2 03 55 be
       -0.34457403 -0.19459914 0.27722487 -0.20802191

actor.init_leaf_node_embed.0.add_bias._bias f4 [32, 1]
000000 25 c1 2e 3e f7 83 95 bc d2 ed 58 bc f9 42 b1 3d
       0.17065866 -0.018251402 -0.0132402945 0.08655352
000010 b8 4c 20 3c a0 3d 16 bd 29 2c bf 3c df 65 e0 3c
       0.009783916 -0.036679864 0.023336487 0.027392326
000020 d1 59 0a be 15 c6 f8 3b e4 58 3b bd 24 26 6f be
       -0.13510825 0.0075919726 -0.04573907 -0.23354393
000030 c8 51 93 3e d7 b0 40 bc 0d 0b 00 bd a0 32 c3 bc
       0.28773332 -0.011760912 -0.03126054 -0.02382785
000040 a9 e5 fa 3c 2b de 24 bd 69 a9 ad bd 2c dd 21 3e
       0.030627089 -0.04025094 -0.08479578 0.15807027
000050 99 73 48 bd ca 39 34 bd 32 81 13 3d 9d d4 19 bc
       -0.048938368 -0.044000424 0.036011882 -0.00938907
000060 4e 4a 5c 3d f0 89 84 bd 87 a8 49 bd 7a 4b d0 3c
       0.0537818 -0.06471622 -0.049232986 0.025426615
000070 65 49 11 be 5b 6b 97 3e 60 ea e2 3c bf 4a af bd
       -0.14188154 0.29574093 0.02769965 -0.085591786

actor.init_leaf_node_embed.2.module.weight f4 [64, 32]
000000 76 75 1b be 9f 5f b6 be 39 f9 8a be 9e 61 00 be
       -0.15181527 -0.35619828 -0.27143267 -0.12537238
000010 5e c8 33 3e c3 8c 03 3c dc 2b 60 3d 4b 50 0f 3e
       0.17556903 0.008029166 0.054729328 0.13995473
000020 84 02 48 3e 91 18 88 3d af 50 8a 3d f6 44 86 be
       0.1953221 0.06645311 0.067536704 -0.26224488
000030 0d 14 ab be 41 30 84 3c 34 a8 75 be 94 b0 ec bd
       -0.33413735 0.01613629 -0.23989946 -0.11557117
000040 3f 63 4d 3e 0d 38 bd bd 50 68 2e be 64 28 92 bd
       0.2005739 -0.092392065 -0.1703198 -0.0713661
000050 12 04 53 3d a6 43 96 be d2 df 75 3e 41 73 0d 3e
       0.051517554 -0.29348487 0.24011162 0.13813497
000060 93 ef f3 3d fa c6 03 bf d1 91 9f bd cb a7 f0 3d
       0.119109295 -0.5147549 -0.07791484 0.11750754
000070 09 44 0d 3e 79 6e 60 be 87 b8 d5 bc f1 9a 36 bc
       0.13795485 -0.21917142 -0.026088966 -0.011145339
000080 53 f5 19 3d 1f 11 1a 3e 9d 36 73 3d 7e dc c4 3d
       0.037587475 0.15045594 0.059378255 0.09612368
000090 de 83 25 3d 94 19 53 bc 97 81 d0 3d fc dc 14 be
       0.04040896 -0.012884516 0.10180967 -0.14537424
0000a0 9c 46 ed bd 34 df 91 be 3f fe cd 3e 9d 87 b6 bc
       -0.11585733 -0.28490603 0.40233037 -0.022281462
0000b0 cd a0 eb bc 17 21 d3 3d 67 f5 6a 3e df da 99 be
       -0.0287632 0.10309046 0.22945176 -0.30049798
0000c0 7f a6 b2 bd d2 81 49 be 93 c3 6e be fd a1 58 be
       -0.08723163 -0.19678429 -0.23316793 -0.21155544
0000d0 16 23 e1 3d 69 ab 6e bd cd 24 88 3c c1 f4 0f be
       0.1099302 -0.05826894 0.01661911 -0.1405821
0000e0 0b ca e8 be aa 78 df bd 9d ff 87 bc 78 b0 7f 3e
       -0.45466647 -0.10911687 -0.016601378 0.24969661
0000f0 32 3f 84 be 75 5e 31 be 6b 86 73 bd 21 5f c7 3e
       -0.25829464 -0.17321189 -0.059454363 0.38939765
000100 b2 0f a0 3e 2c 1e 4e 3c ed dc 1d be 67 95 3b bd
       0.31261975 0.012580436 -0.15416308 -0.045796778
000110 a2 ef 14 3e 25 13 7c bd 11 ae 01 be df b2 eb 3d
       0.14544538 -0.061541695 -0.12664057 0.11508726
000120 b9 7c ee be 81 7f bd bd 5b 5a e4 be 60 35 29 be
       -0.4657953 -0.09252835 -0.44600186 -0.16524267
000130 b5 1f 91 be 89 39 42 3d 20 15 90 3e 1a b6 cd bd
       -0.28344503 0.04741815 0.28141117 -0.10044499
000140 0c 22 dd bd 91 9b 53 3e ed 1d 96 be cc a2 cf bd
       -0.107975096 0.20664813 -0.29319707 -0.10138473
000150 85 73 9a bc 2e 59 f2 bd 89 02 15 3c 58 bd be bd
       -0.018853912 -0.11833416 0.009094843 -0.09313458
000160 bd 7a 8e bc 49 94 68 bd 19 7d ab bd 57 f2 fe bd
       -0.01739251 -0.05678204 -0.0837347 -0.124485664
000170 fe 6a 55 be d1 6d e5 bc 42 14 47 3e 21 be f7 3d
       -0.20841596 -0.028006466 0.19441321 0.12096811
000180 6d 07 11 3d 28 81 7f 3e 29 a6 33 3e 4f 70 0e 3e
       0.035407472 0.24951613 0.17543854 0.1391003
000190 d0 89 f0 3d 3e 07 55 3d e5 36 e8 bc 8d dc 31 3e
       0.11745036 0.05200886 -0.028346488 0.1736929
0001a0 f0 b5 1f bd 00 fa cd bd 77 a6 1e be 4d 9a 74 3e
       -0.03899187 -0.10057449 -0.15493189 0.23886986
0001b0 e2 88 81 be 5d b8 8d 3d 23 e8 7e 3d 42 8f 1f 3e
       -0.25299746 0.0691993 0.0622331 0.15581992
0001c0 97 ef e4 bd fa a6 6a 3e c2 9a a0 be ff eb 59 3d
       -0.11178511 0.22915259 -0.3136807 0.05320358
0001d0 90 4e a1 3d cb 88 11 3e 9c 9d 58 be f9 22 4e 3e
       0.07876313 0.14212339 -0.21153873 0.20130529
0001e0 88 f5 46 bc 92 90 15 3e a8 d8 21 3e 48 95 25 3e
       -0.0121435 0.1460593 0.15805304 0.16170228
0001f0 2d 70 99 3e 05 51 13 bd 36 01 4e 3e 6a c0 2f 3e
       0.29968396 -0.035965938 0.2011765 0.17163244
000200 ca 1b c9 bd 98 b2 94 bd 7a 66 89 3d 76 fc ae 3c
       -0.098197535 -0.072606266 0.06708999 0.021360617
000210 e6 4d 5d 3e af 0f e7 be 3d 0d 5e 3e f3 f7 07 be
       0.21611747 -0.45129153 0.21684738 -0.13278179
000220 9d ac 80 3d 15 ae ff 3c 55 2e a1 bd 0a 24 b4 be
       0.06282923 0.031210938 -0.07870165 -0.35183746
000230 76 59 af bd 4b 63 41 3e 09 1d f5 3d 74 3a 05 be
       -0.08561985 0.18885534 0.11968429 -0.1301058
000240 6b 73 df be 8d bc 9c be d8 92 12 3e 8b 91 8b 3d
       -0.43642744 -0.30612603 0.14313829 0.068148695
000250 7b e5 8e be 3d f1 1a 3e 78 31 37 bd 0e 39 c6 bb
       -0.27909455 0.15131088 -0.04472491 -0.006049282
000260 14 27 ca bd 97 31 36 bd c4 29 11 be 09 f3 1d 3e
       -0.09870735 -0.044480886 -0.14176089 0.15424742
000270 67 b4 78 3e 72 ce 1c 3e 77 c0 31 3d 8e d7 3a be
       0.24287568 0.15313128 0.04339644 -0.1824629
000280 78 a9 52 3d a3 b4 6e bc e8 2e 3b be a5 db 82 3d
       0.05143115 -0.014569434 -0.18279612 0.0638955
000290 d3 31 67 be e9 82 87 bd bc 4f b6 3e 92 f1 a6 be
       -0.225776 -0.06616766 0.35607708 -0.3260618
0002a0 e9 fc c9 bd 02 a1 2a 3d 0b e2 31 be 32 ae 93 3e
       -0.09862692 0.041657455 -0.17371385 0.28843838
0002b0 d4 a1 12 3f ad a5 2e 3d 5c 98 58 3e 70 6c 2f be
       0.5727818 0.04263847 0.2115187 -0.1713121
0002c0 b0 a2 13 3e 8e a5 17 3d 7d b1 90 be 09 bb ae bd
       0.14417529 0.03702312 -0.28260413 -0.08531768
0002d0 64 bd 5b 3d 5c e4 1c be ae 16 b0 3d 70 39 ec 3e
       0.053647414 -0.15321487 0.08598076 0.4613757
0002e0 74 5a b7 3d fa fd 05 be 26 4a a0 bd 13 34 20 3e
       0.089527994 -0.13085166 -0.07826643 0.15644865
0002f0 38 3b 2e be 58 2b 4b 3e 87 b8 92 3e 5e 6d d3 bd
       -0.17014778 0.19840753 0.28656408 -0.103235945
000300 de 7d 91 3e 8b 7e a0 be 29 2b 63 bd 37 fc 04 3e
       0.28416342 -0.31346545 -0.055461083 0.12986837
000310 b0 82 cf bd ca 5f 0c be d3 f3 27 3e d1 b5 bf 3c
       -0.101323485 -0.13708416 0.16401605 0.023402127
000320 d0 89 51 3e da 1c 14 bd aa de 82 3e 4c 0a 37 3e
       0.20462728 -0.036160327 0.25560504 0.17875022
000330 d1 f9 40 3e d5 d6 09 3e a2 f6 01 be ef 1a c7 bd
       0.18845297 0.13460858 -0.12691739 -0.09721934
000340 24 26 e5 be d6 8b 8b 3e bd 26 bd 3d 8a e6 1b 3e
       -0.4475566 0.27255124 0.09235904 0.15224662
000350 f4 3c c7 bb 5f bf 06 3c 78 09 12 bd 69 3d 5d 3d
       -0.006080264 0.008224337 -0.03565356 0.054013643
000360 5a 9b 29 3d 3d 69 e6 bc c3 9a 93 bd f4 0c 2c 3e
       0.04140792 -0.028126353 -0.07207253 0.16801816
000370 7b 22 14 be ad ae 57 3e f1 ec cc bd 86 fb 98 bd
       -0.14466278 0.21062727 -0.100061305 -0.07469849
000380 1b d3 02 be 95 6c db 3c 9c b9 f7 bd 1e a3 96 be
       -0.12775843 0.026785174 -0.12095949 -0.29421324
000390 d3 6c 02 3e 68 b5 38 bd 35 e7 4b be 18 87 7e be
       0.12736826 -0.045094877 -0.19912417 -0.24856222
0003a0 54 01 47 3e ed f7 d5 bd 8a ac 8e 3e 15 69 68 3c
       0.194341 -0.10447679 0.27866012 0.01418521
0003b0 d4 3a 21 3e 39 77 63 3d 16 c8 e9 bd fe 26 9b 3e
       0.15745097 0.05553362 -0.114151165 0.30303186
0003c0 4e f5 67 be 51 49 b5 bd 2a 08 2e 3d 94 6b 97 bd
       -0.2265217 -0.088518746 0.042488255 -0.07393566
0003d0 ee f4 97 3c 56 8d a1 3e 8a ab a0 3d a7 1b 75 3d
       0.018549409 0.31553143 0.078452185 0.059840824
0003e0 17 04 cf 3b 52 f4 60 3e fb c6 43 3e 94 c0 36 3e
       0.006317626 0.21968201 0.19118874 0.178469
0003f0 b1 5e fc be 9d a8 b6 3e 9d 99 98 3e 96 b4 75 be
       -0.49290994 0.35675517 0.29804698 -0.2399467

actor.init_leaf_node_embed.2.add_bias._bias f4 [64, 1]
000000 ee 5f 8b be 9f e4 e6 3d 01 18 d3 3b b5 f6 05 bc
       -0.27221626 0.11274075 0.0064420705 -0.008176495
000010 27 fd c3 bc db 20 96 3e 7a ae 6d 3e 98 de 3c 3e
       -0.023924423 0.29321942 0.23211089 0.18444288
000020 f0 dc c3 3e dd 48 29 be 4d 03 e8 bc ed cd 6e 3d
       0.382545 -0.16531701 -0.028321886 0.058301855
000030 dc 4b 17 bd de 03 d7 3d 43 43 e9 be 4d ea 0a be
       -0.03693758 0.104987845 -0.4555913 -0.13565941
000040 34 8d 89 bd a2 22 d5 3d 6d ed 00 3d 50 e1 17 3e
       -0.067163855 0.10406996 0.031476427 0.14832044
000050 88 81 88 be 88 d4 55 bc 4e 7a 0b 3c cc 6a 16 3e
       -0.26661325 -0.01305116 0.008513046 0.14689177
000060 46 29 08 be a8 c8 98 bb 9c 1a 08 3c 6c 14 2a bd
       -0.13296995 -0.004662592 0.008307125 -0.041523382
000070 34 4c 27 be 26 55 97 3e ef 63 a5 3d a0 04 f4 3c
       -0.16337663 0.2955715 0.080757014 0.029787362
000080 25 85 a9 3d f9 c2 69 be a1 5a 36 be be 51 2a 3d
       0.082773484 -0.22828282 -0.1780801 0.04158186
000090 35 33 dd 3d 85 8c aa 3e 65 18 be 3e ad 0a e9 3e
       0.108007826 0.33310333 0.37127987 0.45515957
0000a0 34 b2 36 3e cc e5 84 3e 60 4a f4 bd 00 fd f9 3d
       0.17841417 0.2595657 -0.119282484 0.12206459
0000b0 bf 52 32 bd 20 2c 7e be 82 01 a9 be 57 96 1d be
       -0.043535944 -0.2482152 -0.33008963 -0.15389381
0000c0 b3 bf c1 3e 4b b4 9b bd 4c 95 42 be ef 51 db 3e
       0.37841567 -0.076027475 -0.19002265 0.42835948
0000d0 d0 a9 65 bc 38 bb 5e 3e ff ab 99 be 8a 95 2b be
       -0.014017537 0.21751106 -0.30014035 -0.16756263
0000e0 ff 3c 00 3e be 3f b8 3e 8e 15 33 3e 15 f1 31 3e
       0.12523268 0.3598613 0.17488691 0.17377122
0000f0 ce 2c 1a 3e 69 04 cf 3e 27 a3 94 be fa f4 1f be
       0.15056154 0.40433052 -0.29030725 -0.15620795

actor.init_next_embed.0.module.weight f4 [32, 6]
000000 3a 6f 52 be d2 50 2a 3e 21 04 ab bd b3 ee 1f 3f
       -0.20550242 0.16632393 -0.08350397 0.624736
000010 6b 38 6e 3e 2c f9 48 bd 82 45 56 3e 9a 49 a6 3e
       0.23263709 -0.049065754 0.20924953 0.3247803
000020 0a bd 08 3c 76 20 25 3e 81 6c b7 3d e3 af 71 be
       0.008345852 0.16125664 0.08956242 -0.23602252
000030 95 25 bf 3d 89 c8 c7 be b2 c4 75 3e 15 01 4d bf
       0.0933334 -0.39020184 0.24000815 -0.80079776
000040 a9 56 e3 3d e4 82 33 3e b6 94 27 3f 12 a8 11 3f
       0.111005135 0.175304 0.6546129 0.5689708
000050 6e af e5 3d 48 04 f1 bd 05 2f a3 3e 0b 35 5d 3e
       0.11215101 -0.11768395 0.3187181 0.21602266
000060 8f 57 a7 be cd 0f 76 bd 60 cc 45 be 2e e7 36 3e
       -0.3268399 -0.060073663 -0.19316244 0.17861626
000070 53 ea 0e 3d 20 16 32 be e5 5b 34 be 70 ed eb 3d
       0.034891438 -0.17391253 -0.1761318 0.11519897
000080 3d d2 ea 3e 6b 59 b2 bc 61 aa ba be 4b 76 f4 bd
       0.45863524 -0.021771153 -0.36458114 -0.11936625
000090 e1 80 1d be 25 7a 68 be 1f a7 c0 bc ac f8 01 bf
       -0.15381195 -0.22702844 -0.02351719 -0.5077007
0000a0 a9 61 35 3c e4 1a 04 3f 4b af 4a be 5b 3c bb be
       0.011070647 0.5160353 -0.19793431 -0.36569485
0000b0 a5 ce 81 3e e9 a3 c5 3d 6f 28 f8 bd 17 35 52 3d
       0.2535297 0.09650404 -0.12117087 0.05132016
0000c0 8a 1d 0a be 9e 98 82 be 20 c8 af 3e 06 8d 6c be
       -0.13487831 -0.25507063 0.3433237 -0.23100671
0000d0 34 2a b2 3d 34 80 df bb 1b ef b7 be c8 1e 21 be
       0.08699456 -0.006820703 -0.3592461 -0.15734398
0000e0 e1 8f 14 be d5 0f e8 3e 8a 84 2e be ef 30 7b bd
       -0.1450801 0.4532458 -0.17042747 -0.061325964
0000f0 eb 33 90 3e bc dc 42 bd 1f e4 18 be 7f ca fb 3c
       0.2816461 -0.04757379 -0.14930771 0.030736206
000100 f3 a7 85 be 6e ca cc bd c5 85 82 be 03 53 42 be
       -0.26104698 -0.09999548 -0.25492683 -0.18976979
000110 5b 24 95 be 1f 30 5b be 57 d8 23 bd f6 e5 2c bd
       -0.291293 -0.21405075 -0.04000124 -0.042211495
000120 6c 15 99 3e 41 a7 28 bf d1 ae 32 bd b9 39 d8 bd
       0.29899156 -0.6588021 -0.04362375 -0.10557885
000130 ac 4b df bd ca 06 66 be 88 57 25 3e 31 1c 85 be
       -0.10903105 -0.22463527 0.16146672 -0.2599807
000140 93 7a 9e 3e f4 07 0a 3f a8 e7 a9 3d 6d a9 c3 bc
       0.30952892 0.53918386 0.08296138 -0.0238845
000150 39 df 07 be 8c fc 59 3d 48 ba d8 bd 49 31 9c be
       -0.13268746 0.053219363 -0.10582405 -0.30506352
000160 d8 90 94 3d 39 02 15 3e 43 70 17 3c c0 c9 8c 3d
       0.07254189 0.14551629 0.009243074 0.06874418
000170 b5 a4 6e 3e 95 18 a0 be aa 23 0d bd 81 39 81 be
       0.23305018 -0.31268755 -0.03445784 -0.25239184
000180 0e 07 b2 bd 99 f8 13 be 79 e2 02 be 87 52 49 bf
       -0.08692752 -0.14450301 -0.12781705 -0.7864155
000190 54 e1 ab 3e 66 b1 a5 3e b4 ab 85 be be 9e e8 3e
       0.3357035 0.32361907 -0.26107562 0.4543361
0001a0 dd e7 fe 3e 79 1c 01 3e 9e 32 5c 3e c9 ed 0b 3f
       0.49786273 0.12608518 0.21503684 0.54659706
0001b0 b0 1a 3c be 7c 35 6e bc 26 dd b1 be ea 7e 9c bd
       -0.18369555 -0.014539119 -0.34739035 -0.076413944
0001c0 fb 94 11 be b8 93 e6 be 8a bd a5 3d 30 7c 65 be
       -0.14216988 -0.45034575 0.08092792 -0.22410655
0001d0 c0 d7 46 3e bf 5c 9c 3e 46 29 f2 bd bc 2f 18 be
       0.1941824 0.3053951 -0.118242785 -0.14861959
0001e0 ad f1 24 3d c4 c6 ba 3e e6 33 24 3e c7 70 9a bf
       0.040269542 0.3647977 0.16035423 -1.2065667
0001f0 4f 15 6b be 66 40 b5 3e f3 8d f7 3e 76 8e 35 be
       -0.22957347 0.35400695 0.48350486 -0.17730126
000200 f6 14 aa 3d 93 5a be 3e 37 92 c3 3e d5 bf 22 3f
       0.08304779 0.37178478 0.3819749 0.6357396
000210 70 df 67 be a6 90 e2 3c ad ac ba bd 13 c0 ec 3c
       -0.22643828 0.027656864 -0.091149665 0.028900182
000220 f6 db cb be 04 f8 93 bc ba cd b8 bd 4a 39 42 be
       -0.39816254 -0.018062599 -0.09023614 -0.18967167
000230 52 32 06 be cb 21 ea bd 9d c6 9e bd 06 fd 07 bd
       -0.13105133 -0.11432227 -0.07752726 -0.033200286
000240 36 b0 67 be 09 fb 95 bd d3 cd ac 3e 26 94 ab be
       -0.22625813 -0.07323272 0.3375078 -0.33511466
000250 d2 37 09 3f 99 b4 b6 be 50 e5 09 be ab 12 54 bd
       0.536008 -0.3568466 -0.13466382 -0.051775616
000260 6e 6b 11 3d 9f d0 f6 bd 4e a9 f8 be 62 45 be 3e
       0.035502844 -0.1205151 -0.4856667 0.3716231
000270 a9 0c c7 be 7e 9e 2e be 98 f9 da 3e 5d 12 e0 3e
       -0.38876846 -0.17052647 0.4276855 0.4376401
000280 f9 77 81 3b ce cb 98 be c8 d6 9d 3e f6 a5 c8 bd
       0.0039510694 -0.2984299 0.30827928 -0.097972795
000290 72 4c 0d 3e 01 5a a2 be 30 2d 9f 3d 41 5c 19 be
       0.13798693 -0.31709293 0.07772291 -0.14976598
0002a0 4e 15 e7 bd fe fa d7 3d a5 f1 04 bf d5 88 33 be
       -0.112833604 0.1054592 -0.5193122 -0.17532666
0002b0 cf 56 19 3d de d1 83 3d f6 31 38 3e 76 7b 2e bd
       0.037436303 0.06436513 0.17987809 -0.04259821
0002c0 81 01 a9 3e 64 66 63 be cc 01 1e be 72 aa b0 bd
       0.3300896 -0.22207028 -0.15430373 -0.0862626
0002d0 f9 5c a5 bd 2a 72 b7 bc 7b a9 81 ba 4a 65 19 be
       -0.08074374 -0.022393305 -0.0009892428 -0.14980045
0002e0 6d f1 23 bf 36 b4 1d 3f 1b 7c 89 3d be 4c e1 bd
       -0.6404026 0.61603105 0.06713124 -0.110009655
0002f0 4d c5 1f be d3 29 be bd ae d1 91 3c 6e 83 23 be
       -0.15602608 -0.09285321 0.017800178 -0.15968105

actor.init_next_embed.0.add_bias._bias f4 [32, 1]
000000 35 11 20 3f ac c7 d6 bd 7f ad d2 bd bb 43 d9 3e
       0.62526256 -0.10487303 -0.10286998 0.42434487
000010 22 89 43 bc f9 94 0f bd a3 08 98 3e 12 a4 e6 bc
       -0.0119345505 -0.03505418 0.2969409 -0.028154407
000020 29 76 23 bd d6 49 70 bd 27 f9 29 be 42 6c 49 3e
       -0.03990761 -0.058664165 -0.1659895 0.19670203
000030 d5 32 54 bc 4e 4f a3 3e b5 40 a4 bd 16 a6 09 bd
       -0.012951572 0.31896442 -0.080201544 -0.033605658
000040 8d 57 b7 bc b2 bd ba 3e 5b da 89 bc 1e 5a 0b be
       -0.022380615 0.3647285 -0.016827753 -0.13608596
000050 20 06 09 3f 4d 83 f1 3d 8c 7d a2 3c 82 b4 1a bd
       0.5352497 0.11792622 0.019835256 -0.037769802
000060 63 85 9b bc b9 5e 8c bd 3b be 3a bd f4 b2 09 bc
       -0.018984502 -0.068540044 -0.045591574 -0.008404482
000070 8e e8 e6 bc 22 7b 11 bc d9 6f 09 bc 0c 1a 7a 3b
       -0.028187063 -0.008879455 -0.008388483 0.0038162498

actor.init_next_embed.2.module.weight f4 [64, 32]
000000 62 a1 85 be 62 bc e1 3d da 65 c0 3d 1e 4e 83 3e
       -0.26099688 0.11022259 0.09394427 0.25645536
000010 2b d3 33 3e 9a d9 ea bd 5c 9b 38 3d 24 2a 8f 3e
       0.17561023 -0.114672855 0.045070037 0.27961838
000020 bc cb f8 3d 2e c1 28 3d 9d 79 0c 3e 49 07 42 be
       0.12148234 0.041199856 0.13718267 -0.18948092
000030 f3 40 09 3b 4f 8e 02 3e aa de 4d 3e d9 e8 98 bc
       0.0020943254 0.12749599 0.20104471 -0.018665718
000040 c1 5d a2 3e ca ea 9a 3e e6 f0 a3 bc b6 93 2a 3e
       0.31712154 0.30257255 -0.02001233 0.1665791
000050 ba 72 a6 3d 25 79 b7 bd a5 ec 80 3e ce 93 07 3f
       0.08127351 -0.08958653 0.25180545 0.5295991
000060 c3 36 93 3d f8 0c a8 3c 63 6a 48 bb e7 c3 19 be
       0.07188179 0.020513996 -0.003058099 -0.15016137
000070 9c 36 96 bd d8 10 e2 bd 73 a9 05 3d 55 c2 d6 bd
       -0.07334635 -0.11038369 0.032632302 -0.10486285
000080 a8 52 b7 3e 48 a6 b1 bc c5 72 11 be 42 fa 18 3d
       0.3580525 -0.021685734 -0.14203937 0.03734804
000090 ef d0 4b 3e d9 82 2e 3e 50 01 b6 be 7c f1 e7 3d
       0.1990392 0.17042102 -0.35547876 0.11325356
0000a0 21 4b 16 bd 83 3f a6 3d 11 51 0c be 51 a8 8e be
       -0.036692742 0.08117583 -0.137028 -0.2786279
0000b0 55 c9 8b be 41 ca ac 3d 0e a7 da 3e c7 ab 94 3e
       -0.27302042 0.08437014 0.42705578 0.29037306
0000c0 31 18 93 be f6 c9 8a 3d c6 63 1e 3e 71 df 80 be
       -0.28729394 0.06776802 0.15467748 -0.25170472
0000d0 73 da ca be fd 7d 2c be 15 5b 69 be 7b e7 81 bd
       -0.3961979 -0.16844936 -0.22788651 -0.063429795
0000e0 b7 ec 58 bd 45 f6 f6 3d 6e 00 a9 3d 92 7d 20 be
       -0.052960124 0.12058691 0.08252035 -0.15672901
0000f0 0b 86 98 3d c0 80 77 3d c4 09 ab bd 7a 76 04 be
       0.07447442 0.06042552 -0.08351472 -0.1293582
000100 5f a7 38 3e 0b 2d c7 3e df 7c a7 3d 84 aa 3b 3e
       0.18032597 0.38901553 0.08178114 0.18326765
000110 7b d7 81 3d 8e 5a fa 3d a0 34 84 3e e5 05 70 be
       0.06339928 0.12224303 0.258214 -0.23439749
000120 dc f7 0e 3e 9b 6a f9 bd 1b 88 7b bd a2 9f 99 be
       0.13961738 -0.121785365 -0.061409097 -0.30004603
000130 1d 6b 01 bd 3a b8 b6 be 8a 18 00 be 4d 93 09 3c
       -0.03159629 -0.3568743 -0.12509361 0.008396936
000140 0a 74 13 3d dd 29 08 bd 92 38 2b 3d 3e 2a a6 be
       0.035999335 -0.03324305 0.041801997 -0.32454103
000150 73 18 87 be 9d c8 bc 3e 6c ea 29 3e 8b 82 e0 bd
       -0.2638584 0.36871806 0.16593331 -0.10962399
000160 b7 38 24 3e 8a 17 a7 be df 89 1d 3d 5b 5a 21 3e
       0.1603726 -0.32635146 0.038461562 0.15757124
000170 aa 71 84 3e 17 c8 c0 bd ea b8 ad be 23 f9 37 3e
       0.2586797 -0.09413164 -0.3393014 0.17966132
000180 81 ed 11 3f d7 4d 7d 3e 2c 8a 1b be 54 66 a1 3e
       0.5700303 0.24736725 -0.15189427 0.31523383
000190 21 76 3b 3e e1 d3 78 bc c1 99 cb 3d 23 01 ff bc
       0.18306781 -0.015187235 0.099414356 -0.031128472
0001a0 85 08 32 3c e2 ce c6 3e 99 5f 18 3e c7 db b1 3e
       0.010866289 0.38829714 0.14880218 0.3473799
0001b0 78 a1 96 3d 30 32 a5 3e 4e ef 39 be c1 78 a8 3d
       0.073550165 0.32264853 -0.18157694 0.08226157
0001c0 a2 91 30 3e 65 a4 aa 3e 22 e6 d9 bd 86 ee 35 3e
       0.17243055 0.33328548 -0.106395975 0.1776677
0001d0 e0 6c 93 3e 76 3a 26 3e 7c f4 fd bd fd e6 8d be
       0.28794003 0.16233239 -0.12400147 -0.27715293
0001e0 c8 b1 59 bd ad 5f 8d bc e8 df 87 be 71 62 1c 3e
       -0.05314806 -0.017257536 -0.26538014 0.15271927
0001f0 8c aa ca 3d f5 b5 37 3d a3 ab 56 3e 47 db 06 3d
       0.098958105 0.044851262 0.20963912 0.032923963
000200 31 c4 ea 3e 80 5b b1 bc 78 f4 b8 ba 55 b1 bd 3e
       0.45852807 -0.021650076 -0.0014110943 0.37049356
000210 d9 1a 5d 3e b7 78 2b 3e 1e cf 8b 3d aa 2b 28 3e
       0.21592273 0.16745268 0.06826614 0.16422907
000220 92 ff 34 3e 46 03 ba bd b4 bb ac bc d9 09 76 bc
       0.17675617 -0.090826556 -0.021085598 -0.015016996
000230 ec 4e 0c be 2e 5a 13 3b ca 59 38 be 03 ee a7 be
       -0.13701981 0.0022484171 -0.18003002 -0.32798776
000240 4e b5 a2 3d ee 2c 9f 3d 2c 8c 2c 3d c7 c4 96 be
       0.079447374 0.077722415 0.042125866 -0.29447004
000250 74 b2 00 3f 92 2a 4a 3e 21 bf 85 bc 2c a3 80 bc
       0.502723 0.19742802 -0.016326489 -0.015702806
000260 f6 0f 2b 3e 68 27 39 3e 11 36 23 3e ea 74 c6 bd
       0.16705307 0.18081439 0.15938593 -0.09690268
000270 29 b9 6b 3d 4e ab 18 3d 37 df 0f 3e e7 20 f1 bd
       0.05754963 0.037272744 0.14049993 -0.11773854
000280 1e f6 24 bf dc 32 01 bf 1b d3 74 bd dc 58 06 bf
       -0.64438045 -0.5046823 -0.05977164 -0.5247934
000290 35 b5 8d 3c ec 68 1b 3e a5 a3 63 be 29 ce 1a 3e
       0.01729832 0.15176743 -0.22230394 0.15117706
0002a0 6c 87 ba 3d 5f 14 09 3e ac 83 52 be 92 08 86 be
       0.09107861 0.13386677 -0.20558041 -0.26178414
0002b0 66 06 de bc de 7e c6 bd c8 7d 62 bd 08 2b 04 3e
       -0.02710266 -0.09692167 -0.055295736 0.1290704
0002c0 dd 2b e1 3b 5d 99 94 bd 62 5d 2d 3e 6f b6 2d bc
       0.006871684 -0.07255814 0.16930154 -0.010602578
0002d0 ab f9 f2 be b3 97 04 be ba d2 90 3d 71 98 80 bd
       -0.47456107 -0.12948494 0.07071443 -0.06279076
0002e0 e2 ba 68 be 84 15 61 be c6 41 0b be e5 18 36 be
       -0.2272754 -0.21980864 -0.1359931 -0.17782934
0002f0 ca 5d fe 3d 9e 7d 58 be f0 95 2c 3c c9 f5 2b be
       0.124202326 -0.21141669 0.010533795 -0.16792978
000300 a4 42 09 3e 35 2f 29 be 78 20 86 bd 23 92 83 3d
       0.13404328 -0.16521914 -0.06549162 0.06424358
000310 69 85 e7 bc bf 98 9c 3d fe 48 9f bd ce 90 49 bc
       -0.028261857 0.076463215 -0.07777594 -0.0123025905
000320 28 9c ed 3e 7c 8e 65 3d d7 be 2b bd fe 37 d5 bd
       0.464082 0.056044087 -0.041930046 -0.1041107
000330 f4 23 51 be d6 52 d8 bc 73 4f b0 be 41 53 8c be
       -0.20423871 -0.026406687 -0.34435615 -0.27407268
000340 23 b3 e9 be 18 9f 0a bd 34 d2 b0 be 0b 06 10 be
       -0.45644483 -0.03384313 -0.34535372 -0.14064805
000350 f6 ff 11 be 7f 5c 0c bd 24 ff 89 3d 14 e2 9e bd
       -0.14257798 -0.0342679 0.06738117 -0.07757965
000360 db 1a 55 bd fe cc 38 be 44 12 05 3d 64 18 fd 3c
       -0.052027564 -0.18046948 0.032488123 0.03089542
000370 e8 51 95 bd 45 ab 4e 3e 0c b3 81 bd 92 3e 18 3e
       -0.07291013 0.20182522 -0.063329786 0.14867619
000380 ea cd 2e 3f 9f ea 17 3e a2 ac dd 3c 67 b8 8b 3e
       0.6828295 0.14835595 0.027059857 0.27289125
000390 99 27 df 3d db 91 73 be d0 68 5b 3d 86 49 15 3e
       0.108962245 -0.23786108 0.053566754 0.14578828
0003a0 c5 f4 46 bd af 82 d8 3d cc 98 37 3d b3 9a f0 3e
       -0.048573274 0.10571801 0.044823453 0.46993026
0003b0 d1 f6 ad 3e 3e c9 01 be 3f fa 90 3e 77 c2 20 be
       0.33977368 -0.12674424 0.28315923 -0.15699182
0003c0 e3 29 af 3d d8 51 42 3e 04 cd 66 3d 3c 27 98 bd
       0.08552911 0.18976533 0.056347862 -0.07429358
0003d0 1c 6e 26 be c2 98 13 3f 5f 24 2d 3e ef cc 8c 3d
       -0.16252941 0.57654965 0.16908406 0.068750255
0003e0 b7 1b 63 3e 3b 64 4c 3d 2e 7a 89 be fd ea e7 bd
       0.22178541 0.049900275 -0.26851028 -0.11324117
0003f0 0b f6 34 be 30 ef 2d be 25 3e c7 3e 77 b4 49 3d
       -0.17671983 -0.16985774 0.389146 0.04924437

actor.init_next_embed.2.add_bias._bias f4 [64, 1]
000000 fb 97 82 bd 2b 3b f2 bd d3 b8 81 3d fb fd 40 3f
       -0.06376644 -0.11827692 0.063340805 0.75387543
000010 66 03 f9 3e f6 ba 54 bf 83 ee 33 bc 7a 2d 0b 3f
       0.48635405 -0.8309778 -0.010982159 0.54366267
000020 54 79 ae be ef a7 ed bd 31 a2 11 3e 40 d8 a1 3e
       -0.3407694 -0.116042964 0.14222027 0.31610298
000030 91 10 f4 3d f4 97 ab be a0 fc 17 3f 05 3d c7 be
       0.11917222 -0.3351437 0.5936985 -0.38913742
000040 78 77 19 3e 12 13 98 3e e5 d5 4f 3e cf b6 41 3e
       0.1498698 0.2970205 0.20296438 0.18917392
000050 e0 66 91 be f3 ff 57 3d 9f 13 1e be de c0 d5 be
       -0.283988 0.052734327 -0.15437172 -0.41748708
000060 17 fa 01 be 5e a8 5a be ba aa 25 bf 33 f6 31 bd
       -0.12693058 -0.2135329 -0.64713633 -0.043447684
000070 a4 d8 57 3f 95 f2 c7 bd b4 a7 91 be d5 91 c1 3e
       0.8431494 -0.09763066 -0.2844826 0.37806574
000080 55 16 44 be 3c 23 e6 3d fc bc 2c bd 5c 8b 3c be
       -0.19149144 0.11237189 -0.042172417 -0.18412536
000090 39 8c af be 00 4b 29 bf 5d 24 14 bf 30 ec 19 bf
       -0.3428667 -0.66130066 -0.57867986 -0.6012602
0000a0 69 47 9c bd 5a 10 d4 bd c4 28 30 be e2 4d b3 be
       -0.07630808 -0.10354681 -0.17203051 -0.35020357
0000b0 0e d0 8d be db dc 32 3f 58 fe 00 3e f4 e4 a0 3b
       -0.27697796 0.6986825 0.12597024 0.004910106
0000c0 7f 95 13 3f a4 f8 4e 3e de 9d 81 bf b4 40 01 bf
       0.5764999 0.20212036 -1.0126302 -0.50489354
0000d0 59 3d 1d 3e f6 fd ee be 78 0c 54 3f cd 9d 81 be
       0.15355434 -0.46678132 0.82831526 -0.25315705
0000e0 36 23 92 bd 80 d4 18 bf 92 2a 2f bd 08 71 e0 3e
       -0.07135622 -0.5969925 -0.042765208 0.43836236
0000f0 9d b2 93 3d 04 35 73 3e aa 5b 0d be 7e 74 86 3b
       0.07211802 0.23750693 -0.13804498 0.0041032424
