pretrained_models/experiment/Discrete_acktr_20x10x10Bin_s42_inh_800_defaultBox-2022.08.18-13-06-52/PCT-Discrete_acktr_20x10x10Bin_s42_inh_800_defaultBox-2022.08.18-13-06-52_2022.08.18-15-58-09.pt (torch, 236314 bytes, 24 tensors)

actor.init_internal_node_embed.0.module.weight f4 [32, 6]
000000 f1 5e 6e 3e 08 2e 17 3f bb 05 1f 3f 14 9b 91 be
       0.23278405 0.59054613 0.6211812 -0.28438628
000010 7c 4e 3a 3c 73 d9 41 3e 09 e6 40 3e d3 aa d7 3e
       0.011371251 0.18930607 0.18837751 0.42122516
000020 d6 65 00 bd 67 35 f9 bd cf d2 a3 be a0 27 ce bd
       -0.03134712 -0.12168389 -0.31996772 -0.100661516
000030 15 f6 2b 3d fb eb 3d bd 7f b8 4a 3d 99 fc cd 3d
       0.04198273 -0.046367627 0.049492355 0.10057945
000040 d9 20 8c be cb c2 b1 3d b9 52 07 bf 06 0c d0 bc
       -0.2736881 0.08679732 -0.528606 -0.025396358
000050 8d 5e c9 be d2 15 0e 3f 60 7c 8f 3e 55 27 5f 3f
       -0.3932995 0.55502045 0.28024578 0.8716939
000060 95 27 f2 3e 6d 21 2a be 4e 2b e3 bb 0f 1f b2 3d
       0.47295824 -0.16614313 -0.0069326526 0.0869733
000070 5c a0 8c bc 97 72 f5 bd 03 39 80 3e cc d6 eb 3d
       -0.017166309 -0.11984747 0.25043496 0.11515579
000080 a8 11 b6 be c0 ad c9 3e e1 28 f3 bd 41 6f 98 be
       -0.35560346 0.39390373 -0.118730314 -0.2977238
000090 46 b6 df be 98 7c 56 3e e4 4a 13 3e 87 7e 44 3e
       -0.4369375 0.20945966 0.14384037 0.19188891
0000a0 71 d7 a6 be ab c8 28 be 9d 5b 5a 3e 71 43 fd bd
       -0.32586244 -0.16482799 0.2132401 -0.12366379
0000b0 29 d4 f6 3e 4f d8 8a 3c 0f 3a 39 bf fe df 06 3e
       0.4820874 0.016948847 -0.72354215 0.13171384
0000c0 ad ec e5 be a8 4c cb 3d 8f fa 4d bf 00 53 d4 3e
       -0.44907132 0.099267304 -0.8046045 0.41469574
0000d0 2d 2a 0d 3d 8d e4 83 3d 63 54 26 3f 4c dd 15 bd
       0.03446405 0.06440077 0.64972514 -0.036588
0000e0 5b cd d0 bd 81 43 11 3e 7c 67 42 be bb e5 28 be
       -0.101954184 0.14185907 -0.18984789 -0.16493885
0000f0 81 0c 5a bd 0b ad c5 3d ce f7 b3 be 47 93 0d 3f
       -0.05323458 0.09652146 -0.35149997 0.5530285
000100 83 ce 04 3f cf b9 1f bf 65 25 5b be cc 7d 29 be
       0.5187761 -0.62392896 -0.21400984 -0.16551894
000110 80 0d 24 be 0a 38 9d bd 5b af af be 75 91 4d be
       -0.16020775 -0.07676704 -0.34313473 -0.20075019
000120 8d d8 69 3f cf 49 e5 3d 4b c0 f5 3d 5f 9e e6 bd
       0.91346055 0.111957185 0.119995676 -0.11260676
000130 a6 2b ea bd 91 ee 58 be 1f 23 d0 3e e5 98 38 3d
       -0.114341065 -0.21184756 0.40651795 0.045067687
000140 68 53 48 be c5 a1 d8 bd 76 1a 94 3e f2 f5 ad be
       -0.19563067 -0.1057773 0.28926438 -0.33976704
000150 98 99 be 3e 60 61 ea 3e 2d 11 bb be 02 11 2a bd
       0.37226558 0.45777416 -0.36536542 -0.041520126
000160 96 e4 80 3d 90 71 94 bd 41 af fd bc 3e 3a 92 be
       0.06293599 -0.07248223 -0.030967357 -0.2856006
000170 63 24 74 be 69 15 a5 bd ef 97 11 3e bf 70 8f be
       -0.23842005 -0.08060724 0.14218114 -0.28015706
000180 81 42 01 3e 0d f4 f5 bd 49 41 d2 3e ee c8 3a bf
       0.12623025 -0.120094396 0.41065434 -0.72962844
000190 e1 fa f9 3e bf 95 f6 3e a4 0e 92 3d 19 65 5f 3d
       0.48824218 0.48161122 0.07131699 0.054539774
0001a0 0a 24 ca 3d 76 ac 5c 3e dd 25 10 bf 2e 38 b7 be
       0.09870155 0.21550164 -0.56307775 -0.3578505
0001b0 08 d0 a6 3e 89 f4 06 3e c5 31 e8 be 5f fe 7c 3e
       0.3258059 0.1317922 -0.4535047 0.2470641
0001c0 4c 67 f8 3d 1e ad 4a bd b6 95 b4 3e 7c e9 4f be
       0.12129077 -0.049481504 0.3527047 -0.20303911
0001d0 10 07 68 3d cb c3 68 be 1b bf bd bd 80 82 ed 3d
       0.05664736 -0.22730939 -0.09264966 0.115971565
0001e0 37 fa 8f 3d 6c 12 82 3e 2d 23 e3 be c1 6a 8b 3e
       0.070301466 0.2540468 -0.44362774 0.27229884
0001f0 36 99 11 3c c6 4d fd be 98 6b 29 be 9e bd bf bd
       0.008886626 -0.494734 -0.1654495 -0.093623385
000200 34 09 93 be ee 03 1a 3e e9 ab f0 bd f2 1e cb be
       -0.2871796 0.15040562 -0.11751539 -0.39672047
000210 ce 2f 43 bf 92 f1 59 bf 0e db 58 bf 0a 9b 08 3f
       -0.7624482 -0.8513423 -0.8470925 0.5336157
000220 81 2b e4 3e 0d 07 dd 3e b9 94 87 be 1c ef a7 bd
       0.4456444 0.43169442 -0.26480654 -0.08199903
000230 7a 28 49 be 8a a1 51 3d 81 22 49 bd b5 2f 20 3f
       -0.19644347 0.051179446 -0.04910517 0.62572795
000240 7b 3f 05 be ee 88 dc bc 6c 6c 84 3f c7 6d b5 3e
       -0.13012497 -0.026920762 1.0345588 0.35435316
000250 5b 09 f3 3d cb 9f 68 3e a3 7d 98 bd dc 14 89 3e
       0.11867019 0.22717206 -0.07445838 0.26773727
000260 25 bb b3 3e 07 4b 97 be cb 53 9e bd 7f fd ec 3e
       0.35103717 -0.2954943 -0.07730826 0.46287152
000270 b2 07 80 be fc 66 13 3d aa 55 6f be 82 40 50 3c
       -0.2500587 0.035986885 -0.23372522 0.012710692
000280 49 ab 8a 3e d3 8a e5 bd e7 54 a0 bd 8f a4 de 3c
       0.27083805 -0.11208119 -0.07828694 0.027178077
000290 31 8d b2 3e 83 27 bf be f6 a9 39 bd dd 08 41 be
       0.34873345 -0.37334833 -0.045328103 -0.18851037
0002a0 a7 57 b6 be 69 c9 19 bf 35 41 8b bd 4e f0 3e 3d
       -0.35613748 -0.6007295 -0.06799547 0.04661589
0002b0 cc 45 24 3e c6 8d 4c 3d 29 b3 85 be 11 c9 45 3e
       0.1604225 0.049939893 -0.2611325 0.19314982
0002c0 65 c7 94 3e e1 42 72 be af a2 ae bd 59 c4 90 ba
       0.29058376 -0.23658325 -0.08527123 -0.0011044844
0002d0 41 62 c7 3e 8f 18 aa 3a 84 c8 4a 3d fb c1 ac bd
       0.3894215 0.001297729 0.049507633 -0.08435436
0002e0 dd 1a 51 3e f0 67 d8 be 52 93 72 3e 40 ae 4f 3e
       0.20420404 -0.42266798 0.2368901 0.20281315
0002f0 ae 8e 86 be e5 c3 1c be e1 95 3f bc 3f 37 a5 3e
       -0.2628073 -0.15309103 -0.011693449 0.32268712

actor.init_internal_node_embed.0.add_bias._bias f4 [32, 1]
000000 67 67 02 3d 6f 67 85 3c e8 46 f4 bc 57 43 7b 3d
       0.031836893 0.016284673 -0.029818967 0.061343517
000010 aa e8 fb 3d 3e b7 2e 3c cf 7c b4 bc f4 00 b5 3c
       0.123002365 0.0106638055 -0.02203217 0.022095181
000020 ef e1 e8 3c fe f3 a1 3d f0 cb cc 3c ae f9 9d 3c
       0.028428046 0.07907866 0.024999589 0.019284096
000030 55 b4 22 3d 0c 88 c1 3c de f2 c1 3b 19 83 89 bb
       0.03972276 0.023624443 0.0059188446 -0.0041965363
000040 b8 96 4c 3c b2 3b 2c 3c a7 c1 a7 3a c9 99 cd 39
       0.012487106 0.010512279 0.0012798802 0.00039215226
000050 5f 82 43 bc f3 69 b1 3c a7 d8 91 bb 17 22 db bb
       -0.011932938 0.021656966 -0.004450876 -0.0066874134
000060 aa dc 85 3d ba 75 7d 3c a5 f7 3b bc fc 81 84 bc
       0.06536229 0.015469963 -0.011472617 -0.016175263
000070 e2 c2 68 3b 10 44 86 ba d3 d2 37 3c 2e d2 17 3d
       0.003551655 -0.0010243673 0.011219698 0.037065677

actor.init_internal_node_embed.2.module.weight f4 [64, 32]
000000 29 ef 7e be 6f 5e 69 3d 6a 11 06 be 54 f6 b7 3e
       -0.2489592 0.056974825 -0.1309258 0.3593012
000010 1e 88 27 3e 6d ef 3f 3d 49 91 ac 3d 2b 77 ec 3d
       0.16360518 0.046859194 0.084261484 0.11546167
000020 7c a5 90 be 1f ce 90 be 0c 46 ef bd 28 86 3e 3b
       -0.28251255 -0.28282258 -0.11683282 0.0029071663
000030 9f 19 a6 be 07 b7 1f be 5e 40 03 3d 5f 28 34 be
       -0.32441422 -0.15597163 0.032043807 -0.17593525
000040 79 4e ce 3e 17 b3 a6 bd 6a 8a 1f be c6 33 82 3e
       0.40294245 -0.081396274 -0.15580145 0.25430125
000050 0d 79 96 3d 49 d3 84 be 59 bb e3 bd b4 ce 32 be
       0.07347307 -0.25942448 -0.11119718 -0.17461663
000060 e0 c8 f7 3d ef c6 ac 3e 69 f9 19 3e fb 1f cc 3d
       0.12098861 0.33745524 0.15036549 0.09967037
000070 1c 1c 4c bd db 21 39 be 10 ed 27 be c1 93 0a 3e
       -0.049831495 -0.18079321 -0.16399026 0.13532926
000080 4b b4 b9 be 9b b1 b1 be 22 72 ba be b9 ec 76 be
       -0.36270365 -0.34705815 -0.364152 -0.2411374
000090 79 2d 4a 3d 5d cf 4c 3e c6 4a 38 3b af f7 ce 3e
       0.049359772 0.20000978 0.002812074 0.40423343
0000a0 33 f3 b2 bc a1 04 d3 bd a1 13 05 bd 23 b5 50 bd
       -0.021844482 -0.10303617 -0.032489423 -0.050953995
0000b0 0f 1a a5 be 66 45 d5 3d aa 0a 60 be 59 70 26 3e
       -0.32246444 0.10413627 -0.21879068 0.16253795
0000c0 70 47 81 3d 13 83 0a 3c 93 1e cd be ec c2 26 be
       0.06312454 0.008454102 -0.4006239 -0.16285294
0000d0 6b f0 a8 3e f0 c8 c8 3d c6 4b 0e 3e 4f 9e 8a be
       0.32995924 0.09803951 0.13896093 -0.27073905
0000e0 fa 38 82 be 3c f5 b7 3d e1 ba c8 bc bc e9 26 3e
       -0.25434095 0.089823216 -0.024503173 0.163001
0000f0 be 47 7e be b1 f4 4d 3e cd d2 b2 3e 1a e5 cb 3b
       -0.24832055 0.20112874 0.34926453 0.0062223794
000100 1f ce 48 3f ad 91 3f be b9 4a 00 bd 43 f5 c5 3e
       0.78439516 -0.18707915 -0.03132126 0.38663682
000110 3b a9 95 be d2 7d 73 3e 44 11 8a be 90 c9 1b be
       -0.29230675 0.23778465 -0.26966298 -0.15213609
000120 41 be 41 3e 77 de 92 3e 13 72 0e 3e 42 60 a6 be
       0.18920232 0.28685352 0.13910703 -0.32495314
000130 de 2e 67 3f 35 5b 4f be 81 f5 09 3e 42 a9 46 bc
       0.9030589 -0.20249636 0.13472559 -0.012125315
000140 4e 49 80 3e ec e3 b6 3d 6c e7 85 3d 12 b0 73 3e
       0.25055927 0.089301914 0.06538281 0.23797634
000150 15 71 c0 be 44 98 e9 bd 1b fa 24 3d 0c ca 02 be
       -0.37586275 -0.114059955 0.04027758 -0.12772387
000160 05 d1 1d 3f 70 95 6d be 27 e4 06 be bb 0c 4e bd
       0.61647063 -0.23201537 -0.1317297 -0.05030511
000170 78 5e e8 3d da e4 90 3d 9f 43 92 3e d6 10 e0 3d
       0.113461435 0.070749 0.28567216 0.10940711
000180 9a a4 c3 bc a3 98 17 3f 91 fa dd bd ae d0 d5 be
       -0.0238822 0.5921728 -0.108388074 -0.41760772
000190 4c 87 36 3d e0 e9 20 be ca f7 9f be b9 a1 85 3d
       0.044562623 -0.15714216 -0.31243736 0.06524987
0001a0 c7 f7 7a be b6 f1 33 3c 5b 65 91 bd b8 49 fb 3e
       -0.24508582 0.010982921 -0.0709941 0.4907968
0001b0 7e 11 0b 3e ab 0e 16 be a7 64 fb bd 98 2a 31 be
       0.13580891 -0.14654033 -0.12275057 -0.17301404
0001c0 3d de 0a be 9a 89 2c be 34 dc 40 be d9 59 3e be
       -0.1356134 -0.16849366 -0.18834001 -0.18588962
0001d0 4d 55 98 be 54 6c b2 3d 15 be 7e 3e 9c f6 4e 3e
       -0.2975258 0.08712068 0.24877198 0.20211262
0001e0 18 13 ba be 7c 77 1e 3e a7 95 fc 3d 0b cd 1c 3d
       -0.36342692 0.15475267 0.123332314 0.03828148
0001f0 1b d0 38 3e e3 40 08 3e 3f f5 69 3d 59 fd a4 bd
       0.18048136 0.13306002 0.05711865 -0.08056135
000200 d4 2b ac be 87 85 3e bd 8c de 00 3e 3b 7c cb bb
       -0.33627188 -0.04651406 0.12584895 -0.006209878
000210 08 4f 38 be fe 98 22 3b f3 f7 f8 bd a4 19 7f bd
       -0.17998898 0.0024810429 -0.121566676 -0.062280312
000220 d8 21 c4 3d cf b1 e8 3d 47 fa 45 3d 4f f3 88 be
       0.09576768 0.11362039 0.048334386 -0.2674813
000230 2a d4 6d 3c d8 6e 8d 3e e0 b2 07 3e d2 ae 3d bc
       0.014515916 0.2762363 0.13251829 -0.011577325
000240 1c 0e d5 3d f8 31 70 3d 21 6e 9b be b8 48 3c be
       0.10403082 0.058641404 -0.3035746 -0.18387115
000250 1a 1b 1e bd 1b fc 95 bd 1b 86 0f 3f ab 98 4e be
       -0.038600065 -0.07323476 0.56064004 -0.20175426
000260 d9 10 e9 be cf b4 15 3d 4b e5 0d 3e 27 1c 23 3c
       -0.45520666 0.036549386 0.13857 0.0099554425
000270 0c 71 58 3e c6 ee 5d bc e7 ba 27 3e 01 25 ac 3b
       0.21136874 -0.013545698 0.16379891 0.0052534346
000280 a0 95 c7 be 77 de 94 3d c2 33 ed bd b5 2c 32 3d
       -0.38981342 0.07268994 -0.11582138 0.043499667
000290 91 e1 1e 3f c4 df 42 3e 80 53 95 3e 1a b4 c7 be
       0.6206294 0.19030672 0.29165268 -0.39004594
0002a0 3c 59 a4 3e 66 0e f6 3e 43 cf 1b 3f 60 38 3d 3e
       0.3209933 0.4805786 0.6086313 0.18478537
0002b0 29 b9 0b 3e 7d 3c 58 3e 0c 32 bd 3e a2 fd 23 bc
       0.13644852 0.21116824 0.36952245 -0.010009201
0002c0 7a d1 5a be a9 ce 97 3c 7e 8f 99 3d 90 c9 24 be
       -0.21368971 0.01853116 0.07498072 -0.16092515
0002d0 e1 00 cb 3e d5 04 cc bc f3 a5 8b bd f7 ca 95 bd
       0.39649108 -0.024904648 -0.06818762 -0.07314103
0002e0 8c 8c 6b bf 13 34 98 3d 8b d7 82 be 30 06 6f be
       -0.9201133 0.07431807 -0.2555507 -0.23342204
0002f0 56 1a 88 bd f8 67 a7 3b 15 a4 da 3e 38 17 85 bd
       -0.06645648 0.0051088296 0.4270331 -0.06498569
000300 45 48 32 3d 86 d5 5f be 5a dc 1b be ca dc f2 be
       0.043525953 -0.21858796 -0.15220776 -0.47434074
000310 bc 3e 70 3d aa 1b 56 3d 2b 98 6f bd 9c cf b5 bd
       0.05865358 0.052272476 -0.058494728 -0.08877489
000320 20 37 14 be 38 bc 15 3f d8 74 be bd a6 4a a3 3d
       -0.14474154 0.58490324 -0.0929963 0.079732224
000330 ad 07 37 3f bf 23 ec bc 3f 44 32 3e 4c e4 49 bd
       0.7149609 -0.028825639 0.17408846 -0.049289986
000340 5a b7 5f be e4 34 80 be 6e 55 29 3f 3a a0 49 3e
       -0.21847287 -0.25040352 0.6614598 0.19690028
000350 72 ed 9e be 8c 31 7e 3d 01 7a 2d be 1f fe c9 3d
       -0.3104053 0.06205897 -0.16941072 0.09862923
000360 a0 ec 73 bf 84 12 87 be 1b 6a f8 3d d5 01 3b 3d
       -0.95282936 -0.26381314 0.12129613 0.045656044
000370 ef 72 68 3e 7b 28 93 3e c6 7c 3f bd 9d c5 2a be
       0.22700094 0.28741822 -0.046749853 -0.16676946
000380 d5 9b 41 3f 13 0d 61 3e ab 60 90 3e 23 47 bd 3e
       0.75628406 0.21977644 0.28198752 0.36968336
000390 b5 52 07 be 40 da f4 3d 63 b2 91 3e 20 8c e8 3d
       -0.13215144 0.119556904 0.2845641 0.11354852
0003a0 40 26 6f be 86 d6 bb be 30 78 10 bc 95 4b 72 be
       -0.23354435 -0.36687106 -0.008817717 -0.23661645
0003b0 57 92 03 3f 77 22 ae be 24 06 45 bd e4 40 3f 3d
       0.5139517 -0.3401067 -0.04810156 0.046692744
0003c0 76 73 f3 3c 19 4e 29 bd 06 7c 81 3e c7 02 31 bd
       0.029718142 -0.041334245 0.25289935 -0.04321554
0003d0 8f a7 3f bd 63 21 36 be c9 c0 91 3d 0d 6e ac 3d
       -0.046790656 -0.17786174 0.07116849 0.08419428
0003e0 33 26 26 3f 0e 52 72 3c 35 39 69 3e a9 c1 0d bd
       0.6490204 0.014790071 0.22775729 -0.034608517
0003f0 c4 aa 29 3e 07 f3 b0 3e 97 db ed be 90 43 27 be
       0.16569048 0.34560415 -0.46456596 -0.16334367

actor.init_internal_node_embed.2.add_bias._bias f4 [64, 1]
000000 a7 8d 81 bc 2b 19 51 bd 09 2a c0 3d f2 f2 58 bd
       -0.015814615 -0.051049393 0.093830176 -0.052966066
000010 c0 33 15 bd 73 d3 32 3d ad b4 4d bd 51 03 b9 3d
       -0.036426306 0.043658685 -0.050221134 0.09033836
000020 72 2f 6b 3b a1 8d 74 bd 6e 39 8e bc ba 2d 12 bd
       0.0035886434 -0.05970538 -0.017361369 -0.03568814
000030 64 1e 0d be df ff 52 bd 46 26 f0 bc 5f f2 f4 3c
       -0.13781124 -0.05151355 -0.029315125 0.029900728
000040 b8 07 8e bd d1 79 50 bd 85 35 17 be 95 c7 6c 3c
       -0.06935066 -0.050897423 -0.1476651 0.014451881
000050 b8 74 85 bd 59 2e 20 bd b9 2a 90 3c 14 17 b5 3d
       -0.06516403 -0.0391067 0.017598497 0.088422924
000060 bf fe b6 bc 8e 1b 36 bc ca e0 a4 bc 15 4c e5 ba
       -0.02233827 -0.011114968 -0.020126719 -0.0017493988
000070 ee 10 97 3c 31 ca d7 bd 9b 0a 96 3d c4 98 05 be
       0.01844069 -0.10536612 0.073262416 -0.13046557
000080 0d 84 ca 3d 0d 4d ad 3d 73 5b 17 bd 23 f6 32 bd
       0.09888468 0.08461962 -0.036952447 -0.043691766
000090 c3 6f 66 3d b2 f7 0d bd fb 01 b7 3c ec 1d 89 3d
       0.056258928 -0.03466005 0.022339812 0.0669516
0000a0 eb 67 56 bd 02 ae 44 bd d6 9b 72 3e 97 fb 50 bc
       -0.052345198 -0.04801751 0.23692259 -0.012755296
0000b0 1b 51 9a bd 7b a7 c7 bc 4f c3 36 3d d0 5e 3e 3d
       -0.07535001 -0.024371853 0.044619855 0.04647714
0000c0 ab ac 73 3d 68 1e 07 be 4e 16 5d 3d b1 98 9b 3d
       0.05949084 -0.13195193 0.05397635 0.07597483
0000d0 7f 71 8e 3d 7f 47 dd bd 3d db 1b bd 08 8b 0b 3e
       0.069552414 -0.108046524 -0.03805088 0.13627255
0000e0 66 75 10 3e 22 50 c8 3b c6 38 e6 ba 8b a1 e2 3a
       0.14107284 0.006113068 -0.0017564527 0.0017290575
0000f0 fc 68 0b bd b4 1c 7f 3c 0b 6e 5f bd a3 91 95 3d
       -0.034035668 0.015570808 -0.054548305 0.073031686

actor.init_leaf_node_embed.0.module.weight f4 [32, 8]
000000 24 d6 23 be 2a 2a f7 be 1f 52 b5 3e 8b 30 b1 3e
       -0.15999657 -0.48274356 0.35414216 0.34607348
000010 0b f9 45 3e f2 12 bd 3e d6 8f aa be 3f c3 9e be
       0.19333284 0.36928517 -0.33312863 -0.31008336
000020 fe 5f 09 bf e8 f5 29 be 6e 5c 8a 3e 00 63 cf 3d
       -0.536621 -0.16597712 0.27023643 0.101263046
000030 c9 f8 4d 3e 25 17 88 be 96 8d 7a 3e 93 04 58 bd
       0.20114435 -0.26580158 0.24468073 -0.052738737
000040 90 71 e2 3b d0 3b 9e 3d d6 dd 8f be 16 5d 15 bd
       0.0069105104 0.07726252 -0.28098935 -0.036465727
000050 12 24 42 be 9b 25 27 be 66 01 a2 3d b7 65 c5 bd
       -0.18959072 -0.16322939 0.07910423 -0.09638541
000060 12 18 4f be 8d db 24 3e 9d 43 e2 3e f2 81 60 be
       -0.20224026 0.16099377 0.4419221 -0.2192457
000070 b7 0b fa 3d 5f ae 4d 3e 13 7c 80 be db a0 49 3c
       0.12209266 0.20086049 -0.2509466 0.012306417
000080 c7 4c ad 3d 3c 22 12 bf 7c 65 d1 3e 8e 11 46 be
       0.0846191 -0.5708349 0.4089774 -0.19342634
000090 47 87 1a be b2 cf b2 3d 86 2d 2a be 19 bb 11 3e
       -0.15090667 0.08731021 -0.16618928 0.14231528
0000a0 3f da c5 be fe f4 7e 3c a0 66 a0 be c1 f3 2d 3e
       -0.3864307 0.01556134 -0.31328297 0.16987516
0000b0 75 05 58 bd 1c 93 eb 3d 3e c0 2b be 66 5a 30 3c
       -0.05273958 0.11502668 -0.16772553 0.01076374
0000c0 87 71 a8 be 9c 5f d9 3d 73 3c 9f bd a4 75 03 3e
       -0.32899114 0.10613939 -0.07775202 0.12837845
0000d0 a1 42 b0 bc 21 8c 0c be 9e b3 39 3d 92 28 27 3e
       -0.021516146 -0.1372533 0.045337312 0.1632407
0000e0 98 97 9f 3e d7 0c 4c 3e f1 e2 c7 3e 54 cd bf bd
       0.31170344 0.19926773 0.3904033 -0.09365335
0000f0 f5 ab 40 be 64 73 9e bd c2 df 28 bf 7b 28 a8 bd
       -0.18815596 -0.07736853 -0.6596643 -0.08210846
000100 a3 c3 3c bd 6d d3 d7 3d 85 71 48 3e d1 c3 ab bd
       -0.04608501 0.10538373 0.19574554 -0.083869584
000110 7a f5 1f bd 60 63 88 3e a0 2f 57 3d 6a 5c 32 3d
       -0.039052464 0.26638317 0.052535653 0.043545164
000120 30 63 1d bf 9a 8f ca be f7 24 1e 3d d0 4c 87 3e
       -0.61479473 -0.39562684 0.03860947 0.2642579
000130 2d 58 00 3f b0 3a a4 be e5 5d d7 ba b9 5f 04 bf
       0.50134546 -0.32076025 -0.0016431181 -0.5170856
000140 5a f5 a9 be fd 4e 1e 3e 33 cd ef be 2d 4e 3f be
       -0.33195 0.15459819 -0.46836242 -0.18682165
000150 34 8c c3 3e 55 d8 31 3e 5b 21 6b be b4 5d ff b9
       0.38192904 0.1736768 -0.22961943 -0.00048707204
000160 e6 3c 51 3d 36 c9 d8 bd 2c a9 9a 3e c9 bf aa be
       0.051083468 -0.10585253 0.30207193 -0.33349445
000170 d6 b8 d2 bd 4f 7f cb be eb 3e d6 3e 29 94 58 3c
       -0.10289161 -0.39745566 0.41844878 0.013218918
000180 a4 18 1a be b5 9d a0 bd cd 17 7c 3e e7 8a 0f 3f
       -0.15048462 -0.0784258 0.24618454 0.56071323
000190 75 d6 41 3e f3 f3 78 3e 4a df ad 3e 1e 36 de 3e
       0.18929465 0.24311809 0.3395942 0.43400663
0001a0 92 e4 c9 3d c7 53 a0 3e 33 57 58 3e 8a 12 34 bd
       0.098580495 0.31313917 0.21127014 -0.043962993
0001b0 fa e3 ea be a7 b1 6a bd 3f 4e 4a bd eb 74 65 be
       -0.45877057 -0.05729833 -0.049391028 -0.22407882
0001c0 e7 26 ec 3e d7 15 f5 3e a3 03 96 3e ff 9a 99 3e
       0.4612343 0.47868225 0.2929965 0.30001065
0001d0 f2 7d 40 bb 1d cd b0 bd 20 50 0a 3e 16 e2 1d 3e
       -0.0029371944 -0.08632872 0.13507128 0.15418276
0001e0 df 9c 0a 3c 97 d2 3d be a8 c1 94 bd 2e 9c 89 3e
       0.008460253 -0.18537365 -0.072634995 0.26876968
0001f0 e4 6c 23 be 08 dc 77 3e 8d d3 2d 3d ab ae 31 3e
       -0.15959507 0.24205029 0.04243808 0.17351787
000200 f9 a3 6d 3e 41 5d a3 3e cb 46 9d bd 95 c0 00 bf
       0.23207082 0.31907085 -0.07679518 -0.50293857
000210 bd 64 b9 3c 57 bf a7 be f7 85 63 be ad f6 2d 3e
       0.022631044 -0.32763168 -0.22219072 0.1698863
000220 19 b1 99 be fc 59 90 3e 58 e7 a5 be b9 0a d4 3e
       -0.30017927 0.28193653 -0.32403064 0.4141443
000230 9b 6f 3f be b6 b3 a2 bd 78 f0 57 be e2 f2 62 3e
       -0.18694918 -0.079444334 -0.21087825 0.22162965
000240 d2 d1 97 3d 4f 57 c3 bd 5f 38 4f bf 1b 09 e4 bd
       0.07413067 -0.09538137 -0.8094539 -0.11134549
000250 9e 86 92 3e 15 87 ac 3e 58 11 bf 3d b9 51 23 be
       0.2861833 0.3369681 0.0932948 -0.15949143
000260 68 33 52 be 16 92 e9 bd b4 5d 03 bf a5 17 1f 3d
       -0.20527422 -0.11404817 -0.51314855 0.03884091
000270 3d 54 fa bd fe 32 ec bc 86 3e 7f 3e ca 62 9f bd
       -0.122230984 -0.028832909 0.24926195 -0.077825144
000280 a3 d9 21 3e a4 f6 38 bd ac 05 a4 3e c6 63 b1 3e
       0.15805678 -0.04515709 0.32035577 0.34646434
000290 a5 b6 b4 3e 1b b4 e0 3c 76 72 96 3e ad a4 9c bd
       0.35295597 0.027429631 0.29384202 -0.07648597
0002a0 b6 50 a1 be fe 06 64 3e d0 22 20 3e 97 71 09 be
       -0.3150689 0.22268292 0.1563828 -0.13422237
0002b0 30 2f 9e 3e 7e 11 9f be d0 2c 2b bd 85 7a 49 3e
       0.30895376 -0.31068033 -0.041790783 0.19675644
0002c0 81 c9 39 3e ea 3b 82 be f3 2e 76 be 3b 20 b6 be
       0.18143274 -0.25436336 -0.24041347 -0.35571465
0002d0 9b 96 8a 3e 8c b2 39 3d 12 fd e1 3e 0d 1c 6b 3e
       0.27068028 0.04533629 0.4413839 0.2295992
0002e0 b2 13 c2 bd e6 a5 fb 3e e0 ff 33 3e 96 6c fb be
       -0.09476413 0.49150008 0.17578077 -0.49106282
0002f0 76 c2 64 bc 0e fd 26 3f ac dd 0f 3e 11 3e ca 3e
       -0.013962379 0.6522988 0.14049405 0.39500478
000300 c5 0d 01 be 0d 03 9d be c8 72 db bd f7 f4 c1 bd
       -0.12602909 -0.3066639 -0.10715252 -0.094705515
000310 b9 80 66 3e af bc 20 be 5e d5 9a bd ca 4f 16 3f
       0.22510041 -0.15696977 -0.07560228 0.587155
000320 a8 ee 2f bc d9 99 83 be 03 04 d1 be f3 66 8d 3e
       -0.010738052 -0.25703314 -0.40823373 0.27617607
000330 1e bf 4c be bf bd 12 be 9e 2c a2 bb cf 25 ba 3e
       -0.1999478 -0.14330195 -0.0049491664 0.3635697
000340 a2 68 92 be ce 71 2b 3e cf 30 28 3e c7 b5 57 be
       -0.28595454 0.16742632 0.16424869 -0.21065436
000350 20 b8 cf be 7a 8d cc bd b9 0b d0 3e b1 12 44 be
       -0.40570164 -0.09987922 0.40633944 -0.19147755
000360 28 ac 6e be a5 5a 73 3e cb f8 a7 3e 25 15 82 3e
       -0.2330786 0.23765047 0.32807 0.25406757
000370 d9 59 bd bb 60 60 9d 3e 65 5c 9c 3e 15 dc 43 be
       -0.005778533 0.3073759 0.3053924 -0.19126923
000380 6a 40 b5 3c ee 5e ee bc 4c b8 af 3e d9 87 27 be
       0.022125442 -0.029098 0.34320295 -0.16360416
000390 7f c2 00 be 89 88 08 bf 60 38 76 be d6 e0 b8 bd
       -0.12574194 -0.53333336 -0.24044943 -0.09027259
0003a0 48 67 de 3e 15 00 b0 3e 32 4b a9 be 77 a2 b2 3e
       0.43438172 0.34375063 -0.33065182 0.34889576
0003b0 8b 76 1d 3f 0b 1b 2a 3d 73 cd 24 3e 62 4f ff be
       0.6150901 0.041529696 0.16093998 -0.49865252
0003c0 09 51 92 3d a3 89 ac be d3 6a f3 bd 90 e1 ca be
       0.071443625 -0.33698758 -0.118856095 -0.39625216
0003d0 8a 3c 91 be 32 73 e6 3e 9b 47 a3 3d 76 3a 80 be
       -0.283665 0.45009762 0.07972642 -0.25044602
0003e0 32 47 f7 be 24 5f 70 3c 7c 04 8f be 18 ee dc bd
       -0.48296505 0.014671121 -0.2793311 -0.107876
0003f0 42 e1 af be d3 38 42 be 6b f0 8d 3e b2 03 55 be
       -0.34351546 -0.18966989 0.27722487 -0.20802191

actor.init_leaf_node_embed.0.add_bias._bias f4 [32, 1]
000000 e9 e4 2e 3e b2 65 92 bc c3 71 46 3b 20 2f b2 3d
       0.1707951 -0.017870758 0.003028021 0.08700395
000010 7f f0 1f 3c c4 8b 14 bd 6f 48 9e 3c 74 f3 df 3c
       0.009761929 -0.036266103 0.019321648 0.027337767
000020 1c dc 09 be 4b df f9 3b 76 9e 3b bd 40 fe 67 be
       -0.13462871 0.0076254955 -0.045805417 -0.22655582
000030 46 60 93 3e 18 29 46 bc 32 d9 fe bc 7f 29 c2 bc
       0.28784388 -0.012094758 -0.031109426 -0.023701428
000040 0b c4 aa 3c 1f 2f 24 bd db b0 ad bd 00 c3 21 3e
       0.020845434 -0.040084 -0.08480998 0.15797043
000050 13 21 48 bd 9c df 37 bd 86 68 13 3d ca 30 1a bc
       -0.048859667 -0.044890985 0.035988353 -0.009411046
000060 78 26 5b 3d 9c 96 83 bd 92 2d 2a bd 9b a6 d0 3c
       0.053503484 -0.06425211 -0.041547365 0.025470069
000070 af d1 14 be a2 73 97 3e 33 50 da 3c 74 b0 9b bd
       -0.14533113 0.29580408 0.02664957 -0.07602015

actor.init_leaf_node_embed.2.module.weight f4 [64, 32]
000000 91 79 16 be 97 18 ae be c6 2c 8b be 4b eb 1b be
       -0.14694811 -0.34003136 -0.27182597 -0.15226476
000010 0b 48 36 3e ca 7d a3 3c 94 a3 73 3d e3 bf 00 3e
       0.1780092 0.019957442 0.059482172 0.12573199
000020 db 27 4e 3e 33 53 4d 3d f1 1a 85 3d 2c ac 87 be
       0.20132391 0.050128173 0.06499279 -0.26498544
000030 98 57 a8 be a3 f4 b5 3c 01 cd 8a be 3c 33 f7 bd
       -0.3287933 0.022211378 -0.2710953 -0.12070319
000040 8b 71 5c 3e 92 5d 57 bd d6 cb 22 be 61 cc aa bd
       0.21527688 -0.05257947 -0.1589807 -0.083397634
000050 4d 61 96 3d 2f bf 92 be c7 16 64 3e 0a 59 03 3e
       0.073427774 -0.28661487 0.22274314 0.12826934
000060 16 40 d7 3d 0d b8 ff be 2b 8d a7 bd 7b ec d0 3d
       0.1051027 -0.49945107 -0.081812225 0.10201355
000070 0f 97 0f 3e 9d 72 63 be a0 70 23 bd 09 6f 34 bc
       0.14022468 -0.2221169 -0.03990233 -0.011012801
000080 fd a6 4e 3d b8 6a 1c 3e 17 53 72 3d b1 32 e6 3d
       0.05045222 0.15275085 0.059161272 0.11240137
000090 c4 19 1a 3d 99 61 05 3d 07 5e e3 3d 0d 63 2c be
       0.03762223 0.03256378 0.11101919 -0.1683466
0000a0 10 54 f5 bd c8 c8 8a be f5 4f db 3e 0e f6 ab bc
       -0.11978924 -0.2710631 0.4283444 -0.020991351
0000b0 17 5a f4 bc 8d 6f cd 3d 79 2c 38 3e 27 6c 94 be
       -0.029828114 0.10031042 0.17985715 -0.28988764
0000c0 a0 84 cd bd b5 f7 38 be d0 99 46 be b4 da 5b be
       -0.10035062 -0.18063243 -0.19394612 -0.21470147
0000d0 20 3b da 3d ee f8 8d bd ed ad db 3c dc e6 03 be
       0.106558084 -0.06932245 0.026816333 -0.12881035
0000e0 4b 88 dd be cd ee cc bd d3 e3 65 bc a5 96 71 3e
       -0.43268046 -0.10006485 -0.014031368 0.23592623
0000f0 a4 13 85 be 99 a1 25 be a9 da 49 bd 29 98 c7 3e
       -0.25991547 -0.16174926 -0.049280796 0.38983276
000100 f4 25 a4 3e 3d 34 33 3c e5 ed 1d be 78 18 67 bd
       0.32060206 0.010937748 -0.15422781 -0.05641982
000110 38 0a 23 3e 02 35 8b bd 82 5e 01 be c5 6d ef 3d
       0.15921867 -0.0679722 -0.12633708 0.11690859
000120 7f 44 e0 be a9 6b eb bd fe 97 f3 be 25 b5 2b be
       -0.43802258 -0.11495144 -0.47576898 -0.1676832
000130 4f ea 8e be 86 da 56 3d f6 72 98 3e 59 da c9 bd
       -0.27913138 0.052454494 0.29775208 -0.098561
000140 07 fc b8 bd 52 c0 36 3e 8d 7a 9e be 53 6a f5 bd
       -0.090324454 0.17846802 -0.30952874 -0.1198317
000150 b6 a0 bb bc ba 6a bb bd 79 37 80 3c 06 50 b0 bd
       -0.022903781 -0.09151216 0.015651451 -0.08609013
000160 44 a9 4b ba f4 8a a1 bd 20 25 b4 bd 10 d9 f9 bd
       -0.0007769058 -0.07887831 -0.087961435 -0.121996045
000170 c7 4d 53 be b9 8c db bc 8e 0d 41 3e 51 a7 f6 3d
       -0.20635138 -0.0268005 0.18852827 0.12043632
000180 a6 fc 94 3c 19 40 74 3e 3c ac 34 3e 7b 7c 01 3e
       0.018186878 0.23852576 0.17643827 0.12645142
000190 cb f8 ff 3d a7 d1 f8 3c b0 cf 1e bd 93 96 25 3e
       0.12498625 0.030373408 -0.038772285 0.16170721
0001a0 7a ee ec bb f4 53 0b be 33 3d 3f be 47 80 77 3e
       -0.007230577 -0.13606244 -0.1867569 0.24170028
0001b0 31 57 7a be d7 3e 5e 3d eb c7 38 3d 93 f0 26 3e
       -0.24447323 0.054259147 0.04511253 0.1630271
0001c0 d2 81 d6 bd eb a8 8b 3e 1a 25 9f be 36 72 fe 3c
       -0.1047398 0.27277312 -0.31082994 0.03106032
0001d0 e4 73 8a 3d 80 3d 16 3e 56 61 51 be 15 c1 51 3e
       0.06760386 0.14671898 -0.20447287 0.20483811
0001e0 93 22 fe bb a5 91 ef 3d 1a f8 24 3e 45 d6 20 3e
       -0.0077555864 0.11697701 0.16110268 0.15706737
0001f0 ff bc 98 3e b0 dd c3 bc 53 89 52 3e 14 77 30 3e
       0.29831693 -0.02390942 0.20560198 0.17232925
000200 9d ce 93 bd e4 8d 74 bd ea 81 86 3d 88 4e 46 3d
       -0.07217143 -0.05970563 0.06567748 0.048414737
000210 b9 4e 76 3e db e4 ed be 82 a3 6a 3e a0 e0 16 be
       0.24053468 -0.46463665 0.22913936 -0.14734125
000220 9c de 51 3d 13 7d a4 3d 8e d6 fb bd d7 a8 b6 be
       0.051237687 0.080316685 -0.122967824 -0.3567569
000230 03 64 ab bd 43 ad 5d 3e d5 d9 f7 3d 1f 16 04 be
       -0.08368685 0.21648125 0.12102095 -0.12899064
000240 76 a9 dc be 8a d8 89 be bb 17 2a 3e 97 73 36 3d
       -0.43098038 -0.2692302 0.16610615 0.04454383
000250 ae c4 89 be 8a af 1b 3e f0 50 3b bd 07 ec 9a bc
       -0.26907867 0.15203682 -0.045731485 -0.018911375
000260 f1 3d d4 bd b3 09 86 bc 68 4f 17 be 1c 63 1c 3e
       -0.10363377 -0.016362047 -0.14776385 0.15272182
000270 c2 29 7b 3e 91 11 2a 3e f4 cc 14 3c 6a e7 3b be
       0.24527648 0.16608264 0.009082068 -0.18349996
000280 ba b0 95 3d 34 6d 3d bc e3 e0 3b be 9f 45 b1 3d
       0.073090985 -0.011561681 -0.18347506 0.08655857
000290 aa 04 58 be c5 bc 58 bd bf fe b5 3e 9a 82 b0 be
       -0.21095529 -0.0529144 0.35545918 -0.3447464
0002a0 48 3f d7 bd 2b 68 a9 3d e3 68 3c be 2e e1 93 3e
       -0.10510117 0.082718216 -0.18399386 0.28882736
0002b0 e0 b1 11 3f ea e2 34 3d 57 83 32 3e d8 5d 36 be
       0.5691204 0.044161715 0.17432915 -0.17809236
0002c0 ce 37 0a 3e 1b e3 8b bc 94 bb 62 be a0 2e cd bd
       0.1349785 -0.017076066 -0.22141868 -0.10018659
0002d0 d2 0f c0 3d 5c 97 23 be b4 de 4f 3d 75 78 da 3e
       0.093780175 -0.15975708 0.050749496 0.42670026
0002e0 ad 0d 9d 3d 3b d4 16 be 75 25 9f bd 59 16 f0 3d
       0.07668624 -0.14729397 -0.07770816 0.117230125
0002f0 00 c4 2e be fa f3 7f 3e e7 97 8e 3e ee 0c d4 bd
       -0.17066956 0.24995413 0.27850267 -0.10354029
000300 a2 08 8d 3e 5a c3 9d be 9e 54 63 bd 5b e4 de 3d
       0.2754565 -0.30813104 -0.05550062 0.10883399
000310 14 c0 e3 bd a6 95 06 be 59 0e 26 3e 9e 2d f6 3c
       -0.1112062 -0.13143024 0.1621641 0.030051049
000320 5f 08 4f 3e 45 8a 31 bd 6b d8 7b 3e 27 ac 36 3e
       0.20218037 -0.043344755 0.24594276 0.17839108
000330 a9 b1 33 3e 5c fe 05 3e 7c fb 08 be 65 0c ba bd
       0.1754824 0.13085312 -0.13377184 -0.09084395
000340 56 1a e4 be a1 0a 87 3e 38 97 7a 3d 97 fb fe 3d
       -0.44551343 0.26375297 0.06117937 0.12450331
000350 cc 98 e6 3a 3f 72 28 3c 61 a5 64 bd 52 bf 81 3d
       0.0017593144 0.010281145 -0.05582178 0.063353196
000360 ae b4 32 3d 76 b2 79 bd 95 d1 95 bd 65 7b 0d 3e
       0.04362934 -0.06096121 -0.07315365 0.13816603
000370 72 8e 13 be d6 59 58 3e ee 0c b2 bd 0b 6c 99 bd
       -0.14409807 0.2112802 -0.086938724 -0.07491311
000380 96 9e 09 be 5e c7 e5 3c d1 a6 f7 bd 8b 82 9e be
       -0.13439402 0.028049167 -0.120923646 -0.3095897
000390 3c ab f8 3d 05 7b 0a bd 68 43 51 be a4 dc 8f be
       0.12142035 -0.033808727 -0.2043587 -0.28098023
0003a0 62 83 43 3e a8 8e e7 bd 43 e4 97 3e 20 b9 60 3c
       0.19093087 -0.113065064 0.29666337 0.013716012
0003b0 5f 97 2e 3e 13 f5 8b 3d b7 6f 04 be fc a5 a2 3e
       0.17049931 0.068338536 -0.12933241 0.3176726
0003c0 5d 2f 68 be 2c 1a 39 bd 8f 0e 23 3d 4d 9f 94 bd
       -0.22674318 -0.045190975 0.039808806 -0.07256947
0003d0 38 50 0f 3c b7 4b a1 3e b4 ed 89 3d 88 ce 88 3d
       0.008747153 0.31503078 0.067347914 0.06680018
0003e0 c9 c5 8b 3b 8f 17 66 3e 35 d1 42 3e 90 5b 2f 3e
       0.004265521 0.22469924 0.19025119 0.17124772
0003f0 1e 74 fc be c7 04 ba 3e 2b 26 9d 3e 64 25 75 be
       -0.4930734 0.3633177 0.30693182 -0.23940045

actor.init_leaf_node_embed.2.add_bias._bias f4 [64, 1]
000000 d3 9f 91 be d2 69 f8 3d 0d 1a 26 3c a9 a7 ed bb
       -0.2844225 0.121295586 0.010138047 -0.0072526527
000010 8d 2e f7 bb 42 b6 a0 3e 3c 43 5b 3e 6e ee 3f 3e
       -0.007543391 0.31389052 0.21412367 0.18743297
000020 51 fb bf 3e 39 7d 21 be 5e 5e c5 bc c0 4f 85 3d
       0.37496427 -0.15770425 -0.02409285 0.06509352
000030 11 13 0b bd 2b d9 c8 3d 83 30 e8 be 8d 0b 08 be
       -0.03395373 0.098070465 -0.45349512 -0.13285656
000040 88 cd 98 bd 01 10 e8 3d aa 08 ab 3c b1 2c 14 3e
       -0.07461077 0.113311775 0.020878155 0.14470173
000050 ab 0c 8b be ea a2 ee bc dc 8a b6 3c d0 e5 28 3e
       -0.27158102 -0.029130418 0.02228301 0.16493917
000060 63 fa 0d be 81 8e 0e bc 74 dd 47 3c be 2c 20 bd
       -0.13865046 -0.008700968 0.012198795 -0.03910517
000070 b1 ca 28 be bd 63 8b 3e 3b 20 8a 3d 14 9c 54 3d
       -0.1648357 0.27224532 0.06744429 0.05190666
000080 1b 5a bd 3d db bf 6c be 08 7e 34 be 85 92 69 3d
       0.09245702 -0.23120062 -0.17626202 0.057024498
000090 f4 82 dc 3d 4b d1 a4 3e ef 1a c2 3e e7 55 e1 3e
       0.10767165 0.32190928 0.37911174 0.4401085
0000a0 db 58 32 3e 74 64 84 3e 68 46 eb bd 89 73 f7 3d
       0.17416708 0.2585789 -0.11488038 0.120825835
0000b0 d2 7f 3c bd b4 63 81 be 4e 55 a8 be b9 74 1b be
       -0.046020336 -0.2527138 -0.32877582 -0.15181245
0000c0 3f 14 bc 3e e1 93 8a bd 34 03 43 be dd a3 da 3e
       0.36734197 -0.06766487 -0.1904419 0.42703143
0000d0 ce 6f 14 bc 01 0b 57 3e f7 2c 9c be 95 ee 2a be
       -0.009059859 0.21000291 -0.30503055 -0.16692574
0000e0 76 a5 fd 3d 8e d9 b9 3e c0 98 30 3e 31 26 2e 3e
       0.12385075 0.36298794 0.1724577 0.17006756
0000f0 1e d2 2b 3e 31 cb cf 3e 3e de 8a be f1 d3 2c be
       0.16779372 0.4058471 -0.27122682 -0.16877724

actor.init_next_embed.0.module.weight f4 [32, 6]
000000 2d 2c 6b be d2 50 2a 3e 21 04 ab bd a9 05 00 3f
       -0.2296607 0.16632393 -0.08350397 0.50008637
000010 ce 65 85 3e 21 90 50 bd b9 44 56 3e 9a 49 a6 3e
       0.26054233 -0.050918702 0.20924653 0.3247803
000020 0a bd 08 3c 1c f5 24 3e e5 b2 b5 3d fd cd 72 be
       0.008345852 0.16109127 0.08872012 -0.23711391
000030 a1 be bf 3d 89 c8 c7 be b2 c4 75 3e bf d4 4c bf
       0.093625315 -0.39020184 0.24000815 -0.80012125
000040 4f 3b e2 3d d9 bc 33 3e 74 eb 29 3f 12 a8 11 3f
       0.110464685 0.17552508 0.663749 0.5689708
000050 6e af e5 3d f2 d8 ce bd ad f3 8a 3e 7d 68 62 3e
       0.11215101 -0.10099973 0.27139035 0.22110172
000060 e5 e8 a6 be cd 0f 76 bd 60 cc 45 be 46 d4 3a 3e
       -0.3259956 -0.060073663 -0.19316244 0.18245038
000070 f2 4a 1c 3d 3a 54 2e be 27 8d 34 be 70 ed eb 3d
       0.03815741 -0.17024317 -0.1763197 0.11519897
000080 3d d2 ea 3e c9 25 b6 bc b7 e7 ba be cb 58 f6 bd
       0.45863524 -0.022234814 -0.3650491 -0.12028655
000090 c4 55 22 be 25 7a 68 be 1f a7 c0 bc 2c 8a 07 bf
       -0.1585303 -0.22702844 -0.02351719 -0.5294521
0000a0 92 84 fa bb 01 75 fc 3e 98 95 4a be 5b 3c bb be
       -0.007645198 0.49308017 -0.19783628 -0.36569485
0000b0 a5 ce 81 3e 06 56 c6 3d 96 39 fa bd b2 39 50 3d
       0.2535297 0.096843764 -0.12218015 0.050836273
0000c0 a9 f8 09 be 9e 98 82 be 20 c8 af 3e 81 92 6b be
       -0.13473763 -0.25507063 0.3433237 -0.23005106
0000d0 9f 63 b0 3d 49 63 df bb bc da b7 be c8 1e 21 be
       0.08612751 -0.0068172556 -0.3590907 -0.15734398
0000e0 e1 8f 14 be a8 45 e8 3e 48 23 2f be a6 90 7a bd
       -0.1450801 0.45365644 -0.17103302 -0.061173104
0000f0 ea 20 90 3e bc dc 42 bd 1f e4 18 be 27 1c f7 3c
       0.2815011 -0.04757379 -0.14930771 0.030164791
000100 95 52 85 be f4 36 cd bd a4 99 6d be 03 53 42 be
       -0.26039568 -0.10020247 -0.2320314 -0.18976979
000110 5b 24 95 be a2 64 b6 be 0b 39 c6 bc 90 85 2b 3c
       -0.291293 -0.35623652 -0.024197122 0.0104688555
000120 6a 17 99 3e 41 a7 28 bf d1 ae 32 bd 57 d8 d9 bd
       0.29900676 -0.6588021 -0.04362375 -0.10636967
000130 ad 0b dd bd 0d f7 65 be a1 88 12 3e 31 1c 85 be
       -0.107932426 -0.22457524 0.14309932 -0.2599807
000140 93 7a 9e 3e 56 fb 0a 3f 49 f8 aa 3d cc f7 e8 bc
       0.30952892 0.5428976 0.08348138 -0.028438471
000150 26 ae 07 be 8c fc 59 3d 48 ba d8 bd 11 f5 9b be
       -0.13250026 0.053219363 -0.10582405 -0.30460408
000160 f1 89 95 3d f0 dc 15 3e 0d b5 1b 3c c0 c9 8c 3d
       0.07301701 0.14635062 0.009503615 0.06874418
000170 b5 a4 6e 3e 35 1f a0 be 8b b0 09 bd 79 94 80 be
       0.23305018 -0.3127381 -0.03361563 -0.25113276
000180 0d ae 8b bd 99 f8 13 be 79 e2 02 be 1a f9 22 bf
       -0.06820307 -0.14450301 -0.12781705 -0.6366135
000190 cd 2c 9c 3e bd d6 87 3e 60 24 7d be be 9e e8 3e
       0.3050293 0.2653102 -0.24720907 0.4543361
0001a0 dd e7 fe 3e 80 84 09 3e 61 58 50 3e 9d b4 11 3f
       0.49786273 0.13429451 0.20346214 0.5691622
0001b0 9f f3 3b be 7c 35 6e bc 26 dd b1 be 33 b2 9a bd
       -0.18354653 -0.014539119 -0.34739035 -0.0755352
0001c0 36 04 11 be af 6f e6 be 5b 0d a6 3d 30 7c 65 be
       -0.14161763 -0.45007083 0.08108016 -0.22410655
0001d0 c0 d7 46 3e 21 79 9c 3e d7 cc f1 bd 63 b9 17 be
       0.1941824 0.30561164 -0.11806648 -0.14816813
0001e0 17 ff a6 3d c4 c6 ba 3e e6 33 24 3e 2e 41 9f bf
       0.08154123 0.3647977 0.16035423 -1.2441766
0001f0 7c de 94 be c2 9f c0 3e 68 9f f3 3e 76 8e 35 be
       -0.29075992 0.37621886 0.47582555 -0.17730126
000200 f6 14 aa 3d 81 f8 d2 3e 5c f4 ad 3e 1a 27 17 3f
       0.08304779 0.41205218 0.33975494 0.5904404
000210 9c e8 67 be a6 90 e2 3c ad ac ba bd 3c 44 ee 3c
       -0.22647327 0.027656864 -0.091149665 0.029085271
000220 67 4b cc be 37 26 9a bc ec 81 b9 bd 4a 39 42 be
       -0.39901277 -0.01881705 -0.09057984 -0.18967167
000230 52 32 06 be 60 7f eb bd af 38 a0 bd 68 8a 0e bd
       -0.13105133 -0.11498904 -0.078233115 -0.034799963
000240 b6 b9 67 be 09 fb 95 bd d3 cd ac 3e 76 2a ab be
       -0.22629437 -0.07323272 0.3375078 -0.33430833
000250 c6 0b 09 3f 83 ec b6 be 80 9e 09 be ab 12 54 bd
       0.5353359 -0.3572732 -0.13439369 -0.051775616
000260 6e 6b 11 3d f9 2a f6 bd ed 98 f8 be bc a3 be 3e
       0.035502844 -0.12019915 -0.48554173 0.37234294
000270 2e ea c6 be 7e 9e 2e be 98 f9 da 3e 74 78 e0 3e
       -0.3885054 -0.17052647 0.4276855 0.43841898
000280 09 59 93 3b ac 4e 98 be 4b df 9d 3e f6 a5 c8 bd
       0.004496698 -0.29747522 0.30834422 -0.097972795
000290 72 4c 0d 3e a8 72 a2 be 25 22 9f 3d 15 6d 19 be
       0.13798693 -0.317281 0.077701844 -0.14983018
0002a0 13 5d e7 bd fe fa d7 3d a5 f1 04 bf a4 93 33 be
       -0.112970494 0.1054592 -0.5193122 -0.17536789
0002b0 28 6a 18 3d 01 04 83 3d 81 47 38 3e 76 7b 2e bd
       0.037210613 0.06397248 0.17996027 -0.04259821
0002c0 81 01 a9 3e e4 2a 63 be 93 e5 1d be 9c 4d b0 bd
       0.3300896 -0.2218433 -0.15419607 -0.08608553
0002d0 2b e2 9c bd 2a 72 b7 bc 7b a9 81 ba 6c b4 18 be
       -0.076603256 -0.022393305 -0.0009892428 -0.14912575
0002e0 d5 47 17 bf 0a 5c 17 3f 8d 11 8d 3d be 4c e1 bd
       -0.5909398 0.59124815 0.06888113 -0.110009655
0002f0 4d c5 1f be 18 de b8 bd ca 81 b4 3c de 23 1e be
       -0.15602608 -0.09026736 0.022034544 -0.1544337

actor.init_next_embed.0.add_bias._bias f4 [32, 1]
000000 3d 34 1d 3f df 08 da bd f2 07 d0 bd a4 3b e1 3e
       0.61407834 -0.10646223 -0.101577654 0.43990815
000010 08 5b 5b 3b c0 7d 1a bd 6d 51 8c 3e b2 ef ea bc
       0.0033471007 -0.03771758 0.27405873 -0.028678749
000020 60 fb 23 bd b3 45 68 bd 26 c8 2a be 74 df 6e 3e
       -0.04003465 -0.056707095 -0.16677913 0.23327428
000030 23 ab 46 bc 23 30 a0 3e 63 41 9c bd b0 24 f2 bc
       -0.012125763 0.31286725 -0.07629659 -0.02955851
000040 39 6f c4 bc 5a 2b a9 3e bd 36 81 bc 08 7f 09 be
       -0.023978816 0.33040887 -0.015773172 -0.13427365
000050 b5 52 09 3f 6f d7 05 3e da db 8a 3c 65 3f 2f bd
       0.53641826 0.13070463 0.016950537 -0.042785067
000060 13 9c a6 bc e0 6a 87 bd a4 04 2e bd 0b ff f7 bb
       -0.020338094 -0.06612182 -0.042484894 -0.0075682453
000070 d1 2b f7 bc 6e 91 00 bc 0d 96 e4 bb 5e 9a b9 3b
       -0.03017226 -0.007847173 -0.0069758953 0.005664154

actor.init_next_embed.2.module.weight f4 [64, 32]
000000 78 b8 a2 be 14 bc e1 3d d1 f8 bf 3d 82 78 30 3e
       -0.31781363 0.11022201 0.0937363 0.1723347
000010 1c dc 33 3e f5 f7 e9 bd 51 51 ee 3c ef 3f 8f 3e
       0.17564434 -0.11424247 0.029091509 0.27978465
000020 7b 96 f8 3d 72 07 2a 3d 17 e3 0c 3e 70 f1 6e be
       0.12138077 0.041511007 0.13758503 -0.23334289
000030 b5 6e 10 3b 17 0f fa 3d 57 c8 4d 3e 30 b4 98 bc
       0.0022038643 0.122099094 0.20095955 -0.018640608
000040 22 5c a7 3e d5 d4 81 3e 3c 6b a2 bc 8b db 2a 3e
       0.3268748 0.2535769 -0.019826524 0.16685311
000050 39 a2 9a 3d ce e3 1a be 1c 26 81 3e 5c 9a 07 3f
       0.07550473 -0.15125963 0.25224388 0.5296991
000060 a0 00 92 3d 32 4d ac 3c 90 ac 40 bb 7b e6 19 be
       0.071290255 0.021032903 -0.002939973 -0.15029328
000070 b7 4c 96 bd 53 c7 e1 bd b9 34 af 3c 64 7f d5 bd
       -0.07338851 -0.11024346 0.021387445 -0.104246885
000080 24 b7 c7 3e 7d 37 b2 bc 7b 4a 11 be 8b e3 c8 3d
       0.39006913 -0.021754974 -0.14188568 0.098090254
000090 2d c1 4b 3e 38 1f 2e 3e e4 22 9d be 45 c5 e7 3d
       0.1989791 0.17004097 -0.30690682 0.11316923
0000a0 2f 13 16 bd e5 e3 a5 3d 82 a3 0c be b2 b0 91 be
       -0.03663939 0.08100108 -0.13734248 -0.2845512
0000b0 3f e5 8b be 1f 51 cb 3d 00 b5 da 3e 49 95 94 3e
       -0.27323338 0.09927582 0.42716217 0.29020146
0000c0 97 59 89 be 6f 29 ed 3d 57 02 1e 3e a8 fa 80 be
       -0.26826164 0.115801685 0.1543058 -0.25191236
0000d0 2e 11 c3 be 61 34 f9 bd bb b2 69 be 01 18 82 bd
       -0.38099045 -0.121681936 -0.22822087 -0.06352235
0000e0 04 e3 57 bd f6 76 f6 3d bb a9 a8 3d 25 82 20 be
       -0.052706733 0.12034409 0.082354985 -0.15674646
0000f0 03 a4 98 3d c7 ca 76 3d f4 cb 9c bd bf a5 04 be
       0.07453158 0.060251977 -0.076560885 -0.12953852
000100 ee 9e 29 3e 9d 41 c7 3e ce f8 a6 3d 48 85 ef 3d
       0.16564533 0.38917246 0.081529245 0.11695343
000110 29 14 82 3d 46 d1 fa 3d 0f 42 27 3e 87 f6 6f be
       0.063515015 0.12246947 0.16333793 -0.23433886
000120 f6 e9 0e 3e f1 04 f9 bd 71 96 7a bd 0c 39 8e be
       0.13956437 -0.121591456 -0.06117863 -0.27777898
000130 e7 c7 00 bd 48 45 be be 3e 37 00 be 5e 54 0b 3c
       -0.03144064 -0.37162232 -0.12521073 0.008504001
000140 03 47 3e 3c 7f 38 88 bd aa 84 2c 3d 71 0a a6 be
       0.01161361 -0.06651401 0.042118706 -0.3242984
000150 0e 0d af be b3 57 c2 3e 3a 14 2a 3e 0a 70 e0 bd
       -0.34189647 0.37957534 0.16609278 -0.1095887
000160 9b 22 24 3e 16 14 a7 be b7 ad 1e 3d 96 58 21 3e
       0.16028826 -0.32632512 0.038739886 0.15756449
000170 5b 67 84 3e 07 a9 c0 bd 84 10 b2 be bc 0f 38 3e
       0.25860104 -0.094072394 -0.34778225 0.17974752
000180 df b2 13 3f 2f 46 7d 3e d2 a7 1b be 4f f4 91 3e
       0.5769481 0.24733804 -0.15200737 0.28506705
000190 c1 77 3b 3e 6e 9f 74 bc 3a 19 a1 3d e3 92 fe bc
       0.18307401 -0.014930589 0.0786614 -0.0310759
0001a0 31 2a 31 3c 18 d8 c6 3e a7 87 18 3e 32 3b c1 3e
       0.010813282 0.3883674 0.14895497 0.37740475
0001b0 d9 e9 96 3d 7d c3 a7 3e 26 07 3a be f8 a8 a8 3d
       0.07368822 0.32766333 -0.1816679 0.08235353
0001c0 94 af 1c 3e cf c3 a7 3e 17 75 d9 bd 54 00 36 3e
       0.15301353 0.32766578 -0.10618036 0.17773563
0001d0 ca 50 9b 3e b2 cc 27 3e e1 6d fd bd 10 e1 8d be
       0.30335075 0.16386679 -0.12374473 -0.27710772
0001e0 16 bb 5a bd 49 a2 8b bc fe d9 87 be ae 63 1c 3e
       -0.053401075 -0.017045157 -0.26533502 0.152724
0001f0 d8 91 ca 3d a3 39 38 3d 51 a5 50 3e 4e b6 06 3d
       0.09891099 0.04497684 0.20375563 0.032888703
000200 2b 00 e5 3e 70 a6 b1 bc e0 95 e4 ba 84 fd a6 3e
       0.4472669 -0.021685809 -0.0017439686 0.32615292
000210 94 1e 5d 3e 37 a4 2b 3e ba 78 89 3d c3 51 28 3e
       0.21593696 0.16761862 0.0671248 0.1643744
000220 8c d9 34 3e 6f 5e b9 bd d2 08 ab bc b8 b4 94 bd
       0.17661113 -0.09051215 -0.02087823 -0.07261032
000230 a8 63 0c be dd 69 83 3c 96 70 38 be 39 09 a8 be
       -0.13709891 0.01604169 -0.18011698 -0.32819536
000240 6e 99 b2 3d e2 f4 ad 3d c5 11 2c 3d 7a a8 96 be
       0.08720671 0.08493973 0.042009134 -0.29425412
000250 6a f1 ee 3e 12 bc 3d 3e c5 d7 83 bc 22 a7 80 bc
       0.4666856 0.18528774 -0.016094098 -0.015704695
000260 bf 74 2a 3e f3 8e 39 3e e5 51 23 3e 08 fa c6 bd
       0.16646098 0.18120937 0.15949209 -0.097156584
000270 a1 7f 6b 3d 53 7e 18 3d a9 c0 02 3e 27 70 f0 bd
       0.057494763 0.037229847 0.12768807 -0.11740141
000280 70 6f 1c bf 44 35 01 bf fd 84 75 bd 5f 89 ff be
       -0.6110754 -0.504719 -0.05994128 -0.49909493
000290 7c b2 8d 3c 0d 35 1b 3e 16 dc 56 be 49 d0 1a 3e
       0.017297022 0.15156956 -0.20982394 0.15118517
0002a0 7e 67 ba 3d f7 24 09 3e 11 a9 52 be 0b e4 8d be
       0.09101771 0.13393007 -0.20572306 -0.27713045
0002b0 a2 7b df bc 7a 8a 96 bd 8f 95 62 bd 67 ec 03 3e
       -0.027280632 -0.07350631 -0.05531841 0.12883149
0002c0 fd c0 0b 38 e5 2f f7 bc eb 11 2d 3e 62 07 2e bc
       3.3319917e-05 -0.030174205 0.16901366 -0.010621877
0002d0 93 56 00 bf bc 4e ac bd 66 8b 90 3d d2 c6 80 bd
       -0.501321 -0.08413455 0.07057838 -0.06287922
0002e0 01 d5 68 be 6c 22 61 be a9 3f 0b be c3 40 36 be
       -0.22737505 -0.21985787 -0.13598503 -0.17798142
0002f0 3e 52 fe 3d b0 a9 58 be 0e 7b 2f 3b b5 0c 2c be
       0.1241803 -0.2115848 0.0026776227 -0.16801722
000300 02 50 34 3e fd 51 29 be 0f 18 86 bd 22 57 b1 3d
       0.17608646 -0.16535182 -0.065475576 0.086591974
000310 7f 11 e8 bc 9c a2 9c 3d 9d 56 89 bd c0 c7 49 bc
       -0.028328655 0.07648203 -0.06705973 -0.0123156905
000320 49 99 ed 3e 9a 23 65 3d dc 19 2c bd 20 c7 66 bd
       0.4640601 0.055942155 -0.04201685 -0.056342244
000330 a2 20 51 be a0 e4 4a bc 5e 52 b0 be 16 54 8c be
       -0.20422605 -0.01238361 -0.3443784 -0.27407902
000340 35 cb df be 32 b5 09 3c 85 d5 b0 be 93 27 10 be
       -0.43709722 0.008405017 -0.34537902 -0.14077596
000350 62 3a c4 bd 95 88 6a 3c 8d 1e 8a 3d 3e ed 9e bd
       -0.09581448 0.01431479 0.06744108 -0.07760094
000360 68 9b 55 bd ad b3 38 be 13 91 04 3d 29 3b fd 3c
       -0.05215016 -0.18037291 0.032364916 0.030911999
000370 d0 57 95 bd 72 b5 4e 3e 22 a1 b7 bc 21 27 18 3e
       -0.072921395 0.20186403 -0.022415701 0.14858676
000380 51 88 31 3f 88 dd 17 3e f2 14 de 3c 15 9a 94 3e
       0.6934863 0.14830601 0.027109597 0.29023805
000390 b9 11 df 3d 31 89 73 be 0a 49 3d 3d 52 47 15 3e
       0.10892052 -0.23782803 0.046212234 0.14577988
0003a0 62 f3 46 bd 4e 66 d8 3d 86 94 37 3d 6e 7c ff 3e
       -0.04857195 0.10566388 0.044819377 0.4989962
0003b0 12 fb ad 3e cd 90 0f be 8d fb 90 3e b8 b8 20 be
       0.33980614 -0.14020081 0.28316918 -0.15695465
0003c0 2b a7 ba 3d 23 19 52 3e e5 ee 66 3d f8 3f 98 bd
       0.09113916 0.20517401 0.05638017 -0.07434076
0003d0 38 d6 1b be d1 e4 15 3f 22 2e 2d 3e a5 cf 8c 3d
       -0.15218437 0.5855227 0.1691213 0.068755426
0003e0 b0 12 63 3e 32 a4 4c 3d b8 80 89 be 3e d9 e7 bd
       0.22175097 0.049961276 -0.26856017 -0.113207325
0003f0 f1 f5 34 be 90 e3 2d be 77 58 cc 3e d2 bb 49 3d
       -0.17671944 -0.1698134 0.39911243 0.049251385

actor.init_next_embed.2.add_bias._bias f4 [64, 1]
000000 6e fb 20 be c0 78 58 bd 7d 4f cd bc d5 6f 40 3f
       -0.15720913 -0.05284953 -0.025062317 0.7517064
000010 94 14 e1 3e 81 89 4d bf 47 d6 79 3d a6 40 13 3f
       0.43961012 -0.8028794 0.060995366 0.5752052
000020 83 05 c5 be 54 ac 2c bb 8f 91 bd 3d 6d 8c 8c 3e
       -0.38480768 -0.0026347833 0.09256279 0.27450886
000030 bb 1d 04 3e 62 6c ab be e3 55 11 3f 67 99 d9 be
       0.12901966 -0.33481127 0.5677168 -0.4249985
000040 f1 d8 e9 3d 55 c9 a9 3e 91 61 ca 3d 66 a3 82 3e
       0.114183314 0.33161417 0.098818906 0.25515288
000050 48 c7 51 be 07 de 9b 3b ae 2e 12 be 90 20 cb be
       -0.20486176 0.0047566923 -0.1427562 -0.3967328
000060 56 fd 12 be 8d 0f 58 be 61 4b 28 bf 14 f2 d0 bc
       -0.14354452 -0.21099682 -0.6574002 -0.025506057
000070 fb 5d 52 3f 8f ff 87 bd ab 0e 41 be 71 3f ef 3e
       0.8217465 -0.06640541 -0.18853252 0.4672809
000080 1a 4d a6 bd 90 bf 04 3e 72 12 5a bd 0c 8f 22 be
       -0.08120175 0.129637 -0.053240247 -0.1587488
000090 c6 f4 c4 be 5e 79 14 bf c2 cd 15 bf a6 a7 1e bf
       -0.38467997 -0.5799769 -0.58517087 -0.6197456
0000a0 77 5d 2f be 14 39 af bd 9c 3c 1e be f2 0f a9 be
       -0.17125498 -0.08555809 -0.15452808 -0.33019978
0000b0 61 d4 9b be c7 c6 1b 3f fd d7 e8 3d 86 c1 26 bd
       -0.3043547 0.60850185 0.113693215 -0.040711902
0000c0 38 3d 0a 3f b0 72 2d 3e f0 61 77 bf 3d cf e6 be
       0.5399966 0.16938281 -0.96633816 -0.45079985
0000d0 da 5e de 3d ff d1 eb be e9 ca 4a 3f 6a 99 8a be
       0.10857935 -0.46058652 0.79215866 -0.2707017
0000e0 18 07 e9 bc 25 25 17 bf 31 0c 26 bd cf a5 bd 3e
       -0.028445765 -0.59041053 -0.04053897 0.37040564
0000f0 0f bc 10 3e d2 9a 78 3e 97 05 7c be a1 82 cf bc
       0.14134239 0.2427781 -0.24611507 -0.025330843
