pretrained_models/experiment/Discrete_acktr_20x10x10Bin_s42_inh_800_defaultBox-2022.08.18-13-06-52/PCT-Discrete_acktr_20x10x10Bin_s42_inh_800_defaultBox-2022.08.18-13-06-52_2022.08.18-17-16-35.pt (torch, 236314 bytes, 24 tensors)

actor.init_internal_node_embed.0.module.weight f4 [32, 6]
000000 2d 8a 80 3e fd e8 12 3f 87 23 21 3f db 0e 9b be
       0.2510542 0.5738676 0.62944835 -0.3028477
000010 fb 24 f2 3c 00 62 37 3e 1f ea 49 3e 93 2e cf 3e
       0.02955865 0.17908478 0.19718216 0.4046522
000020 ec 17 a9 bc f6 64 04 be fc a2 9a be 42 ce ed bd
       -0.02064129 -0.12929139 -0.30202472 -0.11611606
000030 93 b3 6d 3d 4d ea 1e bd 51 01 5a 3d 92 3b b4 3d
       0.058032583 -0.038797665 0.05322391 0.08800425
000040 16 0d 8c be 4b 70 9a 3d ec b5 08 bf 49 b6 0b bd
       -0.27353734 0.075409494 -0.5340259 -0.034109388
000050 4f ef c7 be 4f e3 0e 3f d2 d5 95 3e 8a d6 5d 3f
       -0.39049765 0.55815595 0.29264694 0.86655486
000060 e7 03 f5 3e 23 20 46 be e8 7a 2e 3c da 05 95 3d
       0.4785454 -0.19348197 0.01064942 0.07276507
000070 a9 8d 48 3c aa ac d0 bd 44 40 7b 3e bb 2c ed 3d
       0.012240806 -0.10189183 0.24536234 0.11580797
000080 84 ef b3 be ab 6e ce 3e ba 38 02 be 23 47 9b be
       -0.35143673 0.40318808 -0.12716952 -0.3032771
000090 33 68 dc be f2 12 5a 3e 1f 40 16 3e 9a a9 4b 3e
       -0.43048248 0.2129629 0.14672898 0.19888917
0000a0 3a 81 a5 be da e5 26 be 7d 52 5c 3e 4e 94 aa bd
       -0.32325155 -0.16298619 0.21515842 -0.08329068
0000b0 51 2e ec 3e e2 66 da 3c da 45 42 bf a2 25 04 3e
       0.46129087 0.026660386 -0.75887835 0.12904981
0000c0 38 cb e4 be 55 c6 af 3d 79 57 51 bf cd d7 d2 3e
       -0.44686294 0.08582751 -0.817741 0.41180268
0000d0 84 3b 1d 3d e8 f3 a0 3d ea b8 23 3f dd 87 b6 bc
       0.038386837 0.078590214 0.6395403 -0.022281582
0000e0 a4 d0 c7 bd 6e d7 22 3e 5c 89 5b be 95 21 37 be
       -0.09756592 0.15902492 -0.21439117 -0.17883904
0000f0 bf 0b 67 bd 45 79 b9 3d a9 5a b1 be 8c b1 0d 3f
       -0.056407686 0.090563335 -0.3463948 0.5534904
000100 f2 fb 08 3f 99 29 22 bf bd d2 69 be 4a e8 34 be
       0.5350944 -0.63344723 -0.22834297 -0.17666736
000110 8e e9 2d be 0b 5c 56 bd 73 8e af be c6 55 4a be
       -0.16983625 -0.052333873 -0.34288368 -0.19759282
000120 ad 1b 6f 3f 98 e1 d5 3d d1 99 f8 3d 78 04 08 be
       0.93401605 0.10443419 0.12138713 -0.13282955
000130 ff 4c de bd 54 2d 55 be c0 0f d2 3e 64 32 bc 3c
       -0.108545296 -0.20818073 0.4102764 0.022973247
000140 cf d8 3a be ad a4 f1 bd 01 a1 a2 3e b4 28 b0 be
       -0.18246768 -0.117989875 0.3176346 -0.34406054
000150 44 5c cd 3e 34 a5 e3 3e 32 36 b3 be c0 eb 91 bd
       0.40109456 0.44461977 -0.35002285 -0.07125044
000160 9b c3 ac 3d cf 88 a9 bd 21 aa f6 bc c2 82 92 be
       0.08435746 -0.08278047 -0.03011042 -0.28615385
000170 4f c6 72 be e7 97 a3 bd 0f 48 10 3e fc 79 8e be
       -0.23708461 -0.079879574 0.14089988 -0.27827442
000180 84 7b 4c 3e 95 6a 0c be 53 f3 d1 3e cd fd 4c bf
       0.19968992 -0.13712533 0.41005954 -0.8007477
000190 df 88 ff 3e 5b 3a fd 3e 00 66 b9 3d 4c 14 6d 3d
       0.49909112 0.49458584 0.09052658 0.057880685
0001a0 eb e7 e3 3d 1c 18 3e 3e d2 48 0c bf 82 fe b4 be
       0.11128219 0.18563884 -0.54798615 -0.35350424
0001b0 0f 26 ba 3e c8 3d d7 3d 91 0b e3 be 65 a4 53 3e
       0.3635716 0.10509831 -0.44344762 0.2066818
0001c0 f4 91 14 3e 58 12 3f bd 0a 4c c0 3e d2 63 4f be
       0.14508802 -0.046648353 0.37558013 -0.20252922
0001d0 55 33 42 3d 17 61 81 be 79 c3 b0 bd 5b 78 03 3e
       0.047412235 -0.25269386 -0.086310335 0.1283888
0001e0 a2 62 ca 3d b0 2b 70 3e 57 30 e8 be 50 a5 7b 3e
       0.09882094 0.23454165 -0.4534938 0.2457478
0001f0 27 41 c6 3c 6c e5 fc be c3 51 1a be 06 48 b0 bd
       0.024200989 -0.49393785 -0.15070252 -0.086074874
000200 d6 96 96 be f4 c4 fb 3d 86 fa ec bd 54 c2 bc be
       -0.29411954 0.12293425 -0.11571221 -0.3686701
000210 fe ff 3d bf df 12 5b bf e8 52 56 bf cf de 02 3f
       -0.7421874 -0.8557567 -0.83720255 0.5112123
000220 4d 32 e5 3e 1d 86 e2 3e 5c 18 94 be 2b 51 ca bd
       0.4476494 0.44242945 -0.28924835 -0.09878763
000230 b6 ae 36 be c6 28 97 3d 31 95 eb bc 2a b6 19 3f
       -0.17840084 0.07380824 -0.028757663 0.60043585
000240 0b a0 0e be 7c f2 e9 bc 0f 88 84 3f 8a c2 ba 3e
       -0.13928239 -0.028558008 1.0354022 0.36476547
000250 1b 54 ea 3d 55 f1 63 3e e7 c7 29 bd 45 55 7d 3e
       0.11441823 0.2226003 -0.041450407 0.24739559
000260 de be bc 3e cf 6c a5 be 8e df 94 bd bc be e7 3e
       0.3686437 -0.32309577 -0.07269202 0.45262706
000270 cd 50 98 be 5c 1a b7 3c fd 26 8b be bc 2e 61 3d
       -0.29749146 0.022351436 -0.27178183 0.05497621
000280 5a 6b 8b 3e a3 aa b3 bd 80 c3 a0 bd 17 a5 e8 3c
       0.2723034 -0.08772781 -0.07849789 0.028399033
000290 5f 74 b2 3e 50 bf be be 18 61 2f bd 19 3c 40 be
       0.3485441 -0.37255335 -0.042817205 -0.18772925
0002a0 a6 14 ba be 07 5b 16 bf 9a 4f 9f bd 2f f0 57 3d
       -0.36343879 -0.58732647 -0.07778855 0.05271929
0002b0 52 24 16 3e d1 60 87 3d 27 de 6b be 45 3e 39 3e
       0.14662293 0.06610263 -0.23033963 0.1809016
0002c0 3c 86 a7 3e 97 41 82 be 40 e2 9b bd 96 c1 53 bd
       0.327196 -0.25440666 -0.07611513 -0.05169829
0002d0 94 9d ca 3e de a1 92 3c be da 02 3d aa 12 b1 bd
       0.39573348 0.01789945 0.03194689 -0.08646138
0002e0 b0 7e 3e 3e 1b b5 d6 be b4 f8 8d 3e 07 d0 3b 3e
       0.18603015 -0.41935048 0.27728808 0.18341075
0002f0 e1 3b 86 be 6d 8b 43 be 32 22 a6 3b a8 9e a3 3e
       -0.2621756 -0.19096155 0.0050699944 0.31956983

actor.init_internal_node_embed.0.add_bias._bias f4 [32, 1]
000000 50 63 02 3d 67 88 85 3c 84 38 f4 bc bf 6c 7b 3d
       0.031832993 0.016300393 -0.029812105 0.061383005
000010 08 4b fc 3d 87 69 2d 3c ac a3 92 bc 98 70 b5 3c
       0.123189986 0.010584242 -0.01790031 0.022148415
000020 4f 35 e9 3c 34 c4 a1 3d 2d 71 cd 3c 81 04 a3 3c
       0.028467802 0.07898751 0.02507838 0.019899609
000030 73 b1 22 3d b7 3e c2 3c 8b ae c4 3b ae d1 82 bb
       0.03972001 0.023711545 0.0060022525 -0.003992281
000040 8f 6f 4b 3c 35 6b 2c 3c c7 b7 b7 3a df 46 d8 39
       0.012416734 0.010523607 0.0014016562 0.00041251534
000050 d8 c3 43 bc 17 22 b0 3c fb f7 8f bb d9 35 da bb
       -0.011948548 0.02150063 -0.0043935752 -0.006659251
000060 13 d3 85 3d 22 59 7c 3c 38 ea 3a bc 09 93 85 bc
       0.065344 0.01540211 -0.011408381 -0.016305463
000070 7a 6e 6a 3b 28 a0 89 ba 3c 80 36 3c d8 c8 17 3d
       0.0035771416 -0.0010500001 0.011138972 0.037056774

actor.init_internal_node_embed.2.module.weight f4 [64, 32]
000000 21 bf 6c be d0 ff 6b 3d a1 87 00 be 28 ec c1 3e
       -0.23119785 0.05761701 -0.12551738 0.37875485
000010 38 9e 1a 3e f0 77 19 3d f8 a1 aa 3d 02 c1 01 3e
       0.15099418 0.037467897 0.08331674 0.12671283
000020 ea ed 9d be d4 80 95 be a3 73 dd bd 15 15 fc bc
       -0.30845577 -0.2919985 -0.108130716 -0.030771771
000030 de fd b0 be 16 59 26 be 7e 56 ed 3b 7f 2f 33 be
       -0.34568685 -0.16244921 0.0072429767 -0.17498587
000040 df 94 cb 3e fc 05 aa bd d3 4c 23 be bb 15 89 3e
       0.39762017 -0.08301923 -0.15947275 0.26774392
000050 76 94 b1 3d b0 80 96 be b3 3d f8 bd e2 8a 45 be
       0.08670895 -0.29395056 -0.12121143 -0.19291261
000060 e6 8c 28 3e 6a e1 ae 3e 11 bf 10 3e 65 e3 cb 3d
       0.16459998 0.34156352 0.14135386 0.099554814
000070 07 2d 63 bd ee 24 2a be a8 6d 4c be 09 e8 18 3e
       -0.055462863 -0.1661565 -0.19963706 0.14932264
000080 59 e9 cd be 54 b9 ba be 33 b2 b8 be 27 88 93 be
       -0.40217093 -0.3646952 -0.36073455 -0.28814813
000090 d3 6d 86 3d 81 4b 80 3e f6 9b 57 3b 14 85 d1 3e
       0.06563916 0.25057605 0.0032899356 0.40921843
0000a0 ff 02 26 bc 82 68 97 bd 0e a3 3a bd 73 6e 3a bd
       -0.01013255 -0.0739298 -0.045565657 -0.04551549
0000b0 de 57 a6 be 7d fe e3 3d 08 9f 65 be a0 58 26 3e
       -0.32488912 0.11132524 -0.22423947 0.16244745
0000c0 89 5b 59 3d e8 04 ec 3c f1 3a cf be 30 81 2d be
       0.05306581 0.028810933 -0.40474656 -0.16943812
0000d0 e7 1d bd 3e 1e e1 d3 3d 93 3a 00 3e 6a ae 96 be
       0.36936876 0.10345672 0.12522344 -0.29429942
0000e0 5d dd 92 be 32 0b a7 3d ec d9 33 bd 62 e3 26 3e
       -0.28684512 0.08156432 -0.043909 0.16297677
0000f0 a4 b4 86 be 52 fd 48 3e 32 67 bf 3e ed 43 9a bc
       -0.26309693 0.19627884 0.3738342 -0.018831218
000100 13 c3 48 3f c3 58 44 be c9 61 e2 bc e8 5e b7 3e
       0.7842266 -0.19174485 -0.027634518 0.35814595
000110 3b fd 8f be 7e af 6e 3e e4 94 8a be c4 f2 ec bd
       -0.28122887 0.23309132 -0.2706672 -0.11569741
000120 fd 44 61 3e 9f a5 96 3e 8e 1e f0 3d a2 29 b9 be
       0.21998973 0.29423234 0.11724578 -0.36164576
000130 59 15 69 3f 58 04 34 be ae 03 0a 3e 25 d9 32 bc
       0.910482 -0.17579782 0.13477966 -0.010916029
000140 bf 31 90 3e 92 1a d1 3d 96 60 51 3d 3c db 73 3e
       0.28162953 0.10210146 0.051117502 0.238141
000150 c4 cd bf be fa e3 1a be 14 05 b9 3d 42 98 a4 bd
       -0.37461674 -0.15126029 0.09034172 -0.080368534
000160 a7 7f 16 3f be 70 67 be 33 3f f0 bd a5 ef 4c bd
       0.5878853 -0.22601601 -0.11730804 -0.05003323
000170 f9 6e 0b 3e bd e8 b2 3d 62 10 99 3e 40 13 07 3e
       0.13616551 0.087357976 0.29895312 0.13190937
000180 47 2a 01 bd ce ae 1d 3f ba b2 f7 bd 89 33 ed be
       -0.03153446 0.61594856 -0.12094636 -0.4632838
000190 93 e1 2a 3d a9 17 1e be 47 a3 9f be c4 17 57 3d
       0.04171903 -0.15438713 -0.31179258 0.0525129
0001a0 ef 6e 6d be 2e 0a 92 3c 73 b9 87 bd ac 71 01 3f
       -0.23186849 0.01782712 -0.066271685 0.50564075
0001b0 0a 5d 0e 3e 1d 98 17 be 82 46 00 be 78 f6 30 be
       0.13902679 -0.1480412 -0.12526897 -0.1728152
0001c0 ae b5 11 be ef 85 2d be b3 5d 59 be f5 bd 52 be
       -0.14229462 -0.16945623 -0.2122715 -0.20580275
0001d0 64 f4 9a be 1f 03 d6 3d 2e bc 84 3e 74 97 71 3e
       -0.3026458 0.10449814 0.2592482 0.23592931
0001e0 67 cf c1 be 6d db 26 3e 81 ca 0f 3e 28 bc 1e 3d
       -0.37853548 0.16294642 0.14042093 0.03875366
0001f0 6f e8 4d 3e 41 cb 0b 3e 66 c2 a7 3d de 9b c7 bd
       0.20108198 0.13651754 0.081913754 -0.09746526
000200 a9 18 b0 be 67 5f 62 bd 29 a0 01 3e 54 02 1a bc
       -0.34393814 -0.055266764 0.12658753 -0.009399969
000210 c0 c3 26 be 99 01 89 3c b8 e7 fa bd 30 3c 9f bd
       -0.1628561 0.016724395 -0.12251228 -0.07775152
000220 d3 99 bb 3d 82 85 03 3e 34 a7 32 3d 2a 3f 94 be
       0.09160199 0.12843898 0.04361649 -0.2895444
000230 67 fe 22 bc 34 fd 95 3e 2c 5b ea 3d 08 84 2d bc
       -0.00994835 0.2929474 0.11443171 -0.010590561
000240 cb 60 89 3d 7c 72 5d 3d 5e 9e 9b be 2b 77 4c be
       0.06707915 0.05406426 -0.30394262 -0.19967334
000250 1d b5 5d bd 7b c2 c2 bd 74 f2 0c 3f 8e ce 6e be
       -0.0541278 -0.095097505 0.55057454 -0.23320982
000260 b1 db ed be 57 fb 20 3c a6 35 0e 3e 9f 99 24 3c
       -0.46456674 0.009825549 0.13887653 0.010046392
000270 2e a5 4e 3e 35 aa cb bb 22 74 1b 3e 06 d0 98 3c
       0.20180199 -0.0062153586 0.1518102 0.01865388
000280 ed b8 c6 be 80 20 61 3d c5 ad c9 bd 03 e2 60 3d
       -0.38812962 0.054962635 -0.09847597 0.05490304
000290 94 d4 1a 3f e4 87 4d 3e 3e 58 95 3e fa 90 be be
       0.6048062 0.2007137 0.29168886 -0.37219983
0002a0 c1 05 a2 3e 67 45 f1 3e 1c 77 19 3f 63 78 43 3e
       0.31645015 0.47123262 0.5994737 0.19088893
0002b0 b4 c3 0d 3e 02 bb 51 3e 53 78 ba 3e 41 f7 28 bc
       0.13844186 0.20481494 0.36419925 -0.010312856
0002c0 f1 ea 57 be 51 0e 00 3d 08 04 9a 3d 90 79 1d be
       -0.21085717 0.031263653 0.075203 -0.15378404
0002d0 c0 86 c9 3e cd 48 9b bc 6e 83 96 bd 3d a0 a7 bd
       0.3936062 -0.018955613 -0.07349287 -0.0818486
0002e0 24 fc 60 bf e4 be b6 3d 5a 5b 84 be d5 10 6f be
       -0.87884736 0.08923128 -0.25850946 -0.23346265
0002f0 5f d7 7e bd 64 87 28 3a 0b 86 de 3e 86 07 b0 bd
       -0.062217113 0.0006428866 0.43461642 -0.08595185
000300 fa 5a 66 3d df b3 57 be 92 05 1a be 61 42 f5 be
       0.056239106 -0.21064709 -0.15041187 -0.47902206
000310 57 bf 34 3d 4c 4d 02 3d ce eb 70 bd 61 a4 97 bd
       0.04412779 0.031811997 -0.05881863 -0.074044
000320 47 ec f5 bd 7c da 12 3f 7a ce e0 bd 82 9a 8b 3d
       -0.12007957 0.5736463 -0.10976882 0.068165794
000330 3f 23 3c 3f ad 63 e5 bc 3e 8f 2d 3e fe 09 47 bd
       0.7349128 -0.02800163 0.16949174 -0.048593514
000340 00 a5 5c be 82 e8 78 be 76 be 22 3f 8c fe 46 3e
       -0.21547318 -0.24307445 0.6357187 0.1943304
000350 85 b5 bc be be 2c 52 3d d4 25 e9 bd 7f 55 0a 3e
       -0.36857238 0.0513122 -0.11384168 0.13509177
000360 d2 9a 76 bf a3 38 83 be a4 8b 2d 3e 7b 3b 3c 3d
       -0.9632999 -0.25629148 0.169478 0.045955162
000370 48 d5 88 3e ed 8f 99 3e a5 c7 21 bd 92 8f 1a be
       0.2672522 0.2999262 -0.039497036 -0.1509383
000380 18 b0 3f 3f 57 eb 5e 3e 5d 86 93 3e d2 63 b5 3e
       0.7487807 0.21769463 0.2881345 0.3542772
000390 89 3b f3 bd 02 b9 09 3e ba 64 91 3e 51 e5 09 3e
       -0.1187659 0.13449481 0.2839716 0.13466384
0003a0 21 96 69 be 87 96 b5 be 19 f7 8a bc 33 08 78 be
       -0.22811176 -0.35466406 -0.016963528 -0.24221878
0003b0 29 2e 03 3f 18 38 ab be 5c 62 24 bd 3e be 40 3d
       0.5124231 -0.33441234 -0.040132865 0.04705643
0003c0 5f f2 a0 3c 37 8f 4a bd 43 48 89 3e f4 36 7a bd
       0.019646822 -0.049452987 0.26812944 -0.061087564
0003d0 b5 0d 48 bd b6 57 3b be 22 b8 2b 3d 84 a8 bb 3d
       -0.048841197 -0.18295178 0.04192365 0.09163001
0003e0 56 52 23 3f 22 ac 89 3b 22 e2 6c 3e 29 94 0d bd
       0.6379751 0.004201428 0.23133138 -0.034565125
0003f0 00 71 2d 3e dd 44 b3 3e 1d e8 f5 be 63 8b 21 be
       0.16937637 0.35013476 -0.4802865 -0.15775828

actor.init_internal_node_embed.2.add_bias._bias f4 [64, 1]
000000 a2 74 7d bc 18 9e 58 bd 2e 16 c0 3d b3 88 61 bd
       -0.015469702 -0.052885145 0.093792304 -0.055062007
000010 b4 16 17 bd 06 39 37 3d 2e b5 51 bd 21 0e ba 3d
       -0.036886886 0.044732116 -0.051198177 0.09084726
000020 93 f2 8a 3b c5 58 73 bd 1c 3a 8d bc d3 dc 14 bd
       0.004240343 -0.05941083 -0.017239623 -0.036343407
000030 05 0f 0c be 69 12 57 bd 16 3b ea bc 4e 9a f5 3c
       -0.13677604 -0.05250779 -0.028592627 0.029980805
000040 1e 94 8e bd b1 20 50 bd 24 04 16 be 7e b7 76 3c
       -0.06961845 -0.050812427 -0.14650017 0.015058396
000050 08 7b 84 bd 80 d3 15 bd 4b 21 8d 3c df 97 b1 3d
       -0.06468779 -0.036578655 0.01722779 0.08671545
000060 6a 0a b4 bc 09 20 30 bc 7e e4 a7 bc b5 2b a3 b9
       -0.021977622 -0.010749825 -0.020494696 -0.00031122347
000070 71 3e 9f 3c 69 d3 d9 bd f1 e5 95 3d 38 bb 06 be
       0.019438954 -0.106360264 0.073192485 -0.13157356
000080 d7 9c ca 3d 50 f1 ae 3d 1d 80 17 bd cd 94 29 bd
       0.09893196 0.085421205 -0.036987413 -0.041401673
000090 ab 45 61 3d 7f b6 14 bd 4f fa af 3c 0c d1 86 3d
       0.05499808 -0.036306854 0.021481661 0.06582841
0000a0 4e 9b 59 bd 96 fb 44 bd af b9 72 3e 30 9d 64 bc
       -0.053126626 -0.048091494 0.23703645 -0.013953492
0000b0 c9 00 99 bd f6 30 d9 bc 69 f4 39 3d c4 35 3c 3d
       -0.07470853 -0.026512604 0.045399103 0.045949712
0000c0 00 4f 76 3d 2c 51 06 be 33 4b 5d 3d 6e 8e 9c 3d
       0.060133934 -0.13116902 0.054026794 0.07644354
0000d0 67 ba 8a 3d 14 5b db bd 91 c9 1e bd a0 ad 09 3e
       0.06773835 -0.10710731 -0.038766447 0.13445139
0000e0 a5 f0 0f 3e 82 87 b1 3b 6a 42 67 b9 e3 b6 64 3b
       0.14056642 0.005417765 -0.00022054618 0.0034899048
0000f0 33 d3 07 bd 83 73 85 3c 0c a3 58 bd 34 3e 91 3d
       -0.0331604 0.016290432 -0.05288987 0.070919424

actor.init_leaf_node_embed.0.module.weight f4 [32, 8]
000000 63 36 24 be b9 48 f3 be bf 8d b7 3e 41 53 b1 3e
       -0.16036372 -0.4751642 0.3585033 0.3463383
000010 b0 b7 3e 3e b8 27 bd 3e d6 8f aa be 3f c3 9e be
       0.18624759 0.36944366 -0.33312863 -0.31008336
000020 22 cf 09 bf 0e ca 2b be d9 43 94 3e 86 fd cd 3d
       -0.53831685 -0.16776296 0.28958014 0.100581214
000030 72 25 4e 3e 29 65 8a be 96 8d 7a 3e 93 04 58 bd
       0.20131472 -0.27030304 0.24468073 -0.052738737
000040 9b a0 1a 3c bf 64 91 3d 9a 84 92 be 38 6a 08 bd
       0.009437705 0.07099294 -0.28616792 -0.033304423
000050 97 0e 45 be cd 5c 2a be 66 01 a2 3d b7 65 c5 bd
       -0.19243847 -0.16636963 0.07910423 -0.09638541
000060 5e 94 4d be f4 95 23 3e e1 a7 e1 3e 36 4e 63 be
       -0.20076129 0.15975171 0.44073394 -0.22197804
000070 cc 8e f9 3d 77 6a 4f 3e 13 7c 80 be db a0 49 3c
       0.121854395 0.20255457 -0.2509466 0.012306417
000080 dc e6 ac 3d 66 83 11 bf 1b 97 cf 3e fa 11 45 be
       0.084424704 -0.56841123 0.40544972 -0.19245139
000090 ac 56 1a be 66 86 b1 3d 86 2d 2a be 19 bb 11 3e
       -0.15072125 0.086682126 -0.16618928 0.14231528
0000a0 bf fc c5 be 3d 1c 9d 3c 2a 4a 9e be b5 c7 2e 3e
       -0.38669392 0.019178504 -0.30915958 0.1706837
0000b0 db 1e 6a bd b4 e6 e8 3d 3e c0 2b be 66 5a 30 3c
       -0.057158332 0.11372128 -0.16772553 0.01076374
0000c0 f8 62 a9 be 5f 16 d7 3d e8 2b 8e bd e4 8f 09 3e
       -0.3308332 0.10502314 -0.06941968 0.13433796
0000d0 6e 27 a6 bc 5d 9a 0d be 9e b3 39 3d 92 28 27 3e
       -0.020282473 -0.13828416 0.045337312 0.1632407
0000e0 a4 af 9f 3e 1a 17 4c 3e 0f d7 c7 3e 4d 3b c0 bd
       0.3118869 0.19930688 0.39031264 -0.09386311
0000f0 c7 2e 40 be 1c b4 9e bd c2 df 28 bf 7b 28 a8 bd
       -0.18767844 -0.07749197 -0.6596643 -0.08210846
000100 5b 9c 2d bd f3 29 e5 3d 1b 23 47 3e 2c 12 b5 bd
       -0.04238544 0.11189642 0.19446985 -0.08841357
000110 2c d3 3e bd ba a9 8a 3e a0 2f 57 3d 6a 5c 32 3d
       -0.046588108 0.27082616 0.052535653 0.043545164
000120 36 a6 1c bf 2c 1e ca be 5f f7 1a 3d eb aa 85 3e
       -0.6119112 -0.39476144 0.037833568 0.26106963
000130 ab f4 ff 3e fe 3c a3 be e5 5d d7 ba b9 5f 04 bf
       0.49991354 -0.3188247 -0.0016431181 -0.5170856
000140 f0 92 a9 be e6 23 1c 3e 56 4d f0 be 99 bd 3f be
       -0.33119917 0.15248069 -0.46934003 -0.1872467
000150 72 81 c4 3e b1 bf 31 3e 5b 21 6b be b4 5d ff b9
       0.3838001 0.1735828 -0.22961943 -0.00048707204
000160 0e 2e 28 3d b5 d6 e8 bd 9e 91 9a 3e ef 33 b1 be
       0.041059546 -0.11369077 0.30189222 -0.34609935
000170 43 ad ea bd f8 7b cf be eb 3e d6 3e 29 94 58 3c
       -0.11458828 -0.40524268 0.41844878 0.013218918
000180 6d 93 18 be 5d 7a 79 bd 78 b9 7f 3e 9a ea 0e 3f
       -0.14899988 -0.06090771 0.24973094 0.55826724
000190 c6 90 30 3e 1e 20 7d 3e 4a df ad 3e 1e 36 de 3e
       0.17242727 0.24719283 0.3395942 0.43400663
0001a0 d1 0b d5 3d e2 7b a7 3e d2 77 5d 3e cf 07 47 bd
       0.104026444 0.32711703 0.21627739 -0.04859143
0001b0 f0 95 f2 be 31 91 58 bd 3f 4e 4a bd eb 74 65 be
       -0.47380018 -0.05287284 -0.049391028 -0.22407882
0001c0 cf 98 ed 3e 34 d9 f5 3e c1 c0 94 3e 44 a8 97 3e
       0.46405646 0.48017275 0.2905331 0.29620564
0001d0 b3 68 ab bb b6 1b aa bd 20 50 0a 3e 16 e2 1d 3e
       -0.005230987 -0.08306067 0.13507128 0.15418276
0001e0 63 91 db 3b 5a e9 3e be 1f 7e 94 bd fb 8f 8a 3e
       0.006700681 -0.18643704 -0.07250618 0.27062973
0001f0 13 7b 22 be 0c 03 77 3e 8d d3 2d 3d ab ae 31 3e
       -0.15867262 0.24122256 0.04243808 0.17351787
000200 0c a1 6c 3e 87 15 a1 3e 9d de 93 bd 8e 6b 00 bf
       0.2310831 0.31461737 -0.072201945 -0.50164115
000210 9b 6c 9f 3c 65 7b a7 be f7 85 63 be ad f6 2d 3e
       0.019460967 -0.3271133 -0.22219072 0.1698863
000220 4e 9e 98 be 3b 02 91 3e 4a b9 a5 be bf 95 d2 3e
       -0.29808277 0.28322014 -0.32367927 0.41129872
000230 95 17 42 be 26 95 9e bd 78 f0 57 be e2 f2 62 3e
       -0.18954308 -0.077432916 -0.21087825 0.22162965
000240 0b af 93 3d 50 37 c1 bd 13 3c 4f bf 8b 82 df bd
       0.07211121 -0.09434378 -0.8095104 -0.10913571
000250 fb 29 92 3e 18 37 ac 3e 58 11 bf 3d b9 51 23 be
       0.28547654 0.33635783 0.0932948 -0.15949143
000260 5a 88 52 be 6e 12 e9 bd 8d 57 03 bf 16 c3 1e 3d
       -0.20559826 -0.11380468 -0.51305467 0.038760267
000270 71 67 fb bd ca eb e6 bc 86 3e 7f 3e ca 62 9f bd
       -0.12275589 -0.028188605 0.24926195 -0.077825144
000280 92 65 1e 3e 0f e7 25 bd 1d 54 a2 3e 29 89 b2 3e
       0.15468433 -0.040503558 0.31704798 0.3487027
000290 93 f2 b2 3e 79 08 f0 3c 76 72 96 3e ad a4 9c bd
       0.34950694 0.029300915 0.29384202 -0.07648597
0002a0 ea f7 a4 be c3 65 5e 3e 7e 16 21 3e 40 5b 06 be
       -0.32220393 0.21718507 0.15731236 -0.13120747
0002b0 4e 5e a6 3e ae 31 a1 be d0 2c 2b bd 85 7a 49 3e
       0.32493824 -0.31483215 -0.041790783 0.19675644
0002c0 97 40 3d 3e ef 6e 83 be e3 39 79 be b0 45 b7 be
       0.1848167 -0.25670573 -0.24338488 -0.35795355
0002d0 5d b9 8b 3e b2 15 3d 3d 12 fd e1 3e 0d 1c 6b 3e
       0.27289858 0.04616327 0.4413839 0.2295992
0002e0 be bc c0 bd 18 0f fc 3e 9a f1 35 3e ed a9 fb be
       -0.09411 0.49230266 0.17767945 -0.4915308
0002f0 ae c8 7d bc 34 01 27 3f ac dd 0f 3e 11 3e ca 3e
       -0.01548974 0.6523621 0.14049405 0.39500478
000300 af 9e 02 be a2 6f 9f be 4d 7a e0 bd 8e ff bf bd
       -0.12755845 -0.31139857 -0.10960827 -0.09374915
000310 b5 19 6b 3e df 76 20 be 5e d5 9a bd ca 4f 16 3f
       0.22959025 -0.15670346 -0.07560228 0.587155
000320 92 4c 67 bc 11 94 82 be fc 5b cf be 0b 29 8e 3e
       -0.014117377 -0.2550359 -0.40499866 0.27765688
000330 34 7c 4d be d8 31 14 be 9e 2c a2 bb cf 25 ba 3e
       -0.20066911 -0.14472139 -0.0049491664 0.3635697
000340 65 25 91 be 40 e2 2d 3e 2b 9d 2a 3e 51 a9 53 be
       -0.28348842 0.16980839 0.16661517 -0.20670058
000350 95 17 cf be 08 4c cc bd b9 0b d0 3e b1 12 44 be
       -0.4044768 -0.09975439 0.40633944 -0.19147755
000360 82 91 6f be 5b 8a 71 3e 23 33 a9 3e 42 9b 82 3e
       -0.2339535 0.23587935 0.33046827 0.25509077
000370 8f c1 a5 bb e0 e2 9c 3e 65 5c 9c 3e 15 dc 43 be
       -0.0050584744 0.30641842 0.3053924 -0.19126923
000380 4c 39 fd 3c 67 c4 14 bd 58 26 af 3e 28 b9 1a be
       0.03091111 -0.036320116 0.3420894 -0.15109694
000390 a6 1a 02 be e1 03 08 bf 60 38 76 be d6 e0 b8 bd
       -0.12705478 -0.5313092 -0.24044943 -0.09027259
0003a0 88 7a df 3e 83 78 b3 3e 24 4c a8 be 3a 2b b1 3e
       0.4364817 0.3505288 -0.3287059 0.34603292
0003b0 19 93 1b 3f ea 17 34 3d 73 cd 24 3e 62 4f ff be
       0.6077133 0.04396812 0.16093998 -0.49865252
0003c0 c9 47 90 3d 53 6f b4 be bc 60 ea bd 53 c3 cd be
       0.07044942 -0.35241184 -0.11444232 -0.40188083
0003d0 12 f8 88 be 35 74 e7 3e 9b 47 a3 3d 76 3a 80 be
       -0.26751763 0.45205846 0.07972642 -0.25044602
0003e0 2b 77 fc be 16 9c 63 3c 6e 33 8f be 46 61 f4 bd
       -0.49309668 0.013892194 -0.27968925 -0.11932616
0003f0 87 cd b2 be 54 fe 45 be 6b f0 8d 3e b2 03 55 be
       -0.3492243 -0.193353 0.27722487 -0.20802191

actor.init_leaf_node_embed.0.add_bias._bias f4 [32, 1]
000000 55 db 2e 3e c1 46 8f bc c0 41 34 bb c5 74 b1 3d
       0.17075856 -0.017489793 -0.002750501 0.0866485
000010 e1 ba 1c 3c fb cc 15 bd 9c 3f be 3c 8d 26 e0 3c
       0.00956604 -0.036572438 0.02322369 0.027362132
000020 94 04 0a be 80 36 f9 3b 0d 80 3b bd 76 2d 76 be
       -0.13478309 0.007605374 -0.045776416 -0.2404078
000030 b3 42 93 3e db 4c 40 bc 95 be ff bc a6 08 c2 bc
       0.28761825 -0.011737074 -0.031218806 -0.023685765
000040 1c 05 c5 3c 98 a3 24 bd 20 af ad bd ef d8 21 3e
       0.024050288 -0.040195078 -0.08480668 0.1580541
000050 72 18 48 bd b3 c4 33 bd 59 fd 13 3d ed 8a 19 bc
       -0.048851438 -0.04388876 0.036130283 -0.009371501
000060 b5 15 5c 3d 82 36 84 bd a5 eb 22 bd e8 75 d1 3c
       0.05373164 -0.06455709 -0.03977551 0.025568917
000070 32 44 10 be 2b 5d 97 3e 2f b8 e5 3c ba 33 ab bd
       -0.14088514 0.2956327 0.028041927 -0.083594754

actor.init_leaf_node_embed.2.module.weight f4 [64, 32]
000000 4e 6f 15 be 71 fc b3 be d8 22 8b be 0c 96 0b be
       -0.1459324 -0.35153535 -0.2717502 -0.13631457
000010 f8 75 36 3e a8 14 a0 3c 40 c0 63 3d 2c 9c 02 3e
       0.17818439 0.0195411 0.055603266 0.12754887
000020 0c 3b 4d 3e e6 4c 92 3d 8f 42 95 3d e1 a8 86 be
       0.20042056 0.071435735 0.07288086 -0.2630072
000030 c0 ce a6 be 1b 8a 93 3c 51 2c 8a be 1a 83 01 be
       -0.32579613 0.01801019 -0.26986936 -0.12647668
000040 6c ad 4f 3e 91 7f 85 bd 58 0c 26 be f3 a7 9c bd
       0.20280999 -0.06518472 -0.16215646 -0.07649221
000050 4d 46 90 3d fc 36 96 be ff 25 73 3e 8d a9 05 3e
       0.07044659 -0.29338825 0.23744963 0.1305296
000060 5c 57 f6 3d 21 dd 05 bf 89 8c a2 bd 34 48 fc 3d
       0.12028381 -0.5229054 -0.07936961 0.12318459
000070 3d e1 0d 3e 67 b8 5b be 1f 1c 00 bd f6 b0 34 bc
       0.13855453 -0.21457063 -0.03127682 -0.011028519
000080 19 e7 dc 3c 60 a1 1b 3e 72 6b 74 3d e2 fd ce 3d
       0.026965665 0.15198278 0.05967278 0.10107018
000090 38 f1 1a 3d 66 91 d1 3b aa 4f d5 3d f1 28 1d be
       0.0378277 0.0063955067 0.10415585 -0.15347649
0000a0 5e 09 da bd 4b 28 8f be e9 c2 d3 3e 56 22 b0 bc
       -0.10646318 -0.2796043 0.41359642 -0.021500748
0000b0 53 26 1e bd 5d 9f d9 3d 85 3c 57 3e 7f 29 98 be
       -0.038610768 0.10626099 0.2101918 -0.2971916
0000c0 03 79 b2 bd e6 95 3f be 84 87 4d be 6e c9 55 be
       -0.087144874 -0.18709525 -0.20071226 -0.2087762
0000d0 07 37 dd 3d 71 7b 80 bd a3 11 a4 3c 9a c1 ff bd
       0.10801511 -0.062735446 0.020027941 -0.124880984
0000e0 c7 e6 e4 be 37 89 d7 bd f5 08 7a bc b3 d7 6f 3e
       -0.4470732 -0.105242185 -0.015260925 0.23422126
0000f0 75 4e 84 be 6c a4 26 be fd d3 59 bd fd 71 c7 3e
       -0.25841108 -0.1627366 -0.053180683 0.38954154
000100 91 42 a3 3e 16 7a 1e 3c 68 29 1e be c5 99 42 bd
       0.31886724 0.009672662 -0.15445483 -0.047509927
000110 1d e1 1c 3e cf a2 9b bd 5f 38 f9 bd 52 f6 00 3e
       0.15320249 -0.07599413 -0.12168955 0.12593964
000120 fd 60 e9 be ca 0d e1 bd 96 52 ee be 51 77 2a be
       -0.4558181 -0.10988958 -0.46547383 -0.16647078
000130 b7 a2 8f be 57 4f 42 3d 8e a3 9b 3e 34 6a b9 bd
       -0.2805383 0.047438946 0.3039822 -0.0905346
000140 dc c6 db bd 66 7a 58 3e 5c bd a2 be 41 42 e7 bd
       -0.10731289 0.21140441 -0.31785095 -0.11291934
000150 58 50 ea bc d7 7f d9 bd fd 95 85 3c f4 4d b0 bd
       -0.028602764 -0.10620087 0.016306872 -0.086086184
000160 8c ea 19 bc c5 05 3f bd b3 b6 af bd 23 f0 00 be
       -0.009394299 -0.04663636 -0.08579769 -0.12591605
000170 77 41 55 be 90 55 f2 bc 1f f5 44 3e b0 29 f7 3d
       -0.20825754 -0.029581815 0.19234131 0.12068498
000180 0f 65 d6 3c 40 64 7d 3e 5d ee 33 3e 86 60 0c 3e
       0.026171235 0.24745274 0.17571397 0.13708696
000190 f4 58 f2 3d 5c b1 2d 3d 28 1d e6 bc d6 97 29 3e
       0.11833373 0.04240547 -0.028090075 0.16561827
0001a0 21 a7 08 bd 1b 1e 02 be 39 bd 19 be a1 71 75 3e
       -0.03336251 -0.12706797 -0.15013589 0.23969127
0001b0 6b 2a 83 be af 88 88 3d d8 3d 70 3d 96 2f 24 3e
       -0.256183 0.06666695 0.05865273 0.16033778
0001c0 05 1a e0 bd dc 3a 6b 3e 06 a6 96 be 0d dd 3b 3d
       -0.10942463 0.22971672 -0.2942354 0.045865107
0001d0 d8 72 8e 3d 0a 36 12 3e 7d b5 4f be 80 33 5b 3e
       0.069554985 0.14278427 -0.20284076 0.21406364
0001e0 18 73 4d bc 23 89 05 3e 30 13 23 3e 77 67 17 3e
       -0.0125396475 0.13040595 0.15925288 0.14785562
0001f0 dc 1c 99 3e 36 2e 0e bd c4 60 53 3e d3 fd 2f 3e
       0.2990483 -0.03471204 0.20642382 0.1718667
000200 70 9f c1 bd 18 af 95 bd 73 bb 88 3d 49 18 19 3d
       -0.094542384 -0.07308787 0.06676378 0.037376676
000210 90 c7 62 3e 15 c6 ea be 67 1c 64 3e 35 ff 08 be
       0.2214644 -0.4585425 0.2227646 -0.13378604
000220 31 ba 81 3d 05 13 38 3d 48 51 d3 bd 6b 15 b5 be
       0.06334341 0.044940013 -0.103182375 -0.35367903
000230 fe 10 ac bd 12 2b 4a 3e 8c 96 02 3e 46 65 fe bd
       -0.084016785 0.19742993 0.12752742 -0.1242166
000240 52 4b e0 be 63 c7 9c be a8 8b 22 3e fe 65 5e 3d
       -0.43807465 -0.3062087 0.15873587 0.054296486
000250 ff 4e 89 be eb 08 1b 3e c1 05 4a bd 6a 04 32 bb
       -0.26818082 0.1514012 -0.049321894 -0.0027163276
000260 19 d9 c0 bd 1b 43 f6 bc 8c 0b 14 be 57 fb 18 3e
       -0.09416408 -0.030061295 -0.1445753 0.14939629
000270 c2 3a 79 3e 4d 9b 32 3e 68 8e 02 3d e4 38 3b be
       0.2433882 0.17442055 0.03187409 -0.18283421
000280 2e 87 52 3d fc 60 4c bc 05 54 3b be 0a 4f a3 3d
       0.05139845 -0.012474295 -0.1829377 0.0797406
000290 8c b9 5c be de 72 8a bd 59 bc b4 3e 5c 26 9d be
       -0.21555156 -0.067601904 0.35299948 -0.30693328
0002a0 32 c7 cb bd 69 97 5f 3d 96 31 3c be a4 0b 94 3e
       -0.09950103 0.054587755 -0.1837829 0.2891513
0002b0 70 e2 12 3f bc cb 3d 3d b3 01 5b 3e fb ca 4b be
       0.57376766 0.046336874 0.21387367 -0.1990165
0002c0 74 6b 16 3e b5 de 87 3c 6c 13 94 be 62 57 bb bd
       0.14689428 0.016585687 -0.28921068 -0.09147526
0002d0 66 e9 8b 3d 84 16 19 be 22 37 9e 3d 7c 7f e2 3e
       0.068316266 -0.14949995 0.077253595 0.44237888
0002e0 e7 c2 b3 3d af 95 2a be b5 3c 9e bd 17 7f 30 3e
       0.08777409 -0.16658662 -0.07726423 0.17235981
0002f0 ed c2 2d be 6c c6 49 3e 41 1e 8f 3e 08 b7 d3 bd
       -0.1696889 0.19704598 0.2795277 -0.10337645
000300 bb 49 8a 3e 20 e9 a0 be c7 f9 62 bd 9c fd ec 3d
       0.27009377 -0.3142786 -0.055413987 0.1157181
000310 20 5e d0 bd 41 f2 15 be 33 b3 27 3e b6 bf f2 3c
       -0.10174203 -0.14643194 0.16376953 0.02963243
000320 93 31 51 3e bb b8 43 bd 25 58 72 3e 10 e9 36 3e
       0.20429067 -0.047783595 0.23666437 0.17862344
000330 8e 50 3d 3e 4b 3e 0b 3e 92 a6 ec bd 72 20 b9 bd
       0.1848776 0.13597982 -0.11555208 -0.090393916
000340 a2 cc e3 be d0 35 8b 3e 3e 9d 8c 3d 22 d8 0d 3e
       -0.4449206 0.27189493 0.06865929 0.1385198
000350 06 b8 54 bc ed a1 0b 3c 9f 69 30 bd 53 5c 73 3d
       -0.012983328 0.008522493 -0.043069478 0.05941422
000360 c0 1a 31 3d 4d 60 2f bd c6 3d 94 bd 09 ac 1d 3e
       0.0432384 -0.04281645 -0.07238345 0.15397657
000370 be da 13 be df 4e 60 3e 03 f8 be bd 56 4b 99 bd
       -0.14438912 0.21905087 -0.09324648 -0.07485072
000380 e0 fe 06 be 7f 69 d4 3c 36 bc f7 bd b1 1e 9c be
       -0.13183165 0.02592921 -0.12096445 -0.30492166
000390 75 73 05 3e b5 95 3d bd 79 91 4b be 81 16 87 be
       0.13032325 -0.04628535 -0.19879712 -0.26384357
0003a0 dd c9 46 3e cc bb e6 bd 1b b2 8f 3e 9e df 67 3c
       0.19412942 -0.11266288 0.2806557 0.014152436
0003b0 45 88 2a 3e a1 15 84 3d 62 d1 01 be 7c 13 97 3e
       0.16653545 0.06449438 -0.1267753 0.29507053
0003c0 85 d4 66 be 2f 20 bb bd 12 60 07 3d d4 64 9e bd
       -0.22542007 -0.09136998 0.033050604 -0.07734075
0003d0 af f2 85 3c 66 cf 9e 3e 49 b9 96 3d 2a 86 6f 3d
       0.016351072 0.31017607 0.07359559 0.05847756
0003e0 dd cc 8d 3b 5a 66 45 3e 72 bf 43 3e b0 e6 39 3e
       0.0043274 0.19277325 0.19116 0.18154407
0003f0 9a 52 fc be fe 26 b4 3e 53 a6 98 3e 43 77 75 be
       -0.4928177 0.35186 0.29814395 -0.23971276

actor.init_leaf_node_embed.2.add_bias._bias f4 [64, 1]
000000 c6 05 8a be 37 64 df 3d dc a1 4c 3c 11 5b 83 bc
       -0.2695753 0.10907786 0.012489762 -0.016034635
000010 8e 6a 14 bc 95 b4 96 3e b2 b8 67 3e d2 c4 37 3e
       -0.009058608 0.29434648 0.2262905 0.17946175
000020 cb 6d c3 3e ae b2 28 be 78 0a c4 bc d5 0f 42 3d
       0.38169703 -0.16474411 -0.023930773 0.04737838
000030 e4 e9 30 bd c2 1c d2 3d 06 86 e8 be 2e 20 0c be
       -0.043191805 0.10259391 -0.45414752 -0.1368415
000040 a9 c6 76 bd 17 5a e1 3d 33 92 f2 3c 4a 9d 14 3e
       -0.06024805 0.110035114 0.029610729 0.14513126
000050 9a 9a 85 be 8b 1c ce bc e1 72 8f 3a b2 8e 07 3e
       -0.26094514 -0.025160095 0.0010944271 0.13238028
000060 b7 9f 15 be 18 4b b4 bc 34 b3 e2 3c 92 ad 16 bd
       -0.14611708 -0.022008464 0.027673341 -0.036786623
000070 a0 28 28 be eb 7d 96 3e 41 18 95 3d 39 66 f8 3c
       -0.16421747 0.29392943 0.07280017 0.030322181
000080 d5 10 a0 3d f2 59 62 be 79 83 2b be fd 2b 3a 3d
       0.078157105 -0.22104624 -0.16749372 0.045452107
000090 0f d4 f0 3d 7b 90 ae 3e 8a 0d c9 3e e1 5c e3 3e
       0.11759197 0.34094605 0.39268142 0.44406798
0000a0 9b ac 3c 3e 2a 14 7d 3e 92 e7 ef bd f9 1c 00 3e
       0.18425219 0.24714723 -0.117140904 0.12511052
0000b0 1e 77 7a bd ea 70 85 be 41 17 ab be 5f 99 1b be
       -0.061148755 -0.2606271 -0.3341618 -0.15195225
0000c0 7f 15 c6 3e bb 9b 94 bd 8d 4f 32 be ee 90 d5 3e
       0.38688275 -0.07256266 -0.17413159 0.41712135
0000d0 ea 2d 86 bc fa 82 57 3e 17 85 9c be 45 81 37 be
       -0.016379315 0.21046057 -0.3057029 -0.17920406
0000e0 90 b2 02 3e 29 4e b5 3e 02 b0 2a 3e 5a c0 2d 3e
       0.12763429 0.35411194 0.16668704 0.16967908
0000f0 ad fa 31 3e 26 13 d0 3e be e7 92 be c9 4f 34 be
       0.17380781 0.4063961 -0.2869243 -0.1760856

actor.init_next_embed.0.module.weight f4 [32, 6]
000000 82 f6 53 be d2 50 2a 3e 21 04 ab bd 55 bc 14 3f
       -0.20699504 0.16632393 -0.08350397 0.5809987
000010 0b 7e 8b 3e 0b 92 44 bd 00 40 56 3e 9a 49 a6 3e
       0.272446 -0.04799084 0.20922852 0.3247803
000020 0a bd 08 3c 71 d0 24 3e bb 26 b8 3d fd 34 72 be
       0.008345852 0.16095139 0.08991762 -0.23653026
000030 70 88 bf 3d 89 c8 c7 be b2 c4 75 3e 20 ea 4c bf
       0.09352195 -0.39020184 0.24000815 -0.80044746
000040 5c d5 e2 3d 87 b2 33 3e 47 1e 2a 3f 12 a8 11 3f
       0.11075851 0.17548572 0.6645245 0.5689708
000050 6e af e5 3d 6f cb e4 bd d4 1b 94 3e b5 3f 54 3e
       0.11215101 -0.111716144 0.2892748 0.20727427
000060 ad 57 a7 be cd 0f 76 bd 60 cc 45 be e0 b6 36 3e
       -0.3268408 -0.060073663 -0.19316244 0.17843199
000070 44 53 0f 3d 19 3a 32 be bd 87 34 be 70 ed eb 3d
       0.034991518 -0.17404975 -0.17629905 0.11519897
000080 3d d2 ea 3e 01 7d b6 bc c1 75 ba be 97 ca f5 bd
       0.45863524 -0.022276403 -0.36417964 -0.120015316
000090 3e c9 2a be 25 7a 68 be 1f a7 c0 bc 41 39 02 bf
       -0.1667833 -0.22702844 -0.02351719 -0.5086861
0000a0 24 0a 33 bb 47 8f 04 3f 89 a4 4a be 5b 3c bb be
       -0.0027319277 0.51781124 -0.19789328 -0.36569485
0000b0 a5 ce 81 3e c5 49 c5 3d f9 fb f7 bd a7 91 4f 3d
       0.2535297 0.09633211 -0.12108607 0.050676014
0000c0 3e 0d 0a be 9e 98 82 be 20 c8 af 3e 23 7c 6c be
       -0.13481614 -0.25507063 0.3433237 -0.2309423
0000d0 c5 5b b2 3d 1a 95 db bb 9b e9 b7 be c8 1e 21 be
       0.0870891 -0.006701124 -0.35920414 -0.15734398
0000e0 e1 8f 14 be 8f 11 e8 3e 99 47 2f be 35 1a 7c bd
       -0.1450801 0.45325896 -0.17117156 -0.06154843
0000f0 55 28 90 3e bc dc 42 bd 1f e4 18 be 35 84 fc 3c
       0.2815577 -0.04757379 -0.14930771 0.03082476
000100 ca 7f 85 be d0 43 cc bd f3 d3 76 be 03 53 42 be
       -0.26074058 -0.09973872 -0.2410429 -0.18976979
000110 5b 24 95 be 63 20 90 be 18 a3 19 bd 5b 42 b3 bb
       -0.291293 -0.2814971 -0.037509054 -0.0054705567
000120 fb 0e 99 3e 41 a7 28 bf d1 ae 32 bd 65 ee d8 bd
       0.29894242 -0.6588021 -0.04362375 -0.10592345
000130 67 8a de bd 60 1a 66 be c1 fe 2d 3e 31 1c 85 be
       -0.10866242 -0.22470999 0.16991712 -0.2599807
000140 93 7a 9e 3e c3 4e 13 3f 79 15 91 3d 3a f8 b0 bc
       0.30952892 0.57542056 0.07084174 -0.021602739
000150 15 bf 07 be 8c fc 59 3d 48 ba d8 bd 8e 18 9c be
       -0.13256486 0.053219363 -0.10582405 -0.30487484
000160 58 70 94 3d 56 30 15 3e c2 20 19 3c c0 c9 8c 3d
       0.0724799 0.1456922 0.009346189 0.06874418
000170 b5 a4 6e 3e 3b 23 a0 be f4 69 0c bd be ed 80 be
       0.23305018 -0.3127688 -0.034280732 -0.25181383
000180 21 ac a7 bd 99 f8 13 be 79 e2 02 be 0d 5f 39 bf
       -0.08187128 -0.14450301 -0.12781705 -0.7241066
000190 0d ec a6 3e ab 67 a2 3e 5b b8 80 be be 9e e8 3e
       0.32601967 0.31719717 -0.25140652 0.4543361
0001a0 dd e7 fe 3e bc 0c f2 3d da 21 77 3e 80 70 0f 3f
       0.49786273 0.11818835 0.24134007 0.56031036
0001b0 2e 0f 3c be 7c 35 6e bc 26 dd b1 be b0 01 9c bd
       -0.18365166 -0.014539119 -0.34739035 -0.07617509
0001c0 85 3f 11 be 17 87 e6 be 37 e6 a5 3d 30 7c 65 be
       -0.14184387 -0.4502494 0.081005506 -0.22410655
0001d0 c0 d7 46 3e 19 64 9c 3e 64 df f1 bd 41 e6 17 be
       0.1941824 0.30545118 -0.118101865 -0.14833929
0001e0 a2 1f 60 3d c4 c6 ba 3e e6 33 24 3e a8 70 9e bf
       0.054717667 0.3647977 0.16035423 -1.237813
0001f0 e0 89 72 be 16 2d bb 3e d9 5d f5 3e 76 8e 35 be
       -0.23685408 0.36557835 0.47923163 -0.17730126
000200 f6 14 aa 3d df 2e c4 3e 6f e6 da 3e ae e2 1f 3f
       0.08304779 0.3831701 0.42753932 0.6245526
000210 19 f0 67 be a6 90 e2 3c ad ac ba bd 2b bb ea 3c
       -0.22650184 0.027656864 -0.091149665 0.028653702
000220 0a d7 cb be 46 6c 98 bc 9a 3f b9 bd 4a 39 42 be
       -0.398125 -0.018606316 -0.09045334 -0.18967167
000230 52 32 06 be 00 02 eb bd 7d cd 9e bd 5c ea 0c bd
       -0.13105133 -0.11474991 -0.077540375 -0.03440319
000240 fb a9 67 be 09 fb 95 bd d3 cd ac 3e ec 76 ab be
       -0.22623436 -0.07323272 0.3375078 -0.33489168
000250 b2 39 09 3f 65 ec b6 be bb c9 09 be ab 12 54 bd
       0.5360366 -0.3572723 -0.1345586 -0.051775616
000260 6e 6b 11 3d e7 e9 f6 bd 4c 83 f8 be 78 68 be 3e
       0.035502844 -0.12056332 -0.48537672 0.37189078
000270 e3 f2 c6 be 7e 9e 2e be 98 f9 da 3e f7 42 e0 3e
       -0.38857183 -0.17052647 0.4276855 0.4380109
000280 b4 83 85 3b 79 a8 98 be 93 d7 9d 3e f6 a5 c8 bd
       0.004074538 -0.29816034 0.30828533 -0.097972795
000290 72 4c 0d 3e 19 56 a2 be e0 59 9f 3d 7b 3d 19 be
       0.13798693 -0.31706312 0.07780814 -0.14964859
0002a0 24 30 e7 bd fe fa d7 3d a5 f1 04 bf d6 9e 33 be
       -0.11288479 0.1054592 -0.5193122 -0.1754106
0002b0 67 6b 19 3d 94 8f 83 3d a1 35 38 3e 76 7b 2e bd
       0.037455942 0.0642387 0.17989208 -0.04259821
0002c0 81 01 a9 3e 3e 6b 63 be 19 f8 1d be 5a 1d b0 bd
       0.3300896 -0.22208878 -0.15426673 -0.08599348
0002d0 8d c9 a6 bd 2a 72 b7 bc 7b a9 81 ba be 8c 19 be
       -0.081439115 -0.022393305 -0.0009892428 -0.14995095
0002e0 9c a0 1f bf 3b 88 19 3f 65 97 89 3d be 4c e1 bd
       -0.62354445 0.59973496 0.06718329 -0.110009655
0002f0 4d c5 1f be 8d 21 be bd 36 ff 8b 3c c5 5a 23 be
       -0.15602608 -0.09283743 0.017089467 -0.15952595

actor.init_next_embed.0.add_bias._bias f4 [32, 1]
000000 1f 69 20 3f 2a 9c d7 bd 66 c4 cf bd b6 52 d8 3e
       0.626604 -0.10527833 -0.10144882 0.42250603
000010 48 27 3d bc 2d 60 17 bd 6c 31 9b 3e 6c 2a ed bc
       -0.01154501 -0.036956955 0.30311143 -0.028950892
000020 67 75 24 bd 82 a1 6c bd 6b a7 29 be a4 f5 5f 3e
       -0.040151026 -0.057771213 -0.16567771 0.21871048
000030 c3 1a 55 bc 0c 44 a8 3e 86 78 a2 bd d6 43 04 bd
       -0.013006869 0.32864416 -0.07933144 -0.032291256
000040 da 75 94 bc 52 50 c0 3e cb 3a 8c bc 55 8c 0a be
       -0.018122602 0.3756128 -0.017117878 -0.13530095
000050 9d f3 07 3f 38 50 0c 3e 68 8a 92 3c 81 bd 26 bd
       0.531061 0.13702476 0.017888263 -0.04070807
000060 18 b2 99 bc 00 51 8a bd e5 aa 33 bd 21 74 ed bb
       -0.01876168 -0.06753731 -0.04386415 -0.0072465097
000070 0e 0f f0 bc 31 c9 06 bc aa 95 31 bc 52 a9 9b 3b
       -0.029304054 -0.008226679 -0.010838905 0.004750409

actor.init_next_embed.2.module.weight f4 [64, 32]
000000 aa 28 94 be c7 e5 e1 3d ff 72 c0 3d 19 ba 69 3e
       -0.28937274 0.11030155 0.09396934 0.22824897
000010 f9 db 33 3e 16 ce ea bd 10 f9 fe 3c 69 2b 8f 3e
       0.17564382 -0.11465089 0.031124622 0.27962807
000020 75 da f8 3d 40 e6 28 3d 8d 8d 0c 3e e3 e7 53 be
       0.12151042 0.04123521 0.13725872 -0.20693927
000030 50 64 0a 3b 5d dc ec 3d 42 e7 4d 3e a6 91 98 bc
       0.002111692 0.115654685 0.20107749 -0.018624138
000040 46 2f a5 3e 05 fb 8f 3e 23 78 a3 bc 84 a9 2a 3e
       0.3226263 0.281212 -0.019954747 0.16666228
000050 8a 8c 60 3d d9 4d d2 bd 12 ea 80 3e 60 95 07 3f
       0.05482153 -0.102687545 0.2517858 0.52962303
000060 b8 5f 93 3d c8 dd a7 3c 49 0f 44 bb b8 bf 19 be
       0.07195991 0.020491496 -0.0029916337 -0.15014541
000070 37 2e 96 bd ba 0f e2 bd 3c 6e c2 3c 6c b9 d6 bd
       -0.073330335 -0.11038156 0.023734204 -0.10484585
000080 ea 7b bd 3e d3 e6 b1 bc a0 7c 11 be 4f 12 6c 3d
       0.370086 -0.02171651 -0.14207697 0.057634648
000090 8c cd 4b 3e 71 77 2e 3e ba 7a b1 be 8d f1 e7 3d
       0.19902629 0.17037751 -0.34663945 0.11325369
0000a0 b4 5f 16 bd a5 40 a6 3d 97 5f 0c be de dd 8f be
       -0.036712363 0.08117799 -0.1370834 -0.2809896
0000b0 93 ce 8b be 82 97 ba 3d 25 a5 da 3e f4 a3 94 3e
       -0.2730604 0.09110929 0.4270412 0.29031336
0000c0 9e e4 92 be 03 d0 9c 3d b3 4f 1e 3e d2 e3 80 be
       -0.28690046 0.076568626 0.1546009 -0.25173813
0000d0 ff 9e c7 be 9d cd 27 be 8c 5f 69 be 90 f2 81 bd
       -0.38988492 -0.16387029 -0.22790354 -0.06345093
0000e0 fa 15 59 bd 3a f4 f6 3d 04 f4 a8 3d 36 86 20 be
       -0.052999474 0.12058301 0.08249667 -0.15676197
0000f0 31 82 98 3d 1c 5f 77 3d aa 01 9c bd 64 7a 04 be
       0.07446707 0.060393438 -0.07617505 -0.12937313
000100 f2 21 25 3e cd 38 c7 3e 70 96 a7 3d 13 6b 13 3e
       0.1612623 0.38910523 0.081829906 0.14396314
000110 e7 ef 81 3d 53 67 fa 3d 65 c2 68 3e 8b 08 70 be
       0.06344586 0.12226739 0.22730406 -0.23440759
000120 e1 02 0f 3e 46 67 f9 bd 15 39 7b bd 0a e8 93 be
       0.13965942 -0.12177901 -0.061333735 -0.2888797
000130 15 34 01 bd e0 ef bc be f3 11 00 be e8 13 0b 3c
       -0.03154381 -0.3690176 -0.12506847 0.008488633
000140 b7 9c e3 3c 6d 22 42 bd 3e b5 2b 3d cd 20 a6 be
       0.027784688 -0.047396112 0.041920893 -0.324469
000150 56 3a 99 be d8 ed c1 3e 16 e2 29 3e ff 78 e0 bd
       -0.2992732 0.37876773 0.16590151 -0.10960578
000160 90 5d 24 3e 58 21 a7 be d3 df 1d 3d 35 68 21 3e
       0.16051316 -0.32642627 0.038543534 0.15762408
000170 e3 72 84 3e 17 be c0 bd 93 94 b5 be 18 00 38 3e
       0.25868902 -0.09411257 -0.35464916 0.17968786
000180 25 b6 1a 3f 97 3d 7d 3e f0 93 1b be 5f 3e a6 3e
       0.6043418 0.24730526 -0.15193152 0.3246946
000190 17 70 3b 3e cd 34 79 bc fe 1c e8 3d 26 1f ff bc
       0.18304478 -0.015210343 0.11333655 -0.031142782
0001a0 20 b3 31 3c 60 c9 c6 3e 69 4d 18 3e 54 23 bd 3e
       0.010845929 0.38825512 0.1487328 0.36941016
0001b0 fd 9b 96 3d b1 a9 ae 3e af f7 39 be fc 69 a8 3d
       0.07353971 0.3411384 -0.1816089 0.0822334
0001c0 c1 32 2b 3e 57 d6 b9 3e f3 f7 d9 bd 56 dd 35 3e
       0.1671858 0.3629634 -0.10642996 0.17760214
0001d0 d9 f6 9e 3e 71 3b 46 3e ec f1 fd bd a5 ea 8d be
       0.31047705 0.19358613 -0.123996586 -0.27718082
0001e0 4e e5 59 bd 87 64 8d bc a9 e5 87 be fd 5f 1c 3e
       -0.053197198 -0.01725985 -0.26542404 0.15270992
0001f0 62 a3 ca 3d 26 b0 37 3d 31 79 4c 3e 7b c6 06 3d
       0.09894444 0.044845723 0.19968106 0.03290413
000200 ff d2 e5 3e 37 16 b1 bc 5f f4 b1 ba 35 38 bd 3e
       0.4488754 -0.021617038 -0.0013576857 0.36956945
000210 63 1a 5d 3e 35 5b 2b 3e 7b c2 8f 3d b9 27 28 3e
       0.21592097 0.16734011 0.07019516 0.16421403
000220 b3 07 35 3e 73 0e ba bd 53 09 ad bc 41 15 0e bd
       0.17678718 -0.09084787 -0.02112261 -0.034688238
000230 4b 61 0c be b9 b7 c4 bb ea 48 38 be e5 f3 a7 be
       -0.1370899 -0.0060033468 -0.17996565 -0.32803264
000240 2a 3c cf 3d 38 e6 ad 3d ef 25 2c 3d e3 c3 96 be
       0.10118897 0.08491176 0.042028364 -0.29446325
000250 b5 8b f6 3e fc 42 53 3e f0 c6 86 bc 54 c2 80 bc
       0.48153463 0.20631021 -0.016452283 -0.015717663
000260 9a 2c 2b 3e 41 15 39 3e 68 35 23 3e 6f 79 c6 bd
       0.16716233 0.18074514 0.15938342 -0.0969113
000270 d4 d8 6b 3d 7c 68 18 3d 70 75 05 3e ad 29 f1 bd
       0.05757983 0.03720902 0.1303308 -0.11775527
000280 f4 a8 27 bf d9 31 01 bf aa d9 74 bd ae 62 07 bf
       -0.65492177 -0.50466686 -0.059777893 -0.5288495
000290 e0 bc 8d 3c cc 5f 1b 3e 44 fc 69 be 2c d1 1a 3e
       0.017301977 0.15173262 -0.22850138 0.15118855
0002a0 ea 87 ba 3d b1 1c 09 3e f4 81 52 be 45 7b 8b be
       0.09107955 0.13389851 -0.20557386 -0.27242485
0002b0 19 5e de bc 3c d5 d3 bd 7a 67 62 bd 0d 1f 04 3e
       -0.027144479 -0.103434056 -0.055274464 0.1290247
0002c0 65 bb ad 3b 25 a3 96 bd 7e 4d 2d 3e 83 3f 2d bc
       0.00530188 -0.07355336 0.16924092 -0.010574224
0002d0 fb 55 fd be 38 db 00 be 5a c0 90 3d fe 9b 80 bd
       -0.4947966 -0.12583625 0.07067938 -0.06279753
0002e0 4b bd 68 be 4e 13 61 be c5 3d 0b be f0 21 36 be
       -0.2272846 -0.2198002 -0.13597782 -0.17786384
0002f0 1b 61 fe 3d b1 87 58 be 64 a6 00 3c 84 fb 2b be
       0.12420865 -0.21145512 0.007852171 -0.16795164
000300 46 2a 1a 3e ac 45 29 be 1f ee 85 bd 16 b4 8e 3d
       0.15055189 -0.16530484 -0.065395586 0.069679424
000310 43 fc e7 bc 1a 8d 9c 3d a9 bc 72 bd 86 d4 49 bc
       -0.02831853 0.076441005 -0.05926195 -0.012318736
000320 2b 9e ed 3e 7d 2f 65 3d 46 f6 2b bd ef 9f a6 bd
       0.46409735 0.05595349 -0.04198291 -0.08135974
000330 17 28 51 be 64 2c af bc eb 4a b0 be 93 53 8c be
       -0.2042545 -0.021383472 -0.34432158 -0.27407512
000340 8a d9 e4 be 71 fd cf bb 73 d9 b0 be f2 1d 10 be
       -0.4469722 -0.0063473512 -0.345409 -0.14073923
000350 f4 af e7 bd d2 2a 76 bb 1c fe 89 3d 3b e7 9e bd
       -0.11312857 -0.0037562144 0.06737921 -0.077589475
000360 4d 3d 55 bd 34 bd 38 be 79 9e 04 3d 0c 40 fd 3c
       -0.052060414 -0.18040925 0.032377694 0.030914329
000370 c7 47 95 bd b6 af 4e 3e 60 46 50 bd 45 39 18 3e
       -0.07289081 0.20184216 -0.050848365 0.14865597
000380 ea 39 32 3f 88 db 17 3e 76 79 de 3c 29 85 94 3e
       0.6961962 0.14829838 0.027157526 0.29007843
000390 fb 12 df 3d 03 99 73 be 68 e7 88 3d d2 41 15 3e
       0.10892292 -0.23788838 0.06684762 0.1457589
0003a0 ce dd 46 bd 51 50 d8 3d 94 5b 37 3d b0 02 f9 3e
       -0.048551373 0.10562194 0.04476507 0.48634863
0003b0 75 f7 ad 3e 58 83 03 be 00 fe 90 3e 43 bb 20 be
       0.33977857 -0.12843072 0.28318787 -0.15696435
0003c0 73 2f bd 3d 2a 87 53 3e f9 bc 66 3d 43 56 98 bd
       0.09237566 0.2065703 0.056332562 -0.07438328
0003d0 55 72 0a be 8f dc 15 3f ad 1f 2d 3e 18 cb 8c 3d
       -0.13520177 0.5853967 0.16906615 0.068746746
0003e0 82 26 63 3e bb 61 4c 3d b4 85 89 be e3 d2 e7 bd
       0.22182658 0.04989789 -0.2685982 -0.1131952
0003f0 66 f1 34 be b2 e8 2d be fb 86 c8 3e 96 be 49 3d
       -0.17670211 -0.16983297 0.39165482 0.049254023

actor.init_next_embed.2.add_bias._bias f4 [64, 1]
000000 0c ed e8 bd 04 09 d3 bd 61 2a 9f 3c 47 80 4e 3f
       -0.11373338 -0.10304454 0.019429388 0.80664486
000010 2a 27 ef 3e 02 6f 5a bf f2 96 03 3d b1 d5 14 3f
       0.46709567 -0.85325634 0.032126375 0.5813857
000020 91 a2 a7 be cc 6d 5a bd 70 99 e1 3d 6f fd a8 3e
       -0.32741216 -0.053327367 0.11015594 0.33005854
000030 2f 36 fb 3d 30 50 a2 be 56 7d 13 3f 44 80 cd be
       0.12266194 -0.31701803 0.5761312 -0.4013692
000040 fa 7e 14 3e 66 db a1 3e c6 a3 30 3e f5 21 5c 3e
       0.14501563 0.316127 0.17249975 0.21497329
000050 de 20 67 be 86 2c 32 3d c7 53 03 be 6e 14 d2 be
       -0.22571132 0.043499492 -0.12824927 -0.41031212
000060 de 5b f3 bd 72 6e 40 be 3e eb 25 bf 69 ae 5e bd
       -0.11882757 -0.18792132 -0.64812076 -0.05436555
000070 6f a6 56 3f c1 15 b0 bd 3b a8 97 be 04 c8 de 3e
       0.8384771 -0.08597899 -0.29620537 0.43511975
000080 95 ca 23 be 27 4a 00 3e b0 de 95 bd 6b 14 51 be
       -0.15995248 0.12528287 -0.07317865 -0.20417945
000090 0e 04 be be c0 44 26 bf 26 cf 12 bf c8 3d 18 bf
       -0.37112468 -0.64948654 -0.57347333 -0.5946927
0000a0 2c 62 cd bd 8d 41 a7 bd 32 86 1a be 40 16 ae be
       -0.100284904 -0.081668 -0.15090254 -0.3400135
0000b0 8a c7 93 be 67 12 2d 3f 5f fa ec 3d cc 83 12 3d
       -0.28863174 0.67606205 0.11571192 0.035770223
0000c0 b3 fe 0f 3f d3 1c 56 3e 96 4b 80 bf 86 3c f9 be
       0.56248015 0.20909433 -1.0023067 -0.48678988
0000d0 98 5c 28 3e a4 cf f5 be cf 43 53 3f 32 a8 80 be
       0.16441572 -0.4800998 0.8252534 -0.25128323
0000e0 e3 60 70 bd 89 1b 16 bf 1b 96 ab bc 7f 9c e1 3e
       -0.05868615 -0.58635765 -0.0209456 0.4406471
0000f0 a2 a6 f3 3d 79 55 80 3e 4f f0 1c be b1 fc 35 bd
       0.11897017 0.2506521 -0.15326045 -0.04443044
