pretrained_models/experiment/Discrete_acktr_20x10x10Bin_s42_inh_800_defaultBox-2022.08.18-13-06-52/PCT-Discrete_acktr_20x10x10Bin_s42_inh_800_defaultBox-2022.08.18-13-06-52_2022.08.18-13-18-45.pt (torch, 236314 bytes, 24 tensors)

actor.init_internal_node_embed.0.module.weight f4 [32, 6]
00000000: a556 713d 3523 f33e 53a3 ca3e 4730 33be
00000010: 8faf ab3d ca08 a83e 0c44 ff3d 0b84 e43e
00000020: 1ecf 213d 38f5 95bd 7635 bdbe cf6b b5bd
00000030: 529d 333c 3360 f83c 9bd9 d43c 51ec bb3d
00000040: 9b5e 77be 14fb 383d 4b3a 0ebe d567 073e
00000050: 2ef5 54be 0573 8b3e 6907 af3d 2e60 253f
00000060: 0bca 0a3f d113 63be 3071 9ebd 40c7 8f3d
00000070: adca 74bd 4ba7 f7bd b2d6 953e f3f9 bf3d
00000080: a6e3 a1be bfb5 e83e 8834 a4be 3573 adbe
00000090: bba8 dbbe 3814 5a3e 5378 243e ffa4 643e
000000a0: 257b 9fbe 1eea 05be e68e 403e 0388 d4bd
000000b0: 2768 cc3e 822a babb 65d6 24bf 2391 693d
000000c0: 8ac6 b9be 7a83 553e 42a5 0abf a860 a93e
000000d0: 4537 833c 69c0 f6bc 53e9 ef3e 3f44 c2bd
000000e0: 3ec4 02be 8b53 8c3e 7065 07be b248 d7bd
000000f0: 07b3 853e 7308 9f3e f503 a8be b34a 833e
00000100: a716 d03e 85a8 fcbe 8dce 42be 02d7 f4bd
00000110: e355 9cbd 7ff4 e0bd 0bef 88be f5f6 c0bd
00000120: 5f5f 153f 814d d9bc 7267 94bd 05c6 223e
00000130: ef1d 06be 365a 9bbd 63d0 f73e 8017 fe3d
00000140: 26c2 9dbe e15c 11be 45cc 6f3e b961 c3be
00000150: 09ba 733e 1781 b53e d316 a7be 00f9 523d
00000160: 9678 3d3e 7fe5 09be 1f0b 5ebd 8e63 96be
00000170: 4d4c 82be 7864 babd 4f1b 233e 0c6d 99be
00000180: b547 d53d 5101 39be f917 503e b167 0fbf
00000190: d708 b53e d776 833e 0a3e 313c 241a a33d
000001a0: acf0 bd3d d7ca 5d3e 320c f9be 0e68 97be
000001b0: 9879 9b3e f805 c73d 23cc bbbe ba11 8d3e
000001c0: 0034 823e de70 fa3b 3e22 a33e 3c6b 90bd
000001d0: c1ec 633d 8e15 30be 1be3 39be 81ec b63d
000001e0: e734 b6bc 15de 923e 38a6 9bbe b2de 7c3e
000001f0: 125c e63d 468f aabe fcd5 29be 0c47 b5bd
00000200: 8d7e 46be 4c7a 143e 6587 87bd 6e90 d4be
00000210: 4eb4 ddbe 1f65 e1be 9d99 e7be 8f69 a03e
00000220: a9e6 f33d 1a55 0c3e e8d4 21bb 93f9 2ebd
00000230: 444e c2be 7a6a febd 509f 0bbe 5359 093f
00000240: 0b16 03be 73f7 6b3d 48b3 873f 48c9 9d3e
00000250: a906 083e 662d aa3e 7fca ec3b 7bd1 573e
00000260: 687f a63d 9048 65be d43d 53be 8dad 353e
00000270: abb6 a9be 20a6 2e3e eeb6 1bbe ae40 27bd
00000280: 1646 c53e b6c4 823d 2063 8ebd 4795 b93c
00000290: f8f4 ae3e 4825 babe 1fc1 3abd 1121 47be
000002a0: 574a 8bbe 6efa 22bf 0028 adbd c0ed 933d
000002b0: f13e e63c bbf7 88be 8a4a 9bbe a6b4 863e
000002c0: 7ff0 273e 6be2 7cbe 1c5d 903d 009d a7bc
000002d0: a8a0 983e 7091 14bb 6b03 7ebd 6a1b b43c
000002e0: b8a6 8b3e 2af0 bebe 4363 313e 75ff 393e
000002f0: 5637 51be 207d bfbd a216 9cbd ac78 a73e
0.05892052 0.47487798 0.39577731 -0.17498885 0.083830945 0.32819206 0.12464151 0.4463199
0.039504163 -0.073221624 -0.3695485 -0.088584535 0.010962801 0.030319309 0.025982669 0.09175933
-0.24157183 0.04516132 -0.13889425 0.13223203 -0.20796654 0.2723619 0.08546335 0.64599884
0.54214543 -0.22175528 -0.077364326 0.07020426 -0.0597636 -0.120924555 0.29265362 0.09373846
-0.31618994 0.4545116 -0.32071328 -0.33876958 -0.4290217 0.21296775 0.16061525 0.22328566
-0.3114864 -0.1307759 0.18804511 -0.10377505 0.39923212 -0.005681337 -0.6438964 0.05702318
-0.36284286 0.20850936 -0.54158413 0.33081555 0.016017566 -0.030121045 0.468577 -0.09485673
-0.12770173 0.27407488 -0.13222289 -0.105119124 0.2611315 0.31061134 -0.3281552 0.25642928
0.40642282 -0.4934732 -0.19024105 -0.11955072 -0.07633569 -0.10984134 -0.26744875 -0.09422103
0.5834865 -0.026526215 -0.07246293 0.15895851 -0.13097356 -0.07585566 0.48401174 0.12406826
-0.30812186 -0.14195587 0.23417766 -0.38160494 0.23801436 0.3545005 -0.326346 0.051506996
0.18503031 -0.13466452 -0.054209825 -0.2937283 -0.25448838 -0.09101194 0.15928386 -0.2996601
0.10414068 -0.18066908 0.20321645 -0.56017596 0.35358307 0.25676605 0.010818014 0.0796397
0.0927442 0.21659409 -0.48642117 -0.29571575 0.30366206 0.09717935 -0.3667918 0.27552587
0.25430298 0.0076428493 0.31862062 -0.07051703 0.055645708 -0.17195722 -0.1815304 0.08931828
-0.022242023 0.2868506 -0.30400252 0.24694327 0.1124803 -0.33312434 -0.16585535 -0.08851442
-0.19384213 0.14499778 -0.06617621 -0.4151644 -0.43301624 -0.44022462 -0.45234385 0.31330535
0.11909229 0.13704339 -0.0024693552 -0.04271848 -0.37950337 -0.124226525 -0.13634992 0.5365192
-0.12801377 0.057609033 1.0601587 0.30817628 0.1328379 0.3323776 0.007226288 0.21076004
0.081297696 -0.22390962 -0.20629054 0.17741986 -0.33147177 0.17055559 -0.15206501 -0.040833168
0.38530034 0.06385176 -0.069525 0.022654189 0.3417127 -0.36356568 -0.04559433 -0.19446208
-0.27205154 -0.63663375 -0.08454895 0.072230816 0.028106185 -0.26751503 -0.30330306 0.263097
0.16400336 -0.24695747 0.07049009 -0.020460606 0.2981007 -0.0022669695 -0.06201498 0.021985728
0.27275634 -0.37292606 0.17323022 0.18163855 -0.20431265 -0.093500376 -0.07621504 0.32709253

actor.init_internal_node_embed.0.add_bias._bias f4 [32, 1]
00000000: 5348 023d b0d2 823c 1f70 f6bc 08ff 723d
00000010: c183 fb3d 68a1 253c 0196 6cbc d702 b03c
00000020: 70b2 e93c 5116 a23d 8cd6 c93c 81af 943c
00000030: ec2c 213d 6cd1 bf3c cf63 b23b 28ac d2bb
00000040: 6a72 413c c629 3c3c 7d3a 4d3b bfcf f039
00000050: 1902 35bc a546 b43c 26fe f3bb ac2c f7bb
00000060: e4bd 863d 9019 5c3c 9bad 31bc 90cd 86bc
00000070: fec0 fc3a 153c 8ebb ca90 553c f4fe 183d
0.031807255 0.015969604 -0.03008276 0.059325248 0.122809894 0.010109283 -0.014440061 0.02148573
0.028527468 0.07914413 0.024638437 0.018150093 0.03934948 0.02341529 0.005444027 -0.006429214
0.011807064 0.011484569 0.003131538 0.0004593115 -0.011047863 0.022006342 -0.0074460683 -0.007543167
0.065791875 0.013433829 -0.010844613 -0.016455442 0.001928359 -0.0043406584 0.013035009 0.037352517

actor.init_internal_node_embed.2.module.weight f4 [64, 32]
00000000: 5560 70be 6733 d03d e9b7 30be 6fa1 4f3e
00000010: e89d 5c3e 5d26 b43d 1723 a73d a55a 9d3d
00000020: 9ab1 72be d580 3bbe ad1b 03be 6d34 d13d
00000030: f2f4 43bd 5883 28be b65a 2b3e 2655 34be
00000040: 0b74 923e f1d9 81bd 78fb 673c b5cb 363e
00000050: 6f52 15bd 1bde 1abe 270a 5abe dd43 2abe
00000060: b324 67bc 8467 903e 0b14 183e f9af cc3d
00000070: 18d9 84bd 3e3f 5bbe 77f6 2bbe 6f79 5b3e
00000080: caf3 90be 1062 a7be 617b afbe 62fe 67be
00000090: 0114 fbbc 4d10 f03d 5d18 523b 5433 bf3e
000000a0: ed9b 4cbc f599 d0bd c0b2 dbbc 1cb8 a8bd
000000b0: a677 9abe 0b33 533c 8604 1dbe fc8a 263e
000000c0: 784b 413d 49ef 15bd e71a a2be fe51 20be
000000d0: a324 893e 5029 833d 0dfa ca3d 39bb 5fbe
000000e0: 52cf 14be 3cbf 10bc a4fc 053d 4741 263e
000000f0: 0969 77be 48ae 5e3e 2260 bf3e cf95 f53c
00000100: 6f3e dd3e 8252 32bd 2935 c6bd 7bee 813e
00000110: 86c3 3bbe f71f 773e fd5c 89be 9b0c 8cbe
00000120: 23f6 f83d 0864 343e b60f a7bd 32b3 4fbe
00000130: 6d76 f13e 1a50 40be 1950 b5bd 315b 25bc
00000140: 03fd 733e 6a81 aa3d 30fa 5bbe 2f31 213e
00000150: 33b5 9dbe 4428 a43c e62a d33d 3501 44be
00000160: 8ab1 503e 69e9 0bbe af8f 6ebe cf19 4dbd
00000170: f94b 23bd cc52 8c3a 7b3d 2b3e e59a 51bc
00000180: ee60 84bd 2fd7 fb3e 92a4 bfbd df43 60be
00000190: 95ce ef3d a7a6 2fbe aeab a0be 63aa a83d
000001a0: 0d70 c8bd 1cd4 71bd 3990 ec3b 0a08 e13e
000001b0: 0157 b2bd 1003 a4bd 7a7a 2bbe f429 31be
000001c0: 09fc 9bbc a854 30be d760 e3bd a960 3dbe
000001d0: 4152 5abe 3603 0e3d e990 813e 8e2b e23d
000001e0: 4192 0fbe 4430 0c3e 675c 503d ec93 113d
000001f0: aa20 233e c7ce 233e 4601 7c3d e094 aabc
00000200: 766b cebe 60ee b43d 8a8e 093e 61cf b2bd
00000210: c491 29be 08c8 13be 1114 f1bd ad82 683d
00000220: 92d5 ad3d 62fd 44bc 7890 84bd 998f 09be
00000230: a18f 71be aa21 193e 5a64 f9bd 5e9f 45bc
00000240: 27e6 c03d b3cd 143e cdfd 09bf a314 43be
00000250: 6db1 6dbd 77b3 943d 9d7d e93e 9394 3abe
00000260: 072f 09bf 016d c93d 845a db3d eba7 323c
00000270: acda 893e 23a3 49bd 423c 273d 4bbc cdbd
00000280: e7c8 17be e251 9f3d c6e1 acbd 966a dc3d
00000290: 04c6 053f ce5c 9fba 5c17 963e 99ab aabe
000002a0: 01c2 1f3e 67d5 ce3e 830f d93e 0828 3d3e
000002b0: 984e 0c3e dbac 5a3d 55a9 743e 8245 39bc
000002c0: b7bb 4abe 6502 1d3c 0b66 03bc 812b b9bd
000002d0: cde3 a43e 3976 b1bc 4e1d 21be db65 84bd
000002e0: bf52 06bf 2a2f 2f3d a7f7 83be efc6 6dbe
000002f0: da31 70bd 8979 953c f2d4 843e d99c b6bd
00000300: bf9e 07be 264e 9dbe b2f5 19be 81d5 d0bd
00000310: 7586 5abb 46a2 c63d 29c1 6ebd 1602 3ebd
00000320: e238 34be eeb3 be3e 2448 9fbe ab44 f33d
00000330: 7ef9 943e 4f6f 95bd 07d9 093e 3c3f 4abd
00000340: 961c 14be 4f03 78be 6623 f33e 344b 2a3e
00000350: ced9 debd bd6c dc3d 9a6d cebd 25fa 223e
00000360: caa8 1cbf 6d00 40be 501e 203d 8138 3b3d
00000370: 8ca1 c23c a2b3 6e3e 40a5 acbd e73e 97be
00000380: e2dc 0d3f ceb3 983e d418 883e 8eb0 943e
00000390: 6ea5 223d 7d3d 4a3e dd75 933e 43d7 283d
000003a0: 6494 b9be bf9b babe 51f7 983d 978d 25be
000003b0: e7d2 fc3e 304d 41be 4375 803d 6d66 463d
000003c0: e0bd cdbd 3b57 32bd 5b07 5a3e 4f4d 91bc
000003d0: 25a8 833c 1b26 bdbd 17b7 e83d 20a9 31bd
000003e0: 6a48 bc3e a692 a3bd e2c8 763e 37d1 0fbd
000003f0: 7a7f 623d 3177 883e 6a3d c1be 630f 65be
-0.23474248 0.10166054 -0.17257656 0.20276426 0.21544611 0.0879638 0.0816099 0.07683305
-0.23700562 -0.18310864 -0.12803526 0.102150775 -0.04784102 -0.16456354 0.16733822 -0.17610607
0.2860416 -0.06340397 0.014159076 0.17851146 -0.036455568 -0.15123789 -0.21292935 -0.1662745
-0.014107871 0.28203976 0.14851396 0.099945016 -0.0648672 -0.21410844 -0.16793238 0.21433042
-0.28310996 -0.32692003 -0.34273818 -0.22655633 -0.030649187 0.11721859 0.0032057979 0.37343848
-0.0124883475 -0.10185615 -0.026818633 -0.08238241 -0.3016941 0.012890588 -0.15333757 0.16263956
0.047191113 -0.036605153 -0.3166115 -0.15656278 0.26785764 0.06404364 0.09910975 -0.21848764
-0.14532211 -0.008834656 0.03271164 0.16235839 -0.24161161 0.2174617 0.3737803 0.02997866
0.43211696 -0.043535717 -0.09678108 0.2537726 -0.18336305 0.24133287 -0.26828757 -0.27353367
0.12156322 0.17616284 -0.081572935 -0.20283201 0.47160664 -0.18780556 -0.08853168 -0.0100925425
0.23826985 0.08325465 -0.21482158 0.15741418 -0.30802307 0.020038731 0.103109166 -0.19141085
0.20380226 -0.13663258 -0.23296998 -0.05007344 -0.039867375 0.0010705828 0.16722672 -0.012793277
-0.064638 0.4918761 -0.09357561 -0.21900891 0.11709324 -0.17153417 -0.3138098 0.08235624
-0.09786997 -0.059040174 0.007219341 0.43951446 -0.08708001 -0.080083966 -0.1674594 -0.1730116
-0.019041078 -0.17219794 -0.11102455 -0.18493904 -0.2132044 0.03467103 0.2530587 0.11043464
-0.14020635 0.13690287 0.05086937 0.03554146 0.15930429 0.15996848 0.061524652 -0.020822942
-0.4031636 0.08834529 0.1343328 -0.08730961 -0.16559511 -0.14431775 -0.117714055 0.056765247
0.08488001 -0.012023302 -0.06472868 -0.13433684 -0.23589946 0.14954248 -0.12177344 -0.012061922
0.09418898 0.14531593 -0.53902894 -0.19050841 -0.058030535 0.07260793 0.45603648 -0.18220739
-0.53587383 0.09835244 0.10710624 0.010904293 0.26924646 -0.049227845 0.04082895 -0.1004568
-0.14822732 0.0777929 -0.084415 0.10762517 0.5225527 -0.0012158395 0.29314697 -0.33334044
0.1560135 0.40397188 0.42394647 0.18472302 0.13701856 0.053387504 0.2389272 -0.011308076
-0.1979817 0.00958309 -0.008019934 -0.09041501 0.32205048 -0.021662818 -0.15733835 -0.0646474
-0.5247001 0.04276959 -0.2577488 -0.23220418 -0.058641292 0.018246429 0.25943714 -0.08916635
-0.1324415 -0.30723685 -0.15035132 -0.10196973 -0.0033344303 0.0969892 -0.05828968 -0.046388708
-0.17599824 0.3724665 -0.31109726 0.11878332 0.29096597 -0.07296621 0.13461696 -0.04937671
-0.1446403 -0.24220012 0.47487944 0.1663025 -0.10881387 0.10762928 -0.100794986 0.15915735
-0.6119505 -0.18750162 0.03909141 0.045708183 0.023758672 0.23310712 -0.084299564 -0.29540178
0.55415165 0.2982468 0.26581442 0.2904095 0.039708547 0.19750018 0.2880086 0.041220915
-0.36246026 -0.3644695 0.07469047 -0.16167293 0.49379656 -0.18877101 0.06272366 0.048437525
-0.100459814 -0.04354022 0.21291868 -0.017737059 0.016071388 -0.09235784 0.113630466 -0.04337418
0.36773998 -0.07986955 0.24100068 -0.035111632 0.055297352 0.26653436 -0.37742168 -0.22369151

actor.init_internal_node_embed.2.add_bias._bias f4 [64, 1]
00000000: ae18 e8ba b628 40bd 5660 133d f76b 0ebd
00000010: a0d4 80bd 1acf 243d 3a14 6fbd e7bf ab3d
00000020: 98ea 42bd 9702 20bd 9daf f0bb 29ad 95bc
00000030: e12d d1bd 967b d8bc 965b 1fbc 5ccb 55bb
00000040: d98b 78bd 6a65 2ebd fe83 e6bd 438b 593d
00000050: a72a 81bd 43c5 10bd 59af f63c b877 7b3d
00000060: 116c edbc 1880 b53a 19ad b03c 0d19 cebc
00000070: a739 ca3b 22d8 d1bd 6dbf 753d 50c8 05be
00000080: 133b b43d c776 813d 01a0 90bc 93ae 5abc
00000090: 3def 2a3d 67be 90bd 5e79 a43c d2fd cd3d
000000a0: 56e5 90bd c900 00bd f24e 7b3e 712b cfbc
000000b0: fe4f 9bbd 4c13 2cbc d523 ab3c 393e 713c
000000c0: 55d6 133d 657c 07be 8fb3 003d a8f4 8c3d
000000d0: 7976 333d cbef b8bd f8b7 ccbc e577 cb3d
000000e0: 5b24 be3d a3ca 5e3c 7fdf b33c cf62 a6bc
000000f0: d5e3 07bd bea0 5c3d ef14 da3b fb58 e63d
-0.001770755 -0.046913825 0.035980545 -0.034770932 -0.06290555 0.04023657 -0.0583689 0.08386212
-0.047587007 -0.03906497 -0.0073451535 -0.018271046 -0.10213829 -0.026426118 -0.009726426 -0.0032622432
-0.060680244 -0.042577185 -0.11255644 0.053111326 -0.063069634 -0.035344373 0.03011291 0.06139347
-0.028982194 0.0013847379 0.021566914 -0.02515843 0.0061714235 -0.10246302 0.05999701 -0.13064694
0.0880033 0.06321483 -0.01765442 -0.013347286 0.04173206 -0.07067566 0.020077404 0.10058178
-0.07074992 -0.03125075 0.24541834 -0.02528927 -0.07583617 -0.010502648 0.02089111 0.014724308
0.036093075 -0.13231046 0.03142124 0.06882602 0.043814156 -0.09030112 -0.024990067 0.099349774
0.09284278 0.013598117 0.021957157 -0.020310787 -0.033176262 0.053864233 0.0066553275 0.112474404

actor.init_leaf_node_embed.0.module.weight f4 [32, 8]
00000000: dafc 19be 34ad e2be 5be0 863e d3fe ba3e
00000010: 9a8a 3c3e a82a c43e d68f aabe 3fc3 9ebe
00000020: bb32 e3be d7bb 10be 5b4d 933e 874e 7dbc
00000030: 58fa 3b3e e720 5dbe 968d 7a3e 9304 58bd
00000040: 99ab 593c 4220 aa3d 9c0b 92be f72f ffbc
00000050: c4c6 3dbe c877 1abe 6601 a23d b765 c5bd
00000060: ff84 81be d4e7 383e f3dd da3e 829a 42be
00000070: 4018 2b3e 5cad 353e 137c 80be dba0 493c
00000080: def4 273d 2618 13bf 63d8 b83e df22 0fbe
00000090: b184 e1bd 701a 2f3d 862d 2abe 19bb 113e
000000a0: 2e09 c0be bbc1 9b3c cba5 a7be 7173 1e3e
000000b0: 9a6e 87bd 85a9 0d3e 3ec0 2bbe 665a 303c
000000c0: 468e 9fbe 3d8d 623e d7e5 fdbd 88f0 d03d
000000d0: 7b68 a9bd 66f4 cebd 9eb3 393d 9228 273e
000000e0: bd70 9b3e 1580 513e 1d64 dc3e 7a77 b3bd
000000f0: 6b9b 46be 2a20 cabd c2df 28bf 7b28 a8bd
00000100: 8890 a8bd 55b5 ae3d 3831 5f3e fac2 c2bc
00000110: be48 3a3c a45c 413e a02f 573d 6a5c 323d
00000120: f45b efbe 995b 4dbe 483f 4a3d 8a7c 023e
00000130: a444 b53e 5b21 8dbe e55d d7ba b95f 04bf
00000140: bcd3 a8be e406 ff3d 5bc9 e8be f26a 3fbe
00000150: 096b bd3e 5c33 493e 5b21 6bbe b45d ffb9
00000160: 2136 0d3e c9c0 71bd ed95 a83e db13 5fbe
00000170: 7334 c0bc 1b72 8abe eb3e d63e 2994 583c
00000180: 0d9d 43be 8bf3 0dbe f434 823e 3af6 193f
00000190: 6b9c 7c3e fa38 503e 4adf ad3e 1e36 de3e
000001a0: dabe 8d3d 73b7 9c3e 1559 323e 0a16 8dbd
000001b0: 6d0d ddbe b5e1 9dbd 3f4e 4abd eb74 65be
000001c0: 9d35 e73e 07e1 f23e abe4 7d3e 7f9d af3e
000001d0: ba53 bbbc 597e a1bd 2050 0a3e 16e2 1d3e
000001e0: f779 043b 1f65 13be 04a7 92bd ee9a 7b3e
000001f0: a48d 25be 8f9c 833e 8dd3 2d3d abae 313e
00000200: 589e 483e 1ab8 a13e e3cd b4bd 0ab0 0dbf
00000210: e834 6a3b 166a babe f785 63be adf6 2d3e
00000220: 8d2b 9cbe 9b2b 893e ed11 a7be cc74 d63e
00000230: b466 31be d005 aabd 78f0 57be e2f2 623e
00000240: db8e 943d a84b 85bd dc08 49bf d1fd 14be
00000250: 1b07 8f3e e314 b13e 5811 bf3d b951 23be
00000260: 2885 1fbe 42ea afbd 51aa f0be 818b 123c
00000270: a383 2dbe c6c1 5dbd 863e 7f3e ca62 9fbd
00000280: 214e 303e 99cf 28bd 4798 9d3e 868b a03e
00000290: 3991 a93e b1d9 873d 7672 963e ada4 9cbd
000002a0: 6e5f 94be ded6 c63e e939 2b3e 8681 55be
000002b0: 72e1 a33e 4b37 95be d02c 2bbd 857a 493e
000002c0: 6704 3e3e 2800 86be 41bc 87be ef48 b8be
000002d0: 0147 933e 44d1 733d 12fd e13e 0d1c 6b3e
000002e0: 2f47 dbbd d014 023f a6f5 373e 51b4 f9be
000002f0: d085 3bbb 7bae 253f acdd 0f3e 113e ca3e
00000300: 7c57 03be 3ab5 96be efb6 c5bd 169e bfbd
00000310: d9dc 573e c017 32be 5ed5 9abd ca4f 163f
00000320: 6926 643c b06f 59be f19d cbbe bba0 7f3e
00000330: 248a 78be 2828 fcbd 9e2c a2bb cf25 ba3e
00000340: 2ae9 87be ef04 293e 1be5 493e 49da 4ebe
00000350: 7f0b d3be 462f 61bd b90b d03e b112 44be
00000360: 7933 2bbe f82a 873e 0ff7 9b3e 3285 503e
00000370: 5532 42bd deed aa3e 655c 9c3e 15dc 43be
00000380: 3228 713d 8775 0dbc 208f b43e d2c3 ddbd
00000390: 575f b1bd 35dd ecbe 6038 76be d6e0 b8bd
000003a0: 5140 e83e 8a53 af3e 636f a5be 3f1f ab3e
000003b0: 2121 1d3f 16a0 3c3d 73cd 243e 624f ffbe
000003c0: 6818 b33d ddf1 c8be 414d 41be 66fd c7be
000003d0: 2f37 92be afc5 fa3e 9b47 a33d 763a 80be
000003e0: 2561 dfbe 2f05 0c3d 6ca7 87be be71 2fbd
000003f0: 0759 99be 2ac5 dcbd 6bf0 8d3e b203 55be
-0.15037861 -0.44272768 0.26343045 0.3652254 0.18412247 0.38313794 -0.33312863 -0.31008336
-0.44374642 -0.14134155 0.28769955 -0.015460617 0.18357217 -0.21594582 0.24468073 -0.052738737
0.013285541 0.08306934 -0.28524482 -0.031150801 -0.18532854 -0.15084755 0.07910423 -0.09638541
-0.2529678 0.18057185 0.4274746 -0.19004253 0.1670847 0.17741913 -0.2509466 0.012306417
0.041005008 -0.5745872 0.3610259 -0.13978146 -0.11011637 0.042749822 -0.16618928 0.14231528
-0.37507004 0.019013276 -0.32743677 0.15473725 -0.066128924 0.13834198 -0.16772553 0.01076374
-0.31163234 0.2212419 -0.12397354 0.10202128 -0.08271881 -0.10105209 0.045337312 0.1632407
0.3035945 0.20459016 0.4304513 -0.08763023 -0.19395225 -0.09869416 -0.6596643 -0.08210846
-0.08230692 0.0853068 0.21796119 -0.023774613 0.011369882 0.18882996 0.052535653 0.043545164
-0.46749842 -0.20054473 0.049376756 0.1274282 0.3540393 -0.2756451 -0.0016431181 -0.5170856
-0.3297404 0.12452486 -0.45466122 -0.1869314 0.36995724 0.19648498 -0.22961943 -0.00048707204
0.1379018 -0.059021745 0.32926884 -0.21784918 -0.02346251 -0.2704018 0.41844878 0.013218918
-0.19102879 -0.13862436 0.25431025 0.60141337 0.24669044 0.20334235 0.3395942 0.43400663
0.06921168 0.3060871 0.17416795 -0.06888969 -0.43174306 -0.07709066 -0.049391028 -0.22407882
0.4515809 0.47437307 0.24794261 0.34299847 -0.022867072 -0.07885427 0.13507128 0.15418276
0.0020214298 -0.14394043 -0.07160762 0.2457082 -0.16167313 0.25705382 0.04243808 0.17351787
0.19591653 0.3158577 -0.08828332 -0.5534674 0.00357371 -0.36409062 -0.22219072 0.1698863
-0.30501977 0.2679108 -0.32630864 0.41885984 -0.17324334 -0.0830189 -0.21087825 0.22162965
0.0725381 -0.06508571 -0.78529143 -0.14549948 0.2793511 0.34586248 0.0932948 -0.15949143
-0.15578139 -0.08589603 -0.4700494 0.008944393 -0.16944747 -0.054139875 0.24926195 -0.077825144
0.17217304 -0.041213606 0.3078024 0.31356448 0.3311861 0.06633318 0.29384202 -0.07648597
-0.28979057 0.38835806 0.1672131 -0.2085019 0.3200794 -0.29143748 -0.041790783 0.19675644
0.18556367 -0.26171994 -0.26510814 -0.35993144 0.2876511 0.059525743 0.4413839 0.2295992
-0.107069366 0.5081301 0.17964801 -0.48770383 -0.0028613694 0.6471936 0.14049405 0.39500478
-0.12826341 -0.2943514 -0.096540324 -0.093563244 0.2108034 -0.17391872 -0.07560228 0.587155
0.013925173 -0.21234012 -0.39768937 0.24963658 -0.24271446 -0.12312347 -0.0049491664 0.3635697
-0.26545078 0.16505788 0.19716303 -0.20200457 -0.41219708 -0.054976724 0.40633944 -0.19147755
-0.16718854 0.2639997 0.30461928 0.2036331 -0.04741128 0.33384603 0.3053924 -0.19126923
0.058876224 -0.008633978 0.35265446 -0.108283654 -0.08660763 -0.46262518 -0.24044943 -0.09027259
0.4536157 0.34243423 -0.32311544 0.33422276 0.61378676 0.046051107 0.16093998 -0.49865252
0.087448895 -0.39247027 -0.18877126 -0.39060515 -0.28557727 0.48978946 0.07972642 -0.25044602
-0.43628803 0.03418463 -0.2649492 -0.042833082 -0.29950735 -0.107797936 0.27722487 -0.20802191

actor.init_leaf_node_embed.0.add_bias._bias f4 [32, 1]
00000000: 5d39 353e dc2b 88bc 28e4 6a3c e3fa af3d
00000010: e01e 34ba 6cce 0ebd e22b ae3c 4602 c03c
00000020: 11a3 0dbe 5a70 9b3b a851 26bd 7383 c1bb
00000030: 0ac3 903e 8edc 38bd 2fd3 c5bc 7f14 c6bc
00000040: 0403 5abd c435 24bd 3824 bbbd 37d9 153e
00000050: f19a 4ebd f7a9 08bd b5bb 263d 0966 05bc
00000060: 186c 1b3d f757 80bd aadf 013c 28cb cd3c
00000070: 3605 a4bc 82c4 983e 9931 033d ce92 863d
0.17697664 -0.016622476 0.014336623 0.08592775 -0.0006871056 -0.034864828 0.02126116 0.023438584
-0.13831736 0.004743618 -0.040605217 -0.0059055625 0.28273803 -0.045132212 -0.024148552 -0.024179695
-0.053225532 -0.040090337 -0.091377676 0.14633642 -0.050440732 -0.033365216 0.040706355 -0.008142003
0.037944883 -0.06266778 0.007926861 0.025121287 -0.020022016 0.29837424 0.032029722 0.065709695

actor.init_leaf_node_embed.2.module.weight f4 [64, 32]
00000000: d9c8 dfbd e1c9 98be c402 8ebe ede2 2bbe
00000010: ef9b 123e 0cd5 bf3c a517 9b3d 875f 973d
00000020: 342d 4a3e 7c9d 303d bc60 823d 1a37 8bbe
00000030: 988f a5be fd50 0d3d 961a a7be bf87 bfbd
00000040: 06d5 5b3e c0a8 56bb 3337 47be bcce e9bd
00000050: 1b18 d53d 3ea6 8abe 2ab5 2d3e 77f6 1c3e
00000060: 69b4 bd3d bc0f a7be e000 b2bd 7049 823d
00000070: 678b 0f3e 4857 3dbe 96d8 f2bd c162 1cbc
00000080: b550 ad3c f3f7 273e d9b2 243d 26b4 9d3d
00000090: b8a0 813c 925a b43d 764c 003e 4b02 0ebe
000000a0: e2e0 14be 136d 84be 04da e03e b232 c1bc
000000b0: c994 ecbd 43e0 c73d 8db2 4a3e a571 92be
000000c0: 8b6a dcbd 6010 99bd 4aaf 96bd ab75 53be
000000d0: 367d c53d f563 e7bd 73ba a83d 5b08 28be
000000e0: 75ee c9be 20f7 dcbd 28f9 3fbc 7683 403e
000000f0: 40fa 86be 9851 3bbe 6f1e f0bc 1b5f ba3e
00000100: 47fc 863e 99b5 043d d270 0bbe 471c 2abe
00000110: e116 013e 7d98 77bd 9d69 06be 3829 00be
00000120: 7b94 f0be e5ce a8bd 3eba d3be 3767 2cbe
00000130: c382 a7be f352 6d3d 48f8 f43d 34a2 09be
00000140: 4686 adbd 7899 363e 7036 8dbe 1783 bebd
00000150: 9430 7bbd b144 4dbd c52b 303d 8968 3ebe
00000160: fdf1 cbbc c05a cabc e4e5 c0bd 99c5 3ebe
00000170: 762d 51be 9bac 16bc bc2f 333e ae23 1d3e
00000180: 4a93 2abd a377 273e bbf6 383e ab78 b63d
00000190: f594 203e bea7 9c3d 72f3 16bd d209 0a3d
000001a0: 3129 4b3d 0e15 5cbb 87bf 24be 246b 803e
000001b0: 119d 88be 82a5 de3c 8477 02bd 1f71 643e
000001c0: 1007 d2bd fc03 e33e b4fa 20be cf65 26bd
000001d0: eda9 ec3d fc94 3a3e ed13 61be 7c4a 883d
000001e0: c37a 193d 25cd 873d f432 273e a198 183e
000001f0: d265 993e 2db2 963d b797 3d3e 8d4e 233e
00000200: f317 b0bd cf25 90bc 6d07 753d 1a94 623d
00000210: be10 853e baeb dfbe 30f0 723e 5665 2bbe
00000220: d261 3e3d 6363 df3d 48e4 65bd 0afe b9be
00000230: d67c a4bd e0ad 7b3e f6c0 d03d dc64 e1bd
00000240: ddbe ddbe c78f 07be afed 9a3e 49b1 b73d
00000250: e2a2 97be 5e43 073e 35ca 04bd 45c9 1f3c
00000260: 98b3 fcbd 85b7 053d a00a 1bbe 78b6 213e
00000270: a7ee 793e 4967 333e fb8e 71bc d95c 3ebe
00000280: 554f 263d d5f4 28bc c83d 3ebe d47f bd3d
00000290: 5817 15be f12c 5ebd 5776 b73e 7219 b3be
000002a0: 7a3b 2abd 16d1 ac3d cc5a 84be 8d19 933e
000002b0: 1208 053f ee1a fa3c 31a3 383e b40f f0bd
000002c0: 693d 0a3e a783 ad3d 5365 15be 450a 2cbe
000002d0: 3db3 cd3d a2b6 1fbe 6dc0 8fbc ad55 d93e
000002e0: 2155 a23d 2b95 ecbd b64d 9fbd fbac a6bb
000002f0: 4442 2fbe 11b2 673e 52e4 8c3e 8760 e4bd
00000300: 6ac9 7e3e b365 94be 5f15 73bd b003 5d3d
00000310: 9206 2fbe 5d75 13be 1023 173e 26dc 3cbd
00000320: 67da 383e 889f c6bd 6b91 3a3e 771f 353e
00000330: bd5a 033e 6ad9 023e f9cc 25be c526 e3bd
00000340: 3696 e3be 24d6 a33e 1b04 3e3c 8fc6 9e3d
00000350: 20a3 b23d 4d37 f23c 339d cdbd 64f0 3dbc
00000360: 76fc 033d 53d9 aabc e475 99bd 1360 123d
00000370: ccfb 11be 737b 3a3e 7e33 e9bd 625e 9bbd
00000380: 5381 0cbe c8ec 963d 72e2 f4bd 4e6b aabe
00000390: 9a32 ce3d a559 ffbd 4bdd 67be 6764 b0be
000003a0: 154e 0d3e a064 44be 0cd2 5a3e 4f9c 0c3c
000003b0: 97f8 5d3e bb1b b93d b736 a4bd 1bdd 2e3e
000003c0: 39ac 63be 3502 87bb 5c57 1bbe b4b3 05be
000003d0: 6843 973d e0eb ac3e 3db6 943d 63a4 c5bb
000003e0: e282 37bd 2898 5e3e 078e 3e3e 122f 413e
000003f0: 7077 fabe 94e9 b53e f0b9 763e e110 64be
-0.109269805 -0.2984152 -0.27736485 -0.16785784 0.14317296 0.023417018 0.07572869 0.07391267
0.19743806 0.04311894 0.06366107 -0.27190477 -0.32336116 0.034501065 -0.3263747 -0.093520634
0.2146798 -0.0032754391 -0.1945465 -0.114163846 0.104049884 -0.27079958 0.1696364 0.15328394
0.09262926 -0.32629192 -0.08691573 0.06361663 0.14018022 -0.18490326 -0.11857717 -0.009545029
0.021156648 0.16403179 0.040209625 0.07700376 0.015823707 0.088063374 0.12529168 -0.13868062
-0.14538911 -0.25864467 0.43916333 -0.023583744 -0.11551816 0.097595714 0.19794674 -0.2860233
-0.10762509 -0.074738264 -0.073576525 -0.20650356 0.09643023 -0.11298362 0.08238687 -0.16409437
-0.3943974 -0.10789323 -0.011717118 0.18800148 -0.263628 -0.18292844 -0.029311387 0.36400685
0.26364347 0.032399748 -0.13617256 -0.1661235 0.12606384 -0.06044816 -0.13126226 -0.12515724
-0.46988282 -0.08242587 -0.4135303 -0.16836248 -0.3271695 0.057940435 0.119614184 -0.13440782
-0.08472876 0.17831981 -0.27580595 -0.09302347 -0.061325625 -0.050114337 0.043010492 -0.18594564
-0.024895662 -0.024701476 -0.09418848 -0.18630065 -0.20427498 -0.009196426 0.17498678 0.15345642
-0.041644372 0.16354232 0.1806287 0.08909734 0.15681823 0.07649182 -0.03685326 0.03370077
0.04959983 -0.0033581886 -0.16088687 0.25081742 -0.26682332 0.02717853 -0.03185226 0.22308777
-0.10255253 0.44338977 -0.15720636 -0.040624436 0.11555848 0.18220896 -0.21980257 0.06654832
0.03747059 0.06630925 0.16328031 0.14901973 0.29960495 0.07358203 0.18514906 0.15947933
-0.08598318 -0.017596154 0.059821535 0.055317022 0.25989336 -0.43734533 0.23724437 -0.16737875
0.046480007 0.109076284 -0.05612591 -0.3632663 -0.08031623 0.24578047 0.101930544 -0.110055655
-0.4330968 -0.1323844 0.30259463 0.08969361 -0.29616457 0.13209292 -0.032419402 0.009752576
-0.12338942 0.03264572 -0.15140772 0.15792263 0.24407445 0.17519869 -0.014743562 -0.18590106
0.040603 -0.010312279 -0.18578255 0.09252897 -0.14559686 -0.05424208 0.35832474 -0.3498035
-0.041560628 0.084383175 -0.25850523 0.2873043 0.5196544 0.03053042 0.18031003 -0.11721745
0.13499989 0.08472376 -0.14589433 -0.16800793 0.100439526 -0.15597013 -0.01754781 0.42448178
0.07926393 -0.11551889 -0.07778494 -0.005086539 -0.17115122 0.2262652 0.27517945 -0.11151224
0.24881521 -0.2898384 -0.059346553 0.053958595 -0.1709235 -0.1440024 0.14759469 -0.046108387
0.18052064 -0.09698397 0.18219535 0.17687784 0.12827583 0.1277825 -0.16191472 -0.11091379
-0.4445054 0.31999314 0.0115976585 0.07752716 0.0872252 0.029567385 -0.10039749 -0.011592958
0.032223187 -0.020855581 -0.07493189 0.035736155 -0.14256209 0.18211155 -0.113867745 -0.075863615
-0.13721208 0.07369381 -0.119572535 -0.33284992 0.10068245 -0.1246827 -0.2264301 -0.344516
0.13799317 -0.1917901 0.21369189 0.008582189 0.21676861 0.09038492 -0.080182485 0.17076533
-0.22233666 -0.004120136 -0.15170044 -0.13056833 0.073859036 0.33773708 0.07261322 -0.0060315593
-0.044802554 0.2173773 0.18608867 0.18865612 -0.4891925 0.35529768 0.24094367 -0.22272064

actor.init_leaf_node_embed.2.add_bias._bias f4 [64, 1]
00000000: c551 89be 0674 a23c 4825 09be 902d 3bbd
00000010: 6f36 1f3c 04bf 773e d512 e33d feef 523e
00000020: b902 903e 051f 39be 3d6a 8fbd e4ad 6a3e
00000030: 9be3 96bd 564a 0a3e 9b39 93be 7cfb e3bc
00000040: 3816 80be e59f 363e 2a9d c23d 32cc cdbb
00000050: eb5b bdbe 9bae a4bc d546 ffbd 2a35 4d3e
00000060: db47 09be 0736 7bbd 9816 ee3c af29 ca3c
00000070: 661f f3bd c730 833e 62ec 323e deb1 88bd
00000080: 6106 433d 08c8 36be ad9b 3cbe 0331 f7bb
00000090: d46b c3bc 7f25 8f3e 77b9 403e 71d2 8d3e
000000a0: d06a a83a 9189 7d3e f495 1c3c fa17 3dbd
000000b0: 8671 32bd c137 bbbe a747 5fbe 661c 5c3c
000000c0: d96d 803e 9f83 69bb 3407 acbb fd0a 7d3e
000000d0: 5e29 59bd f778 003e fac3 7ebe 827b 6bbd
000000e0: 6807 673e 0f22 903e ceb9 7d3e bc2a 923d
000000f0: 19d6 22bc b59d 853e fbd7 c5bd 409c 48bd
-0.26820198 0.019830715 -0.13393128 -0.04569775 0.009717568 0.2419396 0.11087576 0.20599362
0.28127077 -0.1807824 -0.07002685 0.22917897 -0.07367631 0.1350492 -0.28754887 -0.027829878
-0.25016952 0.17834432 0.09502633 -0.0062804455 -0.3698419 -0.02010279 -0.12464682 0.20039812
-0.13406317 -0.06133082 0.029063508 0.02467808 -0.11871223 0.25623152 0.17472985 -0.066745505
0.047613505 -0.17849743 -0.1841876 -0.0075436844 -0.023855127 0.27958295 0.18820749 0.27699617
0.0012849215 0.24759509 0.009557236 -0.046165444 -0.043565296 -0.36565974 -0.21804677 0.013434505
0.25083807 -0.003563143 -0.005249882 0.24711223 -0.053017966 0.12546144 -0.24879447 -0.057490833
0.22561419 0.28150985 0.2477791 0.07137057 -0.00993874 0.26096883 -0.09660336 -0.048977137

actor.init_next_embed.0.module.weight f4 [32, 6]
00000000: 2d25 cebe d250 2a3e 2104 abbd 980e ec3e
00000010: 777b 263f 9fd3 14bd c6cf 563e 9a49 a63e
00000020: 0abd 083c 7286 263e a664 bc3d 6133 71be
00000030: 241d d93d 89c8 c7be b2c4 753e 222c cdbe
00000040: 71ff 953e fa9c b43e c713 163f 12a8 113f
00000050: 6eaf e53d 36a3 333e 3fb7 ca3e b9d8 2d3e
00000060: baa9 a6be cd0f 76bd 60cc 45be f70b 403e
00000070: 33c3 253d ba71 2cbe 50e4 20be 70ed eb3d
00000080: 3dd2 ea3e 1469 243e ad22 1cbe d7fd 783b
00000090: ee7c 74be 257a 68be 1fa7 c0bc 7548 7cbe
000000a0: cbb6 963e a166 073f 07e4 48be 5b3c bbbe
000000b0: a5ce 813e c3c3 d53d 8b5c f2bd 32e2 663d
000000c0: 4db6 09be 9e98 82be 20c8 af3e 94c2 69be
000000d0: e73f b13d 861c edbb 71a9 b7be c81e 21be
000000e0: e18f 14be b913 e83e 4d03 2fbe ca7e 75bd
000000f0: c66f b13e bcdc 42bd 1fe4 18be c8c2 503e
00000100: b2cc 283d 68d7 f33d ea49 cabd 0353 42be
00000110: 5b24 95be 45fe 7e3d cc4d f93e c939 0e3f
00000120: dc1e c13e 41a7 28bf d1ae 32bd 3ae0 843d
00000130: 143a 9c3c 9787 e5bd f7c2 1b3e 311c 85be
00000140: 937a 9e3e 0eec 923e dd7a 2cbe dee7 3dbe
00000150: 7593 07be 8cfc 593d 48ba d8bd 4452 9cbe
00000160: 4729 953d 5465 163e f550 2a3c c0c9 8c3d
00000170: b5a4 6e3e 5421 a1be c1cf 07bd be0f 7dbe
00000180: 131d 123c 99f8 13be 79e2 02be f0e3 bebe
00000190: 4d17 6c3e 48a5 8d3e a2b0 74be be9e e83e
000001a0: dde7 fe3e 2226 4d3e c08f 533e 3b45 153f
000001b0: a3c6 3abe 7c35 6ebc 26dd b1be d86b 96bd
000001c0: ecce 0ebe 9992 e5be 113c a63d 307c 65be
000001d0: c0d7 463e fc7b 9b3e 679e f3bd fab7 17be
000001e0: d13d a63e c4c6 ba3e e633 243e 239f 0bbf
000001f0: 7e3d e3bd e331 3a3f 9412 ac3e 768e 35be
00000200: f614 aa3d 5ec4 063f c0cf 123f c410 c93e
00000210: 1181 68be a690 e23c adac babd f909 ea3c
00000220: 49a8 cdbe a75f b7bc 0e35 babd 4a39 42be
00000230: 5232 06be c0b6 efbd 488e a2bd 25c8 12bd
00000240: d3c2 67be 09fb 95bd d3cd ac3e e346 acbe
00000250: 93c9 083f 1ce2 b6be 2602 febd ab12 54bd
00000260: 6e6b 113d bbae aebd 8cc6 edbe d121 e03e
00000270: 73dc c6be 7e9e 2ebe 98f9 da3e 18d3 df3e
00000280: a34a 313b 39a1 98be 3d3d 9e3e f6a5 c8bd
00000290: 724c 0d3e 38a8 a1be ba5c a33d 9a10 18be
000002a0: 3bf4 e7bd fefa d73d a5f1 04bf 4c00 36be
000002b0: eb13 183d c692 843d 896c 383e 767b 2ebd
000002c0: 8101 a93e bd22 63be 8506 1dbe a46a adbd
000002d0: a3a3 d0bd 2a72 b7bc 7da9 81ba 29be b8bc
000002e0: 0eef cdbe 53f5 073f aa5c 8c3d be4c e1bd
000002f0: 4dc5 1fbe 3ed2 b6bd 63bc a23c 66c1 1fbe
-0.40262738 0.16632393 -0.08350397 0.46104884 0.6503214 -0.03633463 0.20977697 0.3247803
0.008345852 0.16262224 0.09198885 -0.23554756 0.10601261 -0.39020184 0.24000815 -0.40072733
0.2929645 0.35276014 0.5862393 0.5689708 0.11215101 0.17542729 0.3959293 0.16977204
-0.32551366 -0.060073663 -0.19316244 0.18754564 0.04046936 -0.16840258 -0.15712094 0.11519897
0.45863524 0.16055709 -0.15247603 0.0037993097 -0.23875782 -0.22702844 -0.02351719 -0.24637015
0.29436335 0.52890974 -0.19618236 -0.36569485 0.2535297 0.10437729 -0.118340574 0.05636806
-0.13448448 -0.25507063 0.3433237 -0.22828132 0.086547665 -0.0072360663 -0.3587146 -0.15734398
-0.1450801 0.45327547 -0.17091103 -0.05993537 0.3465559 -0.04757379 -0.14930771 0.20386803
0.041210838 0.1190632 -0.09877379 -0.18976979 -0.291293 0.06225421 0.48692167 0.55556923
0.37718856 -0.6588021 -0.04362375 0.0648808 0.019070663 -0.11207502 0.15211092 -0.2599807
0.30952892 0.2869572 -0.16843744 -0.18545482 -0.13239844 0.053219363 -0.10582405 -0.30531514
0.07283264 0.14687091 0.010395278 0.06874418 0.23305018 -0.3147074 -0.033157114 -0.24713036
0.008918065 -0.14450301 -0.12781705 -0.37283278 0.23055764 0.27665162 -0.23895505 0.4543361
0.49786273 0.20034078 0.20660305 0.5830876 -0.18239836 -0.014539119 -0.34739035 -0.07344788
-0.13946122 -0.44838408 0.081169255 -0.22410655 0.1941824 0.3036803 -0.11895447 -0.14816275
0.32469037 0.3647977 0.16035423 -0.545397 -0.11095713 0.7273237 0.33607924 -0.17730126
0.08304779 0.5264338 0.5734825 0.39270604 -0.22705485 0.027656864 -0.091149665 0.028569208
-0.40167454 -0.022384478 -0.09092151 -0.18967167 -0.13105133 -0.11704779 -0.07937294 -0.035835404
-0.22632913 -0.07323272 0.3375078 -0.33647832 0.5343258 -0.35719383 -0.124027535 -0.051775616
0.035502844 -0.08529421 -0.46440542 0.437758 -0.38840064 -0.17052647 0.4276855 0.4371574
0.0027052544 -0.29810503 0.30906096 -0.097972795 0.13798693 -0.31573653 0.079766706 -0.14850083
-0.1132588 0.1054592 -0.5193122 -0.17773551 0.03712837 0.06473307 0.18010153 -0.04259821
0.3300896 -0.2218122 -0.15334518 -0.08467606 -0.10187461 -0.022393305 -0.000989243 -0.022551613
-0.40221447 0.5310871 0.06853612 -0.110009655 -0.15602608 -0.08926819 0.01986522 -0.1560112

actor.init_next_embed.0.add_bias._bias f4 [32, 1]
00000000: 1141 003f d9a8 d3bd 63a2 6b3e 6449 9e3e
00000010: 1614 32ba 9e08 943d a4d6 61bd e34a 29bc
00000020: 7d58 2ebd a7bf 57bd 0d72 03bd 0681 273f
00000030: a799 ae3d 3a4d c93d 9d8c 8ebd 5ca5 57bc
00000040: c52e 233d 9ef7 643e ad6a 9bbb bf38 07be
00000050: d441 183f e45e 42bd de86 d13b 3881 3cbd
00000060: 1855 98bc d462 6a3d 787a f6bc 08c1 10bc
00000070: cd9b babc 5c23 e7bb d45e 9bbd 2c0f edba
0.50099283 -0.103349395 0.23011164 0.30915368 -0.0006793154 0.07228206 -0.055136338 -0.010332796
-0.042564858 -0.05267301 -0.03209119 0.6543125 0.085254006 0.09829183 -0.069604136 -0.013161983
0.039839525 0.22360083 -0.0047429414 -0.1320524 0.59475446 -0.047453776 0.0063942512 -0.04602167
-0.018595263 0.057223156 -0.030087695 -0.008835085 -0.02277937 -0.0070537757 -0.075864464 -0.0018086187

actor.init_next_embed.2.module.weight f4 [64, 32]
00000000: d51f 5cbe 9be7 dd3d a27e aa3d b0e3 083e
00000010: 48f4 333e acea dabd 299a 393d 1256 8f3e
00000020: 061b f83d 24dd 2b3d 2a5e 0b3e 25d8 76be
00000030: 1e58 483c 3531 203d 2a81 4d3e a31e 98bc
00000040: 0721 a53e 1bd1 6f3e f276 9fbc af37 2b3e
00000050: 2c2d c53d 81e4 33be 558f 813e c1a8 073f
00000060: 3a21 903d 3be4 b43c 3804 3abb df0c 1abe
00000070: 7794 96bd e948 e1bd 2e7e 1e3a a163 d5bd
00000080: 4948 ec3d 4934 afbc d1e1 c2bc 3262 a83d
00000090: e026 4b3e 5484 463e 29d4 85be 3a93 e73d
000000a0: 4fb0 13bd 8705 a43d 12b5 10be 5198 7fbe
000000b0: 6b5c 99be cbd9 8fbc 7634 db3e 38d7 943e
000000c0: 1d34 6dbe 59a5 b73d 72c3 1d3e ec49 81be
000000d0: 8e86 40be 45b5 5ebe 26b3 69be 2284 81bd
000000e0: 75d4 56bd a23a 0d3e 5f2b a63d 7ff2 1fbe
000000f0: dcb4 993d f9d3 783d 95df 57bd 6694 04be
00000100: 023a 3abd fe91 c73e ec3c 333d 3c29 9ebd
00000110: 8d2d 823d 2dfa 9b3d 22c8 4d3c 1530 70be
00000120: d354 0f3e 5ec1 f9bd bc7e abbd f268 b8be
00000130: 35f2 3a3b fbd9 a3be 59b4 ffbd 6d66 0f3c
00000140: fac2 aa3c 2fd0 23bb 92fe 2c3d c313 a6be
00000150: 1539 d7be a1f5 c03e f686 293e 144f e0bd
00000160: 004a 253e dd78 a4be 1beb 1e3d 53ba 213e
00000170: 147c 843e acc8 c0bd 54f6 cebe 3e24 383e
00000180: d735 3c3e b1be 7e3e e104 86be 6d73 0ebd
00000190: e6ac 3b3e 7280 bebc 6a1e 8cbc 1de5 febc
000001a0: 2ca1 3a3c f7ec c63e bd27 283e 1c4b 213d
000001b0: cc20 7e3d b01f 303e cd72 39be 8aa0 aa3d
000001c0: c3ad 1f3e 9f3f ca3d bf1b d7bd b6d7 363e
000001d0: 9235 553c a331 bbbc 651f fdbd 369d 8dbe
000001e0: 6223 56bd 3d4b 86bc 6b96 87be 90ff 1c3e
000001f0: 0030 cb3d 731f 3a3d b745 4e3e 3405 083d
00000200: e84b 833e 7b7e adbc 83f8 0ebe f06a 123e
00000210: e099 5d3e 6a50 f43d c77b 983d f391 283e
00000220: 0fc9 343e 6a10 b7bd aab8 c9bc 6b68 41be
00000230: 1b73 0abe 8a70 6bbe 3291 38be 1df6 a7be
00000240: f408 a73d 7b3f 0dbe 5b36 2f3d d3fa 95be
00000250: a6b3 153e 4870 253e 0645 7fbc 9aea 7cbc
00000260: 5b23 2a3e b686 423e 797b 243e 1375 c7bd
00000270: e10d 6b3d 97d0 183d ee48 e83d 3f4e f0bd
00000280: 53fb 1fbe b785 01bf 78b4 bdbc c7f3 a2bd
00000290: 9862 8b3c 7309 633e bd15 fb3c a8da 1a3e
000002a0: b309 b93d dc04 093e 5406 4abe 62ec a8bd
000002b0: cff4 32bc 4f58 a03d fb2e 65bd 821f 033e
000002c0: 1f13 4bbc b2e9 943e 0b2b 2c3e e3b1 3bbc
000002d0: bf25 06be 8c8a 9c3d 7217 913d cfb0 81bd
000002e0: 2c62 6abe 5e41 55be cee4 0bbe 35d7 36be
000002f0: b8a5 fd3d 67df 58be 361a 583d 125c 2cbe
00000300: 554d d53d 4861 29be 39ed 123d 92e9 c1bc
00000310: 0407 e9bc 6b7a e13c 9b6e 66be e2d3 46bc
00000320: 43af ed3e bfcd 643d 7640 19bd 8696 d5bd
00000330: 6b7f 57be 4169 f03d 5219 b0be 87b8 8cbe
00000340: adb9 c8be c7e2 ad3d e070 b1be 043d 10be
00000350: 2cf9 a6be a13a 133d c17a 883d 6160 9fbd
00000360: 8db9 54bd 473c 33be 0db9 033d 0905 fa3c
00000370: 58fd 94bd 570c 4e3e 37b1 8fbd cebb 173e
00000380: 6ff0 c93e 9fd6 183e b536 2bbd c425 223d
00000390: 464d df3d a324 a7be 4e76 5ebe b39a 153e
000003a0: db38 46bd 2f1f d93d b2ea 1f3d 304c bb3e
000003b0: f699 bf3e b4b8 a4bd 9610 913e 477b 20be
000003c0: 4eeb d03d 745f 073e 491e 693d f00d 97bd
000003d0: a19d c0be 77ed b53e 4cb7 2d3e ea64 8d3d
000003e0: 7ed8 623e b745 603d af55 89be 98d7 e7bd
000003f0: 73ee 34be f3a1 2dbe 680d a43e 97ae 493d
-0.21496518 0.10835191 0.083249345 0.13368106 0.17573655 -0.10689291 0.045313034 0.27995354
0.12114529 0.041958943 0.1361014 -0.2410589 0.01222804 0.039109427 0.20068803 -0.018569296
0.3225176 0.23419611 -0.019465897 0.1672046 0.096277565 -0.17567636 0.25304666 0.52991873
0.070375875 0.022081485 -0.0028383862 -0.15043972 -0.07352536 -0.11000235 0.0006046024 -0.10419393
0.11537225 -0.021387236 -0.023789318 0.08221854 0.19839048 0.19386417 -0.26138428 0.11307378
-0.036056813 0.08008867 -0.14131573 -0.24960448 -0.29953322 -0.017559906 0.42813462 0.2907045
-0.23164411 0.089670844 0.15406588 -0.2525171 -0.18801329 -0.21748836 -0.22822246 -0.063240305
-0.05244871 0.13791898 0.08113741 -0.15619849 0.07505199 0.060749028 -0.05270346 -0.12947235
-0.045465477 0.3897857 0.04375927 -0.077227086 0.06356344 0.076160766 0.012559922 -0.23455842
0.13997202 -0.12195085 -0.08373782 -0.36017567 0.0028525714 -0.32002243 -0.124855705 0.008752448
0.020844925 -0.0024995913 0.042234965 -0.32436952 -0.42035738 0.376874 0.1655539 -0.10952583
0.1614151 -0.3212346 0.038798433 0.15793733 0.25875914 -0.09413275 -0.40422308 0.17982575
0.18379913 0.2487743 -0.26175597 -0.034778047 0.18327674 -0.023254607 -0.017104346 -0.03111511
0.011390965 0.38852665 0.16421409 0.03937827 0.062042996 0.17199588 -0.181102 0.08331402
0.15593629 0.09875416 -0.10503339 0.17855725 0.01301326 -0.022850817 -0.12359504 -0.27659005
-0.052279837 -0.016393298 -0.26481947 0.15331864 0.09921265 0.04544015 0.20143782 0.033208087
0.2564385 -0.021178475 -0.13961987 0.14298606 0.2164073 0.119294 0.07445484 0.16461925
0.17654823 -0.089386776 -0.024624187 -0.18887489 -0.13520472 -0.22992149 -0.18024138 -0.32804957
0.081560045 -0.13793747 0.042776447 -0.29292926 0.14619312 0.16156113 -0.015580421 -0.015436793
0.1661505 0.189967 0.16062726 -0.09739127 0.057386283 0.0373083 0.11342035 -0.11733674
-0.15623216 -0.5059466 -0.023157343 -0.07956653 0.017014787 0.22171573 0.030650014 0.15122473
0.09035053 0.1338076 -0.19728976 -0.082482114 -0.010922625 0.078293435 -0.055953007 0.12804988
-0.012394696 0.29084545 0.16813295 -0.011455986 -0.13100336 0.07643613 0.0708455 -0.06332552
-0.22889012 -0.20825717 -0.13661501 -0.17855532 0.12385124 -0.21178971 0.05275937 -0.16831997
0.104151405 -0.16541016 0.035870764 -0.023670945 -0.028445728 0.027524194 -0.2250313 -0.012135478
0.46422777 0.055860277 -0.03741499 -0.10429101 -0.210447 0.117388256 -0.34394318 -0.27484533
-0.3920416 0.0849052 -0.3465643 -0.14085776 -0.32611978 0.035944585 0.066640384 -0.07782055
-0.051934768 -0.17503463 0.0321589 0.03051998 -0.07274884 0.20121895 -0.07016223 0.14817736
0.3944125 0.14925621 -0.04180022 0.039586797 0.109034106 -0.3264514 -0.21724817 0.14609794
-0.048394065 0.10601651 0.039042182 0.36581564 0.3742215 -0.08043042 0.28332967 -0.15672027
0.10201131 0.13220006 0.056913648 -0.07375705 -0.3762026 0.35532734 0.16964453 0.069040135
0.22152898 0.054753985 -0.26823184 -0.11320418 -0.17669086 -0.1695631 0.32041478 0.049238767

actor.init_next_embed.2.add_bias._bias f4 [64, 1]
00000000: 5c4d d6bd f37c 17be 4bc8 75be b930 423d
00000010: b5be d2bd fbdd 80bd 87e8 9cbd e320 253e
00000020: 3071 e8be 1f6e 1e3e 148a 2ebe 7e80 20ba
00000030: 75b0 43be c60a 0fbe fd24 fa3e 5e29 4abe
00000040: a3a6 fdbc 30a2 863c 10af 34bd 9f32 ddbd
00000050: 538b a1bd c16b 2bbe 632a 853e e745 30be
00000060: 9bed b33c 325c d6bd cf54 c3be 6666 bcba
00000070: d8c9 8e3e 9d8b ccbd df4a 0bbd ce56 803e
00000080: 56a6 bf3e 7218 483e 02b4 153d 541a 10be
00000090: d9c1 f93b 1985 99be a2ca 83be fb88 bcbe
000000a0: 94e5 ee3d b48d cebe 6212 093e 145d 6d3d
000000b0: 60d2 5fbe 903c ab3e 2c48 0b3e 11b8 39be
000000c0: 549e 1cbd 383e 9abd 9d5c 27bd 9887 51be
000000d0: b8f7 a43e 328e ccbc d626 963e 38e3 5abb
000000e0: 542a c43d 67f1 05bf 4193 6dbe 9577 af3d
000000f0: 6ce5 d4bd 9554 c13e 018a 43be 94e7 b3bd
-0.10463974 -0.14793758 -0.24002187 0.047409747 -0.10290281 -0.062923394 -0.076615386 0.16125827
-0.45398855 0.15471695 -0.1704486 -0.00061226625 -0.19110282 -0.13968953 0.48856345 -0.19742343
-0.030963248 0.016434759 -0.044112265 -0.10800671 -0.07887902 -0.16740324 0.260089 -0.17214166
0.021963885 -0.104668036 -0.3815064 -0.0014373779 0.2788837 -0.099875666 -0.03400695 0.25066227
0.37431592 0.19540575 0.036548622 -0.14072543 0.0076219854 -0.29984358 -0.25740534 -0.36823258
0.11664882 -0.40342486 0.13385919 0.057950094 -0.21857595 0.33444643 0.1360175 -0.18136622
-0.03823693 -0.075313985 -0.040859807 -0.20461881 0.32220244 -0.024970148 0.29326504 -0.0033399593
0.09578386 -0.52321476 -0.23200704 0.0856773 -0.10395321 0.37759843 -0.19095613 -0.087844044

actor.embedder.layers.0.0.module.W_query.weight f4 [64, 64]
00000000: 692e 9abd 40a2 403c b6aa 16be b993 68bd
00000010: 7c71 01be a6bb 303d 1202 62bd 38e7 9dbd
00000020: 7198 a63b b991 babd ccba 203d afcf 2abc
00000030: f348 c53d 99c6 d63d 49d6 cebd 66d2 c9bb
00000040: c0de eabd ac99 dd3d 4e41 dabc 78cf b83d
00000050: cbf4 1bbe d5ca dc3c 327b 8fbd baff 58bd
00000060: 8887 11bd 676a 8c3d db56 013d 247a b3bd
00000070: 4b67 f1bd af3f cf3d 6f08 48bd 35fd 8bbc
00000080: 13aa e23d df64 b5bd ec0a cabd ae19 ce3c
00000090: 5057 1cbd 9db1 013d cca4 ad3d 963b d23c
000000a0: 0743 523d 5e4f 32bd 53c9 efbd 80ba f3bd
000000b0: 8140 a8bc 0de4 fcbd 731b d13d 05c5 993d
000000c0: 6bcc 973d 9369 acbc 017e a2bd 15a6 4b3d
000000d0: d1a4 e3bd 580a d1bd 6bd7 bfbd 0284 c2bd
000000e0: 421e 9fbd a5eb 7f3d 1ed4 79bd 8d80 f53d
000000f0: 160c 70bd 58d4 fa3c 4f47 df3c 8186 b13d
00000100: 4a2e 343d 4b0c c43d 717b cabc c820 5abd
00000110: 4080 d4bc cdc6 133e 1742 723d 0a82 943d
00000120: 547d 973d 2106 f9bd aa18 7dbd ac2e 8b3d
00000130: 0b71 8b3d e4f7 19be 5198 ae3d 5d89 a5bc
00000140: b7a4 123d d818 573c 80c6 75bd b127 9d3d
00000150: 0b1c d33c 4125 083e 3bd2 fc3d 161d 9dbd
00000160: 202f 613c 1e9d d1bd 171b a83d e7a6 91bd
00000170: e5bc 8f3d 7854 0dbe 2893 073e 8183 893d
00000180: 3865 adbd d758 b0bc e98f a33c 5dac bdbc
00000190: 800e babd 1466 a2bd 7e0d 7cbd b005 c7bc
000001a0: 2fbe 153e 99f6 a6bd d270 d03d 6672 27ba
000001b0: e7d6 28bc 2619 653d 2720 abbb a809 08bb
000001c0: a53c ccbd 8f06 9f3d dd2c 253d 973e ce3c
000001d0: 3514 b53b 0c31 89bd e7b3 d7bd ec9c 2c3d
000001e0: 1445 2f3d 94b1 933d 1158 a23d 1729 cd3b
000001f0: fd4a a53d 940f 77bd 766c e6bd 6724 813d
00000200: 40b2 b6bd 4730 bc3d 371f 063e c213 81bd
00000210: 0ffa 51bc f171 d73d 8023 e6bd 90d1 ab3d
00000220: 9ec1 be3d 2056 61bc be6e b0bd fe48 bd3d
00000230: 966b 0fbe 85d0 763d 7377 00be 411e 21be
00000240: 180c 2fbc f9b8 a33c 2d9e d7bd 92f8 9abd
00000250: 0f84 ab3d d71f 8a3c bd18 dabc e630 003d
00000260: 792b 8fbc 56a3 c43d f828 11bd e024 4bbd
00000270: 6a75 b73d 52d8 76bd 13f5 eb3d a839 ad3c
00000280: 19bc af3d 3900 b63d a0f1 bc3b 0141 d63c
00000290: 0bd5 8ebc 3583 093e 7c80 b7bc 34aa 75bd
000002a0: 6306 50bd b334 c43d 0295 073e b4c9 e4bd
000002b0: 6077 e4bd 0aaf fcbd bb51 9ebc fe58 6ebc
000002c0: b1c3 64bc c6f5 9cbc 511c 89bd 133b 023e
000002d0: 3668 91bd 8c9a 1b3d eb45 94bd 256c a5bd
000002e0: cd37 a63d bd89 94bb eca2 e23b f987 083e
000002f0: 98b6 d03d 8120 66bd 59f6 8f3d 9a5b 913d
00000300: ab65 243d 8208 893d 5507 b03c 1c72 d63d
00000310: 46d3 efbc 8ce9 45bd db15 58bd 3787 acbd
00000320: c458 92bd 440b 9bbd 7db1 c8bd 6cae 96bd
00000330: 4cad b7bd a67a 3f3c 3ce0 3a3d 50e1 8a3d
00000340: dffc 1d3c e584 213d 43a6 bbbd 729e ea3c
00000350: 6085 a13d eaaa 8a3d 10f8 47bd ceac ae3d
00000360: 57c2 84bd 5d9a 3d3d 20cd d3bd 6e1d febc
00000370: fe56 fd3d 06c7 4f3c 1f21 84bd 714b 793d
00000380: 85c9 013e c1bd 91bc e859 0dbc 9d58 aa3d
00000390: 8350 9c3d f055 cc3d a0bd 3b3d f316 b9bd
000003a0: 8a12 da3d 7e5e 2cbd 70c9 743b a5c7 b43d
000003b0: 7d58 9abd 5e7c 6ebc e7ca a93d f7e9 79bd
000003c0: d3ae 6d3d 1e8e 5f3d f224 60bc 5f22 3a3d
000003d0: 9211 abbd 97f1 353d e7e3 1e3c de4f 283d
000003e0: 0df4 6bbd 242b 55bd 1e9d 8d3b 3c38 66bd
000003f0: 4729 dcbd 71b2 a6bc 864b aa3d 44aa 903c
-0.07528383 0.011757433 -0.14713559 -0.056781504 -0.12640947 0.043147705 -0.055177756 -0.07710117
0.0050840904 -0.09109826 0.039240643 -0.010425492 0.096330546 0.10487098 -0.100994654 -0.0061591147
-0.114682674 0.10820326 -0.026642468 0.090239465 -0.152301 0.026952187 -0.070059195 -0.052978255
-0.035529643 0.06856232 0.031576972 -0.08763531 -0.1178728 0.101195686 -0.048836168 -0.017088512
0.11067595 -0.0885713 -0.098653644 0.02515873 -0.038169205 0.031663526 0.08478698 0.025663178
0.051333454 -0.04353272 -0.117083214 -0.119008064 -0.02053857 -0.12348185 0.10210314 0.075082816
0.074120365 -0.021046435 -0.079341896 0.049718935 -0.111154206 -0.10207051 -0.093672596 -0.09497835
-0.07769443 0.062480588 -0.060993306 0.1198741 -0.058605276 0.030618832 0.027255682 0.08668233
0.043989457 0.09572657 -0.024717065 -0.05325392 -0.02594006 0.14431305 0.05914506 0.072513655
0.07396951 -0.12159372 -0.0617911 0.06796011 0.068086706 -0.15035969 0.08525146 -0.020207101
0.035801616 0.013128482 -0.060003757 0.07673586 0.025770208 0.13295461 0.12344786 -0.07671563
0.013744146 -0.10235046 0.08208292 -0.07111912 0.07018451 -0.13801754 0.1323973 0.067145355
-0.084665716 -0.021526737 0.019966083 -0.023153478 -0.09084797 -0.07929626 -0.061536305 -0.024294704
0.1462333 -0.081525035 0.10177769 -0.0006387591 -0.010305143 0.055932187 -0.0052223387 -0.0020757709
-0.099725045 0.07764923 0.040325988 0.02517633 0.0055260905 -0.06698808 -0.105323605 0.04214184
0.042790487 0.07211605 0.079269536 0.006261002 0.080709435 -0.06031759 -0.11251156 0.06305771
-0.08920717 0.09188896 0.13097845 -0.06302597 -0.012815966 0.105197795 -0.1123724 0.0838958
0.09314273 -0.013753444 -0.086148724 0.09242438 -0.14005885 0.060257453 -0.12545566 -0.15734197
-0.010684036 0.019985663 -0.105282165 -0.07566942 0.083747976 0.016860886 -0.026623124 0.031296633
-0.017476784 0.09601466 -0.03543946 -0.049595714 0.08957942 -0.060264893 0.115213536 0.021145657
0.08580799 0.08886761 0.0057661086 0.026154043 -0.017435571 0.13428958 -0.022400133 -0.05997677
-0.05078734 0.09580364 0.13240436 -0.11171284 -0.111555815 -0.123380736 -0.019326081 -0.014547585
-0.013962672 -0.019160163 -0.06694854 0.12717848 -0.07099955 0.037989184 -0.07239898 -0.080772676
0.08116112 -0.0045330212 0.0069163945 0.1333312 0.10191077 -0.056183342 0.07029409 0.0709755
0.04013602 0.06691076 0.021487871 0.104709834 -0.029275548 -0.04831843 -0.052755218 -0.08424228
-0.07145837 -0.07570508 -0.09799478 -0.07357487 -0.08968601 0.0116869565 0.045624003 0.06781256
0.009642809 0.03943338 -0.09162571 0.028640006 0.078867674 0.067708805 -0.048820555 0.08529054
-0.0648238 0.04628979 -0.10341859 -0.031019893 0.12370108 0.012681728 -0.0645163 0.060862962
0.1267453 -0.017790677 -0.008627392 0.08317683 0.07632544 0.09977329 0.045835137 -0.0903758
0.10648067 -0.042082302 0.0037351511 0.08827142 -0.07536409 -0.014556019 0.08290654 -0.061014142
0.058028053 0.054578893 -0.013680683 0.045442935 -0.08352961 0.04441985 0.009697891 0.041091792
-0.05760579 -0.052043095 0.0043217083 -0.056205973 -0.107500605 -0.02034876 0.08315186 0.017659314
