pretrained_models/experiment/Discrete_acktr_20x10x10Bin_s42_inh_800_defaultBox-2022.08.18-13-06-52/PCT-Discrete_acktr_20x10x10Bin_s42_inh_800_defaultBox-2022.08.18-13-06-52_2022.08.18-15-35-41.pt (torch, 236314 bytes, 24 tensors)

actor.init_internal_node_embed.0.module.weight f4 [32, 6]
00000000: f9de 653e c171 183f aa6a 1f3f 4983 8dbe
00000010: 298e e33b 2c3a 433e 294e 3e3e df69 db3e
00000020: da16 13bd cdce f5bd b9e5 a7be 5d8c bebd
00000030: 0164 1e3d 73ef 37bd 9471 463d e0b8 d13d
00000040: ff20 8cbe aa4d b53d 92b5 04bf adbc cabc
00000050: 923f c8be fd9a 0b3f ead6 8e3e ac62 5f3f
00000060: 1124 f13e 6549 20be 4425 82bc 7de1 ba3d
00000070: 4d2f cbbc 4bd5 fabd 762b 713e 8717 f63d
00000080: 8cc4 bdbe 3579 d03e 1cdd f7bd faf1 93be
00000090: 2282 e1be ea55 553e 7883 113e 17a8 403e
000000a0: ed95 a7be c137 2abe 2256 5f3e d36a f1bd
000000b0: e25f f93e aa0f 023c 86fa 36bf ff37 fe3d
000000c0: d6b5 e1be 6a96 da3d 0be6 4abf 5965 d13e
000000d0: 910f f93c fd6d 5a3d 3a92 253f 044e 1bbd
000000e0: a4c5 d8bd 80f1 133e f01f 40be 9941 22be
000000f0: eaa3 43bd f7e6 c83d 4122 b5be ea0a 0c3f
00000100: 31ca 033f a3dc 1dbf 5c92 4fbe daae 25be
00000110: 8834 20be c073 aebd be48 b0be 2f3b 55be
00000120: 6555 673f aa79 ef3d 9c31 f03d 6061 d3bd
00000130: d54c f1bd c58e 58be e1d9 d03e 9d59 503d
00000140: 4d6c 53be ad58 d3bd 2316 903e 79a6 abbe
00000150: 3f96 bc3e f976 eb3e 8328 bebe d74d 0fbd
00000160: e62e 723d 3dc1 97bd c0c9 ffbc 1e46 92be
00000170: fc70 73be 3571 a7bd e9de 103e da5b 8fbe
00000180: eec2 c33d 6320 fdbd a084 d13e 7db4 33bf
00000190: 779f fc3e dc7f f53e 1746 8a3d dabd 2b3d
000001a0: ae35 cd3d b3ff 653e 37b9 10bf 62ed b8be
000001b0: 07fa a23e 9dfd 073e b828 ebbe fabd 833e
000001c0: b6a0 f03d a702 65bd 77a0 b53e ca1d 52be
000001d0: 188f 733d 7c70 6abe cce8 b8bd 5656 e63d
000001e0: 30fc 6f3d 4cca 863e c4ae e0be 3839 923e
000001f0: a70c 3dba b9c5 ffbe bf46 26be f1b3 c1bd
00000200: a0cd 90be 66eb 163e d196 e8bd 718e cebe
00000210: fda6 42bf 8628 59bf 42ee 58bf da9c 083f
00000220: 9876 e23e cd63 da3e f488 87be 2362 a0bd
00000230: 5ebd 4bbe c702 493d 59d3 54bd df52 223f
00000240: 487c 02be 0993 b7bc f0c7 843f c2d4 b33e
00000250: d15c f03d a183 6a3e 02a0 abbd 1c4b 8a3e
00000260: 16c3 af3e 12f8 92be affe 9abd 6a63 ed3e
00000270: e8a4 73be 6936 3c3d 99a9 5bbe 4c1c 8fba
00000280: e0bd 8a3e 50a6 f4bd 7bf6 9dbd 84f0 dc3c
00000290: 4e95 b23e 9e98 bebe 6f6f 3abd a7d5 40be
000002a0: 9ea1 b3be c096 1bbf f5cf 8bbd 44c5 263d
000002b0: b20b 2c3e 9d6b 463d f908 81be 9d96 393e
000002c0: 2c62 903e 1cf5 6fbe d47c bdbd 5284 30bc
000002d0: b5d9 c43e 9028 46bb 44fb 623d 8370 adbd
000002e0: 9a4b 573e 6e2f d5be a89b 703e 6077 553e
000002f0: cb6c 82be 448a 19be db10 86bc 9c3d a03e
0.22448339 0.59548575 0.6227213 -0.27639225 0.006944437 0.1906516 0.18584503 0.4285421
-0.035910465 -0.12002335 -0.32792452 -0.09304116 0.03866959 -0.04490609 0.04844816 0.1024034
-0.27368924 0.08852704 -0.51839554 -0.02474817 -0.39111 0.5453337 0.2789834 0.87259936
0.4709783 -0.15652998 -0.01588691 0.0912504 -0.024802828 -0.12247714 0.23551735 0.12016206
-0.37064016 0.40717474 -0.1210272 -0.2889555 -0.44044596 0.20833555 0.14210308 0.18814121
-0.32731572 -0.16622831 0.21810201 -0.11787953 0.48705965 0.007938305 -0.7147602 0.12413024
-0.44084042 0.106732205 -0.7925727 0.40897635 0.03040293 0.05332755 0.6467625 -0.0379162
-0.10584572 0.14447594 -0.18762183 -0.15845336 -0.047763743 0.09809678 -0.35377696 0.54704154
0.51480395 -0.6166479 -0.20270675 -0.16179982 -0.15645039 -0.08518171 -0.34430498 -0.20823358
0.90364677 0.116931275 0.11728212 -0.10321307 -0.11782233 -0.21148212 0.40791228 0.050866712
-0.20646782 -0.10319648 0.2814189 -0.33525446 0.3683338 0.45989206 -0.37140283 -0.034986343
0.059126757 -0.07409904 -0.031224132 -0.2856912 -0.23773569 -0.081758894 0.14147533 -0.27999765
0.09558664 -0.12359693 0.40921497 -0.7019728 0.49340412 0.4794911 0.0675165 0.041929103
0.10020004 0.22460823 -0.56532615 -0.3611861 0.3183138 0.1328034 -0.45929503 0.25730878
0.11749403 -0.055910733 0.35473987 -0.20519176 0.059462637 -0.22894472 -0.090287775 0.11246936
0.058590114 0.26326215 -0.43883336 0.2855928 -0.0007211663 -0.49955538 -0.16237925 -0.09458149
-0.2828188 0.14738235 -0.11356891 -0.4034305 -0.76036054 -0.8482746 -0.8473855 0.53364336
0.44231105 0.42654267 -0.26471674 -0.07831218 -0.19896457 0.049074914 -0.05195937 0.634077
-0.12742722 -0.022408979 1.0373516 0.3512326 0.11736453 0.22901775 -0.083801284 0.2701043
0.34328526 -0.28704888 -0.07568108 0.4636491 -0.23793375 0.045950327 -0.21451415 -0.0010918467
0.27097988 -0.11945784 -0.07713028 0.026970156 0.34879535 -0.37225813 -0.045516428 -0.18831502
-0.35084242 -0.607769 -0.06826774 0.04071547 0.16801336 0.04844247 -0.25202158 0.1812386
0.281999 -0.23433346 -0.09252325 -0.010773735 0.38447347 -0.003023658 0.055415407 -0.084687255
0.21024933 -0.41637748 0.23496878 0.20846319 -0.25473627 -0.1499415 -0.01636546 0.31297004

actor.init_internal_node_embed.0.add_bias._bias f4 [32, 1]
00000000: 4273 023d e04b 853c 0c60 f4bc 4911 7b3d
00000010: bee8 fb3d b267 303c 263e d8bc f243 b43c
00000020: ad82 e83c 4016 a23d 8590 cc3c 5680 9c3c
00000030: 2dbf 223d 1d8c c13c a8ef c03b 2af8 83bb
00000040: b0ee 4d3c 3264 2c3c 79f6 9d3a 237f c939
00000050: deb0 43bc 1c95 b13c 322c 93bb fde6 dabb
00000060: d9e8 853d 2080 7d3c bb70 3cbc fefa 48bc
00000070: a745 693b 48b1 8fba 85ec 373c d19c 173d
0.0318482 0.016271532 -0.029830955 0.06129578 0.123002514 0.01076691 -0.026396822 0.022005055
0.028382624 0.079144 0.024971256 0.019104164 0.0397331 0.023626382 0.0058879443 -0.004027386
0.012569115 0.010521935 0.0012051604 0.00038432432 -0.011944024 0.021677546 -0.0044913525 -0.006680368
0.06538553 0.015472442 -0.011501486 -0.012266872 0.0035594495 -0.0010962868 0.011225824 0.037014786

actor.init_internal_node_embed.2.module.weight f4 [64, 32]
00000000: b0a6 7cbe 6883 653d 4fb3 0cbe d09d b53e
00000010: 29da 283e 0e0d 413d 9fea ac3d 073b e53d
00000020: f5ac 8bbe 0f3a 91be 0a50 e8bd e4bf 813c
00000030: dd23 a2be efe2 26be 052d 243d ee2d 34be
00000040: 18a5 cd3e 51d0 adbd 2236 18be 6fb9 823e
00000050: 325c 7c3d ff4a 7bbe 45e7 dbbd ccc7 26be
00000060: 97c2 ec3d 5582 ae3e 5c9d 1f3e 83ad cc3d
00000070: 717a 99bc 0934 41be fc1f 1fbe 20ac 0b3e
00000080: 0483 b4be 3c42 afbe 2b57 b9be f962 72be
00000090: fe8f 323d be42 423e f0d8 2f3b 5e9a d03e
000000a0: d970 cbbc b570 d8bd 63c4 f6bc 5cb5 5cbd
000000b0: 8269 a4be f39e db3d 4a08 5fbe b371 263e
000000c0: 8ac6 833d 4bbd ce3b 23ed c9be f10b 23be
000000d0: 0078 a33e d45f c23d 3f67 0b3e 80f8 89be
000000e0: 2601 81be e796 b93d c857 8fbc 71e3 263e
000000f0: 9a39 82be cc6b 533e 40e1 af3e 7d60 2a3c
00000100: d83c 4a3f 916e 3ebe 4a14 0cbd 84b9 cf3e
00000110: 6cff 98be 8316 6a3e c00c 8abe 99f0 26be
00000120: 530a 323e 5199 8c3e 4a7d 143e 650f a1be
00000130: ba4a 663f 2a67 5bbe 6953 ff3d c065 48bc
00000140: de89 763e c0d8 ab3d f5e9 a93d 886f 733e
00000150: 9e21 c3be 1217 d3bd abd0 a23c bbdc 17be
00000160: edf7 223f 738c 71be 7f10 0abe 69dc 4dbd
00000170: b6f4 003e 4aaa 7c3d af35 933e 47db d83d
00000180: 51d8 acbc 5688 153f 7e54 cbbd 7b5c cdbe
00000190: 51ba 1f3d 36c8 21be 281f a0be a259 953d
000001a0: 77f5 7dbe a3fa f03b 28a0 88bd dc33 f73e
000001b0: 7cd8 0f3e 9692 12be 1f59 febd b24a 31be
000001c0: 8e9f febd acb1 27be 9fdf 2fbe a8c9 38be
000001d0: bc04 9bbe aaaf a03d 7948 7d3e ddd0 3d3e
000001e0: d52d b3be f6bf 0f3e de81 f23d 62f8 1b3d
000001f0: 1f4a 363e e5f3 083e ba5f 713d 11d3 a2bd
00000200: 9ab9 a9be 3bcc 2fbd 084a 003e 8ce8 c9ba
00000210: d0be 3cbe fa1c 6cbb c7c5 f8bd 4f03 71bd
00000220: df8f c93d 961f d73d fbe1 753d 54f0 84be
00000230: f020 b13c 4b49 8a3e d802 0a3e 287c 3ebc
00000240: 5102 f03d 8f7e 6a3d 440b 95be d9e3 39be
00000250: 261c 1bbd ba5e 84bd cdbb 113f 7930 40be
00000260: 6e6c e9be 91c7 153d 8eb4 113e 51b3 243c
00000270: 0268 703e 0b51 8fbc d1fd 2b3e 71fe e73b
00000280: c903 c3be 4fa0 933d 607b ebbd 839f 813d
00000290: d5f7 1d3f d1e4 2e3e bc44 953e 091a c8be
000002a0: 556c a13e b84b f13e b3f0 1a3f 102a 3b3e
000002b0: cbe7 073e a142 4a3e 8b7d bb3e d6b1 24bc
000002c0: 4596 57be d06d aa3c 89d2 973d b49a 1ebe
000002d0: 2e52 c13e a6c4 dfbc 837b 8dbd 21c9 9bbd
000002e0: dd08 68bf 934f 893d e10c 80be c31b 6fbe
000002f0: b929 88bd 18cc aa3b 7488 d23e d631 70bd
00000300: 329d e23c 134e 62be 242c 1dbe 032a f3be
00000310: 6bde 893d cea5 733d bf27 6fbd 4efd b4bd
00000320: 0706 1dbe 81ea 153f e65b bfbd f59f b83d
00000330: a7e2 353f b64c 11bd 0397 2a3e 26ed 49bd
00000340: 27b0 67be 840f 82be f1d9 2a3f c36b 473e
00000350: 7758 93be 8bff 953d f5a7 4cbe 632b aa3d
00000360: 3783 74bf f766 8abe 2fee d13d a530 3b3d
00000370: 9247 753e 8ded 8d3e 4ef1 1dbd f4a6 2dbe
00000380: 02a4 463f b549 603e 1874 903e 5455 c63e
00000390: 0e09 16be 9320 df3d f0c1 913e 2c11 ea3d
000003a0: f087 77be 66d7 c2be 0edc 0ebc 1ac5 6fbe
000003b0: 55c2 063f e76e b5be 1fc7 54bd 598b 3e3d
000003c0: 57ee 213d 8620 20bd 493d 863e 18e2 20bd
000003d0: 6b40 47bd a3f1 33be ee17 a23d d20d a83d
000003e0: 6dca 2c3f dc4e ad3c a9cb 6a3e 4fc9 0dbd
000003f0: 5760 3d3e eeb7 ae3e 814d ecbe 4b14 25be
-0.24672961 0.056033522 -0.13740276 0.35471964 0.16489471 0.04713159 0.08443188 0.11192899
-0.27280393 -0.28364608 -0.11343391 0.01583857 -0.31667987 -0.16297506 0.040081996 -0.17595646
0.4016502 -0.08486999 -0.148644 0.255321 0.06161136 -0.24540327 -0.107374705 -0.16287154
0.115605526 0.3408381 0.15587372 0.09994032 -0.018735142 -0.18867506 -0.15539545 0.13639879
-0.35256207 -0.3423022 -0.36199316 -0.23670568 0.043594353 0.18970773 0.0026832186 0.40742773
-0.024834083 -0.10568372 -0.030122941 -0.053883895 -0.32111746 0.107236765 -0.21780506 0.1625431
0.06434353 0.0063091866 -0.39438733 -0.15922524 0.3192749 0.09490934 0.13613604 -0.26947403
-0.2519619 0.090619855 -0.017497912 0.162977 -0.25434572 0.2064659 0.3435154 0.010398981
0.7899909 -0.18596865 -0.034199037 0.40571225 -0.2988237 0.2286015 -0.26962852 -0.16302718
0.17386751 0.2746072 0.14500919 -0.31457058 0.89957774 -0.21426073 0.12467081 -0.01223129
0.2407603 0.08390951 0.08296577 0.23773015 -0.38111585 -0.10307135 0.019874891 -0.14830296
0.63659555 -0.23588733 -0.13482855 -0.050259028 0.1259335 0.061685838 0.28751895 0.10588699
-0.021099241 0.5841116 -0.09928225 -0.4010962 0.038996045 -0.1579903 -0.3127377 0.07292487
-0.24800669 0.007354097 -0.066711724 0.48281753 0.14047426 -0.1431373 -0.12419342 -0.1731365
-0.124327764 -0.1637637 -0.17175148 -0.18045676 -0.3027705 0.07846005 0.24734677 0.18536706
-0.34995905 0.14038071 0.118411765 0.038078673 0.17801712 0.13374288 0.058929183 -0.07950414
-0.33149415 -0.04291938 0.1252824 -0.0015404387 -0.18432164 -0.0036028014 -0.12147098 -0.058841046
0.09841894 0.105040714 0.060029965 -0.25964606 0.021622151 0.27009043 0.13477647 -0.011626281
0.11719192 0.057249602 -0.29110157 -0.18153323 -0.03786864 -0.0646338 0.56927186 -0.18768491
-0.45590538 0.036567274 0.14229032 0.010052518 0.23477176 -0.017494699 0.16796042 0.0070798923
-0.38088825 0.07208311 -0.11498141 0.063292526 0.61706287 0.17079474 0.29154003 -0.39082363
0.31527963 0.4712808 0.6052353 0.18277764 0.13272016 0.1975198 0.3661922 -0.010052165
-0.21053417 0.020804316 0.07413203 -0.15488702 0.3775801 -0.027315449 -0.069083236 -0.07606722
-0.90638524 0.06704631 -0.25009826 -0.23350434 -0.06648583 0.005212318 0.4111973 -0.058641277
0.027662847 -0.22100095 -0.1534887 -0.4749299 0.06731876 0.059484296 -0.058387514 -0.088373765
-0.1533433 0.5856095 -0.093437 0.090148844 0.7104897 -0.035473548 0.16659169 -0.049298428
-0.2262579 -0.25402462 0.667388 0.19474702 -0.2877843 0.073241316 -0.19985946 0.083090566
-0.9551272 -0.2703168 0.10250508 0.045700688 0.23953083 0.277203 -0.038560204 -0.16958219
0.77594006 0.21903117 0.28213573 0.38736975 -0.14651892 0.10894885 0.28468275 0.114290565
-0.2417295 -0.3805496 -0.008719457 -0.23415032 0.5264028 -0.35436174 -0.05194771 0.04651961
0.03953394 -0.039093517 0.26218632 -0.03927812 -0.048645418 -0.17572646 0.079147205 0.08205761
0.6749638 0.021155767 0.22929253 -0.03461581 0.18493782 0.34124702 -0.4615288 -0.16121022

actor.init_internal_node_embed.2.add_bias._bias f4 [64, 1]
00000000: d8c1 7abc dfb9 4fbd 379e c03d f14c 55bd
00000010: 9fe2 14bd 57cd 323d 175e 4ebd 825a ba3d
00000020: e2b6 483b 16ab 73bd 6dfd 8cbc cfe7 0ebd
00000030: 4674 0dbe a4b2 50bd 8728 f1bc dd5f f53c
00000040: e23f 90bd 9b54 51bd 0499 18be f716 5a3c
00000050: e79c 83bd 2f69 22bd b7d3 8f3c ff99 b83d
00000060: 9c87 bdbc 7e2a 2cbc ecdc a3bc c2d0 a7ba
00000070: e0b2 933c b8ae d7bd 7f52 943d ee33 05be
00000080: 6ed1 ca3d 0048 ac3d da83 15bd e97c 36bd
00000090: ca70 653d d546 0ebd a372 bf3c f469 883d
000000a0: 39ed 54bd fdc7 48bd 7f0a 733e 795a 51bc
000000b0: a4af 9bbd fda2 c7bc b2f8 353d bb0c 413d
000000c0: 7927 733d ac22 07be f69e 5c3d 9ebd 9a3d
000000d0: 2c5f 8f3d bf01 dfbd 4ac2 1fbd 5c51 0c3e
000000e0: bed4 103e 373c b33b 517c 2cbb 3dfc 093b
000000f0: 0dda 0cbd b073 6e3c d38a 5fbd 860f 963d
-0.015305005 -0.05071437 0.09405177 -0.05207533 -0.036348935 0.04365286 -0.0503827 0.09099294
0.0030626585 -0.059489332 -0.017210687 -0.03488904 -0.13813886 -0.050951615 -0.02943827 0.029952938
-0.07043435 -0.051106077 -0.14902121 0.013311139 -0.06426411 -0.039651092 0.017557008 0.090137474
-0.023135953 -0.010508178 -0.020002805 -0.0012803304 0.01802963 -0.10531372 0.072422974 -0.13008091
0.09903227 0.084121704 -0.036502697 -0.044552717 0.056015767 -0.03473552 0.023370093 0.06660834
-0.051984046 -0.04901885 0.23734473 -0.012777918 -0.0760186 -0.024369711 0.044426627 0.04713128
0.059363816 -0.1319682 0.053862534 0.07555698 0.070005745 -0.10889005 -0.039003648 0.13702911
0.14143655 0.0054698247 -0.0026319216 0.0021054887 -0.034387637 0.014553949 -0.054575752 0.073271796

actor.init_leaf_node_embed.0.module.weight f4 [32, 8]
00000000: 329f 20be a8fa f7be 378f b53e 56aa af3e
00000010: f7fc 463e 040c bd3e d68f aabe 3fc3 9ebe
00000020: 26c8 07bf 5439 2bbe 21fc 883e c092 bf3d
00000030: 77f5 4b3e e1fd 84be 968d 7a3e 9304 58bd
00000040: 83c6 9c3b 4b95 a13d b5a5 8fbe 6dfa 1fbd
00000050: 4a3a 40be 2c73 29be 6601 a23d b765 c5bd
00000060: 5993 51be 967d 213e 17ce e13e 13f9 5dbe
00000070: 7014 013e d795 4c3e 137c 80be dba0 493c
00000080: 0144 a93d 3dcd 13bf 8f18 cf3e 2686 45be
00000090: 9ca4 17be bc26 ba3d 862d 2abe 19bb 113e
000000a0: 05bd c5be e014 833c 3496 a0be c494 2d3e
000000b0: bad6 58bd 0a50 ec3d 3ec0 2bbe 665a 303c
000000c0: 6a67 acbe 1f03 fb3d 2899 c4bd 25e1 063e
000000d0: ae61 89bc 2900 09be 9eb3 393d 9228 273e
000000e0: 9b89 9f3e 974f 4c3e b6d4 c73e a06a bfbd
000000f0: bef3 40be 265b 9ebd c2df 28bf 7b28 a8bd
00000100: b321 42bd f1e3 d53d e5d4 483e 4b8d a8bd
00000110: 87dc 18bd 859d 873e a02f 573d 6a5c 323d
00000120: 5c90 1dbf 62cb cbbe a4ba 1d3d c59f 873e
00000130: 99f1 003f 608b a4be e55d d7ba b95f 04bf
00000140: d908 aabe c4d3 1d3e 1ad7 efbe 856f 3fbe
00000150: 7cc2 c33e f005 323e 5b21 6bbe b45d ffb9
00000160: 269b 5c3d 7a0a d4bd 97ec 9a3e 2369 a8be
00000170: 12ad c5bd a05a c9be eb3e d63e 2994 583c
00000180: b0d4 17be 1397 a1bd 4da9 773e 9158 0f3f
00000190: b85f 423e 7621 7a3e 4adf ad3e 1e36 de3e
000001a0: f5db c63d 6509 a03e 0010 513e ff88 32bd
000001b0: 83be e8be d940 6abd 3f4e 4abd eb74 65be
000001c0: c02b ea3e 00c7 f63e 5c44 953e fa9e 9b3e
000001d0: 218e b3bb 61ff afbd 2050 0a3e 16e2 1d3e
000001e0: 78d7 163c 5b28 3ebe 29ea 94bd 882a 893e
000001f0: 3923 23be f716 783e 8dd3 2d3d abae 313e
00000200: ca60 6b3e fdd9 a43e 7687 9cbd b157 01bf
00000210: a976 ce3c 41d7 a6be f785 63be adf6 2d3e
00000220: b794 9abe d89e 903e bb22 a6be 6130 d53e
00000230: cd11 3fbe 01df a4bd 78f0 57be e2f2 623e
00000240: 2ee8 983d 4692 c3bd 662d 4fbf d633 e5bd
00000250: 688e 923e 4596 ac3e 5811 bf3d b951 23be
00000260: b885 50be d3ad edbd cad7 02bf 3bae 1c3d
00000270: 932c f3bd 0792 04bd 863e 7f3e ca62 9fbd
00000280: 7ccc 213e 8bb0 53bd 6a2c a53e 5c33 b13e
00000290: f6d1 b73e 941e d53c 7672 963e ada4 9cbd
000002a0: 40df 9fbe 3465 683e 397e 1d3e fde7 0bbe
000002b0: 4c77 9b3e e5c8 9dbe d02c 2bbd 857a 493e
000002c0: 56be 383e 1664 82be 64ac 76be e5b7 b5be
000002d0: bb9d 8a3e e023 3a3d 12fd e13e 0d1c 6b3e
000002e0: 9c51 c2bd a303 fc3e c881 333e 285f fbbe
000002f0: 4a37 6bbc 120b 273f acdd 0f3e 113e ca3e
00000300: ef85 00be 29fa 9bbe 07fc d8bd ef85 c2bd
00000310: 558f 643e 51fb 20be 5ed5 9abd ca4f 163f
00000320: 37ae 30bc 89c6 83be 60f6 d0be 7d85 8d3e
00000330: 834f 4cbe 3415 13be 9e2c a2bb cf25 ba3e
00000340: 554c 92be 33ea 293e 0c74 2a3e f5d6 57be
00000350: a4fb cebe 6c38 c5bd b90b d03e b112 44be
00000360: 3068 6fbe 5aab 773e 4cbc a83e 5d79 823e
00000370: 63dc 0ebc 3cd8 9c3e 655c 9c3e 15dc 43be
00000380: e187 9d3c 996a e1bc fd83 b03e 5fda 2abe
00000390: 8753 fdbd ff0c 08bf 6038 76be d6e0 b8bd
000003a0: cc69 dd3e 8368 b23e e9b2 a9be 5d01 b43e
000003b0: 25a1 1c3f b087 283d 73cd 243e 624f ffbe
000003c0: 607b 883d b443 b6be d52e 02be c090 c8be
000003d0: 7ee2 89be f609 e73e 9b47 a33d 763a 80be
000003e0: e4b0 f3be 0ada 8d3c ff3f 8ebe da3d cbbd
000003f0: 73bd adbe f151 3cbe 6bf0 8d3e b203 55be
-0.15685728 -0.48433423 0.35460827 0.34309644 0.19432436 0.3692323 -0.33312863 -0.31008336
-0.5303978 -0.16721088 0.2675486 0.09354162 0.19917856 -0.25974944 0.24468073 -0.052738737
0.0047844066 0.078898035 -0.28056112 -0.039057184 -0.18772236 -0.16547841 0.07910423 -0.09638541
-0.20466365 0.15770563 0.44102547 -0.21677046 0.12605453 0.19979034 -0.2509466 0.012306417
0.08264924 -0.57735044 0.40448424 -0.19289455 -0.14808887 0.09089419 -0.16618928 0.14231528
-0.38620773 0.016001165 -0.31364596 0.16951281 -0.052939154 0.11538704 -0.16772553 0.01076374
-0.3367265 0.12256455 -0.09599525 0.13171823 -0.01677021 -0.13378967 0.045337312 0.1632407
0.31159672 0.19952236 0.39029473 -0.09346509 -0.1884298 -0.07732229 -0.6596643 -0.08210846
-0.04739542 0.10443867 0.19612463 -0.082300745 -0.037319686 0.26487365 0.052535653 0.043545164
-0.615484 -0.39803606 0.038508072 0.26489082 0.5036865 -0.32137585 -0.0016431181 -0.5170856
-0.33209875 0.15412813 -0.46843797 -0.18694885 0.38234317 0.17385077 -0.22961943 -0.00048707204
0.0538589 -0.10353561 0.3025863 -0.32892713 -0.09652151 -0.39326954 0.41844878 0.013218918
-0.14827228 -0.07890143 0.24185677 0.55994517 0.18981826 0.24426827 0.3395942 0.43400663
0.09709922 0.31257167 0.2041626 -0.04358768 -0.4545785 -0.05719075 -0.049391028 -0.22407882
0.45736504 0.481987 0.29153717 0.30394727 -0.0054795896 -0.085936315 0.13507128 0.15418276
0.009206645 -0.18570082 -0.07271225 0.2679026 -0.15931405 0.2422751 0.04243808 0.17351787
0.22986141 0.32197562 -0.076430246 -0.5052443 0.025203066 -0.325861 -0.22219072 0.1698863
-0.30191585 0.28246188 -0.32448372 0.41638473 -0.18659134 -0.08050347 -0.21087825 0.22162965
0.0746616 -0.09549384 -0.8092865 -0.111915275 0.28624272 0.33708397 0.0932948 -0.15949143
-0.2036351 -0.1160542 -0.5111052 0.038252097 -0.11873736 -0.032365825 0.24926195 -0.077825144
0.15800661 -0.051682036 0.32260448 0.34609497 0.35902375 0.026015557 0.29384202 -0.07648597
-0.31225014 0.22694856 0.15380181 -0.13662715 0.30364454 -0.30817333 -0.041790783 0.19675644
0.18041357 -0.25466985 -0.240892 -0.35491863 0.27073464 0.04544437 0.4413839 0.2295992
-0.09488222 0.49221525 0.17529976 -0.49096036 -0.014356444 0.65251267 0.14049405 0.39500478
-0.12551092 -0.30464295 -0.105949454 -0.09498202 0.22320302 -0.1572087 -0.07560228 0.587155
-0.010783724 -0.25737408 -0.4081297 0.27640906 -0.19952206 -0.14363557 -0.0049491664 0.3635697
-0.28573862 0.16593246 0.16645831 -0.21078093 -0.40426362 -0.09629902 0.40633944 -0.19147755
-0.23379588 0.24186459 0.3295616 0.25483218 -0.0087195365 0.30633724 0.3053924 -0.19126923
0.019229831 -0.02751665 0.344757 -0.16684864 -0.12369447 -0.5314483 -0.24044943 -0.09027259
0.4324478 0.3484536 -0.3314431 0.3515729 0.6118339 0.041145027 0.16093998 -0.49865252
0.06664157 -0.35598528 -0.12713178 -0.39172935 -0.26930612 0.45124787 0.07972642 -0.25044602
-0.47595894 0.017315883 -0.277832 -0.099239066 -0.339336 -0.18390633 0.27722487 -0.20802191

actor.init_leaf_node_embed.0.add_bias._bias f4 [32, 1]
00000000: 41ab 2e3e 2e89 90bc c775 98b9 bad0 b23d
00000010: ead9 263c 1d77 14bd d65c a63c bd09 e03c
00000020: 59df 09be 8143 fc3b d886 3bbd 975c 60be
00000030: 0370 933e e664 4cbc 4c1d fdbc 755e c2bc
00000040: f9ec be3c 5c0f 24bd b3b2 adbd 8759 213e
00000050: 7fd2 46bd ab47 39bd 2f59 133d 0ef1 19bc
00000060: a6b7 5a3d b58e 83bd d411 15bd c50c ce3c
00000070: 20af 11be d973 973e f3be e13c 163d 85bd
0.17057516 -0.017643537 -0.0002907945 0.08731218 0.010183791 -0.036246408 0.02030794 0.027348394
-0.13464107 0.007698477 -0.045782894 -0.2191032 0.28796396 -0.012475228 -0.030897759 -0.023726681
0.023306357 -0.04005371 -0.0848135 0.15756808 -0.04854059 -0.045234364 0.035973724 -0.009395851
0.053397797 -0.064237036 -0.036393955 0.025152573 -0.14226961 0.29580572 0.027556872 -0.06505792

actor.init_leaf_node_embed.2.module.weight f4 [64, 32]
00000000: e44a 16be 71aa acbe d152 8bbe c95b 06be
00000010: e283 3f3e 566d 933c c272 843d e8d1 113e
00000020: dcc1 4c3e 7e0b 773d ce2b 653d d307 88be
00000030: 3222 abbe bdc9 b23c 0260 83be 57d8 ebbd
00000040: ecdd 5d3e fe9b 9dbc ac83 26be aa1a b7bd
00000050: 8d1f 6e3d 2a9b 90be a22b 6d3e 2eb6 073e
00000060: 219c cf3d e34d f5be 3f5e a9bd ee53 e63d
00000070: b5a1 0f3e 4f69 65be 80ec 18bd d413 37bc
00000080: 9272 593d f746 1b3e 3f6f 733d 950e e93d
00000090: 2862 2d3d b261 073d d284 ec3d 6783 24be
000000a0: 3bce f8bd 53e0 8abe 87ef d93e aaba aabc
000000b0: 7f74 fbbc 5bc8 cc3d 8460 453e 5ff6 92be
000000c0: 4184 d6bd e314 4abe 1bcc 48be dbb1 59be
000000d0: 227a dc3d 5a28 8abd aedd 093d bd88 00be
000000e0: 2f89 dabe d6cb e3bd 6c9f 63bc a95a 6e3e
000000f0: 4afd 84be 9830 23be 21fa 2cbd 249f c73e
00000100: b375 a43e 6a59 373c b85c 1ebe beda 76bd
00000110: 7ea6 1f3e 7db0 85bd 5ee5 03be b882 f43d
00000120: 6fda dfbe 2cdb ddbd 8604 f2be 9c35 2cbe
00000130: a935 8dbe 227f 5b3d 26f5 983e d0be bbbd
00000140: 783c b0bd 2e7d 4d3e 49de a1be 16f7 f0bd
00000150: ce5e 12bd fe67 b1bd c52e d43c 067c 9ebd
00000160: f1d2 53b9 ec43 8dbd 8d3e b5bd 0ea5 eabd
00000170: f4a4 53be c32d cfbc 5149 473e 235d f63d
00000180: 4dca 123c 9ad7 713e 4f2c 353e fbd4 f33d
00000190: 1b9b ff3d 576a 063d b116 37bd f4c2 1e3e
000001a0: 7c11 86ba d364 0abe efff 3cbe 3f00 783e
000001b0: 97c1 7bbe a244 543d 7dc4 303d 071c 2c3e
000001c0: 0d06 d8bd 956e 903e 7615 97be 3cfc f03c
000001d0: 19f1 933d 62a2 163e a3bb 53be 4891 523e
000001e0: d7b2 d3bb 00cb ea3d 67cd 253e b3ca 133e
000001f0: 3696 983e 950e 7ebc 984c 573e 53b7 303e
00000200: 3ac7 8bbd e4b5 64bd 657a 853d 648c 813d
00000210: 7246 743e 3d92 eebe 6f82 6d3e f54b 11be
00000220: 9e59 4b3d c8c6 a93d bc76 01be c905 b7be
00000230: c2d5 b6bd 56a5 603e d442 043e 7c60 fabd
00000240: 1ada dbbe 75ac 8bbe f18c 2e3e 25ec 3e3d
00000250: 4c5d 90be ac25 1a3e d193 3dbd 4666 8abc
00000260: e0e1 dabd a446 ddba f758 18be efbe 1e3e
00000270: 4a3d 7b3e 0e48 243e c120 403b 5636 3cbe
00000280: 095c a03d fd10 3cbc 5dc6 3bbe 17a6 d53d
00000290: 6cc2 49be 559a 65bd bdc1 b73e f4e7 b2be
000002a0: aa52 cebd 3a7b ac3d 1b9f 46be 48f0 933e
000002b0: 35f0 0f3f 0a0c 303d e95d 2f3e 9bb3 2fbe
000002c0: 4329 093e 4d90 12bd 5bb3 55be 74e1 e3bd
000002d0: 3c2d cd3d e3b1 22be dfe4 213d 5f6c df3e
000002e0: 3134 983d be39 16be 9475 9fbd ba81 c63d
000002f0: b48e 2ebe 0d40 833e 2c86 8f3e 9e46 d4bd
00000300: 6984 923e 2d2f 9dbe 17c2 63bd f666 cd3d
00000310: 0f90 f3bd 647b 04be 6f09 253e 4f49 e53c
00000320: 4859 4d3e 89ec 21bd 472e 7b3e 43a9 363e
00000330: cfbb 363e c925 043e 075c 10be f046 b0bd
00000340: ee68 e3be 3a70 8a3e 6653 383d 687f ff3d
00000350: 5a2d d83b fdae 413c bcff 62bd 8b47 773d
00000360: 6cc9 2e3d c145 80bd f21d 96bd 60c9 093e
00000370: 2b8f 13be b80c 4d3e 3d34 b2bd e175 99bd
00000380: 2244 00be 1ada e03c bf1e f8bd 07fd 9dbe
00000390: e00c fc3d 4b8c 29bd 3b06 52be 214d 96be
000003a0: 699c 453e de8b dbbd 169e 963e 6633 5f3c
000003b0: db5e 363e 58c5 8f3d dfda 0dbe df10 a03e
000003c0: 3fa0 62be 1e72 7dbd cda7 9c3c 3a6c 9fbd
000003d0: 41cf 7b3c ab5c a33e 6452 883d 7951 9b3d
000003e0: 26da b43b ad94 5b3e a192 423e 0e35 313e
000003f0: 5e76 fcbe 5f57 b93e f767 983e 5b29 75be
-0.14677006 -0.33723786 -0.2721162 -0.13120951 0.18702653 0.017996471 0.06467201 0.14240229
0.19995826 0.060313694 0.05594998 -0.2656847 -0.33424526 0.021824712 -0.25659186 -0.11515873
0.21666688 -0.019239422 -0.16261166 -0.08940633 0.058135558 -0.2824338 0.23161176 0.1325309
0.10137201 -0.47910985 -0.08269929 0.11246477 0.1402653 -0.22403453 -0.03733492 -0.011174161
0.05308778 0.1516379 0.059432264 0.113797344 0.042329937 0.033052154 0.11548771 -0.16065751
-0.1214871 -0.2712427 0.42565557 -0.020840961 -0.030695198 0.09999152 0.19275099 -0.2870359
-0.10474444 -0.1973453 -0.1960911 -0.21259253 0.107654825 -0.06745978 0.033658676 -0.12552162
-0.42682788 -0.11122863 -0.01389299 0.23276772 -0.25974494 -0.15936506 -0.04223073 0.38988602
0.32121047 0.011190752 -0.15465057 -0.060267203 0.15590855 -0.06527803 -0.12880465 0.11938995
-0.4372134 -0.10832819 -0.47269076 -0.16817325 -0.27580002 0.05358804 0.29874533 -0.09167254
-0.086052835 0.20067284 -0.31614903 -0.11765878 -0.035734944 -0.08662413 0.025901208 -0.07738499
-0.0002020111 -0.06897721 -0.08849821 -0.11457263 -0.20668393 -0.025290376 0.19461562 0.12029483
0.008959365 0.23617402 0.17692684 0.11905857 0.12480756 0.032816257 -0.044699375 0.15504056
-0.00102286 -0.13515024 -0.18457006 0.24218844 -0.24585567 0.051823266 0.043156136 0.16807567
-0.10548029 0.28209367 -0.2950856 0.02941715 0.0722372 0.14710382 -0.20677046 0.20563233
-0.0064605284 0.114645004 0.16191636 0.14432792 0.29802102 -0.015506406 0.21025312 0.17257433
-0.06825109 -0.055837527 0.065174855 0.063256055 0.23854998 -0.46595946 0.23194288 -0.14189132
0.049646012 0.08289868 -0.1264295 -0.357466 -0.0892749 0.2193807 0.12916118 -0.12225434
-0.42939836 -0.27280012 0.17045952 0.046611924 -0.2819618 0.15053433 -0.046283547 -0.01689447
-0.106876135 -0.0016882014 -0.14877687 0.15502523 0.24535099 0.16043112 0.0029316398 -0.18380103
0.07830054 -0.01147866 -0.18337388 0.1043207 -0.19703072 -0.056055386 0.35889998 -0.3494259
-0.10074361 0.08421941 -0.19396631 0.28894258 0.562259 0.04298023 0.17125668 -0.17158358
0.13394646 -0.035782147 -0.208692 -0.11126986 0.100183934 -0.15888171 0.03952491 0.43637368
0.0743183 -0.14670464 -0.07786098 0.09692712 -0.17046624 0.25634804 0.28032053 -0.10365032
0.28616646 -0.30700055 -0.05560502 0.10029404 -0.11892711 -0.12937695 0.1611688 0.027989058
0.2005359 -0.039532218 0.24529372 0.17838006 0.17845081 0.12905039 -0.14097606 -0.0860728
-0.44415992 0.27038747 0.04500141 0.12475473 0.006597203 0.011821506 -0.05541967 0.060370963
0.04267256 -0.062633045 -0.0732993 0.13455725 -0.14410083 0.20024383 -0.0870137 -0.07493187
-0.1252599 0.027447749 -0.12115239 -0.30857107 0.12307143 -0.04139356 -0.20510189 -0.2935572
0.19297947 -0.10720037 0.29417485 0.013623094 0.17809622 0.07020062 -0.13853024 0.31262872
-0.22131442 -0.06187641 0.019122982 -0.077843145 0.015369237 0.31906638 0.0665634 0.07583899
0.0055191694 0.21443434 0.19001247 0.17305395 -0.49309057 0.3619947 0.2976682 -0.23941557

actor.init_leaf_node_embed.2.add_bias._bias f4 [64, 1]
00000000: 16f5 8ebe 84a7 fe3d f6d4 763c c96a 2bbc
00000010: e5c9 21bc f69d a23e 647c 563e 4af3 463e
00000020: 4646 c63e 2f8e 2ebe 7021 40bd cdca 8b3d
00000030: 90c2 14bd 4c0d af3d f4f7 e1be 237e 0bbe
00000040: 8c16 9dbd 41ab e13d c141 fb3c fc1d 0e3e
00000050: b037 8ebe 948f f2bc a2a6 913c f815 363e
00000060: dbec 1fbe a754 a1bb 7b47 903c 6d23 51bd
00000070: 05aa 31be 4526 903e 303c 893d e18a 2c3d
00000080: 98f3 eb3d 3ab6 6cbe d510 38be ab8c 8d3d
00000090: dad9 ea3d dbf4 a23e 6d17 bf3e aa31 e13e
000000a0: 8132 463e 1ed8 7a3e 3ab2 fbbd a8f8 f63d
000000b0: 790f 10bd 7040 86be 63ee aabe 7a77 17be
000000c0: fd4b ba3e 1da1 9cbd a9d1 46be f024 de3e
000000d0: a98d 6abb 7887 643e 61b2 97be 88f2 27be
000000e0: f89a 183e 6417 b83e c92f 2e3e 46b4 373e
000000f0: 28d3 353e 4ba7 cf3e fe46 85be d606 27be
-0.2792136 0.12434295 0.015065422 -0.010462471 -0.009874796 0.3176114 0.20945889 0.19428745
0.3872549 -0.17046426 -0.04690689 0.068257906 -0.03631836 0.08547458 -0.44134486 -0.13622336
-0.07670316 0.11018992 0.030671002 0.13878626 -0.2777686 -0.029609479 0.017779652 0.17781818
-0.15617697 -0.0049234214 0.01761221 -0.051059175 -0.17350014 0.28154197 0.06700933 0.042124633
0.11521071 -0.23116389 -0.17975171 0.06911596 0.11467333 0.31827435 0.3732256 0.43983203
0.19355203 0.24496505 -0.122898534 0.12059146 -0.035171006 -0.26221037 -0.33385 -0.1479167
0.363861 -0.076479174 -0.19415917 0.43387556 -0.0035790002 0.22317302 -0.2962828 -0.16401112
0.14902866 0.35955346 0.17010416 0.17939863 0.17756331 0.40557322 -0.26030725 -0.16311201

actor.init_next_embed.0.module.weight f4 [32, 6]
00000000: 6e8e 70be d250 2a3e 2104 abbd 638b f23e
00000010: c168 823e d439 46bd 5036 563e 9a49 a63e
00000020: 0abd 083c fac5 243e 5941 b53d 2e06 73be
00000030: 38b5 bf3d 89c8 c7be b2c4 753e addc 4cbf
00000040: b3f2 e13d 8e66 333e 99df 283f 12a8 113f
00000050: 6eaf e53d ca66 debd 2125 873e 1562 583e
00000060: 7be9 a6be cd0f 76bd 60cc 45be c3bb 3a3e
00000070: 6e5a 1b3d cc73 2ebe ea8c 34be 70ed eb3d
00000080: 3dd2 ea3e 9bef b6bc afea babe 6725 f6bd
00000090: 5abe 1abe 257a 68be 1fa7 c0bc 12e1 06bf
000000a0: 2480 c939 a366 013f d39a 4abe 5b3c bbbe
000000b0: a5ce 813e 637d c63d 392b fabd ef98 503d
000000c0: faf4 09be 9e98 82be 20c8 af3e 2c7b 6bbe
000000d0: 4e6c b03d 3fb6 ddbb e1d9 b7be c81e 21be
000000e0: e18f 14be 7a51 e83e c44b 2fbe 5f96 7abd
000000f0: 6721 903e bcdc 42bd 1fe4 18be eafd f43c
00000100: 2a5e 85be e073 cdbd fd0c 67be 0353 42be
00000110: 5b24 95be b089 c0be dc1a b9bc 890a 033d
00000120: a915 993e 41a7 28bf d1ae 32bd 6190 dabd
00000130: a0c7 ddbd 1446 66be 3dbe 073e 311c 85be
00000140: 937a 9e3e 6bdf 0b3f fa70 bd3d 605d d1bc
00000150: 8eab 07be 8cfc 593d 48ba d8bd 22f1 9bbe
00000160: 956f 953d 27e4 153e e2f4 1c3c c0c9 8c3d
00000170: b5a4 6e3e ff12 a0be c142 09bd 7873 80be
00000180: 74d2 83bd 99f8 13be 79e2 02be 0af9 1bbf
00000190: 03d7 9b3e 2f7a 793e ab88 7dbe be9e e83e
000001a0: dde7 fe3e 0833 033e 1db5 5c3e 8d44 123f
000001b0: f7e3 3bbe 7c35 6ebc 26dd b1be 15cc 9abd
000001c0: 1bec 10be 025a e6be a80f a63d 307c 65be
000001d0: c0d7 463e 4376 9c3e f338 f2bd 06d5 17be
000001e0: c9e8 af3d c4c6 ba3e e633 243e eae6 9fbf
000001f0: 5b33 89be 90b1 c33e 74e8 f33e 768e 35be
00000200: f614 aa3d 5027 ce3e 361c aa3e 48d6 183f
00000210: 9cf3 67be a690 e23c adac babd e1fa ed3c
00000220: ad47 ccbe c636 9abc 339c b9bd 4a39 42be
00000230: 5232 06be c37c ebbd 0767 a0bd 1fc8 0ebd
00000240: 4fca 67be 09fb 95bd d3cd ac3e ee24 abbe
00000250: 9407 093f 7501 b7be ae8e 09be ab12 54bd
00000260: 6e6b 113d 11f1 f5bd 9f86 f8be 89b2 be3e
00000270: 03e6 c6be 7e9e 2ebe 98f9 da3e 6d97 e03e
00000280: a241 953b d047 98be a0e1 9d3e f6a5 c8bd
00000290: 724c 0d3e 6379 a2be cd07 9f3d 3c92 19be
000002a0: 8c6f e7bd fefa d73d a5f1 04bf 1088 33be
000002b0: be85 183d e91f 833d 5046 383e 767b 2ebd
000002c0: 8101 a93e 7e39 63be ebf1 1dbe 4b86 b0bd
000002d0: b3a5 a6bd 2a72 b7bc 7ba9 81ba 394a 12be
000002e0: 637b 13bf ad84 143f ac1a 8d3d be4c e1bd
000002f0: 4dc5 1fbe 5462 b8bd d220 b43c a72e 1ebe
-0.23491833 0.16632393 -0.08350397 0.4737197 0.25470546 -0.048394993 0.20919156 0.3247803
0.008345852 0.16091147 0.08850355 -0.23732826 0.093607366 -0.39020184 0.24000815 -0.80024225
0.11032619 0.1751959 0.6596618 0.5689708 0.11215101 -0.10859449 0.26395515 0.21131165
-0.32600006 -0.060073663 -0.19316244 0.18235688 0.037928037 -0.1703636 -0.1763188 0.11519897
0.45863524 -0.02233105 -0.36507174 -0.12018853 -0.15111676 -0.22702844 -0.02351719 -0.5268718
0.0003843318 0.50547236 -0.19785623 -0.36569485 0.2535297 0.09691884 -0.12215275 0.0509271
-0.13472357 -0.25507063 0.3433237 -0.22996205 0.086144075 -0.00676611 -0.35908416 -0.15734398
-0.1450801 0.45374662 -0.17118746 -0.06117856 0.28150484 -0.04757379 -0.14930771 0.029906232
-0.26048404 -0.10031867 -0.22563548 -0.18976979 -0.291293 -0.37605047 -0.022595815 0.03199247
0.29899338 -0.6588021 -0.04362375 -0.10672069 -0.10829091 -0.2248767 0.13256164 -0.2599807
0.30952892 0.54637784 0.09250064 -0.02555722 -0.13249037 0.053219363 -0.10582405 -0.30457407
0.07296673 0.14637814 0.009579869 0.06874418 0.23305018 -0.31264493 -0.033510927 -0.25088096
-0.06436625 -0.14450301 -0.12781705 -0.6092688 0.30437478 0.24363016 -0.24759166 0.4543361
0.49786273 0.12812436 0.21553464 0.5713585 -0.1834868 -0.014539119 -0.34739035 -0.07558457
-0.14152567 -0.44990546 0.08108455 -0.22410655 0.1941824 0.30558977 -0.118272685 -0.14827356
0.08589322 0.3647977 0.16035423 -1.2492344 -0.26796994 0.38221407 0.47638285 -0.17730126
0.08304779 0.40264368 0.33224648 0.5970197 -0.22651523 0.027656864 -0.091149665 0.029050292
-0.39898434 -0.018824946 -0.09062996 -0.18967167 -0.13105133 -0.11498406 -0.07832151 -0.03485882
-0.22635768 -0.07323272 0.3375078 -0.33426613 0.5352719 -0.357433 -0.13433334 -0.051775616
0.035502844 -0.120088704 -0.48540208 0.37245587 -0.3884736 -0.17052647 0.4276855 0.4386553
0.004554943 -0.2974229 0.308362 -0.097972795 0.13798693 -0.31733236 0.0776516 -0.1499719
-0.11300573 0.1054592 -0.5193122 -0.17532372 0.03723692 0.06402571 0.17995572 -0.04259821
0.3300896 -0.221899 -0.15424316 -0.08619364 -0.08137073 -0.022393305 -0.0009892428 -0.14286126
-0.5761015 0.5801495 0.06889853 -0.110009655 -0.15602608 -0.090031296 0.021988306 -0.15447484

actor.init_next_embed.0.add_bias._bias f4 [32, 1]
00000000: 93ac 1d3f 9cc5 dcbd 2a7f d1bd 19da e03e
00000010: b677 293b 1d06 1cbd f265 963e 9edb e7bc
00000020: f0b2 24bd 783e 68bd 575c 2bbe 7f3b 813e
00000030: 5e60 54bc 73b5 a43e 7da7 99bd 2851 e8bc
00000040: 3f63 d3bc ca39 aa3e b5e9 69bc c15d 09be
00000050: e753 0c3f 28a8 0d3e 41f4 843c 8136 30bd
00000060: ec41 acbc 4fa3 85bd 6b6e 28bd 8f5e febb
00000070: 439e fbbc fb15 0dbc 95a3 86bc 0e49 a83b
0.6159145 -0.107798785 -0.10229333 0.43916395 0.0025858707 -0.038091768 0.29374653 -0.028302964
-0.04020971 -0.0567002 -0.16734444 0.25240704 -0.012962429 0.32169685 -0.07502649 -0.02835901
-0.02580416 0.33247215 -0.0142769115 -0.1341467 0.54815525 0.13833678 0.01622975 -0.04302073
-0.021027528 -0.06525289 -0.041120928 -0.007762737 -0.030715114 -0.008611198 -0.016435424 0.005135662

actor.init_next_embed.2.module.weight f4 [64, 32]
00000000: efe0 a8be 4dcf e13d 20ea bf3d 1e63 163e
00000010: bfdf 333e d0c6 e9bd 87e9 093d de43 8f3e
00000020: f893 f83d e150 2a3d 91fc 0c3e de6a 79be
00000030: 88cd 123b 3fee 013e 82c3 4d3e 4d74 98bc
00000040: 9ad2 aa3e e6a7 743e fdd2 a1bc 0fef 2a3e
00000050: cde7 963d 356e 1dbe 7e30 813e 289c 073f
00000060: 3ee0 913d 25cd ac3c e0c9 3dbb 56e9 19be
00000070: fe4c 96bd a3b6 e1bd 6ee8 1b3c 197a d5bd
00000080: 0f08 cb3e 3665 b2bc a74a 11be 9988 d73d
00000090: 39be 4b3e 4f19 2e3e a5d3 95be dac2 e73d
000000a0: d118 16bd 70e0 a53d 26ab 0cbe 88cf 91be
000000b0: f4e7 8bbe 6b4f dd3d 23b5 da3e b592 943e
000000c0: 9b59 89be 1a4e f43d 0df8 1d3e 57fd 80be
000000d0: 1fda bcbe 322d e5bd 95b5 69be fb1b 82bd
000000e0: 29f2 57bd ba75 f63d 869d a83d 7f84 20be
000000f0: 57a6 983d ffbe 763d fbd7 94bd 06a6 04be
00000100: 02e3 283e b740 c73e 2af2 a63d ae38 ea3d
00000110: ac16 823d 4ce4 fa3d 01ce 113e 37f5 6fbe
00000120: a4e8 0e3e 0409 f9bd fe88 7abd 6e23 8bbe
00000130: 85a7 00bd 5f06 c3be 443b 00be 70af 0b3c
00000140: 6118 3a3c ffb0 80bd b0b6 2c3d c90a a6be
00000150: 67ed b0be 0247 bc3e 051e 2a3e 6c6d e0bd
00000160: 011d 243e d010 a7be 88b1 1e3d 735b 213e
00000170: 7665 843e 779b c0bd 67b3 aebe c00f 383e
00000180: 9414 103f b345 7d3e c998 1bbe 58f8 8c3e
00000190: 9274 3b3e a098 74bc 63ea 8b3d 4c85 febc
000001a0: 5176 313c 58d6 c63e 1f8c 183e 99c9 c03e
000001b0: 65e6 963d 95ba a13e 31fe 39be bdaa a83d
000001c0: dac6 1e3e 5ca2 a73e 297c d9bd 4c00 363e
000001d0: 179d 973e 2798 243e d66f fdbd a8df 8dbe
000001e0: 59b8 5abd a751 8bbc efdc 87be e164 1c3e
000001f0: ad98 ca3d 4f3e 383d a7eb 533e 90ab 063d
00000200: 240c e03e 9d53 b1bc 2aad e3ba 31cd 9f3e
00000210: 3020 5d3e 4ea6 2b3e 9b7e 9d3d a255 283e
00000220: d6db 343e 2247 b9bd 789a aabc 09fa abbd
00000230: 6f67 0cbe 597a 883c c66b 38be c70a a8be
00000240: 2e16 c23d 1428 a03d fc08 2c3d 28a1 96be
00000250: 98c0 e63e b56a 423e 00eb 83bc af97 80bc
00000260: 6e74 2a3e e592 393e 5a5a 233e e104 c7bd
00000270: 1b8c 6b3d 7c6d 183d eac1 ec3d b875 f0bd
00000280: d5a6 0ebf d93b 01bf b8df 75bd ecc1 e7be
00000290: 7774 8d3c 3e12 1b3e d389 33be fdc8 1a3e
000002a0: ee4f ba3d 6a17 093e 90d7 52be 0814 87be
000002b0: 2032 e0bc 4498 29bd d4be 62bd 24cc 033e
000002c0: 2e00 5a3b 884e 533c fee5 2c3e 5e01 30bc
000002d0: f900 f0be d0cd 42bd 8566 903d 5feb 80bd
000002e0: 6be3 68be 0631 61be 2f53 0bbe 6b4e 36be
000002f0: ed47 fe3d c2bc 58be 3d53 ae3a 8a16 2cbe
00000300: 8572 323e 3d4e 29be 6c26 86bd be58 b13d
00000310: bc01 e8bc 5d83 9c3d 87a1 a3bd 9fb7 49bc
00000320: 0499 ed3e fb33 653d e133 2cbd db62 6bbd
00000330: fd2c 51be 2a21 83bc 1551 b0be a45b 8cbe
00000340: 92f7 dbbe 7ef5 903c 6fde b0be a324 10be
00000350: fa02 f7bd 912e cd3c d400 8a3d 0bf8 9ebd
00000360: c38f 55bd fdb9 38be e1a4 043d 08f1 fc3c
00000370: 8a59 95bd fca7 4e3e a428 abbc 6a1f 183e
00000380: 1f1b 2e3f 30e1 173e 5a83 de3c 7583 923e
00000390: e211 df3d 9474 73be fe9b 193d 4c49 153e
000003a0: 09e3 46bd f962 d83d 83e3 373d 6ca6 013f
000003b0: c102 ae3e 457a 21be 50fd 903e 8ea6 20be
000003c0: 6fdd bf3d 61b7 443e 4950 673d 3333 98bd
000003d0: 3665 1ebe 9df6 0f3f b43c 2d3e 48df 8c3d
000003e0: a412 633e 35de 4c3d e97f 89be c1c5 e7bd
000003f0: e0f4 34be 2ed5 2dbe a268 cc3e c7ca 493d
-0.3298411 0.110258676 0.09370828 0.14686248 0.17565821 -0.114148736 0.033669975 0.27981466
0.12137598 0.04158104 0.13768221 -0.24357173 0.0022400338 0.1268854 0.20094112 -0.018610144
0.333638 0.23892173 -0.019753927 0.16692756 0.07368431 -0.15374072 0.2523231 0.5297265
0.07122849 0.021093914 -0.0028959438 -0.15030417 -0.07338904 -0.11021163 0.009515865 -0.10423679
0.39654586 -0.021776777 -0.14188634 0.10524101 0.19896783 0.17001842 -0.29263034 0.11316462
-0.03664476 0.08099449 -0.13737163 -0.28478646 -0.27325404 0.108061634 0.4271632 0.2901818
-0.26826176 0.11928959 0.15426655 -0.25193283 -0.36885163 -0.11190261 -0.22823174 -0.06352993
-0.052721176 0.12034173 0.0823317 -0.15675543 0.07453602 0.06024074 -0.072677575 -0.12953958
0.16492847 0.3891656 0.08151658 0.11436592 0.063519806 0.122505754 0.1423874 -0.23433386
0.13955933 -0.12159923 -0.061165802 -0.27175468 -0.03140976 -0.38090798 -0.12522608 0.008525714
0.011358351 -0.06283759 0.042166412 -0.32430103 -0.34556124 0.36772925 0.16613014 -0.109583706
0.16026689 -0.32630014 0.038743526 0.15757541 0.2585866 -0.094046526 -0.34121248 0.17974758
0.562814 0.2473362 -0.15195002 0.2753322 0.18306187 -0.014928967 0.06831815 -0.03106942
0.0108314315 0.38835406 0.14897202 0.37653807 0.07368163 0.31587663 -0.18163373 0.08235691
0.15505543 0.32741058 -0.10619385 0.17773551 0.29612038 0.16073667 -0.12374847 -0.277097
-0.053398464 -0.017006708 -0.26535746 0.15272857 0.09892402 0.044981297 0.20695363 0.03287846
0.43759263 -0.021646315 -0.0017370332 0.31211236 0.2159431 0.16762659 0.07690164 0.16438916
0.17661986 -0.09046771 -0.02082561 -0.083973 -0.13711332 0.016659902 -0.18009862 -0.32820722
0.09476887 0.07820144 0.042000756 -0.29419827 0.45068812 0.18986018 -0.016103268 -0.015697328
0.16645977 0.18122442 0.15952435 -0.097177275 0.05750666 0.037213787 0.11560424 -0.11741203
-0.55723315 -0.50481945 -0.060027808 -0.45265138 0.017267449 0.15143678 -0.17533045 0.15115733
0.09097277 0.13387838 -0.20590043 -0.2638247 -0.027367651 -0.041404977 -0.05535777 0.12870842
0.0033264267 0.012897141 0.1688461 -0.010742513 -0.46875742 -0.04755956 0.07050804 -0.062948935
-0.22743003 -0.21991357 -0.13605951 -0.17803352 0.124160625 -0.21165755 0.0013299953 -0.16805473
0.17426498 -0.16533752 -0.06550297 0.08659504 -0.02832114 0.07642243 -0.07989793 -0.012311845
0.46405804 0.055957776 -0.042041663 -0.057467323 -0.20427318 -0.016007025 -0.3443686 -0.27413666
-0.4296232 0.017695185 -0.34544703 -0.14076476 -0.120611146 0.025046619 0.06738439 -0.07762154
-0.052139055 -0.18039699 0.032383803 0.030876651 -0.07292469 0.20181268 -0.020893402 0.14855734
0.68010134 0.14831996 0.027162243 0.2861592 0.10892083 -0.2377494 0.03750228 0.14578742
-0.04855636 0.105657525 0.044894706 0.50644565 0.33986476 -0.15769298 0.28318262 -0.15688536
0.09368407 0.19210579 0.05647305 -0.074316405 -0.15468296 0.56235677 0.16917688 0.06878525
0.2217508 0.0500166 -0.268554 -0.113170154 -0.17671537 -0.16975853 0.39923579 0.04926565

actor.init_next_embed.2.add_bias._bias f4 [64, 1]
00000000: 229e 34be c4e6 1fbd 0f3f 1abd 2247 3b3f
00000010: 2430 d83e 0f87 36bf 1ec2 563d 5807 0d3f
00000020: a268 babe acef c13c 4dbe ae3d 0cbe 883e
00000030: 2910 013e 8374 afbe a9a8 053f 889d e1be
00000040: 3d18 b53d f61d b43e fb0f 2d3d cbc8 8a3e
00000050: ec73 59be be5e c1bc e645 1bbe 6673 c6be
00000060: c19a 23be 9532 40be f368 28bf 3c15 babb
00000070: 88b1 593f 8bd9 e8bc 0e13 3cbe 9880 e93e
00000080: 8081 a6bd 8d51 d03d a3b3 5cbd 57ec 05be
00000090: 66a2 c6be baa9 16bf 6293 10bf 50fe 17bf
000000a0: 1865 57be 2350 c7bd 2a02 57be bef5 9abe
000000b0: 54e4 a5be ced6 1a3f 2f58 a53d 3e42 85bd
000000c0: 4355 023f 6639 363e c413 71bf 8614 ebbe
000000d0: e21c a53d 84b2 d2be 3751 413f db9a a0be
000000e0: e047 17bd b477 1bbf ba92 17bd 71a7 b93e
000000f0: 9c2a 1e3e 206a 6f3e 5b05 8dbe e523 5cbc
-0.17638448 -0.039038435 -0.037657794 0.73155415 0.42224228 -0.71299833 0.05243122 0.5508933
-0.36407954 0.023673855 0.08532391 0.26707494 0.12603821 -0.3426858 0.5221048 -0.440655
0.08842514 0.35179108 0.04225157 0.27106318 -0.21235627 -0.023604747 -0.15163383 -0.38759917
-0.15977003 -0.18769296 -0.6578514 -0.005678801 0.85036516 -0.028424045 -0.18366644 0.45605922
-0.08130169 0.101718046 -0.053882252 -0.13078438 -0.38795775 -0.5885273 -0.5647489 -0.59372425
-0.21034658 -0.09732082 -0.2099692 -0.3026561 -0.32400763 0.60484016 0.0807346 -0.06506775
0.5091135 0.17795333 -0.94170785 -0.45914096 0.080621496 -0.41151822 0.7551455 -0.31368145
-0.03693378 -0.6072953 -0.037005164 0.3626056 0.15445942 0.23380327 -0.27543148 -0.013436292

actor.embedder.layers.0.0.module.W_query.weight f4 [64, 64]
00000000: 27c8 a6bd db27 b13c acaa 3cbe 0c2a 94bd
00000010: df07 06be 923b f03c 3171 47bd 5fe8 ffbd
00000020: 414b 3f3c 2b54 72bd 0c3e 253d f2b0 023c
00000030: 37f4 0d3e 6d4e bf3d fdbf bfbd 4c19 fcbb
00000040: 373b ffbd ed1e d13d 7cf1 0ebc a0da 8f3d
00000050: b0f9 09be b9b8 3d3d 8944 bbbd ca94 51bd
00000060: 8492 66bc b4ab 753d 9fac 8e3d 1318 cdbd
00000070: f3e1 10be 50d9 023e 432e 8ebd 84ba 893c
00000080: 88a4 a53d 7464 0bbe a02b c1bd 39ed eb3c
00000090: 3577 8fbd b975 44bb db7c a03d 68b6 a43c
000000a0: bd1f 6d3c c22d cfbc 6e4f 13be 5da5 0cbe
000000b0: c5c3 383b a7eb e6bd b6f9 c33d a4a2 733d
000000c0: 0905 493d d157 76bc 7e31 a6bd a5ee 3c3d
000000d0: d792 0bbe 9f29 b2bd 94f2 babd bac9 0fbe
000000e0: 92cd a8bd 78ac 7d3d 7197 57bd 7dd4 c13d
000000f0: a568 90bd 06f5 7b3d 5439 693d 7a01 d43d
00000100: 6af1 573d 4dba d93d 63e3 babc 557e 1abd
00000110: 502d a5bb 5414 d93d 7789 0c3d 2970 a83d
00000120: 0926 923d d893 03be 19e6 20bd 32ed d13d
00000130: 290e a63d f4e8 3abe 889b cc3d 51db 3cbd
00000140: 79c0 153d b3cf c53c eabd f5bc 9d0b b33d
00000150: c040 213d b15c 1d3e fcd4 ef3d 345b afbd
00000160: 9548 7a3c 3747 e3bd a356 d63d cf3f 99bd
00000170: cabe b73d 89c3 14be e85a f83d aab6 c03d
00000180: 9d76 c0bd b02b 62bd 0f4a 993c 2dc5 4abc
00000190: dee9 dfbd c8f6 afbd 707f 91bd c42a 54bd
000001a0: f9fc e83d 1048 85bd 83c3 d83d a342 13bd
000001b0: 42e1 8c3c 86cb a43d 6e44 a2bb 2c7b e7bb
000001c0: bd44 dbbd 9ffe ae3d 527f 293c 1d69 0e3c
000001d0: 7c1b c53b 8cc1 6bbd 5422 c8bd a98f 8637
000001e0: bfc7 413d 437c 613d 0658 813d 9fd8 293c
000001f0: c366 a03d 97f7 2ebd af9d f9bd bfeb 923d
00000200: 7c12 c0bd 916f fa3d ee13 203e c23e b0bd
00000210: 283b 1bbd a308 173e d619 a7bd 1079 863d
00000220: 4515 0d3e f620 50bd e948 bdbd a7ad a83d
00000230: fe65 33be 7beb 753d e36d 1dbe 99d9 09be
00000240: 7a43 02bb f0b3 663d 4304 12be 7f7e b4bd
00000250: 9573 933d 9f63 57bc 4558 9dbc 05b5 293d
00000260: 2fbd b9bc 2582 e13d 0d14 a7bd 50a9 26bd
00000270: e5ee bc3d e2cf a0bd 6ed1 193e 96c4 393c
00000280: ecd4 d73d 25cc db3d 84d1 a7bc 1ffe e63c
00000290: c1a9 92bc 9454 ee3d a921 ac3b e3be 24bd
000002a0: 18c9 84bd f480 d43d ed45 223e 9272 d7bd
000002b0: 2f4a 2abe 4d05 00be 4efa 16bd 7bc1 78bd
000002c0: b23d 2ebb f609 7dbd 77c3 83bd b0b5 133e
000002d0: 4045 0dbd 0848 973d dbc7 b2bd a71e c6bd
000002e0: a6af c43d 8183 193d 00fc 9d3c e99d 0e3e
000002f0: 445e e33d 3cc3 93bc fe45 4b3d 3004 953d
00000300: e35f ba3c b33a 2e3d 2168 0f3c a355 f63d
00000310: 0480 59bd 34b4 8cbd 19a1 c3bd 2aaf 5ebd
00000320: e82e d5bd 257c 30bd ce1c c2bd 3589 6ebd
00000330: b376 b4bd 378c 103c 5e05 303d c736 d83c
00000340: d2e6 56bc 9beb ba3c 215a 90bd 9e40 0d3d
00000350: 2053 c53d 667a a33d c175 92bd 880f a83d
00000360: 3bf4 82bd 30e7 e13c 081a b8bd 47ae c8bc
00000370: 0077 0f3e 0296 2f3c 6e4c abbd c96e 6f3d
00000380: 23bc 143e 6308 4fbc 402e e7bb 68f4 da3d
00000390: 63f7 8e3d 994f d43d 2402 8b3c f410 c4bd
000003a0: bc94 d53d 6e60 79bd 6d23 a03c f431 9a3d
000003b0: 4a38 6abd 28f1 18bc 9ffa b03d 7a50 73bd
000003c0: 5385 b33d 60aa 973d b70e e1bc fcb2 ac3c
000003d0: 2c61 86bd 1dd6 513c f5cd b13c f456 8d3d
000003e0: b68b 2fbd 3035 c5bd 6607 23bc 4b76 42bd
000003f0: 5f3b e7bd fdc2 37bd 0d82 883d 4a45 063d
-0.08143645 0.02162545 -0.18424481 -0.07234582 -0.1308894 0.02932528 -0.048691932 -0.12495493
0.011675657 -0.0591623 0.040342376 0.007976757 0.13862692 0.093411304 -0.09362791 -0.0076934453
-0.12462466 0.10210977 -0.008724567 0.07024121 -0.13474154 0.046318743 -0.091439314 -0.051167287
-0.014073018 0.059978202 0.069665186 -0.100143574 -0.14148693 0.1277821 -0.069424175 0.01681257
0.080880225 -0.13612539 -0.09432149 0.02879964 -0.07005159 -0.0029977395 0.07836314 0.02010651
0.014472899 -0.025290374 -0.14385769 -0.13734956 0.002819286 -0.11275416 0.09569113 0.059481278
0.049077068 -0.0150355855 -0.08114909 0.046126027 -0.13630234 -0.08699345 -0.09128299 -0.14041796
-0.082423344 0.061932057 -0.05263466 0.09464357 -0.07051209 0.06151297 0.056939438 0.10351844
0.052720465 0.10631237 -0.022813505 -0.037718136 -0.005040802 0.105995804 0.034310784 0.08224518
0.07136161 -0.12849367 -0.03928194 0.102503195 0.081081696 -0.18252927 0.09990603 -0.046107594
0.03656051 0.02414689 -0.029997785 0.087424494 0.03936839 0.1536739 0.117105454 -0.085623175
0.015276094 -0.110975675 0.104657434 -0.07482874 0.08971937 -0.14527716 0.12126714 0.094098404
-0.09397624 -0.055217445 0.018712072 -0.012376112 -0.109332785 -0.08591992 -0.07104385 -0.051798597
0.11376376 -0.065078855 0.10584166 -0.03595222 0.017197255 0.080466315 -0.004952005 -0.007064244
-0.1070647 0.08544659 0.010345297 0.008692053 0.0060152393 -0.057557628 -0.097721726 1.6040942e-05
0.047309633 0.055050146 0.06315617 0.010366588 0.078321 -0.04271659 -0.12188279 0.07173871
-0.093785256 0.12228311 0.15632603 -0.0860572 -0.037898213 0.14749388 -0.08159225 0.065660596
0.13777645 -0.050812684 -0.09242422 0.082362466 -0.17519376 0.060039025 -0.1537395 -0.13461913
-0.0019876645 0.056323946 -0.14259438 -0.0881319 0.0719978 -0.01314631 -0.01920713 0.0414324
-0.022673218 0.11011151 -0.08158121 -0.040688813 0.09225253 -0.078521505 0.15021297 0.011338374
0.105386585 0.10732297 -0.020485647 0.028197346 -0.01790321 0.11637226 0.005253036 -0.040221106
-0.06483668 0.10376158 0.15846987 -0.105198994 -0.16629861 -0.12502022 -0.036859803 -0.060731392
-0.0026587066 -0.061777078 -0.06433766 0.14424777 -0.03448987 0.07386786 -0.08729526 -0.09673815
0.09603815 0.037478928 0.019285202 0.13927425 0.11101964 -0.018037431 0.049627297 0.07276189
0.0227508 0.04253645 0.008752854 0.12028053 -0.0531006 -0.068703085 -0.09552211 -0.05436627
-0.10409337 -0.043087143 -0.0947815 -0.05823632 -0.088117026 0.008822492 0.04297387 0.026393307
-0.013116555 0.022817424 -0.07048441 0.034485452 0.096349955 0.0798233 -0.07151366 0.08206087
-0.063942395 0.02757606 -0.0898934 -0.024497164 0.14010239 0.010716917 -0.08364187 0.058455262
0.14524893 -0.012636277 -0.007055074 0.10691148 0.06980779 0.103667445 0.016968794 -0.09573546
0.104287595 -0.06088298 0.019548142 0.07529059 -0.057182588 -0.00933484 0.08641552 -0.05940292
0.08765664 0.07405543 -0.027472837 0.02108144 -0.06561503 0.012807396 0.021704653 0.069013506
-0.042857848 -0.09629285 -0.009950494 -0.047476094 -0.11290621 -0.04486369 0.0666543 0.032780923
