pretrained_models/experiment/Discrete_acktr_20x10x10Bin_s42_inh_800_defaultBox-2022.08.18-13-06-52/PCT-Discrete_acktr_20x10x10Bin_s42_inh_800_defaultBox-2022.08.18-13-06-52_2022.08.18-15-46-56.pt (torch, 236314 bytes, 24 tensors)

actor.init_internal_node_embed.0.module.weight f4 [32, 6]
00000000: 7bb2 683e 3e10 183f 75e1 1e3f 7d15 8fbe
00000010: 0ad3 0e3c 3a8b 443e ce85 3e3e c97b d93e
00000020: 9082 05bd 347c f5bd a3d0 a5be 170a c8bd
00000030: e5e1 273d 0a50 3cbd 1ffb 453d 6b16 cf3d
00000040: 36ec 8bbe fac4 b13d 946f 06bf ce20 d3bc
00000050: ab03 c8be af0b 0d3f 2dbc 8f3e 7bc8 5f3f
00000060: 0fda f23e a42f 26be 1556 72bc 847e b23d
00000070: 2c8c a8bc f5fa f4bd 94e8 7b3e 33d0 ec3d
00000080: 86b6 b9be b974 cb3e 1458 f2bd 3fb7 96be
00000090: f757 dfbe 6ba9 563e 85dd 123e e4ad 453e
000000a0: 913a a6be cc34 28be 72fc 5f3e f8f5 fabd
000000b0: fa49 f53e 8bb5 2a3c 163e 38bf e71c 053e
000000c0: 77b4 e4be 18e4 d33d eaa7 4cbf fbd4 d33e
000000d0: b9ef 013d 8de4 703d e827 263f 53f1 15bd
000000e0: 0ee9 d2bd 6f4f 123e 64ee 40be 697a 29be
000000f0: 9594 54bd 3726 c93d eb83 b4be 524f 0d3f
00000100: 48ef 033f 8923 1fbf 051a 52be fc29 27be
00000110: ce21 21be 203b a6bd 48e7 b1be a2f7 54be
00000120: 4866 683f 62d0 e93d 3aa7 f43d d54c dbbd
00000130: 0269 edbd 1a8f 59be e83d d33e 8d3c 503d
00000140: e6eb 4dbe 022e debd 94f6 903e c45b aebe
00000150: 6fd1 bc3e 5eb2 eb3e 7330 bebe 81e0 15bd
00000160: 50b0 703d 556c 90bd 5e23 01bd d268 92be
00000170: 2a3d 74be a2fc a7bd 5a90 0f3e cafe 8fbe
00000180: 3f3e ce3d 3f46 fabd 0008 d13e b259 35bf
00000190: 8963 fc3e afd4 f73e 089c 923d 79dc 493d
000001a0: bbec cc3d 282a 603e 6779 10bf 396f b9be
000001b0: 1be4 a73e bbb7 0b3e 51ea e6be 8dbf 7c3e
000001c0: 88c5 ed3d 7157 5ebd bf79 b43e 1a4c 51be
000001d0: 2887 6c3d 1176 68be 2ce4 babd f04e ea3d
000001e0: c80f 893d 5f34 863e 0d7f e1be 6113 8e3e
000001f0: 3261 9d3a d176 ffbe b7dd 20be 3e53 babd
00000200: a399 90be 9688 123e 60c5 efbd e71d cebe
00000210: 4134 43bf 0685 59bf e439 59bf 56cd 083f
00000220: 42fa e23e 2680 dc3e 0a10 87be d7a5 a0bd
00000230: e557 46be 33bf 4c3d d447 4fbd 801f 203f
00000240: 1a70 04be abfc cabc 5079 843f f72b b53e
00000250: 0502 f23d b8f3 673e 8278 a0bd 4b33 883e
00000260: 936d af3e 36cf 95be 8bb5 9abd 5234 ef3e
00000270: de7e 77be 6733 2a3d be01 65be a6e2 833b
00000280: f62c 8b3e 8021 f1bd 5667 a3bd 0844 d83c
00000290: a041 b23e 4a2a c0be ba9d 3fbd 7a1a 42be
000002a0: 4acf b3be b924 1bbf 1c0a 8bbd cc31 293d
000002b0: 76a4 293e 43a8 4a3d 2463 82be 9964 3d3e
000002c0: aa3c 943e e2d6 75be 1172 aebd 5fa8 c1ba
000002d0: bd7d c23e bee2 4dbb f6ba 593d b84f a1bd
000002e0: ae4f 563e 1c7b d6be 239e 713e 9038 533e
000002f0: 9d2c 84be 8ded 1bbe 87c2 4cbc 820f a43e
0.22724335 0.59399784 0.6206277 -0.27946082 0.008717308 0.19193736 0.1860573 0.42477253
-0.032595217 -0.119865805 -0.3238574 -0.097675495 0.040986914 -0.04597477 0.04833519 0.10111698
-0.27328652 0.086801484 -0.52514005 -0.025772478 -0.39065298 0.5509595 0.28073254 0.87415284
0.4743199 -0.16229111 -0.014791031 0.08715537 -0.020574652 -0.11961929 0.2460044 0.11563148
-0.36272067 0.3973749 -0.11833206 -0.2943668 -0.436218 0.20963065 0.14342315 0.19304615
-0.32466558 -0.1642639 0.21873644 -0.12253946 0.47908002 0.01041926 -0.71969736 0.12999307
-0.44668934 0.1034624 -0.79943717 0.4137343 0.031722758 0.058811713 0.6490464 -0.036607098
-0.10298358 0.14288114 -0.18840939 -0.16550602 -0.05189951 0.09821742 -0.35256895 0.5519916
0.5153699 -0.621636 -0.20517738 -0.1632461 -0.15735552 -0.08116746 -0.34746766 -0.2079759
0.9078107 0.11416699 0.119459584 -0.10708014 -0.11592294 -0.21245995 0.41258168 0.050838996
-0.2010952 -0.10848619 0.28313124 -0.34054387 0.36878535 0.4603452 -0.3714634 -0.036591057
0.058761895 -0.07051913 -0.03152787 -0.28595597 -0.23851457 -0.08202483 0.1401991 -0.28124076
0.10070466 -0.1222043 0.40826416 -0.7083999 0.4929469 0.48404452 0.07158667 0.049282525
0.1000609 0.21891081 -0.56435245 -0.3621767 0.32791218 0.13644306 -0.45100644 0.24682446
0.11609942 -0.05428261 0.35249135 -0.20439187 0.057746083 -0.22701289 -0.091255516 0.114408374
0.06692463 0.2621183 -0.44042245 0.2774916 0.0012007116 -0.49895337 -0.15709578 -0.090979084
-0.28242216 0.14309916 -0.11707568 -0.4025719 -0.7625161 -0.849686 -0.8485396 0.5343832
0.44331557 0.4306652 -0.26379424 -0.078441314 -0.19369467 0.04998703 -0.05060561 0.62548065
-0.12933388 -0.024778685 1.0349522 0.35385105 0.118167914 0.22651565 -0.07835485 0.26601633
0.34263286 -0.29259652 -0.07554158 0.46719605 -0.2416949 0.041552927 -0.22363946 0.0040248213
0.2718274 -0.11773968 -0.07978694 0.026399627 0.34815693 -0.37532264 -0.04678128 -0.18955413
-0.35119087 -0.6060291 -0.067890376 0.041307256 0.16566643 0.049476873 -0.25466263 0.18495406
0.28952533 -0.24007753 -0.0851785 -0.001477491 0.37986556 -0.0031415666 0.053156815 -0.07876533
0.20928833 -0.418908 0.2359548 0.20627046 -0.25815287 -0.15227337 -0.012497551 0.32043082

actor.init_internal_node_embed.0.add_bias._bias f4 [32, 1]
00000000: 1e76 023d b157 853c bd5f f4bc 0f46 7b3d
00000010: 36e7 fb3d b133 2f3c da29 b5bc 6188 b43c
00000020: 6ebb e83c 17fc a13d 91b3 cc3c d2d4 9a3c
00000030: d4bc 223d 924f c13c 4a61 c23b 7d91 8dbb
00000040: 2069 4d3c 46e0 2b3c 1b28 9f3a 3173 cb39
00000050: ebc2 43bc 1e94 b23c c57e 92bb 6c0e dbbb
00000060: e5e1 853d 3589 7d3c c226 3cbc 04a0 8ebc
00000070: 58f7 683b 6f6e 87ba c330 383c 1be0 173d
0.031850927 0.016277166 -0.029830808 0.06134611 0.12299959 0.010693477 -0.022114683 0.022037687
0.028409686 0.079094104 0.024987968 0.018900309 0.03973086 0.023597512 0.005932008 -0.004320322
0.012537271 0.010490483 0.001214269 0.00038805002 -0.0119483275 0.021799143 -0.0044706785 -0.006685069
0.065372266 0.015474607 -0.01148385 -0.017410286 0.003554782 -0.0010332594 0.011242094 0.037078958

actor.init_internal_node_embed.2.module.weight f4 [64, 32]
00000000: 12a9 7ebe 29ba 633d 8943 02be f985 b93e
00000010: 1e4b 263e 4cfd 353d e7e2 ac3d 3a87 e43d
00000020: 3c5b 8fbe a00f 91be 051a ddbd e209 253c
00000030: 3de0 a0be 0edc 25be 671b 273d 5531 34be
00000040: e00e cf3e 635e aebd 3dcb 13be 8671 823e
00000050: 0c74 8e3d 5669 80be ff70 dfbd 6d77 2ebe
00000060: c285 f33d 989e ac3e 7855 1c3e 0546 cc3d
00000070: 98e6 11bd 8248 3bbe fa11 22be f474 0a3e
00000080: 1bc8 b6be 8489 b0be bd55 babe 9a47 72be
00000090: 6e52 423d 975b 483e 5f22 343b 0046 cf3e
000000a0: 26f9 c3bc a2a1 d9bd d130 09bd 4f17 55bd
000000b0: ebb4 a7be 2d7a df3d 5cb7 5ebe 7973 263e
000000c0: 105e 873d 2184 013c e2ab cdbe 9ccf 25be
000000d0: 2065 a53e 0917 c63d d3fc 103e f916 89be
000000e0: 1ec7 82be b2ab b83d 6baa a0bc 7aea 263e
000000f0: 1086 7ebe a58b 503e b5e5 b13e 3ec5 2c3c
00000100: 7b7a 483f 799f 3ebe 7287 debc 4cfb c93e
00000110: bcfd 95be f78b 6f3e e7fe 89be 7e37 23be
00000120: d75c 3d3e 64bb 8e3e 178b 173e 66cd a1be
00000130: 46d8 673f 35ad 57be 2525 073e 9ae5 46bc
00000140: 08ba 793e cdd3 ae3d dfb4 943d c454 743e
00000150: e3fb c1be 2686 d4bd 7e88 c73c 2285 11be
00000160: 5963 1f3f 809d 6fbe c8af 08be c4df 4dbd
00000170: 7c48 f93d a23c 8f3d f5ea 933e 90a9 d93d
00000180: 92db afbc 4400 173f 53e4 d5bd 7e91 cfbe
00000190: e940 213d 2dcf 21be 0111 a0be 1bba 8c3d
000001a0: 3b4b 78be d083 c33b 1729 8fbd adf0 f83e
000001b0: a234 0d3e c93d 15be 4158 fdbd ae3c 31be
000001c0: aca8 00be d82a 2dbe b4dd 37be 82cd 3bbe
000001d0: 4f13 99be 6500 a83d 2c4c 813e d167 453e
000001e0: b1a8 b5be 0afd 183e c9ad f53d b576 1c3d
000001f0: b47b 373e e10f 093e 78be 6c3d fddd a0bd
00000200: 651e adbe 30b7 30bd a543 043e 84a6 4bbc
00000210: f997 36be 90fc 02bb 1c9e f8bd 1cd5 76bd
00000220: 9f7f ca3d 1873 e13d aff3 5a3d ff26 85be
00000230: b3c6 a83c 023e 8a3e 25ff 083e 667d 3dbc
00000240: 9896 d43d 43a5 703d 45d9 99be 6d65 3cbe
00000250: 646f 1dbd d12f 84bd 2746 103f 6ef5 49be
00000260: e8b5 edbe 4bab 073d 4fd5 0e3e 1256 243c
00000270: 7b48 683e 926b 61bc e647 2c3e 4c82 b13b
00000280: 1b9a c5be 1f2c 953d 446c eebd 7c20 5a3d
00000290: 0ff1 1e3f e26b 3b3e e24b 953e ce59 c8be
000002a0: 0fa1 a33e 2922 f43e d73e 1c3f 0f83 3c3e
000002b0: 521a 0a3e 8b9a 533e ece8 bd3e 56e9 23bc
000002c0: 70cb 5ebe 16a2 983c fdb2 993d 0de3 21be
000002d0: b34d c53e 966e d3bc 8820 89bd e6dc 9ebd
000002e0: e2d5 6bbf e27a 843d 5b6e 81be 0a0d 6fbe
000002f0: 9461 82bd 3d20 a53b 5d0b d83e 7aef 71bd
00000300: f0fd 0a3d 7033 60be 4653 18be 1132 f1be
00000310: 7cf0 7b3d 04fe 5b3d f619 6fbd 5bcd b2bd
00000320: 116c 16be d110 153f 5755 bcbd 6cad af3d
00000330: 4a04 373f 4b10 19bd e3f0 2c3e 1cdb 49bd
00000340: 0cab 61be 2903 81be 6090 293f da46 4a3e
00000350: 31a6 99be 312c 8d3d 33f0 38be 0054 ba3d
00000360: 88b9 73bf dac6 86be 488a e33d 7624 3b3d
00000370: f504 703e ea17 923e 902f 29bd 05a4 2dbe
00000380: 4e38 443f 3c6f 603e 1abe 913e 7e14 c53e
00000390: edb6 10be 84bb ed3d 7ac0 913e 2784 e03d
000003a0: 39d5 73be 3af6 c1be 9efc 1cbc 8fea 6fbe
000003b0: 64b5 043f 294d b3be 2341 44bd beff 3e3d
000003c0: 2bad 263d ece0 22bd 8f3c 823e eebb 25bd
000003d0: 1140 40bd 2786 33be e410 9e3d 5bcb b23d
000003e0: b967 283f 022d b53c f46c 683e e3bb 0dbd
000003f0: 12c5 373e 9d92 b13e 77b3 ebbe 6fa2 23be
-0.24869183 0.055597458 -0.12721075 0.36235026 0.16239592 0.044431016 0.08441716 0.11158605
-0.27999294 -0.28332233 -0.107959785 0.010073157 -0.3142108 -0.16197225 0.040797617 -0.17596944
0.40441036 -0.085140966 -0.14432998 0.25477237 0.06955728 -0.25080365 -0.10910224 -0.17037745
0.11890747 0.33714747 0.15266979 0.09974293 -0.035620302 -0.18289378 -0.1582717 0.13521177
-0.35699543 -0.34479916 -0.36393538 -0.23660126 0.047441892 0.19566189 0.0027486307 0.40483093
-0.023922514 -0.10626532 -0.03349382 -0.052024182 -0.32755217 0.10911975 -0.21749634 0.16254987
0.06609738 0.007905037 -0.401702 -0.16192478 0.32303715 0.09672362 0.14158945 -0.2677534
-0.2554254 0.09017123 -0.019612512 0.16300383 -0.24855828 0.2036577 0.34745565 0.010545073
0.7831189 -0.18615521 -0.027164195 0.39449537 -0.29295146 0.23393236 -0.26952288 -0.15939137
0.18492447 0.27877343 0.14799152 -0.3160202 0.9056438 -0.21062167 0.13197763 -0.012139702
0.24387372 0.085364915 0.07261061 0.2386046 -0.37887487 -0.10377149 0.024357077 -0.14210942
0.6226097 -0.23399925 -0.13348305 -0.050262228 0.121720284 0.06993987 0.28890195 0.106280446
-0.021467004 0.5898478 -0.1044394 -0.4054069 0.039368544 -0.15801688 -0.31262973 0.06871434
-0.24247448 0.005966641 -0.06990259 0.4862112 0.13789609 -0.1457435 -0.12370349 -0.17308304
-0.12564343 -0.16910875 -0.17955667 -0.18340114 -0.29897544 0.082032 0.25253427 0.19277884
-0.35480264 0.14940277 0.119960375 0.038199145 0.17918283 0.13384964 0.057798833 -0.07854841
-0.33812252 -0.04314345 0.1291643 -0.012429837 -0.1783141 -0.0019986965 -0.12139532 -0.06026183
0.09887623 0.110082805 0.05345505 -0.26006314 0.02060256 0.27000433 0.1337858 -0.011565542
0.10380286 0.058751356 -0.30048576 -0.18398066 -0.03843631 -0.06454433 0.56357044 -0.1972253
-0.46427846 0.033122342 0.13948558 0.010030286 0.22683899 -0.013758557 0.16824302 0.005417144
-0.38594136 0.07283806 -0.11641744 0.053253636 0.62086576 0.18302873 0.29159456 -0.39131016
0.31958815 0.47682312 0.61033386 0.1840937 0.13486603 0.20664422 0.37091768 -0.010004362
-0.21757293 0.018631976 0.075048424 -0.15809269 0.38535842 -0.025809567 -0.06695658 -0.07756977
-0.92123234 0.064687505 -0.25279507 -0.23344818 -0.06366268 0.0050392435 0.4219617 -0.059066273
0.03393358 -0.21894622 -0.14875516 -0.4710851 0.06150864 0.053709045 -0.058374368 -0.08730575
-0.14689662 0.58228785 -0.09195965 0.085779995 0.7149092 -0.037369054 0.16888766 -0.049281225
-0.22037905 -0.25197724 0.66235924 0.1975359 -0.30009606 0.068931945 -0.18060379 0.09098053
-0.95204973 -0.26323587 0.111103594 0.04568907 0.23439391 0.2853387 -0.041305125 -0.169571
0.76648414 0.21917433 0.28465348 0.38492197 -0.1413228 0.116080314 0.2846716 0.10962706
-0.23811807 -0.37883168 -0.009581713 -0.23429321 0.5183928 -0.35019806 -0.04791368 0.046630614
0.04069249 -0.039765283 0.25436828 -0.040462427 -0.0469361 -0.17531644 0.077180654 0.08730193
0.6578327 0.022116188 0.22697812 -0.03460301 0.1794627 0.3468217 -0.46035358 -0.15979932

actor.init_internal_node_embed.2.add_bias._bias f4 [64, 1]
00000000: 43dd 7abc 940b 51bd e7b0 c03d a636 57bd
00000010: 666f 16bd 9fdd 323d 40b7 4dbd 2ebb b83d
00000020: e0d8 773b dc5d 75bd 6b0d 89bc 0d9a 0fbd
00000030: eb04 0dbe c898 51bd 462a f0bc be2b f33c
00000040: 4c02 8ebd 4c94 4fbd b7e2 17be b59d 6b3c
00000050: d5eb 84bd 450e 21bd 37d5 8f3c 7f08 b63d
00000060: 79fa b6bc 4c87 36bc 7256 a7bc 8d20 eaba
00000070: 1614 923c ec45 d8bd 69c8 953d 5bdd 04be
00000080: f287 cb3d 7d8d ac3d eef2 16bd 7f7b 35bd
00000090: c9f8 663d 5168 0ebd 93de b63c 6f80 893d
000000a0: a56b 55bd cfbd 46bd c6b6 723e a71e 52bc
000000b0: cfe0 9abd 46cb c5bc d67f 343d b346 3f3d
000000c0: 8d31 733d c9c7 06be 3b0c 5d3d d51f 9b3d
000000d0: 18f9 8e3d a1a8 ddbd 8950 1ebd 20bb 0b3e
000000e0: 9db4 103e 64cd c73b da11 29bb 65b9 eb3a
000000f0: e1c2 0dbd c2c5 733c 0d6c 60bd a138 953d
-0.015311542 -0.051036432 0.094087414 -0.05254235 -0.03672733 0.043668386 -0.05022359 0.09020077
0.0037818477 -0.059903964 -0.016730031 -0.035059024 -0.13771407 -0.051171094 -0.029317033 0.029683944
-0.06934032 -0.050678536 -0.14832579 0.014380862 -0.06490294 -0.03932025 0.017557723 0.08888339
-0.022336232 -0.011140656 -0.020426963 -0.0017862484 0.017831843 -0.105602115 0.07313616 -0.12975065
0.09938039 0.08425424 -0.03685277 -0.04430723 0.056389604 -0.034767453 0.022322929 0.0671395
-0.05210461 -0.04852086 0.23702535 -0.012824691 -0.0756241 -0.02414478 0.044067226 0.046698283
0.059373427 -0.1316215 0.053966742 0.07574431 0.069811046 -0.10823179 -0.038651023 0.13645601
0.14131398 0.0060974825 -0.0025797994 0.0017984329 -0.03460968 0.014878692 -0.054790545 0.07286192

actor.init_leaf_node_embed.0.module.weight f4 [32, 8]
00000000: 3b92 20be 4b7f f7be afab b53e d5ce af3e
00000010: 1601 473e b3d5 bc3e d68f aabe 3fc3 9ebe
00000020: 9f6a 09bf 1fa0 2bbe c378 8d3e ef17 c83d
00000030: fce3 4e3e 69bd 86be 968d 7a3e 9304 58bd
00000040: 31cc a73b 96c0 9f3d 14d0 8fbe a4df 19bd
00000050: d227 41be af62 29be 6601 a23d b765 c5bd
00000060: 53e3 53be 7feb 203e 4ddb e13e e3b3 5bbe
00000070: ab6c 013e e6bd 4b3e 137c 80be dba0 493c
00000080: 90b9 a63d 9ef9 12bf 973f ce3e 73b6 43be
00000090: d02d 1bbe e02a bd3d 862d 2abe 19bb 113e
000000a0: f0c3 c5be 3789 853c 2596 a0be 02bc 2d3e
000000b0: 9257 5abd f74e ec3d 3ec0 2bbe 665a 303c
000000c0: e86a a8be f9dc e63d 80e6 a4bd 3ddf 013e
000000d0: 9cf7 babc 8659 0cbe 9eb3 393d 9228 273e
000000e0: 8aa5 9f3e c74c 4c3e 3be7 c73e 65f0 bfbd
000000f0: 3efa 40be a14d 9ebd c2df 28bf 7b28 a8bd
00000100: 4159 3fbd e48a d53d b2b3 483e de3c aabd
00000110: d46d 18bd 8dce 873e a02f 573d 6a5c 323d
00000120: 197a 1dbf 943c cbbe e0e5 1e3d f27a 873e
00000130: b3a9 003f 1a74 a4be e55d d7ba b95f 04bf
00000140: 7b09 aabe f59d 1d3e a4fe efbe 1b42 3fbe
00000150: 52e8 c33e 11f3 313e 5b21 6bbe b45d ffb9
00000160: 8876 5a3d 5bca d6bd 232d 9a3e bc65 a8be
00000170: 82e1 cbbd fd7b cabe eb3e d63e 2994 583c
00000180: dacb 17be 4fbd a3bd 89eb 7a3e c218 0f3f
00000190: e080 423e f2d3 793e 4adf ad3e 1e36 de3e
000001a0: d2cb ca3d 4b31 a03e 1cc2 533e ec13 39bd
000001b0: 671f eabe 9f51 65bd 3f4e 4abd eb74 65be
000001c0: 685b eb3e feb0 f43e c6a7 953e ae89 9a3e
000001d0: 1310 2dbb 5dd9 b0bd 2050 0a3e 16e2 1d3e
000001e0: d49b 0a3c e7e3 3dbe 875d 94bd 3a9e 893e
000001f0: 5f6e 23be c2bd 773e 8dd3 2d3d abae 313e
00000200: 2802 703e 8236 a33e cde8 9bbd d1fb ffbe
00000210: 5708 bb3c 05f9 a6be f785 63be adf6 2d3e
00000220: 3c55 9abe 252b 903e 7846 a6be 7ed4 d43e
00000230: 206c 3ebe 1724 a4bd 78f0 57be e2f2 623e
00000240: a18d 983d 1b1c c3bd 392b 4fbf adfe e4bd
00000250: 2d69 923e bc9f ac3e 5811 bf3d b951 23be
00000260: 95d8 53be 977b eebd a761 03bf f3b2 253d
00000270: 5f08 f5bd fcb4 f6bc 863e 7f3e ca62 9fbd
00000280: e336 1f3e 539a 57bd 8637 a33e 0cf0 b23e
00000290: a198 b83e 4266 cf3c 7672 963e ada4 9cbd
000002a0: f91c a1be 36eb 653e d09f 1f3e 206a 09be
000002b0: 4a28 9d3e 68ea 9ebe d02c 2bbd 857a 493e
000002c0: 4754 393e 51c3 82be 71a0 76be 7008 b6be
000002d0: 11f0 8a3e 07b9 3a3d 12fd e13e 0d1c 6b3e
000002e0: 488c c2bd bf9b fb3e 5bfc 333e d95d fbbe
000002f0: 2ee6 61bc 35f9 263f acdd 0f3e 113e ca3e
00000300: 94b8 00be ed89 9cbe 7446 dabd 6871 c2bd
00000310: 3792 653e 8ecb 20be 5ed5 9abd ca4f 163f
00000320: c17e 2cbc b157 83be 6c00 d1be cb59 8d3e
00000330: 5a28 4dbe 81aa 12be 9e2c a2bb cf25 ba3e
00000340: 3e3f 91be 30ba 2b3e 99bf 263e 9896 53be
00000350: 12d3 cdbe 4bbd c3bd b90b d03e b112 44be
00000360: 093e 6dbe 6258 773e 0308 a93e fe3e 813e
00000370: fd90 0cbc 6a32 9d3e 655c 9c3e 15dc 43be
00000380: 12b0 a33c aa78 e6bc f5c4 af3e 0b30 2abe
00000390: bb35 00be 64cf 08bf 6038 76be d6e0 b8bd
000003a0: 57c8 de3e 957b b13e 52ef a8be 0735 b23e
000003b0: ffd0 1c3f a9bb 2b3d 73cd 243e 624f ffbe
000003c0: 7ebf 873d 1401 b3be 9b5e 02be 8974 c8be
000003d0: 3058 8cbe d795 e73e 9b47 a33d 763a 80be
000003e0: fab4 f4be 1e47 7c3c 37d8 8ebe af57 d3bd
000003f0: aa63 afbe 5df8 40be 6bf0 8d3e b203 55be
-0.15680782 -0.48339304 0.35482547 0.34337488 0.19434008 0.3688179 -0.33312863 -0.31008336
-0.53678316 -0.167603 0.27631196 0.0977019 0.20204157 -0.26316383 0.24468073 -0.052738737
0.005120777 0.07800405 -0.2808844 -0.037566796 -0.18862846 -0.16541551 0.07910423 -0.09638541
-0.20692186 0.15714835 0.44112626 -0.2145534 0.1263911 0.1989666 -0.2509466 0.012306417
0.08140862 -0.57412136 0.4028289 -0.19112568 -0.15154195 0.092366934 -0.16618928 0.14231528
-0.3862605 0.01630078 -0.3136455 0.1696625 -0.05330617 0.11538499 -0.16772553 0.01076374
-0.32894063 0.11272616 -0.08051777 0.12682815 -0.022823147 -0.13706025 0.045337312 0.1632407
0.31180984 0.19951163 0.39043602 -0.093720235 -0.1884546 -0.0772965 -0.6596643 -0.08210846
-0.04671598 0.10426882 0.19599798 -0.08312391 -0.037214115 0.26524773 0.052535653 0.043545164
-0.6151443 -0.39694655 0.038793445 0.26460987 0.5025894 -0.32119828 -0.0016431181 -0.5170856
-0.33210358 0.15392287 -0.46873963 -0.18677561 0.38263184 0.17377879 -0.22961943 -0.00048707204
0.053335696 -0.10487815 0.30112562 -0.32890117 -0.099551216 -0.3954772 0.41844878 0.013218918
-0.14823857 -0.07995092 0.24503912 0.5589715 0.18994474 0.24397257 0.3395942 0.43400663
0.09902157 0.31287608 0.20679516 -0.045185015 -0.45727083 -0.055986043 -0.049391028 -0.22407882
0.45968175 0.47791284 0.29229563 0.30183166 -0.0026407286 -0.08635209 0.13507128 0.15418276
0.008460004 -0.18543969 -0.072444014 0.2687853 -0.15960072 0.2419348 0.04243808 0.17351787
0.23438323 0.31877524 -0.076127626 -0.49996808 0.022831125 -0.32611862 -0.22219072 0.1698863
-0.30143154 0.28157917 -0.32475638 0.4156837 -0.18595934 -0.08014696 -0.21087825 0.22162965
0.074488886 -0.09526845 -0.8092533 -0.11181388 0.28595868 0.33715618 0.0932948 -0.15949143
-0.20688088 -0.11644667 -0.5132088 0.040453862 -0.11964487 -0.030115597 0.24926195 -0.077825144
0.15548281 -0.05263741 0.318783 0.34948766 0.36053947 0.025317315 0.29384202 -0.07648597
-0.31467417 0.22453007 0.15588307 -0.1341939 0.306948 -0.31038213 -0.041790783 0.19675644
0.18098556 -0.2553964 -0.24084641 -0.35553312 0.2713628 0.045586612 0.4413839 0.2295992
-0.09499413 0.49142262 0.17576735 -0.49095038 -0.013787789 0.6522401 0.14049405 0.39500478
-0.12570411 -0.3057398 -0.10657969 -0.09494287 0.22419058 -0.1570265 -0.07560228 0.587155
-0.010528267 -0.2565284 -0.40820634 0.2760757 -0.20034924 -0.14322855 -0.0049491664 0.3635697
-0.28368562 0.16770244 0.16284026 -0.20662916 -0.40200096 -0.09557589 0.40633944 -0.19147755
-0.23168196 0.24154809 0.33013925 0.25243372 -0.00857949 0.30702525 0.3053924 -0.19126923
0.019981418 -0.028133709 0.34329954 -0.1661989 -0.12520497 -0.5344145 -0.24044943 -0.09027259
0.43512222 0.34664598 -0.32995087 0.34806082 0.612564 0.041927014 0.16093998 -0.49865252
0.06628321 -0.3496176 -0.12731402 -0.3915141 -0.27411032 0.45231506 0.07972642 -0.25044602
-0.47794324 0.015397815 -0.27899334 -0.10319459 -0.34255725 -0.18844743 0.27722487 -0.20802191

actor.init_leaf_node_embed.0.add_bias._bias f4 [32, 1]
00000000: 0ec3 2e3e 1c9e 8bbc 40df 09b9 c5b1 b23d
00000010: 051b 2b3c 9f84 14bd 54b4 993c 45e6 df3c
00000020: 02dd 09be 1708 fb3b 0a67 3bbd 402b 64be
00000030: 6469 933e 052d 49bc fdc1 fdbc d35a c2bc
00000040: 69cb c03c 2a01 24bd 7eb8 adbd 25bf 213e
00000050: 96eb 46bd 6660 38bd b58e 133d fa55 1abc
00000060: acf0 5a3d 0c8e 83bd fede 0cbd b132 ce3c
00000070: 169f 16be 7d63 973e 7ebc e13c 9cd9 95bd
0.17066595 -0.017043166 -0.00013148505 0.08725313 0.010443454 -0.03625929 0.018762745 0.02733148
-0.13463214 0.0076608765 -0.045752563 -0.22282124 0.28791344 -0.0122788 -0.03097629 -0.023724949
0.023534494 -0.040040173 -0.08482455 0.15795572 -0.048564516 -0.045013808 0.036024768 -0.0094199125
0.05345218 -0.06423578 -0.03439235 0.025170656 -0.14709124 0.2956809 0.0275557 -0.07316896

actor.init_leaf_node_embed.2.module.weight f4 [64, 32]
00000000: fd68 1ebe 21ef acbe 1e35 8bbe 6220 10be
00000010: 58e3 3f3e 4bca 4c3c 3331 7c3d 4d0a 093e
00000020: deab 4b3e db0c 4c3d 1121 7b3d 32e7 87be
00000030: 3885 adbe f52b a83c 22af 81be 97e4 ecbd
00000040: 3320 5d3e 4eb7 76bd c7c8 21be 0236 abbd
00000050: 69dd 5a3d 90c6 90be da58 683e d6f8 093e
00000060: 889f ce3d 357c fbbe f07c a8bd db49 d13d
00000070: 9c70 0f3e 1cf7 5fbe 568e 17bd 1c6d 36bc
00000080: dbec 313d 45c1 1b3e 8def 723d e064 f03d
00000090: ac4b 3c3d 2573 e13c 9916 e83d 4105 27be
000000a0: dbbd efbd ee11 8bbe d7e2 d53e ecb7 aabc
000000b0: d8ea 18bd 87e6 cc3d 3485 473e 8af3 93be
000000c0: 7902 cfbd 5d95 33be c00a 4cbe 1e10 5fbe
000000d0: 437d d73d af70 89bd 1bd0 033d 25d9 03be
000000e0: 1e2b dcbe e1f3 d5bd 17aa 5fbc 48da 6b3e
000000f0: 5af2 84be 4b06 2bbe fc37 2fbd 789d c73e
00000100: 06df a53e 5d88 2b3c 0f18 1ebe c4df 5dbd
00000110: c13a 243e b328 8abd 6214 03be 1523 e73d
00000120: a32c e0be 8753 e4bd 8be0 f6be a0f9 2bbe
00000130: ca4c 8ebe ceed 593d 44fe 983e 7f2c bfbd
00000140: be05 b7bd 3c3c 2f3e b952 9ebe 54fc f2bd
00000150: 7559 e3bc e1f6 b4bd e92b 773c 032b a4bd
00000160: 7092 1bba 615b a2bd 0a61 b5bd 88b2 f8bd
00000170: f594 53be 3544 b8bc 674f 4a3e e760 f63d
00000180: 1297 3f3c b50e 713e e8e7 343e e87c f73d
00000190: 1f5f ff3d 1bed d23c e35a 29bd e561 243e
000001a0: c24a 1bbb 6d31 0abe e330 47be 50e8 773e
000001b0: b2a6 77be 79c3 5c3d 2e2a 473d 29ed 283e
000001c0: 9116 d5bd bdf3 923e ff56 a1be cfa9 c53c
000001d0: e5c6 973d 2f07 163e 4b94 53be d431 4e3e
000001e0: 52ce 9bbb 85f8 e83d f070 253e 267f 1b3e
000001f0: 58c6 983e 3c0c d4bc 1907 513e fb93 303e
00000200: 21b9 8cbd 26cc 62bd a01c 863d 5c92 713d
00000210: fc07 793e e6bc eebe 5047 6c3e 856a 19be
00000220: 7cc9 4e3d 41c3 ac3d 3d70 01be f7e9 b6be
00000230: 7871 b0bd 403c 5e3e ffa7 013e 8084 02be
00000240: c789 dcbe 981c 8abe 6eb4 333e 9a8a 273d
00000250: c37c 8bbe 2773 193e b579 43bd c57f babc
00000260: 2e0b dabd 92a1 cabb 3f11 18be 614f 1d3e
00000270: 4514 7b3e 2ebf 313e 7e57 1c39 b51a 3cbe
00000280: 395d a03d 8637 25bc e7d9 3bbe 952a bc3d
00000290: b4fb 4ebe 901f 53bd 8a75 b63e 8e65 b4be
000002a0: 4f10 cfbd ded3 a93d 7306 43be 67db 933e
000002b0: 8141 113f 87ab 303d 0129 353e ac56 29be
000002c0: 4a1d 093e 4a32 74bc 2012 49be e4a2 cfbd
000002d0: 6794 ce3d 2bf5 21be 3a46 433d 618b da3e
000002e0: 2375 973d 107a 12be 815b 9fbd f017 d03d
000002f0: 45c0 2ebe fb08 873e f537 943e ea37 d4bd
00000300: 8a04 8f3e f3c6 9dbe 3e46 63bd a8b8 ca3d
00000310: 9f63 ebbd fa6c 09be 5d7c 253e 93bb ae3c
00000320: 5a20 4c3e 5100 2cbd f524 7b3e dba5 363e
00000330: 0ff2 373e 4281 043e 4085 0cbe bbf0 b7bd
00000340: 3ec1 e3be 1ee1 873e ee22 4f3d cfec fe3d
00000350: 26bd 0ab9 164f 333c 82b8 69bd 9e12 7d3d
00000360: 74fe 2d3d 87d1 83bd 57fd 95bd 2f9d 0b3e
00000370: 0bad 13be 4961 5c3e a3e2 b4bd 466a 99bd
00000380: 05a6 09be bf60 e03c 18b7 f7bd 8291 a0be
00000390: f4c3 f53d 18f8 1ebd b022 52be 28af 94be
000003a0: 5abe 403e 0cad e2bd c088 9c3e d208 5f3c
000003b0: 8322 333e 8dc4 8f3d f1c0 09be 3ce2 a23e
000003c0: b776 66be 5888 1fbd d73d ff3c f059 98bd
000003d0: 227d 703b 9afa a23e 2e59 953d 3b8d 963d
000003e0: 7bda a13b 3ba2 653e ab7d 423e 8f77 323e
000003f0: b788 fcbe 9fda ba3e f214 9b3e fc1c 75be
-0.15469737 -0.3377619 -0.27188963 -0.14074853 0.18739069 0.012499402 0.061570358 0.13382836
0.19889781 0.049816947 0.06131083 -0.26543576 -0.338907 0.020528773 -0.25328928 -0.115670376
0.21594314 -0.060233407 -0.15799247 -0.083599105 0.05343381 -0.2827649 0.22690144 0.1347383
0.10089022 -0.491182 -0.08226955 0.10219165 0.14007801 -0.21871608 -0.037000977 -0.011134412
0.043438774 0.15210445 0.059310485 0.117379904 0.045970604 0.027520726 0.11332435 -0.16310598
-0.11706134 -0.27162117 0.41774628 -0.020839654 -0.03733334 0.10004907 0.19484407 -0.28896743
-0.101078935 -0.17537446 -0.19925976 -0.21783492 0.10521939 -0.06710946 0.032180887 -0.12875803
-0.43001646 -0.10446907 -0.013651392 0.23032486 -0.2596615 -0.1670162 -0.042778 0.38987327
0.32396716 0.010469523 -0.15438865 -0.054168478 0.16038038 -0.06746044 -0.12800744 0.11285988
-0.43784055 -0.11148744 -0.48218188 -0.16794443 -0.2779296 0.053205304 0.2988149 -0.09334659
-0.08936642 0.17112821 -0.30922487 -0.11864534 -0.027752617 -0.08836151 0.015086153 -0.08016016
-0.00059346016 -0.079275854 -0.08856399 -0.12143427 -0.20662291 -0.022493461 0.19756852 0.120302014
0.011693733 0.23540767 0.1766659 0.12084371 0.12469315 0.025747826 -0.041346442 0.16052969
-0.0023695682 -0.13495417 -0.19452243 0.24209714 -0.24184683 0.053897355 0.04862421 0.1649672
-0.10404695 0.28701583 -0.31511685 0.024128823 0.07410983 0.14651178 -0.20662038 0.20136195
-0.00475482 0.11375526 0.16156363 0.15185222 0.29838824 -0.02588474 0.20412864 0.1724395
-0.06871248 -0.055370472 0.065484285 0.05897747 0.24319452 -0.46628493 0.23074079 -0.1498204
0.05048512 0.08435679 -0.12640472 -0.35725376 -0.086153924 0.21702671 0.12661742 -0.12745857
-0.43073866 -0.2697494 0.17549297 0.040903665 -0.27243623 0.14985333 -0.04772349 -0.022766003
-0.106466636 -0.0061838115 -0.14850329 0.15362312 0.24519451 0.17358086 0.00014909913 -0.18369563
0.07830281 -0.010084039 -0.18344842 0.091878094 -0.20213205 -0.051543772 0.3563655 -0.3523373
-0.101105325 0.082923636 -0.19045429 0.28878328 0.56740576 0.04313233 0.17691423 -0.16536969
0.13390079 -0.014904568 -0.1963582 -0.10138491 0.10086899 -0.1581618 0.047674395 0.42684463
0.07395389 -0.14304376 -0.07781125 0.10160816 -0.17065533 0.2637404 0.28948942 -0.10362227
0.2793315 -0.3081585 -0.05548691 0.09898502 -0.114936106 -0.13420478 0.16160722 0.021329677
0.19934216 -0.04199249 0.24525817 0.17836706 0.17963432 0.12939933 -0.13722706 -0.089814626
-0.4448337 0.26538938 0.05057042 0.124475114 -0.00013231169 0.0109441485 -0.057060726 0.061785333
0.042478994 -0.064364485 -0.07323711 0.1363418 -0.1442148 0.21521486 -0.0883229 -0.07490973
-0.13442238 0.027389882 -0.12095469 -0.31361014 0.12000266 -0.03881082 -0.20521045 -0.29039884
0.18822613 -0.11068162 0.30573082 0.013612943 0.17493634 0.07019911 -0.13452508 0.31813228
-0.22506224 -0.038948387 0.031157417 -0.07439029 0.0036695679 0.3183182 0.072924 0.07351156
0.004939375 0.22425167 0.18993251 0.1742842 -0.49323055 0.3649492 0.30289418 -0.23936838

actor.init_leaf_node_embed.2.add_bias._bias f4 [64, 1]
00000000: 2296 92be 44a8 e53d 8ecf 853c 095e 47bc
00000010: 043b 21b9 761f a63e 4c7f 5d3e 4279 413e
00000020: 540f bd3e f7de 25be 2c57 fbbc dfdd 803d
00000030: 543a 23bd 2d9c bf3d d2d9 e8be b828 ffbd
00000040: a17e 9fbd 89c5 dc3d 6017 e83c 82dd 123e
00000050: 6465 87be 6653 19bd 450d ef3c 57ac 273e
00000060: d0fa 0dbe 0ebf 2fbc 4bcc 8c3c 49db 17bd
00000070: 739e 2abe f389 883e 1475 8a3d 12d3 493d
00000080: 1b10 b73d 4537 6cbe 19e9 36be 227a 6e3d
00000090: 0eef e03d c503 a83e 38ae bf3e eb1e e03e
000000a0: 4411 383e 9c26 863e 32e6 edbd 0939 fe3d
000000b0: a7e2 62bd 6432 7dbe d145 a9be 784a 1abe
000000c0: eadc b83e a38a 88bd 9467 48be 5ec4 d83e
000000d0: 488c 3abc 8c05 553e 77c5 99be 210f 28be
000000e0: a639 073e 2d3e b83e 19e7 323e c969 2c3e
000000f0: 7779 253e 5d69 cd3e f182 88be 7553 26be
-0.28630167 0.11213735 0.016334321 -0.012168416 -0.00015376142 0.32445878 0.21630591 0.18893912
0.36925757 -0.16198336 -0.030681215 0.062923186 -0.039850548 0.0935596 -0.45478684 -0.12458938
-0.077878244 0.10779864 0.028331459 0.14342311 -0.26444542 -0.03743305 0.029181132 0.16374336
-0.13865209 -0.010726703 0.017187258 -0.03707436 -0.16662006 0.26667747 0.06760612 0.049273558
0.08938619 -0.23067959 -0.17862357 0.058221944 0.10983096 0.32815376 0.37437606 0.4377359
0.17975336 0.26201332 -0.11616172 0.12413222 -0.055391934 -0.24726254 -0.33061078 -0.1506747
0.36106044 -0.06667068 -0.19570762 0.42337316 -0.011385985 0.20802897 -0.30033466 -0.16412021
0.13205585 0.35984936 0.1747097 0.16837229 0.16159616 0.40119448 -0.266624 -0.16242774

actor.init_next_embed.0.module.weight f4 [32, 6]
00000000: 0e5c 6ebe d250 2a3e 2104 abbd 9e91 f83e
00000010: eaf0 803e 2b55 29bd 2038 563e 9a49 a63e
00000020: 0abd 083c cfc6 243e f607 b53d 1912 73be
00000030: 7ae7 bf3d 89c8 c7be b2c4 753e 7fc8 4cbf
00000040: a596 e23d 0fd7 333e 3798 293f 12a8 113f
00000050: 6eaf e53d 233a d3bd 1fc1 8a3e 8c66 603e
00000060: 93ed a6be cd0f 76bd 60cc 45be 3ca5 3a3e
00000070: d202 1b3d c197 2ebe 9fa0 34be 70ed eb3d
00000080: 3dd2 ea3e bb3e b8bc 8a15 bbbe 0aec f6bd
00000090: 7cd2 1ebe 257a 68be 1fa7 c0bc d628 06bf
000000a0: 29f7 313a 333f 003f f0a0 4abe 5b3c bbbe
000000b0: a5ce 813e db2f c63d 54ba fabd 0f69 4f3d
000000c0: 20fe 09be 9e98 82be 20c8 af3e ba95 6bbe
000000d0: ef15 b03d e015 e4bb dfdf b7be c81e 21be
000000e0: e18f 14be b835 e83e 5665 2fbe 38a8 7bbd
000000f0: 8b24 903e bcdc 42bd 1fe4 18be e4eb f63c
00000100: 7849 85be 84fd ccbd cd9e 6ebe 0353 42be
00000110: 5b24 95be 87ca c0be 87dd c8bc 4106 313c
00000120: 8117 993e 41a7 28bf d1ae 32bd 0b38 dabd
00000130: dd62 ddbd 1e0d 66be 6636 0c3e 311c 85be
00000140: 937a 9e3e 4440 0b3f 7e41 b83d f65c 8ebc
00000150: e2a7 07be 8cfc 593d 48ba d8bd edea 9bbe
00000160: 79c1 953d b4ff 153e 5372 1c3c c0c9 8c3d
00000170: b5a4 6e3e 8d1b a0be 165f 09bd 3b85 80be
00000180: a52b 86bd 99f8 13be 79e2 02be 5a99 1dbf
00000190: b868 9f3e eb35 823e 85a2 78be be9e e83e
000001a0: dde7 fe3e 2e30 143e ff90 5e3e c8d4 143f
000001b0: d6e1 3bbe 7c35 6ebc 26dd b1be 786f 9abd
000001c0: 1be2 10be 6a53 e6be 8a0d a63d 307c 65be
000001d0: c0d7 463e 1674 9c3e e80a f2bd b3d6 17be
000001e0: 99e5 a83d c4c6 ba3e e633 243e b3fc 9fbf
000001f0: 3550 92be e507 b73e a5a9 f33e 768e 35be
00000200: f614 aa3d 50f7 ce3e 6241 a83e 5237 183f
00000210: 3bf0 67be a690 e23c adac babd fb09 ee3c
00000220: 7859 ccbe 1621 9bbc 26a7 b9bd 4a39 42be
00000230: 5232 06be e1e1 ebbd 21d3 a0bd 0eb6 0fbd
00000240: 00bb 67be 09fb 95bd d3cd ac3e c31d abbe
00000250: 0e0a 093f f8ea b6be 908e 09be ab12 54bd
00000260: 6e6b 113d 44df f5bd 9783 f8be f0b5 be3e
00000270: 1ce2 c6be 7e9e 2ebe 98f9 da3e a398 e03e
00000280: b48a 9a3b 6139 98be 84e1 9d3e f6a5 c8bd
00000290: 724c 0d3e b077 a2be 8009 9f3d f889 19be
000002a0: 8a7a e7bd fefa d73d a5f1 04bf 4ea9 33be
000002b0: b3fc 173d 61d6 823d 5343 383e 767b 2ebd
000002c0: 8101 a93e c33a 63be e106 1ebe 6c9a b0bd
000002d0: da8f 9fbd 2a72 b7bc 7ba9 81ba ce08 15be
000002e0: 1b42 14bf 4ef5 153f 0c15 8d3d be4c e1bd
000002f0: 4dc5 1fbe 19e0 b8bd b98e b33c e64f 1ebe
-0.23277304 0.16632393 -0.08350397 0.48548597 0.25183803 -0.041340988 0.20919847 0.3247803
0.008345852 0.16091464 0.08839409 -0.23737372 0.093703225 -0.39020184 0.24000815 -0.7999343
0.110638894 0.17562507 0.66247886 0.5689708 0.11215101 -0.10313823 0.27100465 0.21914119
-0.3260313 -0.060073663 -0.19316244 0.18227094 0.037844487 -0.17050077 -0.17639397 0.11519897
0.45863524 -0.02249085 -0.3653987 -0.1205674 -0.15509981 -0.22702844 -0.02351719 -0.5240606
0.0006788844 0.50096434 -0.19787955 -0.36569485 0.2535297 0.096770965 -0.122425705 0.0506373
-0.13475847 -0.25507063 0.3433237 -0.23006335 0.085979335 -0.0069606155 -0.35912988 -0.15734398
-0.1450801 0.45353484 -0.171285 -0.061439723 0.2815288 -0.04757379 -0.14930771 0.030141778
-0.26032615 -0.10009292 -0.23302765 -0.18976979 -0.291293 -0.37654516 -0.024519695 0.010804714
0.29900745 -0.6588021 -0.04362375 -0.106552206 -0.10809872 -0.22465941 0.13692626 -0.2599807
0.30952892 0.54394937 0.08996867 -0.017378312 -0.13247636 0.053219363 -0.10582405 -0.30452672
0.073122926 0.14648324 0.009548741 0.06874418 0.23305018 -0.3127102 -0.033537947 -0.25101647
-0.06551293 -0.14450301 -0.12781705 -0.6156212 0.31134582 0.2543176 -0.24280746 0.4543361
0.49786273 0.14471504 0.21734999 0.5813718 -0.18347868 -0.014539119 -0.34739035 -0.07540792
-0.14148752 -0.44985515 0.08108051 -0.22410655 0.1941824 0.30557317 -0.118184865 -0.14827995
0.08246917 0.3647977 0.16035423 -1.2498993 -0.28576818 0.3574821 0.47590366 -0.17730126
0.08304779 0.4042306 0.32862383 0.5945941 -0.22650234 0.027656864 -0.091149665 0.029057493
-0.3991201 -0.018936675 -0.09065084 -0.18967167 -0.13105133 -0.11517692 -0.0785277 -0.03508573
-0.22629929 -0.07323272 0.3375078 -0.33421144 0.5353097 -0.35726142 -0.1343329 -0.051775616
0.035502844 -0.12005475 -0.48537895 0.37248182 -0.38844383 -0.17052647 0.4276855 0.43866453
0.0047162417 -0.29731277 0.30836117 -0.097972795 0.13798693 -0.3173194 0.07765484 -0.14994037
-0.11302669 0.1054592 -0.5193122 -0.17545053 0.037106227 0.06388546 0.17994432 -0.04259821
0.3300896 -0.22190385 -0.15432312 -0.08623204 -0.077911094 -0.022393305 -0.0009892428 -0.1455414
-0.5791337 0.5857743 0.0688878 -0.110009655 -0.15602608 -0.09027118 0.021918641 -0.15460166

actor.init_next_embed.0.add_bias._bias f4 [32, 1]
00000000: 2ed7 1e3f 6926 dcbd 09a4 cebd 9254 df3e
00000010: 4bae 1b3b 2b50 20bd 6667 953e 7cb2 f0bc
00000020: d023 28bd 06f3 6cbd a830 2abe aaea 683e
00000030: 1b7a 41bc 96ff a13e 8a20 9abd aeeb ebbc
00000040: 84cb c3bc 5d39 b53e 5c51 6cbc 0179 09be
00000050: bb16 063f d2b5 e53d 8148 833c c58d 32bd
00000060: 6d82 a6bc 6f88 85bd d97d 29bd 15fb f4bb
00000070: 5ad9 febc fa41 10bc 507d 25bc 70ce a23b
0.6204709 -0.10749514 -0.10089881 0.4361921 0.002375501 -0.039138954 0.2918045 -0.029381983
-0.04104978 -0.057848953 -0.16620123 0.22745767 -0.011808897 0.3164031 -0.075257376 -0.028798904
-0.023900755 0.35395327 -0.014423694 -0.13425066 0.52378434 0.1121632 0.016025783 -0.043592233
-0.020325864 -0.06520163 -0.041379783 -0.0074762204 -0.0311095 -0.008804793 -0.010100678 0.004968457

actor.init_next_embed.2.module.weight f4 [64, 32]
00000000: 9dcb a5be eac3 e13d 62f4 bf3d c993 203e
00000010: 30dd 333e d3d2 e9bd 85a9 fe3c bb42 8f3e
00000020: 1394 f83d 1431 2a3d caf5 0c3e cb74 75be
00000030: d151 123b f252 f53d 92c6 4d3e fa7e 98bc
00000040: 4e68 a83e b6f9 7a3e e4fd a1bc 7be7 2a3e
00000050: 5d44 943d 969f 27be 6a2e 813e c09b 073f
00000060: c3e3 913d 8bd5 ac3c c71c 3fbb 70e7 19be
00000070: 084e 96bd 86b8 e1bd 77b5 853c 017d d5bd
00000080: 0218 c23e 202b b2bc 8f40 11be b730 c13d
00000090: b7bf 4b3e 4720 2e3e f182 9cbe eec6 e73d
000000a0: c605 16bd 0be4 a53d 9b9e 0cbe 5139 92be
000000b0: b2e5 8bbe cf84 c23d f0b7 da3e 3496 943e
000000c0: d734 89be e546 e13d f500 1e3e 6ff9 80be
000000d0: ba44 c4be b0e4 f8bd 8bb3 69be 1b13 82bd
000000e0: fdda 57bd 7e80 f63d c0a5 a83d 1d81 20be
000000f0: 5daa 983d 08ce 763d 1157 9abd 82a5 04be
00000100: d95c 363e f93e c73e f7e2 a63d 7c38 fc3d
00000110: fa15 823d 00e1 fa3d 7a3f 233e 2ef7 6fbe
00000120: 44e5 0e3e 2809 f9bd 48a2 7abd 8925 8bbe
00000130: b4a8 00bd 2aa0 bcbe a040 00be 819a 0b3c
00000140: 602b 263c 326d 78bd 78b0 2c3d c60c a6be
00000150: e255 a9be bc46 bf3e c71e 2a3e 4071 e0bd
00000160: 6e1a 243e bf13 a7be 68ac 1e3d fa5a 213e
00000170: f564 843e 739c c0bd 2b2c aebe e611 383e
00000180: 7634 103f c746 7d3e fe9a 1bbe 2ce5 8c3e
00000190: 4975 3b3e 6442 74bc ca7a 973d ad81 febc
000001a0: a567 313c a8d7 c63e 4490 183e c417 c03e
000001b0: 49ed 963d dee7 a23e 4a00 3abe e6b1 a83d
000001c0: 4451 1e3e 4868 a53e 7c70 d9bd 2003 363e
000001d0: af84 993e 0f32 223e 7966 fdbd fade 8dbe
000001e0: 75c1 5abd 7f49 8bbc cbdb 87be ca65 1c3e
000001f0: 2e98 ca3d 9a49 383d 369a 543e 09b4 063d
00000200: dd4a e83e 55b9 b1bc 85b6 e8ba cfae a63e
00000210: df1c 5d3e fb9d 2b3e f8c7 993d e554 283e
00000220: bad5 343e 3750 b9bd 0816 abbc 0ad2 a0bd
00000230: 0b6e 0cbe 9f85 af3c 7370 38be 8010 a8be
00000240: 45a2 b63d 57a2 c23d ffce 2b3d 19a7 96be
00000250: 62b7 ea3e b68e 463e 9cee 83bc d1c5 80bc
00000260: 6e66 2a3e 9c96 393e 7952 233e 2510 c7bd
00000270: 937c 6b3d 6f5b 183d 57b6 fd3d 4e7e f0bd
00000280: 2981 17bf 1538 01bf 6c9b 75bd b868 f6be
00000290: 7a8f 8d3c 3a25 1b3e ee52 48be b6cd 1a3e
000002a0: c75f ba3d f21e 093e cfbb 52be 3663 8bbe
000002b0: dfd7 dfbc 35a0 7dbd d59b 62bd 74dd 033e
000002c0: 418c 013b c4f0 41bc 03fc 2c3e 9bd9 2ebc
000002d0: d6d3 fabe 2085 8abd 5d79 903d bed5 80bd
000002e0: 86db 68be ab25 61be 9649 0bbe 3f47 36be
000002f0: 5350 fe3d 90b2 58be 9a85 953a f311 2cbe
00000300: a9c1 1c3e 2e48 29be 5401 86bd 0669 8c3d
00000310: 0707 e8bc 1aa6 9c3d 3a53 a4bd 8096 49bc
00000320: 2e9c ed3e b838 653d 08e6 2bbd 61c5 82bd
00000330: d921 51be c189 d6bc bf4d b0be c052 8cbe
00000340: 1cbf ddbe 9093 12bb 0ed5 b0be 201c 10be
00000350: e665 f1bd eb74 263c 6117 8a3d d4e4 9ebd
00000360: dc7e 55bd 55af 38be d2a5 043d 713a fd3c
00000370: bf4f 95bd 52b4 4e3e a304 b1bc de25 183e
00000380: 8212 343f fbd6 173e 290e de3c f707 993e
00000390: 620d df3d 8787 73be 6101 4b3d 0846 153e
000003a0: 17fb 46bd a25b d83d 6e82 373d 587a 013f
000003b0: 55fc ad3e 94ce 0dbe 33fa 903e a5b7 20be
000003c0: 7574 bd3d ef4c 583e b4f4 663d f34d 98bd
000003d0: 9802 10be 2d76 153f 3632 2d3e 94cd 8c3d
000003e0: c30d 633e 4eaf 4c3d 7d83 89be 97d5 e7bd
000003f0: 69f7 34be 80e0 2dbe e30f cd3e 2cbc 493d
-0.32381907 0.11023696 0.09372784 0.15681376 0.17564845 -0.11417165 0.031086693 0.279806
0.12137618 0.04155071 0.13765636 -0.23970334 0.0022326598 0.11978711 0.2009528 -0.018615235
0.32892078 0.2450932 -0.019774385 0.16689865 0.07239602 -0.16369471 0.25230724 0.5297203
0.0712352 0.021097919 -0.002916144 -0.15029693 -0.07339102 -0.11021523 0.01632188 -0.10424233
0.37908942 -0.02174908 -0.14184783 0.0943312 0.19897352 0.170045 -0.3056865 0.1131724
-0.0366266 0.08100136 -0.13732378 -0.28559354 -0.2732368 0.094979875 0.42718458 0.29020846
-0.26798126 0.1099985 0.15430053 -0.25190303 -0.38333684 -0.12152994 -0.22822396 -0.063513
-0.052699078 0.12036227 0.08234739 -0.15674253 0.07454369 0.06025508 -0.07536138 -0.12953761
0.17808856 0.38915232 0.08148759 0.12315461 0.06351848 0.122499466 0.15942183 -0.23434135
0.13954645 -0.121599495 -0.06118992 -0.27177075 -0.031410888 -0.36840945 -0.12524652 0.008520723
0.010142177 -0.06065101 0.04216048 -0.3243162 -0.33073336 0.37358654 0.16613303 -0.10959101
0.16025707 -0.32632253 0.03873864 0.15757361 0.25858274 -0.0940484 -0.34018072 0.17975578
0.5633005 0.2473403 -0.15195844 0.27518594 0.1830646 -0.014908407 0.07396467 -0.031067694
0.010827933 0.38836408 0.14898783 0.37518132 0.07369477 0.31817526 -0.18164173 0.082370564
0.15460688 0.32306123 -0.10617158 0.1777463 0.29984042 0.15839408 -0.12373061 -0.2770918
-0.05340715 -0.01700282 -0.26534876 0.15273204 0.09892307 0.044992067 0.20761952 0.03288654
0.45369616 -0.021694819 -0.001775459 0.32555243 0.21593045 0.16759484 0.07508844 0.16438635
0.17659655 -0.09048503 -0.020884529 -0.07852562 -0.13713853 0.02142602 -0.18011646 -0.32825089
0.08917669 0.0950362 0.041945454 -0.2942436 0.45843035 0.19390377 -0.016104989 -0.015719326
0.16640636 0.18123859 0.1594943 -0.09719876 0.05749185 0.037196573 0.12388294 -0.11742841
-0.5918146 -0.504762 -0.059962675 -0.4812677 0.017280329 0.1515092 -0.19562885 0.15117535
0.09100299 0.13390711 -0.20579456 -0.2722413 -0.027324615 -0.061920363 -0.055324394 0.12877446
0.0019767436 -0.011837188 0.1689301 -0.010671998 -0.48989743 -0.06763673 0.07054398 -0.06290768
-0.22739992 -0.21987025 -0.1360229 -0.17800616 0.124176644 -0.21161866 0.0011407614 -0.16803722
0.1530825 -0.1653144 -0.06543222 0.06855969 -0.028323663 0.07648869 -0.08023687 -0.012303948
0.46408218 0.055962294 -0.04196742 -0.06385303 -0.20423068 -0.026188733 -0.34434316 -0.27406883
-0.43309867 -0.0022365786 -0.34537548 -0.14073229 -0.11787014 0.010159711 0.067427404 -0.07758489
-0.052122936 -0.18035634 0.0323847 0.030911656 -0.07290601 0.20185974 -0.021608656 0.14858195
0.7034074 0.14828102 0.027106361 0.2988889 0.108912244 -0.23782168 0.049561862 0.14577496
-0.0485793 0.105643526 0.04480212 0.50577307 0.33981577 -0.13848335 0.28315887 -0.15695055
0.09250728 0.21123098 0.05638571 -0.07436743 -0.1406349 0.58383447 0.16913685 0.068751484
0.22173218 0.04997187 -0.2685813 -0.11320036 -0.17672504 -0.16980171 0.40051183 0.04925172

actor.init_next_embed.2.add_bias._bias f4 [64, 1]
00000000: e856 30be 27d7 7abd 6ffb 2fbc 047f 3b3f
00000010: 774e e43e 068c 44bf 2436 ad3c 00dc 173f
00000020: 6af7 c2be b870 373c 835b 813d ec75 893e
00000030: 9b9e 0c3e 0ed7 a6be dfcc 093f 7f34 d7be
00000040: 6103 cb3d cb4a a83e 09d8 a93d 3596 863e
00000050: ed95 5abe 0f8a 1f3c 5f8f 01be bd67 d5be
00000060: 8ea7 10be 1b76 4fbe 4842 25bf b25e 06bd
00000070: a462 573f 9852 5fbd 5e90 4dbe cb0e e43e
00000080: 7fa6 96bd 1fd0 be3d 0443 50bd 83aa 19be
00000090: 0287 bdbe b886 10bf 723d 16bf 70ef 18bf
000000a0: c5d5 47be 76c2 94bd 3a70 3dbe fe8b adbe
000000b0: b8d7 a5be 29fd 1a3f 487e ce3d 4523 f8bc
000000c0: 0c5d 053f c4b1 493e edb6 78bf efa2 dbbe
000000d0: dd1d c83d 5851 ecbe 18b3 483f d888 9abe
000000e0: cf2d 1fbd 6864 15bf 95e8 52bd 602f b73e
000000f0: 1571 193e 5eb1 5f3e 02e7 83be a6aa d0bc
-0.17220652 -0.06124034 -0.010741099 0.73240685 0.44591114 -0.7677616 0.02114398 0.5932007
-0.38079387 0.011196308 0.063162826 0.2684778 0.13732378 -0.3258595 0.53828233 -0.4203224
0.09912754 0.32869563 0.082931586 0.26286474 -0.21346255 0.009737506 -0.12652348 -0.4168071
-0.14126417 -0.20259897 -0.6455426 -0.032805152 0.8413489 -0.054522127 -0.20074603 0.44542536
-0.07355975 0.0931704 -0.05084516 -0.15006451 -0.37017065 -0.56455564 -0.5868751 -0.5974035
-0.1951514 -0.07263653 -0.18499842 -0.33895868 -0.32391143 0.6054254 0.1008268 -0.030290255
0.52095103 0.19696718 -0.9715412 -0.42897746 0.09771321 -0.4615581 0.78398275 -0.30182528
-0.038862046 -0.5835633 -0.05149134 0.35778332 0.14984544 0.21845004 -0.25762182 -0.025471997

actor.embedder.layers.0.0.module.W_query.weight f4 [64, 64]
00000000: 50ab a9bd fd62 ad3c 3a08 3cbe 70f0 93bd
00000010: 7171 05be 8ba0 ef3c efa2 4dbd ab77 fcbd
00000020: 28c9 453c 023c 75bd ad9e 1f3d edef 093c
00000030: 429c 0d3e 21ec be3d 29eb bebd 0a21 efbb
00000040: 405e 01be 8dce d43d 3ea6 3dbc da2a 8f3d
00000050: 5ef3 09be ac60 403d 41a3 bbbd 31e1 54bd
00000060: ae1e 62bc 3ce7 6f3d 3c72 8c3d 1b5b cfbd
00000070: 0d58 0ebe 4313 013e 27bd 8dbd 640c 963c
00000080: 41e9 a73d b237 09be b60f c2bd d333 e33c
00000090: 85ed 8ebd 0b6e 85bb 0d48 9f3d 7b0f 9c3c
000000a0: 77f4 653c b4c6 c4bc 61ef 13be d1b2 0bbe
000000b0: 93a6 1f3b bd94 e2bd 3fc2 c43d b4fb 703d
000000c0: e9b5 493d 9600 5fbc e5e8 a9bd d127 3e3d
000000d0: 8d3b 0abe 7f43 b5bd a2e5 b8bd d152 0fbe
000000e0: efa9 a5bd 2b69 743d b031 55bd 05dd c63d
000000f0: c388 92bd 05e8 753d ae7e 693d 19ab d43d
00000100: 3eb2 5b3d ab53 da3d 0238 bfbc 14fa 12bd
00000110: 4342 8dbb 3120 d83d 30a4 0f3d 8d3f a73d
00000120: 303f 903d 585a 03be ec15 1ebd ae70 d43d
00000130: 6f2f a83d 3877 3bbe 6142 ce3d 695d 43bd
00000140: 222c 1c3d 87b4 c73c 9216 dfbc 66fe b53d
00000150: 09b6 1d3d 9986 1e3e 65dd ef3d 19b4 b0bd
00000160: 2c59 713c 4071 e0bd 5a0d d83d 6bbf 98bd
00000170: a1d3 b63d 0f12 14be 658b f53d da2b c13d
00000180: 7b1a c3bd ef9a 6dbd a546 9a3c 4e8e 4abc
00000190: 0a4e e2bd eeae afbd 8039 92bd f59f 53bd
000001a0: d1d7 e73d 9b84 85bd ef36 d93d 1828 19bd
000001b0: 2cb4 943c 5c99 a43d b4b0 9dbb fac0 fabb
000001c0: bda9 dcbd 43bc af3d 386e 363c 47ac f63b
000001d0: 3a2f 7d3b 7109 6abd 3d17 c8bd 85c9 48ba
000001e0: 7571 403d cb45 663d db4e 813d 89fb 193c
000001f0: db49 a33d d71f 2abd 54e5 f8bd 508a 933d
00000200: 1bcd c0bd 3664 f73d 0bc4 223e 5a40 adbd
00000210: 2bff 14bd ec9b 173e c0dd a6bd 8736 893d
00000220: 73eb 0e3e 5c3f 54bd 2cb9 c0bd c6af a63d
00000230: 258f 34be 02f2 793d e4cc 1ebe ce33 0abe
00000240: d70c 59bb db8f 753d bbaa 15be 8537 b1bd
00000250: 498f 913d 95bf 3dbc e546 9dbc 140f 233d
00000260: e89b bbbc 0bdd e03d 6826 a8bd 9c00 28bd
00000270: bcc9 c03d e832 a4bd 6ed3 183e 56f9 443c
00000280: 8ca7 d83d 36d4 dc3d 5356 adbc 9b40 e43c
00000290: 14f1 8ebc 5ee9 ee3d 3397 a03b a11b 23bd
000002a0: 0832 81bd 6d43 d73d d5d7 223e e07d d6bd
000002b0: 8ea1 2abe 5349 00be bcaa 13bd b556 7fbd
000002c0: 6ecf 4cbb 138d 7abd ca7a 82bd cd06 133e
000002d0: 63d0 0cbd eaae 943d 92ab aebd fe85 c0bd
000002e0: eab0 c93d b62f 1f3d 00b7 a73c 2d22 113e
000002f0: 75cc e13d a98f a1bc 97cc 473d f92b 943d
00000300: ea49 b33c 4b23 303d 7ed5 0a3c 6a5e fb3d
00000310: 1243 59bd ac4b 8dbd 43ed c3bd 3aea 5cbd
00000320: 65eb dbbd 24b2 36bd efd1 c0bd 28f8 65bd
00000330: 7f75 b1bd ef03 033c fe80 393d 806c d73c
00000340: 9c81 38bc 7066 b43c 5f62 8cbd cb06 123d
00000350: ea54 c33d 3c42 a33d 46fc 91bd 1dd4 a83d
00000360: 2451 83bd 5dc3 f03c ee91 bbbd 8d73 c5bc
00000370: bc24 113e 0724 203c 3d7b abbd fe78 713d
00000380: 903c 143e a99f 75bc f2eb e9bb 44ad d63d
00000390: 6bfe 8e3d cdd6 d53d ccd3 893c c2bd c5bd
000003a0: 9e34 d43d 30cd 75bd 633c 9f3c 9d69 973d
000003b0: 5240 6ebd 956a 02bc 6780 b53d 4eff 71bd
000003c0: d7fe af3d 02f6 993d af94 e8bc ad45 a43c
000003d0: 3adf 89bd 361e 463c 00c1 ab3c 2c9f 8b3d
000003e0: 95c2 2cbd 9b72 c7bd a8a2 2bbc b4fc 44bd
000003f0: b4f2 e2bd bb35 38bd e77e 8b3d 4f1f 0b3d
-0.082846284 0.021165365 -0.18362513 -0.07223594 -0.13031556 0.029251358 -0.050204214 -0.12327512
0.012071885 -0.05987168 0.038969684 0.008419019 0.13829139 0.09322382 -0.09322197 -0.0072976397
-0.1263361 0.10390959 -0.01157528 0.06990595 -0.13471743 0.046967193 -0.091619976 -0.05197257
-0.01380126 0.05857013 0.06857726 -0.10124799 -0.13900776 0.12605004 -0.069208436 0.018316455
0.081987865 -0.13400152 -0.09475653 0.027734673 -0.06978897 -0.004071956 0.077774145 0.01905035
0.014035336 -0.02402053 -0.14446785 -0.13642432 0.002436076 -0.11063526 0.09607362 0.058833793
0.04924575 -0.01361098 -0.08296374 0.04642469 -0.1349928 -0.088507645 -0.09028174 -0.13996436
-0.08089053 0.05967061 -0.05204934 0.09710125 -0.071549915 0.060035724 0.057005577 0.10384197
0.053636782 0.1066049 -0.023342136 -0.035883024 -0.0043108775 0.10553015 0.03506869 0.08166418
0.07043302 -0.12827432 -0.038595125 0.103730544 0.08212172 -0.18307197 0.100712545 -0.047696505
0.038128026 0.024378074 -0.027232442 0.08886413 0.03850368 0.15481032 0.117121495 -0.08628101
0.014730733 -0.10959101 0.105494216 -0.07458385 0.08927084 -0.14460014 0.11989478 0.09432192
-0.09526535 -0.058009084 0.018832514 -0.01236303 -0.11050041 -0.08578287 -0.071398735 -0.05166622
0.113204606 -0.06519433 0.10606181 -0.037391752 0.018152319 0.080370635 -0.0048123244 -0.007652399
-0.107745625 0.0858083 0.011134677 0.0075278613 0.0038632886 -0.05713791 -0.09770057 -0.0007659423
0.0469832 0.056218904 0.063138686 0.00939835 0.07973071 -0.04153427 -0.12153116 0.072041154
-0.09414121 0.120796606 0.15895097 -0.0845954 -0.03637616 0.14805573 -0.08147764 0.066998534
0.13957004 -0.051818237 -0.09410319 0.08138995 -0.1763273 0.061021812 -0.15507847 -0.13496324
-0.0033119225 0.059951644 -0.1461591 -0.08653168 0.071074076 -0.011581321 -0.019198844 0.0398093
-0.02290149 0.109796606 -0.082104504 -0.041016206 0.09413478 -0.08017522 0.14924404 0.012022337
0.10578832 0.107826635 -0.021159327 0.027862838 -0.01744894 0.11665605 0.004900837 -0.03982127
-0.06308371 0.10510907 0.15902646 -0.104732275 -0.1666319 -0.12527971 -0.036051497 -0.06233855
-0.0031251567 -0.061169695 -0.063710764 0.14358063 -0.03437842 0.07259925 -0.08528818 -0.09400557
0.09848197 0.03886386 0.020473003 0.14173193 0.11025325 -0.019721823 0.048779096 0.072349496
0.02188583 0.043002408 0.008473752 0.122738674 -0.05304248 -0.06899199 -0.095667385 -0.053934313
-0.10738257 -0.044603482 -0.09415042 -0.056144863 -0.08664989 0.007996543 0.045289032 0.026296854
-0.01126137 0.022021502 -0.068547 0.03565101 0.095376804 0.079716176 -0.071281955 0.082435824
-0.06411961 0.029390031 -0.09158693 -0.02410295 0.1417417 0.009774215 -0.08373115 0.058953278
0.14476228 -0.014991679 -0.0071387226 0.104822665 0.0698212 0.104413606 0.016824625 -0.09655334
0.103615984 -0.060010135 0.019437974 0.07393191 -0.05816681 -0.007959981 0.088623814 -0.05908137
0.08593529 0.075176254 -0.02839121 0.020052755 -0.0673203 0.012092164 0.020966053 0.06817469
-0.042177755 -0.09738656 -0.010475792 -0.04809256 -0.11081448 -0.044973116 0.06811314 0.033965405
