pretrained_models/experiment/Discrete_acktr_20x10x10Bin_s42_inh_800_defaultBox-2022.08.18-13-06-52/PCT-Discrete_acktr_20x10x10Bin_s42_inh_800_defaultBox-2022.08.18-13-06-52_2022.08.18-13-30-37.pt (torch, 236314 bytes, 24 tensors)

actor.init_internal_node_embed.0.module.weight f4 [32, 6]
000000 7b 3d a0 3d e2 11 00 3f b4 6a f3 3e ee 94 42 be
       0.078242265 0.50027287 0.47542346 -0.19002125
000010 20 63 75 3d 1e 77 a0 3e 36 fb 09 3e df 5c dc 3e
       0.059908986 0.3134088 0.13474736 0.43039605
000020 58 53 e3 3c 76 e8 a8 bd 95 d6 b5 be 1b b4 bd bd
       0.027749702 -0.082474634 -0.35515276 -0.09262868
000030 91 e1 6a 3b 14 96 0b 3b e6 5f 1d 3d 10 d2 d8 3d
       0.0035840014 0.002129917 0.038421534 0.10586941
000040 3f 25 82 be ec a2 79 3d 3d 63 4a be 1a a3 87 3d
       -0.25419042 0.06094639 -0.19764419 0.06622906
000050 57 08 85 be 72 e5 9f 3e d7 a5 06 3e 39 6c 3c 3f
       -0.25982925 0.3122974 0.131492 0.73602635
000060 32 17 0d 3f a9 cd 51 be 4c 05 b9 bc d6 ed 80 3d
       0.5511352 -0.2048861 -0.022585534 0.062953636
000070 c3 87 85 bd b6 70 f7 bd c2 c3 8b 3e 75 05 97 3d
       -0.06520035 -0.12082045 0.2729779 0.07374088
000080 d0 54 95 be 08 07 f0 3e aa de 8e be 0e c9 a1 be
       -0.2916627 0.46880364 -0.27904254 -0.31598705
000090 12 09 d8 be 59 70 5a 3e 0a 76 1c 3e 26 96 5b 3e
       -0.4219442 0.2133192 0.15279403 0.21443996
0000a0 21 cf a1 be df 60 14 be 57 87 46 3e 95 25 c8 bd
       -0.3160334 -0.14490078 0.19387566 -0.09772793
0000b0 82 7f d2 3e c9 13 30 bc c7 44 29 bf b5 85 aa 3d
       0.41112906 -0.010746905 -0.6612057 0.08326284
0000c0 4c ae bf be 83 5c 40 3e 90 ad 12 bf 16 8c ae 3e
       -0.37437665 0.1878529 -0.57296085 0.34091252
0000d0 da b0 c7 3c 4a b2 84 bc bb ab e9 3e 4a 27 00 be
       0.024376322 -0.016198296 0.45638832 -0.12514988
0000e0 08 79 e9 bd 6f 66 87 3e da dd 00 be 51 49 c6 bd
       -0.11400038 0.26445338 -0.1258463 -0.09681953
0000f0 f3 4b 92 3e 38 3b a3 3e ba 63 b2 be ae 6e 7a 3e
       0.2857357 0.31881118 -0.3484171 0.24456283
000100 b5 c6 c8 3e bf 4a 11 bf b6 f4 5d be 06 f0 f7 bd
       0.392141 -0.5675468 -0.21675381 -0.12106328
000110 f8 db 8c bd ed 78 0b be 65 17 90 be 3b ca ce bd
       -0.06877893 -0.13620348 -0.2814285 -0.10097166
000120 87 7c 11 3f a9 d2 fa b9 43 0a ff bc 31 c5 21 3e
       0.5683064 -0.0004784067 -0.031132823 0.15797879
000130 44 cc fb bd 41 0f 03 bd 95 71 ec 3e 9f 9e b9 3d
       -0.1229482 -0.03199697 0.46180406 0.09063458
000140 bf 45 b9 be 1e e6 e5 bd f5 3e 82 3e bd 56 d2 be
       -0.36186025 -0.11225532 0.25438657 -0.410818
000150 d4 df 7f 3e 50 01 c0 3e 2f 34 ad be b6 11 1c 3d
       0.24987727 0.37501 -0.33828875 0.038102828
000160 52 2d 25 3e 4a 21 1c be d8 8c 3b bd db e7 94 be
       0.1613057 -0.15247074 -0.045788616 -0.29083142
000170 4a 94 81 be 5c ad a3 bd 78 7b 26 3e b0 46 97 be
       -0.25308448 -0.0799205 0.16258037 -0.29546118
000180 01 6c dd 3d 90 48 31 be 59 4f 56 3e 6e e1 10 bf
       0.10811616 -0.17312837 0.20928706 -0.5659398
000190 af 9e b2 3e 99 db 8b 3e 7e 7f ce 3b 50 4a 93 3d
       0.3488669 0.27315977 0.0063018193 0.07191908
0001a0 95 bd 9f 3d 0d 76 62 3e 60 b4 fc be bd a0 92 be
       0.07799832 0.22115345 -0.49356365 -0.2863826
0001b0 20 e6 9b 3e c6 78 c4 3d ed 59 d0 be 2d 97 88 3e
       0.3044901 0.09593348 -0.40693608 0.26677838
0001c0 e5 57 7f 3e 15 59 86 bc 85 12 a4 3e ab 4a a9 bd
       0.24935873 -0.0163999 0.3204538 -0.08266195
0001d0 86 87 9b 3d f7 3b 38 be ba 2c 30 be fb 0a cb 3d
       0.075942084 -0.17991625 -0.17204562 0.09914204
0001e0 05 26 ce bc 0b 33 97 3e 2f 85 ac be d1 61 82 3e
       -0.025164614 0.2953113 -0.3369536 0.25465253
0001f0 21 f8 b7 3d 96 9b b4 be 51 02 2c be a1 58 db bd
       0.08982874 -0.35274953 -0.16797759 -0.10710264
000200 fa 90 50 be c0 47 23 3e fd 6c ac bd 39 f9 db be
       -0.20367804 0.15945339 -0.08419225 -0.4296358
000210 7c 7e dd be b2 8e e7 be ca 7e ee be 9e 8d 9f 3e
       -0.43260562 -0.45226055 -0.46581107 0.31162733
000220 5f bc 06 3e a4 4a f5 3d 2b c6 34 bd cc ee 7a bd
       0.13157795 0.11977127 -0.0441343 -0.06126289
000230 ef 61 ad be b0 e6 cb bd b7 ad c3 bd 68 84 0e 3f
       -0.3386378 -0.099561095 -0.09554618 0.55670786
000240 8f 11 02 be 93 98 4b 3d 57 1f 88 3f 81 9f 9f 3e
       -0.1270201 0.049706053 1.0634564 0.3117638
000250 f3 39 fa 3d 05 0f 94 3e d8 51 11 3c 98 da 83 3e
       0.12218084 0.2891771 0.008869611 0.2575271
000260 06 c3 17 3e 81 90 6a be df 49 7c be 8b ab 84 3e
       0.1482049 -0.22906686 -0.24637555 0.25912127
000270 13 2c af be 5f 1b 12 3e b1 0d 17 be 9e 5b c0 bc
       -0.34213313 0.14268254 -0.14751317 -0.023481186
000280 ae 53 bb 3e 4d 21 3e 3d 62 e1 9f bd bb 95 b5 3c
       0.3658728 0.046418477 -0.0780666 0.022166124
000290 7e e4 ae 3e 1c 78 bf be d0 c2 4e bd 01 05 49 be
       0.341587 -0.37396324 -0.050478756 -0.19630815
0002a0 da 29 8a be 0f 30 25 bf f3 26 a3 bd c8 87 a9 3d
       -0.26985055 -0.64526457 -0.07966413 0.08277851
0002b0 33 52 7c 3d c5 7e 6e be a3 56 8f be 7c 3c 88 3e
       0.06160183 -0.23290546 -0.27995786 0.26608646
0002c0 24 03 34 3e e8 99 7b be 83 27 82 3c 2c c4 3d bd
       0.17579323 -0.2457043 0.015887981 -0.046329662
0002d0 9e f7 a2 3e 75 22 8c 3c 16 bb 97 bd d2 cb 02 ba
       0.31829542 0.017106274 -0.07408731 -0.0004989478
0002e0 77 b3 76 3e 6f df ad be f9 4f 1f 3e 7a 06 31 3e
       0.24091898 -0.3395953 0.15557851 0.17287627
0002f0 fd 53 44 be b1 2f c3 bd 25 d8 79 bd 1c 22 ac 3e
       -0.19172664 -0.09530581 -0.060997147 0.33619773

actor.init_internal_node_embed.0.add_bias._bias f4 [32, 1]
000000 23 75 02 3d 75 a2 82 3c cf 97 f6 bc 26 3c 75 3d
       0.03184999 0.015946606 -0.030101685 0.059871815
000010 5e 1b fc 3d 80 0b 2e 3c e3 4b 8d bc fa 09 af 3c
       0.123099074 0.010622859 -0.0172481 0.021367062
000020 1e e9 e9 3c 2c 4c a1 3d 21 ca c5 3c 54 f8 8f 3c
       0.028553542 0.07875857 0.024144234 0.017574467
000030 98 62 22 3d ff a7 be 3c 7a eb a6 3b 29 e0 d3 bb
       0.039644808 0.023273466 0.005093989 -0.006465931
000040 55 5f 42 3c d2 db 3a 3c c4 a8 30 3b b2 3b fe 39
       0.011863549 0.011404948 0.002695606 0.00048491132
000050 d2 e5 37 bc de f8 b2 3c 47 19 f7 bb c2 69 ed bb
       -0.011224227 0.021847185 -0.007540855 -0.0072452733
000060 c5 f4 85 3d 1d b9 63 3c 59 84 35 bc bd a2 98 bc
       0.06540827 0.013899115 -0.011078917 -0.018632287
000070 70 2b 2c 3b 93 d4 9a bb 77 1d 53 3c bb c3 17 3d
       0.0026271008 -0.004725048 0.012885443 0.037051897

actor.init_internal_node_embed.2.module.weight f4 [64, 32]
000000 c8 cd 6a be 03 f1 d4 3d f0 21 2b be 84 5d 3b 3e
       -0.22930062 0.10397532 -0.16712165 0.18297392
000010 0c 78 49 3e 57 5a 81 3d 15 ae a8 3d 1b d6 9a 3d
       0.196747 0.06316059 0.082363285 0.075603686
000020 f4 7f 72 be 43 9a 47 be 17 02 0e be 9a 3a b8 3d
       -0.23681623 -0.1949244 -0.13867985 0.08995552
000030 81 46 c0 bd 13 3a 38 be da d0 15 3e 85 33 34 be
       -0.093884476 -0.17990904 0.14630452 -0.17597778
000040 8a d3 8e 3e 76 db 93 bd 45 ff 98 bc 1b 65 36 3e
       0.27895766 -0.07219593 -0.01867641 0.17812006
000050 13 8f 10 bd 07 14 25 be e7 82 62 be 22 c8 2c be
       -0.035292696 -0.16120921 -0.22120248 -0.1687322
000060 0c 5f 54 bd c0 b2 8d 3e 62 8d 06 3e ec 04 cd 3d
       -0.051848456 0.27675438 0.13139871 0.100107044
000070 1c 94 87 bd b4 03 5f be 27 e4 39 be 9e 39 3e 3e
       -0.066200465 -0.21778756 -0.1815344 0.18576667
000080 8d 94 8e be 39 6a a6 be 5d 43 ae be 95 49 4e be
       -0.2784771 -0.32502916 -0.3403577 -0.20145257
000090 5b a7 7e bc 37 10 14 3e e2 18 1c 3b 26 d1 c7 3e
       -0.01554283 0.1445931 0.0023818542 0.39026755
0000a0 16 a4 fc bc 57 8e b0 bd 66 a7 b3 bc 4b a6 8c bd
       -0.030839961 -0.08620899 -0.021930408 -0.06867655
0000b0 85 94 89 be 22 b5 28 3c 73 6f 1b be 0f 79 26 3e
       -0.26871124 0.010297092 -0.15179233 0.16257118
0000c0 72 0a 4c 3d ef 7c d7 bc 08 f4 99 be 06 2f 1a be
       0.04981465 -0.02630469 -0.30068994 -0.15057
0000d0 29 5b 84 3e c8 6d 9a 3d e2 39 ab 3d aa 36 65 be
       0.258508 0.0754047 0.0836065 -0.22384134
0000e0 a1 0c 0d be 4b 80 ac bb c3 bb bb 3c f0 37 26 3e
       -0.13774349 -0.005264317 0.02291668 0.16232276
0000f0 09 eb 75 be 78 a8 62 3e fd 1d bf 3e a0 2e 4f 3d
       -0.2401544 0.22134578 0.37327567 0.050581574
000100 0d 87 e1 3e cf 49 97 bd a8 aa cf bd 9f d2 78 3e
       0.44048348 -0.07387125 -0.10139972 0.24299096
000110 bd 81 18 be 40 39 84 3e 9a 0f 89 be 42 35 81 be
       -0.14893241 0.25824928 -0.26769716 -0.25235945
000120 de be 10 3e ab 39 41 3e 00 d9 94 bd d6 46 65 be
       0.1413531 0.18869655 -0.07267952 -0.22390303
000130 12 95 fb 3e e0 15 2f be 5f 47 c1 bd eb 66 24 bc
       0.4913717 -0.17098188 -0.09437441 -0.010034303
000140 c3 d1 82 3e 9d 6b 9e 3d ab 34 66 be ed bb 2d 3e
       0.2555066 0.07735369 -0.22481029 0.16966219
000150 65 c7 91 be a6 ae 21 bb 52 36 bd 3d 80 74 35 be
       -0.28472438 -0.002467075 0.092388764 -0.17720222
000160 90 83 68 3e 38 53 d8 bd 38 d1 84 be 0c 64 4c bd
       0.22706437 -0.10562748 -0.2594087 -0.0499001
000170 d0 fe 2b bd d9 a5 8e 3c f7 d8 3c 3e e3 ec 48 bc
       -0.041991055 0.017413067 0.1844214 -0.012263509
000180 00 b9 65 bd 7d 3a 01 3f ac e0 c0 bd 86 e7 6c be
       -0.056084633 0.5047987 -0.09417853 -0.23135194
000190 d0 51 f5 3d 3b b7 d9 bd d3 2d a1 be f8 a8 81 3d
       0.11978495 -0.106306516 -0.31480274 0.06331056
0001a0 e8 94 ee bd 7a 36 af bc 55 d1 9a 3d 27 85 e6 3e
       -0.11649495 -0.021388281 0.07559458 0.45023462
0001b0 45 18 19 bd d0 9f 4d bd 37 93 06 be d1 45 31 be
       -0.03737666 -0.050201237 -0.13142096 -0.17311789
0001c0 e7 0b 03 bd 02 87 2a be 9b 4d 55 bd 94 b1 3c be
       -0.031993773 -0.16653064 -0.052075963 -0.18427116
0001d0 02 06 4a be d7 c5 39 3d f6 69 8a 3e 68 99 c5 3d
       -0.19728854 0.04535469 0.27033967 0.096484005
0001e0 7f 88 03 be 5d 73 f0 3d 56 1b 81 3d 2e c0 10 3d
       -0.12845038 0.11740754 0.06304042 0.035339527
0001f0 60 e8 23 3e 42 7a 1f 3e 13 a7 c5 3d 1b e5 cd bc
       0.16006613 0.15573981 0.096510075 -0.02513366
000200 c3 04 c9 be bf 92 94 3d d8 97 00 3e f8 18 b7 bd
       -0.39261445 0.07254552 0.12557924 -0.08940309
000210 f7 ba 02 be 34 ab 0d be 4c bd ef bd 38 30 67 3d
       -0.12766634 -0.1383484 -0.117060274 0.05644247
000220 86 ad 03 3e d9 98 4e 3c a2 f4 88 bd 95 43 1c be
       0.12859163 0.012609684 -0.06687285 -0.15260155
000230 2a 2a 51 be 7d 61 14 3e b5 46 cc bd a7 77 45 bc
       -0.2042624 0.14490314 -0.09974424 -0.012052453
000240 69 6b ad 3d d7 a1 03 3e 83 3a 09 bf f0 65 2f be
       0.084677525 0.12854706 -0.53604907 -0.1712873
000250 81 e4 77 bd 65 a6 5a 3d 59 07 f2 3e 4f da 4c be
       -0.060520653 0.053381342 0.4727123 -0.20005153
000260 76 62 0e bf 21 2f f6 3d f5 07 b8 3d ea ed 2f 3c
       -0.5561899 0.12020708 0.08985893 0.0107378755
000270 0c d5 88 3e 39 c9 11 bd da 16 2e 3d 7a b7 b0 bd
       0.26725042 -0.03559229 0.04250226 -0.086287454
000280 12 2a 3f be ed 09 cc 3d 64 57 b6 bd 94 4f 9e 3d
       -0.18668392 0.09962831 -0.08903387 0.07730022
000290 43 44 0d 3f 1b c1 ec 3c 94 28 96 3e 2b 07 b1 be
       0.55182284 0.028900674 0.29327834 -0.3457578
0002a0 53 57 31 3e 85 e5 d9 3e 7d 51 e8 3e 9b 81 48 3e
       0.17318468 0.42557922 0.4537467 0.1958069
0002b0 5c 8e 26 3e 16 96 9f 3d bf 13 91 3e b1 35 35 bc
       0.16265243 0.077922985 0.28335378 -0.011060164
0002c0 31 02 53 be d9 ff ab 3a 2f 03 34 3c 40 f5 d5 bd
       -0.20606305 0.0013122513 0.010987087 -0.10447168
0002d0 19 bd a9 3e 26 c0 25 bc 64 9b 28 be 1d 2b a3 bd
       0.33152083 -0.010116613 -0.16465527 -0.079672076
0002e0 e9 10 23 bf 7a 6d 4c 3d 5f 8f 89 be 86 19 6e be
       -0.6369768 0.049909092 -0.26867196 -0.23251924
0002f0 f4 cf 6b bd 83 eb 83 3c 8e 11 89 3e c3 cf 9d bd
       -0.057571366 0.016103512 0.26771206 -0.07705643
000300 01 cf 10 be e8 50 9f be 63 c6 18 be 79 8d f7 bd
       -0.14141466 -0.31116414 -0.14919429 -0.12087531
000310 0b d5 da 3c ae 38 13 3e 41 f6 6e bd 43 53 3b bd
       0.026712915 0.1437709 -0.058340315 -0.0457337
000320 c8 26 31 be e9 5b d2 3e 95 95 92 be 80 4c f2 3d
       -0.1729995 0.41085747 -0.28629747 0.118309975
000330 80 6e ae 3e 27 17 82 bd 46 7b 24 3e e5 d5 49 bd
       0.3406868 -0.06352072 0.1606265 -0.04927625
000340 3e cc 20 be 56 d4 77 be 16 29 00 3f 63 e5 3c 3e
       -0.15702912 -0.24202093 0.5006269 0.18446879
000350 f1 29 e6 bd a4 23 dc 3d ec d8 be bd 50 d6 10 3e
       -0.112384684 0.107489854 -0.09318718 0.14144254
000360 b6 55 29 bf 8f 57 3b be e0 7a b9 3c f7 8e 3a 3d
       -0.6614641 -0.1829512 0.0226416 0.0455465
000370 9f 58 c2 3c 20 39 73 3e fc 1b 97 bd 21 29 8f be
       0.023723898 0.2375226 -0.073783845 -0.27961066
000380 ad 63 1c 3f c9 9f 91 3e 17 f0 87 3e cc ce 82 3e
       0.61089593 0.2844222 0.26550362 0.25548398
000390 93 7f 05 3c ba 6e 45 3e ee bd 93 3e db 3b 87 3d
       0.008148092 0.1928052 0.28855842 0.066032134
0003a0 19 f4 c2 be b5 27 cd be a7 ac e5 3c 8d f3 2e be
       -0.38076857 -0.40069357 0.028036429 -0.17085095
0003b0 2a bd 00 3f ac ee 64 be 16 96 4c 3d 53 a6 44 3d
       0.5028864 -0.22356671 0.04994782 0.04801018
0003c0 ee 62 b0 bd 40 b4 61 bd 30 00 2c 3e 46 44 1e ba
       -0.08612619 -0.05510354 0.16796947 -0.0006037395
0003d0 2e 12 f2 ba 99 94 d6 bd 4d 1e df 3d dd 41 13 bd
       -0.0018468553 -0.104775615 0.10894451 -0.035951484
0003e0 ad 02 da 3e c2 74 3f bd b7 14 62 3e 22 ad 0d bd
       0.42580166 -0.04674221 0.22078215 -0.03458894
0003f0 63 72 5c 3d 42 fc 92 3e 52 b7 c7 be 41 9b 61 be
       0.053820025 0.28708082 -0.3900705 -0.22031881

actor.init_internal_node_embed.2.add_bias._bias f4 [64, 1]
000000 cf fd 66 bc f7 ed 3a bd 15 39 30 3d 1a 5f ea bc
       -0.014098599 -0.045637097 0.043023188 -0.028609801
000010 6e f7 68 bd 02 8d 1c 3d 98 e1 60 bd 83 14 a1 3d
       -0.056876592 0.038220413 -0.054902643 0.078652404
000020 ef 92 2a bd 2b 4b 24 bd bd e0 a0 bc 9d e5 ac bc
       -0.041644033 -0.04011075 -0.019638414 -0.021105582
000030 5b 1a d9 bd f0 f5 0a bd 39 a4 a0 bc a7 1e 8a bb
       -0.1060073 -0.03392595 -0.019609557 -0.00421508
000040 db d4 5e bd b0 1a 3f bd a0 62 ed bd 64 26 38 3d
       -0.054402214 -0.04665631 -0.11591077 0.044958487
000050 5c b0 8e bd 88 8a 12 bd 86 16 e6 3c dd 33 83 3d
       -0.06967232 -0.035776645 0.028086912 0.064063765
000060 ce 14 0c bd b2 5a 60 3a 2c e6 3d 3c 2c 08 b4 bc
       -0.03419953 0.00085584365 0.011590522 -0.021976553
000070 76 a8 f4 3b 7d fb d1 bd 88 ba 5f 3d 08 7f 02 be
       0.007466371 -0.10253046 0.05462125 -0.12743771
000080 c8 aa be 3d 82 14 83 3d 86 88 a3 bc c8 47 5f bc
       0.09309918 0.06400396 -0.01996256 -0.013627954
000090 d8 d7 31 3d 0d 6b 78 bd d3 76 95 3c 83 d4 d0 3d
       0.043418735 -0.060648967 0.018245136 0.101967834
0000a0 7d 37 8f bd 73 f0 27 bd 00 a8 75 3e e1 06 c1 bc
       -0.069930054 -0.041000795 0.23989868 -0.02356285
0000b0 42 1d a5 bd cf 18 00 bc 66 ee 75 3c fa e1 9d 3c
       -0.08062221 -0.007818415 0.015010452 0.019272793
0000c0 59 32 43 3d 62 b0 06 be 03 cb 24 3d d8 c9 92 3d
       0.047655437 -0.13153222 0.04023267 0.07167405
0000d0 a5 e1 75 3d 67 67 c2 bd b5 7e b8 bc 63 8c e8 3d
       0.060029645 -0.09492379 -0.022521356 0.11354902
0000e0 34 b5 d4 3d c7 d2 78 3c 2b ae 53 3c dc 79 9e bc
       0.10386124 0.015186972 0.012919943 -0.019345216
0000f0 eb 4a 04 bd c6 5a 49 3d 15 b2 ee 3b 63 b1 e1 3d
       -0.03229801 0.049158834 0.0072844126 0.11020162

actor.init_leaf_node_embed.0.module.weight f4 [32, 8]
000000 76 85 24 be 4d 46 02 bf ce b6 a3 3e 11 38 ba 3e
       -0.16066536 -0.5088852 0.31975406 0.363709
000010 f9 35 5c 3e 89 c3 ba 3e d6 8f aa be 3f c3 9e be
       0.21504964 0.36477306 -0.33312863 -0.31008336
000020 68 2a f1 be b8 a8 26 be a6 0c 8d 3e 55 62 38 3c
       -0.47102666 -0.16275299 0.27548712 0.011253913
000030 eb a4 38 3e 8c af 50 be 96 8d 7a 3e 93 04 58 bd
       0.18031661 -0.20379466 0.24468073 -0.052738737
000040 bb ac 7e 3c 30 66 ad 3d 46 84 92 be 47 cf ea bc
       0.015544112 0.08466756 -0.28616542 -0.02866329
000050 4d 3a 3c be 39 80 19 be 66 01 a2 3d b7 65 c5 bd
       -0.18381615 -0.1499032 0.07910423 -0.09638541
000060 33 98 4e be 22 8e 3e 3e df 3b e0 3e 87 16 6d be
       -0.20175247 0.18608907 0.43795678 -0.23153125
000070 2f b0 d9 3d 59 3a 5e 3e 13 7c 80 be db a0 49 3c
       0.106293075 0.21701945 -0.2509466 0.012306417
000080 57 41 2a 3d 5c 9a 16 bf 8e 69 c5 3e 69 72 1c be
       0.04156622 -0.58829284 0.38557094 -0.15278019
000090 b3 dc 00 be e5 a5 9d 3d 86 2d 2a be 19 bb 11 3e
       -0.1258419 0.076976575 -0.16618928 0.14231528
0000a0 f8 bf c4 be 8b e9 bd 3c 1d cb a4 be 77 83 29 3e
       -0.3842771 0.023182651 -0.32186213 0.16554056
0000b0 f3 85 73 bd 5c 1a fd 3d 3e c0 2b be 66 5a 30 3c
       -0.059453916 0.12358543 -0.16772553 0.01076374
0000c0 ce 76 a7 be 5a 1f 36 3e 98 29 0b be 1a 0f e2 3d
       -0.32707828 0.17785397 -0.13590086 0.11038037
0000d0 d4 e0 50 bd 27 cf be bd 9e b3 39 3d 92 28 27 3e
       -0.050995663 -0.09316855 0.045337312 0.1632407
0000e0 c8 40 9f 3e 67 5c 4e 3e 9e 2d c9 3e ee b7 bc bd
       0.31104112 0.20152436 0.39292616 -0.09214769
0000f0 7f 54 44 be 28 93 a2 bd c2 df 28 bf 7b 28 a8 bd
       -0.19172858 -0.07938224 -0.6596643 -0.08210846
000100 e6 e0 48 bd 95 87 cf 3d b0 aa 4d 3e 59 a9 a2 bd
       -0.049042605 0.10133282 0.20084643 -0.07942457
000110 86 fb 01 bd aa 71 84 3e a0 2f 57 3d 6a 5c 32 3d
       -0.031734012 0.2586797 0.052535653 0.043545164
000120 08 5a 15 bf ba a2 b9 be 6d 93 37 3d ef 35 6f 3e
       -0.583405 -0.36256963 0.04481833 0.23360418
000130 43 71 f4 3e fa 1d 9f be e5 5d d7 ba b9 5f 04 bf
       0.47742662 -0.31077558 -0.0016431181 -0.5170856
000140 52 09 ac be f3 0d 1b 3e 8c 78 f1 be b2 23 3d be
       -0.3360086 0.1514204 -0.47162282 -0.18470648
000150 5c f2 c5 3e 74 d3 33 3e 5b 21 6b be b4 5d ff b9
       0.38661468 0.17561132 -0.22961943 -0.00048707204
000160 8f 2c 09 3e 3b 59 76 bd 51 1e a6 3e 20 93 67 be
       0.13395904 -0.06014369 0.32445005 -0.22614717
000170 7a 33 ea bc 7c 0e 90 be eb 3e d6 3e 29 94 58 3c
       -0.028588999 -0.2813605 0.41844878 0.013218918
000180 f9 d8 3e be b3 ae fe bd 4a 72 7b 3e 54 66 1a 3f
       -0.18637456 -0.12435665 0.24555317 0.6031239
000190 8e 30 75 3e c4 5d 55 3e 4a df ad 3e 1e 36 de 3e
       0.23944303 0.2083655 0.3395942 0.43400663
0001a0 d8 d9 89 3d e1 fb 9b 3e a1 3f 30 3e f9 35 92 bd
       0.067310035 0.30465606 0.17211773 -0.07139201
0001b0 56 58 de be 57 03 ab bd 3f 4e 4a bd eb 74 65 be
       -0.4342677 -0.083502464 -0.049391028 -0.22407882
0001c0 5e 39 e8 3e 11 83 fc 3e 09 a1 93 3e d4 18 9e 3e
       0.45356268 0.49318746 0.28833798 0.30878317
0001d0 59 54 90 bc a3 e5 9e bd 20 50 0a 3e 16 e2 1d 3e
       -0.017618345 -0.077586435 0.13507128 0.15418276
0001e0 a6 9e cd 3a f7 5d 40 be 07 58 8c bd cd 24 8c 3e
       0.001568754 -0.18785845 -0.068527274 0.27371827
0001f0 b1 57 22 be b2 f6 77 3e 8d d3 2d 3d ab ae 31 3e
       -0.15853764 0.242152 0.04243808 0.17351787
000200 ff 10 4d 3e 41 9b a3 3e 25 8e b4 bd a3 0f 0c bf
       0.20026015 0.31954387 -0.088161744 -0.5471136
000210 d0 e9 17 3c 6e cb b6 be f7 85 63 be ad f6 2d 3e
       0.009272054 -0.3570208 -0.22219072 0.1698863
000220 2e 48 9a be f0 47 8d 3e a1 c9 a4 be 0b b1 d5 3e
       -0.30133194 0.27593946 -0.3218508 0.41736636
000230 1d 8c 37 be 70 29 ae bd 78 f0 57 be e2 f2 62 3e
       -0.17924543 -0.08503997 -0.21087825 0.22162965
000240 dd 35 98 3d ac 5f c7 bd 02 51 4e bf 19 7d e8 bd
       0.074321486 -0.09735045 -0.8059236 -0.113519855
000250 e2 b4 91 3e b4 ee ac 3e 58 11 bf 3d b9 51 23 be
       0.28458315 0.33775866 0.0932948 -0.15949143
000260 ed d9 4e be 99 27 fa bd 3c 4b 03 bf b3 e3 36 3d
       -0.2020032 -0.12214584 -0.51286674 0.044650745
000270 25 7e e5 bd 44 4c 35 bd 86 3e 7f 3e ca 62 9f bd
       -0.11205701 -0.044262186 0.24926195 -0.077825144
000280 48 d9 16 3e 47 e8 66 bd c1 e0 91 3e 8a 79 b2 3e
       0.14731324 -0.05637386 0.28491786 0.34858352
000290 5a c2 ba 3e ec aa 38 3d 76 72 96 3e ad a4 9c bd
       0.36476403 0.04508488 0.29384202 -0.07648597
0002a0 51 7c ad be e8 8b 79 3e a6 1c 0b 3e 07 1f f6 bd
       -0.33883908 0.24369776 0.13585147 -0.12017637
0002b0 fd 03 a3 3e db f9 9a be d0 2c 2b bd 85 7a 49 3e
       0.3183898 -0.3026875 -0.041790783 0.19675644
0002c0 0d 2f 4e 3e 4d 71 5e be c7 b7 7e be ec 71 bd be
       0.20135136 -0.21722908 -0.24874793 -0.37000978
0002d0 db 27 75 3e 30 d0 5e 3d 12 fd e1 3e 0d 1c 6b 3e
       0.23940985 0.05439776 0.4413839 0.2295992
0002e0 84 b1 d8 bd 60 2b fa 3e 61 d2 34 3e e2 1a f7 be
       -0.105807334 0.48861217 0.17658378 -0.48262697
0002f0 82 88 45 bc 02 5c 26 3f ac dd 0f 3e 11 3e ca 3e
       -0.012056472 0.6498414 0.14049405 0.39500478
000300 ce 9e 01 be fe 07 99 be eb f0 c4 bd 0a dd bb bd
       -0.12658235 -0.2988891 -0.09616264 -0.09173019
000310 90 e3 60 3e 6f 3b 2b be 5e d5 9a bd ca 4f 16 3f
       0.21961808 -0.16721891 -0.07560228 0.587155
000320 4e 06 40 bc 42 06 86 be e6 82 cf be 4d 36 8e 3e
       -0.011720253 -0.2617665 -0.40529555 0.27775803
000330 19 5f 44 be 20 df 18 be 9e 2c a2 bb cf 25 ba 3e
       -0.19176902 -0.14928865 -0.0049491664 0.3635697
000340 99 49 84 be b6 0f 31 3e f8 e0 28 3e ef 5d 4a be
       -0.258374 0.1729115 0.16492069 -0.19762395
000350 d4 42 d0 be f4 cf b4 bd b9 0b d0 3e b1 12 44 be
       -0.40675986 -0.088287264 0.40633944 -0.19147755
000360 c2 e3 5e be bc db 79 3e e8 5f aa 3e d3 b2 7c 3e
       -0.2176657 0.24400228 0.33276296 0.24677591
000370 ed 19 a2 bc 3f f4 9d 3e 65 5c 9c 3e 15 dc 43 be
       -0.019787753 0.30850407 0.3053924 -0.19126923
000380 f6 97 66 3d 03 c9 39 bc 17 ce b3 3e f1 47 e9 bd
       0.056297265 -0.011339429 0.35118172 -0.11390675
000390 2e e5 bb bd 64 4d f2 be 60 38 76 be d6 e0 b8 bd
       -0.09174572 -0.4732467 -0.24044943 -0.09027259
0003a0 97 18 e2 3e 3e 40 b4 3e da 98 a8 be 8b 12 b2 3e
       0.44159386 0.35205263 -0.32929116 0.34779772
0003b0 30 03 1a 3f 11 40 3b 3d 73 cd 24 3e 62 4f ff be
       0.60161114 0.045715395 0.16093998 -0.49865252
0003c0 b4 d6 a1 3d f0 50 b4 be ff 8f 25 be 47 21 c9 be
       0.079022795 -0.35218 -0.16168211 -0.392832
0003d0 82 5c 87 be 90 a2 e4 3e 9b 47 a3 3d 76 3a 80 be
       -0.26437765 0.44655275 0.07972642 -0.25044602
0003e0 79 69 db be b9 da 12 3d bd 3d 89 be 00 67 0f bd
       -0.42853907 0.03585312 -0.26804915 -0.035010338
0003f0 c2 52 98 be 9a 0e f3 bd 6b f0 8d 3e b2 03 55 be
       -0.2975064 -0.118680194 0.27722487 -0.20802191

actor.init_leaf_node_embed.0.add_bias._bias f4 [32, 1]
000000 0b 90 30 3e ac 38 54 bc c8 5b 87 3c ed f9 b2 3d
       0.17242448 -0.012952965 0.016523257 0.08739076
000010 78 46 2b 3c 34 2c 13 bd ad d8 c2 3c 12 ac da 3c
       0.010453813 -0.035930827 0.02378496 0.026693378
000020 a0 fc 09 be d3 a5 01 3c 23 6c 38 bd a2 30 d1 bc
       -0.13475275 0.007913071 -0.045025002 -0.025535885
000030 8a 9c 92 3e 80 e4 6d bd f8 9c ea bc e6 14 bc bc
       0.28635055 -0.058079243 -0.028639302 -0.022959184
000040 16 61 1e bd 4b 10 24 bd f3 fe ae bd 75 aa 1f 3e
       -0.038666807 -0.0400546 -0.085447215 0.15592368
000050 07 bf 45 bd 4b 62 26 bd 25 ba 0f 3d 23 21 24 bc
       -0.04827788 -0.040621083 0.03508963 -0.010017666
000060 30 e2 52 3d 92 1d 84 bd e2 3a 9e bc d9 26 d1 3c
       0.05148524 -0.064509526 -0.019315187 0.02553122
000070 0d 1a 22 bd c7 57 98 3e cc 0f c6 3c b5 ee 61 3d
       -0.039575625 0.2975447 0.024177454 0.05515929

actor.init_leaf_node_embed.2.module.weight f4 [64, 32]
000000 b7 ae cd bd 94 27 9c be 99 3a 8e be f3 1c 1c be
       -0.1004309 -0.30498946 -0.2777908 -0.15245418
000010 87 47 19 3e 5c 2f 94 3c 42 94 9e 3d e0 5a 70 3d
       0.14968692 0.018088989 0.07743122 0.058680415
000020 a7 e9 48 3e 0f cc 6b 3d 60 d8 41 3d a8 b5 8a be
       0.19620381 0.057567652 0.047325492 -0.27091718
000030 0f 25 a6 be a4 b5 0b 3d 72 a1 b3 be 3d db df bd
       -0.32450148 0.034108773 -0.3508411 -0.10930488
000040 3a 8a 5c 3e 6f 73 8d bc e5 d8 57 be e3 55 08 be
       0.21537104 -0.017266957 -0.21078832 -0.13314013
000050 79 2e ae 3d 15 fe 8e be 4e 27 2c 3e d7 de 0b 3e
       0.08504958 -0.27928224 0.16811869 0.13659225
000060 e6 7a ba 3d f0 2e aa be 23 a7 b0 bd 75 b0 90 3d
       0.09105472 -0.33238935 -0.08625629 0.070649065
000070 08 9d 10 3e 4d 88 7e be 7b 75 03 be c2 5c 32 bc
       0.14122403 -0.24856682 -0.12837784 -0.010886373
000080 4b 0f 52 3d b8 c1 2d 3e 01 7d 2e 3d d7 1d 85 3d
       0.051284116 0.16968429 0.04259968 0.06499832
000090 f2 6a bf 3c 91 81 8a 3d d4 1f 04 3e af c8 22 be
       0.023366425 0.06762994 0.12902766 -0.15896867
0000a0 a5 9c 16 be bc f2 8b be ea 0e df 3e d8 14 c6 bc
       -0.14708193 -0.2733363 0.43566066 -0.024179861
0000b0 eb 71 a2 bd e8 ac c8 3d a1 c0 4f 3e 94 35 8e be
       -0.079318844 0.09798604 0.20288326 -0.27775252
0000c0 80 d7 dc bd 8a e2 a8 bd 0f c5 dd bd 15 a3 4f be
       -0.10783291 -0.08246334 -0.108286016 -0.20277055
0000d0 8c e5 dd 3d c5 36 c9 bd c6 15 a5 3d 55 a2 30 be
       0.10834798 -0.098248996 0.080607936 -0.17249425
0000e0 5d 8b c6 be 87 9e f5 bd 72 73 4b bc 73 5e 5c 3e
       -0.387782 -0.11993127 -0.012417661 0.21520405
0000f0 86 73 87 be 74 65 01 be 6e ae 1a bd 5c 6e bf 3e
       -0.26455325 -0.12636358 -0.037764005 0.37388885
000100 87 3a 8a 3e 2c c1 86 3c 0d 05 0e be 0b 91 08 be
       0.26997778 0.016449533 -0.13869114 -0.1333658
000110 1c 0f 0e 3e 4f 88 4a bd 45 0a 07 be 15 6f b3 bd
       0.13872951 -0.0494464 -0.13187511 -0.087614216
000120 ca 85 ec be 87 ce 0e bd ae 8f cf be d6 34 2b be
       -0.46195823 -0.03486493 -0.40539306 -0.16719374
000130 52 86 9b be 00 ee 69 3d d7 18 22 3e d5 17 d7 bd
       -0.30375916 0.05711174 0.15829788 -0.105025925
000140 07 07 ac bd 66 8b 40 3e 81 0a 83 be 54 76 e3 bd
       -0.08399778 0.18803176 -0.2559395 -0.11106554
000150 23 2d 73 bd 70 e2 4d bd 3a 21 de 3c 16 60 26 be
       -0.059369218 -0.050264776 0.027115453 -0.16247591
000160 1a 6d 07 bd 94 73 29 bb 73 31 be bd 33 03 41 be
       -0.03306303 -0.0025856243 -0.092867754 -0.18848877
000170 bb fc 4e be 3e e0 8f bb 4a 6e 3c 3e 79 64 12 3e
       -0.20213597 -0.0043907454 0.18401447 0.1429614
000180 f9 d5 7b bc 3e 5e 32 3e 9a 61 3b 3e f8 32 0a 3e
       -0.015370839 0.17418763 0.18298951 0.13496006
000190 8e ab 19 3e b8 2a 80 3d b6 8b 29 bd 3a 1d 2a 3d
       0.15006849 0.06258148 -0.041393004 0.04153178
0001a0 e2 56 3d 3d 1b 3b 19 bd 94 41 4c be 61 5e 80 3e
       0.046225436 -0.037409883 -0.19946891 0.25072005
0001b0 52 0d 82 be cc e9 e4 3c 21 4d fa bc 38 f1 46 3e
       -0.25400788 0.027943514 -0.030554356 0.19427955
0001c0 31 50 d4 bd 60 f7 cd 3e be ae 64 be 4a a7 4c bd
       -0.10366858 0.40227795 -0.22332284 -0.049964227
0001d0 49 10 06 3e 4f b1 38 3e b1 6f 69 be 3d 6e b0 3d
       0.1309215 0.18036388 -0.22796513 0.08614776
0001e0 ce 5d 33 3d 8b 31 83 3d af be 27 3e 8c 4f 2e 3e
       0.04379063 0.06405934 0.16381334 0.17022532
0001f0 1e 08 99 3e 53 2b bb 3c 3e 4e 20 3e 7e 28 2e 3e
       0.29889005 0.022847807 0.15654847 0.17007634
000200 b9 d7 9c bd 0b c9 e3 bc 5e 5f 76 3d 1e 0d 6f 3d
       -0.07658333 -0.027805826 0.060149543 0.05836212
000210 d3 70 84 3e b0 e1 ea be 87 2e 6d 3e 77 ce 28 be
       0.25867328 -0.4587531 0.2316228 -0.1648501
000220 06 49 53 3d e8 5c 10 3e 71 ee d2 bd 18 80 b9 be
       0.051583312 0.14097941 -0.10299385 -0.3623054
000230 1c 85 88 bd 30 51 7b 3e 7f eb c9 3d 99 6c ef bd
       -0.066660136 0.2454269 0.098593704 -0.11690635
000240 06 34 dd be e4 07 2d be 24 a1 7b 3e b1 a7 94 3d
       -0.43203753 -0.16897541 0.24573189 0.07258547
000250 3d d4 8f be 90 b6 01 3e d9 73 61 bd ae 3d b5 bc
       -0.28091612 0.12667298 -0.05504212 -0.022124138
000260 1d fb fa bd ac a0 12 3d d2 34 1a be 97 5a 1e 3e
       -0.12254927 0.03579776 -0.15059212 0.15464245
000270 2a 68 7b 3e 64 cd 18 3e b7 a2 69 bd 83 2b 3c be
       0.24551454 0.149221 -0.057039943 -0.18375973
000280 bf 4b 47 3d 4e 60 d3 bb e9 22 3e be 1e 3e a0 3d
       0.04865622 -0.0064506894 -0.18568005 0.07824348
000290 ca dd 16 be 32 54 79 bd 78 ae b6 3e 5a 2a b2 be
       -0.14733043 -0.06087131 0.35679984 -0.34797937
0002a0 b5 6f 41 bd ea 4b 91 3d 25 f3 88 be 09 af 92 3e
       -0.047225673 0.070945576 -0.26748005 0.28649166
0002b0 a8 b1 08 3f 7a 6b fd 3c d7 9d 27 3e f0 ae 1a be
       0.5339608 0.030935038 0.16368805 -0.15105796
0002c0 ef 36 0a 3e 86 8b c1 3d cd 1c 1d be c4 38 21 be
       0.13497518 0.0945044 -0.15343018 -0.1574431
0002d0 98 67 e4 3d e8 7d 27 be b8 0f 1d bc 6d c5 de 3e
       0.111525714 -0.16356623 -0.009586267 0.4351
0002e0 ed a4 a7 3d 87 41 0c be e6 05 a1 bd 23 97 0f 3d
       0.08185754 -0.13696872 -0.07862453 0.035056245
0002f0 4f 63 30 be 58 d4 8d 3e 3d 84 8f 3e d4 da e0 bd
       -0.17225383 0.27701068 0.28030577 -0.10979238
000300 ff ff 9e 3e 75 bb 92 be 70 c6 74 bd 24 73 a2 3d
       0.31054685 -0.28658643 -0.059759557 0.079321176
000310 94 9a 33 be ea 48 17 be 95 cf 14 3e f8 7e 82 bd
       -0.17539436 -0.14773908 0.14532311 -0.063718736
000320 42 2d 34 3e 1b 1b be bd 01 5d 28 3e e9 1f 35 3e
       0.1759539 -0.09282514 0.16441728 0.17687954
000330 d9 88 39 3e d6 c4 02 3e 30 7d 5a be c1 15 12 be
       0.1811861 0.127704 -0.21336818 -0.14266111
000340 ea be e3 be c5 ad 9c 3e b6 b5 fe bc 64 2c 92 3d
       -0.44481593 0.30601326 -0.031092506 0.07137373
000350 cd 0f cd 3d 33 a5 c1 3c eb 86 d1 bd b6 1f b4 bc
       0.100127794 0.023638343 -0.10230812 -0.021987777
000360 96 90 04 3d 6c 50 2d bd fb ed 98 bd d2 2e c8 3d
       0.03236445 -0.042313024 -0.07467266 0.09774555
000370 c3 17 12 be c5 d4 0a 3e 3b dd 04 be 97 11 9b bd
       -0.14266877 0.13557728 -0.12975018 -0.07571714
000380 03 e8 22 be 19 a8 8e 3d e4 7e f6 bd 8d ef b0 be
       -0.15908818 0.06965656 -0.12035921 -0.34557763
000390 ef 2a c5 3d 18 9a dd bd 34 33 65 be bb fd a9 be
       0.096273296 -0.10820407 -0.22382814 -0.33201393
0003a0 36 c0 0d 3e cf cc 37 be 3c fb 75 3e 85 5a 0b 3c
       0.13842854 -0.17949222 0.2402162 0.008505468
0003b0 23 5c 54 3e 37 90 b8 3d 07 63 9a bd fd 12 3e 3e
       0.20738272 0.09011882 -0.07538419 0.18561931
0003c0 6b 68 63 be d3 6e 0c 3d c7 4c e4 bd af fc e4 bd
       -0.22207801 0.034285378 -0.111474566 -0.11181008
0003d0 e8 df 52 3d 24 73 ac 3e 29 87 a5 3d 4d 9b 39 3c
       0.051483065 0.33681595 0.080824204 0.0113285305
0003e0 70 60 42 bd 09 1a 65 3e 84 d3 3e 3e fb dc 34 3e
       -0.04745525 0.22373213 0.18635374 0.17662422
0003f0 39 53 fa be 4f 58 c0 3e 66 42 8c 3e 35 c8 67 be
       -0.4889162 0.37567374 0.27394408 -0.22634967

actor.init_leaf_node_embed.2.add_bias._bias f4 [64, 1]
000000 0c d7 9f be 9d 15 aa 3d 65 7f b8 bd 59 df 00 bd
       -0.31218755 0.08304904 -0.090086736 -0.031463
000010 a4 0c 46 bc e3 f8 96 3e 2a 90 14 3e 92 39 57 3e
       -0.012087975 0.2948676 0.14508119 0.21018055
000020 66 65 c2 3e 09 3f 24 be 8e 2e e6 bd 05 3a 4d 3e
       0.37967986 -0.16039671 -0.11239348 0.20041664
000030 22 f5 b8 bd d4 0b 3c 3e 81 95 9b be 4d 81 c7 bd
       -0.090311304 0.18363887 -0.303875 -0.09741459
000040 eb 5f 59 be 29 7e 14 3e d9 ca 2f 3d 8a 6f 1d bc
       -0.21227996 0.14501251 0.04291806 -0.0096091125
000050 6d e5 8d be a5 68 fd bc d3 99 d3 bd 30 0b b4 3d
       -0.277141 -0.030933687 -0.10332074 0.08791196
000060 c4 76 25 be a3 4f e0 bc 98 61 81 3d b9 f1 de bc
       -0.16158587 -0.027381724 0.06317443 -0.027214872
000070 22 8a 12 be 1f fb 51 3e 3f 18 f9 3d 02 66 ba 3c
       -0.14310506 0.20505951 0.12162828 0.02275372
000080 7c 70 c8 3d 5f 52 9d be 65 8c 1a be 86 5b 1e 3c
       0.0978708 -0.30726907 -0.15092619 0.009665376
000090 2e 13 0f 3c 00 00 a5 3e 82 1c ac 3e 4c 02 b5 3e
       0.0087326 0.32226562 0.336155 0.35353315
0000a0 d0 24 58 3d 79 e3 80 3e 3e 94 b9 39 aa d6 f8 bc
       0.052769482 0.25173548 0.000353964 -0.030375797
0000b0 b4 a4 1d 3d 13 a3 ac be 45 2c 86 be 76 b4 5c bd
       0.03848715 -0.33718166 -0.2620565 -0.05388304
0000c0 59 1e 8d 3e 51 7a 65 bd 00 10 3c bd 87 06 98 3e
       0.27562216 -0.056024853 -0.045913696 0.2969248
0000d0 5b f4 0c bd 6e e9 26 3e 21 65 83 be 68 97 21 be
       -0.034412723 0.16299984 -0.25663093 -0.15780413
0000e0 65 d8 7a 3e e8 63 c5 3e f0 f1 40 3e 46 ef 57 3d
       0.2449661 0.38552785 0.18842292 0.052718423
0000f0 89 93 62 3d 06 19 ba 3e a5 b4 f7 bd 75 1d 89 bd
       0.05531648 0.36347216 -0.12095002 -0.066950716

actor.init_next_embed.0.module.weight f4 [32, 6]
000000 40 b4 ac be d2 50 2a 3e 21 04 ab bd 60 6a ef 3e
       -0.3373127 0.16632393 -0.08350397 0.46760845
000010 7f 49 05 3f 18 aa 7e bc e4 80 56 3e 9a 49 a6 3e
       0.5206527 -0.015543483 0.20947605 0.3247803
000020 0a bd 08 3c 95 be 28 3e 86 4f bc 3d 64 56 71 be
       0.008345852 0.16478951 0.091948554 -0.23568112
000030 31 c5 10 3e 89 c8 c7 be b2 c4 75 3e 57 77 30 bf
       0.14137723 -0.39020184 0.24000815 -0.689321
000040 8a a4 62 3e 3f 1b bc 3e cc 7a 25 3f 12 a8 11 3f
       0.22133079 0.36739537 0.646405 0.5689708
000050 6e af e5 3d 34 a9 ac bd 3e b0 a8 3e bf ea 13 3e
       0.11215101 -0.084307104 0.32946962 0.14445017
000060 2b f2 a6 be cd 0f 76 bd 60 cc 45 be 8b 34 3e 3e
       -0.32606634 -0.060073663 -0.19316244 0.18574731
000070 13 e3 1d 3d 9e 99 2e be c2 79 1e be 70 ed eb 3d
       0.038546633 -0.17050788 -0.15476134 0.11519897
000080 3d d2 ea 3e d7 d5 1d 3e e0 6e 48 be 79 18 ca 3b
       0.45863524 0.15413605 -0.19573545 0.006167468
000090 6f 85 78 be 25 7a 68 be 1f a7 c0 bc 39 65 b9 be
       -0.24269651 -0.22702844 -0.02351719 -0.3621004
0000a0 67 3e 5e 3e 7c 93 f3 3e 18 f0 48 be 5b 3c bb be
       0.21703492 0.4757346 -0.19622838 -0.36569485
0000b0 a5 ce 81 3e c8 e4 d9 3d 2b dd ee bd c4 c9 6a 3d
       0.2535297 0.1063934 -0.11663278 0.057321325
0000c0 c2 20 0a be 9e 98 82 be 20 c8 af 3e 63 46 69 be
       -0.13489059 -0.25507063 0.3433237 -0.22780757
0000d0 f8 9e b0 3d bf cf ff bb 3a 88 b7 be c8 1e 21 be
       0.08624071 -0.0078067477 -0.3584612 -0.15734398
0000e0 e1 8f 14 be 3c a6 e8 3e 25 aa 2d be 7c 44 71 bd
       -0.1450801 0.45439327 -0.16959436 -0.058903202
0000f0 33 f1 9e 3e bc dc 42 bd 1f e4 18 be 86 0b 5e 3e
       0.31043395 -0.04757379 -0.14930771 0.21684083
000100 a2 17 37 bd 43 1e a6 3d d1 d1 ed bd 03 53 42 be
       -0.044700272 0.08111241 -0.11612285 -0.18976979
000110 5b 24 95 be 3a b1 ff bd b2 62 34 3e 54 4b a1 3e
       -0.291293 -0.12484975 0.17615774 0.31502783
000120 d6 df 9e 3e 41 a7 28 bf d1 ae 32 bd 60 1f 8b bd
       0.31030148 -0.6588021 -0.04362375 -0.06793094
000130 f0 93 8e bd dc 05 44 be f4 6e 33 3e 31 1c 85 be
       -0.069618106 -0.1914286 0.17522794 -0.2599807
000140 93 7a 9e 3e 80 88 7d 3e 0f d9 40 be 96 cc 0a be
       0.30952892 0.24759102 -0.18832801 -0.13554606
000150 de 5b 07 be 8c fc 59 3d 48 ba d8 bd c0 b4 9c be
       -0.13218638 0.053219363 -0.10582405 -0.3060665
000160 f2 7e 94 3d 89 65 16 3e c9 16 31 3c c0 c9 8c 3d
       0.072507754 0.1468717 0.010808655 0.06874418
000170 b5 a4 6e 3e 85 9d a0 be 98 0b 00 bd bb 50 7b be
       0.23305018 -0.31370178 -0.031261057 -0.24542515
000180 44 81 87 bc 99 f8 13 be 79 e2 02 be b5 2f d6 be
       -0.01654113 -0.14450301 -0.12781705 -0.41833273
000190 9c c7 2b 3e ce 90 41 3e 00 1e 5e be be 9e e8 3e
       0.16775364 0.18902895 -0.21691132 0.4543361
0001a0 dd e7 fe 3e 3a 92 55 3e ec 80 0f 3e 70 91 1c 3f
       0.49786273 0.20856562 0.14014024 0.6115942
0001b0 76 5f 3b be 7c 35 6e bc 26 dd b1 be 1b 19 97 bd
       -0.18298134 -0.014539119 -0.34739035 -0.07377835
0001c0 24 e3 0f be 6b 38 e6 be 72 a1 a6 3d 30 7c 65 be
       -0.14051491 -0.44964918 0.08136262 -0.22410655
0001d0 c0 d7 46 3e 2e a8 9c 3e 46 d6 f0 bd 64 ea 16 be
       0.1941824 0.3059706 -0.117596194 -0.1473785
0001e0 f3 56 aa 3e c4 c6 ba 3e e6 33 24 3e b0 03 85 bf
       0.33269462 0.3647977 0.16035423 -1.039175
0001f0 ce 92 99 be c9 0e 0b 3f 34 65 9d 3e 76 8e 35 be
       -0.29994816 0.54319435 0.30741274 -0.17730126
000200 f6 14 aa 3d 12 03 13 3f b7 3c df 3e 6c 21 b0 3e
       0.08304779 0.5742656 0.4360101 0.344005
000210 d9 30 68 be a6 90 e2 3c ad ac ba bd 34 f1 f0 3c
       -0.22674884 0.027656864 -0.091149665 0.02941189
000220 28 41 cd be 7d 3e a9 bc 9e dc b9 bd 4a 39 42 be
       -0.40088773 -0.02065968 -0.090752825 -0.18967167
000230 52 32 06 be a6 41 eb bd 4a e3 9e bd 94 50 0d bd
       -0.13105133 -0.11487131 -0.07758196 -0.034500673
000240 6a a8 67 be 09 fb 95 bd d3 cd ac 3e 5c 72 ab be
       -0.22622839 -0.07323272 0.3375078 -0.33485687
000250 7e fe 08 3f 78 cc b6 be 74 e7 04 be ab 12 54 bd
       0.53513324 -0.35702872 -0.12978917 -0.051775616
000260 6e 6b 11 3d 74 c0 e5 bd 03 83 f3 be f7 e1 c8 3e
       0.035502844 -0.11218348 -0.47560892 0.39234897
000270 c8 a1 c6 be 7e 9e 2e be 98 f9 da 3e 17 74 df 3e
       -0.38795304 -0.17052647 0.4276855 0.43643257
000280 ea 03 12 3b 81 9f 98 be 95 03 9e 3e f6 a5 c8 bd
       0.0022280165 -0.29809192 0.30862108 -0.097972795
000290 72 4c 0d 3e ef f9 a1 be 2c 84 a0 3d 20 71 19 be
       0.13798693 -0.31635997 0.0783771 -0.1498456
0002a0 e6 34 e7 bd fe fa d7 3d a5 f1 04 bf 0d 94 33 be
       -0.112893865 0.1054592 -0.5193122 -0.17536946
0002b0 c3 10 21 3d b7 82 87 3d 28 92 38 3e 76 7b 2e bd
       0.039322626 0.06616729 0.18024504 -0.04259821
0002c0 81 01 a9 3e c5 99 61 be f0 b0 1b be 37 51 ab bd
       0.3300896 -0.22031315 -0.15204215 -0.083651
0002d0 54 71 a3 bd 2a 72 b7 bc 7b a9 81 ba c7 ff a9 bd
       -0.079806 -0.022393305 -0.0009892428 -0.08300739
0002e0 0b 33 fb be a5 fe 18 3f 9a d6 8c 3d be 4c e1 bd
       -0.4906238 0.59763557 0.068768695 -0.110009655
0002f0 4d c5 1f be 09 03 b8 bd ff 74 ac 3c ec b3 1e be
       -0.15602608 -0.08984954 0.021051882 -0.15498322

actor.init_next_embed.0.add_bias._bias f4 [32, 1]
000000 c3 b9 15 3f 3b c8 db bd 89 f5 8b 3e 79 d7 a4 3e
       0.58486575 -0.1073155 0.27335766 0.32195643
000010 97 cc 8c bb 8b 4c 84 3d fb 2e f3 bc c8 99 f0 bb
       -0.00429685 0.06459912 -0.029685488 -0.007342551
000020 e2 e4 3a bd 76 a8 4b bd d9 34 e8 3c e9 b4 dc 3e
       -0.045628436 -0.049721204 0.028345512 0.43106773
000030 ea c9 c9 3b 2c 11 dd 3d 49 60 93 bd cc 94 11 bc
       0.0061581032 0.10794291 -0.07196099 -0.008885574
000040 2b 5e 1c bd 7d 4e 94 3e 05 47 01 bc 90 d7 00 be
       -0.038175743 0.28966132 -0.0078904675 -0.1258223
000050 2e e7 03 3f 7e 35 8f bd e5 26 19 3c 46 1a 27 bd
       0.5152463 -0.06992625 0.009347652 -0.04079654
000060 7c f6 ae bc 75 1c c4 bc 41 63 27 bd 8f 00 2a bc
       -0.021357767 -0.02393935 -0.04086614 -0.01037611
000070 28 61 b4 bc e6 ab 0c bb 9e 87 3b bd bd 31 f4 ba
       -0.022018984 -0.0021464764 -0.04578363 -0.0018630546

actor.init_next_embed.2.module.weight f4 [64, 32]
000000 52 c4 0f be 67 60 e1 3d 3a 65 35 3e ef e8 55 3e
       -0.14039734 0.110047154 0.17714396 0.20889638
000010 af eb 33 3e 0c f7 e8 bd f9 a8 af 3d 67 54 8f 3e
       0.17570375 -0.113752455 0.08577151 0.2799408
000020 ae dd f7 3d e2 b4 2b 3d db 4c 0e 3e 99 c2 15 be
       0.12102829 0.04192055 0.13896506 -0.14625014
000030 24 35 53 ba 0d fc 21 3d 50 56 4d 3e 1f 47 99 bc
       -0.000805693 0.039547015 0.20052457 -0.018710671
000040 71 dc b3 3e 29 e6 94 3e 19 57 a0 bc f3 0a 2b 3e
       0.3512912 0.29081848 -0.019572781 0.16703396
000050 e3 9d 1b 3e 6b 00 1c be 76 89 81 3e d1 9d 07 3f
       0.15196948 -0.15234534 0.25300187 0.52975184
000060 a1 c6 8f 3d 5f 19 81 3c d4 8c 3a bb dc 21 1a be
       0.07020307 0.015759168 -0.0028465288 -0.15051979
000070 a9 c8 96 bd e3 58 e1 bd 0c ed 69 bb e9 81 d5 bd
       -0.07362492 -0.11003282 -0.003569427 -0.10425169
000080 79 c5 5f 3e 2e 7c b4 bc af 2e 60 bd ce be f4 3d
       0.21852674 -0.02203187 -0.05473202 0.119504556
000090 4c 5b 4b 3e e3 54 4a 3e 97 a9 84 be ee 93 e7 3d
       0.19859046 0.19758944 -0.25910637 0.11307512
0000a0 7d 34 14 bd 7a 74 a4 3d 1b 64 eb bd d8 2e 5b be
       -0.03618287 0.08030029 -0.11493703 -0.21404588
0000b0 b2 a9 8c be 71 d2 01 3b 19 0d db 3e 24 c0 94 3e
       -0.27473217 0.001980927 0.4278343 0.29052842
0000c0 f7 f0 71 be c2 a1 16 3e 57 c4 1d 3e b4 3a 81 be
       -0.23627077 0.14710143 0.15406929 -0.252401
0000d0 c0 8b 60 be 4d 46 ee bd e6 e1 69 be 9d b3 81 bd
       -0.2192831 -0.116345026 -0.2284008 -0.06333087
0000e0 21 43 56 bd d0 42 ec 3d 2a d5 a6 3d a3 15 20 be
       -0.052310113 0.11536181 0.081461266 -0.15633254
0000f0 de 6c 99 3d 00 f2 77 3d ec f1 7e bd c4 96 04 be
       0.07491468 0.060533524 -0.062242433 -0.12948138
000100 55 a9 06 3d db 75 c7 3e fe 63 3b 3d c9 88 5a bd
       0.03287633 0.38957104 0.045749657 -0.053353105
000110 f7 46 82 3d d3 c6 a7 3d 65 c1 81 3c 92 1e 70 be
       0.06361192 0.081922196 0.015839288 -0.23449162
000120 20 2e 0f 3e 19 46 f9 bd 45 68 5d bd 80 ce bb be
       0.13982439 -0.12171573 -0.054054517 -0.36680984
000130 a6 36 c1 bc bf d2 97 be 3d f2 ff bd 3f 14 09 3c
       -0.023585629 -0.29652974 -0.12497375 0.008366643
000140 dd 50 41 3c 9e 92 42 3d 43 74 2b 3d 1f 07 a6 be
       0.011799064 0.047503106 0.041858923 -0.32427308
000150 59 9a f8 be b9 56 eb 3e a9 5e 29 3e b7 8d e0 bd
       -0.48555258 0.45964602 0.16540016 -0.1096453
000160 fa 08 25 3e 7b 7d a4 be b4 90 1f 3d 5c 6d 21 3e
       0.16116706 -0.32126984 0.03895636 0.15764374
000170 ab 71 84 3e ba 54 c1 bd 16 c4 cb be 1c ff 37 3e
       0.25867972 -0.094399884 -0.3979804 0.1796841
000180 54 8f a5 3e 9b 19 7e 3e b4 f5 70 be 93 82 7a 3d
       0.32335913 0.24814455 -0.23531228 0.06115968
000190 ce c9 3b 3e 86 7a 2f bc b6 dd 8d bc 4a 58 fe bc
       0.18338701 -0.010710364 -0.017317634 -0.031047959
0001a0 e1 bc 35 3c 20 12 c7 3e 41 26 3e 3e af 37 46 3e
       0.0110923955 0.38881016 0.1856928 0.19357179
0001b0 f3 08 93 3d 59 0b 3d 3e 4b d9 39 be e0 b4 a9 3d
       0.07179441 0.1846136 -0.18149297 0.08286452
0001c0 25 cb 11 3e fd bc 55 3e b6 bf d7 bd ff d9 36 3e
       0.1423765 0.20872875 -0.10534613 0.17856596
0001d0 48 f3 98 3d f2 0d 98 3d 30 56 fd bd 85 b9 8d be
       0.07468277 0.07424535 -0.123699546 -0.27680603
0001e0 0b c7 57 bd 3e 55 98 bc 6b 7b 87 be fd a1 1c 3e
       -0.052680057 -0.018595334 -0.26461348 0.15296169
0001f0 89 c7 ca 3d 4f f0 38 3d 70 12 59 3e 94 68 07 3d
       0.099013396 0.04515105 0.2119844 0.033058718
000200 84 16 67 3e 8b 87 aa bc cb c0 0a be 3a 59 d4 3d
       0.22567183 -0.020816585 -0.13550107 0.10368581
000210 60 95 5d 3e 34 6a 02 3e 09 97 7f 3d 34 93 28 3e
       0.21639013 0.12735826 0.062399898 0.16462404
000220 ce d5 34 3e 67 1a b7 bd 82 57 05 bd 91 e5 80 be
       0.17659685 -0.08940583 -0.032554157 -0.25175145
000230 4c 1e 0e be 73 05 69 be 4a 87 38 be 9d e6 a7 be
       -0.13878745 -0.22755985 -0.18020359 -0.3279313
000240 7e 84 9b 3d cc df 1f be e4 b8 2f 3d f7 f6 95 be
       0.0759363 -0.15612715 0.042900935 -0.29289982
000250 34 1c e0 3d fb d9 09 3e 6c fd 7d bc 4a 0b 7c bc
       0.10942879 0.13462059 -0.015502315 -0.015383551
000260 c1 2b 2a 3e 68 a2 3a 3e a0 73 24 3e 6c 4f c7 bd
       0.16618253 0.18226016 0.16059732 -0.097319454
000270 e6 2a 6b 3d 86 32 19 3d 13 d1 e5 3d 9a 39 f0 bd
       0.057413958 0.0374017 0.11221518 -0.117297366
000280 b8 8b 46 be 82 83 01 bf 9b ff 36 3d f8 b1 14 be
       -0.19389236 -0.5059129 0.044677358 -0.14521015
000290 e0 d8 89 3c 02 b7 5d 3e dc 66 29 3d 68 b8 1a 3e
       0.016827047 0.21651843 0.04135786 0.15109408
0002a0 c6 9b b9 3d a1 86 08 3e c2 2d 5e be fe 07 9e bd
       0.090629146 0.13332607 -0.21697143 -0.07716368
0002b0 8c 56 00 bd de d3 18 3d 82 84 63 bd 35 71 03 3e
       -0.031332538 0.037311427 -0.05554629 0.12836154
0002c0 8a 12 cc 3b db f1 6a 3e c9 2c 2c 3e f1 33 40 bc
       0.006227796 0.22943823 0.16813959 -0.011731134
0002d0 d1 a0 80 bd d7 e3 fe bb af d7 90 3d 04 74 81 bd
       -0.06280673 -0.0077786255 0.070723884 -0.06320956
0002e0 49 e3 69 be c0 e2 64 be 9f 56 0c be 58 7c 36 be
       -0.22840609 -0.22352123 -0.13704918 -0.17820871
0002f0 04 1b fe 3d 93 b4 58 be b9 a2 47 3d 08 47 2c be
       0.124074966 -0.21162634 0.04873917 -0.16823971
000300 fa 2c 90 3d 5b f8 28 be 65 5f 84 bd af df d0 bc
       0.070398286 -0.1650099 -0.064635076 -0.025497286
000310 56 18 e7 bc d0 4f 08 3d d9 0f 7b be 26 97 44 bc
       -0.028209846 0.03327924 -0.24517764 -0.011998927
000320 52 9a ed 3e fa 0e 67 3d 1e dc 46 bc bd 51 4b be
       0.464068 0.056410767 -0.012137441 -0.198554
000330 b7 62 4d be 86 77 11 3e ad 3d b0 be 08 d1 8c be
       -0.20057188 0.14205751 -0.34422055 -0.27503228
000340 1f a1 d2 be f2 81 9d 3d ab 5d b1 be 43 c0 0f be
       -0.4113855 0.07690801 -0.34641775 -0.14038186
000350 ce 30 f2 be f4 91 b1 3d e9 c1 88 3d 94 62 9f bd
       -0.4730286 0.086704165 0.066776104 -0.07782474
000360 fe e1 55 bd a6 6f 39 be 51 e1 05 3d c8 d3 f7 3c
       -0.052217476 -0.18108997 0.03268558 0.030252352
000370 b1 51 95 bd f9 e9 4d 3e 7c de 81 bd 89 b2 17 3e
       -0.07290972 0.20108785 -0.06341264 0.148142
000380 6e e6 dd 3e 36 4b 18 3e 2f b7 38 bd 63 6a 28 3d
       0.43339866 0.1487244 -0.045096572 0.041117083
000390 0a 54 df 3d a7 4a a1 be 06 f5 5a be f5 ad 15 3e
       0.10904701 -0.31502268 -0.21382532 0.1461714
0003a0 31 a2 46 bd 1d 91 d9 3d 4d 78 8d 3d af ca bc 3e
       -0.04849452 0.10623381 0.06907711 0.36873385
0003b0 72 24 af 3e 2c 09 b1 bd 86 0f 91 3e e3 dc 20 be
       0.34207493 -0.086443275 0.28332156 -0.15709262
0003c0 bc 50 a7 3d 8c 5a 1d 3e 4d 65 67 3d db cd 96 bd
       0.08169696 0.15366572 0.056493092 -0.073634826
0003d0 0a 5e d5 be ed 78 ce 3e 31 92 2d 3e 9c 46 8d 3d
       -0.4167331 0.40326634 0.16950299 0.06898233
0003e0 27 95 62 3e 0e 83 49 3d 77 4a 89 be 53 67 e8 bd
       0.2212721 0.04919725 -0.26814625 -0.113478325
0003f0 2f f5 34 be ed e5 2d be ce ed aa 3e 8b 09 49 3d
       -0.17671655 -0.16982241 0.33384556 0.049081367

actor.init_next_embed.2.add_bias._bias f4 [64, 1]
000000 89 3b 10 3c 0a 7f 55 bd 42 d9 36 be 52 ef 75 3e
       0.008803257 -0.052123107 -0.17856315 0.24017075
000010 56 f7 14 be 74 52 a2 bd 6b b3 1c be e0 81 33 3e
       -0.14547476 -0.07925883 -0.15302818 0.17530012
000020 5a 9f fd be 02 8f a5 bd 6a 6d fd bd 0f c8 f0 3d
       -0.49535638 -0.08083917 -0.12374385 0.11756908
000030 d0 65 31 3c a4 be 86 be 40 f2 f5 3e 0f e8 bc bd
       0.010827497 -0.26317322 0.48036385 -0.09223949
000040 4b ef 82 bd 38 67 ef 3c e1 06 52 bd a7 db fc 3d
       -0.06393298 0.029224023 -0.05127609 0.12346583
000050 65 f6 a3 bd 1e e8 e0 bd 71 64 1a 3d 02 e9 4f be
       -0.080059804 -0.10981773 0.037693445 -0.20303729
000060 ce 5e 8f 3d f4 07 01 be 80 61 b0 be dd 0a 5b bb
       0.070005044 -0.1260069 -0.34449387 -0.0033423223
000070 59 fa b7 3e 1c f0 9d be 35 40 ae bd 2b 1f 61 3e
       0.35933188 -0.3084725 -0.0850834 0.21984546
000080 6f 10 ac 3e 41 8f 5c 3e f3 b0 0c 3e 4b f6 88 be
       0.33606288 0.21539022 0.13739376 -0.26750407
000090 03 20 a4 bd a4 00 18 be 15 35 f7 be 44 c1 a2 be
       -0.08013918 -0.14843994 -0.48282686 -0.31788075
0000a0 af 06 c7 3d 0b e2 bc be e7 6d 9d bc d3 d1 8d 3a
       0.09718072 -0.36891207 -0.019217445 0.0010819979
0000b0 b4 a3 ce be fd 2e c2 3e 7b ac 52 3e fc 10 38 be
       -0.4035927 0.37926474 0.20573609 -0.17975229
0000c0 35 5b 37 be 38 d8 f7 3a e2 93 7b be b5 04 0f be
       -0.17905886 0.0018909043 -0.24568132 -0.1396664
0000d0 74 c7 b2 3e d8 b4 51 be 08 6c c4 3e 6c 47 57 bd
       0.34917796 -0.20479143 0.3836367 -0.052558348
0000e0 bf ba be 3d 66 4d 0e bf 4b f4 f3 bd ed 59 34 3e
       0.09312963 -0.5558685 -0.119118296 0.17612429
0000f0 14 54 90 bd 13 10 58 3e da c7 51 be 4d 88 1b bd
       -0.07047287 0.21099882 -0.20486394 -0.037971783
