trained_models/experiment/Discrete_A2C_10x10x10Bin_s42_inh_800_defaultBox-2022.08.18-05-11-48/PCT-Discrete_A2C_10x10x10Bin_s42_inh_800_defaultBox-2022.08.18-05-11-48_2022.08.18-05-56-00.pt (torch, 236314 bytes, 24 tensors)

actor.init_internal_node_embed.0.module.weight f4 [32, 6]
000000 25 b5 44 bd 58 1a a1 3e 3c 4f de 3c d1 8d 80 be
       -0.048024315 0.3146541 0.027137391 -0.25108197
000010 83 b6 de 3a 45 0d 8a bd 65 24 89 3e d7 db e3 3e
       0.0016991649 -0.06740812 0.2678558 0.44503662
000020 d8 ff 30 bc 5d 55 25 be 61 41 88 be 2c 9e 6c be
       -0.010803185 -0.16145845 -0.2661238 -0.23107213
000030 40 23 2d bd e2 ae 44 3d 60 43 a0 3d 86 5d e6 3c
       -0.042269945 0.048018344 0.07825351 0.028120767
000040 e8 2f 8a be 32 09 4c bb 8c e3 b0 bc 67 4d 13 3e
       -0.26989675 -0.003113341 -0.021592878 0.14384995
000050 7c 6e 8d be 77 d9 48 3e 21 ab 09 3e b6 ee 02 3f
       -0.27623355 0.19614206 0.13444187 0.51145494
000060 f8 be f4 3e 96 6b 97 bd f8 cc b1 3e c9 82 cf 3e
       0.47801948 -0.07393567 0.3472669 0.4052947
000070 a6 60 0d 3e b2 4a 80 3e 9f 57 07 3e ad f4 80 3d
       0.138064 0.25056988 0.13217019 0.06296668
000080 b6 33 53 be f4 da 3a 3e d6 ac 07 bf d6 7a bd be
       -0.20625195 0.18247586 -0.529981 -0.3700778
000090 d8 3d 29 bf 64 ce e8 3e 44 62 c8 3e 1f e2 25 3f
       -0.6610999 0.45469964 0.3913747 0.6479816
0000a0 2b e4 10 bf 5d 70 f2 bd ce 84 81 3e 6b fb 57 bd
       -0.56598157 -0.11837838 0.25296634 -0.052730005
0000b0 04 ea 43 3f c8 0a 1f bd 60 4d 10 bf 36 51 d0 bd
       0.76528955 -0.03882864 -0.56368065 -0.1017174
0000c0 01 da 49 bf 2a 2b 54 be 0c fd b8 be 5f 37 f7 3e
       -0.7884827 -0.20719591 -0.3613056 0.48284432
0000d0 82 63 a7 3e 0b 51 93 3e b7 dc 59 3f d0 cc fc 3d
       0.32693106 0.28772768 0.8510241 0.123437524
0000e0 72 58 8c be c7 de 02 3f 00 a3 98 3e 03 43 46 be
       -0.27411228 0.5112118 0.2981186 -0.193615
0000f0 da 13 bc 3b 8a 8b 97 3e 78 e3 4b be 06 67 b2 3d
       0.005739671 0.29598647 -0.19910991 0.087110564
000100 cd 14 74 3e a9 d6 cc be 9d 44 0e be 2a ab 53 3d
       0.2383606 -0.40007523 -0.13893361 0.051676907
000110 3f a1 f1 bd df a2 b6 bd 30 22 49 be 41 e1 7f be
       -0.117983334 -0.08917784 -0.19641948 -0.24988271
000120 ee 06 18 3f e4 4b 36 be ee 1c 30 be 09 d8 16 3d
       0.59385574 -0.17802387 -0.17198536 0.03682712
000130 21 08 14 be b1 34 04 be 52 af e6 3e e1 43 66 3e
       -0.14456226 -0.12910725 0.45055634 0.22486831
000140 0b 9b 43 be 96 69 1b be d7 43 6a 3e 4e 62 02 bd
       -0.19102113 -0.15176997 0.22877441 -0.031832032
000150 dc f8 2a 3d bf 23 3b 3e 10 c6 f6 be fc 86 a0 bd
       0.041741237 0.18275355 -0.48197985 -0.07838246
000160 71 32 2a 3e fa d9 a7 be e3 9c 8c bc 3b ec 7c be
       0.16620804 -0.3278349 -0.017164653 -0.2469949
000170 8d 4d 7f be f8 24 b0 bd 57 5e 06 3e d5 68 99 be
       -0.24931927 -0.08600801 0.13121925 -0.29962793
000180 c9 a5 1f 3e c1 34 b1 be 9b d7 3b 3f ab ca 40 bf
       0.15590586 -0.3461056 0.7337586 -0.75309247
000190 8c c9 d9 3e 37 75 0c 3e 7d a4 f8 bc 4e 0d 6f 3d
       0.4253658 0.13716589 -0.030351872 0.058362298
0001a0 1e a0 17 3e 8f 95 34 3e e1 cf ff be ce 0e 66 be
       0.14807174 0.17635177 -0.49963287 -0.22466585
0001b0 ba f2 a3 bd f4 29 36 bd fb b9 ee be 57 36 6f 3d
       -0.08005281 -0.044473603 -0.46626267 0.058401432
0001c0 6c ea 99 3d 36 05 36 bd 42 eb 0b 3e d9 48 2d be
       0.075154155 -0.044438563 0.13663962 -0.1692232
0001d0 70 8a 92 3d 55 bf 64 be 25 bd 07 bd fd 97 9b 3e
       0.07155311 -0.22338612 -0.033139367 0.30389395
0001e0 82 94 c6 3e 2d 23 44 3f bf df 2d be aa 89 c2 3e
       0.38785177 0.76616174 -0.16979884 0.37995654
0001f0 cd d6 aa 3d 3a 07 ac be b2 20 2c be 4e 0c 3c bd
       0.08341751 -0.33599263 -0.16809347 -0.045910172
000200 22 8e 40 be 89 36 db 3d 39 c7 5e bd a4 a9 d7 be
       -0.1880422 0.10703761 -0.054389212 -0.42121613
000210 a2 c2 ab be 9b 18 01 bf 42 2b a3 be f6 6d c2 3e
       -0.3354693 -0.5042817 -0.3186894 0.3797452
000220 e2 b5 71 3e f8 b3 14 3e be 4f cb 3d 48 4e 97 bc
       0.23604539 0.14521778 0.09927319 -0.018469945
000230 7f c4 7c bf ea c6 6c be 5d 75 94 be f6 70 38 3f
       -0.9873733 -0.23122755 -0.2899579 0.72047365
000240 d5 57 4b be 87 5e 20 be 92 01 1c 3f 99 c0 28 3e
       -0.19857724 -0.1566106 0.60939896 0.1647972
000250 9c e1 4a bd a0 0f cc 3c e3 a3 9a 3c 7b 11 a4 bb
       -0.049531564 0.024909794 0.018876975 -0.0050069666
000260 c6 8a 4a 3e b4 40 8c be ca 27 64 be c9 8f c7 3e
       0.197795 -0.27393115 -0.22280803 0.38976887
000270 e1 ca 9d bc 35 0d d9 3e 76 75 61 be 3a c7 a4 3c
       -0.01926178 0.4239289 -0.22017464 0.02011453
000280 13 dd 13 3e c2 06 0b be f5 10 7f be af fd 74 bd
       0.14439802 -0.13576797 -0.24908812 -0.059812244
000290 c7 4a 42 3f 82 83 34 be 16 be 52 3e c1 38 42 3e
       0.7589535 -0.17628291 0.20580325 0.18966962
0002a0 27 1c 8b be 93 bd 1c bf 7a 80 a6 bc af ec c9 3d
       -0.27169916 -0.6122677 -0.020324934 0.09859597
0002b0 05 1f 0d 3d bd ba 4f be 33 8f 9a be 41 cf a9 3e
       0.03445341 -0.20286079 -0.30187377 0.33165935
0002c0 3e ab 84 3e e2 8e 6f be bf 6f cf 3b 89 b0 98 bc
       0.25911897 -0.23394349 0.00633046 -0.018638866
0002d0 af 4f 5e 3e ed de cf 3d 59 8f c2 bd d2 d1 21 3d
       0.21710084 0.101499416 -0.09499998 0.03950674
0002e0 a2 82 89 bd 95 fe af be f7 ab d8 3e d2 0e 64 3e
       -0.06714369 -0.34373918 0.423187 0.22271279
0002f0 35 93 f1 be 02 58 9c be 2f 00 17 be 33 31 23 3e
       -0.47182623 -0.30535895 -0.14746164 0.15936737

actor.init_internal_node_embed.0.add_bias._bias f4 [32, 1]
000000 5d 32 48 bb 81 b7 9c 3b 8f 44 94 bc bb df 30 3d
       -0.0030547597 0.0047826176 -0.018099098 0.043182116
000010 50 b7 c3 3d 88 db d9 bb 9d 48 96 bc a8 f1 06 bb
       0.095564485 -0.0066484846 -0.018345172 -0.0020590816
000020 97 c3 39 3c 1a 1f e1 3d 30 5c 1c 3d 6f d0 51 3c
       0.011338136 0.1099226 0.038173854 0.012806042
000030 5b 54 a1 3c b4 ef 6f 3c 65 f3 34 bc 53 98 45 bc
       0.019693544 0.014644552 -0.011044358 -0.012060243
000040 51 13 93 3b 21 ec ab ba 7d cf b4 bb 96 29 8e 3c
       0.0044883867 -0.0013116637 -0.0055178986 0.017353814
000050 02 82 c7 3c cd 47 ba bb 20 76 39 3c 35 c9 20 3c
       0.024353985 -0.005684829 0.011319667 0.0098135965
000060 e0 1c 69 3d ff 13 a9 3b db 06 dd ba ec f3 8d bb
       0.056912303 0.0051598544 -0.0016863005 -0.0043320563
000070 78 d5 4c bb f0 58 eb bb 7a 6c 6d bc eb 47 87 bb
       -0.0031255167 -0.007182233 -0.014491195 -0.0041284463

actor.init_internal_node_embed.2.module.weight f4 [64, 32]
000000 20 59 ca be 29 97 10 3e ae ba 19 be 02 79 aa 3e
       -0.39521122 0.14120163 -0.15012619 0.33295447
000010 64 21 6f 3f 50 9e 7a 3d 9b 95 92 3d 76 db 84 3d
       0.93410325 0.061186135 0.07157441 0.06487171
000020 75 73 3a be fd 42 37 bd c4 26 c5 be 1a 05 c9 3d
       -0.18208106 -0.04474162 -0.38506138 0.09815426
000030 9d 6a 50 be 06 e5 11 be f8 bd bf 3d 30 92 3e be
       -0.2035317 -0.14247522 0.093624055 -0.18610454
000040 0e e9 88 3e a3 af 55 bd eb 58 b9 bd 99 e5 fa 3d
       0.26740307 -0.052169453 -0.09050163 0.122508235
000050 4d b0 8e 3e 75 39 11 be 4a cb 78 be 7b 91 7c be
       0.27868882 -0.14182074 -0.24296299 -0.24664871
000060 73 3a 8c be 28 02 91 3e 20 f9 00 3e af e8 b3 3e
       -0.27388343 0.28321958 0.12595034 0.3513846
000070 51 da 8e bd 12 38 44 be ea 78 37 be 11 24 98 3d
       -0.06975234 -0.19162014 -0.17917219 0.07428754
000080 6c 34 c8 bd 3b 0f 02 bf 77 1b a3 be 6f 1d 4b bd
       -0.09775624 -0.5080449 -0.31856892 -0.049588617
000090 4f 60 d2 bd 80 34 64 3e 64 28 63 3d 9f 8e c9 3e
       -0.10272276 0.22285652 0.05545844 0.39366624
0000a0 e1 e1 26 bd d3 d4 bd bd 2a 5c 37 3e 37 08 2f be
       -0.04074276 -0.092691086 0.17906252 -0.17092977
0000b0 3e 84 16 be 79 da 6b bd 5b 61 05 3d 34 4f 32 3e
       -0.14698884 -0.0575814 0.03256355 0.17413026
0000c0 fa 1d a6 3c 71 96 96 bd 8a 76 16 be fa 0a 0b be
       0.020277966 -0.07352913 -0.14693657 -0.13578406
0000d0 a2 a4 3b 3e e2 27 ca 3c 9c 91 5d 3e 3a 5d 11 be
       0.18324521 0.02467722 0.21637577 -0.1419572
0000e0 04 9f 67 3e 5f 14 93 3d 32 35 5b 39 1e 91 2d 3e
       0.22619253 0.0718162 0.00020905284 0.16949889
0000f0 fa 82 8e be 7f 3f 64 3e 6f a9 f5 3e 4a de 2c 3d
       -0.27834302 0.22289847 0.4798083 0.04220418
000100 3c e9 c6 3e 26 3c cb bd 71 02 0c be cd a1 4c 3e
       0.3884982 -0.09923582 -0.13672806 0.19983597
000110 bb 37 0b 3c ae 9d 86 3e 3f 39 8a be f8 5d 89 be
       0.008497174 0.26292175 -0.269968 -0.26829505
000120 a2 91 85 3e 4c 45 29 3e b8 d6 30 be a3 52 57 be
       0.26087672 0.16530341 -0.17269409 -0.21027617
000130 33 32 c8 3e d1 61 95 be 1d 94 77 3c 05 be 85 bb
       0.391008 -0.2917619 0.015110997 -0.00408149
000140 e8 d8 0f 3e 83 22 d5 3d a5 44 7a be db 0d 9e 3d
       0.14047587 0.10406973 -0.24440248 0.077174865
000150 6c 4d dc be 19 77 12 3d 7c 9f 81 3e da 19 a5 be
       -0.43027818 0.03575811 0.2531699 -0.32246286
000160 3a 7a 91 bd aa 67 2d be 3c c4 db be 83 25 75 bc
       -0.07103391 -0.16934076 -0.42923152 -0.014962557
000170 1d eb 67 bd d0 80 9c bd 98 f5 7f 3e 8f 47 a7 3d
       -0.056620706 -0.076417565 0.2499603 0.081679456
000180 7b 24 20 3d 69 71 d3 3e 9e 7a a7 bd 8b ee a7 3d
       0.03909729 0.41297463 -0.08177684 0.08199795
000190 56 85 61 3e 36 57 0a be 54 1b a7 be 85 ac 8b 3d
       0.2202352 -0.13509831 -0.32638037 0.06820015
0001a0 fd 42 38 3d c4 9a 7d 3d d8 f2 5e 3e fe ca c6 3e
       0.04498576 0.061915174 0.21772325 0.38826746
0001b0 a6 76 65 be 96 96 93 3d 3a 5c a7 bb b4 92 2a be
       -0.22408542 0.07206456 -0.00510743 -0.16657525
0001c0 24 bf 02 be f1 1a 51 be a6 65 fc 3c c7 84 30 be
       -0.12768227 -0.20420434 0.030810189 -0.1723815
0001d0 e2 72 c0 3d 8f 99 cd 3c c0 0a 94 3e 45 55 fc 3c
       0.09396912 0.025097637 0.28914452 0.030802378
0001e0 f9 98 b7 be 41 96 cf 3d c9 e7 aa 3e 4b 17 f2 3c
       -0.35858896 0.101360805 0.33379963 0.029552123
0001f0 be 61 19 3e 0d 2d 33 3e 58 16 48 3e 40 95 ba 3d
       0.14978692 0.17497654 0.19539773 0.091104984
000200 01 ee 82 be d1 b3 02 3e d9 6f 49 3e 87 2b 81 bd
       -0.25572208 0.12763907 0.19671573 -0.0630713
000210 f9 22 9d be 25 a4 03 3c 12 eb 06 be 91 34 98 3d
       -0.30690745 0.008034741 -0.1317561 0.07431901
000220 c5 54 09 be 44 2e d0 3e a8 7c b9 3e 19 e7 f5 bd
       -0.13411243 0.40660298 0.36227918 -0.12006969
000230 09 d5 03 3d f9 d2 6d 3e 75 b2 e9 bd 96 f4 82 bc
       0.032185588 0.23225011 -0.11410991 -0.015985768
000240 40 e5 53 bd a5 0b eb 3d aa 14 a5 bd ae eb e3 bd
       -0.0517323 0.114768304 -0.08060582 -0.11128937
000250 93 33 39 3e ae c7 68 3d a2 d9 62 3e 8d b9 c6 bd
       0.1808608 0.056831054 0.22153333 -0.0970336
000260 4c cc 44 bd 7e 99 b6 3c d0 75 b4 3e bc 8b 9b be
       -0.048046395 0.022289988 0.35246134 -0.30380046
000270 c5 45 96 3e c9 61 15 3c f6 d6 67 bd a1 31 f6 bd
       0.29350105 0.009117552 -0.056601487 -0.12021185
000280 07 78 52 3d 60 bb bb 3d 7b 9d 19 bd 41 3d 83 3e
       0.051384 0.09166598 -0.0375037 0.2563267
000290 bd 72 10 3e 40 97 e0 bc fe 46 89 3e 04 79 ba be
       0.14106269 -0.027415872 0.26811975 -0.36420453
0002a0 f0 b5 02 3e a9 47 5a 3e e4 be 12 3f 2b 60 cc 3d
       0.12764716 0.21316399 0.57322526 0.0997928
0002b0 65 49 87 3e ec f6 a6 bd 8f 17 a2 3e 9b 04 9c bc
       0.26423183 -0.08152565 0.316586 -0.019045165
0002c0 04 16 ad bd 82 50 41 bd e8 c3 7c 3e 8b 7f d4 bd
       -0.08451465 -0.04719592 0.24684107 -0.103758894
0002d0 5a 90 55 3e 65 4c c5 bd c4 3b ce bd d6 5e 0b bd
       0.20855847 -0.09633712 -0.10069993 -0.03402599
0002e0 83 69 ad 3d aa 64 86 bd 1d 0d cb bd c6 4c a5 be
       0.084673904 -0.06562169 -0.099146105 -0.32285136
0002f0 74 05 bd bc 89 d5 a9 3d e9 ea e5 3d ad eb c4 3b
       -0.02307389 0.08292682 0.11226446 0.00600954
000300 bd 4d ba bd 86 a6 91 be 9c 54 17 be ca 8f fc bc
       -0.09096859 -0.2844736 -0.1477837 -0.030830283
000310 14 9e a1 3c 89 5b 0d 3d 8a de 9a bd 32 32 86 bd
       0.019728698 0.034511123 -0.07561977 -0.06552543
000320 36 ea 96 be 53 3c 06 3f 12 29 f5 be 6d f5 20 3e
       -0.29475564 0.524358 -0.47882897 0.15718623
000330 97 f6 73 3e df 46 a4 3c 05 bb ba bd fa d7 49 bd
       0.23824535 0.020053325 -0.091177024 -0.049278237
000340 2e 2a eb bd d2 3f 85 be 44 09 39 3e aa 53 76 3e
       -0.114826545 -0.26025254 0.18069941 0.24055353
000350 97 3e 90 bd 79 07 cf 3d e9 74 6a be f9 38 64 3e
       -0.07043188 0.10108847 -0.2289616 0.22287358
000360 5e b8 0c bf 0a e4 5f be 59 e7 cc 3d d5 22 26 3d
       -0.5496882 -0.21864334 0.100050636 0.040560562
000370 43 d4 03 3d e9 f6 b1 3e f2 2c cc be 07 8b a3 be
       0.03218485 0.3475869 -0.3987804 -0.31942007
000380 8a 7f 78 3e 8c d0 a9 3e 42 10 71 3e d2 4f 46 be
       0.24267402 0.3316692 0.23541358 -0.19366387
000390 b9 77 58 bd bf 73 c0 3d 01 74 bc 3e a0 a3 80 3e
       -0.05284855 0.09397077 0.36807254 0.25124836
0003a0 52 cd ed be d1 ee 0c bf c5 3a 25 be 4f d3 e9 bd
       -0.4644571 -0.55051905 -0.161357 -0.11417257
0003b0 b5 f1 ea 3e 00 ef 8e be 48 c8 55 bd 87 a8 51 3d
       0.45887533 -0.27916718 -0.052192956 0.05118611
0003c0 b3 f6 08 3d 61 94 83 bc dc 53 54 bd 1a 50 e1 bb
       0.033438396 -0.016061964 -0.051837787 -0.006876004
0003d0 6e 05 da be bc 2e 49 bd 75 a3 45 3e 5b 8d 5f 3d
       -0.42582268 -0.049116835 0.19300635 0.054578166
0003e0 f3 9c df 3e a2 c3 e2 bc 61 0f 0c be 47 03 42 bd
       0.4367443 -0.027681176 -0.13677742 -0.047366407
0003f0 a8 47 9c 3d e5 5a 0f 3e 24 3e bd be 5f 88 ea bd
       0.07630855 0.13999517 -0.36961472 -0.11451792

actor.init_internal_node_embed.2.add_bias._bias f4 [64, 1]
000000 25 ab 44 3b 7f 8f a4 bc 86 ec 54 3d dd 9a b0 3c
       0.0030009237 -0.020087956 0.05198338 0.02155822
000010 f9 a5 10 3c bf 85 32 3d 6e 58 e8 bc f1 90 01 3d
       0.008828633 0.04358458 -0.028362479 0.031632368
000020 11 e6 0d bd 39 64 00 bd 0a 73 0e bc 6f 53 f2 bc
       -0.034643237 -0.03134558 -0.00869442 -0.0295808
000030 04 5f 91 bc f0 8f 6c bd a3 ac 68 bd 69 03 03 bc
       -0.017745502 -0.057754457 -0.056805264 -0.0079964185
000040 64 95 97 3d ab bb 88 bc b0 01 b9 bb 82 a2 49 bd
       0.07401541 -0.01669105 -0.005645953 -0.049227245
000050 32 c5 ae 3a fe 17 aa 3c 55 bc e0 3c ea d9 d1 3d
       0.0013333915 0.020763393 0.027433554 0.10246642
000060 c0 73 52 3c 65 9d 82 bd 2a d4 57 3c 63 7c 62 3d
       0.01284498 -0.06377677 0.013173142 0.055294406
000070 b9 95 2a 3d 96 12 1a bd ba b5 d6 3d 1d e8 09 3c
       0.041646693 -0.03761538 0.1048388 0.0084171565
000080 3c 18 b6 bc ff 0a 3a bd 3e c6 25 bd 73 63 a4 bb
       -0.022228353 -0.045420643 -0.04047226 -0.005016738
000090 b0 ba 4a 3c 23 4e 18 bd 9e 80 99 3d fa 58 13 3d
       0.012373611 -0.037183892 0.07495235 0.035973527
0000a0 a5 bf a3 bd 19 fb cf 3c 8d ab 9c 3d ac 0c f8 3c
       -0.07995538 0.025388287 0.07649908 0.03027948
0000b0 de 36 b6 3c d1 c9 39 bd 8a b2 2c 3d 02 66 d6 3d
       0.02224296 -0.045358483 0.042162456 0.10468675
0000c0 fe fb 07 bc d3 27 01 bb f0 dd 64 3d 31 3a 54 3d
       -0.008299826 -0.0019707575 0.05587572 0.05181331
0000d0 0b 94 39 bd 0b ce 2e bd 80 74 8b bd c9 a4 79 3d
       -0.0453072 -0.042676967 -0.0680933 0.060948167
0000e0 b1 cf 3c 3d d8 61 c4 bc 83 68 a4 3c 74 06 e0 bc
       0.046096507 -0.023972437 0.020069366 -0.027346827
0000f0 eb be 7a bc 13 98 6c ba 7d 68 ae bc 81 fa 59 3c
       -0.015304307 -0.00090253464 -0.021290058 0.013304354

actor.init_leaf_node_embed.0.module.weight f4 [32, 8]
000000 8c 8c 59 be 7d 67 b1 be b6 90 42 3e 7f a4 54 3e
       -0.2124502 -0.34649268 0.19000515 0.20765875
000010 61 0b 19 3d e6 9f 04 3f d6 8f aa be 3f c3 9e be
       0.037364367 0.51806486 -0.33312863 -0.31008336
000020 a9 2e e6 be 22 38 ea bd 76 39 c2 3e f5 fc 21 bd
       -0.44957474 -0.11436488 0.37934464 -0.03954788
000030 80 e6 51 3e 29 8c 59 be 96 8d 7a 3e 93 04 58 bd
       0.20498085 -0.21244873 0.24468073 -0.052738737
000040 e8 c2 9a 3c ed 79 df 3d f3 be 87 be 3e a7 02 3d
       0.018891767 0.10911927 -0.2651287 0.031897776
000050 2a 24 3e be f6 e1 a5 bd 66 01 a2 3d b7 65 c5 bd
       -0.18568483 -0.08099739 0.07910423 -0.09638541
000060 6b cb c1 be 35 60 22 3d a7 9c 60 3e 73 5d 57 bd
       -0.37850508 0.03964253 0.21934758 -0.052579354
000070 71 6f a6 3e 15 d2 20 3d 13 7c 80 be db a0 49 3c
       0.32506898 0.03926285 -0.2509466 0.012306417
000080 68 80 ef b9 6e 87 11 bf d9 df c6 3e a8 23 9b bd
       -0.00045681302 -0.56847274 0.38842657 -0.0757516
000090 55 d6 96 bd d4 74 4c 3b 86 2d 2a be 19 bb 11 3e
       -0.07365099 0.0031197565 -0.16618928 0.14231528
0000a0 91 73 b7 be 16 63 62 bc d8 8e 83 be 9a a9 3e 3e
       -0.35830358 -0.013817569 -0.2569492 0.18619385
0000b0 72 20 21 be 12 07 f9 3d 3e c0 2b be 66 5a 30 3c
       -0.15735033 0.12159552 -0.16772553 0.01076374
0000c0 c6 74 83 be 75 68 56 3e 1b 3c a4 bd cc 9d df 3d
       -0.2567503 0.20938285 -0.08019277 0.10918769
0000d0 a7 ad fc bd e7 3a fc bd 9e b3 39 3d 92 28 27 3e
       -0.12337809 -0.12315922 0.045337312 0.1632407
0000e0 56 d9 5d 3e a7 a1 43 3e 6d 6e c6 3e 7e 87 0d be
       0.21664938 0.19104634 0.38756123 -0.13821217
0000f0 86 3e 24 be 8a d6 cf bc c2 df 28 bf 7b 28 a8 bd
       -0.16039476 -0.025370855 -0.6596643 -0.08210846
000100 4c 56 59 bd da 1c c8 3d 62 7c 26 3e 35 74 b1 3d
       -0.053060815 0.09771128 0.16258386 0.08664743
000110 65 05 96 3d 5c c7 94 3e a0 2f 57 3d 6a 5c 32 3d
       0.07325248 0.2905835 0.052535653 0.043545164
000120 0c ae f8 be 1e 42 05 be 44 d3 91 3d dc 79 a5 3d
       -0.48570287 -0.13013503 0.07120374 0.080798835
000130 79 f9 b4 3e 48 c9 57 be e5 5d d7 ba b9 5f 04 bf
       0.35346583 -0.21072876 -0.0016431181 -0.5170856
000140 9c 73 da be 72 93 8b 3d 04 bb ac be d4 5c f9 bd
       -0.42666328 0.06815232 -0.33736432 -0.12175909
000150 11 dd f0 3e 00 a6 87 3e 5b 21 6b be b4 5d ff b9
       0.4704366 0.26493835 -0.22961943 -0.00048707204
000160 4e ff 0c 3e a0 02 64 bd 77 47 9f 3e 13 6b 66 be
       0.13769266 -0.055666566 0.3110921 -0.22501783
000170 9f 41 2c bd bb 2c 96 be eb 3e d6 3e 29 94 58 3c
       -0.04205477 -0.29331002 0.41844878 0.013218918
000180 0a 8b 83 be d4 bf 47 be 09 69 d4 3e 4c 93 f0 3e
       -0.25692016 -0.1950677 0.41486385 0.4698738
000190 20 7a 89 3e d7 fd 85 3d 4a df ad 3e 1e 36 de 3e
       0.26850986 0.06542557 0.3395942 0.43400663
0001a0 f8 fc 11 3e 23 11 a7 3e 97 6e 86 3e db cf 64 bd
       0.14256656 0.32630262 0.26256248 -0.05586229
0001b0 1e 68 ff be f2 5b de bc 3f 4e 4a bd eb 74 65 be
       -0.49884123 -0.027143452 -0.049391028 -0.22407882
0001c0 64 40 c1 3e c0 f5 d0 3e a9 2c ac 3d e3 83 fc 3e
       0.3774444 0.40812492 0.08406956 0.49319372
0001d0 f2 24 b8 3d 1a a0 e1 3c 20 50 0a 3e 16 e2 1d 3e
       0.08991422 0.027542163 0.13507128 0.15418276
0001e0 e1 11 4e 3d f8 da bc bd dc f6 74 bd 87 1b 4c 3e
       0.05031002 -0.092214525 -0.059805736 0.19932376
0001f0 3d e6 2b be 41 4b 96 3e 8d d3 2d 3d ab ae 31 3e
       -0.16787048 0.2935429 0.04243808 0.17351787
000200 19 00 86 3e 6b 1d 8e 3e f3 17 34 bd 60 9a dc be
       0.2617195 0.2775682 -0.043968152 -0.4308653
000210 d3 c9 9a 3c c0 be 95 be f7 85 63 be ad f6 2d 3e
       0.018895065 -0.29247093 -0.22219072 0.1698863
000220 ed 59 a6 be 91 7b 91 3e b6 ec b3 be 6f ac ea 3e
       -0.32490483 0.28414586 -0.35141534 0.4583468
000230 c4 a6 22 be c5 ff d3 bd 78 f0 57 be e2 f2 62 3e
       -0.15883929 -0.103515185 -0.21087825 0.22162965
000240 90 45 7f 3d 6e 5f 17 ba da 15 0c bf 0e 56 27 be
       0.0623222 -0.0005774413 -0.5472084 -0.16341421
000250 f7 6d 7e 3e ba c4 c3 3e 58 11 bf 3d b9 51 23 be
       0.24846636 0.38236028 0.0932948 -0.15949143
000260 47 6e 2e be 05 8f 98 bc 48 55 db be ab 47 1e bd
       -0.17034255 -0.018622885 -0.42838502 -0.038642567
000270 6f 6e 26 be 63 69 92 be 86 3e 7f 3e ca 62 9f bd
       -0.16253065 -0.2859603 0.24926195 -0.077825144
000280 66 eb 3e 3e 69 01 d7 3c 0b 36 37 3e 53 d8 cc 3e
       0.18644485 0.02624579 0.1789171 0.40008792
000290 bf b9 ee 3e 34 73 6d bd 76 72 96 3e ad a4 9c bd
       0.46626088 -0.057971194 0.29384202 -0.07648597
0002a0 ed 8d 81 be 23 83 f8 3e 3f 00 20 3e 81 fa 73 be
       -0.25303593 0.4853755 0.15625094 -0.23826028
0002b0 83 98 96 3e 2b 8c 7d be d0 2c 2b bd 85 7a 49 3e
       0.29413232 -0.24760501 -0.041790783 0.19675644
0002c0 3a 11 1a 3e db 5b c9 be a2 5e 34 be 08 79 ae be
       0.15045634 -0.39327893 -0.17614225 -0.34076715
0002d0 70 e5 c0 3e d8 9f 36 bc 12 fd e1 3e 0d 1c 6b 3e
       0.37675047 -0.011146508 0.4413839 0.2295992
0002e0 52 ba 20 3b 89 25 05 3f 76 cd 5e 3e e9 76 0b bf
       0.0024525118 0.520104 0.21758065 -0.5447832
0002f0 7b e0 c8 bd 04 3c 15 3f ac dd 0f 3e 11 3e ca 3e
       -0.09808441 0.582947 0.14049405 0.39500478
000300 67 fc 30 be c3 fb ab be 9a e5 f9 bd 24 6e 2a be
       -0.17283784 -0.33590516 -0.12201996 -0.16643578
000310 55 bb 1a 3e c8 7c 86 be 5e d5 9a bd ca 4f 16 3f
       0.15110524 -0.26267076 -0.07560228 0.587155
000320 08 55 13 3e 30 22 c6 bd 85 99 41 be fc 52 24 3e
       0.14387906 -0.096744895 -0.1890622 0.16047281
000330 09 c6 ba be af 3b ff bc 9e 2c a2 bb cf 25 ba 3e
       -0.36479214 -0.031156389 -0.0049491664 0.3635697
000340 42 7c 69 be 74 1b 38 3e 6d 14 24 3e 1b 1a 72 be
       -0.22801307 0.17979223 0.16023417 -0.23642771
000350 31 43 e6 be 05 e5 30 bd b9 0b d0 3e b1 12 44 be
       -0.44973138 -0.04318716 0.40633944 -0.19147755
000360 e1 59 09 be 56 f1 83 3e 59 d3 92 3e a0 df 0d 3e
       -0.13413192 0.25770062 0.2867687 0.13854837
000370 90 a9 e0 bd e2 46 f1 3e 65 5c 9c 3e 15 dc 43 be
       -0.109698415 0.47124392 0.3053924 -0.19126923
000380 27 6e 32 3d 91 cc e3 bc ed e8 a7 3e c5 3d 1f be
       0.04356208 -0.027807506 0.32794896 -0.15550907
000390 a8 db 08 be b5 34 0a bf 60 38 76 be d6 e0 b8 bd
       -0.13365042 -0.53986675 -0.24044943 -0.09027259
0003a0 36 20 b5 3e 30 ab 94 3e f4 fc 6d be 54 55 1d 3e
       0.35376137 0.29036856 -0.23241025 0.15364581
0003b0 fe b6 f3 3e 8d 5e 11 bd 73 cd 24 3e 62 4f ff be
       0.4760055 -0.03549056 0.16093998 -0.49865252
0003c0 6e 94 67 3d 82 d0 b9 be 2d 23 3b be d8 17 b8 be
       0.056538038 -0.3629189 -0.18275137 -0.3595569
0003d0 22 2b 91 be ff 54 cd 3e 9b 47 a3 3d 76 3a 80 be
       -0.2835322 0.4010391 0.07972642 -0.25044602
0003e0 fa da d0 be e7 4a 44 3d f9 e9 4d be ce fe a7 bc
       -0.40792066 0.047922995 -0.20108785 -0.020507243
0003f0 c7 27 87 be 3e d6 96 bd 6b f0 8d 3e b2 03 55 be
       -0.26397535 -0.07365082 0.27722487 -0.20802191

actor.init_leaf_node_embed.0.add_bias._bias f4 [32, 1]
000000 25 78 be 3d 0e 2b 55 b9 ab 09 9b 3d 3c af ed 3c
       0.093002595 -0.00020329302 0.075702034 0.029014222
000010 15 2d 90 3c c8 ed 8a bd 76 d8 47 3c 1b a9 6d 3b
       0.017599622 -0.067836344 0.012197604 0.0036264125
000020 c3 41 fb bc 0a f3 ac 3c ff f2 b3 3c cf 00 05 bd
       -0.030671006 0.021111984 0.021966456 -0.032471474
000030 56 a1 12 3e 3e 28 3f 3c 08 8c d8 3d 11 cb f5 bc
       0.14319357 0.011667309 0.10573584 -0.030004056
000040 2c 51 63 3d 4e 6f 18 bd 0d 80 b6 bd 0c cf 80 ba
       0.055497333 -0.037215523 -0.089111425 -0.000982733
000050 a1 cd 49 bd 57 fa b5 bb 8b e8 3e 3c 44 c1 5a bd
       -0.04926837 -0.0055535245 0.011652122 -0.05340697
000060 72 6e bb bd 62 86 2b bc 58 16 ee bc dd 95 b0 3d
       -0.09151925 -0.010469051 -0.029063389 0.08622334
000070 43 af b1 bd 30 0f c4 3d 80 b0 9f b9 8d ed c5 3d
       -0.08676007 0.09573209 -0.00030458346 0.0966445

actor.init_leaf_node_embed.2.module.weight f4 [64, 32]
000000 25 de 0f 3c 3b 78 80 be c2 ce 8f be 50 40 5d be
       0.008780991 -0.2509173 -0.2808743 -0.21606565
000010 49 4d 20 3e f7 de be 3d c5 37 bd 3d 29 40 a3 bd
       0.15654482 0.09319871 0.09239153 -0.07971222
000020 3a cb 8a 3d d6 7a b8 3d ae cd 81 3e a8 88 8e be
       0.06777044 0.09007804 0.25352234 -0.27838635
000030 4a ab 84 be dd 53 87 3a fe fc bf be f5 05 73 bc
       -0.25911933 0.0010324676 -0.37497705 -0.014832963
000040 1f f8 52 3e e7 90 0d 3e ea 4f 57 3d 30 0c e8 bd
       0.20602463 0.13824807 0.052566446 -0.113304496
000050 cf 3e 85 3d 29 58 59 be 95 db 93 3e 2a ed 35 3e
       0.065061204 -0.21225037 0.28878465 0.17766252
000060 3f 0c ac 3d 84 ea 79 be 98 36 dc bd 26 a7 13 bd
       0.08400773 -0.24405867 -0.107526004 -0.036048077
000070 f8 f5 0a 3e dc 18 b4 3d 1f b2 ff 3b fc 89 0f bd
       0.13570392 0.08793804 0.007803216 -0.0350437
000080 5d c9 4a bd 26 be 39 3e 69 09 11 3d 3a 4e 83 3d
       -0.04950844 0.18138942 0.035409365 0.06411405
000090 d9 a9 2a 3d 23 34 11 3e 9d ef e9 3d ac 93 32 be
       0.041665886 0.14180045 0.11422656 -0.17439145
0000a0 22 b0 22 be 6a 6a 67 be ce 95 f0 3e e6 87 ec bc
       -0.15887502 -0.22599187 0.46989292 -0.028873395
0000b0 d4 45 e0 bd 00 fb 00 3e f0 c0 1c 3e 2a dd 86 be
       -0.10950819 0.12595749 0.15307975 -0.2634061
0000c0 23 eb ec bd cd 78 86 bd 45 00 98 bd 9f d4 43 be
       -0.11568286 -0.0656601 -0.074219264 -0.19124077
0000d0 12 c3 85 bd b0 21 1a be d5 dd e5 3d f6 3d 46 be
       -0.06531347 -0.15051913 0.11223952 -0.19359574
0000e0 6b e6 c6 be 9f 9d e9 bd 3f cd c3 ba e1 73 10 3e
       -0.3884767 -0.11407017 -0.0014938487 0.14106704
0000f0 e3 c8 87 be 51 2b 17 be 2e 36 08 3e ed 9c b5 3e
       -0.26520452 -0.14762618 0.13301918 0.35471287
000100 7b 41 5b 3e 81 07 a5 3c 7b cd 06 be 74 3a 16 bd
       0.21411698 0.02014518 -0.13164322 -0.03667684
000110 76 b6 0b 3e 0b 39 b3 bd 85 a3 c8 bd 6c d0 80 bc
       0.13643822 -0.087511145 -0.09796814 -0.015724383
000120 58 d3 dc be 47 07 3c bd 9d 9a cc be 9c 80 2b be
       -0.43129992 -0.045905378 -0.3996171 -0.1674828
000130 fe ee a8 be 1c 28 e3 3d ba 25 90 3e f4 c8 2c be
       -0.32994837 0.11091635 0.28153783 -0.16873533
000140 c7 7b b0 bd 9a f5 82 3e 90 2d 87 be a1 1b f6 bd
       -0.08617359 0.25578004 -0.2640195 -0.120169885
000150 69 ec 9d bc d8 1a c4 bb 40 82 53 3d aa 80 50 be
       -0.019277768 -0.0059846453 0.051637888 -0.20361581
000160 f2 bb b5 bc c1 71 a5 3b 3e 8e cc bd b1 50 05 be
       -0.022184346 0.005048961 -0.09988068 -0.13019063
000170 5d c6 51 be 72 a9 15 bd c8 78 d3 3d 8a df 23 3e
       -0.20485826 -0.03653855 0.103257716 0.16003242
000180 54 40 b0 bd 65 18 61 3e cb 52 40 3e 0e 7e b8 3d
       -0.086060196 0.21981962 0.18781583 0.09008418
000190 5c 50 46 3e ef ef eb 3d f5 2d 53 bd 8b bf e8 3d
       0.19366592 0.11520373 -0.0515575 0.11364659
0001a0 55 32 d8 3d 22 e9 84 bc 69 db 6b be c2 91 7a 3e
       0.10556475 -0.016224448 -0.23032917 0.24469665
0001b0 0f 19 a1 be 2f f3 97 3d ed 44 87 bd 9d fb 7e 3e
       -0.3146443 0.074194305 -0.066049434 0.2490067
0001c0 23 bc cd bd d5 a3 d1 3e c2 1f 33 be 89 bb a3 bc
       -0.1004565 0.40945306 -0.17492583 -0.019986885
0001d0 46 4c 71 3d 8d 9e 23 3e 5a 93 37 be 3d 4e 90 3e
       0.05891063 0.15978451 -0.17927304 0.2818469
0001e0 27 21 0f 3d f1 a5 b0 3d ac a2 31 3e 59 20 65 3e
       0.034943726 0.08625401 0.1734721 0.22375621
0001f0 57 49 97 3e 65 12 a3 bb fa eb 47 3e 3a e9 19 3e
       0.2954814 -0.004976558 0.19523612 0.15030375
000200 3a 2b 99 bd 55 84 02 bd 03 30 81 3d fe 5f 9b 3d
       -0.07478948 -0.031864483 0.06307986 0.075866684
000210 4d d7 5a 3e ef d3 d9 be 3b 18 74 3e 42 34 a0 3c
       0.21371193 -0.42544505 0.23837368 0.019556168
000220 d9 e4 92 3d 86 bc 8d 3d bc 94 04 be 1f d0 b9 be
       0.071725555 0.069207236 -0.12947363 -0.36291596
000230 d2 a9 e1 bd 87 b0 7e 3e 23 a0 24 3e e8 bc 44 be
       -0.11018719 0.24872027 0.16076712 -0.19212687
000240 dd 28 dc be f0 bb 53 be d4 8b 54 3e f0 ba ec 3d
       -0.42999926 -0.20677161 0.20756465 0.11559093
000250 0c 6b 8c be 6d 41 3c 3e 6e 89 2e bd 41 e5 e5 3d
       -0.2742542 0.18384333 -0.042611532 0.11225367
000260 10 c0 09 be 37 10 44 3c 7d a1 30 be bf 49 a4 3e
       -0.13452172 0.011966757 -0.17249103 0.32087514
000270 2d c3 77 3e 7d b2 b9 3c 42 43 21 3d 34 eb 45 be
       0.24195547 0.022668118 0.039370783 -0.19328004
000280 81 b9 08 3e 65 18 b1 bb 71 9c 38 be 1b bb 5a bc
       0.13352014 -0.0054045194 -0.18028428 -0.0133502735
000290 87 10 44 be a4 a0 53 bd a7 d7 b4 3e 3e de 06 be
       -0.1914693 -0.05166687 0.3532078 -0.13170716
0002a0 44 0c 2c 3d aa 9c 40 3d 0b 3f a5 be 3d 11 99 3e
       0.042003885 0.047024406 -0.3227466 0.29895964
0002b0 a2 0f 05 3f 46 ea d3 3c 68 57 b8 3e 97 b6 51 be
       0.5197698 0.025868546 0.36004186 -0.20479809
0002c0 bb df 1a 3e 31 69 f2 bd 93 c7 9a be 85 13 39 be
       0.15124409 -0.1183647 -0.30230388 -0.18073852
0002d0 75 71 0a 3e b3 02 3d be c7 50 8f bd ba 68 fd 3e
       0.13519843 -0.18458061 -0.06997829 0.49493963
0002e0 5d d9 a4 3d c9 b9 0a be e7 b5 94 bd 6e ae 48 3e
       0.08049271 -0.13547434 -0.072612576 0.1959779
0002f0 b8 2d 2a be 6e bf c4 3d e5 b7 65 3e e1 00 91 bd
       -0.16619003 0.09606825 0.22433431 -0.07080246
000300 3d 07 83 3e 94 a6 a3 be 48 08 47 bd 22 ae a6 bd
       0.2559146 -0.31963027 -0.048591882 -0.08138682
000310 ec 1f 56 be 76 01 04 be 92 66 1a 3e ba e2 17 3e
       -0.20910615 -0.12891182 0.1507819 0.14832583
000320 bc 4e bf 3d 7a 5d f7 bd 32 ba 3a 3e 19 dd 34 3e
       0.09341189 -0.12078376 0.1823509 0.17662467
000330 59 6f a7 bd 92 20 33 3e a2 0e 13 be c9 85 4d bd
       -0.08175535 0.17492893 -0.1436105 -0.050176416
000340 24 f2 dd be 44 db bc 3e d3 f8 6d 3e 59 c8 b1 3d
       -0.433488 0.36886036 0.2323945 0.086807914
000350 f1 cb 1d be 74 c8 bb 3d b7 6f bf bd 5b 1f 28 3e
       -0.15409829 0.09169093 -0.0934748 0.16418211
000360 7d 17 0e 3d f9 f3 d2 3c a8 2a 92 bd 7a 01 16 3c
       0.03469037 0.0257511 -0.07137042 0.0091556255
000370 68 b4 12 be a6 c6 8a 3e 67 af c6 bc f9 c6 50 bd
       -0.14326632 0.27104682 -0.02425356 -0.050971005
000380 09 97 15 be 34 60 a2 3d f5 3f f4 bd f5 30 87 be
       -0.14608397 0.079285055 -0.11926261 -0.2640454
000390 ca b0 0d 3e 15 1b e2 bd ca be 5c be 46 0d b0 be
       0.13836971 -0.11040322 -0.21557155 -0.34385127
0003a0 33 68 41 3e 8e cd 2c be 0c d6 d2 3d d0 ee 64 3c
       0.18887405 -0.16875288 0.102947325 0.013972953
0003b0 c5 8d 56 3e fe 38 08 3e ec 9a 66 bd c9 70 9a 3d
       0.20952518 0.13302991 -0.05630009 0.07541043
0003c0 21 a0 5e be b6 bf 88 bd ef 2e fa be 14 6e 31 be
       -0.21740772 -0.06677191 -0.48863932 -0.17327148
0003d0 5f ab 00 3e 3e 7d 9b 3e c4 29 cf 3d 02 ff ab bd
       0.12565373 0.3036899 0.10115388 -0.08398248
0003e0 53 07 28 bd 51 cf 3c 3e 40 04 4a 3e fa 92 2d 3e
       -0.04102261 0.1843846 0.19728184 0.16950598
0003f0 42 e9 f8 be d6 38 64 3e de b4 0a 3e f3 07 53 be
       -0.48615462 0.22287306 0.13545558 -0.20608501

actor.init_leaf_node_embed.2.add_bias._bias f4 [64, 1]
000000 c3 d7 9e bd cb 0b 24 bd 62 dd 10 3d 4b ee 04 3b
       -0.07755997 -0.04005031 0.035367377 0.0020283635
000010 e8 82 0b bd bb fe a0 3e 06 02 17 3d 37 f2 35 3d
       -0.03406039 0.31444344 0.036867164 0.044420447
000020 55 84 b1 bd 6c ea a6 3d cb 4f a3 bd 60 de 6c 3e
       -0.086678185 0.08150181 -0.07974204 0.23131704
000030 31 18 84 bd f6 c3 70 be 9e 4f 02 bf 97 9f 09 bd
       -0.06449927 -0.23512253 -0.50902736 -0.033599462
000040 d4 1f 93 bd fb 01 1c 3e 26 dc 60 be df d9 81 bd
       -0.07183805 0.1523513 -0.2195898 -0.06340384
000050 7e b4 ee bd 3d b4 31 3e e7 71 e8 3d 93 cc 3f 3e
       -0.1165552 0.17353912 0.1134985 0.18730383
000060 6d 72 19 bd f3 34 78 3e 8b e7 7b be 3d c4 c4 3d
       -0.03746264 0.24238949 -0.24600045 0.09607742
000070 a2 3b e3 bd 0b c1 74 be 52 92 df 3d c0 35 88 bd
       -0.110953584 -0.23901765 0.1091658 -0.06650877
000080 1e c8 ca bd bf 48 ab bb ac 81 65 be b7 51 40 3e
       -0.099014506 -0.005227178 -0.22412747 0.18781172
000090 be aa cd bd fb b4 85 bd 88 1a f0 bd 35 5c 66 bd
       -0.10042332 -0.0652866 -0.117238104 -0.05624028
0000a0 93 b3 4a be 0e 87 f8 3c 00 40 9b 3b a8 98 b5 bd
       -0.19795065 0.030337837 0.004737854 -0.088670075
0000b0 37 31 ab 3c bf 1a b4 3d f1 c8 5c 3d 55 92 6b 3e
       0.02089749 0.08794164 0.05390257 0.2300504
0000c0 0c c8 27 3a f6 b8 9a 3d fe cc cb 3d 1e b8 ca 3c
       0.0006400354 0.0755481 0.099512085 0.024745997
0000d0 22 d5 6b bd 61 b9 df 3d 38 9f 96 bd cd c0 e0 bd
       -0.057576306 0.1092403 -0.07354587 -0.10974274
0000e0 ce c6 c1 bd 5c bd f4 bd 87 85 0c be 9c c9 8f 3e
       -0.09461747 -0.1195018 -0.13722812 0.28083503
0000f0 db 08 f0 3d ae 5e 9d bb 4f 93 6b 3e 84 d8 4f be
       0.11720439 -0.0048025465 0.23005413 -0.20297438

actor.init_next_embed.0.module.weight f4 [32, 6]
000000 d6 a1 69 bf d2 50 2a 3e 21 04 ab bd ff 72 5b 3f
       -0.9126257 0.16632393 -0.08350397 0.85722345
000010 07 54 8a 3f be 40 3a bf 2d 6e 8d 3e 9a 49 a6 3e
       1.0806893 -0.7275504 0.2762312 0.3247803
000020 0a bd 08 3c 71 7b cf 3d 14 73 b3 3d ee 23 00 be
       0.008345852 0.101309665 0.08762184 -0.12513706
000030 c3 a9 a8 bd 89 c8 c7 be b2 c4 75 3e ea bc 0b bf
       -0.082355045 -0.39020184 0.24000815 -0.54585135
000040 0f fa d1 3d 29 cf 47 3d d8 89 82 3f 12 a8 11 3f
       0.10252773 0.048781548 1.0198317 0.5689708
000050 6e af e5 3d d6 73 86 be cb 4d eb 3c 0f b6 e3 3d
       0.11215101 -0.2626025 0.028723618 0.11118709
000060 f2 6d a7 be cd 0f 76 bd 60 cc 45 be bd 37 3d 3e
       -0.3270107 -0.060073663 -0.19316244 0.18478294
000070 fa 47 12 3d 0a e0 30 be 44 05 1a be 70 ed eb 3d
       0.035713173 -0.17272964 -0.15041071 0.11519897
000080 3d d2 ea 3e 6b c3 04 3e b6 73 06 be e1 84 23 3c
       0.45863524 0.12965171 -0.13130078 0.009980411
000090 28 9d 8e 3d 25 7a 68 be 1f a7 c0 bc 2f 3a 00 bf
       0.06963569 -0.22702844 -0.02351719 -0.5008878
0000a0 f3 af 1e 3c 8a e9 2a 3f 69 9e 53 be 5b 3c bb be
       0.009685504 0.667626 -0.20665897 -0.36569485
0000b0 a5 ce 81 3e 3d 1b d5 3d 40 27 1b be c6 9b f9 3c
       0.2535297 0.10405586 -0.15151691 0.030469786
0000c0 46 76 09 be 9e 98 82 be 20 c8 af 3e d7 90 70 be
       -0.13424024 -0.25507063 0.3433237 -0.23492752
0000d0 4c 03 c4 3d de a5 9d bb f2 df ba be c8 1e 21 be
       0.09570941 -0.0048110327 -0.36498982 -0.15734398
0000e0 e1 8f 14 be 66 00 d7 3e b4 ea 49 be a2 0b ab bd
       -0.1450801 0.4199249 -0.19718438 -0.08351828
0000f0 97 f5 59 3f bc dc 42 bd 1f e4 18 be 01 bb f4 be
       0.85140365 -0.04757379 -0.14930771 -0.47798923
000100 66 d6 87 be 4e cb 0d 3f 2a 2e dd 3d 03 53 42 be
       -0.2653076 0.55388343 0.10799821 -0.18976979
000110 5b 24 95 be 5b 20 bc be 38 b3 c8 bc d4 ff 19 3f
       -0.291293 -0.36743435 -0.02449952 0.6015599
000120 10 d2 d1 3e 41 a7 28 bf d1 ae 32 bd 37 65 8e bd
       0.40980577 -0.6588021 -0.04362375 -0.06952899
000130 4b fb 84 3d 4a b3 ca bd 25 9d 28 3e 31 1c 85 be
       0.06493243 -0.09897478 0.16466196 -0.2599807
000140 93 7a 9e 3e c3 95 5a 3e 51 15 50 be 79 41 1e be
       0.30952892 0.21346192 -0.20320632 -0.15454663
000150 41 c1 6e 3f 8c fc 59 3d 48 ba d8 bd 66 1c 49 bf
       0.9326363 0.053219363 -0.10582405 -0.7855896
000160 a5 32 84 3d da 63 8a 3f e7 f6 e3 3b c0 c9 8c 3d
       0.06454972 1.0811722 0.0069569233 0.06874418
000170 b5 a4 6e 3e 40 bd a4 be cb dd 40 bd 3f 44 87 be
       0.23305018 -0.32175636 -0.04708652 -0.26419255
000180 c1 a7 96 be 99 f8 13 be 79 e2 02 be 94 63 14 be
       -0.2942486 -0.14450301 -0.12781705 -0.14491111
000190 c4 7c 82 3e 70 ce a1 3e 94 5d 65 be be 9e e8 3e
       0.25485814 0.31602812 -0.22398978 0.4543361
0001a0 dd e7 fe 3e b6 cc 92 bd c1 8f 4e bd 71 55 07 3f
       0.49786273 -0.07167952 -0.050430063 0.5286475
0001b0 58 b2 37 be 7c 35 6e bc 26 dd b1 be 09 0e 98 bd
       -0.17939126 -0.014539119 -0.34739035 -0.07424552
0001c0 01 2f 0d be 37 2d e4 be d9 4d 80 3f 30 7c 65 be
       -0.13787462 -0.44565746 1.0023757 -0.22410655
0001d0 c0 d7 46 3e 06 0f 98 3a 6b 4a 07 be 00 5d 2e 3f
       0.1941824 0.0011601157 -0.13211982 0.68110657
0001e0 65 70 cc 3d c4 c6 ba 3e e6 33 24 3e 85 2a b3 be
       0.09982375 0.3647977 0.16035423 -0.34993377
0001f0 16 a5 47 be 7e 3f 7a 3e 24 e9 13 3f 76 8e 35 be
       -0.19496569 0.24438283 0.5777762 -0.17730126
000200 f6 14 aa 3d 46 fe 99 3e 71 01 df 3d 56 93 12 3f
       0.08304779 0.30076808 0.10888947 0.57256067
000210 47 da 63 be a6 90 e2 3c ad ac ba bd 63 d6 1e 3d
       -0.22251235 0.027656864 -0.091149665 0.038778674
000220 74 2b c6 be c8 5f 7e bb 17 55 07 3f 4a 39 42 be
       -0.38705027 -0.0038814414 0.5286421 -0.18967167
000230 52 32 06 be 9c e5 4a bf 11 1a 4e be 06 4f 07 3e
       -0.13105133 -0.79256606 -0.20127131 0.13213739
000240 35 ff 95 be 09 fb 95 bd d3 cd ac 3e 0e d1 c7 be
       -0.2929627 -0.07323272 0.3375078 -0.39026684
000250 10 0f 12 3f cb 4b df be 7f a0 5a 3e ab 12 54 bd
       0.57054234 -0.43612513 0.21350287 -0.051775616
000260 6e 6b 11 3d d6 28 fa be 5d 4f 2a bf 58 93 bd 3e
       0.035502844 -0.4885928 -0.6652735 0.37026477
000270 0c 79 c6 be 7e 9e 2e be 98 f9 da 3e ae 84 9f 3e
       -0.38764226 -0.17052647 0.4276855 0.31155914
000280 c1 07 75 bd f1 0a 78 be 26 94 3a 3f f6 a5 c8 bd
       -0.059821848 -0.24222924 0.72882307 -0.097972795
000290 72 4c 0d 3e 0c 73 1c bf 7e 3b 61 bd 60 a7 4f 3e
       0.13798693 -0.6111305 -0.054988377 0.20278692
0002a0 06 2e f6 bd fe fa d7 3d a5 f1 04 bf a7 2c 6b be
       -0.12020497 0.1054592 -0.5193122 -0.22966252
0002b0 27 ba 4f bc c1 6b 14 3d 36 d2 3b 3e 76 7b 2e bd
       -0.0126786595 0.036235575 0.18341908 -0.04259821
0002c0 81 01 a9 3e 08 ba 5b be 0e 25 13 be a4 41 95 bd
       0.3300896 -0.21457684 -0.14369604 -0.072879106
0002d0 1b ec 2b bb 2a 72 b7 bc ef a9 81 ba 88 fd b6 be
       -0.002623326 -0.022393305 -0.0009892563 -0.35740304
0002e0 2a aa e1 be a0 87 02 3f 3f 21 8d 3d be 4c e1 bd
       -0.44075137 0.509882 0.06891107 -0.110009655
0002f0 4d c5 1f be 28 90 ab bd 1f ed b2 3c 03 9c 20 be
       -0.15602608 -0.08377105 0.021841584 -0.15684514

actor.init_next_embed.0.add_bias._bias f4 [32, 1]
000000 20 db 2b bd a5 62 8a bd b2 07 d5 bc 97 7b ac 3e
       -0.04195702 -0.06757096 -0.026004646 0.33688042
000010 3f 54 43 bc 92 be cd bb 7f 48 f6 3d 47 18 ec bd
       -0.011921941 -0.0062788213 0.12025546 -0.11528068
000020 52 8c b8 bc ee 5a 5b bd 40 d7 6a 3d 3f 4e 4a 3e
       -0.022527847 -0.053553514 0.057334185 0.19756411
000030 7b 43 23 bd 78 63 32 bd fc 11 4d 3f 4b 5b ca bc
       -0.039859276 -0.043551892 0.80105567 -0.024701735
000040 ac c5 6d bd 04 85 cc bd e7 70 31 3c 10 7a 16 3f
       -0.058049843 -0.09986308 0.010830141 0.5878
000050 e7 98 33 be f5 95 c4 3d f9 86 08 3d d9 8f 54 3e
       -0.17538796 0.095989145 0.033331845 0.20757999
000060 15 50 68 bd 72 0b 28 bd 90 8f 76 bd 72 98 a7 3e
       -0.056716997 -0.04102654 -0.060195506 0.32733494
000070 9f 74 26 bc 61 d8 e3 3b 6b bd 18 bd 3b 86 7e bb
       -0.010159641 0.0069532846 -0.037290018 -0.0038837332

actor.init_next_embed.2.module.weight f4 [64, 32]
000000 a1 b7 50 be 10 b8 a7 3d 4c 0e 22 3e f4 76 70 3e
       -0.20382549 0.08189404 0.15825766 0.23482877
000010 c9 bb 33 3e 12 41 b5 bd 1d e1 ea 3d 1a 0a 8d 3e
       0.17552103 -0.08850302 0.11468718 0.2754677
000020 49 3e f8 3d 2c 54 28 3d 00 1e a8 3d 22 01 3d be
       0.12121255 0.041095898 0.08208847 -0.18457463
000030 bb a7 69 3d c8 9c 21 3d be f1 6b 3e 91 ce 91 bc
       0.057044726 0.03945616 0.23041436 -0.017798694
000040 0b 59 68 3e 6e bc 1d 3e 60 c2 9c bc 66 88 16 3e
       0.22690217 0.15403911 -0.019135654 0.1470047
000050 66 c4 7d 3e 1b c5 86 be 60 69 81 3e 9f ce 32 3f
       0.24781951 -0.26322255 0.25275707 0.6984653
000060 78 a9 b3 3d 5f 46 08 3e 30 12 0a 3c c9 05 0d be
       0.08772558 0.13308094 0.008427188 -0.13771738
000070 94 a2 19 bd e8 85 e0 bd 1f 7f 76 3c 11 c0 d4 bd
       -0.037508562 -0.109630406 0.0150449565 -0.10388196
000080 ca 5e 46 3e 29 b7 3d 3d b2 10 53 bd 0a de bc bc
       0.19372097 0.046317253 -0.051529594 -0.023055095
000090 af 8f 4b 3e 4c b0 34 3e d9 c7 dc be af e0 f2 3d
       0.1987903 0.17645377 -0.43121222 0.11859261
0000a0 02 bc 15 bd 23 e3 a7 3d 72 45 da be 4e d2 58 be
       -0.03655625 0.0819762 -0.42631108 -0.21173975
0000b0 a8 6f 03 be aa 53 ee bc f7 81 96 3e 01 0e 95 3e
       -0.12835562 -0.029092629 0.2939603 0.29112247
0000c0 33 f8 e7 bd 80 6e fa 3c 95 1f 1f 3e bb 0e 87 be
       -0.11326637 0.030570269 0.15539391 -0.26378426
0000d0 c6 32 d9 bd 0c 0d 1c be a2 89 68 be 9c 62 43 be
       -0.106053874 -0.15239352 -0.22708753 -0.19080585
0000e0 65 c5 b0 bd 0a 8c a5 3d ed 41 58 3d 24 f4 f0 bd
       -0.086314 0.08083351 0.052797247 -0.11765316
0000f0 a3 9d 9f 3d 91 4a 7a 3d 17 00 0c bd f8 47 04 be
       0.07793739 0.06110627 -0.034179773 -0.12918079
000100 33 52 19 3e 93 4d c7 3e 10 06 08 3e 93 ca 13 bd
       0.14972763 0.38926372 0.13283563 -0.03608186
000110 0e 74 81 3d 59 93 84 3d 7d f4 42 bc 88 cd 6b be
       0.06320964 0.06473417 -0.011899111 -0.23027623
000120 cf 27 0f 3e 61 8c f9 bd 95 2e 98 bd 0b 23 e1 bc
       0.1398003 -0.12184978 -0.0743076 -0.02748253
000130 3f ae be 3d b2 a5 99 be 15 00 3a be 3f 00 07 3c
       0.093105786 -0.30009228 -0.18164094 0.008239805
000140 3d 13 d3 3d d8 de 08 3d fa 01 2a 3d d1 7c 8f be
       0.10306404 0.033415645 0.04150579 -0.28024915
000150 db 88 61 be fd 2f e4 3e 9d 53 29 3e ad 1d 29 be
       -0.22024862 0.44567862 0.16535802 -0.16515227
000160 a5 d7 04 3e da 7f 9a be 90 1c f9 3c 8c a6 65 3d
       0.12972887 -0.30175668 0.030409127 0.056067035
000170 c6 93 85 3e b1 f4 c0 bd 48 3f 97 be 88 e0 37 3e
       0.26089305 -0.09421671 -0.29540467 0.17956746
000180 a8 ed 95 3e c1 3d 4d 3e 7e 61 67 be bd 49 91 be
       0.2928288 0.20043088 -0.22595784 -0.2837657
000190 2e 6c 3b 3e f5 25 16 bd a9 a2 a6 bc d0 f4 e5 bc
       0.18302986 -0.036657292 -0.020341234 -0.028070837
0001a0 10 65 45 3c 53 54 c7 3e 11 41 af bd 2d dd cc 3d
       0.012048021 0.38931522 -0.08557332 0.100031234
0001b0 da 70 b8 3d 81 cb 2b 3e 0f ab c9 be 29 93 a9 3d
       0.090059 0.1677685 -0.3938832 0.08280022
0001c0 fc 94 ba 3e 6c b6 0a 3e 4d 0c d8 bd c6 82 76 bc
       0.3644179 0.13546151 -0.10549221 -0.015045827
0001d0 39 8a cb 3d c6 0d 68 bc 99 e2 fb bd 86 2e 0c bf
       0.09938473 -0.01416344 -0.122990794 -0.5475849
0001e0 7c bd c1 bd ed 28 2d be 20 ea 91 be 68 5e 88 3d
       -0.094599694 -0.16910143 -0.28498936 0.066586316
0001f0 d2 d7 f4 3d 9a e0 39 3d ff da 87 3e df 6e 06 3d
       0.11955227 0.045380212 0.26534268 0.03282058
000200 2b c5 0d 3f 0d 16 10 3d cf bb 35 be 31 cf e2 bd
       0.5537898 0.03517728 -0.17747425 -0.11074675
000210 01 6c 5e 3e ba 54 f5 3d af 46 b3 bd ef 8a 26 3e
       0.21720888 0.11979051 -0.08753716 0.16263936
000220 7f b7 34 3e 41 aa b9 bd 50 0b 85 be d7 94 e1 bd
       0.17648123 -0.090656765 -0.25985193 -0.11014717
000230 bc 25 63 bd 92 c5 84 be 59 f3 ce be 47 f1 a8 be
       -0.05545591 -0.25931984 -0.40420035 -0.3299658
000240 b6 73 1d 3e 6d fd d3 bc e6 8c 29 3d 3d f9 bb be
       0.15376171 -0.025877679 0.041394137 -0.3671359
000250 7e ca 22 3e d3 c5 2e 3e 98 8b 85 bc c6 f6 d0 be
       0.15897557 0.17067651 -0.016301915 -0.40813273
000260 7b db 36 3e a8 ab d2 3d 16 c2 32 3e 4e 13 87 be
       0.17857163 0.10286647 0.1745685 -0.26381916
000270 b3 46 80 3d de 01 12 3d 08 6c e0 bd 3a c9 f1 bd
       0.06263485 0.035646312 -0.10958105 -0.11805959
000280 d9 b4 5d be 8d 75 e7 be 41 fc ed bd 78 09 a5 bd
       -0.21651019 -0.45206872 -0.11620379 -0.08058447
000290 ac df 8b 3c 5e fe 5f 3e ff 05 23 3c 8b b0 17 3e
       0.017074428 0.21874377 0.00995016 0.1481344
0002a0 33 cf b8 3d 1b b1 06 3e 3b 6b f8 bd 87 6e f9 3a
       0.09023895 0.13153498 -0.121298276 0.0019030132
0002b0 d8 a6 5f bd 8e 58 61 3d cf df 81 be 65 7e 02 3e
       -0.054602474 0.055016093 -0.25366065 0.12743528
0002c0 6f 4d 21 3d 82 f7 a7 3e 2a d4 2b 3e 37 9f 60 3d
       0.039380487 0.3280602 0.16780153 0.05483934
0002d0 d3 1f 26 be 45 f2 1f 3e e4 10 91 3d bf 59 59 be
       -0.16223077 0.15619762 0.070833 -0.21225642
0002e0 f4 66 59 be 51 b4 8d be 37 ad fe bd 6d 8f 61 be
       -0.2123068 -0.27676633 -0.12435382 -0.22027369
0002f0 7c ad f7 3d 8b 0b 59 be 31 40 7b bc 15 9f 2c be
       0.120936364 -0.2119581 -0.015335129 -0.1685756
000300 89 f9 04 3f 8b 8b 2b be 7a 27 d8 bd d6 51 12 be
       0.5194326 -0.1675245 -0.105544046 -0.1428903
000310 21 23 e5 bc ca 6a 5c 3c 81 f3 8d be bf 7e 7f bc
       -0.027970852 0.013453195 -0.2772484 -0.0155941835
000320 2b 96 ed 3e 10 5f 63 3d e1 a3 dc bd 7f 95 2d be
       0.46403632 0.05551058 -0.10773445 -0.1695156
000330 1e b1 9a be b7 70 df 3d f5 7e e9 be 4e 11 8e be
       -0.30213255 0.109101705 -0.45604673 -0.27747577
000340 2b d1 11 be ec a3 1a 3e 07 d3 b2 be c7 99 3b be
       -0.14239947 0.15101594 -0.34926626 -0.1832038
000350 3a 18 85 be c0 2f 9f 3e 8d 34 85 3d fa b2 fa be
       -0.25995046 0.31091118 0.06504164 -0.48964673
000360 ae 23 fd bc e8 cc 9b be 88 b2 3c 3d de 7a 0e bd
       -0.030900802 -0.3042977 0.0460687 -0.034785144
000370 b2 3e 17 bd 6e d5 4b 3e 6e d8 4c be 91 ba 16 3e
       -0.036925025 0.19905636 -0.20004436 0.14719607
000380 c0 13 f5 3d 2a 39 a4 3d f8 55 ad bd 28 a0 40 3e
       0.11966658 0.08018716 -0.08463663 0.18811095
000390 40 92 dd 3d 64 87 ac be b8 4c 83 be df 05 17 3e
       0.108189106 -0.33697045 -0.2564447 0.14748333
0003a0 fc a7 44 bd b8 b4 d9 3d 23 43 3c 3e 01 d0 42 3e
       -0.048011765 0.106301725 0.18384986 0.1902466
0003b0 30 91 b8 3e 3c e5 e9 bc 56 2e 0a 3f 8c 5b 1e be
       0.3604827 -0.02855169 0.53976953 -0.1546461
0003c0 a1 d3 a7 bd 65 27 46 bd b4 a1 6e 3d 48 d3 ed bd
       -0.08194662 -0.048377413 0.05825968 -0.11612564
0003d0 ed 79 f6 be 2a dc 0b bd e7 9a 2e 3e 77 62 d1 3e
       -0.48139897 -0.03414551 0.17051278 0.40895435
0003e0 ff 4d 6b 3e 31 fb 32 3e e0 3b 92 be 62 02 53 3d
       0.22978972 0.17478634 -0.28561306 0.051515944
0003f0 13 9c 5e be f4 e8 2b be 02 6e c9 3e 15 61 4c 3d
       -0.21739225 -0.16788083 0.39341742 0.049897272

actor.init_next_embed.2.add_bias._bias f4 [64, 1]
000000 e5 f1 7d 3d 44 41 6b be b5 3e ef bc 6a f9 45 be
       0.061998267 -0.22974116 -0.029204706 -0.19333425
000010 5a 1b a7 be ad 37 25 bd e7 ab 8c bd a2 18 0b 3e
       -0.32638055 -0.0403363 -0.06868725 0.13583615
000020 13 f8 98 be 7c 80 92 bb e6 e1 ff 3d 98 09 4d be
       -0.29876766 -0.004470883 0.124942586 -0.20023191
000030 13 b8 31 3d 23 38 8f bd 36 98 a3 3e 8d 7e 05 3d
       0.043388437 -0.06993129 0.31952065 0.03259139
000040 5a 7a c2 3d 1f 05 e6 3d 8b 6c f4 be 99 29 91 be
       0.09495993 0.112314455 -0.47739062 -0.2835205
000050 2c 9f 43 be b0 10 e2 bc 69 50 19 3e 6d e5 18 3d
       -0.19103688 -0.027595848 0.1497208 0.037328172
000060 55 15 18 3e a2 42 b7 be 56 3e 7d bd 68 20 90 3d
       0.14851888 -0.35793024 -0.061827026 0.07037431
000070 ab 12 9f be 9c b6 07 bd 58 58 e7 3c 7a a4 b5 3e
       -0.3106893 -0.033133134 0.028240368 0.35477048
000080 01 55 86 bd 21 a0 9c 3e 73 ac 07 3e 3c da 45 be
       -0.06559182 0.3059092 0.13249378 -0.19321531
000090 f8 39 88 3d 61 57 a1 3c 61 af ac be 0f f1 12 3f
       0.06651682 0.019694986 -0.33727553 0.57399076
0000a0 4f 6e d6 be e8 e9 a4 be 67 35 0e bf a8 f5 2b bf
       -0.41881034 -0.32209706 -0.55550236 -0.67171717
0000b0 d4 8d a9 bd fd c2 90 be 99 ce 08 bf 0c 71 2a 3e
       -0.08279005 -0.28273764 -0.53440243 0.16644686
0000c0 70 f6 07 3f 3f b6 fa be 18 9a 3a bf 42 fc c6 be
       0.5311041 -0.48967168 -0.7289138 -0.38864332
0000d0 d9 76 8a 3d c6 7f cd 3e 39 e1 5b 3d bd a7 d2 bd
       0.0676095 0.40136546 0.053681586 -0.102859
0000e0 37 cf 7b bd 99 76 3b bd cd 63 70 be 73 da 89 3d
       -0.061476912 -0.0457674 -0.23475571 0.06731119
0000f0 29 41 cc 3e 67 f7 cf be a2 8f 04 3e a6 87 ef 3e
       0.39893463 -0.4061844 0.12945417 0.4678318
