trained_models/experiment/Discrete_acktr_20x10x10Bin_s42_inh_800_defaultBox-2022.08.18-13-06-52/PCT-Discrete_acktr_20x10x10Bin_s42_inh_800_defaultBox-2022.08.18-13-06-52_2022.08.18-18-56-51.pt (torch, 236314 bytes, 24 tensors)

actor.init_internal_node_embed.0.module.weight f4 [32, 6]
0	0x3e8281f1	0.25489762
1	0x3f107b9b	0.56438607
2	0x3f209099	0.6272064
3	0xbe9cfcc8	-0.30661607
4	0x3d2015da	0.03908334
5	0x3e3268f0	0.17422843
6	0x3e535db7	0.20641218
7	0x3ec5959d	0.38590708
8	0xbc46c28f	-0.012131347
9	0xbe0da89a	-0.13833848
10	0xbe91088a	-0.28326827
11	0xbe0394e3	-0.12849765
12	0x3da3c3fb	0.07996365
13	0xbd1a45b9	-0.03766415
14	0x3d69017b	0.056886178
15	0x3d91d47d	0.07120607
16	0xbe8aac24	-0.27084458
17	0x3d8221d8	0.063541114
18	0xbf07925a	-0.5295769
19	0xbd1bfd1d	-0.038083185
20	0xbece5f90	-0.40307283
21	0x3f0e0218	0.55471945
22	0x3e9797c8	0.29607987
23	0x3f5ece4c	0.87033534
24	0x3ef82695	0.48466936
25	0xbe66a828	-0.22525084
26	0x3cd31082	0.025764707
27	0x3d8824b6	0.06647627
28	0x3d3cde36	0.046110354
29	0xbdfdbf59	-0.12390012
30	0x3e71553a	0.23567668
31	0x3df4a1b5	0.11944906
32	0xbeb6e40a	-0.35720855
33	0x3ed3ca8b	0.41365466
34	0xbe0ad775	-0.13558753
35	0xbe993782	-0.29925162
36	0xbed93953	-0.42426547
37	0x3e5b4301	0.21412279
38	0x3e1aafd7	0.1510614
39	0x3e555176	0.20831856
40	0xbea3b3e1	-0.31973174
41	0xbe2062a7	-0.15662633
42	0x3e591b52	0.21201828
43	0xbd821e12	-0.06353392
44	0x3ede778e	0.43450588
45	0x3d26b8b9	0.04070351
46	0xbf48a6a4	-0.78379273
47	0x3e043cdd	0.12913842
48	0xbeee3ff1	-0.46533158
49	0x3d9b8ab8	0.07594818
50	0xbf52cfac	-0.8234813
51	0x3edac674	0.42729533
52	0x3d28cf29	0.04121319
53	0x3db2b33f	0.08725595
54	0x3f1beab2	0.6090499
55	0x3be608b2	0.0070200795
56	0xbdccd79c	-0.10002062
57	0x3e412482	0.18861583
58	0xbe83fb7c	-0.25777805
59	0xbe212c45	-0.15739544
60	0xbd91051a	-0.07081051
61	0x3d96a17b	0.07355019
62	0xbeb1ec1e	-0.34750456
63	0x3f0fe8f9	0.56214863
64	0x3f0d429b	0.55179757
65	0xbf221ea6	-0.63328016
66	0xbe7eab7d	-0.24870105
67	0xbe42f163	-0.19037394
68	0xbe37b802	-0.17941287
69	0xbd140d18	-0.0361453
70	0xbeaa4878	-0.33258414
71	0xbe4578f8	-0.19284427
72	0x3f77667e	0.96640766
73	0x3db7aa57	0.089680366
74	0x3e07419d	0.13208623
75	0xbe272c26	-0.16325435
76	0xbdb88dfc	-0.09011456
77	0xbe63b9d1	-0.22238852
78	0x3edd8ec8	0.43272996
79	0xbb63a4e0	-0.0034735724
80	0xbe29b7c4	-0.16574007
81	0xbe14713e	-0.14496323
82	0x3eb29136	0.34876412
83	0xbeb48097	-0.35254356
84	0x3ebfcdd8	0.37461734
85	0x3ed50051	0.41601804
86	0xbeb022ad	-0.34401456
87	0xbd532877	-0.051552262
88	0x3dcc0fcd	0.09963951
89	0xbd9b885c	-0.07594368
90	0xbcb52e7b	-0.02211689
91	0xbe91b581	-0.2845879
92	0xbe732308	-0.23743832
93	0xbda5225f	-0.080631964
94	0x3e040656	0.12893042
95	0xbe8e85a0	-0.27836323
96	0x3e5e4177	0.2170466
97	0xbe27f748	-0.16402924
98	0x3ed523f0	0.4162898
99	0xbf519253	-0.818639
100	0x3f03528e	0.51297843
101	0x3efd5ebb	0.49486336
102	0x3ddc41df	0.107547514
103	0x3d61da1f	0.055139657
104	0x3df5a900	0.11995125
105	0x3e2db4a5	0.16963442
106	0xbf0c5a54	-0.5482533
107	0xbeb3ffac	-0.35156
108	0x3ecc4a4a	0.39900428
109	0x3da92b8e	0.082602605
110	0xbedc9223	-0.43080243
111	0x3e2a4074	0.1662615
112	0x3e25a535	0.16176303
113	0xbd0c6cda	-0.034283496
114	0x3ebf0d5b	0.37314877
115	0xbe50b9ac	-0.20383328
116	0x3d62ad53	0.055341076
117	0xbe7e9777	-0.24862467
118	0xbda6f2bf	-0.08151769
119	0x3debb576	0.1150922
120	0x3db81f7f	0.089903824
121	0x3e6a282d	0.22866888
122	0xbee8bd10	-0.45456743
123	0x3e821770	0.25408506
124	0x3cec250d	0.028826261
125	0xbefd8523	-0.49515638
126	0xbdf8925b	-0.1213729
127	0xbda6afcb	-0.081389986
128	0xbe966355	-0.2937266
129	0x3dc24d01	0.094873436
130	0xbdf47394	-0.11936107
131	0xbeb964a0	-0.36209583
132	0xbf3ebd40	-0.7450752
133	0xbf5d5cd8	-0.86469793
134	0xbf546356	-0.82964075
135	0x3f01df01	0.507309
136	0x3ee894aa	0.45425922
137	0x3ee81fea	0.45336848
138	0xbe982fbd	-0.2972392
139	0xbde39880	-0.111130714
140	0xbe2a24fd	-0.16615672
141	0x3da9588d	0.08268843
142	0xbc63633d	-0.013878641
143	0x3f13f448	0.5779462
144	0xbe13c96a	-0.14432302
145	0xbd043bd1	-0.032283608
146	0x3f8583a6	1.0430801
147	0x3ebd8cdf	0.3702154
148	0x3deb38b3	0.11485424
149	0x3e5b1b8a	0.21397224
150	0xbcc51337	-0.024057014
151	0x3e6728ef	0.22574209
152	0x3ec6c9ce	0.3882584
153	0xbeaca882	-0.3372231
154	0xbd82b250	-0.06381667
155	0x3ee12527	0.43973657
156	0xbeb3919f	-0.35072038
157	0x3ca36f89	0.019950645
158	0xbea0557f	-0.31315228
159	0x3dc11284	0.0942736
160	0x3e9095e5	0.2823936
161	0xbd46086f	-0.048347887
162	0xbd90bd33	-0.07067337
163	0x3cf1209f	0.0294345
164	0x3eb2a82f	0.3489394
165	0xbeb95052	-0.36194092
166	0xbd1faf10	-0.038985312
167	0xbe3d5df5	-0.18492873
168	0xbeb15bce	-0.34640354
169	0xbf145bdf	-0.57952684
170	0xbdad2436	-0.08454172
171	0x3d1fc6a4	0.039007798
172	0x3e10fb92	0.14158466
173	0x3d8ae608	0.06782156
174	0xbe8eaafb	-0.27864823
175	0x3e12d2cd	0.14338227
176	0x3ec7f074	0.3905064
177	0xbe60b7ea	-0.21945158
178	0xbd32db0d	-0.043665934
179	0xbd9b9f40	-0.07598734
180	0x3ed13eac	0.40868127
181	0x3d05c77a	0.03266094
182	0x3c8a5196	0.016884606
183	0xbdcbcf4d	-0.09951649
184	0x3e338762	0.17532113
185	0xbed1526a	-0.4088319
186	0x3e9d7fbd	0.3076152
187	0x3e2d5909	0.16928495
188	0xbe8581cc	-0.2607559
189	0xbe5fa290	-0.21839356
190	0x3c90f606	0.017695438
191	0x3ea320ac	0.31860864

actor.init_internal_node_embed.0.add_bias._bias f4 [32, 1]
0	0x3d02598a	0.031823672
1	0x3c8595ba	0.016306747
2	0xbcf42788	-0.029804006
3	0x3d7b834e	0.06140452
4	0x3dfc7f7c	0.12329003
5	0x3c2d301f	0.010570555
6	0xbc6deec0	-0.0145222545
7	0x3cb5aa03	0.022175794
8	0x3ce982b0	0.0285047
9	0x3da198ef	0.07890498
10	0x3ccddad7	0.025128765
11	0x3c9e9725	0.01935918
12	0x3d22a296	0.039705835
13	0x3cc2c661	0.023776235
14	0x3bc89c82	0.006122173
15	0xbba296de	-0.0049618324
16	0x3c4a89a2	0.012361916
17	0x3c2c59b2	0.010519432
18	0x3abdaa85	0.0014470374
19	0x39d87966	0.0004128918
20	0xbc43be1d	-0.011947182
21	0x3cb4bb89	0.02206208
22	0xbb8eef13	-0.004361996
23	0xbbdab21e	-0.0066740653
24	0x3d85c375	0.06531421
25	0x3c7b63d9	0.01534363
26	0xbc38e249	-0.011284419
27	0xbbffd4e0	-0.007807359
28	0x3b6af50d	0.0035851628
29	0xba7bc375	-0.00096040155
30	0x3c359103	0.011081937
31	0x3d180399	0.037112806

actor.init_internal_node_embed.2.module.weight f4 [64, 32]
0	0xbe70aa76	-0.23502526
1	0x3d4aa0f9	0.04946992
2	0xbe144c9a	-0.14482346
3	0x3edb6958	0.42853808
4	0x3e0fa676	0.14028344
5	0x3d36b57c	0.04460667
6	0x3daad95e	0.08342241
7	0x3e0af388	0.13569462
8	0xbea6bef7	-0.3256757
9	0xbea61ce8	-0.3244393
10	0xbde0e0cc	-0.109803766
11	0xbd7cb464	-0.06169547
12	0xbeb72bd5	-0.3577563
13	0xbe32cd9f	-0.1746125
14	0xbc987088	-0.018608347
15	0xbe32e5b7	-0.17470442
16	0x3ec2d76a	0.38054973
17	0xbd915975	-0.07097141
18	0xbe3ebf34	-0.18627626
19	0x3e8b788e	0.27240413
20	0x3dcb0b24	0.09914234
21	0xbea29180	-0.31751633
22	0xbddf350c	-0.1089879
23	0xbe44954c	-0.19197577
24	0x3e5f6457	0.2181562
25	0x3eb47ece	0.35252994
26	0x3e02d5df	0.12776898
27	0x3dca6ac7	0.098836474
28	0xbd36fa3c	-0.044672236
29	0xbe245a96	-0.16050181
30	0xbe73f630	-0.23824382
31	0x3e0522ad	0.13001509
32	0xbed467c9	-0.41485432
33	0xbec603b1	-0.3867469
34	0xbeb1aa55	-0.34700266
35	0xbe9c55a4	-0.3053409
36	0x3d809d69	0.062800236
37	0x3e8e9859	0.27850607
38	0x3b72b84b	0.0037036117
39	0x3ed2ad80	0.41147995
40	0x3b3d4d60	0.002888523
41	0xbd5ddf28	-0.054167897
42	0xbd818898	-0.06324881
43	0xbd2b8b23	-0.041880738
44	0xbeac4b9b	-0.33651432
45	0x3dc19df4	0.09453955
46	0xbe66406e	-0.22485515
47	0x3e25f6d1	0.16207434
48	0x3d50b8ff	0.050957676
49	0x3d5960bb	0.053070765
50	0xbecf449a	-0.40482026
51	0xbe304758	-0.17214715
52	0x3eca79b2	0.3954597
53	0x3dd4d0bb	0.10391375
54	0x3df91a7e	0.12163256
55	0xbe9c0816	-0.3047492
56	0xbe92e8d5	-0.28693262
57	0x3dc10a56	0.094257995
58	0xbd44c8de	-0.048043124
59	0x3e26bd97	0.1628326
60	0xbe896978	-0.2683828
61	0x3e40b96a	0.1882073
62	0x3ec26d89	0.37974194
63	0xbcfed9da	-0.03110974
64	0x3f4cb2a1	0.79960066
65	0xbe3ed1b1	-0.18634678
66	0xbd2889f7	-0.0411472
67	0x3eaafbb4	0.3339516
68	0xbe8363ff	-0.25662228
69	0x3e5e3dae	0.21703216
70	0xbe8ab1c7	-0.27088758
71	0xbda7ddfa	-0.081966355
72	0x3e7fcb62	0.24979928
73	0x3e949b61	0.29024795
74	0x3ddf11b2	0.10892047
75	0xbecbf263	-0.39833364
76	0x3f703207	0.93826336
77	0xbe183557	-0.14864098
78	0x3e10f2af	0.14155076
79	0xbc24e832	-0.010065125
80	0x3e8be0f2	0.27320057
81	0x3dbce927	0.09224158
82	0x3d09ad6e	0.03361266
83	0x3e7b95a4	0.24568802
84	0xbec9285c	-0.39288604
85	0xbe39afa5	-0.1813341
86	0x3de7c0d4	0.11316076
87	0xbdb1c076	-0.08679287
88	0x3f080777	0.5313639
89	0xbe7d8097	-0.24756084
90	0xbdbabc35	-0.09117929
91	0xbd4ca4b1	-0.04996175
92	0x3e141835	0.14462359
93	0x3dbf6151	0.093447335
94	0x3e99574a	0.2994941
95	0x3e15788e	0.14596769
96	0xbc7622c3	-0.015022936
97	0x3f20e2f2	0.6284629
98	0xbe03993a	-0.1285142
99	0xbf02f99b	-0.5116212
100	0x3d0ec773	0.03485818
101	0xbe1dd320	-0.15412569
102	0xbe9f6f8e	-0.31139797
103	0x3d4918e5	0.049096007
104	0xbe59c976	-0.21268257
105	0x3cdb723e	0.026787873
106	0xbd6b855d	-0.057500232
107	0x3f05741a	0.5213028
108	0x3e20baae	0.15696213
109	0xbe1b1a3f	-0.15146731
110	0xbe03ebb9	-0.1288289
111	0xbe30fc82	-0.17283824
112	0xbe177033	-0.14788894
113	0xbe32dd70	-0.17467284
114	0xbe5df1db	-0.21674292
115	0xbe4e6935	-0.20157321
116	0xbea44f25	-0.32091632
117	0x3df71105	0.12063793
118	0x3e7f382f	0.24923776
119	0x3e7ab4b8	0.24483001
120	0xbebd91aa	-0.37025195
121	0x3e25f239	0.16205682
122	0x3e22bb74	0.1589182
123	0x3d215ea1	0.039396886
124	0x3e4ae107	0.19812404
125	0x3e0bfe1a	0.13671151
126	0x3dcea605	0.100902595
127	0xbdf194be	-0.117959484
128	0xbeae6f47	-0.34069273
129	0xbd489cf7	-0.04897782
130	0x3dd8d415	0.105873264
131	0xbc69b862	-0.014265152
132	0xbe0fac6a	-0.14030614
133	0x3cfc224c	0.030778073
134	0xbdfb363c	-0.12266204
135	0xbdb9d122	-0.09073092
136	0x3d98dcc1	0.074639805
137	0x3e00c292	0.12574223
138	0x3d3dc142	0.046326883
139	0xbe9ef1fc	-0.31043994
140	0xbc80b20d	-0.015709901
141	0x3ea50a3f	0.3223438
142	0x3de5aa5e	0.112141356
143	0xbc20df5c	-0.009818878
144	0x3d0805ee	0.03320878
145	0x3d44d4d2	0.048054524
146	0xbea47d0e	-0.3212666
147	0xbe585245	-0.21125133
148	0xbd509229	-0.05092064
149	0xbde3ace6	-0.11116962
150	0x3f0b4d37	0.54414696
151	0xbe8488d3	-0.2588564
152	0xbef9730b	-0.48720583
153	0xbc0d2a3a	-0.008616025
154	0x3e0ced54	0.13762408
155	0x3c2726ac	0.010202091
156	0x3e557981	0.20847131
157	0xbaa1f46e	-0.0012356171
158	0x3e1f9340	0.15583515
159	0x3c748abe	0.014925657
160	0xbeca792a	-0.39545566
161	0x3d322a14	0.04349716
162	0xbd8e5051	-0.06948913
163	0x3d5061ed	0.05087464
164	0x3f160b40	0.58610916
165	0x3e5e448c	0.21705836
166	0x3e956fda	0.29186898
167	0xbeb064bb	-0.3445185
168	0x3ea57b8a	0.32320815
169	0x3ef8e474	0.48611796
170	0x3f16047c	0.5860059
171	0x3e521ef6	0.20519623
172	0x3e093e7c	0.13402742
173	0x3e470a3d	0.194375
174	0x3ebee1a3	0.37281522
175	0xbc2b64cf	-0.010461046
176	0xbe5582b2	-0.20850638
177	0x3d4614c2	0.04835964
178	0x3d8e2359	0.06940336
179	0xbe1740ba	-0.14770785
180	0x3ed10475	0.40823713
181	0xbbec54fd	-0.00721228
182	0xbd83b36b	-0.06430706
183	0xbdb89db5	-0.09014455
184	0xbf5ee5ce	-0.87069404
185	0x3dc96690	0.09834015
186	0xbe83daed	-0.25752965
187	0xbe6eb166	-0.2330986
188	0xbd719b43	-0.05898596
189	0x3b13ff85	0.0022582721
190	0x3ee70c16	0.45126408
191	0xbdc22dcd	-0.09481392
192	0x3da1f37d	0.0790777
193	0xbe52a7fc	-0.20571893
194	0xbe20842f	-0.15675424
195	0xbeea26dd	-0.45732775
196	0x3cd3678a	0.025806207
197	0x3d293419	0.04130945
198	0xbd711bee	-0.058864526
199	0xbd8b6779	-0.06806845
200	0xbdd72c1e	-0.105064616
201	0x3f118f23	0.56859034
202	0xbdfe4d84	-0.12417129
203	0x3d45b8d1	0.048271958
204	0x3f45fe34	0.7734101
205	0xbccf926e	-0.025338378
206	0x3e28b4cb	0.16475217
207	0xbd45881a	-0.0482255
208	0xbe481111	-0.1953776
209	0xbe790723	-0.24319129
210	0x3f201f68	0.6254792
211	0x3e600144	0.21875483
212	0xbec91a5b	-0.3927792
213	0x3d11e47f	0.0356183
214	0xbd9b8f43	-0.075956844
215	0x3e23cac3	0.15995316
216	0xbf7843a4	-0.9697821
217	0xbe7e68d9	-0.24844684
218	0x3e55afa7	0.20867787
219	0x3d3d2bfc	0.046184525
220	0x3e912901	0.28351596
221	0x3e9fd94d	0.31220475
222	0xbd124f13	-0.035719942
223	0xbe16356f	-0.14668821
224	0x3f3ff112	0.7497722
225	0x3e60ef36	0.21966252
226	0x3e962b48	0.29329896
227	0x3eb7c43d	0.35891905
228	0xbdf3ad48	-0.11898285
229	0x3e12a602	0.1432114
230	0x3e915228	0.28382993
231	0x3e22c64b	0.15895955
232	0xbe67747e	-0.22603032
233	0xbeb31869	-0.3497956
234	0xbc9026d7	-0.017596645
235	0xbe814730	-0.25249624
236	0x3f01f789	0.50768334
237	0xbeada10d	-0.33911934
238	0xbd323c65	-0.043514628
239	0x3d424912	0.047432967
240	0x3ce6d63e	0.02817833
241	0xbd69a62e	-0.057043247
242	0x3e8c1def	0.27366588
243	0xbd7f7a07	-0.062372234
244	0xbd752ab3	-0.059855174
245	0xbe4438c6	-0.19162282
246	0x3c96f47a	0.018427122
247	0x3db8c200	0.090213776
248	0x3f2502ba	0.64457285
249	0xbbd2f6f3	-0.00643813
250	0x3e7303ab	0.23731868
251	0xbd0cf541	-0.03441358
252	0x3e26299c	0.1622681
253	0x3eb7010b	0.35742983
254	0xbefd131a	-0.49428636
255	0xbe2d8c9e	-0.16948172

actor.init_internal_node_embed.2.add_bias._bias f4 [64, 1]
0	0xbc855d59	-0.016279863
1	0xbd5b82e7	-0.053591635
2	0x3dbf5b71	0.09343613
3	0xbd64efde	-0.055892818
4	0xbd187fcf	-0.037231263
5	0x3d36d70f	0.04463869
6	0xbd4d64c0	-0.05014491
7	0x3dba3f56	0.090941116
8	0x3b8e9aea	0.0043519633
9	0xbd76df23	-0.060271394
10	0xbc92a192	-0.017899308
11	0xbd16b970	-0.03679794
12	0xbe0b2a08	-0.13590252
13	0xbd5a2ff8	-0.053268403
14	0xbcf1bd0a	-0.029509086
15	0x3cf9ad57	0.030478163
16	0xbd8b97a0	-0.068160295
17	0xbd4da517	-0.05020627
18	0xbe1501c7	-0.14551459
19	0x3c821ab7	0.01588188
20	0xbd88ad3c	-0.06673667
21	0xbd118d20	-0.035534978
22	0x3c80fa89	0.015744464
23	0x3daf9f2e	0.08575283
24	0xbcb5dd76	-0.022200327
25	0xbc396b54	-0.011317093
26	0xbcade82b	-0.02122887
27	0x3912f8d7	0.00014016345
28	0x3ca94531	0.020662876
29	0xbddb1ab1	-0.1069845
30	0x3d96a3f7	0.073554926
31	0xbe06fa56	-0.13181433
32	0x3dca7394	0.09885326
33	0x3dafd527	0.085855775
34	0xbd1640a5	-0.036682744
35	0xbd258403	-0.0404091
36	0x3d620014	0.055175856
37	0xbd173f1a	-0.036925413
38	0x3cacbc12	0.021085773
39	0x3d86b649	0.06577737
40	0xbd5c5996	-0.053796373
41	0xbd4425a3	-0.047887456
42	0x3e729978	0.23691356
43	0xbc6f92d8	-0.014622413
44	0xbd9484bf	-0.07251882
45	0xbcd6d01e	-0.026222285
46	0x3d386ef2	0.04502768
47	0x3d39e638	0.04538557
48	0x3d74bc11	0.059749667
49	0xbe05d19f	-0.13068245
50	0x3d61c5e6	0.05512037
51	0x3d9c8cf3	0.076440714
52	0x3d872ca1	0.06600309
53	0xbdd8ef1c	-0.105924815
54	0xbd1c5b92	-0.038173266
55	0x3e091cfe	0.13389966
56	0x3e0fb787	0.14034854
57	0x3ba00c81	0.004884303
58	0x3ab08baf	0.0013469363
59	0x3b6cf65d	0.0036157586
60	0xbd07e700	-0.033179283
61	0x3c88e23d	0.016709441
62	0xbd5939b7	-0.053033557
63	0x3d91c937	0.07118457

actor.init_leaf_node_embed.0.module.weight f4 [32, 8]
0	0xbe26c627	-0.16286527
1	0xbeeeb06d	-0.46618977
2	0x3eb7eb8c	0.35921896
3	0x3eb2f1b1	0.3495002
4	0x3e365106	0.17804345
5	0x3ebd258e	0.36942714
6	0xbeaa8fd6	-0.33312863
7	0xbe9ec33f	-0.31008336
8	0xbf0515ba	-0.5198628
9	0xbe1189f0	-0.14212775
10	0x3e94f4f1	0.29093125
11	0x3da9de96	0.08294408
12	0x3e3e6634	0.18593675
13	0xbe886e8f	-0.2664685
14	0x3e7a8d96	0.24468073
15	0xbd580493	-0.052738737
16	0x3ca47334	0.020074464
17	0x3d925e43	0.07146885
18	0xbe927a31	-0.2860885
19	0xbcb1ead7	-0.021718426
20	0xbe4571e3	-0.19281726
21	0xbe306480	-0.17225838
22	0x3da20166	0.07910423
23	0xbdc565b7	-0.09638541
24	0xbe501de3	-0.20323901
25	0x3e22636c	0.15858239
26	0x3ee18dc1	0.44053462
27	0xbe61bd43	-0.22044854
28	0x3dfb2e76	0.12264721
29	0x3e4ed859	0.20199718
30	0xbe807c13	-0.2509466
31	0x3c49a0db	0.012306417
32	0x3dad407f	0.08459567
33	0xbf105cb0	-0.5639143
34	0x3ecfba2b	0.40571722
35	0xbe450357	-0.19239555
36	0xbe1e73e0	-0.1547389
37	0x3db404ee	0.08790003
38	0xbe2a2d86	-0.16618928
39	0x3e11bb19	0.14231528
40	0xbec49c02	-0.38400275
41	0x3cbdcd45	0.02316917
42	0xbe9cedc9	-0.30650166
43	0x3e2bff15	0.16796525
44	0xbd7cf64e	-0.061758332
45	0x3deac490	0.114632726
46	0xbe2bc03e	-0.16772553
47	0x3c305a66	0.01076374
48	0xbeada4bc	-0.33914745
49	0x3dcf3b64	0.1011875
50	0xbd9bcc70	-0.07607353
51	0x3e11fdff	0.14257048
52	0xbc53b8b7	-0.012922457
53	0xbe0fb328	-0.14033186
54	0x3d39b39e	0.045337312
55	0x3e272892	0.1632407
56	0x3e9fb1f4	0.31190455
57	0x3e4a422e	0.19751808
58	0x3ec7d0b6	0.3902642
59	0xbdc0b72f	-0.094099395
60	0xbe3e5e71	-0.18590714
61	0xbd9f3b98	-0.077750385
62	0xbf28dfc2	-0.6596643
63	0xbda8287b	-0.08210846
64	0xbd1853b3	-0.037189197
65	0x3df53661	0.119732626
66	0x3e47619e	0.19470832
67	0xbdc1af7d	-0.094573
68	0xbd6fa3d1	-0.058505837
69	0x3e8dcf73	0.27697334
70	0x3d572fa0	0.052535653
71	0x3d325c6a	0.043545164
72	0xbf1c349d	-0.6101778
73	0xbec98524	-0.3935939
74	0x3d1c28b6	0.038124762
75	0x3e84b83f	0.2592182
76	0x3eff0768	0.49810338
77	0xbea2abe0	-0.31771755
78	0xbad75de5	-0.0016431181
79	0xbf045fb9	-0.5170856
80	0xbea93740	-0.33049965
81	0x3e1b3163	0.15155558
82	0xbef04a77	-0.46931812
83	0xbe40119d	-0.18756719
84	0x3ec57022	0.38562113
85	0x3e310b7e	0.1728954
86	0xbe6b215b	-0.22961943
87	0xb9ff5db4	-0.00048707204
88	0x3d0cbe77	0.03436133
89	0xbde53076	-0.11190884
90	0x3e9aa42b	0.30203375
91	0xbeb8e4fe	-0.36112207
92	0xbdef61c9	-0.11688573
93	0xbed7717e	-0.42078775
94	0x3ed63eeb	0.41844878
95	0x3c589429	0.013218918
96	0xbe18928f	-0.14899658
97	0xbd6c9ac2	-0.057764776
98	0x3e7e4b3e	0.2483339
99	0x3f0ed45a	0.5579277
100	0x3e2bf7ed	0.16793795
101	0x3e7edbd8	0.24888551
102	0x3eaddf4a	0.3395942
103	0x3ede361e	0.43400663
104	0x3dd4acb8	0.10384506
105	0x3ea66fc7	0.32507154
106	0x3e5b64b4	0.21425134
107	0xbd4a4387	-0.049380805
108	0xbef15ad1	-0.471396
109	0xbd56594c	-0.052331254
110	0xbd4a4e3f	-0.049391028
111	0xbe6574eb	-0.22407882
112	0x3eedfa00	0.46479797
113	0x3ef5b9ab	0.47993216
114	0x3e951d20	0.29123783
115	0x3e96fae5	0.29488292
116	0xbbb183b4	-0.0054173116
117	0xbdaa4b2d	-0.0831512
118	0x3e0a5020	0.13507128
119	0x3e1de216	0.15418276
120	0x3be0f5bd	0.006865232
121	0xbe3c60bb	-0.18396275
122	0xbd9594e1	-0.07303787
123	0x3e8a9502	0.2706681
124	0xbe269715	-0.1626857
125	0x3e786351	0.24256636
126	0x3d2dd38d	0.04243808
127	0x3e31aeab	0.17351787
128	0x3e73e836	0.2381905
129	0x3e9e9bdf	0.30978295
130	0xbd9045d5	-0.070445694
131	0xbefe05e1	-0.4961386
132	0x3c73a091	0.014869825
133	0xbea5ec4b	-0.3240684
134	0xbe6385f7	-0.22219072
135	0x3e2df6ad	0.1698863
136	0xbe9734ac	-0.29532373
137	0x3e9112d6	0.28334683
138	0xbea61df9	-0.32444742
139	0x3ed11fb9	0.40844515
140	0xbe432ebc	-0.19060796
141	0xbd9b3865	-0.07579116
142	0xbe57f078	-0.21087825
143	0x3e62f2e2	0.22162965
144	0x3d8d07e1	0.068862684
145	0xbdc247a2	-0.09486319
146	0xbf4f4abb	-0.80973405
147	0xbdd8f352	-0.10593285
148	0x3e9287d6	0.2861926
149	0x3eabae31	0.33531335
150	0x3dbf1158	0.0932948
151	0xbe2351b9	-0.15949143
152	0xbe521a9b	-0.20517962
153	0xbde417f8	-0.11137384
154	0xbf036a80	-0.5133438
155	0x3d1cdc72	0.03829617
156	0xbe006131	-0.12537076
157	0xbcdcc454	-0.026949085
158	0x3e7f3e86	0.24926195
159	0xbd9f62ca	-0.077825144
160	0x3e1eccd1	0.15507819
161	0xbd194d87	-0.03742745
162	0x3ea2047e	0.31644052
163	0x3eb1e121	0.34742072
164	0x3eb1ef2b	0.34752783
165	0x3cf6468a	0.030062933
166	0x3e967276	0.29384202
167	0xbd9ca4ad	-0.07648597
168	0xbea8179c	-0.32830513
169	0x3e61095d	0.21976228
170	0x3e1ed2d5	0.15510114
171	0xbe004aea	-0.12528577
172	0x3ea61511	0.32437947
173	0xbea1b5ea	-0.31584102
174	0xbd2b2cd0	-0.041790783
175	0x3e497a85	0.19675644
176	0x3e3fbf9d	0.18725438
177	0xbe812014	-0.25219786
178	0xbe78a9aa	-0.24283472
179	0xbeb82b69	-0.3597062
180	0x3e8910af	0.2677054
181	0x3d40f9d9	0.047113273
182	0x3ee1fd12	0.4413839
183	0x3e6b1c0d	0.2295992
184	0xbdc17267	-0.09445649
185	0x3ef9f2bc	0.48818004
186	0x3e347306	0.17622003
187	0xbefbf0b5	-0.49207082
188	0xbc4738ed	-0.012159568
189	0x3f273a9a	0.65323794
190	0x3e0fddac	0.14049405
191	0x3eca3e11	0.39500478
192	0xbe045498	-0.12922895
193	0xbea23300	-0.31679535
194	0xbde54236	-0.11194269
195	0xbdbd6a9f	-0.09248852
196	0x3e701e96	0.23449168
197	0xbe208f40	-0.15679646
198	0xbd9ad55e	-0.07560228
199	0x3f164fca	0.587155
200	0xbc8361eb	-0.016037902
201	0xbe808c47	-0.25107023
202	0xbecdbba9	-0.40182236
203	0x3e8e5c9d	0.27805033
204	0xbe5127b6	-0.20425305
205	0xbe148321	-0.14503147
206	0xbba22c9e	-0.0049491664
207	0x3eba25cf	0.3635697
208	0xbe94bcee	-0.29050392
209	0x3e33ea83	0.17569928
210	0x3e2f363c	0.17110533
211	0xbe6441ba	-0.22290698
212	0xbed1e1f2	-0.40992695
213	0xbdf8a610	-0.12141049
214	0x3ed00bb9	0.40633944
215	0xbe4412b1	-0.19147755
216	0xbe6f3dfa	-0.23363486
217	0x3e6c2e6f	0.23064588
218	0x3ea95aa3	0.33076963
219	0x3e830534	0.25589907
220	0xba08fa55	-0.00052252907
221	0x3e9c313a	0.30506307
222	0x3e9c5c65	0.3053924
223	0xbe43dc15	-0.19126923
224	0x3d1764d6	0.0369614
225	0xbd169fa1	-0.036773328
226	0x3eb31831	0.34979394
227	0xbe0ece47	-0.13945876
228	0xbe00b30b	-0.125683
229	0xbf05ea96	-0.52311075
230	0xbe763860	-0.24044943
231	0xbdb8e0d6	-0.09027259
232	0x3ee096dd	0.438651
233	0x3eabde67	0.33568117
234	0xbea87c3e	-0.3290729
235	0x3eb037e2	0.34417635
236	0x3f1f0e38	0.6213107
237	0x3d2acf92	0.04170186
238	0x3e24cd73	0.16093998
239	0xbeff4f62	-0.49865252
240	0x3d890942	0.06691219
241	0xbeaf155d	-0.34195986
242	0xbde419a1	-0.11137701
243	0xbeccc3f6	-0.39993256
244	0xbe8c322c	-0.27382028
245	0x3ee72fd7	0.45153686
246	0x3da3479b	0.07972642
247	0xbe803a76	-0.25044602
248	0xbf010883	-0.5040361
249	0x3c68581e	0.014181165
250	0xbe8f8d8a	-0.28037673
251	0xbe002ab4	-0.1251629
252	0xbeb0aef7	-0.34508488
253	0xbe448de1	-0.19194748
254	0x3e8df06b	0.27722487
255	0xbe5503b2	-0.20802191

actor.init_leaf_node_embed.0.add_bias._bias f4 [32, 1]
0	0x3e2e80a0	0.17041254
1	0xbc95cb75	-0.018285492
2	0xbb9d2c92	-0.004796573
3	0x3db0e325	0.086370744
4	0x3c1fe5a0	0.009759337
5	0xbd168a50	-0.036753
6	0x3cc1e653	0.023669397
7	0x3ce04066	0.027374458
8	0xbe0a6856	-0.13516364
9	0x3bf7b61f	0.0075595523
10	0xbd3b11b9	-0.0456712
11	0xbe84f41a	-0.25967485
12	0x3e930fb7	0.28722927
13	0xbc412ff8	-0.011791222
14	0xbd01387e	-0.031548016
15	0xbcc3919d	-0.023873145
16	0x3cef6d51	0.02922693
17	0xbd24dfdc	-0.04025255
18	0xbdada197	-0.084780864
19	0x3e21ebca	0.15812603
20	0xbd4941aa	-0.049134888
21	0xbd33828d	-0.043825675
22	0x3d12bab5	0.03582259
23	0xbc167386	-0.009182816
24	0x3d5cdf35	0.053923804
25	0xbd84f073	-0.064911745
26	0xbd860fd2	-0.06545986
27	0x3cd48900	0.025944233
28	0xbe010bc4	-0.12602144
29	0x3e97939f	0.29604813
30	0x3ce46b49	0.027883189
31	0xbdaf5c57	-0.08562534

actor.init_leaf_node_embed.2.module.weight f4 [64, 32]
0	0xbe181326	-0.14851055
1	0xbeb812be	-0.359518
2	0xbe8af28e	-0.2713818
3	0xbe0fbf9f	-0.14037941
4	0x3e2f6024	0.17126518
5	0x3cb5bc5d	0.022184545
6	0x3d6a16d4	0.057150677
7	0x3e0afd7f	0.13573264
8	0x3e40f009	0.18841566
9	0x3d9de030	0.07708776
10	0x3dac1c89	0.0840388
11	0xbe860c77	-0.26181385
12	0xbeaab6b4	-0.33342516
13	0x3c823523	0.015894478
14	0xbe88bb64	-0.26705468
15	0xbe0754c3	-0.13215928
16	0x3e4755f5	0.19466384
17	0xbdb7d4ef	-0.08976161
18	0xbe15e171	-0.1463678
19	0xbd7bcbff	-0.061473843
20	0x3d7830dd	0.060593475
21	0xbe9b4b7b	-0.30331025
22	0x3e7f896a	0.24954763
23	0x3e0c1ca6	0.13682804
24	0x3dfdf42a	0.12400086
25	0xbf0b307f	-0.54370874
26	0xbd9dcea5	-0.0770543
27	0x3e0b3b05	0.13596733
28	0x3e0c5274	0.13703328
29	0xbe5d72df	-0.21625851
30	0xbcc73711	-0.02431825
31	0xbc3512a5	-0.0110518085
32	0x3d154ae9	0.036448393
33	0x3e1962b6	0.14979061
34	0x3d738d95	0.059461195
35	0x3dae5257	0.08511799
36	0x3d1b0541	0.037846807
37	0xbc08a649	-0.008340427
38	0x3dc18e41	0.09450961
39	0xbe262006	-0.16223153
40	0xbde5dd27	-0.11223822
41	0xbe932821	-0.28741553
42	0x3ed90d6b	0.4239305
43	0xbcbc917e	-0.023018595
44	0xbcbc53d0	-0.022989184
45	0x3dd181ea	0.10229857
46	0x3e50cd2d	0.20390768
47	0xbea2414c	-0.31690443
48	0xbd98ee4a	-0.07467325
49	0xbe4ba3dc	-0.19886726
50	0xbe508da9	-0.20366539
51	0xbe4f1a55	-0.20224889
52	0x3de217a8	0.11039668
53	0xbd7b1e38	-0.061308116
54	0x3c5de6a4	0.013543759
55	0xbe0905e7	-0.13381158
56	0xbeea0902	-0.45709997
57	0xbdfc779d	-0.12327502
58	0xbc8db666	-0.017298888
59	0x3e8160b1	0.25269082
60	0xbe83ba1f	-0.25727937
61	0xbe21c347	-0.15797149
62	0xbd483c03	-0.048885357
63	0x3ec7aa1b	0.38996968
64	0x3e9c9895	0.3058516
65	0x3c1e19fb	0.009649749
66	0xbe1dabc8	-0.1539756
67	0xbce98616	-0.02850632
68	0x3e1d0490	0.15333772
69	0xbd80128b	-0.06253537
70	0xbdf52077	-0.11969083
71	0x3df5b834	0.119980246
72	0xbeeeecc6	-0.4666502
73	0xbdbbc470	-0.09168327
74	0xbee63691	-0.44963506
75	0xbe284e0e	-0.16436026
76	0xbe8e53a0	-0.27798176
77	0x3d45cc3f	0.048290487
78	0x3e91abe2	0.2845145
79	0xbdbea3df	-0.093086
80	0xbde8ca15	-0.11366669
81	0x3e6261b9	0.2210759
82	0xbe9679ff	-0.2938995
83	0xbdca05b4	-0.09864369
84	0xbcc08747	-0.023502005
85	0xbdff952a	-0.12479623
86	0x3ba350e7	0.0049840095
87	0xbdb6f109	-0.089326926
88	0xbcaf52da	-0.021401811
89	0xbd137528	-0.0360004
90	0xbda939a0	-0.08262944
91	0xbe05ef9e	-0.13079688
92	0xbe569c21	-0.20957996
93	0xbcdc541b	-0.026895573
94	0x3e4b5516	0.19856676
95	0x3df7557e	0.12076853
96	0x3d08c21b	0.03338824
97	0x3e7f4931	0.24930264
98	0x3e33447d	0.17506595
99	0x3e0af201	0.1356888
100	0x3df2b5b4	0.11851063
101	0x3d72ebec	0.059307024
102	0xbccf3130	-0.02529201
103	0x3e2ef933	0.1708725
104	0xbd66b061	-0.05632055
105	0xbdb26473	-0.087105654
106	0xbe106073	-0.14099292
107	0x3e741c92	0.23839024
108	0xbe834efb	-0.25646195
109	0x3d8e2088	0.069397986
110	0x3d85f3b3	0.065406226
111	0x3e11944c	0.14216727
112	0xbdf7075f	-0.12061953
113	0x3e65d52f	0.22444604
114	0xbe9aa046	-0.30200404
115	0x3d80dde4	0.06292322
116	0x3d906e4b	0.07052287
117	0x3e15698a	0.14591041
118	0xbe5444e6	-0.20729408
119	0x3e4cf408	0.20014966
120	0xbbf231ef	-0.0073912065
121	0x3e0ea5a3	0.13930373
122	0x3e20f647	0.15718947
123	0x3e3559f4	0.17710096
124	0x3e9970a2	0.29968745
125	0xbce3086b	-0.027713975
126	0x3e4e2d44	0.20134455
127	0x3e2f8c5c	0.17143387
128	0xbde20c8b	-0.11037549
129	0xbd90cc90	-0.07070267
130	0x3d89ab3b	0.06722113
131	0x3c87419e	0.01651078
132	0x3e5c6db7	0.21526228
133	0xbee6efe7	-0.45104906
134	0x3e61a3c6	0.22035131
135	0xbdf4eb5c	-0.11958954
136	0x3d9d2d90	0.07674706
137	0x3cce77f8	0.02520369
138	0xbd7738fc	-0.06035708
139	0xbeb3a674	-0.3508793
140	0xbdb546b5	-0.08851377
141	0x3e420e57	0.18950783
142	0x3dfa82ac	0.12231955
143	0xbe04ee39	-0.129815
144	0xbee27f7e	-0.44237894
145	0xbe9d269a	-0.30693513
146	0x3e1b3742	0.15157798
147	0x3dab785e	0.083725676
148	0xbe8e13cf	-0.27749488
149	0x3e194665	0.1496826
150	0xbd1c678b	-0.038184684
151	0x3c651a3e	0.013983307
152	0xbdc5fa34	-0.09666863
153	0xbd5d971b	-0.054099184
154	0xbe0fddf0	-0.14049506
155	0x3e1f8beb	0.15580718
156	0x3e77aae6	0.24186286
157	0x3e1d7a73	0.15378742
158	0x3d8b52c9	0.068028994
159	0xbe3ae233	-0.1825035
160	0x3d4a322c	0.049364254
161	0xbc9412b2	-0.01807532
162	0xbe3b13a5	-0.18269213
163	0x3d7e9194	0.062150553
164	0xbe5f3bf2	-0.21800211
165	0xbd872718	-0.065992534
166	0x3eb37957	0.35053512
167	0xbe9decc0	-0.30844688
168	0xbdcba209	-0.09943015
169	0x3cd22c58	0.02565591
170	0xbe31fc46	-0.17381391
171	0x3e936081	0.28784564
172	0x3f131043	0.5744669
173	0x3d33ffed	0.04394524
174	0x3e5ee9f4	0.21768934
175	0xbe2cdbd4	-0.16880733
176	0x3e1c076b	0.15237205
177	0x3cdb9ecd	0.02680912
178	0xbe95b564	-0.29239953
179	0xbdaaa400	-0.08332062
180	0x3cea9722	0.028636519
181	0xbe20f830	-0.15719676
182	0x3dbe5f91	0.092955716
183	0x3ef704de	0.482459
184	0x3dba97cb	0.091109835
185	0xbe10cf1b	-0.14141504
186	0xbda0f315	-0.07858864
187	0x3e1f5a2c	0.15561742
188	0xbe2dddcb	-0.16979139
189	0x3e52200d	0.20520039
190	0x3e9a95b5	0.30192342
191	0xbdd322c8	-0.10309368
192	0x3e8e0ba4	0.27743256
193	0xbea16e0e	-0.31529278
194	0xbd62da15	-0.05538376
195	0x3e049d8b	0.12950723
196	0xbdc87447	-0.09787803
197	0xbe0aeddf	-0.13567303
198	0x3e289b75	0.16465552
199	0x3d1bc517	0.038029756
200	0x3e4dd92c	0.20102376
201	0xbcf88646	-0.030337464
202	0x3e87208d	0.26392022
203	0x3e370c1e	0.17875716
204	0x3e3fe009	0.18737806
205	0x3e0a5647	0.13509475
206	0xbde62186	-0.11236863
207	0xbdbdcad8	-0.09267205
208	0xbee67502	-0.45011145
209	0x3e89bc2c	0.26901376
210	0x3dc90be9	0.09816725
211	0x3e294b79	0.16532697
212	0xbc8e2c99	-0.01735525
213	0x3c194e73	0.009357083
214	0xbcf32120	-0.029678881
215	0x3d801a3d	0.062550046
216	0x3d3928d2	0.045204945
217	0xbc8a9d39	-0.016920673
218	0xbd931c6c	-0.071831554
219	0x3e32f826	0.17477474
220	0xbe149a6a	-0.1451203
221	0x3e5b2967	0.21402512
222	0xbdb90d2f	-0.09035718
223	0xbd993542	-0.07480861
224	0xbdf8ea90	-0.12154114
225	0x3cdff4d0	0.027338415
226	0xbdf82c14	-0.12117782
227	0xbe99060c	-0.29887426
228	0x3e07ac73	0.13249378
229	0xbd55dfae	-0.05221527
230	0xbe4cbf8b	-0.19994943
231	0xbe69b2bf	-0.22822092
232	0x3e4585fb	0.1928939
233	0xbdccc84d	-0.09999142
234	0x3e8fe34f	0.2810311
235	0x3c65588f	0.013998165
236	0x3e1a410e	0.15063879
237	0x3d535b4e	0.051600747
238	0xbde59001	-0.11209107
239	0x3e946eea	0.2899087
240	0xbe6a8aa9	-0.22904457
241	0xbde48e52	-0.11159958
242	0x3cebf436	0.028802972
243	0xbd91714b	-0.07101687
244	0xba653748	-0.0008743894
245	0x3ea27b4e	0.317347
246	0x3dab3fa7	0.0836175
247	0x3d8c6f16	0.068571255
248	0x3bb724e1	0.005589113
249	0x3e4bd75a	0.19906369
250	0x3e439e66	0.19103393
251	0x3e4332f9	0.19062413
252	0xbefc5f53	-0.49291477
253	0x3eb2e3e8	0.34939504
254	0x3e97dfbb	0.2966288
255	0xbe7630e3	-0.24042086

actor.init_leaf_node_embed.2.add_bias._bias f4 [64, 1]
0	0xbe8a3441	-0.26992992
1	0x3df61f31	0.12017668
2	0x3c23fbe6	0.010008788
3	0xbbbae58f	-0.005703635
4	0xbcb81cd3	-0.022474682
5	0x3e999949	0.2999976
6	0x3e724583	0.23659329
7	0x3e378cd2	0.17924812
8	0x3ec5cd2d	0.386331
9	0xbe28fbfc	-0.16502374
10	0xbcc15c3d	-0.023603553
11	0x3d6251cc	0.05525379
12	0xbd19b2aa	-0.037523903
13	0x3dd3db5e	0.10344575
14	0xbee556ff	-0.44792935
15	0xbe14bad7	-0.14524399
16	0xbd6269ef	-0.055276807
17	0x3dda7c53	0.10668244
18	0x3cfb8543	0.030703193
19	0x3e15d85c	0.14633316
20	0xbe88de1c	-0.26731956
21	0xbbbe2903	-0.005803229
22	0x3a98e994	0.0011666291
23	0x3e18d747	0.14925872
24	0xbe0adb1f	-0.1356015
25	0xbc372f98	-0.011180781
26	0x3c39bba9	0.011336246
27	0xbd26675c	-0.040625915
28	0xbe2528f7	-0.16128908
29	0x3e972a2f	0.2952437
30	0x3da59c9e	0.08086513
31	0x3d0f5996	0.034997545
32	0x3d9ec70e	0.077528104
33	0xbe601d84	-0.2188626
34	0xbe2fce1b	-0.17168467
35	0x3d35b4ec	0.044361994
36	0x3de18440	0.11011553
37	0x3ead8063	0.33887014
38	0x3ebec6b1	0.37260965
39	0x3eece5b0	0.46268988
40	0x3e3a9103	0.1821938
41	0x3e8219cc	0.25410306
42	0xbdf87c3f	-0.12133073
43	0x3e019762	0.12655404
44	0xbd445800	-0.047935486
45	0xbe789113	-0.24274091
46	0xbeaa101d	-0.33215418
47	0xbe18d7f0	-0.14926124
48	0x3ec418db	0.38300213
49	0xbda00f40	-0.07815409
50	0xbe39c94f	-0.181432
51	0x3edea49d	0.43484965
52	0xbc3add6e	-0.011405332
53	0x3e5c86f2	0.21535853
54	0xbe9a4685	-0.30131927
55	0xbe2380e0	-0.1596713
56	0x3dfa7551	0.122294076
57	0x3ebc03f7	0.36721775
58	0x3e385198	0.17999876
59	0x3e276a24	0.16349083
60	0x3e213183	0.15741543
61	0x3ed097c7	0.40740797
62	0xbe97f967	-0.29682466
63	0xbe1ffe35	-0.15624316

actor.init_next_embed.0.module.weight f4 [32, 6]
0	0xbe527007	-0.20550548
1	0x3e2a50d2	0.16632393
2	0xbdab0421	-0.08350397
3	0x3f242de9	0.64132553
4	0x3e8170da	0.2528141
5	0xbd12d0a0	-0.03584349
6	0x3e564abc	0.20926946
7	0x3ea6499a	0.3247803
8	0x3c08bd0a	0.008345852
9	0x3e257e84	0.16161543
10	0x3db7e4a7	0.08979159
11	0xbe710d73	-0.23540287
12	0x3dbf2e60	0.09335017
13	0xbec7c889	-0.39020184
14	0x3e75c4b2	0.24000815
15	0xbf4d125b	-0.80106133
16	0x3de335de	0.11094259
17	0x3e334735	0.17507632
18	0x3f26e3b6	0.6519121
19	0x3f11a812	0.5689708
20	0x3de5af6e	0.11215101
21	0xbe0da17e	-0.13831136
22	0x3ea222e1	0.31667235
23	0x3e368e64	0.17827755
24	0xbea76159	-0.32691458
25	0xbd760fcd	-0.060073663
26	0xbe45cc60	-0.19316244
27	0x3e36ed1c	0.17863888
28	0x3d0f377a	0.034965016
29	0xbe31fc09	-0.173813
30	0xbe346670	-0.17617202
31	0x3debed70	0.11519897
32	0x3eead23d	0.45863524
33	0xbcaf9dbd	-0.02143752
34	0xbeba82a8	-0.36427808
35	0xbdf2fd87	-0.11864763
36	0xbe2cf721	-0.16891147
37	0xbe687a25	-0.22702844
38	0xbcc0a71f	-0.02351719
39	0xbefc4906	-0.49274462
40	0x3c9c396f	0.019070355
41	0x3f05500c	0.52075267
42	0xbe4aadf2	-0.19792917
43	0xbebb3c5b	-0.36569485
44	0x3e81cea5	0.2535297
45	0x3dc56f04	0.09640315
46	0xbdf8042a	-0.12110169
47	0x3d52f8d8	0.051506847
48	0xbe0a304c	-0.13494986
49	0xbe82989e	-0.25507063
50	0x3eafc820	0.3433237
51	0xbe6cd81d	-0.23129316
52	0x3db20360	0.0869205
53	0xbbe7479e	-0.007058098
54	0xbeb7f99d	-0.35932627
55	0xbe211ec8	-0.15734398
56	0xbe148fe1	-0.1450801
57	0x3ee7e7ab	0.45293936
58	0xbe2eac7a	-0.17057982
59	0xbd7c5874	-0.061607793
60	0x3e903281	0.2816353
61	0xbd42dcbc	-0.04757379
62	0xbe18e41f	-0.14930771
63	0x3cfddb2f	0.030988304
64	0xbe85ac02	-0.26107794
65	0xbdcc557c	-0.09977242
66	0xbe7ef011	-0.24896266
67	0xbe425303	-0.18976979
68	0xbe95245b	-0.291293
69	0xbe498b2b	-0.19681995
70	0xbd38d35f	-0.045123454
71	0xbcba2fe9	-0.022727923
72	0x3e991aaa	0.29903156
73	0xbf28a741	-0.6588021
74	0xbd32aed1	-0.04362375
75	0xbdd7397b	-0.105090104
76	0xbddf2125	-0.10894994
77	0xbe654bd1	-0.22392203
78	0x3e2f45cb	0.17116468
79	0xbe851c31	-0.2599807
80	0x3e9e7a93	0.30952892
81	0x3f0a2fe4	0.53979325
82	0x3dc25c33	0.09490242
83	0xbd6b2e23	-0.057417046
84	0xbe07ebee	-0.13273594
85	0x3d59fc8c	0.053219363
86	0xbdd8ba48	-0.10582405
87	0xbe9c67f9	-0.30548075
88	0x3d941bd4	0.0723187
89	0x3e1457dc	0.1448664
90	0x3c169a67	0.009192086
91	0x3d8cc9c0	0.06874418
92	0x3e6ea4b5	0.23305018
93	0xbea02dc0	-0.31284904
94	0xbd0e3753	-0.03472073
95	0xbe815601	-0.25260928
96	0xbdc57b5c	-0.096426696
97	0xbe13f899	-0.14450301
98	0xbe02e279	-0.12781705
99	0xbf4bc019	-0.7958999
100	0x3eb196c4	0.34685338
101	0x3e9f3ebc	0.3110255
102	0xbe82626f	-0.25465724
103	0x3ee89ebe	0.4543361
104	0x3efee7dd	0.49786273
105	0x3e0597ff	0.13046263
106	0x3e4b5343	0.1985598
107	0x3f107dc3	0.564419
108	0xbe3c2096	-0.18371806
109	0xbc6e357c	-0.014539119
110	0xbeb1dd26	-0.34739035
111	0xbd9cfb4f	-0.07665121
112	0xbe11db8d	-0.14243908
113	0xbee6b5c2	-0.45060545
114	0x3da5a4fa	0.080881074
115	0xbe657c30	-0.22410655
116	0x3e46d7c0	0.1941824
117	0x3e9c458b	0.30521807
118	0xbdf27027	-0.118377976
119	0xbe187df5	-0.14891799
120	0x3d47b040	0.04875207
121	0x3ebac6c4	0.3647977
122	0x3e2433e6	0.16035423
123	0xbf98ad1d	-1.192783
124	0xbe64c384	-0.22340208
125	0x3ec2818b	0.37989458
126	0x3ef540e8	0.47901082
127	0xbe358e76	-0.17730126
128	0x3daa14f6	0.08304779
129	0x3ec1e3a5	0.37868991
130	0x3ecc377d	0.39886084
131	0x3f2624d7	0.64899963
132	0xbe67c5cf	-0.22634052
133	0x3ce290a6	0.027656864
134	0xbdbaacad	-0.091149665
135	0x3cef4a38	0.029210195
136	0xbecbbfe2	-0.39794832
137	0xbc8ef3cf	-0.017450241
138	0xbdb8a676	-0.09016125
139	0xbe42394a	-0.18967167
140	0xbe063252	-0.13105133
141	0xbde968f7	-0.113969736
142	0xbd9e59f1	-0.07731999
143	0xbd05c597	-0.03265914
144	0xbe67b148	-0.22626221
145	0xbd95fb09	-0.07323272
146	0x3eaccdd3	0.3375078
147	0xbeabab29	-0.33529022
148	0x3f094969	0.5362764
149	0xbeb6bbaa	-0.3569005
150	0xbe09eedd	-0.13470025
151	0xbd5412ab	-0.051775616
152	0x3d116b6e	0.035502844
153	0xbdf73311	-0.12070287
154	0xbef8a14e	-0.48560566
155	0x3ebe4532	0.37162167
156	0xbec70c6b	-0.38876662
157	0xbe2e9e7e	-0.17052647
158	0x3edaf998	0.4276855
159	0x3edfd140	0.43714333
160	0x3b766c41	0.0037601145
161	0xbe98ffeb	-0.2988275
162	0x3e9dd36b	0.30825362
163	0xbdc8a5f6	-0.097972795
164	0x3e0d4c72	0.13798693
165	0xbea259d6	-0.31709164
166	0x3d9f5473	0.07779779
167	0xbe193e8f	-0.1496527
168	0xbde73911	-0.112901814
169	0x3dd7fafe	0.1054592
170	0xbf04f1a5	-0.5193122
171	0xbe33a5ce	-0.17543718
172	0x3d18e117	0.037324037
173	0x3d838933	0.06422653
174	0x3e3828c4	0.17984301
175	0xbd2e7b76	-0.04259821
176	0x3ea90181	0.3300896
177	0xbe635f92	-0.22204426
178	0xbe1e1bc0	-0.15440273
179	0xbdb06f52	-0.08614983
180	0xbd86e33a	-0.06586309
181	0xbcb7722a	-0.022393305
182	0xba81a97b	-0.0009892428
183	0xbe147b9a	-0.14500275
184	0xbf293057	-0.66089386
185	0x3f1f629e	0.6225985
186	0x3d89212c	0.0669578
187	0xbde14cbe	-0.110009655
188	0xbe1fc54d	-0.15602608
189	0xbdbf78c4	-0.09349206
190	0x3c8ea605	0.017413149
191	0xbe242765	-0.16030653

actor.init_next_embed.0.add_bias._bias f4 [32, 1]
0	0x3f1eaed0	0.6198549
1	0xbdd5fa54	-0.10448137
2	0xbdd31959	-0.10307569
3	0x3eb87229	0.36024597
4	0xbc458530	-0.01205568
5	0xbd0d1342	-0.034442194
6	0x3e8c26e7	0.2737343
7	0xbcf06965	-0.029347131
8	0xbd24bf48	-0.040221483
9	0xbd72c8d0	-0.05927354
10	0xbe297bb5	-0.16551097
11	0x3e3bf07c	0.18353456
12	0xbc4ebf72	-0.012618886
13	0x3ea8d74e	0.32976764
14	0xbda8ac7e	-0.08236025
15	0xbd0f0350	-0.03491527
16	0xbce42bf9	-0.027852999
17	0x3eb75c9d	0.35812846
18	0xbc992750	-0.018695503
19	0xbe0bf536	-0.1366776
20	0x3f0f5c24	0.5599997
21	0x3e1733c9	0.14765848
22	0x3ca9a64e	0.020709183
23	0xbd196cf4	-0.03745742
24	0xbc96a342	-0.018388394
25	0xbd8dcc8f	-0.06923782
26	0xbd412b25	-0.047160286
27	0xbc0776a0	-0.0082680285
28	0xbce93aac	-0.02847036
29	0xbc125369	-0.008931019
30	0xbbc266fa	-0.005932686
31	0x3b0bee5b	0.0021351788

actor.init_next_embed.2.module.weight f4 [64, 32]
0	0xbe89abc6	-0.26888865
1	0x3de1cc6b	0.11025318
2	0x3dc0379d	0.093856074
3	0x3e7c784b	0.24655263
4	0x3e33dab7	0.17563902
5	0xbdeaa608	-0.11457449
6	0x3cd56b59	0.026052164
7	0x3e8f2d7a	0.27964383
8	0x3df8bcc4	0.12145379
9	0x3d292647	0.04129627
10	0x3e0c957b	0.13728897
11	0xbe3bccd0	-0.18339849
12	0x3b0be517	0.0021346265
13	0x3de89287	0.11356073
14	0x3e4dd5f7	0.20101152
15	0xbc98b7cd	-0.01864233
16	0x3eabba3e	0.3354053
17	0x3e98189d	0.29706278
18	0xbca33a45	-0.019925246
19	0x3e2aacd6	0.16667494
20	0x3d4f5cf0	0.05062574
21	0xbdc98b7a	-0.09841056
22	0x3e80f756	0.25188702
23	0x3f079451	0.5296069
24	0x3d9301ce	0.071780786
25	0x3ca8a609	0.020586984
26	0xbb430fee	-0.0029764134
27	0xbe19c9a6	-0.15018329
28	0xbd9643de	-0.073371634
29	0xbde200d1	-0.11035312
30	0x3d42ae5f	0.047529574
31	0xbdd6bb90	-0.104849935
32	0x3ea1db69	0.3161271
33	0xbcb12e24	-0.021628447
34	0xbe114b75	-0.14188941
35	0x3bd80c63	0.0065932735
36	0x3e4bd4fb	0.19905464
37	0x3e2e9d99	0.17052306
38	0xbebd4e57	-0.3697383
39	0x3de7f369	0.11325724
40	0xbd160a05	-0.03663065
41	0x3da63420	0.08115411
42	0xbe0c3183	-0.13690762
43	0xbe8f1ddf	-0.27952477
44	0xbe8bbde9	-0.27293327
45	0x3d781ca3	0.060574185
46	0x3edaae8b	0.4271129
47	0x3e94be7a	0.29051572
48	0xbe965b35	-0.2936646
49	0x3d0ef60b	0.034902614
50	0x3e1e8c07	0.15483104
51	0xbe80d8da	-0.25165445
52	0xbecde2fe	-0.40212244
53	0xbe4ae2a6	-0.19813022
54	0xbe694eb6	-0.22783932
55	0xbd81c794	-0.06336895
56	0xbd58867b	-0.052862626
57	0x3df70819	0.120620914
58	0x3da906f4	0.08253279
59	0xbe20678d	-0.15664501
60	0x3d989757	0.07450741
61	0x3d77d874	0.06050916
62	0xbdb2c215	-0.087284245
63	0xbe04699c	-0.12930912
64	0x3e1d886d	0.15384074
65	0x3ec72b1f	0.38900086
66	0x3da7a102	0.08185007
67	0x3e37d516	0.1795238
68	0x3d81c727	0.063368134
69	0x3dfa3dc6	0.122188136
70	0x3e870585	0.263714
71	0xbe6fff95	-0.2343734
72	0x3e0ef960	0.13962317
73	0xbdf9631f	-0.12177109
74	0xbd7b85b7	-0.061406817
75	0xbea664fd	-0.32498923
76	0xbd01b9b3	-0.031671237
77	0xbeba70bd	-0.36414137
78	0xbe0006f1	-0.12502648
79	0x3c085d15	0.008322974
80	0x3d435922	0.047692426
81	0xbd332b0a	-0.043742217
82	0x3d2aa9c3	0.041665804
83	0xbea62a2d	-0.32454053
84	0xbe8935ca	-0.2679885
85	0x3eb77f69	0.35839394
86	0x3e29dfd6	0.16589293
87	0xbde07f7b	-0.10961815
88	0x3e242bee	0.16032383
89	0xbea70d20	-0.326272
90	0x3d1d583a	0.038414218
91	0x3e214eee	0.15752766
92	0x3e8474de	0.25870413
93	0xbdc0deda	-0.094175056
94	0xbeae5954	-0.34052527
95	0x3e37ecf8	0.1796149
96	0x3f10d193	0.56569785
97	0x3e7d55f3	0.24739818
98	0xbe1b95b4	-0.15193826
99	0x3ea3e677	0.32011768
100	0x3e3b7a33	0.18308334
101	0xbc7a42d3	-0.015274721
102	0x3dbe029a	0.0927784
103	0xbcfefed8	-0.031127378
104	0x3c31d205	0.010853295
105	0x3ec6d332	0.38833004
106	0x3e1854d6	0.14876112
107	0x3ea8ea10	0.32991076
108	0x3d968345	0.073492564
109	0x3ea7365a	0.32658654
110	0xbe39ee8d	-0.18157406
111	0x3da85484	0.08219245
112	0x3e3404a9	0.17579903
113	0x3ea72c81	0.3265114
114	0xbdda121c	-0.10647985
115	0x3e35f279	0.17768277
116	0x3e8a4357	0.270045
117	0x3e23c86a	0.1599442
118	0xbdfe1e55	-0.12408129
119	0xbe8de97d	-0.277172
120	0xbd598805	-0.053108234
121	0xbc8df0fb	-0.017326823
122	0xbe87db25	-0.26534382
123	0x3e1c58b3	0.15268211
124	0x3dcaa734	0.09895173
125	0x3d376e4e	0.04478293
126	0x3e50cd5f	0.20390843
127	0x3d06c2e4	0.032900706
128	0x3ef8d9c2	0.48603636
129	0xbcb14ad5	-0.021642128
130	0xbac4e532	-0.0015021919
131	0x3ec37b99	0.38180235
132	0x3e5d20fc	0.21594614
133	0x3e2b768b	0.1674444
134	0x3d8729dc	0.06599781
135	0x3e2825f1	0.16420723
136	0x3e34fb51	0.17673995
137	0xbdba001b	-0.09082051
138	0xbcacfd54	-0.02111689
139	0x3b69ae1c	0.0035656756
140	0xbe0c4b24	-0.13700539
141	0x3c13330c	0.0089843385
142	0xbe3866ef	-0.18008016
143	0xbea7ed75	-0.32798353
144	0x3dc84d59	0.09780378
145	0x3dc0a8bc	0.094071835
146	0x3d2cb582	0.042165287
147	0xbe96c4b3	-0.29446945
148	0x3efcd125	0.49378315
149	0x3e5b997e	0.21445271
150	0xbc85d5b1	-0.016337248
151	0xbc80de4b	-0.015730998
152	0x3e2b16ed	0.16707964
153	0x3e39126d	0.18073435
154	0x3e2340ba	0.1594266
155	0xbdc67357	-0.09689968
156	0x3d6ba055	0.05752595
157	0x3d18a4f2	0.03726668
158	0x3e1713d1	0.14753653
159	0xbdf11539	-0.11771626
160	0xbf287282	-0.65799725
161	0xbf01315e	-0.50465953
162	0xbd74beeb	-0.059752386
163	0xbf0a02fd	-0.5391081
164	0x3c8dd23f	0.017312167
165	0x3e1b80e3	0.15185885
166	0xbe6bf24b	-0.23041646
167	0x3e1ad086	0.15118608
168	0x3dba8cbb	0.091088735
169	0x3e0917e7	0.13388024
170	0xbe526fc9	-0.20550455
171	0xbe845040	-0.25842476
172	0xbcdd8019	-0.02703862
173	0xbdd63535	-0.10459367
174	0xbd628468	-0.055302054
175	0x3e043ec6	0.12914571
176	0x3b207bf3	0.0024487942
177	0xbdb67950	-0.08909857
178	0x3e2d7a29	0.16941132
179	0xbc2d157e	-0.010564206
180	0xbef2dfc4	-0.47436345
181	0xbe1677af	-0.14694093
182	0x3d90f7c5	0.07078508
183	0xbd80884f	-0.06275999
184	0xbe68bca5	-0.22728212
185	0xbe610b0e	-0.21976873
186	0xbe0b3b6b	-0.13596885
187	0xbe361055	-0.17779668
188	0x3dfe5dc8	0.12420231
189	0xbe586e80	-0.21135902
190	0x3c7c5b5a	0.015402639
191	0xbe2bede9	-0.16789974
192	0x3e1b6469	0.15175022
193	0xbe293c04	-0.165268
194	0xbd864123	-0.065553926
195	0x3dacd88d	0.08439741
196	0xbce7bdd6	-0.028288763
197	0x3d9c608a	0.07635601
198	0xbd8139c5	-0.06309847
199	0xbc49882e	-0.012300534
200	0x3eed9735	0.46404424
201	0x3d659256	0.05604776
202	0xbd2c282b	-0.042030495
203	0xbdf44cab	-0.11928686
204	0xbe513c13	-0.20433073
205	0xbc0fc3a4	-0.008774672
206	0xbeb050e0	-0.34436703
207	0xbe8c640d	-0.27420083
208	0xbeea3845	-0.45746055
209	0xbc9f5772	-0.019450877
210	0xbeb0e862	-0.34552294
211	0xbe1013db	-0.14070074
212	0xbe04fbf2	-0.12986735
213	0xbcc2484b	-0.023716113
214	0x3d89dfe0	0.06732154
215	0xbd9ef57b	-0.077616654
216	0xbd555cf3	-0.052090596
217	0xbe38cfe2	-0.18048051
218	0x3d04e70a	0.0324469
219	0x3cfc8ab4	0.030827858
220	0xbd955702	-0.07291986
221	0x3e4e96f6	0.20174775
222	0xbd92f7ea	-0.07176192
223	0x3e1830f5	0.14862426
224	0x3f2ab34a	0.66679823
225	0x3e17eb03	0.14835744
226	0x3cde20a3	0.027115172
227	0x3e86a475	0.26297346
228	0x3ddf1ff8	0.108947694
229	0xbe739ccf	-0.23790286
230	0x3d6b992b	0.05751912
231	0x3e154cd3	0.14580087
232	0xbd46e248	-0.048555642
233	0x3dd88379	0.105719514
234	0x3d379a3a	0.044824816
235	0x3ee97bb0	0.4560218
236	0x3eadf056	0.33972424
237	0xbe04b8cb	-0.12961118
238	0x3e9100b7	0.28320858
239	0xbe20cdd3	-0.15703516
240	0x3dacdf31	0.08441008
241	0x3e3d3ae2	0.18479493
242	0x3d667382	0.0562625
243	0xbd9824a1	-0.074288614
244	0xbe2d2a58	-0.16910684
245	0x3f148516	0.58015573
246	0x3e2d19cf	0.16904376
247	0x3d8cce9e	0.068753466
248	0x3e631b3d	0.2217836
249	0x3d4c862a	0.049932636
250	0xbe897dcb	-0.26853785
251	0xbde7f83a	-0.11326642
252	0xbe34effa	-0.17669669
253	0xbe2df7ec	-0.16989106
254	0x3ec5f33c	0.38662136
255	0x3d49954e	0.049214654

actor.init_next_embed.2.add_bias._bias f4 [64, 1]
0	0xbdc260bf	-0.09491109
1	0xbe30c869	-0.1726395
2	0x3d354a58	0.044260353
3	0x3f3f45f9	0.74716145
4	0x3f02ce6f	0.5109624
5	0xbf597ed6	-0.8495916
6	0x3cbae49d	0.02281409
7	0x3f069a8c	0.5257957
8	0xbec3bca6	-0.38229865
9	0xbdf5eff8	-0.12008661
10	0x3ddcd684	0.10783103
11	0x3ea1e417	0.3161933
12	0x3e03e6ea	0.12881055
13	0xbeac437c	-0.33645236
14	0x3f143e82	0.5790788
15	0xbeb280b6	-0.34863824
16	0x3dcd96ce	0.10038529
17	0x3ea860ce	0.32886356
18	0x3e726489	0.23671164
19	0x3e35349b	0.17695849
20	0xbe95e065	-0.29272762
21	0x3c1ca469	0.009560683
22	0xbe21f5e7	-0.1581646
23	0xbee39623	-0.44450483
24	0xbdf83b25	-0.12120656
25	0xbe4e5aec	-0.20151871
26	0xbf3015c8	-0.68783236
27	0xbd6aca47	-0.057321813
28	0x3f5c016a	0.8593966
29	0xbdb182b2	-0.08667506
30	0xbe89fd2d	-0.2695097
31	0x3ed33332	0.41249996
32	0xbe2b234c	-0.16712683
33	0x3e2250a6	0.15851077
34	0xbd1a6f6c	-0.037703916
35	0xbe4eb7b9	-0.20187272
36	0xbeb5a204	-0.3547517
37	0xbf27a7fc	-0.654907
38	0xbf165bb5	-0.58733684
39	0xbf158db8	-0.5841937
40	0xbd98486d	-0.07435689
41	0xbe0588cd	-0.13040467
42	0xbe1f745d	-0.15571733
43	0xbebfb6c4	-0.37444127
44	0xbe9169eb	-0.28401121
45	0x3f35df14	0.71043515
46	0x3e12633e	0.1429567
47	0xbc49c7bf	-0.01231569
48	0x3f1207e0	0.57043266
49	0x3e4686ad	0.19387312
50	0xbf85ce4f	-1.0453585
51	0xbf0101b8	-0.5039325
52	0x3e33d4b5	0.1756161
53	0xbeec32f7	-0.46132633
54	0x3f56bc5f	0.8388118
55	0xbe77fffe	-0.24218747
56	0xbd89520f	-0.067051046
57	0xbf1cad5b	-0.6120202
58	0xbd045ce5	-0.032315154
59	0x3ed4b2e0	0.4154272
60	0x3dd0cb1f	0.10194992
61	0x3e731bec	0.2374112
62	0xbdbb95af	-0.09159409
63	0x3cb29177	0.021797879
