pretrained_models/experiment/Discrete_A2C_10x10x10Bin_s42_inh_800_defaultBox-2022.08.20-14-32-58/PCT-Discrete_A2C_10x10x10Bin_s42_inh_800_defaultBox-2022.08.20-14-32-58_2022.08.20-15-28-21.pt (torch, 236314 bytes, 24 tensors)

actor.init_internal_node_embed.0.module.weight f4 [32, 6]
00000000: 281c ae3c 9058 ac3e 439c b93d 542a 92be
00000010: dd8a 52bb 0359 d4bd 85d3 8d3e 7de9 d03e
00000020: 059f efbc 9a52 26be 9fee 67be 0afc 7dbe
00000030: d69c 323c 6a6a 003d c495 9d3d efa5 b53d
00000040: 2c11 91be 9407 4c3d dea5 b2bd 875f 933d
00000050: ff1b babe 379f 753e 1953 4e3e a6ee 043f
00000060: 3266 fa3e ef0e 24bd dbaa db3e 0a44 d23e
00000070: 0d81 093e 3680 243e 13b9 f93d 9bbe 8d3d
00000080: 5386 4bbe 6a20 2e3e fe89 05bf 17de bfbe
00000090: b786 2ebf a206 113f 776d cb3e 0b1e 2e3f
000000a0: aad5 26bf f6bf 0cbe 42c9 743e 459c 8bbd
000000b0: bfe9 4b3f c599 13bd 5acd 0ebf 4e81 b1bd
000000c0: df77 51bf 30cd 81be accf debe 0479 043f
000000d0: 9e09 b33e bd08 9e3e ad60 493f c156 923c
000000e0: 17b0 86be 44d9 093f c732 c73e 4400 53be
000000f0: ac5b e83c 91fd 913e 876b 2cbe 67ed a23d
00000100: 7aee 803e ce39 e2be 8634 0cbe 8db3 d33d
00000110: 291e 4bbe 8939 eebd 7d1f 36be 2a45 cfbe
00000120: 1fa4 043f 5c62 71be 38e9 42be 42ec 943d
00000130: 8bc4 91bd a03b 37be db72 0c3f 836f ad3e
00000140: 528e efbd 89bc 66be 7e54 223e a220 3ebd
00000150: 5547 94ba 13ad dc3d 9efb ffbe cbb0 21bd
00000160: 69b8 6f3e e6d4 abbe f083 f1bc 301a 84be
00000170: fcc4 80be 0b73 debd ffc0 e33d 16fe a1be
00000180: f017 403e 7216 bcbe 3c4a 733f 84f9 48bf
00000190: ad73 f43e cb04 b93d 0a96 6abd eb9b 843d
000001a0: f091 193e f17c 1c3e 4d90 f9be e0ba 65be
000001b0: 20ed 3abd 22db 2cbc bbfe 06bf d8ab b03c
000001c0: a347 3e3d 392d a539 d845 1d3e 5011 29be
000001d0: df70 ab3d 6ae9 80be 97d9 30bd 1c32 b43e
000001e0: 3096 d13e 82ae 4c3f bf43 08be 8d16 c93e
000001f0: 3d50 ba3d 788d e5be 92c2 36be e882 6dbd
00000200: aa67 41be a0df bf3d a1d4 8abd 570d dabe
00000210: ba93 cfbe 514b 0ebf b4e4 a5be f730 da3e
00000220: 1635 8a3e ecc0 243e db05 e93d 76e9 813c
00000230: 49e6 81bf 13c4 78be c394 a6be 0c3f 413f
00000240: ff07 1fbe a0d2 e4bd 39ff 1a3f 11ff 033e
00000250: bd8c 85bd bdc4 d03c 643f 723d 6d3e 21bd
00000260: 30ff 863e f5f9 8ebe 5971 58be b12d b83e
00000270: f732 97bd e928 bf3e 1333 62be 91f9 a43d
00000280: 5ec4 2a3e c1ae 09be 2ebd 45be 54bf 87bb
00000290: fd09 5b3f 9224 50be 0769 223e 838e 393e
000002a0: 3697 89be e418 1abf 9edc a7bc 5c7e b03d
000002b0: cf33 ff3c ba18 53be cb20 95be 0d55 9b3e
000002c0: c345 693e e361 3bbe f653 23bd b53a 75bb
000002d0: 7633 693e a738 353e 85cb c4bd 491b 7cbc
000002e0: 6665 f1bd ddf4 98be a85b e03e 5f26 853e
000002f0: a14f febe f1ed a6be 61f2 3dbe 4036 433e
0.02125366 0.33661318 0.09063008 -0.2854792 -0.0032126226 -0.1036854 0.2770044 0.40803137
-0.029250631 -0.16242447 -0.2264962 -0.24803177 0.01090165 0.031351484 0.07694581 0.0886954
-0.28333414 0.049811915 -0.08723043 0.07195955 -0.36349484 0.23986517 0.20148887 0.5192665
0.48906094 -0.040053304 0.4290379 0.41067535 0.13428135 0.16064534 0.12193503 0.06921121
-0.1987546 0.17004552 -0.52163684 -0.3747413 -0.6817431 0.56650746 0.39731953 0.6801459
-0.65169775 -0.13745102 0.23904899 -0.068169154 0.79653543 -0.036035318 -0.5578209 -0.08667241
-0.81823534 -0.25351858 -0.43517816 0.51747155 0.34968275 0.30866042 0.7866314 0.017863633
-0.2630622 0.53847146 0.38905928 -0.2060557 0.028364025 0.28513768 -0.16837893 0.07955437
0.25181943 -0.44184726 -0.13691911 0.10336981 -0.19835724 -0.11632068 -0.1778545 -0.40482455
0.5181293 -0.23572677 -0.19034278 0.07271625 -0.07117566 -0.17893839 0.54862756 0.3387414
-0.11697067 -0.22532858 0.15852544 -0.04641784 -0.0011312763 0.10775199 -0.49996656 -0.039475244
0.2341019 -0.33560866 -0.029481858 -0.2580123 -0.25150287 -0.108617865 0.111207955 -0.31639165
0.18759131 -0.36735874 0.9503515 -0.7850573 0.47744504 0.09034117 -0.057271995 0.064750515
0.14997077 0.15282036 -0.48742905 -0.22434568 -0.045636296 -0.010550292 -0.5273244 0.021566316
0.046455037 0.00031504946 0.15358675 -0.1651051 0.08371138 -0.2517808 -0.04317626 0.3519448
0.40934896 0.7995378 -0.13307093 0.39275017 0.090973355 -0.44834495 -0.1784766 -0.05798617
-0.18887201 0.09368825 -0.06778837 -0.42588302 -0.40542394 -0.55583674 -0.3240105 0.42615482
0.26993626 0.16089219 0.1137807 0.015858393 -1.0148402 -0.24293546 -0.3253537 0.75486827
-0.15530394 -0.11172986 0.6054569 0.12890269 -0.06520984 0.025484437 0.059142485 -0.039366174
0.26366568 -0.27925077 -0.21136989 0.3597236 -0.07382768 0.373359 -0.22089796 0.080554135
0.1667647 -0.1344557 -0.19310448 -0.004142681 0.85562116 -0.2032645 0.15860377 0.1812077
-0.26873177 -0.6019423 -0.02049094 0.08617851 0.031152634 -0.20614901 -0.29126582 0.30338326
0.22780518 -0.1829906 -0.039874993 -0.0037419025 0.22773537 0.17697392 -0.09609131 -0.015387365
-0.11786918 -0.29874316 0.43819928 0.26005837 -0.49670127 -0.3260341 -0.18549491 0.19063663

actor.init_internal_node_embed.0.add_bias._bias f4 [32, 1]
00000000: 7738 4ebb b4b7 9e3b 44c0 0cbc 17e6 313d
00000010: ae0b c33d 23cf b4bb ffac 96bc 0611 f3ba
00000020: a5fd 3b3c df51 e13d a192 1b3d c8b5 5f3c
00000030: f9fa 9e3c b8c9 6d3c 2c75 30bc 88c7 05bd
00000040: e862 9b3b 448e d9ba 034f b3bb 3c79 903c
00000050: 1040 c53c daa0 86bc 03a6 3d3c 8c95 213c
00000060: c74e 693d 4be2 953b fb73 beba 2d28 8dbb
00000070: c618 27bc 9733 ecbb f199 70bc ffa6 89bb
-0.003146676 0.0048436765 -0.008590762 0.04343232 0.09523712 -0.0055178567 -0.018393038 -0.0018544502
0.011474048 0.11001944 0.037981633 0.01365418 0.019406782 0.0145134255 -0.010770123 -0.03266099
0.004742015 -0.0016598185 -0.0054720654 0.017635934 0.024078399 -0.016434122 0.011575225 0.009862315
0.056959894 0.0045740954 -0.0014530414 -0.004307768 -0.010198778 -0.0072082984 -0.01468514 -0.0042008157

actor.init_internal_node_embed.2.module.weight f4 [64, 32]
00000000: 2ae5 c2be bab4 043e bc50 29be 1fb8 983e
00000010: c20e 783f 2e2d 5e3d e1cb a53d 84b6 153e
00000020: b4fc 89be a178 8ebd a754 d8be 78bb c03d
00000030: bd62 67be 546b 0cbe df56 f33d 43f6 3fbe
00000040: 03f8 803e ab78 54bd b1fa 92bd c820 d53d
00000050: f12c 533e bb4b 11be 1a4a 89be 5712 8abe
00000060: 0acf 7cbe 6b9f 8f3e a447 f73d 39a0 ca3e
00000070: 11b6 8dbd b467 1abe 3b6c 50be 0851 1d3d
00000080: 6044 bebd b205 ffbe f4d2 a9be 8da6 493c
00000090: 047d b9bd f454 613e 0e1d 5a3d ffd9 de3e
000000a0: e195 c6ba d082 e4bc 0b80 3e3e f090 3ebe
000000b0: 1df9 2fbe 8d7d cebc 8f27 8d3d 1a92 313e
000000c0: f9d0 47bd d091 98bd a4ae f9bd d937 17be
000000d0: 75e4 4a3e 3909 c53c aa82 a43e f514 b5bd
000000e0: b540 253e 1eab 143d 2312 043d 4fb2 0e3e
000000f0: 82ee 8dbe ccf8 613e 6484 f13e 5bcc 473d
00000100: c3b9 ca3e 76b7 01be b125 1bbe 3204 4d3e
00000110: 35a2 1fbd 5d72 853e 5d0d 8ebe 60fa 88be
00000120: 1a68 813e 302a 053e 09a3 c6bd 2530 5abe
00000130: 42a9 d13e 232c 93be aa06 183d 62e3 aabb
00000140: b2ed d23d 41ee d63d 7c0b 6ebe bbbe 993d
00000150: 4549 c8be cd7a 143d 97b0 9d3e d508 9ebe
00000160: 5bfb b8bd 8933 1fbe 7dae cfbe 5f4b 83bd
00000170: f861 64bd ed2f a4bd 319a 593e f8e5 803d
00000180: b700 483d 46b0 dd3e 84f0 7ebd 0e8c f73d
00000190: 4142 2b3e 6fe8 10be fe38 a3be 28df 323d
000001a0: 390f f13d 8e68 a43d e1fd 6a3e 24e1 b83e
000001b0: d967 6dbe 7a12 c63c 7431 943c e5ad 2abe
000001c0: 6155 04be c5c4 50be fc33 9f3c b0de 2cbe
000001d0: e8c1 fe3d 9c08 cf3c 921f ad3e 7fec fc39
000001e0: 4d7d c8be 84d7 a73d 4ec0 bb3e 9f4d 75bc
000001f0: 8f9e 173e fe33 2f3e d49d 543e e6c6 c33d
00000200: e5f7 8cbe 84a6 d53d af86 423e 2dfb bcbd
00000210: 2186 b8be ee7b 143c 0659 20be 1898 9c3d
00000220: e66f e1bd 334c 9f3e 685b d73e 54f0 bbbd
00000230: ddb7 aa3c dc2f 403e 2126 00be daab 6fbc
00000240: 7574 b33c 5fb7 e83d b029 88bd 9b4e b5bd
00000250: f6dd 073e 4e22 6c3d 5dcd 803e 4f7d 8cbd
00000260: c301 d1bb afdd aa3d 3e5a a73e 15d4 a1be
00000270: 6714 973e 013e 8bbc d1e2 aebd 6ab0 eabd
00000280: 1892 1a3b 2e27 303d 4257 38bd 2c11 a93e
00000290: 1029 2b3e f460 c7bc e582 6e3e bb9a c5be
000002a0: d916 4d3e 2342 653e c3b6 143f 4dd3 a53d
000002b0: e70a 913e 848b 35bd ff1c 933e 2ca1 9ebc
000002c0: 5c75 4e3b 933a 46bd 5dbc 823e 6abe 20be
000002d0: c0ca 8e3e 0183 c5bd 7008 62bd 9145 9abd
000002e0: 7447 33bb 1902 19bd 1a52 9dbd 281e 8fbe
000002f0: ce63 bbbc 9898 8e3d e032 bd3d 73f4 d53c
00000300: e173 d2bd 059b 97be 28ae 20be f5a5 0cbd
00000310: 3ab3 553d 0b3e 173d 551f 94bd f51d 68bd
00000320: 158d 83be e526 063f 1024 f4be 8c36 323e
00000330: 9b13 813e 95dc 793c a47c e7bd 0e89 47bd
00000340: 90e5 a6bd c191 85be 47ba 403e df41 673e
00000350: 86ea bcbc 9647 cf3d 600a 57be f625 5e3e
00000360: cfde 0bbf 84ac 3ebe 5949 b53d b834 803d
00000370: ea4b 083d 6481 b43e 2416 d4be 7adf a4be
00000380: a13a 833e 4eff b13e 7932 683e 1574 2cbe
00000390: cf82 95bd a744 bc3d 8738 bc3e f7d6 9b3e
000003a0: b1e7 fabe 7fac 10bf 019a 2cbe a5a3 bcbd
000003b0: 453a e63e e219 89be ebc0 bfbc 7930 4f3d
000003c0: d1d2 213d 9cd6 7fbc 460b 2cbd 4b34 d0bb
000003d0: 57d2 08bf 48e3 48bd 424f 223e 1466 293e
000003e0: 3bde eb3e 09c7 d3bc 0c75 15be 9933 9cbd
000003f0: 0155 9b3d c575 2c3e 80f6 c3be d403 ddbd
-0.38065463 0.12959567 -0.16534704 0.29827973 0.9689752 0.054242305 0.080955274 0.14620405
-0.2695061 -0.06956602 -0.42252085 0.09410757 -0.2259626 -0.13712817 0.11881804 -0.18746285
0.25189218 -0.05187289 -0.07176722 0.10406643 0.20622613 -0.14189045 -0.26814348 -0.26967117
-0.24688354 0.28051314 0.12074211 0.39575365 -0.06919492 -0.15078622 -0.20353787 0.038407356
-0.09290385 -0.49809033 -0.33168757 0.012307775 -0.09057048 0.22005063 0.053250365 0.43525693
-0.0015150869 -0.027894408 0.18603532 -0.18609977 -0.17184873 -0.025206352 0.06892311 0.1734089
-0.048783276 -0.074496865 -0.12191513 -0.14767398 0.19813712 0.02405225 0.3213094 -0.08841888
0.16137965 0.036296003 0.03224386 0.13935207 -0.2772103 0.22067565 0.4717132 0.048778873
0.3959485 -0.12667641 -0.15151097 0.20021132 -0.038973052 0.26063815 -0.2774457 -0.2675352
0.25274736 0.13004375 -0.09699065 -0.21307428 0.40949446 -0.2874461 0.03711573 -0.0052150944
0.10299243 0.10494662 -0.23246568 0.07507082 -0.391184 0.036249924 0.3079879 -0.30866113
-0.09032317 -0.15547003 -0.40562811 -0.0641086 -0.055757493 -0.080169536 0.21250226 0.06293863
0.048828807 0.43298548 -0.062241092 0.1208726 0.16724493 -0.14151166 -0.3187942 0.04366985
0.117704816 0.08027755 0.2294841 0.3610927 -0.23184146 0.024178732 0.018089987 -0.16667898
-0.12923194 -0.20387562 0.019433968 -0.16881824 0.124393284 0.02527266 0.3381315 0.0004824139
-0.39158097 0.08195403 0.36670154 -0.01497212 0.14806579 0.17109677 0.20763332 0.09559421
-0.2753288 0.10432151 0.1899669 -0.092275955 -0.36039832 0.00906275 -0.1565896 0.07646197
-0.11007671 0.31112823 0.42061925 -0.09176698 0.020839626 0.18768257 -0.12514545 -0.014628375
0.021906117 0.113631 -0.06648576 -0.088528834 0.13268265 0.057649903 0.2515668 -0.06859838
-0.006378384 0.08343064 0.32686037 -0.31607118 0.29507753 -0.01699734 -0.085393555 -0.114594296
0.0023585614 0.043006115 -0.04500509 0.33020914 0.16714883 -0.024338223 0.2329212 -0.38594612
0.20028247 0.2238851 0.5809137 0.08096943 0.2832863 -0.044322506 0.2873306 -0.019363962
0.0031503057 -0.048395704 0.25534335 -0.15697637 0.2788906 -0.09644128 -0.055183828 -0.075328
-0.0027355822 -0.037355516 -0.07681675 -0.27952695 -0.022874739 0.06962699 0.09238219 0.026117539
-0.102760084 -0.29610458 -0.15691435 -0.034337956 0.052172877 0.036924403 -0.072325386 -0.056669194
-0.25693575 0.524031 -0.47683764 0.1740362 0.2521027 0.015250345 -0.1130307 -0.04871469
-0.08149254 -0.26087764 0.18821059 0.22583722 -0.023061048 0.10121076 -0.21000051 0.21694168
-0.54636854 -0.18620497 0.088518806 0.06260055 0.033275522 0.35254967 -0.41423142 -0.3220175
0.25630668 0.34765095 0.22675504 -0.16841157 -0.073003404 0.09192782 0.36761877 0.30437443
-0.49004892 -0.5651321 -0.16855623 -0.092109 0.4496633 -0.2677756 -0.02340742 0.050583337
0.03950769 -0.015615132 -0.04200294 -0.00635389 -0.53445953 -0.049044877 0.15850547 0.16542846
0.46067986 -0.025851743 -0.14595431 -0.07627029 0.075845726 0.168418 -0.38274002 -0.10791746

actor.init_internal_node_embed.2.add_bias._bias f4 [64, 1]
00000000: d948 8439 a0f8 70bc 796b 573d b507 b13c
00000010: 3fe6 8e3b c3b4 423d b1d3 d8bc 29f8 fe3c
00000020: 47c9 0ebd 1ef4 02bd ab97 fbbb 17ba e2bc
00000030: d606 98bc db47 54bd 016e 5fbd 8007 0dbc
00000040: e4e8 9d3d c8ec 50bc 9973 35bc c0cd 45bd
00000050: 6cbb a5bb 8763 cd3c 3353 cf3c e8ba d83d
00000060: 9276 3c3c 04ed 82bd 3b2e 3e3c 257b 643d
00000070: c298 263d 4426 18bd 9fd6 ce3d fe1c 0a3c
00000080: 8df8 dabc 8be4 50bd c8dd 3bbd 4436 f0bb
00000090: 8378 403c d590 29bd 6384 8b3d 4bb1 113d
000000a0: fe58 9fbd eb1d c73c 640c 8a3d d028 ee3c
000000b0: 2bdc cc3c fb97 2fbd 853d 283d 6995 d83d
000000c0: 7347 15bc 23c6 fcba 52a7 763d 62a5 353d
000000d0: 46e0 1fbd b031 49bd f77b 82bd 6ca7 783d
000000e0: 2b75 3e3d 34a6 ebbc 0941 bb3c bcc1 cebc
000000f0: b950 85bc aee0 323b bc06 b9bc c3af 503c
0.00025231278 -0.014707714 0.05259273 0.02161012 0.0043609436 0.04753567 -0.02646813 0.031124191
-0.03485992 -0.03197109 -0.0076779923 -0.027676625 -0.018557947 -0.05182634 -0.054548267 -0.008607745
0.07710436 -0.012751766 -0.011074924 -0.04829192 -0.005057743 0.025071872 0.025308227 0.105825245
0.011502879 -0.063928634 0.011607702 0.055781502 0.040673025 -0.037145868 0.100995295 0.008429764
-0.026729846 -0.050999206 -0.045865804 -0.0073306877 0.011747482 -0.04139789 0.0681236 0.03556947
-0.07780646 0.024306258 0.067406446 0.029072195 0.025007328 -0.04286955 0.041074295 0.10575373
-0.009111273 -0.0019285124 0.060218163 0.044347174 -0.039032243 -0.04911965 -0.06371301 0.06070654
0.04649846 -0.028765775 0.02285816 -0.025238864 -0.016273843 0.0027294564 -0.022586219 0.012737217

actor.init_leaf_node_embed.0.module.weight f4 [32, 8]
00000000: 6342 5bbe ef83 aebe b3ce 403e cc7c 553e
00000010: 0071 093d eea0 043f d68f aabe 3fc3 9ebe
00000020: 238e eabe bce1 f8bd 7fa7 c63e 00ab 05bd
00000030: 6b06 5a3e 94ec 5fbe 968d 7a3e 9304 58bd
00000040: 366a 7e3b 901f e53d cdcd 87be 0cc1 383d
00000050: a838 46be 5663 a5bd 6601 a23d b765 c5bd
00000060: 46d3 c1be 2cf6 203d 6c54 5e3e 0436 55bd
00000070: f343 a63e 73a1 253d 137c 80be dba0 493c
00000080: 1b05 4f3a ffab 10bf f23c c63e ccfd 9ebd
00000090: 55d7 a1bd 76eb ad3b 862d 2abe 19bb 113e
000000a0: 3a1e b9be 270b 28bc ac98 83be 360e 413e
000000b0: ba6c 27be ce91 fd3d 3ec0 2bbe 665a 303c
000000c0: e9c4 82be 3873 563e f36a a1bd c5f7 da3d
000000d0: d6c3 febd aec0 fabd 9eb3 393d 9228 273e
000000e0: f976 4d3e 8258 413e 2da0 c73e 2db6 f7bd
000000f0: 3dd1 1ebe ab2e 01bd c2df 28bf 7b28 a8bd
00000100: d93a 57bd 215d ab3d acc3 383e f505 943d
00000110: 8739 953d 0c5f 983e a02f 573d 6a5c 323d
00000120: f146 f8be 7573 03be 50c3 8f3d 9ed3 a33d
00000130: aae5 b33e ef6e 56be e55d d7ba b95f 04bf
00000140: 077a dbbe d3fc 8a3d 38c9 acbe 6990 f5bd
00000150: 8f6e f03e 87c0 873e 5b21 6bbe b45d ffb9
00000160: a592 133e eb91 7dbd 9c42 983e faa5 6cbe
00000170: 6e3e 59bd 250b 9ebe eb3e d63e 2994 583c
00000180: 9f8b 7dbe 0099 4cbe cb9c d33e 09e1 eb3e
00000190: 2fe9 8a3e d580 8c3d 4adf ad3e 1e36 de3e
000001a0: a400 053e 41b8 aa3e e62e 8a3e 4ff4 4bbd
000001b0: 69e5 05bf 6ba8 65bc 3f4e 4abd eb74 65be
000001c0: 2714 c23e 66f3 cc3e 8ba2 bb3d 426f f83e
000001d0: f188 b73d c298 e43c 2050 0a3e 16e2 1d3e
000001e0: f1ce 6b3d d658 c9bd c936 81bd cab6 483e
000001f0: db45 21be 5d68 953e 8dd3 2d3d abae 313e
00000200: b404 8b3e c376 883e 0ee3 2dbd 18fd ccbe
00000210: d262 873c 8d07 93be f785 63be adf6 2d3e
00000220: c792 a5be ec9b 913e 027b b4be 4648 ea3e
00000230: b939 22be 65ab d3bd 78f0 57be e2f2 623e
00000240: 203a 883d b49b 863b d3c2 0cbf 23b7 2bbe
00000250: 0d57 793e 834b c53e 5811 bf3d b951 23be
00000260: 64b7 26be decd dcbc 0851 e7be 8206 2bbd
00000270: 9b2c 33be 6da9 9ebe 863e 7f3e ca62 9fbd
00000280: 47da 3f3e 5493 043d b2c9 383e cf26 cd3e
00000290: df45 ed3e e046 71bd 7672 963e ada4 9cbd
000002a0: 8bc8 78be d2e4 f83e 2f29 1c3e 7771 77be
000002b0: 1232 9b3e 6b31 80be d02c 2bbd 857a 493e
000002c0: 7ade 1a3e 759c cbbe d0a6 33be 0183 b0be
000002d0: 84e4 c13e 006a 10bc 12fd e13e 0d1c 6b3e
000002e0: 783e b43c d9d6 063f b40b 603e 9bd9 0fbf
000002f0: d59f dabd 39f7 163f acdd 0f3e 113e ca3e
00000300: 7485 2bbe 94cd acbe 7d00 fabd 242e 2ebe
00000310: f448 163e 16ce 8bbe 5ed5 9abd ca4f 163f
00000320: 13d6 193e b693 c5bd 7502 42be 9156 1f3e
00000330: 5959 bdbe 168d ccbc 9e2c a2bb cf25 ba3e
00000340: 85e2 72be 0fb4 3a3e 6393 423e 1f78 71be
00000350: 4293 e3be a7ed 5ebc b90b d03e b112 44be
00000360: f5b5 02be ea72 873e 6307 923e c9df 083e
00000370: 2743 ecbd a4fa f13e 655c 9c3e 15dc 43be
00000380: 5958 3d3d f757 a4bc 0571 ab3e 5bde 19be
00000390: e8d8 01be 955b 09bf 6038 76be d6e0 b8bd
000003a0: a3e0 b73e 9d26 933e c469 73be 4b15 193e
000003b0: 7ce7 f43e b079 ffbc 73cd 243e 624f ffbe
000003c0: 2268 6c3d 57a5 babe bed5 3abe 808f b8be
000003d0: 818d 90be 3650 cd3e 9b47 a33d 763a 80be
000003e0: 3be3 cdbe 3906 573d 79f3 5abe 7117 aabc
000003f0: 3532 85be e044 a4bd 6bf0 8d3e b203 55be
-0.21412043 -0.34085032 0.1882885 0.20848387 0.03355503 0.5180806 -0.33312863 -0.31008336
-0.45811567 -0.121524304 0.38799664 -0.03263378 0.21291511 -0.21867591 0.24468073 -0.052738737
0.003882063 0.11187661 -0.265242 0.04510598 -0.1935755 -0.080755875 0.07910423 -0.09638541
-0.378565 0.039297268 0.21711892 -0.052053466 0.32473716 0.040437173 -0.2509466 0.012306417
0.0007897184 -0.56512445 0.38718373 -0.07763252 -0.079023995 0.00530761 -0.16618928 0.14231528
-0.36155874 -0.010256565 -0.25702417 0.18853077 -0.1635007 0.12381326 -0.16772553 0.01076374
-0.25540856 0.2094239 -0.07881727 0.106917895 -0.124396965 -0.12243782 0.045337312 0.1632407
0.20064916 0.1888142 0.38989392 -0.12095294 -0.15509506 -0.031538647 -0.6596643 -0.08210846
-0.052546356 0.08367372 0.18043393 0.07227699 0.07286363 0.29760015 0.052535653 0.043545164
-0.48491624 -0.12837012 0.07019675 0.07999347 0.35136157 -0.20940755 -0.0016431181 -0.5170856
-0.42866537 0.06786504 -0.33747268 -0.11990435 0.4695935 0.26514074 -0.22961943 -0.00048707204
0.14411409 -0.061906736 0.2973832 -0.2311019 -0.053038053 -0.30867878 0.41844878 0.013218918
-0.24760292 -0.1998024 0.4133056 0.46070126 0.2713103 0.0686051 0.3395942 0.43400663
0.12988526 0.333437 0.26988906 -0.049793538 -0.5230318 -0.014017205 -0.049391028 -0.22407882
0.37906 0.40029448 0.09161862 0.48522383 0.089616664 0.027904872 0.13507128 0.15418276
0.0575704 -0.09831397 -0.063092776 0.19600978 -0.15749304 0.29181185 0.04243808 0.17351787
0.27152026 0.26653108 -0.042452864 -0.40036845 0.016526613 -0.28716698 -0.22219072 0.1698863
-0.32338545 0.2843927 -0.35250098 0.45758265 -0.15842332 -0.10335425 -0.21087825 0.22162965
0.066517115 0.0041079167 -0.5498478 -0.1676908 0.24349613 0.38534173 0.0932948 -0.15949143
-0.16280895 -0.026953634 -0.4517901 -0.041754253 -0.17497484 -0.30988637 0.24926195 -0.077825144
0.1873561 0.032367066 0.1804569 0.4006867 0.4634237 -0.058905482 0.29384202 -0.07648597
-0.24295251 0.48612076 0.15250085 -0.24164377 0.30311638 -0.25037703 -0.041790783 0.19675644
0.1512393 -0.39767805 -0.17544103 -0.34474948 0.37869656 -0.008814335 0.4413839 0.2295992
0.022002444 0.5267158 0.21879464 -0.56191415 -0.10675017 0.5897098 0.14049405 0.39500478
-0.16750127 -0.33750594 -0.122071244 -0.17009789 0.14676267 -0.2730567 -0.07560228 0.587155
0.15023069 -0.09647314 -0.1894625 0.15560366 -0.3698223 -0.024969619 -0.0049491664 0.3635697
-0.23719223 0.1823275 0.19001536 -0.23580979 -0.44448286 -0.013606465 0.40633944 -0.19147755
-0.12764724 0.2645486 0.2852126 0.13366617 -0.11536246 0.47261536 0.3053924 -0.19126923
0.046226833 -0.020061476 0.33484665 -0.15026228 -0.126804 -0.5365537 -0.24044943 -0.09027259
0.35913572 0.28740397 -0.23770815 0.14949529 0.4783286 -0.031185955 0.16093998 -0.49865252
0.057716496 -0.3645427 -0.18245599 -0.36046982 -0.2823296 0.4010026 0.07972642 -0.25044602
-0.40212426 0.05249617 -0.2138194 -0.02076313 -0.26014867 -0.08020949 0.27722487 -0.20802191

actor.init_leaf_node_embed.0.add_bias._bias f4 [32, 1]
00000000: 6290 bc3d 3ce7 fc39 3791 9a3d 30d1 ef3c
00000010: afb3 893c 88ba 8abd 9c24 453c e748 ae3b
00000020: 39d6 f2bc b92b ad3c 3793 b43c 86e9 48bd
00000030: abe1 123e bc8c 733c e35d d33d c583 edbc
00000040: 29d3 893d c833 18bd 6391 b7bd d7a5 d7bc
00000050: 8976 48bd f9cc 82bb 4f42 433c 68b8 59bd
00000060: 7a66 d1bd f1f6 0cbc be09 703a 625e ae3d
00000070: e956 a8bd 794c c73d 40fd 60b9 2a18 b83d
0.09207226 0.0004823747 0.07547229 0.029274553 0.016809313 -0.06773859 0.012032654 0.005318749
-0.029643165 0.021139013 0.022042854 -0.04905083 0.14343898 0.014865097 0.10320642 -0.028993497
0.06729729 -0.037158757 -0.08963277 -0.026324196 -0.04894117 -0.00399172 0.011917665 -0.05315438
-0.10224624 -0.008603797 0.0009156725 0.08514096 -0.08219702 0.09731383 -0.00021456648 0.08988984

actor.init_leaf_node_embed.2.module.weight f4 [64, 32]
00000000: 05e4 923c b679 88be fd2a 8fbe ddf4 60be
00000010: 77dd 2d3e a787 cd3d 03d3 bc3d 7b18 27bd
00000020: 1135 af3d eb22 b03d f313 893e e945 8fbe
00000030: af92 84be 37a8 293b c165 cebe fc5f 8fbc
00000040: 52de 513e a632 233e a117 1a3d e8a9 e6bd
00000050: b29f 3a3d 1558 73be 139d 9e3e 476e 4e3e
00000060: 1f53 ae3d b24e 87be 3120 d9bd 6f28 e9bc
00000070: 99d5 0a3e b3b9 b13d 03e7 863c d00e 14bd
00000080: 4cb8 02bd 382d 283e 378c 0c3d 67fc 243d
00000090: 00c4 1b3d 1d5c 203e 2c98 ea3d 77cf 20be
000000a0: 02df 0dbe c448 53be bee3 f33e 9583 08bd
000000b0: 635b 05be 69a2 f13d eb87 103e 456b 6fbe
000000c0: f32e f3bd 7161 2ebd 089e 40bd 1175 43be
000000d0: 983b c1bd d455 f9bd 7705 093e b925 55be
000000e0: 2e55 c5be df94 ebbd 3af3 b93a f538 133e
000000f0: 3a72 87be 0e1a e1bd da6a 1e3e 5e7c b43e
00000100: c2d9 4f3e addf d13c 17e8 03be 86f7 45bd
00000110: 851c 203e af27 95bd de19 c8bd 781e 0e3d
00000120: 4046 d9be 1866 f0bc 0f47 d1be 1e59 2ebe
00000130: 1ac3 b7be 3ed2 fb3d dea5 913e 5a61 1ebe
00000140: 3cf1 b1bd 6156 9e3e 5ce4 70be fb5e f5bd
00000150: 9caf 10bd 5e72 dd39 1d5c 813d 5278 4ebe
00000160: 9664 a5bc fcd6 9c3c 3089 c9bd 9a57 0dbe
00000170: 7aea 50be 3648 11bc 118d ee3d f902 243e
00000180: dc8f a0bd 06a0 423e ae44 453e 0e5d dd3d
00000190: fc74 4c3e 24d6 b73d 536a 5cbd 7496 f63d
000001a0: add4 bb3d fef4 f4bc bee8 71be da45 7c3e
000001b0: 920c 9fbe f6e0 c03d 2b43 8fbd 182e 773e
000001c0: 623a cebd 40c7 c83e b434 70be b9d8 a9bc
000001d0: 8e63 843d b7a7 0f3e dfe6 4dbe 45f5 a13e
000001e0: ffbf 083d 369a c33d 9eff 2e3e 5c63 733e
000001f0: e9d8 963e 4e12 cbbc 2d34 393e 2449 1a3e
00000200: 315e b2bd 418e 3fbd 7576 8c3d ad8d 9e3d
00000210: 6df2 243e 2e36 dabe 833f 743e 63ef 7b3d
00000220: 83a9 913d ebe8 903d 3420 03be cc92 b9be
00000230: 55a0 e7bd abd8 833e 04f9 283e 22c6 4bbe
00000240: 3912 dbbe 9f1b 88be dfd9 2a3e 5930 ec3d
00000250: d153 8bbe 875c 663e e1d6 5bbd b2a7 f23d
00000260: aac8 09be 5b2d 3c3c a4e6 30be a79e a23e
00000270: 58d9 773e 17e5 973c 0dbc 153d 55c3 42be
00000280: e405 173e dd4a fcbb e2fe 35be cedb 24bd
00000290: 7356 65be cb83 0abd 4e45 b63e 91fa b2bd
000002a0: 5611 7c3d be3e b03c 61d9 a4be 16d8 983e
000002b0: 9fe8 033f 0411 3c3d 2591 b23e c360 4ebe
000002c0: c82a 213e 43f7 26be d07e 8abe abb1 38be
000002d0: 10b4 ea3d 914b 4bbe 1d3d 90bd e06a 033f
000002e0: 43e3 a63d c492 13be ab2a 91bd dacc 4a3e
000002f0: 785f 29be 67be be3d 6a44 603e ad68 83bd
00000300: f157 8f3e cea6 b7be 512f 2abd 9343 d7bd
00000310: 50be 7dbe d586 03be 7f50 1b3e d95a 273e
00000320: 8a53 d13d 0e7c 05be 4458 553e 3e0b 343e
00000330: 046b e2bd 383a 2b3e 0f4a 14be fcfc fdbc
00000340: e045 dbbe 3648 c93e 543c 643e 3f9d b03d
00000350: 0e68 34be 8a44 d63d 9997 a7bd 5fc3 313e
00000360: 2e49 103d 9f10 843c 9956 92bd e182 b23a
00000370: 7b26 12be 9a6a 963e 24ef 12bc eda4 39bd
00000380: 6f25 03be 7c17 803d 75ea f8bd f4d1 86be
00000390: 3325 e63d 0f4f d8bd b3f1 5bbe 9542 babe
000003a0: 502d 503e 7716 21be 79fc f43d bbf1 363c
000003b0: a3b8 653e 96bc f43d d2a0 bfbd c1f8 933d
000003c0: abcd 5fbe abc3 abbd 5aa1 febe 2e4b 31be
000003d0: e43b 0b3e 834e 953e 2c49 0a3e e1be ddbd
000003e0: 025a 1ebd 524e 353e da6d 4b3e 6fef 163e
000003f0: 0598 f8be a905 7c3e cb3f f93d f67b 54be
0.017930994 -0.26655358 -0.27962485 -0.21968408 0.16979013 0.10035639 0.09219935 -0.04079483
0.085550435 0.0860041 0.26773033 -0.27983025 -0.2589316 0.0025887617 -0.40312007 -0.017501824
0.20494965 0.1593729 0.03762019 -0.11262876 0.045562454 -0.2376407 0.30979213 0.20159255
0.08511948 -0.26427227 -0.10601843 -0.028461663 0.13558044 0.086779974 0.016467577 -0.03614694
-0.03191404 0.164235 0.034313407 0.040279772 0.038028717 0.15660138 0.11454806 -0.15704142
-0.13854602 -0.20633227 0.4763469 -0.03332861 -0.13023143 0.117985554 0.14114349 -0.23380764
-0.11874189 -0.042573396 -0.04702571 -0.19087626 -0.09435195 -0.121745735 0.13380991 -0.20815171
-0.3854155 -0.11503004 0.0014186867 0.14377196 -0.26454335 -0.10991298 0.15470448 0.35251135
0.20297912 0.025619352 -0.12881504 -0.04833176 0.1563588 -0.0728296 -0.09770559 0.034697026
-0.4243641 -0.029345557 -0.40874526 -0.17026183 -0.35891038 0.1229596 0.2844686 -0.15466824
-0.0868859 0.30925277 -0.23524612 -0.11981007 -0.035323724 0.00042237615 0.06316397 -0.20163086
-0.020189565 0.019145481 -0.098406196 -0.13802949 -0.20401946 -0.008867314 0.11648 0.16016759
-0.07839939 0.19006357 0.1926448 0.108087644 0.19966501 0.08976391 -0.053812336 0.120404154
0.09171424 -0.029901978 -0.2362394 0.24636021 -0.31064278 0.09417908 -0.06995233 0.24138677
-0.100697294 0.39214516 -0.23457605 -0.020733224 0.06464301 0.14028822 -0.20107602 0.31632438
0.033386227 0.09550898 0.17089698 0.23768371 0.29462364 -0.024789002 0.1808631 0.15066963
-0.08709372 -0.046766523 0.068585314 0.07741866 0.16108103 -0.4261946 0.23852353 0.061507594
0.0711241 0.070756756 -0.12805253 -0.3624481 -0.11309878 0.25751242 0.16501242 -0.198998
-0.4278734 -0.26583573 0.16684674 0.11532659 -0.27212384 0.22496234 -0.05367172 0.118483916
-0.13455454 0.011485423 -0.17275482 0.31761667 0.24204004 0.018541856 0.036556292 -0.19019826
0.14748341 -0.007699354 -0.17773011 -0.040248685 -0.22396259 -0.033817094 0.3559975 -0.08739198
0.06153997 0.021514293 -0.32197097 0.2985236 0.51526827 0.045914665 0.3487636 -0.20154099
0.15738976 -0.1630526 -0.27049875 -0.18036525 0.114601254 -0.19853045 -0.070429064 0.51334953
0.081488155 -0.14411455 -0.070882164 0.19804707 -0.16540325 0.0931366 0.21901098 -0.0641645
0.2799678 -0.3586945 -0.04154903 -0.10510936 -0.2477963 -0.12844403 0.15167426 0.1634325
0.10221012 -0.13035604 0.20834452 0.17582414 -0.11055568 0.16721427 -0.14481376 -0.031004421
-0.42826748 0.39312905 0.22288638 0.08623742 -0.17617819 0.104622915 -0.08183212 0.17359684
0.03522604 0.016121207 -0.071454234 0.0013619327 -0.14272492 0.29378206 -0.008968148 -0.0453233
-0.12807249 0.06254479 -0.12154094 -0.26332057 0.11237564 -0.10561954 -0.2147892 -0.36378923
0.20329785 -0.15731226 0.11962218 0.0111660315 0.22433715 0.119500324 -0.09356846 0.072251804
-0.218558 -0.0838693 -0.49732476 -0.17313835 0.13597065 0.29161462 0.13504475 -0.10827423
-0.038660057 0.17705658 0.19866124 0.14739774 -0.48553482 0.24611534 0.12170371 -0.20750412

actor.init_leaf_node_embed.2.add_bias._bias f4 [64, 1]
00000000: f652 a0bd 2a4e f8bc cbbd ed3c 4b50 933b
00000010: 22e8 34bd 9dbb a23e 463a 223d 733b 173d
00000020: 6086 c4bd 164d 9a3d 36a7 a7bd 0363 743e
00000030: 259e 8bbd e13a 65be e46f 04bf 9508 0cbd
00000040: 2423 88bd ab0c 1a3e 035a 62be 8cb2 83bd
00000050: 2c5f 0fbe 774e 2e3e 7672 fe3d 9b2d 4f3e
00000060: 78c4 30bd 1bbd 7a3e 5dba 7abe 188a dd3d
00000070: 0a8f e9bd 6a31 73be 7f9a d13d a1a4 9fbd
00000080: e3eb bebd ca3e 4abb 973f 65be ab8b 3b3e
00000090: 142e c8bd 9d5c 97bd ac8f 00be 28d7 55bd
000000a0: f21b 45be ef5f b23c beb0 3c3b 6401 c4bd
000000b0: bbfd c63c ff1e 983d 0792 513d 6d16 783e
000000c0: 2b2d 163c ec57 933d 42e1 b83d c13f 0f3d
000000d0: e66a 34bd 6883 eb3d 0cb7 9ebd 50bf f6bd
000000e0: 4e07 c4bd 247a 01be 2ef3 febd 60fd 903e
000000f0: d629 013e 8fde 2c3c b6a1 663e 0cb0 43be
-0.078283235 -0.030310709 0.029021164 0.0044956557 -0.04416669 0.31783763 0.039606355 0.03692193
-0.095959425 0.07534234 -0.0818619 0.23865895 -0.06817273 -0.22385742 -0.5173323 -0.034187872
-0.066473275 0.15043895 -0.22104649 -0.064305395 -0.14001149 0.1702212 0.124241754 0.20232241
-0.043156117 0.244862 -0.24485154 0.10817355 -0.11404236 -0.23749319 0.10234546 -0.07795072
-0.093223356 -0.003086018 -0.22387539 0.18314998 -0.09774414 -0.073907115 -0.12554806 -0.052207142
-0.19248942 0.02177426 0.002879187 -0.09570578 0.02429091 0.07427787 0.051164653 0.24227305
0.009166042 0.07194504 0.090273395 0.03497291 -0.04404726 0.11499673 -0.07749757 -0.12048209
-0.09571706 -0.12644249 -0.124487266 0.2831831 0.12613615 0.010551109 0.22522625 -0.19110125

actor.init_next_embed.0.module.weight f4 [32, 6]
00000000: 1f50 82bf d250 2a3e 2104 abbd 5049 4e3f
00000010: 639d 993f 8d08 65bf 4247 8d3e 9a49 a63e
00000020: 0abd 083c 3e2b cb3d df47 ae3d ed15 04be
00000030: 46fb aabd 89c8 c7be b2c4 753e c77c 0cbf
00000040: 8c69 c93d d79d 2f3d 97f7 903f 12a8 113f
00000050: 6eaf e53d bb7c 01be f2a3 073e 0891 143e
00000060: 9e7c a7be cd0f 76bd 60cc 45be b62b 3d3e
00000070: b283 133d 90dd 2fbe a9be 1abe 70ed eb3d
00000080: 3dd2 ea3e d3b2 ea3d 4dc3 12be cde2 483a
00000090: 563f 253e 257a 68be 1fa7 c0bc 5e9f 11bf
000000a0: 42de 6a3d 15d8 333f eb85 53be 5b3c bbbe
000000b0: a5ce 813e 0af8 d53d f891 1bbe c470 f83c
000000c0: 48c2 0bbe 9e98 82be 20c8 af3e 533f 74be
000000d0: cd1f b73d 3185 34bc bacc babe c81e 21be
000000e0: e18f 14be bddb d63e 0226 49be d40d a9bd
000000f0: 8f6d 433f bcdc 42bd 1fe4 18be cd80 fabe
00000100: 4fb5 5fbe 7ccd de3e 5967 0e3e 0353 42be
00000110: 5b24 95be 7484 89be ead9 30bc 4fc1 0b3f
00000120: e393 d13e 41a7 28bf d1ae 32bd e51e 8fbd
00000130: 093f 833d 40c3 d0bd ac0a 283e 311c 85be
00000140: 937a 9e3e ec93 593e 3d5f 52be f525 22be
00000150: e088 913f 8cfc 593d 48ba d8bd f521 5abf
00000160: bfa7 273d cf2d 8b3f b3a8 013c c0c9 8c3d
00000170: b5a4 6e3e eeaa a2be 85fc 2dbd 596a 84be
00000180: 5756 c1be 99f8 13be 79e2 02be dbae 60bd
00000190: d5c3 603e 3ce8 fd3e 8a25 8dbe be9e e83e
000001a0: dde7 fe3e fb47 debc 2caa 94bd 1169 163f
000001b0: 88ef 36be 7c35 6ebc 26dd b1be 8bbf 96bd
000001c0: 3dac 0bbe c3d2 e2be 0d6e 9b3f 307c 65be
000001d0: c0d7 463e 015d 923d 4685 ebbd 71b5 383f
000001e0: 9bb0 cc3d c4c6 ba3e e633 243e bbd6 b2be
000001f0: e2b4 46be 98e9 7b3e 33f1 0c3f 768e 35be
00000200: f614 aa3d 1ab4 b13e 8c3b 203d cde7 223f
00000210: 7ae9 62be a690 e23c adac babd 04aa 1f3d
00000220: 0989 c5be f9c6 45bb dd6f 1c3f 4a39 42be
00000230: 5232 06be 4e24 0abf e274 92be 5642 6bbd
00000240: dd32 95be 09fb 95bd d3cd ac3e f527 c6be
00000250: ae93 133f b7f6 dabe a2c0 493e ab12 54bd
00000260: 6e6b 113d bbb5 f7be d175 17bf 7d31 a83e
00000270: 8af5 c6be 7e9e 2ebe 98f9 da3e fb4c 9f3e
00000280: ca7e 7fbd be7b 7cbe 0f1e 5a3f f6a5 c8bd
00000290: 724c 0d3e 3f9c 1bbf 48fc 1ebe b495 42bd
000002a0: 66ed f9bd fefa d73d a5f1 04bf 0bf3 6ebe
000002b0: 8373 a5bc 0dfc d83c cb4c 3d3e 767b 2ebd
000002c0: 8101 a93e d676 58be 6497 0dbe 1cec 82bd
000002d0: 0944 693c 2a72 b7bc dfa9 81ba 1ef5 99be
000002e0: 6946 b9be 64ef 0d3f e7f3 8a3d be4c e1bd
000002f0: 4dc5 1fbe 2977 afbd 8057 a43c 8742 22be
-1.0180701 0.16632393 -0.08350397 0.80580616 1.2001156 -0.8946617 0.27593428 0.3247803
0.008345852 0.09920357 0.08509802 -0.12898989 -0.08348708 -0.39020184 0.24000815 -0.54877895
0.098345846 0.042875137 1.1325558 0.5689708 0.11215101 -0.12645237 0.13246134 0.1450845
-0.32712263 -0.060073663 -0.19316244 0.18473706 0.036014266 -0.17174363 -0.15111794 0.11519897
0.45863524 0.11459889 -0.14332314 0.00076631905 0.16137442 -0.22702844 -0.02351719 -0.568838
0.057340868 0.7025159 -0.20656554 -0.36569485 0.2535297 0.104477 -0.15192401 0.030327208
-0.13648331 -0.25507063 0.3433237 -0.23852281 0.089416124 -0.011018083 -0.3648432 -0.15734398
-0.1450801 0.41964522 -0.19643405 -0.08254591 0.7633905 -0.04757379 -0.14930771 -0.48926392
-0.21846507 0.43516147 0.13906612 -0.18976979 -0.291293 -0.26858866 -0.010794142 0.5459184
0.4093314 -0.6588021 -0.04362375 -0.069883145 0.064085074 -0.10193491 0.16410321 -0.2599807
0.30952892 0.21247834 -0.20544143 -0.15834792 1.1369896 0.053219363 -0.10582405 -0.85208064
0.04093146 1.0873355 0.007913756 0.06874418 0.23305018 -0.31771034 -0.04247715 -0.25862387
-0.37761185 -0.14450301 -0.12781705 -0.054854255 0.21949704 0.49591243 -0.27567703 0.4543361
0.49786273 -0.027133932 -0.0725902 0.5875407 -0.17864811 -0.014539119 -0.34739035 -0.07360753
-0.13639922 -0.44301423 1.214296 -0.22410655 0.1941824 0.07146645 -0.11500029 0.7215186
0.09994622 0.3647977 0.16035423 -0.3492945 -0.19404939 0.24600828 0.5505554 -0.17730126
0.08304779 0.3470772 0.03911929 0.6363495 -0.22159377 0.027656864 -0.091149665 0.0389805
-0.38581112 -0.0030178411 0.6110819 -0.18967167 -0.13105133 -0.53961647 -0.286048 -0.05743631
-0.29140368 -0.07323272 0.3375078 -0.3870236 0.57647216 -0.42766353 0.1970239 -0.051775616
0.035502844 -0.48380837 -0.5916415 0.32850257 -0.38859206 -0.17052647 0.4276855 0.3111342
-0.062376775 -0.24656579 0.85202116 -0.097972795 0.13798693 -0.6078529 -0.15525925 -0.04750605
-0.12203483 0.1054592 -0.5193122 -0.23334901 -0.020196682 0.026487375 0.18486325 -0.04259821
0.3300896 -0.21139082 -0.13827282 -0.063926905 0.014237412 -0.022393305 -0.0009892544 -0.30069822
-0.3618653 0.55443406 0.06784802 -0.110009655 -0.15602608 -0.0856765 0.020061255 -0.1584569

actor.init_next_embed.0.add_bias._bias f4 [32, 1]
00000000: f132 dcbd 001f 91bd e010 10bd 4065 d93e
00000010: 3a43 22bc 7f51 d5bc 3eec 2c3e 0d76 edbd
00000020: adc4 25bd 00a9 4abd 163d 0f3d bc44 423e
00000030: 8f13 2fbd 7fe5 49bd 4b4a 563f 42a5 6dbc
00000040: 6929 833d 43e9 93bd 9d69 903c c2db 2f3f
00000050: 96bc 32be 939e 113e 34b5 233d 9f46 1f3e
00000060: cb3c 32bd 58d4 77bd 893e 8bbd 84b0 5a3e
00000070: 1c23 e6bc 4486 943c 5602 423d 9866 29bc
-0.10751904 -0.07085991 -0.035172343 0.4246006 -0.009903723 -0.026039837 0.16886994 -0.11594782
-0.040470768 -0.049477577 0.034970365 0.18971533 -0.042743262 -0.04929113 0.8370711 -0.014504733
0.06404383 -0.072222255 0.017628485 0.686947 -0.17454752 0.14220648 0.03996773 0.15554284
-0.043515008 -0.06050524 -0.06799037 0.21356398 -0.028092913 0.01813043 0.04736551 -0.010339402

actor.init_next_embed.2.module.weight f4 [64, 32]
00000000: 6815 7abe b37a a73d cec9 223e f502 573e
00000010: a96e 333e 2687 b5bd 2c1e 3e3e 5a0e 8d3e
00000020: eee3 f83d bb81 263d b15f 3f3e 9e10 f3bd
00000030: 24a4 693d 24b5 1f3d 3eff a63e b35c 92bc
00000040: a1e9 8a3e d223 403e a5d5 a0bc 290e 193e
00000050: 197a 7e3e f411 80be 3648 813e c1ef 3f3f
00000060: db12 b43d 600b 1f3e bacd 013c 2bfc 04be
00000070: 4b3e 18bd b199 e0bd c794 703c 0cf5 d4bd
00000080: 5de5 233e eaa4 3d3d 19fe 53bd 4f94 cdbc
00000090: fea7 4b3e cde4 343e ae6d edbe 5a05 f33d
000000a0: e7f2 15bd e852 a83d 46eb dbbe 808a 65be
000000b0: 176b 03be b7b1 ebbc 2480 783e 6a2a 953e
000000c0: b2bf 2dbe 5832 943c e28b 1f3e fe69 abbe
000000d0: e761 d9bd 136c 32be 4136 68be f486 1dbe
000000e0: a614 b1bd 64b8 933d 954a 593d be1a ecbd
000000f0: 8274 9f3d 0df9 7a3d 67d1 18bd cb27 04be
00000100: cba3 0e3e e34a c73e bf63 083e a7f8 52bd
00000110: 6057 813d 4f6e 843d df21 39bc 8cdd 6bbe
00000120: f15e 0f3e bc0a fabd 3275 96bd 3743 f7bc
00000130: 0ede be3d 8bb2 99be 55af 43be 8fde 0b3c
00000140: 2915 b13d 5c85 c33b 3db9 2a3d 8c14 a1be
00000150: 5961 61be db89 cc3e 7040 293e 9740 27be
00000160: 834b 053e f196 93be 9972 f83c 4fd3 8c3d
00000170: d6a9 853e 44a9 c0bd d2a7 90be c0fd 373e
00000180: 703e 973e af4f 4d3e 19a0 67be 016e 81be
00000190: 208d 3b3e 46ef 15bd 51d9 7bbd 96c7 e5bc
000001a0: 6202 453c d16c c73e ddc3 0cbe efb4 aa3d
000001b0: 1d76 b83d 8efc 2b3e 2ca6 e8be bc8b a93d
000001c0: f4df 8d3e 0072 fa3d 199f d7bd a17e 14bd
000001d0: 5e0c cb3d 43fd 89bc 1fc6 fbbd 7d12 0ebf
000001e0: aec4 c1bd 6333 32be efcb 91be 9bc3 d1bb
000001f0: a4a7 f43d 47cf 393d df2c 853e 5fa5 063d
00000200: b8c2 093f 48f6 0f3d af0d 36be f843 b1bd
00000210: 936d 5e3e e68e f53d ad59 71bd e57e 263e
00000220: 2768 343e f269 b9bd fbf8 80be a051 eebd
00000230: f07e 63bd 24bd 84be abdf b1be 5f04 a9be
00000240: a395 7b3e 3491 01bb 662a 293d ab96 92be
00000250: a1aa 223e 46a5 653e b97b 84bc 75ba e7be
00000260: 5794 363e 8dbd c03d 87bd 323e b9f7 77be
00000270: e6c4 7f3d 44e6 113d 0d76 b4bd 3cf1 f1bd
00000280: bde7 78be b775 e7be 8f39 eebd 40d9 bcbc
00000290: 5e06 8c3c ca0a 603e 939b 243c 8e69 173e
000002a0: c991 b83d 6b8d 063e 8581 d3bd 526a d9bc
000002b0: c54c 5fbd 009b 613d c1be 44be 5095 023e
000002c0: 80fb 203d 9792 993e 6711 2c3e 66c3 303e
000002d0: 1692 26be 6f17 4b3e 4b2a 913d e64b 2dbe
000002e0: 2f53 59be 6d99 97be 6ab6 febd 3e12 bbbd
000002f0: e48e f73d c2fd 58be b7c9 bfbc 1685 2cbe
00000300: b735 063f 5f8f 2bbe 7859 d8bd 4ea1 6abe
00000310: 4e26 e5bc 72f3 5d3c eed7 8fbe b811 7abc
00000320: 4389 ed3e 757f 643d f8d6 e7bd 29e8 21be
00000330: 46bf 9abe ea8b df3d bf1c 08bf 2b2a 8ebe
00000340: ec41 a1bd 1f4e 543e def5 b2be 7e18 8abe
00000350: 51e0 84be 269d 933e f77b 853d 29b1 08bf
00000360: e138 00bd 3176 8dbe 8000 3d3d 338e 03be
00000370: 0155 17bd 93bc 4b3e 90e4 3abe c991 163e
00000380: a7ae 0e3e 286b a43d aa5e acbd 427d c33d
00000390: cf9c dd3d 349d acbe 7283 8fbe de44 173e
000003a0: 2bd0 43bd b7b6 d93d 9378 263e 6b77 043e
000003b0: a396 b83e 342d eabc bc40 b83e 9d03 1ebe
000003c0: 12b8 37bd 296d bbbd 1d7f 6f3d b1b0 8abe
000003d0: f430 f6be 52c5 0dbe ab94 2e3e 1869 b43e
000003e0: eed0 6b3e 8118 403e f532 92be a5b6 16bd
000003f0: ee61 5ebe f4c8 2bbe 9a53 cb3e b2b4 4c3d
-0.24422228 0.081777 0.15897295 0.20997222 0.17522682 -0.08863668 0.18566197 0.27550012
0.12152849 0.040651064 0.18688847 -0.11868404 0.057041302 0.03899111 0.3261661 -0.017866468
0.2713137 0.18763664 -0.019633124 0.14946808 0.24851264 -0.25013697 0.25250405 0.7497521
0.08792659 0.15531683 0.007922584 -0.1298682 -0.037168782 -0.10966814 0.014683909 -0.103983015
0.16005464 0.046299852 -0.051756 -0.025095133 0.19888303 0.17665406 -0.4637274 0.11866255
-0.036608603 0.08218938 -0.42952937 -0.22416115 -0.1283382 -0.028771264 0.24267632 0.29133922
-0.16967657 0.018090412 0.15580705 -0.33479303 -0.106143765 -0.1742404 -0.22676946 -0.15383512
-0.086465165 0.07212904 0.053049643 -0.11528538 0.07785894 0.06127267 -0.037309077 -0.12905805
0.1392967 0.38924322 0.133193 -0.051506665 0.063154936 0.06466352 -0.011299579 -0.23033732
0.14001061 -0.12209079 -0.07346572 -0.030183418 0.09319697 -0.3001903 -0.19109853 0.008536949
0.08646614 0.0059668254 0.041680563 -0.3146099 -0.22009791 0.39948925 0.16528487 -0.16333233
0.13017087 -0.28826097 0.030328082 0.068762414 0.26106137 -0.09407285 -0.28253037 0.17967892
0.29539824 0.20049928 -0.22619666 -0.2527924 0.18315554 -0.036605142 -0.061486546 -0.028049272
0.012024494 0.38950208 -0.13746591 0.083352916 0.09006903 0.1679556 -0.4543928 0.08278605
0.27709925 0.12228775 -0.10528392 -0.036253575 0.09914468 -0.016844397 -0.12293648 -0.5549696
-0.09461342 -0.17402415 -0.284759 -0.006401492 0.119460374 0.04536369 0.26010796 0.032872554
0.5381274 0.03514698 -0.17778657 -0.08655542 0.21721487 0.11990146 -0.058923412 0.16259344
0.17617856 -0.090534106 -0.25189957 -0.116366625 -0.05554098 -0.25925553 -0.34740958 -0.33011147
0.245688 -0.0019770386 0.0413002 -0.28630576 0.15885402 0.22426328 -0.016172277 -0.45259443
0.17830025 0.09411154 0.17455111 -0.24215592 0.062443636 0.03561999 -0.08811579 -0.1181359
-0.24307151 -0.45206997 -0.11632072 -0.023052812 0.01709288 0.21879116 0.010046857 0.1478636
0.09012181 0.13139884 -0.10327438 -0.026539955 -0.054516573 0.05507946 -0.19213392 0.1275227
0.03930235 0.29994652 0.16803513 0.17262039 -0.16266665 0.19833158 0.07088145 -0.16923484
-0.21223138 -0.29609242 -0.124371365 -0.09134339 0.12087801 -0.21190551 -0.023411615 -0.16847643
0.5242571 -0.1675391 -0.1056394 -0.22913095 -0.027972367 0.013546811 -0.2809443 -0.015263014
0.46393785 0.055785615 -0.11320299 -0.15811218 -0.30224055 0.10915358 -0.53168863 -0.27766547
-0.07873902 0.20732926 -0.34953207 -0.2697181 -0.2595239 0.28830832 0.06517785 -0.53395325
-0.031304244 -0.27629235 0.046143055 -0.12847213 -0.0369463 0.19896154 -0.18251252 0.1470405
0.13933812 0.08028251 -0.08416493 0.095453754 0.108209245 -0.33713686 -0.28029972 0.14772364
-0.047805946 0.10630553 0.16256933 0.1293618 0.36052427 -0.028586008 0.35986888 -0.15431066
-0.044853278 -0.0915168 0.058470834 -0.2708793 -0.48084223 -0.13844803 0.170489 0.3523643
0.23028919 0.18759347 -0.28554502 -0.036795277 -0.21717045 -0.16775876 0.3971222 0.049977012

actor.init_next_embed.2.add_bias._bias f4 [64, 1]
00000000: d9f6 203e acbc b9be bd5e 8bbd 24b9 80be
00000010: 2a77 08be 1e07 ba3d 0456 2bbe 930a 223c
00000020: 5738 8fbe 0329 09be acb4 f5bc dc02 90be
00000030: c5cc 99be 508b 8ebc 5ede 733e 54ac 2b3e
00000040: 81e8 8b3e 12f0 ac3e 449d 2bbf 602a ddbe
00000050: 7efa 06be 8e0c 87bd 2b26 1a3e 6b8e b23d
00000060: a159 0c3e 9eec 18bf d0b1 07be 34aa 5e3d
00000070: 2353 b6be 49bc acbd 2ec0 b23a 25e5 aa3e
00000080: 312c 293c 80c2 503e dd40 223e 9d18 bb3c
00000090: 14c4 843e 241c 523e 6bd7 b5be b204 293f
000000a0: 82c6 3abf f8bf cebe 76d3 d7be a467 20bf
000000b0: 8ef3 18be 52dc babe a67b 3abf 07c8 2f3e
000000c0: 3032 fd3e 609a 0cbf 72fb 59bf 68a4 10bf
000000d0: 644d 1f3e ccba 0a3f 1298 21bd 09ec 0fbe
000000e0: d73a 41be 3db6 a4bc 8ad8 52be 6da7 9a3d
000000f0: 9a4d f33e 1bec 14bf 781f 803e 71a8 fa3e
0.15719165 -0.36276758 -0.06805179 -0.2514125 -0.13326707 0.09083389 -0.16732031 0.009890216
-0.2797267 -0.13394551 -0.029993378 -0.28127182 -0.3003904 -0.017400414 0.23815295 0.16764957
0.27325824 0.3377691 -0.67036843 -0.43196392 -0.13181493 -0.065941915 0.15053622 0.0871857
0.13706066 -0.5973605 -0.13251424 0.054361537 -0.35610303 -0.0843435 0.0013637596 0.33377948
0.010325477 0.20386696 0.15845056 0.022838885 0.25930846 0.20518547 -0.35515913 0.6602279
-0.7295915 -0.40380836 -0.4215352 -0.62658143 -0.14936659 -0.36496216 -0.7284492 0.17166148
0.49452353 -0.5492306 -0.851493 -0.56500864 0.15556866 0.5419128 -0.039451666 -0.14054884
-0.18870102 -0.02010643 -0.20590416 0.07551465 0.47520143 -0.5817277 0.2502401 0.48956636

actor.embedder.layers.0.0.module.W_query.weight f4 [64, 64]
00000000: 9bc6 2cbe 59f4 683d 1140 eebd fafa 00be
00000010: 0a58 17be 230b cabc aee3 e1bd a170 b33c
00000020: f0b8 b2bc ff5e 21bd 545d a33d fe18 67bb
00000030: ff6b 793d f9f4 213d af27 333d 5a03 8fba
00000040: 8583 cdbd 94d8 4d3d 0a35 443d c27b 023e
00000050: fce0 0cbd 539e 833c f2ad 7abd fe77 37be
00000060: 2ae9 9639 eff4 613c 9733 9a3c 46e6 bdbd
00000070: e3ca edbd c8d2 ce3d 0519 29be c04b e43c
00000080: eaa0 f93d 6ffe 17be 5ded eabd 9164 683c
00000090: 39b2 efbd b968 be3d 83e8 df3c eaab 613c
000000a0: 601b 473e 21e2 e2bd 7f25 0ebe 6f8d 6dbe
000000b0: 697c 013d 2c14 3abe 77ad ed3d e655 8c3d
000000c0: c9b8 c93d 74a4 2fbd 341b 42be 89bd 10bd
000000d0: a22a 1ebe 3b03 efbc ccf7 0fbd 4a7c 17bd
000000e0: a447 7dbe 22b2 8abd c99c f5bd 9012 073e
000000f0: c326 b4bd 0cbe 163d 93f0 153e 9abe 853d
00000100: 4f1f 853d 03b8 a53d 32dd 9ebc 00ac 143d
00000110: fc5d f1bb 762f cc3d 0e41 a13d cdce 0d3d
00000120: 8b00 c53d ed74 09be eedb bebd c10d 183d
00000130: 25f6 9b3d a55c f3bd 7fbb 7d3d 923c 9bbc
00000140: d3d4 6e3d de3d f33b 6ad4 d0bd 6fc5 983d
00000150: 0563 a6bb 5299 033e d1e2 103e ff2f 04bd
00000160: 4743 a63c 6aa1 b4bd 6c92 673d 6d26 b9bd
00000170: 9bef c43d 1255 dfbd ac72 193e 3c20 a53d
00000180: 7158 ffbd 7819 9fbc 3837 943d 2537 1bbd
00000190: bbd1 89bd 9228 41bd 5e58 a6bd 9c14 58bc
000001a0: 2408 d23d 8634 e0bc 378b d23c a35b 823d
000001b0: 4d24 233d a6d9 913d 1373 74bb ca58 25bd
000001c0: 03eb 5fbd 2804 fc3d 5e8e 803d fa31 213d
000001d0: bedd b03c 72d5 ddbd 5428 15be 6a98 853d
000001e0: 3bf5 a93d a05b 0c3e 81ed e13d ecb1 12bc
000001f0: 4ee6 da3d d124 72bd bac7 16be 464c b53c
00000200: a18b 2abd 80db f33d 950a 053e 2569 2bbd
00000210: 5e5e d53b 912e 953d 60e8 06be f13d 623d
00000220: 8a2f 473d 7934 f13c f901 8cbd dd12 033e
00000230: 2639 9abd 8cfa 6e3d 6355 33bd c763 e5bd
00000240: dbf4 22bb 8709 cabc 431f aabd 8702 bfbd
00000250: 9839 9d3d 94b1 e43c 72b0 1cbd 762f 15bc
00000260: 3916 3a3b 0e83 be3d d1de a5bc 1e96 ffbc
00000270: d7d2 983d f96a 94bc 9ad2 653d 3d44 1b3d
00000280: 5a63 003e 9022 be3c 267b 173d b830 513d
00000290: a306 60bc 2c22 f73d fc00 8dbd 5d20 95bd
000002a0: a813 b4bd 9d21 763d d46b ea3d 57d7 f0bd
000002b0: 87c6 89bd 8527 c3bd 1a89 8bbc a5cb a8ba
000002c0: bb6d c1bc bc6b 05bc 4872 9dbd 0426 b73d
000002d0: 6bf4 96bd b3e4 033d 7706 46bd dc2c 54bd
000002e0: cfd6 0d3e d98d 1cbd ed14 a0bc b71c ae3d
000002f0: ae92 e83d 703e abbd cfad a23d 9409 ff3d
00000300: 494a 373d 73ca fc3d 7fbc f23c d522 283e
00000310: ce78 ecbc 23b8 acbd e4b6 b9bd 35aa ccbd
00000320: f2d4 30bd 48c6 bdbd db77 06be f2ab 02bd
00000330: 9178 b5bd eaea 743b 090e e73d b3be 5e3d
00000340: dfa4 233c bdc7 833d 87cf 99bc c3ba 63bd
00000350: db7a e13d 719d 3c3d c326 b13b 9d54 603d
00000360: c4a5 01bd 5a25 c13c 0199 08be 7d0d 84bd
00000370: d0fa 253e eb00 f23d e374 b0bd 8cf2 173e
00000380: 42be 5b3e 6a1c 61bd 4040 413c dbff d93d
00000390: 6bd1 813d 2e9f 0a3e 1163 a03c e80c 09be
000003a0: 1685 2b3e e137 d23b d00c 01bb 314b 0a3d
000003b0: 08a6 ddbd 7242 98bd 139c e23c a9e6 edbd
000003c0: 7341 d23d 0a36 bf3c 7326 a5bd e4ab 9a3c
000003d0: 4fdd 0cbe 03f7 ee3d f382 42bd e8c4 5a3c
000003e0: 42d6 7bbd 0fa5 ae3c 4205 473d b9c7 adbc
000003f0: 9255 65bd 155e 16bd 2d87 aa3d e495 f93c
-0.16872637 0.056873653 -0.116333134 -0.1259574 -0.14779678 -0.024663514 -0.110297546 0.021904292
-0.0218167 -0.039397236 0.07976785 -0.00352627 0.06089401 0.039540265 0.043739017 -0.0010911033
-0.10034851 0.050255373 0.047902144 0.12742522 -0.03439425 0.016066706 -0.061201043 -0.17916867
0.0002878395 0.013791307 0.018823428 -0.09272437 -0.11610963 0.10098797 -0.1651345 0.027868152
0.12188895 -0.14843152 -0.11471055 0.014184133 -0.11703915 0.09297318 0.02733255 0.013773898
0.19444036 -0.11078287 -0.13881491 -0.23198484 0.031612787 -0.18171757 0.116053514 0.06852321
0.09849698 -0.042881444 -0.1895569 -0.035337005 -0.1544595 -0.029176345 -0.035148427 -0.036983766
-0.2473436 -0.067722574 -0.11992795 0.13190675 -0.08796456 0.036802337 0.14642553 0.06530495
0.06500112 0.08091738 -0.019392584 0.036296844 -0.00736594 0.0996999 0.07873736 0.03462105
0.09619244 -0.1342351 -0.09319292 0.03712249 0.07615308 -0.11882905 0.06194639 -0.01894978
0.058308434 0.0074231466 -0.10196765 0.074595325 -0.005077722 0.12851456 0.14149024 -0.032272335
0.020295752 -0.0881985 0.056536123 -0.09040532 0.096160136 -0.10904898 0.1498515 0.08062789
-0.12468041 -0.019421324 0.07237095 -0.037894387 -0.06729456 -0.04715783 -0.081223235 -0.013188507
0.10255459 -0.027368795 0.025701148 0.063651346 0.03982954 0.07121591 -0.0037300035 -0.04036788
-0.054667484 0.1230548 0.062771544 0.039354302 0.02159011 -0.10831727 -0.14566165 0.06523211
0.08298727 0.13706827 0.110316284 -0.008953553 0.106884584 -0.059117142 -0.14724627 0.022131097
-0.041637067 0.11907101 0.12992318 -0.04184832 0.0065114936 0.072842725 -0.13174582 0.055234853
0.04862932 0.029443966 -0.06836314 0.12800165 -0.075304314 0.05834441 -0.043782603 -0.11200672
-0.0024865184 -0.024662746 -0.08306744 -0.09326654 0.07677001 0.027916707 -0.03825421 -0.009105554
0.0028394593 0.093023404 -0.020247849 -0.031199511 0.074620895 -0.018117415 0.05610905 0.037906874
0.125379 0.02320984 0.036982678 0.051071852 -0.013673457 0.12067065 -0.068849534 -0.072815634
-0.08792812 0.06009065 0.11446348 -0.11759823 -0.06727319 -0.09529022 -0.017033149 -0.0012878074
-0.023611894 -0.008143362 -0.07687813 0.08942798 -0.07370838 0.032200526 -0.04834601 -0.051800594
0.13851474 -0.038221214 -0.019541228 0.08501571 0.11356102 -0.083615184 0.079433076 0.12452999
0.04474858 0.123433016 0.029630898 0.16419537 -0.028866198 -0.08433559 -0.09068087 -0.09993402
-0.04317183 -0.09266335 -0.13131659 -0.03190226 -0.08860887 0.0037371465 0.11281974 0.054381084
0.009988039 0.064345814 -0.018775715 -0.05559803 0.11009761 0.046048585 0.005406232 0.054768194
-0.031652227 0.02357738 -0.13339616 -0.06447885 0.16208959 0.11816581 -0.08616044 0.14838618
0.21459296 -0.05495874 0.011795104 0.10644504 0.063387714 0.13537285 0.019578489 -0.1338383
0.16749987 0.0064153527 -0.0019691475 0.033763114 -0.108226836 -0.074345484 0.027662313 -0.116162606
0.1026639 0.023341198 -0.08063974 0.018880792 -0.13756298 0.116682075 -0.047488164 0.01335261
-0.06148363 0.02131894 0.048589 -0.0212134 -0.05598981 -0.036710817 0.08326564 0.030466981
