pretrained_models/experiment/Discrete_A2C_10x10x10Bin_s42_inh_800_defaultBox-2022.08.20-14-32-58/PCT-Discrete_A2C_10x10x10Bin_s42_inh_800_defaultBox-2022.08.20-14-32-58_2022.08.20-16-34-34.pt (torch, 236314 bytes, 24 tensors)

actor.init_internal_node_embed.0.module.weight f4 [32, 6]
000000 99 54 b7 3b 30 3b 93 3e 34 9e f1 3c 3a a3 b6 be
       0.0055948016 0.28756094 0.029494382 -0.35671407
000010 c1 32 df 3d c2 4d a4 bd 98 71 c1 3e 72 41 ba 3e
       0.108983524 -0.080226436 0.37781978 0.36378056
000020 45 1f 7f be 6d 71 91 be 8b 1f 85 be 20 6c c8 bd
       -0.24914272 -0.2840685 -0.26000628 -0.09786248
000030 b0 b2 e1 3d 86 39 cb 3a 90 ef 02 be ff 3b 23 3e
       0.1102041 0.0015504814 -0.12786698 0.15940855
000040 1d d4 64 be 33 45 df bd 76 ad de bd f2 c2 b9 3b
       -0.2234654 -0.109018706 -0.10872929 0.0056689912
000050 d1 c2 f4 be 9c 6b 9d 3e 07 22 70 3e 59 48 06 3f
       -0.47804883 0.30746162 0.2345048 0.52454144
000060 62 3a 13 3f df f1 81 3d e0 63 09 3f da 69 b9 3e
       0.5751096 0.063449614 0.5366802 0.3621357
000070 b2 3b 8a 3d 67 a9 6b 3d bf a5 39 3d 71 32 94 3d
       0.06749667 0.0575346 0.045324083 0.072361834
000080 99 03 4c be 32 3f a9 3d 9d 0f 03 bf aa 6f c2 be
       -0.19923247 0.08264007 -0.511957 -0.37975818
000090 f2 5b 50 bf b5 11 2e 3f 1a 4d da 3e d4 ce 51 3f
       -0.813903 0.6799577 0.4263695 0.8195622
0000a0 72 a3 47 bf f1 b5 f1 bd 95 6d 87 3e 86 d1 8d bd
       -0.7798377 -0.11802281 0.26450792 -0.06924729
0000b0 d4 0c 72 3f 36 5a b2 bd 2e f0 fe be a3 8e 2f be
       0.94550824 -0.087086126 -0.49792618 -0.17144255
0000c0 86 37 42 bf fc 33 ab be 25 87 e5 be 41 b5 06 3f
       -0.7586597 -0.33438098 -0.4482967 0.5262032
0000d0 12 cd e9 3e 32 e7 10 3e e5 33 30 3f 05 57 07 3d
       0.4566427 0.14150694 0.68829185 0.033041973
0000e0 23 1e d8 be 70 16 21 3f 98 6d a3 3e aa ff 06 be
       -0.42210492 0.6292486 0.3191955 -0.13183466
0000f0 03 4c 4e 3c 56 ee b0 3e 54 1c 67 be 05 70 87 3c
       0.012591365 0.34556836 -0.225694 0.016532907
000100 66 ad 64 3e 94 4b c2 be 71 18 61 be d2 4e ec 3d
       0.22331771 -0.37948287 -0.2198198 0.11538471
000110 07 8b f5 bd 07 c9 5b be ce 21 51 bd 76 82 89 be
       -0.11989408 -0.21463405 -0.05105763 -0.26857346
000120 8e 6d cd 3e 5c f6 9c be 0b 2d 9d bd 3c 2e 27 3e
       0.40122646 -0.30656707 -0.07674607 0.16326231
000130 81 31 ba bd f8 11 0a be a7 13 29 3f ca ea bd 3e
       -0.09091473 -0.13483417 0.6604561 0.37093192
000140 21 db 31 be 28 dc c2 be f8 81 47 3e 3d 1f 02 bd
       -0.17368747 -0.3805859 0.19483173 -0.031768072
000150 79 11 17 be 7c d0 04 bd 16 94 d8 be a7 0b b4 3d
       -0.14752759 -0.03242539 -0.4230048 0.08791285
000160 e7 e9 cb 3e 7c be eb be e6 a7 1e bd 23 b5 9a be
       0.3982689 -0.46043766 -0.03873434 -0.3021632
000170 ba 9c ed bd 69 d9 d6 3d 70 3a 8d 3e 05 1c e2 be
       -0.11602159 0.104906864 0.27583647 -0.44162002
000180 7f c3 79 3e 1a c8 50 be c4 11 8a 3f 9a c9 36 bf
       0.24390982 -0.20388833 1.0786672 -0.7140137
000190 7a 65 a3 3e 18 58 84 bd da eb a8 bd e2 59 72 3d
       0.31913358 -0.06462115 -0.0824811 0.05916775
0001a0 46 89 8c 3d 2f da 31 3e 93 c9 ef be 8c a9 4d be
       0.0686212 0.17368387 -0.46833476 -0.20084208
0001b0 a0 5a 88 bd 0a 0a bd bc 88 0e 22 bf 70 9b 13 3d
       -0.0665791 -0.023076076 -0.6330342 0.03603691
0001c0 92 9c bb 3c 66 9f e4 3d a5 82 a8 3e 9c 32 a9 be
       0.022901807 0.11163215 0.32912174 -0.33046424
0001d0 2d d5 a7 3a e9 49 d1 be 85 d3 a8 3d 75 a8 d3 3e
       0.001280462 -0.408767 0.08243469 0.4133946
0001e0 77 92 e3 3e 12 67 4f 3f b6 5d 42 bc 43 09 be 3e
       0.4444768 0.8101665 -0.011863163 0.3711644
0001f0 88 9f fb 3d 7b 11 11 bf 23 8b 4b be aa 16 93 bd
       0.122862875 -0.566673 -0.19877295 -0.07182057
000200 46 b3 41 be 10 c6 80 3d 64 7c b4 bd 93 a4 df be
       -0.18916044 0.062877774 -0.08812788 -0.43680248
000210 f1 64 0a bf 3a 65 07 bf b8 6e 86 be 91 72 03 3f
       -0.54060274 -0.52888834 -0.26256347 0.5134669
000220 1e bc 73 3e 17 42 57 3e fa a5 ad 3d 9c af 77 3d
       0.2380223 0.21021305 0.08478923 0.06047021
000230 a8 74 83 bf cd dd 53 be 3d 05 be be 17 9b 44 3f
       -1.0269976 -0.20690079 -0.37113371 0.7679915
000240 48 8d 3d be 2c 00 57 be c1 09 23 3f b3 d5 0a 3e
       -0.18510926 -0.2099616 0.6368676 0.13558082
000250 72 3c e4 3c e4 5e 1c 3d 31 6d 16 3d a8 da 08 bd
       0.027860854 0.038176432 0.036725227 -0.03341165
000260 3e 8d e6 3e 68 c2 9e be 3f 4b 71 be 0b f7 d9 3e
       0.45029634 -0.31007695 -0.2356386 0.4257129
000270 78 0a 61 bb 39 e7 d9 3e c3 f4 fc bd 4b 43 af 3d
       -0.0034338515 0.4255922 -0.12351372 0.08557757
000280 1f 6d 02 3e 76 53 9a be d5 15 ef bd 97 12 ad 3d
       0.12736939 -0.301418 -0.11674086 0.08450811
000290 de bd 49 3f 8f 74 9c be f1 f2 0c 3e dc 3a 32 3e
       0.7880534 -0.30557677 0.1376455 0.17405266
0002a0 35 50 9e be 60 15 27 bf 28 e6 f9 bc ce 0e 95 3b
       -0.30920568 -0.6526699 -0.030505255 0.004548884
0002b0 37 5c 58 bd 37 37 8b be 1c 21 a3 be ce 94 38 3e
       -0.052822318 -0.27190563 -0.31861198 0.18025514
0002c0 b6 14 78 3e 28 0d 1a be bf 4c a4 3d 03 80 77 bd
       0.2422665 -0.15044081 0.08022451 -0.060424816
0002d0 6d 13 1d 3e af 30 47 3e b3 eb 25 bd 68 41 40 3c
       0.15339442 0.19452165 -0.040507983 0.011734344
0002e0 cc 60 1b be 91 42 8a be 22 e0 f6 3e b9 c0 79 3e
       -0.15173644 -0.2700391 0.48217875 0.24389924
0002f0 18 dd 19 bf 81 f1 b6 be 4a a6 4a be ba 0e 8c 3e
       -0.6010299 -0.35731128 -0.19789997 0.27354985

actor.init_internal_node_embed.0.add_bias._bias f4 [32, 1]
000000 e4 84 4a bb 03 6f 7d 3b 9b 7b 01 bc 1d ce 33 3d
       -0.0030901963 0.0038670904 -0.007903005 0.043897737
000010 34 b1 c1 3d aa 30 4d bc 77 a2 93 bc 40 ee f9 ba
       0.09457627 -0.012523809 -0.018021805 -0.0019068196
000020 86 c7 35 3c 87 5b e1 3d 90 89 1a 3d 4d 77 70 3c
       0.011094933 0.110037856 0.037728846 0.014676881
000030 69 e5 9c 3c b8 1e 6b 3c 84 fb 2a bc 9e 03 53 bc
       0.01915236 0.014350586 -0.010435943 -0.01287928
000040 ce a8 67 3b b2 73 03 3b 49 a3 9e bb 6a 15 94 3c
       0.0035348418 0.0020057973 -0.0048412425 0.018076617
000050 a0 7d c2 3c f7 25 2d bd f0 2a 44 3c 5e 39 20 3c
       0.023741543 -0.042272534 0.011973128 0.009779302
000060 c4 b3 6a 3d ef 0b 8e 3b e8 b4 21 bb 27 a0 98 bb
       0.057300344 0.0043349187 -0.002467448 -0.0046577635
000070 08 46 43 bd bb 85 de bb 1b 37 77 bc 4c 99 83 bb
       -0.04767421 -0.0067908443 -0.015088822 -0.004016077

actor.init_internal_node_embed.2.module.weight f4 [64, 32]
000000 52 e6 a4 be cd 7d 2e 3e b9 2a 78 bd 27 cd 76 3e
       -0.3220697 0.17040177 -0.06058762 0.24101697
000010 7e c8 84 3f 0c d2 55 3d 9e d4 02 3e a2 d4 e7 3d
       1.0373685 0.05220227 0.1277642 0.11319853
000020 84 ef be be 68 38 4f be b4 a3 e2 be a7 3f e8 3d
       -0.3729211 -0.20236361 -0.4426552 0.11340266
000030 2d d8 89 be 87 8d 20 be 92 5e b1 3d e4 d8 3d be
       -0.26922742 -0.15678988 0.08660616 -0.18539768
000040 c2 0c 96 3e 11 85 1f bd 79 bd b5 bd a9 a9 14 3e
       0.29306608 -0.03894526 -0.0887403 0.14517845
000050 3e 6f 92 3c f4 0a 12 be 0c 04 97 be 7e 9a e1 be
       0.01787531 -0.14261991 -0.29495275 -0.4406318
000060 95 fe df bd a7 bd c2 3e 06 90 89 3c 3d a3 17 3f
       -0.109372295 0.38035318 0.016792309 0.59233457
000070 3b 42 8f bd 74 13 39 be 96 3f 55 be 5c d8 da bc
       -0.06995054 -0.18073827 -0.20825037 -0.026714496
000080 53 b9 91 bd b6 d7 f1 be 47 a8 5b be 91 13 86 bd
       -0.07115426 -0.47234887 -0.21450911 -0.06546701
000090 5d 95 1d be 7d c2 5d 3e 79 a6 a1 bb 54 7d da 3e
       -0.15389009 0.21656223 -0.004933175 0.42673743
0000a0 69 7a 63 bd bf 8f b6 bd aa 2c 46 3e ac 2e 4e be
       -0.05553666 -0.08914136 0.19352975 -0.20134991
0000b0 d1 1e 58 be 53 7f 1d bd ce c3 06 3e a7 3b 60 3e
       -0.21105506 -0.038451504 0.13160631 0.21897756
0000c0 f9 37 f0 bd 53 76 b1 bd 70 a1 e2 bd ce 92 7a be
       -0.11729426 -0.08665147 -0.11065948 -0.24470064
0000d0 7b a6 47 3e 59 52 f9 3c b9 49 c2 3e a2 af ca bd
       0.19497101 0.030434774 0.3794687 -0.098967806
0000e0 56 8d 38 3e 37 27 f3 bd a1 5d a6 bc 94 5f 11 3e
       0.18022665 -0.11872714 -0.020308318 0.14196616
0000f0 65 5c 8b be c7 69 45 3e 1d 6e 0c 3f 53 b7 cd 3c
       -0.2721893 0.19278632 0.5485552 0.02511183
000100 58 1e e1 3e 92 0f 43 be 40 d2 b7 bd 37 f8 df 3e
       0.43968463 -0.19048908 -0.08975649 0.4374406
000110 7b 43 3b 3e dd 6d 82 3e 28 ec a5 be 73 1f 54 be
       0.1828746 0.25474444 -0.32406735 -0.20715122
000120 b6 e1 e0 3e d5 39 36 3d 16 7b a0 be 57 1a 92 be
       0.43922204 0.044488747 -0.31343907 -0.2853572
000130 a6 ba d3 3e 39 e1 9f be 5f 25 14 3c b6 f8 45 bc
       0.4135334 -0.3122652 0.009042113 -0.012083223
000140 4d 4c 7e 3e 7c f8 d4 3d 46 f2 60 be 22 be 7f 3d
       0.24833794 0.10398957 -0.2196742 0.062437184
000150 d1 88 d2 be 2b c7 02 3d e4 d3 d2 3e 5d 47 bc be
       -0.41120008 0.031928223 0.41177285 -0.36773196
000160 cd 4d 0a be 9b 5e a0 bd 1f 0f df be ce 0b 85 3e
       -0.13506241 -0.078305446 -0.43566224 0.2598557
000170 6c 16 65 bd cb dd 61 bc 6e 59 6b 3e c6 40 1d bd
       -0.055929586 -0.01378579 0.22983333 -0.03839185
000180 07 59 4b 3d 64 c5 ea 3e 88 48 94 bd ab f2 62 3e
       0.04964545 0.45853722 -0.07240397 0.22162883
000190 b4 a7 e1 3d 0a f5 14 be 71 ea 89 be 89 ae 38 3d
       0.11018315 -0.145466 -0.26936677 0.045088325
0001a0 68 c2 62 3e 01 d9 b4 3d d2 f0 a9 3e ea c7 b7 3e
       0.22144473 0.08830453 0.33191544 0.3589471
0001b0 7d 1e 92 be dd 72 8f 3c f8 06 05 3e cd 3f 09 be
       -0.28538886 0.017510826 0.1299094 -0.13403244
0001c0 4b 50 d7 bd 80 e7 51 be 64 96 46 3d d1 9a 2b be
       -0.105133615 -0.20498466 0.048483267 -0.16758277
0001d0 15 19 7f 3e 6a 58 e4 3c db 8e c7 3e 6e de 51 bd
       0.24911912 0.02787419 0.38976178 -0.051237516
0001e0 fc e5 d2 be 76 48 04 3e f2 0e c5 3e d9 be 4b 3a
       -0.4119109 0.12918267 0.38487965 0.0007772274
0001f0 f0 d5 15 3e 37 84 6c 3e ef eb 67 3e f7 16 c7 3d
       0.14632392 0.23097311 0.22648595 0.09721177
000200 38 29 8f be 03 56 35 3d dd 55 6c 3e 08 94 98 be
       -0.27961135 0.04427148 0.23079629 -0.2980044
000210 5b f0 a5 be 6e d4 72 3c f6 2c 1b be 82 30 fc 3d
       -0.3240994 0.014821155 -0.1515387 0.1231394
000220 85 32 1f be c8 7e db 3e e3 27 e7 3e b9 b0 8d bd
       -0.15546615 0.42870164 0.4514762 -0.06918473
000230 9a 05 bd 3d 32 69 f1 3d 9d a9 da bd 06 05 ea bc
       0.09229584 0.117876425 -0.106768824 -0.028566848
000240 3d 48 be 3c f5 0d ea 3d d7 ec d2 bd 58 01 75 be
       0.023227805 0.11428443 -0.1029908 -0.23926294
000250 68 fc 68 3e 66 65 75 3d e4 79 af 3d b9 06 74 be
       0.22752535 0.059911154 0.08568171 -0.2383069
000260 8a 37 86 bd 1a 1f d3 3d 2d 92 b6 3e 05 b6 c4 be
       -0.06553562 0.103086665 0.35658398 -0.3842012
000270 48 77 9a 3e 60 f3 1f 3c 6a 2d 17 be 1e c7 51 be
       0.3016913 0.009762615 -0.14763418 -0.20486113
000280 46 68 b4 3c 00 ca 54 3d 8d 59 39 be bf 00 e4 3e
       0.022022378 0.051950455 -0.18100567 0.4453182
000290 68 65 cf 3c 8d ff b6 bc 1b 26 88 3e ee 84 d1 be
       0.025316909 -0.022338653 0.26591572 -0.4092173
0002a0 22 cb 8f 3e 9a f5 61 3e bb d3 1b 3f 43 5b 3a 3d
       0.28084666 0.22066346 0.6086995 0.04549719
0002b0 fe b0 c5 3e 63 59 ec bd 98 c7 90 3e 17 73 8a bd
       0.38611597 -0.11540487 0.28277278 -0.06760233
0002c0 be 0a d8 bd c5 b9 26 bd c6 71 7e 3e 74 02 43 be
       -0.10548924 -0.040704507 0.24848089 -0.19043905
0002d0 cf c9 8a 3e 22 1e bc bd 20 7a cf 3d 48 4b 14 3c
       0.27107093 -0.09185435 0.10130715 0.009051152
0002e0 8f fc ec 3b 86 4c ff 3b f0 c3 50 bd be ea a6 be
       0.007232256 0.0077911047 -0.05096811 -0.3260097
0002f0 74 b2 9b bc f6 38 f8 3d eb 1d 92 3d de c7 3d 3d
       -0.019005992 0.121202394 0.07134613 0.046333186
000300 99 9a d2 bd e3 b9 c4 be ba 40 40 be 8c 17 19 3e
       -0.102833934 -0.3842307 -0.18774691 0.14950389
000310 f9 41 e4 3d 1e a0 18 3d 5d 6d b3 bd b2 ff 33 be
       0.11145396 0.037262075 -0.08761094 -0.17578009
000320 75 97 bf 3c 89 29 1a 3f 03 22 f1 be 1a 20 46 3e
       0.02338765 0.6021963 -0.4709626 0.19348183
000330 a0 12 88 3e 59 72 c4 3d a4 ca 35 be 05 2e f3 bc
       0.2657671 0.095921226 -0.17753083 -0.02968503
000340 85 c2 2c bd 7a 17 85 be 19 4b 57 3e 93 b8 53 3e
       -0.042177696 -0.25994474 0.21024741 0.20675878
000350 cd e5 70 bd 7b 5b c5 3d 2e b2 86 be 87 2d 96 3e
       -0.058812905 0.09636589 -0.26307815 0.2933161
000360 1c 5b 1b bf b5 12 6c be 91 08 23 3e 3f 3a de 3d
       -0.60685897 -0.23054011 0.15921237 0.10850953
000370 9b b1 f7 3c 47 6a e5 3e 2a 01 ee be 67 30 b3 be
       0.030236056 0.44807646 -0.46485263 -0.34997866
000380 0b 99 ab 3e 01 9e ce 3e 5b 03 80 3e 1d 11 02 be
       0.335152 0.40354922 0.2500256 -0.1270184
000390 62 71 a3 bd 79 7c b8 3d 5d cb f1 3e f4 20 64 3e
       -0.079806104 0.09008116 0.47225466 0.22278196
0003a0 31 09 1c bf 91 97 2e bf 93 f3 8b be 0c 3c a0 bd
       -0.60951525 -0.6820002 -0.2733427 -0.07823953
0003b0 55 c3 d5 3e db 76 b8 be 97 a8 e9 bd c4 ea 81 3d
       0.4175059 -0.3602818 -0.11409109 0.06343606
0003c0 a9 5c 7e 3d 37 30 d5 3b ee b8 1f 3d cd 20 1f 3d
       0.062100086 0.006505992 0.038994722 0.03884964
0003d0 2c a9 58 bf 58 f9 37 bd 69 3f a7 3e 62 0f cf 3e
       -0.84633136 -0.044915527 0.32665566 0.40441424
0003e0 1a fe 22 3f fe e3 40 3d 43 fc c2 be 97 e5 40 3d
       0.6366898 0.04709243 -0.38083085 0.047093954
0003f0 da 03 98 3d eb e6 20 3e a9 17 a8 be e4 8f 3d be
       0.074226096 0.15713088 -0.3283055 -0.18511921

actor.init_internal_node_embed.2.add_bias._bias f4 [64, 1]
000000 f9 9f cf bb e6 f7 c8 bc 61 bf 7b 3d 34 e4 ce 3c
       -0.006336209 -0.02453227 0.06146181 0.0252553
000010 2b 0c 2b 3b eb f7 40 3d 74 c2 45 bc 85 e9 bd 3c
       0.0026099782 0.047111433 -0.012070287 0.02318264
000020 a1 aa 06 bd 86 4e 28 bd f7 28 1e bc f1 29 00 bd
       -0.03287757 -0.04109051 -0.0096533215 -0.03129
000030 d1 61 b6 bc 62 96 4b bd df f7 46 bd 63 64 c8 bb
       -0.02226344 -0.049703963 -0.048576232 -0.0061154827
000040 7d ed 9e 3d c1 88 8b bc fe 0e 89 bc 21 20 25 bd
       0.07760141 -0.017032983 -0.016730782 -0.040313844
000050 d8 2a 6d bc 50 de d4 3c 37 2a 00 3d ca 71 c2 3d
       -0.014475547 0.025984913 0.03129026 0.0949436
000060 2d bd ac 3b 0b 56 73 bd c2 2b be 3b c8 8a 69 3d
       0.005271575 -0.05940823 0.005803556 0.057017118
000070 ff ca 30 3d 49 eb 3f bd cc 47 c3 3d de 5a 9c 3b
       0.043162342 -0.046855245 0.095351785 0.0047715744
000080 4d 13 df bc e9 95 6a bd 7a 03 53 bd 11 8e 32 bc
       -0.027230883 -0.05727187 -0.051516987 -0.010898129
000090 4a da 24 3c ac 0d 10 bd d6 51 80 3d 6b 05 1a 3d
       0.01006181 -0.03516929 0.06265609 0.037602823
0000a0 03 31 90 bd 44 46 ef 3c 61 c0 97 3d 62 4a 17 3d
       -0.07040598 0.02920831 0.0740974 0.03693617
0000b0 4e 62 d7 3c 19 98 16 bd c9 97 22 3d 8f 1f eb 3d
       0.026291993 -0.036766145 0.039695535 0.11480629
0000c0 fd 90 32 bb 13 7d a2 39 00 f9 3f 3d f6 36 1f 3d
       -0.0027247064 0.00030992235 0.046868324 0.038870774
0000d0 48 86 10 bd 4b 07 37 bd e8 6f 49 bd ab 44 90 3d
       -0.03528431 -0.04468469 -0.049178988 0.070443474
0000e0 e5 d9 12 3d 4c 07 fa bc 22 a1 9c 3c 9a 09 c0 bc
       0.03585233 -0.030521058 0.019119803 -0.023442078
0000f0 7e 53 af bc e2 6f a0 bb 58 e0 71 bc c2 d6 64 3c
       -0.021402117 -0.00489615 -0.01476296 0.013967218

actor.init_leaf_node_embed.0.module.weight f4 [32, 8]
000000 b4 b1 62 be dd 51 a8 be 51 6a 59 3e c2 51 58 3e
       -0.22138101 -0.32874957 0.21231963 0.21124938
000010 71 b3 ab 3c 42 42 01 3f d6 8f aa be 3f c3 9e be
       0.020959588 0.50491726 -0.33312863 -0.31008336
000020 6f 96 e6 be 25 5a fb bd fa 8b cb 3e 46 be 25 bd
       -0.45036647 -0.12273053 0.3975523 -0.040464662
000030 32 b0 56 3e 6f 4d 5f be 96 8d 7a 3e 93 04 58 bd
       0.2096565 -0.21806882 0.24468073 -0.052738737
000040 26 5b 5e 3a ce 8c 01 3e c0 3d 82 be 16 38 30 3c
       0.000848221 0.12651369 -0.25437737 0.010755559
000050 5f 0e 4d be 52 45 10 be 66 01 a2 3d b7 65 c5 bd
       -0.20025013 -0.14088944 0.07910423 -0.09638541
000060 3f e2 c3 be 58 81 e1 3c 7e 21 57 3e 9f 52 3b bd
       -0.3825855 0.027527496 0.2100887 -0.04573309
000070 db de ac 3e 0f c2 13 3d 13 7c 80 be db a0 49 3c
       0.33763775 0.03607374 -0.2509466 0.012306417
000080 03 0b 99 3c 4e b2 0d bf 13 34 ba 3e 4f 12 c1 bd
       0.018682009 -0.55350196 0.36367854 -0.0942732
000090 b9 52 c1 bd c4 db ab 3c 86 2d 2a be 19 bb 11 3e
       -0.09439606 0.020978816 -0.16618928 0.14231528
0000a0 32 ce b6 be b9 b1 82 bc 5c 7b 7e be f7 f8 39 3e
       -0.3570419 -0.015953885 -0.24851745 0.18161379
0000b0 81 96 25 be 69 06 fe 3d 3e c0 2b be 66 5a 30 3c
       -0.16170694 0.124035664 -0.16772553 0.01076374
0000c0 9a 4c 84 be f5 84 53 3e 88 31 9d bd 74 64 c3 3d
       -0.25839692 0.20656188 -0.07675463 0.09540644
0000d0 e8 a0 c0 bd 37 a1 c0 bd 9e b3 39 3d 92 28 27 3e
       -0.094056904 -0.09405749 0.045337312 0.1632407
0000e0 9c 18 51 3e 27 98 47 3e 79 d0 d1 3e 46 43 04 be
       0.20419544 0.19491635 0.40979365 -0.12916288
0000f0 42 e9 2d be dc 86 d7 bc c2 df 28 bf 7b 28 a8 bd
       -0.16983512 -0.026309423 -0.6596643 -0.08210846
000100 27 04 1f bd 5e 4b b6 3d 7a 78 59 3e 3e 2e 2e 3d
       -0.03882232 0.08901094 0.21237364 0.04252457
000110 59 61 7f 3d 01 b6 9a 3e a0 2f 57 3d 6a 5c 32 3d
       0.062348697 0.30216983 0.052535653 0.043545164
000120 b0 f7 fa be 8f 32 ff bd d8 35 88 3d 06 27 ac 3d
       -0.49017096 -0.12460815 0.06650895 0.08405881
000130 e2 a1 b2 3e c1 bf 54 be e5 5d d7 ba b9 5f 04 bf
       0.34889132 -0.20776273 -0.0016431181 -0.5170856
000140 17 6a d2 be 1f 73 8a 3d 18 7a ad be 7b 6a 0d be
       -0.41096565 0.06760239 -0.33882213 -0.1381015
000150 93 96 eb 3e 4a 41 8c 3e 5b 21 6b be b4 5d ff b9
       0.46013317 0.27393562 -0.22961943 -0.00048707204
000160 1a 1e 21 3e a1 91 88 bd 8b fb 95 3e 62 ea 55 be
       0.15734139 -0.066684015 0.29293475 -0.20890191
000170 4c a6 59 bd 31 11 8d be eb 3e d6 3e 29 94 58 3c
       -0.05313711 -0.27552179 0.41844878 0.013218918
000180 88 55 7a be 2c 55 42 be 8a c3 c3 3e 28 f6 e7 3e
       -0.2444669 -0.18977803 0.38235122 0.4530499
000190 58 08 88 3e 6e be af 3d 4a df ad 3e 1e 36 de 3e
       0.26568866 0.085812435 0.3395942 0.43400663
0001a0 fd cf 08 3e 1e cb ac 3e f4 ce 86 3e e5 43 74 bd
       0.13360591 0.33748716 0.26329768 -0.05963506
0001b0 73 a8 06 bf 57 db d8 bb 3f 4e 4a bd eb 74 65 be
       -0.52600783 -0.006617944 -0.049391028 -0.22407882
0001c0 a1 63 d8 3e 8f 2f d9 3e 06 cc bb 3d d0 48 dc 3e
       0.4226351 0.42419097 0.09169774 0.43024302
0001d0 20 f4 9a 3d a1 7c 14 3d 20 50 0a 3e 16 e2 1d 3e
       0.075660944 0.036251668 0.13507128 0.15418276
0001e0 ed 69 24 3d c5 bb c2 bd f7 32 99 bd 7a 7d 51 3e
       0.04014008 -0.095084704 -0.07480424 0.20458022
0001f0 72 da 2f be c6 bf 9b 3e 8d d3 2d 3d ab ae 31 3e
       -0.17173174 0.3041975 0.04243808 0.17351787
000200 75 cc 93 3e 8b cd 9b 3e 87 3d c9 bd 38 e0 db be
       0.28866926 0.30430254 -0.098261885 -0.42944503
000210 d1 4b c1 3c 94 9d 82 be f7 85 63 be ad f6 2d 3e
       0.023595722 -0.25510848 -0.22219072 0.1698863
000220 99 68 a4 be 50 23 94 3e ab c4 b7 be 61 c3 e8 3e
       -0.32111052 0.2893319 -0.35892233 0.45461562
000230 af 8d 24 be 5e f6 ca bd 78 f0 57 be e2 f2 62 3e
       -0.16069673 -0.09910272 -0.21087825 0.22162965
000240 f3 31 89 3d af 48 92 3b f0 4f 11 bf 15 8c 2c be
       0.0669898 0.004464231 -0.567626 -0.16850312
000250 f3 f0 79 3e d4 fe c7 3e 58 11 bf 3d b9 51 23 be
       0.24408321 0.39061606 0.0932948 -0.15949143
000260 57 0d 31 be 64 07 43 bd 5f 32 ee be 27 b2 bb bd
       -0.17290245 -0.04761447 -0.46522805 -0.09164839
000270 1a 7b 6b be ad 29 e3 be 86 3e 7f 3e ca 62 9f bd
       -0.22996178 -0.44367734 0.24926195 -0.077825144
000280 86 a6 1f 3e c4 9c 60 3c 87 85 3c 3e a8 66 de 3e
       0.15590867 0.013709251 0.18410312 0.43437696
000290 d9 a7 f5 3e e6 cc 97 bd 76 72 96 3e ad a4 9c bd
       0.4797962 -0.07412128 0.29384202 -0.07648597
0002a0 2e 5b 84 be b3 9c ef 3e 7a f5 17 3e e1 42 5f be
       -0.25850815 0.4679924 0.14839736 -0.21802856
0002b0 e9 83 aa 3e 3d 2d 87 be d0 2c 2b bd 85 7a 49 3e
       0.33303764 -0.26401702 -0.041790783 0.19675644
0002c0 9b a4 21 3e bb 12 d0 be 92 65 24 be d3 e2 b0 be
       0.15785448 -0.4063929 -0.16054371 -0.34548053
0002d0 b4 28 c4 3e 5e af 99 bc 12 fd e1 3e 0d 1c 6b 3e
       0.38312304 -0.01876038 0.4413839 0.2295992
0002e0 b0 af 80 3d 8d ea 07 3f d5 e5 60 3e f9 86 17 bf
       0.0628351 0.5309227 0.21962674 -0.59190327
0002f0 63 b8 11 be 70 ab 1d 3f ac dd 0f 3e 11 3e ca 3e
       -0.14230494 0.6158972 0.14049405 0.39500478
000300 b7 20 18 be 9a ef 9a be 4b ea 26 be 75 16 13 be
       -0.1485623 -0.30260926 -0.16300313 -0.14364035
000310 0a 36 38 3e 76 a6 8b be 5e d5 9a bd ca 4f 16 3f
       0.17989364 -0.27275437 -0.07560228 0.587155
000320 a5 a2 28 3e 55 4a bc bd 5e 26 42 be de 31 15 3e
       0.16468294 -0.09193865 -0.18959948 0.14569804
000330 7d d6 c2 be 4c b2 92 bc 9e 2c a2 bb cf 25 ba 3e
       -0.38054267 -0.017907284 -0.0049491664 0.3635697
000340 cd fb 7e be 51 30 3e 3e cc 2e 03 3e 99 b7 83 be
       -0.24900742 0.18573119 0.1281082 -0.2572601
000350 b9 ef e7 be 60 8f c2 bd b9 0b d0 3e b1 12 44 be
       -0.4530008 -0.09500003 0.40633944 -0.19147755
000360 06 f3 13 be 37 dc 8a 3e c2 e1 91 3e 20 9f 1b 3e
       -0.14448175 0.27121136 0.28492552 0.1519742
000370 69 6c e7 bd 56 e0 eb 3e 65 5c 9c 3e 15 dc 43 be
       -0.112999745 0.46069592 0.3053924 -0.19126923
000380 91 3b 46 3d 7b d8 64 bc d7 b7 ac 3e f5 55 17 be
       0.04839665 -0.013967629 0.3373401 -0.14778884
000390 cc 34 f8 bd a7 f7 00 bf 60 38 76 be d6 e0 b8 bd
       -0.12119445 -0.5037789 -0.24044943 -0.09027259
0003a0 86 ca b3 3e d1 e1 8b 3e e6 80 6b be 23 84 2a 3e
       0.3511545 0.27320722 -0.2299839 0.16651969
0003b0 63 5b 00 3f 24 97 1f bd 73 cd 24 3e 62 4f ff be
       0.50139445 -0.0389625 0.16093998 -0.49865252
0003c0 64 12 4a 3d 1d 9d ba be 6c 1c 39 be 32 46 b3 be
       0.049333945 -0.36447993 -0.18077248 -0.35014492
0003d0 a6 a2 90 be b7 02 cc 3e 9b 47 a3 3d 76 3a 80 be
       -0.2824909 0.3984582 0.07972642 -0.25044602
0003e0 e1 9a e2 be 09 df 5e 3d 80 7d 5b be 39 e0 a4 bd
       -0.44258788 0.05441192 -0.21434593 -0.080505796
0003f0 36 3c 8e be d3 b0 21 be 6b f0 8d 3e b2 03 55 be
       -0.27780312 -0.1579011 0.27722487 -0.20802191

actor.init_leaf_node_embed.0.add_bias._bias f4 [32, 1]
000000 c6 11 af 3d 8c 56 e6 39 b2 17 8f 3c 22 a3 eb 3c
       0.08548312 0.000439335 0.017467353 0.028764311
000010 d6 34 71 3c f2 65 8a bd 64 73 21 3d fe 40 ef 3b
       0.01472207 -0.06757726 0.039416686 0.007301449
000020 21 16 f8 bc 17 a2 b1 3c a3 54 a7 3c 0f d3 92 bc
       -0.03028399 0.021683736 0.0204261 -0.017922906
000030 aa 65 14 3e b5 f5 73 3c a0 4e c1 3d 19 8c e7 bc
       0.14491907 0.014890124 0.09438825 -0.028265046
000040 7f 60 9f 3d f5 49 15 bd 9c 7f b9 bd 87 0c 29 be
       0.07782077 -0.036447484 -0.09057543 -0.16508685
000050 c2 3c 48 bd b6 f7 0e 39 d2 7e 22 3c 2a bd 4f bd
       -0.04888607 0.00013634455 0.009917932 -0.05071751
000060 ae 6b bd bd 44 4b 01 bc 7c 3b ac bd f9 f0 a8 3d
       -0.09249054 -0.00789148 -0.08409783 0.08249087
000070 9e 18 51 bd 90 eb d8 3d a6 95 69 3a 2e f5 cf 3b
       -0.051048867 0.10591805 0.0008910544 0.0063463664

actor.init_leaf_node_embed.2.module.weight f4 [64, 32]
000000 16 eb 32 3d 83 1f 85 be 91 3d 91 be f1 a5 23 be
       0.043681227 -0.26000604 -0.28367284 -0.1598127
000010 ea 3a 26 3e c1 e7 27 3e 69 ad a9 3d 43 48 fd 3d
       0.16233411 0.16397001 0.082850285 0.123672985
000020 07 79 de 3d 70 a0 74 3d bb d2 77 3e 00 0d 8d be
       0.10862928 0.059723318 0.24201481 -0.2754898
000030 94 56 27 be a7 a2 07 3e 3f f4 ff be 8d 27 2c bc
       -0.1634162 0.1324564 -0.49991032 -0.0105074765
000040 17 a0 51 3e 78 56 2f 3e a5 14 07 bd b0 45 e6 bd
       0.20471226 0.17122829 -0.032978673 -0.112437606
000050 f0 1e 81 3d 3e 1e 84 be e3 93 8f 3e fb 5c 4d 3e
       0.06304729 -0.25804323 0.28042516 0.20055
000060 f7 17 9b 3d 29 6b a2 be 6d f8 d2 bd 3d 7c 5e b9
       0.0757293 -0.31722382 -0.1030129 -0.00021217852
000070 e0 f9 10 3e 06 94 0c 3c 45 27 63 bd 89 cd 14 bd
       0.1415782 0.008580213 -0.055457372 -0.036328826
000080 5b f1 84 bd 16 af 45 3e 46 78 ef 3c bf 9e 4c 3c
       -0.064913474 0.19305071 0.029232156 0.01248902
000090 a8 1e 75 3d 54 06 3f 3e 63 4c d9 3d 32 7c aa bd
       0.05984369 0.18654758 0.10610273 -0.083244696
0000a0 02 61 17 be 8d 32 5c be a9 02 f7 3e c0 a2 0f bd
       -0.147831 -0.21503659 0.48244217 -0.03506732
0000b0 4c 08 dd bd 43 97 c9 3d 25 79 15 3e 79 de 93 be
       -0.10792598 0.09843304 0.14596994 -0.2888067
0000c0 69 95 fc bd a0 6e 02 be e7 24 17 bd a8 2e 45 be
       -0.12333185 -0.12737513 -0.036900427 -0.19256079
0000d0 04 38 cb bd ad d0 06 be 2e e5 a5 3d 85 4d 5f be
       -0.099227935 -0.13165541 0.08100353 -0.21806915
0000e0 75 80 c4 be 62 8e 31 be 59 d3 b8 3b 0b d2 2b 3e
       -0.38379255 -0.17339471 0.005640429 0.16779344
0000f0 5d 83 8a be e1 b3 06 be a0 fd 41 3e 8d 95 b5 3e
       -0.27053347 -0.13154556 0.18944407 0.3546566
000100 71 19 33 3e 80 e7 2f 3d 44 50 08 be 15 82 08 3d
       0.17490174 0.042945385 -0.13311869 0.03332718
000110 ad b9 54 3e 8c 44 10 bd f4 c2 d1 bd f3 21 b4 3d
       0.20773955 -0.03522162 -0.102422625 0.08795538
000120 5c 20 db be f6 d0 a1 bc bb c2 d1 be 3e e2 30 be
       -0.42798126 -0.01975296 -0.4096888 -0.17273805
000130 eb 41 99 be ac e9 23 3e 21 5c 86 3e d6 bb 6b be
       -0.29933104 0.16007107 0.26242164 -0.23020872
000140 97 96 b2 bd ed 56 d5 3e 89 28 8b be 52 f9 fd bd
       -0.08720129 0.41667882 -0.27179363 -0.1240107
000150 fd da 55 3c 1c e5 90 3c db 3b 97 3d e3 83 8a be
       0.013052699 0.017687373 0.073844634 -0.27053747
000160 1e 79 a0 bc d7 9a b7 3d 9c 95 b9 bd 89 a6 28 be
       -0.019589003 0.0896508 -0.09061739 -0.16469778
000170 31 41 4f be cf 1c 58 bd 71 80 c8 3d 76 ab 1a 3e
       -0.20239712 -0.05276185 0.09790123 0.1510447
000180 17 8a de bd f9 dc 34 3e de 4c 45 3e 38 2b de 3d
       -0.10866182 0.1766242 0.19267604 0.10848087
000190 6e 3e 67 3e 94 e5 7c 3d ac ae 20 bd c8 40 24 3e
       0.22582409 0.06174238 -0.03922908 0.16040337
0001a0 55 7a 02 3e b0 e2 b1 bd fb ff 8c be 76 76 7c 3e
       0.12741978 -0.08685815 -0.27539048 0.24654564
0001b0 72 a7 97 be 42 da 75 3d b6 11 a0 bd 6d f4 3d 3e
       -0.29619938 0.0600226 -0.07815878 0.18550272
0001c0 5b 51 ca bd c2 a4 be 3e a3 25 93 be 8b 61 b0 bc
       -0.098787986 0.37235075 -0.28739652 -0.021530887
0001d0 ae 2a 81 3d 38 34 03 3d 52 fc 66 be 53 c9 d3 3e
       0.06306969 0.03203222 -0.2255719 0.41364536
0001e0 1b ae f0 3c ab de 99 3d bb bc 2f 3e f7 ac 83 3e
       0.029379895 0.07513174 0.17161839 0.257179
0001f0 90 a5 97 3e ff e3 db ba 8d fc 06 3e 50 27 12 3e
       0.29618502 -0.0016776322 0.13182278 0.14272809
000200 a5 5f ae bd 1f 62 34 bd f7 f3 94 3d 49 77 9c 3c
       -0.085143365 -0.044038888 0.07273095 0.019099848
000210 60 1b 10 3e 72 35 db be 1b 32 83 3e b2 d6 92 3d
       0.14072943 -0.42814213 0.25624165 0.07169856
000220 d7 0d 9f 3d f4 ae 86 3d fa fe 2a be 7c b0 b8 be
       0.077663116 0.065763384 -0.16698828 -0.36072147
000230 57 27 02 be 49 ab 6a 3e 1e c5 2d 3e 21 fd 44 be
       -0.1271032 0.22916903 0.16969725 -0.19237186
000240 16 af d7 be dc 28 c8 be a3 75 26 3e c6 a6 ec 3d
       -0.42125767 -0.39093673 0.16255812 0.11555247
000250 56 2f 92 be 06 cc 4e 3e 03 c9 1b bd 77 6a 52 3e
       -0.2855174 0.20195016 -0.038033497 0.20548426
000260 8d 09 04 be 90 47 ad 3b 50 cb 30 be e5 67 9b 3e
       -0.12894268 0.005288072 -0.17265058 0.30352703
000270 a5 0e 78 3e 0b 7d da 3c 05 52 f1 3d 81 68 42 be
       0.24224336 0.026670953 0.11783222 -0.18985178
000280 26 14 4d 3e 36 d8 c7 bc d9 b3 26 be 9e 4c ad bc
       0.20027217 -0.02439509 -0.16279544 -0.021154698
000290 f1 9e 8a be 3e 79 d4 bd 74 ed ba 3e 4b d1 7f bc
       -0.27074388 -0.103746876 0.36509287 -0.015613864
0002a0 0f 84 07 3e a4 e2 a1 3b 3b b3 d1 be b9 bc 9c 3e
       0.1323397 0.0049403477 -0.40957054 0.30612734
0002b0 08 6b 0c 3f 79 41 c9 3d f8 6a 9b 3e 31 4a 84 be
       0.54850817 0.09826941 0.30355048 -0.25837854
0002c0 ec 9e 36 3e b9 a6 7b be 44 c4 af be 07 81 2d be
       0.17834061 -0.24575318 -0.34329426 -0.16943751
0002d0 0f 61 fd 3d 49 f0 87 be 24 c7 5e bd a9 8e 23 3f
       0.12372028 -0.2655051 -0.054389134 0.6388956
0002e0 dc 62 a0 3d 9e 0b 4d be 1a 88 94 bd 5d 09 60 3e
       0.07831356 -0.20023963 -0.07252522 0.21878572
0002f0 4c 0b 24 be af 0e c9 3a b8 03 87 3d a1 82 4f bd
       -0.16019934 0.0015339459 0.06592506 -0.050661687
000300 f2 e0 a5 3e bb 07 ab be 01 7d 31 bd 1c 9e 05 be
       0.32398182 -0.33404335 -0.043332104 -0.13048595
000310 80 75 8c be a0 f0 f3 bd 46 60 2c 3e a0 dc 6a 3e
       -0.27433395 -0.1191113 0.168336 0.22935724
000320 1f 5a c4 3d 37 5f 0b be bb 1b 62 3e e5 d9 30 3e
       0.09587502 -0.1361054 0.22080891 0.1727062
000330 fd 9c d9 bd 09 52 e7 3d 47 16 23 be 85 b0 bf bb
       -0.10625646 0.11294944 -0.15926467 -0.0058499
000340 a8 99 d5 be 10 6a f2 3e 34 46 a4 3e be 46 9c 3d
       -0.41718793 0.47346544 0.3208481 0.076306805
000350 02 37 4b be 53 16 d1 3d e2 05 f5 bd 90 fe 47 3e
       -0.19845203 0.10209336 -0.11964013 0.19530702
000360 de 72 36 3d 81 d4 62 3d 81 cc 90 bd 91 d1 21 bc
       0.04454314 0.05537844 -0.07070256 -0.009876625
000370 d0 cd 11 be 21 97 90 3e 00 47 41 3c d8 96 2c bd
       -0.14238667 0.28240302 0.011796713 -0.042136043
000380 3a 54 e1 bd 8e 07 9c 3d 96 b6 06 be e6 fa 87 be
       -0.11002393 0.076186284 -0.13155589 -0.26558608
000390 0b cf f0 3d 78 64 f1 bd cb 18 6a be 67 f5 14 bf
       0.1175824 -0.11786741 -0.2286102 -0.58186954
0003a0 93 c3 27 3e c8 a6 f4 bd 23 31 3f 3e 5b 63 37 3c
       0.163832 -0.119458735 0.18671088 0.011193122
0003b0 c5 e1 65 3e c6 72 c0 3d fa 17 b6 bd 09 f2 75 3d
       0.22449405 0.09396891 -0.08891292 0.060045276
0003c0 58 a5 6b be 6a 4c c5 bd f3 57 08 bf b7 8f 2f be
       -0.23012292 -0.096337155 -0.532592 -0.17144667
0003d0 98 3c 37 3e cd f5 ad 3e eb 5f 1f 3e b9 f6 68 be
       0.17894208 0.33976594 0.15563934 -0.22750367
0003e0 3b 5f 03 bd cb 81 21 3e 03 9c 50 3e d5 c8 06 3e
       -0.03207324 0.15772168 0.20372014 0.13162549
0003f0 dc 84 f8 be ec be 8b 3e fd ef 0d 3e 08 58 56 be
       -0.48538864 0.272941 0.1386108 -0.20932019

actor.init_leaf_node_embed.2.add_bias._bias f4 [64, 1]
000000 42 78 86 bd 67 8e 36 bd 89 db ab ba a5 63 ad 3c
       -0.06565906 -0.0445694 -0.0013111691 0.021165678
000010 e0 c1 37 bd 6e f6 ab 3e 5c 83 7f 3d 6e 47 50 3c
       -0.044862628 0.33586448 0.062381133 0.012712343
000020 95 bb 91 bd 81 ab 9a 3d bb 93 9f bd a1 5d 68 3e
       -0.071158566 0.07552243 -0.07791849 0.22691967
000030 1d 95 8d bd 5b ef 77 be a8 5f 04 bf 11 54 87 3b
       -0.06913207 -0.242124 -0.5170846 0.0041298945
000040 2a 10 41 bd 1e 18 1e 3e ac ec 53 be 5c 03 17 bd
       -0.047134556 0.15438887 -0.20695752 -0.036868438
000050 56 f4 0b be 9b ed 24 3e 96 45 09 3e b3 03 50 3e
       -0.13667426 0.16106264 0.13405451 0.20313911
000060 01 5c 33 bd ed 01 7f 3e d4 41 77 be 2d ea 01 3e
       -0.043788914 0.24903078 -0.24146205 0.12686987
000070 ae 8f 11 be ec 0d 82 be 74 fc d8 3d a4 1d 3d bd
       -0.14214966 -0.25401247 0.105950266 -0.046170846
000080 c2 d8 b9 bd a7 38 b4 ba c2 b9 77 be 62 39 24 3e
       -0.090745464 -0.0013749794 -0.24191955 0.16037515
000090 cd 48 d0 bd 47 71 1a bd 4c f8 f9 bd 9d e6 8d bd
       -0.10170136 -0.037705686 -0.12205562 -0.069287516
0000a0 31 ab 3c be 3e ca 3a 3c f1 e9 28 bb 08 67 c6 bd
       -0.1842468 0.011400757 -0.0025774206 -0.096876204
0000b0 1d 7c 08 3d fc 72 b3 3d 01 cf bc 3c 89 f8 88 3e
       0.03332149 0.08762166 0.023047926 0.26752117
0000c0 c1 7f 7d 3c f7 81 c5 3d f5 bf df 3d 47 7d 15 3d
       0.015472353 0.096439295 0.10925285 0.036496427
0000d0 70 93 2c bd 2b 41 05 3e f1 03 21 bd da df b1 bd
       -0.042132795 0.13013141 -0.0393104 -0.086852744
0000e0 58 b2 e4 bd 21 a1 b2 bd 86 e0 fc bd 17 43 92 3e
       -0.11166829 -0.08722139 -0.12347512 0.2856681
0000f0 ca 49 1e 3e 5e 25 af 3c 15 e2 3c 3e 7b 3b 51 be
       0.15457836 0.021380123 0.18445618 -0.20432846

actor.init_next_embed.0.module.weight f4 [32, 6]
000000 e7 a3 5a bf d2 50 2a 3e 21 04 ab bd 5b c4 fa 3e
       -0.85406345 0.16632393 -0.08350397 0.48977932
000010 ba 2c 96 3f b5 18 69 bf 3a a9 c6 3e 9a 49 a6 3e
       1.17324 -0.91053325 0.38800985 0.3247803
000020 cb bc 08 3c f8 cf 18 3e d6 08 1c bc d2 01 ef bd
       0.008345793 0.14923084 -0.009523591 -0.11670269
000030 d7 bc ad bd 89 c8 c7 be b2 c4 75 3e cc f3 0b bf
       -0.08483284 -0.39020184 0.24000815 -0.5466888
000040 7f 62 c8 3d f3 8f 0d 3d 92 c3 c8 3f 12 a8 11 3f
       0.09784412 0.03456111 1.5684683 0.5689708
000050 6b af e5 3d 13 fe 4c 3e 12 3a 32 3e c3 7d f3 3d
       0.11215099 0.20018797 0.17404965 0.118892215
000060 cb f0 a9 be cd 0f 76 bd 60 cc 45 be 99 75 35 3e
       -0.33191523 -0.060073663 -0.19316244 0.17720641
000070 a5 27 b4 3c 3e 00 40 be 0a f8 18 be 70 ed eb 3d
       0.02199156 -0.18750092 -0.1493837 0.11519897
000080 3d d2 ea 3e c0 0e e4 3d 87 3f 0f be f6 ff 25 3c
       0.45863524 0.11135626 -0.13989078 0.010131827
000090 b8 ba 2b 3e 25 7a 68 be 07 a7 c0 bc e0 18 8a be
       0.16770446 -0.22702844 -0.023517145 -0.26972103
0000a0 fe 0b d2 3d 2d 04 e7 3e be 3a 50 be 5b 3c bb be
       0.102561936 0.45120373 -0.20334908 -0.36569485
0000b0 a5 ce 81 3e ab fa e1 3d 73 da 11 be c8 12 35 3d
       0.2535297 0.11034139 -0.14243488 0.044207364
0000c0 04 59 09 be 9e 98 82 be 20 c8 af 3e 38 80 6d be
       -0.13412863 -0.25507063 0.3433237 -0.23193443
0000d0 6f 93 cf 3d 01 c8 11 bb d9 c9 bc be c8 1e 21 be
       0.101355426 -0.0022244456 -0.36872748 -0.15734398
0000e0 e1 8f 14 be 2b 22 d1 3e 15 74 57 be e0 57 c9 bd
       -0.1450801 0.4084638 -0.21040376 -0.09831214
0000f0 ab 66 33 3f bc dc 42 bd 1f e4 18 be f6 fb e6 be
       0.70078534 -0.04757379 -0.14930771 -0.45114106
000100 a4 53 2b be 35 12 32 3e 29 cc 26 3e 03 53 42 be
       -0.16731125 0.17389758 0.16288818 -0.18976979
000110 5b 24 95 be ba 34 43 3e 76 c4 47 3d e7 0d 39 bc
       -0.291293 0.19063082 0.048771344 -0.0112948185
000120 85 72 ce 3e 41 a7 28 bf d1 ae 32 bd 12 ea 89 bd
       0.40321746 -0.6588021 -0.04362375 -0.067340985
000130 f3 0b 45 3d cf 45 e2 bd f8 f6 25 3e 31 1c 85 be
       0.0481071 -0.11048471 0.16207492 -0.2599807
000140 93 7a 9e 3e ed 91 54 3e e5 8c 50 be 42 7b 24 be
       0.30952892 0.20758791 -0.20366247 -0.16062644
000150 46 e3 9f 3f 8c fc 59 3d 48 ba d8 bd 12 ad 0d bf
       1.2491233 0.053219363 -0.10582405 -0.5534221
000160 98 7a c4 bd b8 58 1a 3f b9 ff 3b 3c c0 c9 8c 3d
       -0.095936954 0.60291624 0.011474543 0.06874418
000170 b5 a4 6e 3e 09 d9 9e be 03 a2 ee bc 31 8c 76 be
       0.23305018 -0.3102496 -0.029129988 -0.24076916
000180 77 84 90 be 99 f8 13 be 79 e2 02 be 55 a1 81 3d
       -0.28226063 -0.14450301 -0.12781705 0.063296
000190 c9 cc 79 3e f0 7d c5 3e ec be 56 3d be 9e e8 3e
       0.24394526 0.38572645 0.05242817 0.4543361
0001a0 dd e7 fe 3e ff 3b 5b 3e a1 1b e2 3d 03 4a 81 3e
       0.49786273 0.21409605 0.11040426 0.2525178
0001b0 59 6e 33 be 7c 35 6e bc 26 dd b1 be ce 1f 8a bd
       -0.17522563 -0.014539119 -0.34739035 -0.067443475
0001c0 7b 5f 05 be 33 fb dd be d7 3d d3 3f 30 7c 65 be
       -0.13024704 -0.43355712 1.6503247 -0.22410655
0001d0 c0 d7 46 3e ab 19 35 3e f7 d5 d9 3d 3e 7e ff 3d
       0.1941824 0.17685573 0.10636514 0.12475251
0001e0 d3 dd c2 3d c4 c6 ba 3e e6 33 24 3e b3 6f ba be
       0.09514966 0.3647977 0.16035423 -0.36413345
0001f0 bd 45 58 be 69 02 64 3e 17 e2 34 3f 76 8e 35 be
       -0.21120353 0.22266544 0.70657486 -0.17730126
000200 f6 14 aa 3d b2 6e 20 3f 50 3d 84 3e 76 28 7d bd
       0.08304779 0.6266891 0.25828028 -0.061806165
000210 32 bf 64 be a6 90 e2 3c ad ac ba bd 4c cc 14 3d
       -0.2233856 0.027656864 -0.091149665 0.036327645
000220 4c 0b c8 be 73 eb fc bb c6 17 3f 3e 4a 39 42 be
       -0.3907112 -0.0077184974 0.18661413 -0.18967167
000230 52 32 06 be 15 b5 ea be 43 2e 1e be 83 be ae bd
       -0.13105133 -0.4584128 -0.15447335 -0.08532431
000240 68 9d 96 be 09 fb 95 bd d3 cd ac 3e af 26 c8 be
       -0.29416966 -0.07323272 0.3375078 -0.39092013
000250 9c 3a 10 3f d1 ca e1 be 1b 46 3c 3e ab 12 54 bd
       0.5633943 -0.4410005 0.18386118 -0.051775616
000260 6e 6b 11 3d b7 80 01 bf c5 55 1d bf b9 99 8f 3e
       0.035502844 -0.5058703 -0.61459 0.2804697
000270 0a 5f c8 be 7e 9e 2e be 98 f9 da 3e 24 27 9d 3e
       -0.3913501 -0.17052647 0.4276855 0.30693924
000280 08 11 83 bd 38 04 81 be 84 ee 09 3f f6 a5 c8 bd
       -0.06399733 -0.2519853 0.5387957 -0.097972795
000290 72 4c 0d 3e b4 34 a6 be ad 8e ad bd 65 3d 36 be
       0.13798693 -0.32462084 -0.08474479 -0.17796858
0002a0 bd 3f fd bd fe fa d7 3d a5 f1 04 bf 8f ea 74 be
       -0.12365673 0.1054592 -0.5193122 -0.23917602
0002b0 db 0b a9 bc 63 15 a5 3c 9b 65 e1 3d 76 7b 2e bd
       -0.020635536 0.0201518 0.11005708 -0.04259821
0002c0 81 01 a9 3e 69 d0 7c be c0 44 b9 bc 86 f9 24 3e
       0.3300896 -0.24688877 -0.02261579 0.1611081
0002d0 df 9b 93 3c 2a 72 b7 bc 2d aa 81 ba 71 2e 77 be
       0.018018661 -0.022393305 -0.0009892635 -0.2413881
0002e0 2e 7e 03 bf 67 60 ef 3e f9 e1 8a 3d be 4c e1 bd
       -0.5136441 0.46753237 0.06781382 -0.110009655
0002f0 4d c5 1f be 93 8a a9 bd 35 6d a5 3c f9 0f 1f be
       -0.15602608 -0.08278384 0.020193676 -0.15533437

actor.init_next_embed.0.add_bias._bias f4 [32, 1]
000000 3f ab 0c be ce d9 94 bd 7c 8b 45 bd 44 1e 1d 3f
       -0.137372 -0.072681054 -0.048228726 0.61374307
000010 90 f6 45 bd d9 6a b6 bc 57 94 8f 3e 54 0a b6 bd
       -0.048330843 -0.022267746 0.28042862 -0.08888689
000020 d7 50 a4 bc 28 8b a6 bd f1 ea 00 be 1f e0 a8 3c
       -0.020058079 -0.08132011 -0.12589623 0.020614682
000030 f3 f8 41 bd ce 79 98 bd b7 d8 3c 3f 9d b9 c2 3c
       -0.047356557 -0.074451074 0.7376818 0.023770148
000040 10 fc 12 3e 84 a6 aa bd 7e c3 4f 3d ad 9e 0d 3f
       0.14353967 -0.083325416 0.050723545 0.55320245
000050 9c 10 6b be 32 96 8e 3d 86 b9 75 3c 53 59 02 3e
       -0.22955555 0.06962241 0.0149978455 0.12729387
000060 b8 04 97 bd ca fb 2a be fd 24 a9 bd 42 88 2b 3e
       -0.07373947 -0.16697612 -0.08259008 0.16751197
000070 cf 11 49 bd c3 13 6a 3e 24 71 10 3c 20 f7 84 bb
       -0.04908925 0.22859101 0.008816037 -0.00405778

actor.init_next_embed.2.module.weight f4 [64, 32]
000000 30 fe 96 be 37 63 70 3d dc be 23 3e 33 a6 8f 3d
       -0.29490805 0.05868837 0.15990776 0.07014122
000010 df f0 32 3e f4 77 b4 bd 25 4c 6f 3e 96 4d 8d 3e
       0.17474698 -0.08811942 0.2336889 0.27598256
000020 8a 46 f9 3d f0 b5 22 3d ec bc 6f 3e 27 9b 09 bd
       0.121716574 0.03972429 0.23411912 -0.03359523
000030 f5 2c 69 3d 68 a7 1f 3d 7f 28 b1 3e 60 29 92 bc
       0.05692764 0.03897801 0.3460121 -0.017841995
000040 4b 47 8f 3e cc 85 56 3e 0f 82 a5 bc 9c 27 11 3e
       0.2798408 0.20949477 -0.020203618 0.14175266
000050 03 43 80 3e e3 67 8b be 61 ca 81 3e 95 9e 32 3f
       0.25051126 -0.27227697 0.25349715 0.69773227
000060 15 2b b1 3d e0 35 23 3e c6 e3 e3 3b d4 dc 2c be
       0.08650795 0.1593852 0.006954643 -0.16881114
000070 fe 0b 16 bd 2a fd 84 bd fb 8b e8 3d d2 0e d5 bd
       -0.03663253 -0.064936 0.11354824 -0.104032174
000080 29 23 e7 3d 34 c0 2b 3c 0d 69 50 bd b2 06 16 be
       0.11286003 0.0104828365 -0.050881434 -0.14650992
000090 81 d1 4b 3e 19 1a 35 3e 7d 9d dd be 74 40 f3 3d
       0.19904138 0.17685737 -0.43284217 0.11877528
0000a0 31 e1 13 bd 8e de a7 3d f8 e4 ae be c7 76 5b be
       -0.03610343 0.08196746 -0.34159064 -0.21432029
0000b0 53 e9 02 be 09 6b e9 bc e2 3f 25 3e 55 a8 95 3e
       -0.12784319 -0.028493421 0.1613765 0.2922999
0000c0 72 4a 3a be 50 ed a7 bd e9 4f 20 3e a9 26 01 bf
       -0.18192461 -0.08199561 0.15655483 -0.50449616
0000d0 46 8b d7 bd ad 39 a9 be af 85 67 be 96 c7 d5 bc
       -0.10524611 -0.33051816 -0.2260959 -0.026096147
0000e0 40 b0 af bd 7a 09 9b 3d 79 05 58 3d bd 05 7f bd
       -0.08578539 0.07570167 0.052739594 -0.06226133
0000f0 64 80 a0 3d 31 27 38 3d 36 8e e5 3b 19 cc 03 be
       0.078369886 0.04495925 0.0070054783 -0.12870826
000100 00 16 10 3e e8 ab d6 3e 11 78 07 3e e9 c5 99 3e
       0.14070892 0.4192803 0.13229395 0.30033806
000110 fc 27 81 3d 6f e2 83 3d 25 1f 1e 3d 4b 5f 6c be
       0.063064545 0.06439673 0.03860392 -0.23083226
000120 bc 05 0f 3e 45 b0 f9 bd 4f 0f af bb 6c 13 ba 3c
       0.13967031 -0.12191824 -0.005342401 0.02271434
000130 c1 d2 be 3d af cb 99 be 6b 4c 72 3d 47 3f 04 3c
       0.09317542 -0.3003821 0.05915491 0.008071727
000140 69 48 4e 3e 17 9f 55 bd 88 e9 29 3d d9 25 23 3d
       0.2014481 -0.052153673 0.04148248 0.039831016
000150 21 0e 63 be 3f dc f3 3e e9 d0 28 3e 12 19 00 be
       -0.22173359 0.47628972 0.16485943 -0.12509564
000160 c6 ee 04 3e 58 8d 94 be 6d 39 f7 3c b6 0a c0 3d
       0.1298171 -0.29014087 0.03017875 0.09377043
000170 0c 60 85 3e 5a 20 c7 bd b6 d5 a0 be cb cf 37 3e
       0.2604984 -0.097229674 -0.31413049 0.1795036
000180 62 c7 bd 3e 18 7c 5d 3e aa fa 68 be 93 4b 32 3d
       0.3706618 0.2162937 -0.22751871 0.043529104
000190 f3 03 3c 3e 10 09 15 bd dc ec 8b 3d 83 e1 e4 bc
       0.18360882 -0.036385596 0.06832287 -0.027939564
0001a0 4c ac 3a 3c 89 03 c8 3e 7f 71 ba bd e7 04 0d 3e
       0.011393618 0.39065197 -0.09103679 0.13771401
0001b0 45 b5 b9 3d 74 fd 2c 3e ae 27 54 be 1b b8 a9 3d
       0.090677775 0.1689356 -0.20718262 0.082870685
0001c0 ef 0e aa 3e cc 28 8c bb 0e 0e d5 bd af fc 1f 3e
       0.33214518 -0.0042773243 -0.10403071 0.15623735
0001d0 5a 00 c9 3d 95 c8 23 3e f9 3a f9 bd e9 8e e5 be
       0.0981452 0.15994485 -0.12169451 -0.44835594
0001e0 5f f2 c4 bd 20 5f 32 be e8 8b 91 be a3 fd b1 3d
       -0.09616541 -0.174191 -0.28427052 0.086909555
0001f0 ce 73 f3 3d 42 10 1b bd 02 e9 8b 3e 8a 28 07 3d
       0.11887322 -0.0378573 0.27326208 0.032997645
000200 4a ce 11 3f 31 90 2b 3c 30 cb 35 be a8 f1 70 bd
       0.569554 0.01047139 -0.17753291 -0.05882421
000210 6b 5e 5e 3e 3f 96 f4 3d 23 1a ef bc 6d 2a 26 3e
       0.21715705 0.1194272 -0.029187268 0.16227122
000220 50 99 34 3e f0 ce b9 bd 5e 51 67 be f5 85 7c bd
       0.17636609 -0.09072673 -0.22589633 -0.06165119
000230 71 4a 65 bd 6b 2e 85 be 96 1e c9 be 8a 5a a9 be
       -0.055979196 -0.26011977 -0.39281148 -0.33076888
000240 45 4e 81 3e 4f eb cf 3c 02 6b 23 3d cd 24 a2 be
       0.25255027 0.025380759 0.039896972 -0.31668702
000250 fe 65 22 3e c8 13 5f 3e 37 07 8f bc 90 8d d7 be
       0.1585922 0.2178489 -0.017459495 -0.4210019
000260 7a a2 37 3e c0 f8 bc 3d f8 4f 32 3e 12 ee 9f be
       0.17933074 0.09227133 0.17413318 -0.3123632
000270 3c b5 7f 3d 31 62 6f bc 75 dd 96 bd 15 a2 f2 bd
       0.062428698 -0.014610813 -0.07366458 -0.11847321
000280 0b 41 49 be 9b 59 c2 be 3f 2f ed bd 5e 2c 48 3e
       -0.19653718 -0.3795899 -0.11581277 0.19548175
000290 7b ca 86 3c fd fa 5f 3e e2 6c c9 bb e4 1f 17 3e
       0.016453972 0.21873088 -0.006147013 0.14758259
0002a0 a4 4b b8 3d d7 be 04 3e 50 0d 84 bd 04 19 8c 3c
       0.08998802 0.12963425 -0.06447852 0.017101772
0002b0 3d 94 60 bd 0e 56 60 3d 71 7a af bc ff ab 02 3e
       -0.05482887 0.05476957 -0.02142069 0.12760924
0002c0 2f 1a 9e 3c 95 b4 54 3e 2e 5b 2b 3e 44 ab 1a 3f
       0.019299595 0.20772012 0.16734001 0.6041758
0002d0 d0 46 26 be c5 b9 b5 3d 97 33 92 3d 12 04 77 be
       -0.1623795 0.08873323 0.07138746 -0.24122646
0002e0 fb 50 5a be 96 ab 96 be 25 73 00 be ca f0 a3 3c
       -0.21319954 -0.29427785 -0.12543924 0.020012278
0002f0 78 8a f7 3d f0 93 e8 bd 04 ae e3 3c b1 8f 2c be
       0.12086958 -0.11356342 0.027792938 -0.16851689
000300 c9 43 ec 3e e2 b5 6c be 12 77 d8 bd ea a7 01 bf
       0.46145466 -0.23116258 -0.10569586 -0.5064684
000310 64 de e7 bc 83 42 5e 3c 0e 5b 71 be 43 94 73 bc
       -0.028304286 0.013565662 -0.23569891 -0.014866891
000320 51 a8 ed 3e 7f 5e 68 3d a6 6c a5 bd 0e 7f 63 be
       0.46417478 0.056730743 -0.08077364 -0.22216436
000330 40 66 9b be 94 e3 de 3d 1a 1e 1e bf 7f 7e 8e be
       -0.30351448 0.10883251 -0.6176468 -0.27830884
000340 2c 5b 36 be b6 a4 d3 3e 44 53 b3 be 7e ff 06 bf
       -0.17808217 0.41336602 -0.35024464 -0.527336
000350 0e 90 84 be ff bb 9c 3e 5a aa 84 3d 60 9e f3 be
       -0.25891155 0.3061218 0.064778045 -0.47581768
000360 91 85 02 bd ca f8 8d be 4b 50 3e 3d 8d 8b 19 be
       -0.03186566 -0.27728873 0.046463292 -0.1499464
000370 32 5e 15 bd dc 1d d9 3d 78 c2 b8 bd 8e 31 16 3e
       -0.036466785 0.10601398 -0.09021467 0.14667341
000380 36 8f 04 3e eb 62 9e 3d c1 a0 ac bd 79 55 08 3e
       0.12945256 0.07733711 -0.08429099 0.13313855
000390 82 a1 dd 3d 48 be ac be d1 8e 8c be c1 ed 16 3e
       0.10821821 -0.33738923 -0.2745271 0.14739133
0003a0 4a 75 44 bd d9 03 d9 3d d5 42 ae 3d a3 44 88 3d
       -0.047963418 0.10596437 0.08508841 0.066537164
0003b0 00 9d b8 3e c4 4f ea bc 2e 34 d6 3e 9e c2 1d be
       0.36057281 -0.028602488 0.41836685 -0.15406272
0003c0 62 93 85 bd 5e 72 a4 bd fb c6 70 3d 7a f7 b6 bd
       -0.06522252 -0.08029626 0.058783513 -0.08933921
0003d0 68 9c f6 be e5 2a ee bd 32 5b 2e 3e b7 8b 8f 3e
       -0.48166203 -0.11629275 0.17026976 0.2803628
0003e0 05 25 6c 3e ab ba 3d 3e c4 35 92 be 68 f7 cf bd
       0.23060997 0.1852824 -0.28556645 -0.10154611
0003f0 dc 9f 5e be 74 f9 97 bd 70 c4 8e 3e 26 3e 4d 3d
       -0.21740669 -0.07420626 0.27884245 0.050108097

actor.init_next_embed.2.add_bias._bias f4 [64, 1]
000000 b5 0b fa 3d 8a f0 03 bf 5d db c3 3e 01 a3 98 3e
       0.12209264 -0.5153891 0.38253298 0.29811862
000010 fb e9 8c be 8b 7a c2 3e 72 06 1c bf 35 6f b2 3e
       -0.27522263 0.37984118 -0.60947335 0.3485047
000020 cb 94 a0 be 53 03 cc bc 35 c0 a3 be 2e 8d 44 be
       -0.3136352 -0.024903929 -0.3198258 -0.19194481
000030 a8 36 b0 3e 84 25 5c be 09 2b 00 bf ac a6 89 3e
       0.344167 -0.21498686 -0.50065666 0.26884973
000040 0e 01 e1 3e 90 2e 27 3f f1 9f 73 bf ea 98 b8 be
       0.43946117 0.65305424 -0.95165926 -0.36054164
000050 f4 50 9e be 59 d3 95 3e 26 bf 56 bd d9 36 73 3e
       -0.30921137 0.29262808 -0.052428387 0.23751391
000060 2f 53 05 bd eb 8e 31 bf 9c 8e ca be ed 62 10 3e
       -0.032550033 -0.693587 -0.39561927 0.14100237
000070 f1 b0 37 be 40 55 77 be 79 08 43 be e7 b3 fe 3e
       -0.17938592 -0.24153614 -0.19046201 0.4974663
000080 13 c9 1b 3f 8b bc fa bd f3 df 58 3f 2f bb d2 3e
       0.6085369 -0.12242993 0.8471672 0.41158435
000090 28 b9 60 bb 74 2f bb 3e 90 3c 01 bf 32 e0 4f 3f
       -0.003429005 0.3655964 -0.50483036 0.8120147
0000a0 e4 44 38 bf a5 36 44 bf e2 32 06 bf 9a 25 bf 3e
       -0.7198012 -0.7664588 -0.5242139 0.37333375
0000b0 1b 11 94 be 7c df 6a bf 1e f7 18 bf 13 2c 1c 3f
       -0.289193 -0.9174726 -0.5975207 0.6100475
0000c0 6f 57 ad 3d 89 f2 0d bf 35 5a 6a bf eb 26 71 bf
       0.08463942 -0.55448204 -0.91543895 -0.9420001
0000d0 52 a1 c9 3e 76 c2 50 3e 97 87 19 be 64 7f 2c 3d
       0.3938089 0.20386681 -0.1499313 0.042113677
0000e0 57 b9 1a bf ac 26 cd be fc f2 21 be 23 78 91 3e
       -0.60439056 -0.40068567 -0.15815347 0.2841197
0000f0 f2 8e c9 3e 54 48 a9 be cb d4 e4 3e 2f 04 7f 3f
       0.3936687 -0.33062994 0.44693598 0.9961576
