pretrained_models/experiment/Discrete_A2C_20x10x10Bin_s42_inh_800_defaultBox-2022.08.18-19-42-34/PCT-Discrete_A2C_20x10x10Bin_s42_inh_800_defaultBox-2022.08.18-19-42-34_2022.08.18-23-30-02.pt (torch, 236314 bytes, 24 tensors)

actor.init_internal_node_embed.0.module.weight f4 [32, 6]
0.24749078 0.57785517 0.6299249 -0.29949537 0.025878126 0.18038632 0.19221406 0.4113398
-0.021753632 -0.123919554 -0.30815342 -0.11455681 0.05028656 -0.040263012 0.048291776 0.09376306
-0.27435777 0.082814805 -0.53179467 -0.028364867 -0.38836735 0.55553097 0.2871535 0.8685842
0.47324398 -0.18393046 0.00785088 0.078530155 0.005169929 -0.102663726 0.2430581 0.11354476
-0.35427976 0.40511417 -0.12327497 -0.30533352 -0.43162906 0.21216582 0.14637631 0.19695334
-0.3236469 -0.16304336 0.2044126 -0.090303235 0.46221083 0.034177553 -0.7546164 0.13402511
-0.44781196 0.087822065 -0.8155196 0.41312972 0.037627157 0.07563721 0.64302856 -0.031067217
-0.10223182 0.15394789 -0.20530649 -0.17443012 -0.051644344 0.093622655 -0.34474134 0.55008405
0.52906144 -0.630861 -0.22512305 -0.17641263 -0.1692276 -0.055240553 -0.34324685 -0.19721629
0.93191266 0.11014514 0.12073814 -0.13053358 -0.11341193 -0.20713855 0.40989992 0.03126808
-0.18171619 -0.1176734 0.3101644 -0.33908838 0.3968119 0.45621902 -0.3458873 -0.06612374
0.073686786 -0.08319369 -0.03038601 -0.2865325 -0.2374346 -0.08059018 0.1437318 -0.27707964
0.18493472 -0.1237436 0.40642464 -0.78500605 0.48747212 0.49475163 0.0907428 0.05488818
0.10560171 0.18823086 -0.54895115 -0.35502455 0.34763968 0.10535475 -0.45050615 0.21971762
0.14793584 -0.043933038 0.37087387 -0.20330285 0.04706549 -0.2484167 -0.08851031 0.1307881
0.09630944 0.2382109 -0.45138797 0.248441 0.020566499 -0.4931446 -0.15477192 -0.08924394
-0.29256335 0.12529844 -0.11156126 -0.36908412 -0.7455511 -0.853656 -0.8383059 0.51672465
0.44552988 0.43751007 -0.2859551 -0.092889406 -0.18225302 0.070726275 -0.03498221 0.60632175
-0.13594836 -0.028982434 1.034355 0.36151075 0.1152066 0.22482789 -0.052921213 0.2519041
0.3633648 -0.31313366 -0.074906304 0.4567475 -0.27847722 0.022955803 -0.26008892 0.03837749
0.2742218 -0.097803034 -0.08134885 0.027205376 0.34804857 -0.376298 -0.045404956 -0.18952309
-0.36368716 -0.5901605 -0.07514982 0.052517656 0.14994705 0.06363122 -0.23373374 0.1812201
0.31896725 -0.24939914 -0.088017136 -0.03822237 0.39956465 0.008932567 0.032616813 -0.09021722
0.19261612 -0.42133224 0.2649248 0.18877526 -0.26185793 -0.1801162 0.0019214298 0.31743154
00000000: 396e 7d3e 51ee 133f c242 213f 7557 99be
00000010: 5dfe d33c 31b7 383e c3d3 443e 219b d23e
00000020: ac34 b2bc 89c9 fdbd 49c6 9dbe c39c eabd
00000030: 48f9 4d3d d4ea 24bd 99cd 453d d906 c03d
00000040: 9f78 8cbe cf9a a93d b223 08bf 705d e8bc
00000050: 16d8 c6be 4737 0e3f c905 933e 895b 5e3f
00000060: 094d f23e 4458 3cbe faa0 003c 6bd4 a03d
00000070: 8268 a93b 5c41 d2bd 39e4 783e 288a e83d
00000080: 2864 b5be 206b cf3e 9677 fcbd ad54 9cbe
00000090: 7cfe dcbe ff41 593e ace3 153e 23ae 493e
000000a0: 0cb5 a5be d7f4 26be 8951 513e e7f0 b8bd
000000b0: e6a6 ec3e c3fd 0b3d 8a2e 41bf e13d 093e
000000c0: 9c47 e5be 0edc b33d e4c5 50bf bd85 d33e
000000d0: ef1e 1a3d aee7 9a3d 859d 243f ad80 febc
000000e0: eb5e d1bd 84a4 1d3e dd3b 52be cf9d 32be
000000f0: 0589 53bd 3cbd bf3d f081 b0be 4fd2 0c3f
00000100: 9270 073f 1b80 21bf a886 66be 83a5 34be
00000110: 004a 2dbe eb43 62bd 0dbe afbe 11f3 49be
00000120: d491 6e3f c693 e13d 8f45 f73d 98aa 05be
00000130: 8444 e8bd 211c 54be 67de d13e f512 003d
00000140: cf13 3abe c0fe f0bd decd 9e3e fe9c adbe
00000150: ee2a cb3e 8a95 e93e 2418 b1be e26b 87bd
00000160: 19e9 963d 7461 aabd 15ec f8bc 63b4 92be
00000170: 0e22 73be 770c a5bd 6e2e 133e 62dd 8dbe
00000180: 875f 3d3e 496d fdbd e416 d03e 28f6 48bf
00000190: f295 f93e 1650 fd3e 5cd7 b93d 6ed2 603d
000001a0: b645 d83d 97bf 403e 1088 0cbf c7c5 b5be
000001b0: d4fd b13e 3bc4 d73d bea8 e6be a8fd 603e
000001c0: 7e7c 173e 21f3 33bd 2ee3 bd3e 9f2e 50be
000001d0: bec7 403d f360 7ebe e544 b5bd 51ed 053e
000001e0: e23d c53d 8fed 733e 531c e7be 5167 7e3e
000001f0: 137b a83c 737d fcbe 887c 1ebe 87c5 b6bd
00000200: ddca 95be 3c4e 003e 3b7a e4bd 98f8 bcbe
00000210: 70dc 3ebf 3389 5abf 379b 56bf 1148 043f
00000220: 7e1c e43e 5201 e03e b568 92be cd3c bebd
00000230: 89a0 3abe f0d8 903d 8149 0fbd e737 1b3f
00000240: 0c36 0bbe 926c edbc bf65 843f f017 b93e
00000250: 70f1 eb3d 4839 663e eac3 58bd 93f9 803e
00000260: f30a ba3e 0e53 a0be 7a68 99bd cfda e93e
00000270: 9194 8ebe cf0d bc3c 602a 85be b731 1d3d
00000280: cd66 8c3e f54c c8bd 3a9a a6bd cfdd de3c
00000290: 6c33 b23e 22aa c0be 8cfa 39bd 5712 42be
000002a0: 3435 babe c214 17bf 26e8 99bd c11c 573d
000002b0: b88b 193e 1651 823d e657 6fbe c391 393e
000002c0: ad4f a33e 7d62 7fbe 5442 b4bd 0f8f 1cbd
000002d0: bd93 cc3e e759 123c 3599 053d cec3 b8bd
000002e0: 293d 453e dcb8 d7be 39a4 873e 4d4e 413e
000002f0: 3e12 86be 6270 38be 7cd8 fb3a 6386 a23e

actor.init_internal_node_embed.0.add_bias._bias f4 [32, 1]
0.031835333 0.016303686 -0.029798146 0.06135989 0.12317545 0.01059464 -0.018118937 0.022169994
0.028464632 0.079018205 0.025065523 0.019951487 0.039713867 0.02371377 0.0059730327 -0.0040025646
0.012410559 0.010493259 0.0014197672 0.00040734423 -0.011936634 0.021446193 -0.0043981927 -0.0066650123
0.06535302 0.015423465 -0.011434585 -0.021422822 0.0035751157 -0.0010651955 0.011138634 0.037034426
00000000: c465 023d 4f8f 853c 3e1b f4bc 8254 7b3d
00000010: 6943 fc3d 2495 2d3c 2a6e 94bc d99d b53c
00000020: a92e e93c 4cd4 a13d 3656 cd3c 4d71 a33c
00000030: 02ab 223d 6143 c23c 6eb9 c33b f227 83bb
00000040: a855 4b3c ebeb 2b3c 7b17 ba3a d190 d539
00000050: df91 43bc edaf af3c b71e 90bb 2d66 dabb
00000060: ced7 853d b3b2 7c3c 2058 3bbc ea7e afbc
00000070: 7d4c 6a3b 089e 8bba d17e 363c 69b1 173d

actor.init_internal_node_embed.2.module.weight f4 [64, 32]
-0.23296121 0.059845358 -0.1160965 0.3686613 0.15652962 0.03680374 0.083321385 0.12840313
-0.30661327 -0.2900788 -0.12129703 -0.016600626 -0.33743766 -0.15368009 0.0075917747 -0.175079
0.3987053 -0.081524976 -0.16589142 0.2659009 0.084619574 -0.27998847 -0.12142133 -0.19402644
0.14993982 0.34080234 0.1438426 0.09984414 -0.051802773 -0.17267872 -0.18942876 0.1427797
-0.38842842 -0.36282033 -0.3645244 -0.27322412 0.05779719 0.23893969 0.0032181977 0.4071164
-0.018938355 -0.082868114 -0.037911262 -0.050499693 -0.32343277 0.11047528 -0.22164255 0.16240881
0.054481253 0.024863893 -0.40407342 -0.16868167 0.36116695 0.098452166 0.12711816 -0.28465742
-0.271608 0.088269256 -0.039633963 0.16292778 -0.26164958 0.19869293 0.37036198 -0.011918932
0.7744833 -0.18724175 -0.019543454 0.36665133 -0.2846555 0.2335768 -0.27054846 -0.12537836
0.20989768 0.2920588 0.121387474 -0.3450682 0.9155894 -0.17535888 0.13448013 -0.011032671
0.27159482 0.10449215 0.05150001 0.2342603 -0.3744807 -0.13478763 0.08191879 -0.08872023
0.590483 -0.22811776 -0.11727937 -0.04987237 0.14044094 0.08186259 0.2979226 0.12042662
-0.029372001 0.6167897 -0.116504334 -0.453759 0.041605595 -0.15998445 -0.3120196 0.05352832
-0.23401076 0.011637152 -0.06620677 0.5023919 0.13424024 -0.14811303 -0.12490722 -0.17280352
-0.1398389 -0.16675802 -0.211027 -0.20504853 -0.29730043 0.10086388 0.2604597 0.22561444
-0.3755015 0.1606698 0.13798869 0.038620755 0.19952013 0.13617626 0.075442806 -0.09486636
-0.33712646 -0.04995368 0.13317105 0.0016673511 -0.17422625 0.007818978 -0.12238052 -0.07642028
0.0936711 0.120688096 0.044219367 -0.28052583 -0.0021249638 0.28643402 0.12071465 -0.010818816
0.08052519 0.05582226 -0.297248 -0.19736253 -0.050304472 -0.08620465 0.5498695 -0.22509614
-0.45515198 0.023568688 0.138939 0.010118271 0.19926089 -0.011115668 0.14629947 0.013309131
-0.38616687 0.057594176 -0.106150456 0.057789188 0.6043871 0.20011583 0.2917214 -0.37879196
0.31857634 0.46997765 0.6026039 0.18799426 0.13207562 0.20443957 0.36547858 -0.010283366
-0.2020214 0.026553435 0.075871706 -0.15482545 0.39764756 -0.02164439 -0.06497062 -0.074596964
-0.8789982 0.0899041 -0.25877076 -0.23347999 -0.06380807 0.0024010174 0.4352621 -0.08339847
0.05632628 -0.21033314 -0.14682381 -0.47864988 0.045593318 0.027551936 -0.05891896 -0.07869348
-0.12545691 0.5704444 -0.105853446 0.073849745 0.7314953 -0.028152974 0.1695591 -0.048713807
-0.20657815 -0.2441711 0.6435303 0.19363233 -0.35367915 0.056653168 -0.12675072 0.12750833
-0.95424485 -0.25618193 0.15916668 0.045986935 0.2613282 0.29705027 -0.045560077 -0.15933405
0.7541177 0.22018185 0.28774866 0.3518133 -0.121346064 0.12430663 0.28417242 0.12974368
-0.22745375 -0.35595894 -0.024101524 -0.23453753 0.5184849 -0.33654848 -0.035177186 0.04695093
0.01246584 -0.048590824 0.26260424 -0.058960807 -0.05646358 -0.17510952 0.04362386 0.08618066
0.6388467 0.004605643 0.23103845 -0.03442728 0.17207322 0.34803736 -0.47774935 -0.16012178
00000000: 628d 6ebe 6820 753d 00c4 edbd 2dc1 bc3e
00000010: 4d49 203e 85bf 163d 67a4 aa3d 1c7c 033e
00000020: 6afc 9cbe 3585 94be 946a f8bd 09fe 87bc
00000030: a1c4 acbe 505e 1dbe 6cc4 f83b e947 33be
00000040: 1a23 cc3e 91f6 a6bd 71df 29be 2a24 883e
00000050: 074d ad3d a65a 8fbe bfab f8bd deae 46be
00000060: d389 193e a57d ae3e 794b 133e 167b cc3d
00000070: 252f 54bd b1d2 30be 9df9 41be d734 123e
00000080: 17e0 c6be 96c3 b9be f1a2 babe 08e4 8bbe
00000090: bfbc 6c3d 9bac 743e 66e8 523b 9071 d03e
000000a0: 9c24 9bbc c2b6 a9bd d748 1bbd c4d8 4ebd
000000b0: fb98 a5be dd40 e23d 44f6 62be 7f4e 263e
000000c0: bc27 5f3d 5daf cb3c b6e2 cebe e3ba 2cbe
000000d0: e0ea b83e 4aa1 c93d 432b 023e 9ebe 91be
000000e0: 3410 8bbe 83c6 b43d 3957 22bd 8ad6 263e
000000f0: eff6 85be 2976 4b3e 16a0 bd3e a047 43bc
00000100: 8a44 463f 4dbc 3fbe 9819 a0bc b9b9 bb3e
00000110: 5ebe 91be c22e 6f3e 5485 8abe 2f63 00be
00000120: 6bef 563e bb88 953e ff99 f83d c7ac b0be
00000130: 1164 6a3f 4791 33be 29b5 093e 60c2 34bc
00000140: 7a0e 8b3e fbff d53d adf1 523d efe1 6f3e
00000150: efbb bfbe c505 0abe 0ac5 a73d f4b2 b5bd
00000160: e529 173f b497 69be 2b30 f0bd f846 4cbd
00000170: c0cf 0f3e 93a7 a73d 5089 983e 3ba2 f63d
00000180: 8d9d f0bc eee5 1d3f d399 eebd 1a53 e8be
00000190: a16a 2a3d f7d2 23be 08c1 9fbe 8340 5b3d
000001a0: 84a0 6fbe c1a9 3e3c 6a97 87bd c19c 003f
000001b0: 4676 093e f1aa 17be 5bcf ffbd 68f3 30be
000001c0: ee31 0fbe 9dc2 2abe 7617 58be 3ef8 51be
000001d0: c337 98be b991 ce3d f95a 853e 7907 673e
000001e0: bc41 c0be a086 243e e84c 0d3e cc30 1e3d
000001f0: 014f 4c3e ca71 0b3e c281 9a3d 4b49 c2bd
00000200: d79b acbe 3b9c 4cbd fe5d 083e 058b da3a
00000210: 5e68 32be 2c1b 003c a3a2 fabd 3c82 9cbd
00000220: a2d6 bf3d 522b f73d 5e1f 353d 15a1 8fbe
00000230: fa42 0bbb 7ba7 923e 3e39 f73d 6741 31bc
00000240: 64ea a43d e2a5 643d e430 98be 6719 4abe
00000250: 100c 4ebd 108c b0bd 3fc4 0c3f 9a7f 66be
00000260: ae09 e9be 1f13 c13c 0646 0e3e 1bc7 253c
00000270: 0c0b 4c3e 7e1e 36bc 87cf 153e 8b0e 5a3c
00000280: aab7 c5be dfe7 6b3d 6965 d9bd 5bb4 6c3d
00000290: 1db9 1a3f 2aeb 4c3e 825c 953e 05f1 c1be
000002a0: 701c a33e e9a0 f03e 4044 1a3f 9181 403e
000002b0: d53e 073e 9b58 513e 0220 bb3e 907b 28bc
000002c0: b3de 4ebe 9786 d93c a062 9b3d 908a 1ebe
000002d0: 7698 cb3e 934f b1bc 510f 85bd 4bc6 98bd
000002e0: 0706 61bf a41f b83d 9a7d 84be 6115 6fbe
000002f0: cead 82bd 635a 1d3b adda de3e d1cc aabd
00000300: 63b6 663d 9261 57be fb58 16be 9911 f5be
00000310: 0fc0 3a3d 99b4 e13c 0255 71bd 0c2a a1bd
00000320: c777 00be a508 123f b1c9 d8bd 893e 973d
00000330: 4743 3b3f 11a1 e6bc e7a0 2d3e 2188 47bd
00000340: 3989 53be fd07 7abe 67be 243f 8e47 463e
00000350: 6f15 b5be 270d 683d f1ca 01be 8b91 023e
00000360: 6449 74bf 472a 83be 97fc 223e cc5c 3c3d
00000370: cfcc 853e f916 983e 349d 3abd 7728 23be
00000380: dc0d 413f 5a77 613e cb53 933e df20 b43e
00000390: 4984 f8bd 7994 fe3d 0c7f 913e 87db 043e
000003a0: a3e9 68be 4040 b6be 8f70 c5bc 9b2a 70be
000003b0: 6dbb 043f 1550 acbe f415 10bd 9e4f 403d
000003c0: 863d 4c3c 2c07 47bd 1074 863e e380 71bd
000003d0: 5b46 67bd e94f 33be efae 323d 7c7f b03d
000003e0: 758b 233f efea 963b 5895 6c3e 9f03 0dbd
000003f0: f633 303e f431 b23e 909b f4be f7f6 23be

actor.init_internal_node_embed.2.add_bias._bias f4 [64, 1]
-0.015835974 -0.052461896 0.09353772 -0.055123456 -0.036332663 0.044691782 -0.05106664 0.090538934
0.0037074473 -0.058916237 -0.017171383 -0.036040958 -0.13717625 -0.052461464 -0.028890701 0.029868953
-0.07039196 -0.05095726 -0.14668922 0.015106155 -0.064511135 -0.03731585 0.017049028 0.08657598
-0.022593081 -0.010639395 -0.020458648 -0.00084427913 0.01918583 -0.10643511 0.07320017 -0.13176048
0.09885024 0.08532952 -0.03725804 -0.0416803 0.055100694 -0.0361086 0.022118669 0.065539084
-0.052783407 -0.047939707 0.23706485 -0.013951069 -0.07472357 -0.026424503 0.045391057 0.04616922
0.05980965 -0.13131025 0.05369677 0.07628808 0.068195544 -0.107356206 -0.0385272 0.13476202
0.14062591 0.0057610134 -0.00030487875 0.0033089581 -0.03330062 0.016269023 -0.05280781 0.07124254
00000000: 72ba 81bc 49e2 56bd b490 bf3d 22c9 61bd
00000010: 8fd1 14bd bb0e 373d 412b 51bd 7a6c b93d
00000020: a5f8 723b 2752 71bd 00ab 8cbc af9f 13bd
00000030: ee77 0cbe d5e1 56bd 31ac ecbc bcaf f43c
00000040: a929 90bd 8fb8 50bd b335 16be ce7f 773c
00000050: 6a1e 84bd 81d8 18bd 67aa 8b3c bf4e b13d
00000060: 2015 b9bc db50 2ebc e598 a7bc 9d52 5dba
00000070: 9a2b 9d3c a7fa d9bd f9e9 953d 38ec 06be
00000080: ff71 ca3d 3ec1 ae3d e39b 18bd f6b8 2abd
00000090: 44b1 613d 9de6 13bd 3632 b53c 5b39 863d
000000a0: 6a33 58bd 6d5c 44bd 21c1 723e 0693 64bc
000000b0: ac08 99bd 3378 d8bc f9eb 393d f01b 3d3d
000000c0: f7fa 743d 3276 06be 25f1 5b3d ed3c 9c3d
000000d0: 1baa 8b3d 92dd dbbd b3ce 1dbd 0eff 093e
000000e0: 3d00 103e e2c6 bc3b 22d8 9fb9 1bdb 583b
000000f0: 3b66 08bd 9d46 853c 014d 58bd 9ce7 913d

actor.init_leaf_node_embed.0.module.weight f4 [32, 8]
-0.16164547 -0.47443753 0.3575517 0.34767476 0.18603076 0.36928976 -0.33312863 -0.31008336
-0.5309653 -0.17033072 0.28278035 0.09451501 0.19946902 -0.26595557 0.24468073 -0.052738737
0.0070235473 0.07007539 -0.2835021 -0.038150605 -0.19457705 -0.16658331 0.07910423 -0.09638541
-0.20100069 0.160175 0.44097555 -0.22158471 0.12163105 0.2022498 -0.2509466 0.012306417
0.082659006 -0.5691925 0.40577888 -0.19047198 -0.15020953 0.085845575 -0.16618928 0.14231528
-0.38696632 0.017897941 -0.3107724 0.17068087 -0.055640418 0.11429745 -0.16772553 0.01076374
-0.32620692 0.107481435 -0.063192256 0.13030559 -0.025047699 -0.13823435 0.045337312 0.1632407
0.31216082 0.19882841 0.39030486 -0.09416586 -0.18747863 -0.07736189 -0.6596643 -0.08210846
-0.04322592 0.11030311 0.19479394 -0.087373 -0.04475786 0.2697036 0.052535653 0.043545164
-0.6124392 -0.39447385 0.038000494 0.26170993 0.49986085 -0.3192282 -0.0016431181 -0.5170856
-0.33188853 0.15355791 -0.46917507 -0.18657382 0.38285425 0.17353567 -0.22961943 -0.00048707204
0.04033096 -0.11568087 0.3014473 -0.3454948 -0.11551302 -0.4063898 0.41844878 0.013218918
-0.14933929 -0.06368165 0.24873053 0.5585258 0.1752126 0.24690266 0.3395942 0.43400663
0.10581089 0.32543713 0.21701111 -0.05011133 -0.47265384 -0.05292099 -0.049391028 -0.22407882
0.46395728 0.47695166 0.29133323 0.29617792 -0.002088082 -0.084160835 0.13507128 0.15418276
0.006237264 -0.185353 -0.07282677 0.27103642 -0.15956952 0.24147779 0.04243808 0.17351787
0.23253305 0.31750908 -0.07368452 -0.49850526 0.023222327 -0.324126 -0.22219072 0.1698863
-0.29831436 0.28268746 -0.3232602 0.41152874 -0.18880437 -0.077974685 -0.21087825 0.22162965
0.07286953 -0.0946089 -0.80956334 -0.10998186 0.28562164 0.33666596 0.0932948 -0.15949143
-0.2060251 -0.11339378 -0.51292735 0.039309796 -0.12308054 -0.028454004 0.24926195 -0.077825144
0.15322968 -0.040240496 0.31711385 0.35081366 0.34924206 0.02845906 0.29384202 -0.07648597
-0.3257151 0.2205091 0.15571204 -0.12656942 0.31900775 -0.3143728 -0.041790783 0.19675644
0.18366632 -0.2556059 -0.24312913 -0.35717145 0.2717691 0.046415433 0.4413839 0.2295992
-0.09405206 0.4919875 0.17778197 -0.49177545 -0.015117573 0.65223205 0.14049405 0.39500478
-0.12734747 -0.3100555 -0.10885942 -0.09378584 0.22836353 -0.15690666 -0.07560228 0.587155
-0.013450422 -0.25689727 -0.40751994 0.27839947 -0.19983089 -0.14429201 -0.0049491664 0.3635697
-0.28381532 0.16824012 0.16425398 -0.20588328 -0.40750402 -0.10338727 0.40633944 -0.19147755
-0.23236178 0.23432158 0.33059564 0.25333604 -0.0035447504 0.3064443 0.3053924 -0.19126923
0.028197087 -0.033466857 0.3423336 -0.15678875 -0.12736051 -0.5330707 -0.24044943 -0.09027259
0.4393811 0.3451014 -0.32852864 0.34287092 0.6124854 0.04380525 0.16093998 -0.49865252
0.06932414 -0.35094893 -0.115313545 -0.3993557 -0.27008653 0.45129165 0.07972642 -0.25044602
-0.48939982 0.013878978 -0.28073707 -0.113483295 -0.3464367 -0.1898717 0.27722487 -0.20802191
00000000: 6486 25be 7ae9 f2be 0411 b73e 6d02 b23e
00000010: d97e 3e3e 8c13 bd3e d68f aabe 3fc3 9ebe
00000020: 58ed 07bf 2d6b 2ebe 96c8 903e 1691 c13d
00000030: 9b41 4c3e 542b 88be 968d 7a3e 9304 58bd
00000040: c925 e63b b083 8f3d 3027 91be cf43 1cbd
00000050: 353f 47be d194 2abe 6601 a23d b765 c5bd
00000060: 20d3 4dbe ea04 243e 8cc7 e13e 1ae7 62be
00000070: b319 f93d 921a 4f3e 137c 80be dba0 493c
00000080: 2049 a93d 9ab6 11bf 40c2 cf3e 160b 43be
00000090: 87d0 19be cecf af3d 862d 2abe 19bb 113e
000000a0: 7320 c6be b49e 923c 8f1d 9fbe f7c6 2e3e
000000b0: 35e7 63bd c814 ea3d 3ec0 2bbe 665a 303c
000000c0: 9804 a7be 3a1f dc3d f16a 81bd d46e 053e
000000d0: d530 cdbc 4e8d 0dbe 9eb3 393d 9228 273e
000000e0: 8bd3 9f3e ad99 4b3e 0ad6 c73e 08da c0bd
000000f0: 66fa 3fbe e96f 9ebd c2df 28bf 7b28 a8bd
00000100: aa0d 31bd 99e6 e13d 1078 473e 9ef0 b2bd
00000110: 0554 37bd 9716 8a3e a02f 573d 6a5c 323d
00000120: d1c8 1cbf 7af8 c9be 68a6 1b3d d8fe 853e
00000130: c3ed ff3e e171 a3be e55d d7ba b95f 04bf
00000140: 4bed a9be 493e 1d3e b737 f0be 350d 3fbe
00000150: 7905 c43e 56b3 313e 5b21 6bbe b45d ffb9
00000160: 1432 253d 18ea ecbd 4d57 9a3e b2e4 b0be
00000170: 1792 ecbd 5312 d0be eb3e d63e 2994 583c
00000180: 66ec 18be 866b 82bd 37b3 7e3e 8cfb 0e3f
00000190: ef6a 333e 0dd4 7c3e 4adf ad3e 1e36 de3e
000001a0: 61b3 d83d b29f a63e 2938 5e3e 8a41 4dbd
000001b0: afff f1be aec3 58bd 3f4e 4abd eb74 65be
000001c0: cf8b ed3e 0233 f43e a129 953e a2a4 973e
000001d0: 34d8 08bb 845c acbd 2050 0a3e 16e2 1d3e
000001e0: f661 cc3b 2dcd 3dbe 3426 95bd 49c5 8a3e
000001f0: 3166 23be f445 773e 8dd3 2d3d abae 313e
00000200: 251d 6e3e 8d90 a23e e9e7 96bd 153c ffbe
00000210: c03c be3c d8f3 a5be f785 63be adf6 2d3e
00000220: a9bc 98be 69bc 903e 5c82 a5be e5b3 d23e
00000230: ef55 41be 31b1 9fbd 78f0 57be e2f2 623e
00000240: 9f3c 953d 50c2 c1bd 8b3f 4fbf 2b3e e1bd
00000250: 003d 923e 7b5f ac3e 5811 bf3d b951 23be
00000260: 3ef8 52be 003b e8bd 354f 03bf 4f03 213d
00000270: a611 fcbd 5f18 e9bc 863e 7f3e ca62 9fbd
00000280: 3ee8 1c3e 38d3 24bd bf5c a23e d99d b33e
00000290: dbcf b23e f922 e93c 7672 963e ada4 9cbd
000002a0: 21c4 a6be 23cd 613e fa72 1f3e 6a9b 01be
000002b0: fc54 a33e 79f5 a0be d02c 2bbd 857a 493e
000002c0: 0613 3c3e c7de 82be d8f6 78be 2ddf b6be
000002d0: 5225 8b3e 1c1e 3e3d 12fd e13e 0d1c 6b3e
000002e0: 5e9e c0bd c9e5 fb3e 7a0c 363e fec9 fbbe
000002f0: b2af 77bc aef8 263f acdd 0f3e 113e ca3e
00000300: 6067 02be 98bf 9ebe b0f1 debd ca12 c0bd
00000310: 21d8 693e 24ac 20be 5ed5 9abd ca4f 163f
00000320: 295f 5cbc 0a88 83be 74a6 d0be 608a 8e3e
00000330: 78a0 4cbe 49c1 13be 9e2c a2bb cf25 ba3e
00000340: 3e50 91be 2347 2c3e 3232 283e 11d3 52be
00000350: 5ea4 d0be b4bc d3bd b90b d03e b112 44be
00000360: 3ff0 6dbe fff1 6f3e d543 a93e 43b5 813e
00000370: 0b4f 68bb 44e6 9c3e 655c 9c3e 15dc 43be
00000380: 94fd e63c 8b14 09bd 5a46 af3e 3b8d 20be
00000390: cb6a 02be 5277 08bf 6038 76be d6e0 b8bd
000003a0: 8ff6 e03e 21b1 b03e e834 a8be c78c af3e
000003b0: d8cb 1c3f 226d 333d 73cd 243e 624f ffbe
000003c0: d1f9 8d3d 94af b3be 8229 ecbd 5a78 ccbe
000003d0: c848 8abe b30f e73e 9b47 a33d 763a 80be
000003e0: 9d92 fabe a764 633c c5bc 8fbe ee69 e8bd
000003f0: 2760 b1be ba6d 42be 6bf0 8d3e b203 55be

actor.init_leaf_node_embed.0.add_bias._bias f4 [32, 1]
0.1707389 -0.017932948 -0.004591549 0.08664437 0.009593901 -0.036437307 0.023047058 0.027362209
-0.13477634 0.0075897146 -0.04579087 -0.24144223 0.28768638 -0.011681428 -0.031187814 -0.023682244
0.029051263 -0.04021144 -0.08480747 0.1580313 -0.048803568 -0.044184413 0.036147866 -0.009427779
0.053663995 -0.064365946 -0.044108406 0.02552272 -0.1446334 0.2956519 0.027758794 -0.07767246
00000000: 2ed6 2e3e 1ee8 92bc b474 96bb 9a72 b13d
00000010: bd2f 1d3c 493f 15bd 2fcd bc3c b626 e03c
00000020: cf02 0abe 24b3 f83b 358f 3bbd a23c 77be
00000030: a14b 933e 7663 3fbc 967d ffbc 4401 c2bc
00000040: eafc ed3c c0b4 24bd 8aaf adbd f5d2 213e
00000050: 40e6 47bd b7fa 34bd c90f 143d f976 1abc
00000060: c7ce 5b3d 4bd2 83bd 04ab 34bd 0615 d13c
00000070: c71a 14be b05f 973e 6966 e33c bd12 9fbd

actor.init_leaf_node_embed.2.module.weight f4 [64, 32]
-0.13997616 -0.34811884 -0.27176335 -0.13491617 0.17324242 0.018034771 0.057673182 0.123652734
0.20128287 0.053441245 0.07741607 -0.2633247 -0.32750157 0.02072149 -0.264828 -0.11254204
0.20789023 -0.08005274 -0.15710178 -0.07649906 0.06802143 -0.2899558 0.2331437 0.13892315
0.11606864 -0.5163097 -0.079839684 0.10253489 0.13916911 -0.21246468 -0.029094556 -0.0113736205
0.027542945 0.15090327 0.059627116 0.09823827 0.03592416 0.012715534 0.10400161 -0.15802157
-0.10743125 -0.2830949 0.42664188 -0.021532245 -0.033750422 0.104724176 0.20151372 -0.29361054
-0.093207866 -0.16402993 -0.18981022 -0.20657988 0.10024564 -0.064098924 0.027613172 -0.123251416
-0.44384262 -0.10368109 -0.015202914 0.23526369 -0.25927308 -0.15672657 -0.04837077 0.38985056
0.31962502 0.012329324 -0.15433389 -0.051921066 0.1556755 -0.074074045 -0.1215892 0.11191057
-0.4533724 -0.107055575 -0.46628124 -0.1666443 -0.27904004 0.049332604 0.29851538 -0.09620486
-0.09912278 0.21496981 -0.30858654 -0.11493651 -0.024128811 -0.10313481 0.018686762 -0.09109982
-0.0053751273 -0.060001306 -0.0859583 -0.116750754 -0.20724462 -0.022796946 0.19075122 0.12033065
0.021942269 0.24382892 0.17584181 0.13179906 0.11958925 0.033396974 -0.02923567 0.1669258
-0.025565954 -0.12803513 -0.16529457 0.24021518 -0.25323504 0.06420175 0.05709807 0.15061474
-0.10490086 0.24600394 -0.31025624 0.04242372 0.06565967 0.14468749 -0.19898696 0.21140124
-0.008787538 0.10953924 0.16001165 0.16371122 0.29918393 -0.038519345 0.20643276 0.17201824
-0.09389699 -0.068844624 0.06652617 0.040568598 0.23401658 -0.4683344 0.22562481 -0.14283901
0.06486853 0.04592735 -0.12217691 -0.35415715 -0.08277422 0.20194104 0.12937158 -0.14264756
-0.43365398 -0.29556584 0.15615447 0.05008992 -0.27048084 0.15593721 -0.057013165 -0.010017457
-0.096079275 -0.05057655 -0.14504328 0.16177635 0.2441399 0.17354591 0.025278931 -0.18323642
0.052482236 -0.011738488 -0.18309304 0.06814844 -0.21894467 -0.057315685 0.35110766 -0.31921136
-0.1020747 0.06197992 -0.1698148 0.28891057 0.57446 0.046574093 0.19864309 -0.19593127
0.13924573 0.036555216 -0.26020336 -0.088079445 0.072867945 -0.15164457 0.0763944 0.4337155
0.083073735 -0.16214216 -0.0776495 0.16747531 -0.17042185 0.21306458 0.28717288 -0.10317436
0.26912516 -0.3113531 -0.055460483 0.11704094 -0.10200982 -0.14395721 0.16368398 0.026910756
0.20547608 -0.049674064 0.23679538 0.17840028 0.1853505 0.13509355 -0.11910377 -0.08810977
-0.44603547 0.2802341 0.06522294 0.13011861 -0.013988484 0.0089548305 -0.04415976 0.062098086
0.043524344 -0.04380476 -0.07263631 0.153479 -0.14440401 0.22111852 -0.09190056 -0.074908175
-0.12607822 0.027439114 -0.12094608 -0.304077 0.12310996 -0.03792209 -0.19983366 -0.26241326
0.19247481 -0.11578107 0.28912497 0.013994403 0.16654408 0.065944135 -0.13161935 0.30102628
-0.22749272 -0.07205725 0.038277116 -0.07548875 0.016046194 0.31194797 0.07428521 0.066997185
0.0075690197 0.21042083 0.19092782 0.17744318 -0.49289703 0.34661663 0.30024672 -0.23969005
00000000: e955 0fbe a23c b2be 9124 8bbe 7727 0abe
00000010: 7666 313e a8bd 933c b73a 6c3d a53d fd3d
00000020: 191d 4e3e 35e5 5a3d 518c 9e3d 7fd2 86be
00000030: 49ae a7be 1dc0 a93c 8997 87be 717c e6bd
00000040: 2de1 543e b1f2 a3bd 4adf 20be 8aab 9cbd
00000050: d24e 8b3d 1675 94be 39bd 6e3e df41 0e3e
00000060: 65b5 ed3d df2c 04bf fd82 a3bd d0fd d13d
00000070: 5982 0e3e 5790 59be b557 eebc 6c58 3abc
00000080: bea1 e13c 6386 1a3e 903b 743d 2531 c93d
00000090: 3625 133d d154 503c ccfe d43d 68d0 21be
000000a0: ea04 dcbd d1f1 90be ce70 da3e 6464 b0bc
000000b0: e23d 0abd a179 d63d 9d59 4e3e 1f54 96be
000000c0: c4e3 bebd 76f7 27be 9c5d 42be ad89 53be
000000d0: 964d cd3d 4c46 83bd 0535 e23c 3d6b fcbd
000000e0: 573f e3be c056 d4bd a515 79bc f7e8 703e
000000f0: 71bf 84be ee7c 20be 6e20 46bd 7e9a c73e
00000100: e4a5 a33e ef00 4a3c b409 1ebe 2fab 54bd
00000110: 6669 1f3e 22b4 97bd c203 f9bd 5e31 e53d
00000120: 6d20 e8be f43f dbbd 6abc eebe cea4 2abe
00000130: 56de 8ebe fc10 4a3d 02d7 983e 0e07 c5bd
00000140: e200 cbbd 0c21 5c3e 0eff 9dbe d563 ebbd
00000150: c9a9 c5bc 5838 d3bd fb14 993c 8b92 babd
00000160: d621 b0bb eec3 75bd e80a b0bd 051b efbd
00000170: ef37 54be a9c0 babc 4a54 433e ea6f f63d
00000180: 46c0 b33c 4aae 793e e00f 343e 55f6 063e
00000190: 35eb f43d 44cb 083d a57f efbc 99ee 2a3e
000001a0: b16f d1bc a41b 03be fb42 29be f8fa 753e
000001b0: 06a8 81be 357c 833d aadf 693d c03a 1a3e
000001c0: 43d6 d6bd 75e8 7b3e e8d9 9ebe 7fc4 2d3d
000001d0: 9478 863d f528 143e 3dc3 4bbe 9179 583e
000001e0: 9bf9 0fbc 1c56 e03d 18da 233e eaa3 273e
000001f0: a32e 993e 76c6 1dbd 1c63 533e 8d25 303e
00000200: 114d c0bd 69fe 8cbd df3e 883d 422b 263d
00000210: 0ba2 6f3e 87c9 efbe 310a 673e 6444 12be
00000220: cbd9 843d 511e 3c3d e337 fabd 1654 b5be
00000230: 8885 a9bd a2c9 4e3e fc79 043e 3412 12be
00000240: e507 debe 6854 97be f5e6 1f3e 172b 4d3d
00000250: 777c 8abe 01ae 1f3e a386 69bd 4320 24bc
00000260: 36c5 c4bd 5b29 4fbd 3a86 14be b3a8 253e
00000270: cfff 793e 05b6 313e c315 cf3c 54a2 3bbe
00000280: 9df7 563d ca52 40bc be7c 3bbe 6991 8b3d
00000290: 0833 60be dac3 6abd 62c4 b33e ac6f a3be
000002a0: 8a0c d1bd a8de 7d3d eee3 2dbe 16ec 933e
000002b0: d00f 133f 7ac4 3e3d 1869 4b3e 35a2 48be
000002c0: 6f96 0e3e ecba 153d 6039 85be ff62 b4bd
000002d0: ca3b 953d b748 1bbe ab74 9c3d f50f de3e
000002e0: 9022 aa3d 9808 26be b306 9fbd a67e 2b3e
000002f0: 1183 2ebe 9a2d 5a3e 5308 933e 144d d3bd
00000300: c6ca 893e ac69 9fbe 882a 63bd 29b3 ef3d
00000310: 86ea d0bd 8569 13be c69c 273e f273 dc3c
00000320: 5268 523e 0877 4bbd 7d7a 723e 90ae 363e
00000330: 85cc 3d3e f755 0a3e adec f3bd e572 b4bd
00000340: c35e e4be d87a 8f3e 9b93 853d d03d 053e
00000350: f42f 65bc 48b7 123c dde0 34bd 905a 7e3d
00000360: 9546 323d 9f6c 33bd 58c2 94bd 9929 1d3e
00000370: a5de 13be e56c 623e 5c36 bcbd 7569 99bd
00000380: a61a 01be fec7 e03c 94b2 f7bd fbaf 9bbe
00000390: 1321 fc3d 3254 1bbd 32a1 4cbe 085b 86be
000003a0: 1e18 453e a01e edbd 3008 943e c848 653c
000003b0: 888a 2a3e b80d 873d 39c7 06be 1e20 9a3e
000003c0: daf3 68be c092 93bd 77c8 1c3d d999 9abd
000003d0: 4f73 833c a5b7 9f3e d822 983d d235 893d
000003e0: 8a05 f83b 8f78 573e 9582 433e aab3 353e
000003f0: 005d fcbe bc77 b13e f0b9 993e 4f71 75be

actor.init_leaf_node_embed.2.add_bias._bias f4 [64, 1]
-0.26858482 0.11322969 0.01707993 -0.018439326 -0.009873847 0.29877627 0.22646806 0.17960124
0.37795845 -0.16871825 -0.026481073 0.046688795 -0.043919887 0.10397655 -0.45473057 -0.13122162
-0.062552996 0.11041252 0.028789386 0.14978026 -0.26390675 -0.025903057 0.0064323284 0.13874303
-0.14512892 -0.023196215 0.027890833 -0.035218623 -0.16534281 0.28682026 0.070375346 0.035792552
0.0842396 -0.22083594 -0.17570162 0.04884692 0.11202738 0.3413916 0.38997367 0.44039142
0.18125202 0.25056738 -0.11940527 0.1247372 -0.06313959 -0.2629081 -0.3338628 -0.1510814
0.3800034 -0.07003447 -0.17453052 0.41913986 -0.012547829 0.2141758 -0.30408576 -0.17268786
0.12845261 0.35469994 0.16379586 0.16522245 0.17313722 0.40237984 -0.28856707 -0.17590095
00000000: f383 89be f8e4 e73d 36eb 8b3c 120e 97bc
00000010: eac5 21bc 34f9 983e 3ee7 673e 63e9 373e
00000020: c583 c13e 7ac4 2cbe d6ee d8bc c03c 3f3d
00000030: 57e5 33bd a8f1 d43d 72d2 e8be f65e 06be
00000040: c91b 80bd f61f e23d b8d7 eb3c ff5f 193e
00000050: c91e 87be a632 d4bc 48c6 d23b a712 0e3e
00000060: ad9c 14be fd05 bebc 517b e43c 6741 10bd
00000070: a04f 29be 1bda 923e f320 903d 369b 123d
00000080: d085 ac3d d122 62be 20eb 33be b513 483d
00000090: 9c6e e53d e1ca ae3e a1aa c73e fc7a e13e
000000a0: 219a 393e 5e4a 803e c08a f4bd 3876 ff3d
000000b0: 544f 81bd e49b 86be 11f0 aabe 15b5 1abe
000000c0: ce8f c23e 3b6e 8fbd 21b8 32be 8099 d63e
000000d0: 6995 4dbc e750 5b3e 21b1 9bbe 16d5 30be
000000e0: 1589 033e 3b9b b53e 1aba 273e 1330 293e
000000f0: e24a 313e bb04 ce3e 10bf 93be 611f 34be

actor.init_next_embed.0.module.weight f4 [32, 6]
-0.19898763 0.16632393 -0.08350397 0.5842615 0.2696487 -0.039442666 0.20923524 0.3247803
0.008345852 0.1612961 0.08953902 -0.23632899 0.09347907 -0.39020184 0.24000815 -0.8005061
0.11075987 0.17547481 0.6625507 0.5689708 0.11215101 -0.10374105 0.2834458 0.21435101
-0.32683742 -0.060073663 -0.19316244 0.17864913 0.03472793 -0.17386687 -0.1762475 0.11519897
0.45863524 -0.021827215 -0.36446813 -0.11962268 -0.16719599 -0.22702844 -0.02351719 -0.51019734
0.0020617987 0.5052247 -0.19793385 -0.36569485 0.2535297 0.09677807 -0.12176869 0.051020224
-0.13487309 -0.25507063 0.3433237 -0.2306459 0.08671021 -0.006558801 -0.35918555 -0.15734398
-0.1450801 0.45340526 -0.17095703 -0.06136909 0.281554 -0.04757379 -0.14930771 0.030563947
-0.26054674 -0.10003121 -0.23793596 -0.18976979 -0.291293 -0.31626534 -0.016480437 -0.00034854314
0.29898015 -0.6588021 -0.04362375 -0.106120974 -0.1084514 -0.22471738 0.17393772 -0.2599807
0.30952892 0.567126 0.06332394 -0.031000316 -0.13256834 0.053219363 -0.10582405 -0.30501366
0.072424665 0.14568678 0.009358999 0.06874418 0.23305018 -0.3130055 -0.03411849 -0.25180894
-0.09104449 -0.14450301 -0.12781705 -0.7305634 0.34697646 0.31049037 -0.25647476 0.4543361
0.49786273 0.13744843 0.23430914 0.5748528 -0.18374698 -0.014539119 -0.34739035 -0.07618241
-0.14198488 -0.45034745 0.08097458 -0.22410655 0.1941824 0.30543074 -0.11810386 -0.14833374
0.048946615 0.3647977 0.16035423 -1.2493411 -0.2545045 0.37283543 0.47374028 -0.17730126
0.08304779 0.4259852 0.385547 0.6310048 -0.22655803 0.027656864 -0.091149665 0.029075945
-0.39851382 -0.018414576 -0.09044779 -0.18967167 -0.13105133 -0.114460886 -0.077962674 -0.03426972
-0.2262352 -0.07323272 0.3375078 -0.33441928 0.53578126 -0.356978 -0.13455461 -0.051775616
0.035502844 -0.120514125 -0.4855158 0.37204742 -0.38859922 -0.17052647 0.4276855 0.43795642
0.004133869 -0.29808065 0.30828634 -0.097972795 0.13798693 -0.3171557 0.07770414 -0.14973539
-0.11288443 0.1054592 -0.5193122 -0.17522812 0.037419233 0.06430211 0.17988853 -0.04259821
0.3300896 -0.22208908 -0.15412031 -0.086008005 -0.08519706 -0.022393305 -0.0009892428 -0.15605384
-0.62248594 0.59560776 0.06718376 -0.110009655 -0.15602608 -0.092616424 0.017448386 -0.15932053
00000000: 6ac3 4bbe d250 2a3e 2104 abbd 2992 153f
00000010: 650f 8a3e a28e 21bd c341 563e 9a49 a63e
00000020: 0abd 083c ce2a 253e 3c60 b73d 3a00 72be
00000030: f471 bf3d 89c8 c7be b2c4 753e f8ed 4cbf
00000040: 12d6 e23d abaf 333e ec9c 293f 12a8 113f
00000050: 6eaf e53d 3076 d4bd cf1f 913e d57e 5b3e
00000060: 3c57 a7be cd0f 76bd 60cc 45be ccef 363e
00000070: e03e 0e3d 280a 32be 3a7a 34be 70ed eb3d
00000080: 3dd2 ea3e fdce b2bc 919b babe bcfc f4bd
00000090: 6d35 2bbe 257a 68be 1fa7 c0bc 4b9c 02bf
000000a0: 3e1f 073b 6856 013f 2caf 4abe 5b3c bbbe
000000b0: a5ce 813e 9533 c63d dd61 f9bd 95fa 503d
000000c0: 2c1c 0abe 9e98 82be 20c8 af3e 702e 6cbe
000000d0: 1f95 b13d 36eb d6bb 2be7 b7be c81e 21be
000000e0: e18f 14be bc24 e83e 5c0f 2fbe 285e 7bbd
000000f0: d927 903e bcdc 42bd 1fe4 18be 3e61 fa3c
00000100: 6266 85be 2add ccbd 7ca5 73be 0353 42be
00000110: 5b24 95be 88ed a1be fb01 87bc abbc b6b9
00000120: ed13 993e 41a7 28bf d1ae 32bd f455 d9bd
00000130: c51b debd 501c 66be bb1c 323e 311c 85be
00000140: 937a 9e3e 2b2f 113f fbaf 813d 60f4 fdbc
00000150: ffbf 07be 8cfc 593d 48ba d8bd c02a 9cbe
00000160: 6253 943d ea2e 153e 7d56 193c c0c9 8c3d
00000170: b5a4 6e3e 4242 a0be d4bf 0bbd 1aed 80be
00000180: 8975 babd 99f8 13be 79e2 02be 3406 3bbf
00000190: e6a6 b13e 98f8 9e3e a950 83be be9e e83e
000001a0: dde7 fe3e 48bf 0c3e bcee 6f3e 8e29 133f
000001b0: 2b28 3cbe 7c35 6ebc 26dd b1be 8605 9cbd
000001c0: 7c64 11be f193 e6be 00d6 a53d 307c 65be
000001d0: c0d7 463e 6b61 9c3e 70e0 f1bd cde4 17be
000001e0: 3f7c 483d c4c6 ba3e e633 243e 69ea 9fbf
000001f0: 6a4e 82be 49e4 be3e 168e f23e 768e 35be
00000200: f614 aa3d bb1a da3e 6b66 c53e 8889 213f
00000210: d4fe 67be a690 e23c adac babd ad30 ee3c
00000220: 010a ccbe 2ada 96bc b13c b9bd 4a39 42be
00000230: 5232 06be 786a eabd e5aa 9fbd 685e 0cbd
00000240: 33aa 67be 09fb 95bd d3cd ac3e 0139 abbe
00000250: f628 093f d2c5 b6be afc8 09be ab12 54bd
00000260: 6e6b 113d 1cd0 f6bd 8795 f8be 007d be3e
00000270: 7af6 c6be 7e9e 2ebe 98f9 da3e d33b e03e
00000280: 6875 873b 079e 98be b5d7 9d3e f6a5 c8bd
00000290: 724c 0d3e 3b62 a2be 5923 9f3d 3c54 19be
000002a0: f42f e7bd fefa d73d a5f1 04bf 006f 33be
000002b0: e944 193d d3b0 833d b334 383e 767b 2ebd
000002c0: 8101 a93e 526b 63be b7d1 1dbe f724 b0bd
000002d0: cc7b aebd 2a72 b7bc 7ba9 81ba 94cc 1fbe
000002e0: 3d5b 1fbf c079 183f a497 893d be4c e1bd
000002f0: 4dc5 1fbe aead bdbd ebef 8e3c ec24 23be

actor.init_next_embed.0.add_bias._bias f4 [32, 1]
0.6360135 -0.10438055 -0.10162266 0.4293822 -0.011342202 -0.03558675 0.30655575 -0.028232323
-0.039936196 -0.056721535 -0.16650793 0.22488798 -0.01291027 0.32579654 -0.07950286 -0.032341793
-0.016719071 0.37430474 -0.017879738 -0.13534166 0.5296599 0.13714883 0.018211672 -0.040717117
-0.018208923 -0.06730819 -0.043909483 -0.007575882 -0.028969817 -0.008013685 -0.011451635 0.0053472845
00000000: c8d1 223f 78c5 d5bd 8b1f d0bd fcd7 db3e
00000010: a5d4 39bc 69c3 11bd e0f4 9c3e 7947 e7bc
00000020: 2394 23bd d754 68bd 0e81 2abe 0949 663e
00000030: 9985 53bc cece a63e 65d2 a2bd d478 04bd
00000040: 6ff6 88bc dfa4 bf3e 8778 92bc 0197 0abe
00000050: cb97 073f be70 0c3e a530 953c fec6 26bd
00000060: e12a 95bc e0d8 89bd 6eda 33bd 1b3f f8bb
00000070: 1c52 edbc d54b 03bc a39f 3bbc 4638 af3b

actor.init_next_embed.2.module.weight f4 [64, 32]
-0.3080467 0.11024422 0.093892075 0.21195884 0.17561676 -0.11453209 0.03061634 0.27970088
0.1214558 0.041356288 0.13737537 -0.22375806 0.0020886112 0.109779514 0.20106086 -0.018699182
0.31159362 0.2785144 -0.02000536 0.16673607 0.048418105 -0.11478949 0.25193855 0.52964354
0.071642466 0.020758118 -0.002997909 -0.15024802 -0.073342815 -0.11036589 0.032016136 -0.10489913
0.3727369 -0.021697424 -0.14202249 0.06272306 0.19902949 0.17030996 -0.34297258 0.11322224
-0.03668316 0.0811234 -0.13713571 -0.282384 -0.2730681 0.09138293 0.42706352 0.29033193
-0.2852073 0.079537176 0.15459283 -0.25177214 -0.38814604 -0.16341758 -0.22798204 -0.06345983
-0.052862078 0.12047597 0.082485 -0.15672511 0.07448135 0.06037766 -0.08084823 -0.12935847
0.15725477 0.38913155 0.08170106 0.13151687 0.06347663 0.12234226 0.20641337 -0.23436387
0.13961476 -0.12166815 -0.061255887 -0.2876079 -0.031532675 -0.3695547 -0.12511438 0.008457886
0.023711331 -0.057481907 0.041951515 -0.3243776 -0.32609066 0.38525623 0.16597639 -0.10960196
0.1603721 -0.32634553 0.038628276 0.15756567 0.25865728 -0.094117 -0.34693763 0.17967138
0.60906976 0.24730463 -0.15203758 0.3203236 0.18305826 -0.01514466 0.10548961 -0.03111138
0.01080566 0.38832772 0.14877808 0.37437767 0.073553056 0.34694067 -0.18165512 0.08221011
0.16277781 0.36015537 -0.10640555 0.17765073 0.30287132 0.19943991 -0.12392136 -0.27718043
-0.053327862 -0.017186057 -0.26537836 0.15266702 0.09891708 0.044852007 0.2036903 0.032894075
0.44822356 -0.021689173 -0.0014800484 0.3642391 0.21589215 0.16744165 0.07512433 0.16427918
0.17671601 -0.090734 -0.0210428 -0.04753534 -0.13711634 -0.0026119307 -0.18000905 -0.32812342
0.08264103 0.09299865 0.04196745 -0.2944115 0.4817216 0.19982529 -0.01630427 -0.01571366
0.16683626 0.18098392 0.15937614 -0.09702058 0.057555 0.037216187 0.1400934 -0.11780757
-0.6527993 -0.50466144 -0.059804846 -0.52903926 0.017304098 0.15170074 -0.22845255 0.15119158
0.091071896 0.1339156 -0.20558614 -0.2774783 -0.027173504 -0.100899436 -0.05527504 0.1289877
0.0013115653 -0.0685173 0.1691982 -0.010565373 -0.50421095 -0.11947198 0.07065389 -0.062809676
-0.22729339 -0.21981102 -0.1359671 -0.17788966 0.12420644 -0.21148439 0.005983293 -0.16796847
0.16939406 -0.16532308 -0.06549403 0.07981904 -0.028312035 0.07647101 -0.05993135 -0.012308405
0.4640591 0.055984735 -0.041993205 -0.07149671 -0.20424426 -0.010707681 -0.34437567 -0.27409652
-0.44712976 -0.00048124578 -0.34539604 -0.14073662 -0.10756716 0.005253816 0.06742616 -0.07760152
-0.05214618 -0.18038774 0.03239893 0.030889355 -0.072919026 0.20184426 -0.039934784 0.14865398
0.6944341 0.14830004 0.02717286 0.2916491 0.1089228 -0.23788163 0.06313073 0.14575832
-0.048547138 0.10561749 0.044772793 0.49066952 0.3397853 -0.13355574 0.28319547 -0.15695259
0.0941012 0.20463377 0.05634301 -0.074382074 -0.13745727 0.58584434 0.16906768 0.06875046
0.22183216 0.04990454 -0.26859856 -0.11318715 -0.17670003 -0.16982575 0.39396697 0.049258277
00000000: 4cb8 9dbe b9c7 e13d 7d4a c03d bd0b 593e
00000010: e1d4 333e cd8f eabd 1ecf fa3c f434 8f3e
00000020: d2bd f83d 3665 293d 21ac 0c3e d520 65be
00000030: 15e1 083b 15d4 e03d e6e2 4d3e 072f 99bc
00000040: 3389 9f3e 7099 8e3e 48e2 a3bc dcbc 2a3e
00000050: 1052 463d c116 ebbd 17fe 803e b896 073f
00000060: 49b9 923d ee0c aa3c 9178 44bb 9eda 19be
00000070: c234 96bd 8307 e2bd 5a23 033d 5bd5 d6bd
00000080: 5fd7 be3e ccbe b1bc 586e 11be f374 803d
00000090: 63ce 4b3e bc65 2e3e 1a9a afbe 10e1 e73d
000000a0: 1541 16bd 0624 a63d 4e6d 0cbe a394 90be
000000b0: 95cf 8bbe f926 bb3d 12a8 da3e 63a6 943e
000000c0: b106 92be 63e4 a23d 954d 1e3e 47e8 80be
000000d0: 14bb c6be f056 27be 2074 69be 3af7 81bd
000000e0: e885 58bd 1bbc f63d e5ed a83d 8c7c 20be
000000f0: ae89 983d 914e 773d c293 a5bd 8c76 04be
00000100: 6507 213e 403c c73e e352 a73d 5cac 063e
00000110: 0900 823d 948e fa3d 075e 533e 15fd 6fbe
00000120: 2cf7 0e3e 272d f9bd 74e7 7abd 5841 93be
00000130: 6828 01bd 4636 bdbe fc1d 00be f292 0a3c
00000140: 443e c23c 2672 6bbd 5ad5 2b3d d214 a6be
00000150: 5bf5 a6be 4e40 c53e b7f5 293e fe76 e0bd
00000160: 9538 243e c316 a7be af38 1e3d e558 213e
00000170: ba6e 843e 6ac0 c0bd cfa1 b1be c6fb 373e
00000180: ffeb 1b3f 6d3d 7d3e bdaf 1bbe 7401 a43e
00000190: a073 3b3e 4f21 78bc f00a d83d 4bdd febc
000001a0: 390a 313c e4d2 c63e 4859 183e 6eae bf3e
000001b0: fca2 963d 35a2 b13e cd03 3abe c65d a83d
000001c0: 3aaf 263e 4966 b83e 27eb d9bd 13ea 353e
000001d0: f311 9b3e fa39 4c3e 7bca fdbd 98ea 8dbe
000001e0: 516e 5abd c6c9 8cbc acdf 87be be54 1c3e
000001f0: 0a95 ca3d bdb6 373d 3194 503e f0bb 063d
00000200: 8f7d e53e 7ead b1bc 2ffe c1ba 8c7d ba3e
00000210: d512 5d3e d375 2b3e c9da 993d cd38 283e
00000220: 0bf5 343e bfd2 b9bd f361 acbc 6bb4 42bd
00000230: 3a68 0cbe ed2c 2bbb 4b54 38be cbff a7be
00000240: b33f a93d 1476 be3d 10e6 2b3d 1bbd 96be
00000250: 37a4 f63e 009f 4c3e 8890 85bc efb9 80bc
00000260: 20d7 2a3e d953 393e 8033 233e bab2 c6bd
00000270: cbbe 6b3d 0070 183d a574 0f3e 1845 f1bd
00000280: db1d 27bf 7e31 01bf edf5 74bd 1e6f 07bf
00000290: 53c1 8d3c 7057 1b3e 77ef 69be f7d1 1a3e
000002a0: e783 ba3d 2c21 093e 2c85 52be a311 8ebe
000002b0: f89a debc 5da4 cebd 1568 62bd 5a15 043e
000002c0: d4e8 ab3a cc52 8cbd 4b42 2d3e 631a 2dbc
000002d0: f813 01bf baad f4bd fdb2 903d 5ca2 80bd
000002e0: 99bf 68be 2416 61be f63a 0bbe b528 36be
000002f0: f25f fe3d 5d8f 58be 800f c43b edff 2bbe
00000300: a375 2d3e 744a 29be bc21 86bd 2a78 a33d
00000310: a4ee e7bc d59c 9c3d 937a 75bd 31a9 49bc
00000320: 2899 ed3e 4050 653d 1101 2cbd de6c 92bd
00000330: 6825 51be 456f 2fbc 0252 b0be 6156 8cbe
00000340: 31ee e4be b74f fcb9 c0d7 b0be 431d 10be
00000350: 2c4c dcbd 3428 ac3b ba16 8a3d 8ced 9ebd
00000360: 3c97 55bd 90b7 38be beb4 043d ac0b fd3c
00000370: 9256 95bd 43b0 4e3e a892 23bd c038 183e
00000380: 6fc6 313f f7db 173e 9e99 de3c 0853 953e
00000390: eb12 df3d 3e97 73be af4a 813d ab41 153e
000003a0: 5dd9 46bd fc4d d83d ad63 373d 0939 fb3e
000003b0: 57f8 ad3e d6c2 08be fffe 903e 2eb8 20be
000003c0: 21b8 c03d 848b 513e eec7 663d a155 98bd
000003d0: 99c1 0cbe e5f9 153f 1420 2d3e 0bcd 8c3d
000003e0: f827 633e b468 4c3d c085 89be aace e7bd
000003f0: daf0 34be cde6 2dbe 0ab6 c93e 0cc3 493d

actor.init_next_embed.2.add_bias._bias f4 [64, 1]
-0.14034043 -0.09857184 -0.0019452076 0.80783695 0.4652188 -0.8545312 0.052906282 0.5798464
-0.32617864 -0.036580134 0.11517406 0.3413802 0.106644474 -0.29797566 0.57025015 -0.38646877
0.1476797 0.35404363 0.15387765 0.2208806 -0.24965937 0.034141757 -0.11271774 -0.41479847
-0.11099384 -0.1747104 -0.64000076 -0.08092937 0.84722096 -0.053058986 -0.25976914 0.44610527
-0.15121372 0.14508404 -0.063450426 -0.18440092 -0.37092474 -0.6407032 -0.56238675 -0.6056073
-0.123078674 -0.08955407 -0.16153885 -0.32973832 -0.3036969 0.67963487 0.14723602 0.061633162
0.56302047 0.2186053 -1.0012267 -0.47160327 0.16006152 -0.4735472 0.81717753 -0.25621384
-0.07192777 -0.5837244 -0.0018857915 0.42176613 0.1122018 0.24071394 -0.14268188 -0.06755427
00000000: 67b5 0fbe 08e0 c9bd 56f6 feba 67ce 4e3f
00000010: 2931 ee3e 8fc2 5abf 42b4 583d d070 143f
00000020: e300 a7be 0dd5 15bd 61e0 eb3d 63c9 ae3e
00000030: 6b68 da3d 4490 98be eafb 113f 3cdf c5be
00000040: 5939 173e 3545 b53e 1a92 1d3e 862e 623e
00000050: b5a6 7fbe 3ad8 0b3d 8fd8 e6bd 7760 d4be
00000060: bd50 e3bd 48e7 32be 17d7 23bf 4cbe a5bd
00000070: 79e3 583f 6154 59bd 7600 85be e967 e43e
00000080: c5d7 1abe e990 143e 4cf2 81bd 98d3 3cbe
00000090: d9e9 bdbe 2005 24bf 94f8 0fbf 1409 1bbf
000000a0: ac10 fcbd 2068 b7bd 716a 25be 76d3 a8be
000000b0: 297e 9bbe 8dfc 2d3f 0ac5 163e 0e73 7c3d
000000c0: 1c22 103f 11da 5f3e 3228 80bf fc75 f1be
000000d0: 2be7 233e c774 f2be 8c32 513f 762e 83be
000000e0: de4e 93bd f66e 15bf aa2c f7ba bbf1 d73e
000000f0: 0fca e53d b77d 763e 331b 12be e559 8abd

actor.embedder.layers.0.0.module.W_query.weight f4 [64, 64]
-0.079342075 0.025983892 -0.18821208 -0.07148741 -0.12816963 0.03086695 -0.047558226 -0.12836891
0.014340454 -0.05774883 0.040273312 0.012800409 0.14173241 0.092905246 -0.090689816 -0.0056673135
-0.12853502 0.105865695 -0.0039073825 0.07034235 -0.13611823 0.049124356 -0.09586266 -0.054258347
-0.014556378 0.055002846 0.069708005 -0.10397552 -0.14307544 0.13147044 -0.0726549 0.024817413
0.076472275 -0.13581046 -0.093798354 0.027903209 -0.07573197 -0.007463976 0.0785747 0.017280828
0.008239039 -0.019053267 -0.15126231 -0.13552052 0.0060465704 -0.10898073 0.09220898 0.056635026
0.047583852 -0.0074345763 -0.083141655 0.04547829 -0.1400503 -0.08251814 -0.08943109 -0.1508028
-0.08528963 0.055122115 -0.0539429 0.09796882 -0.071708016 0.06790455 0.058366977 0.10576743
0.054718662 0.10488473 -0.022540716 -0.03403399 -0.0038582536 0.10078197 0.035353947 0.08451941
0.071321785 -0.12780946 -0.036129292 0.104460046 0.08479846 -0.18672584 0.09945621 -0.05594763
0.038675454 0.028879855 -0.02676474 0.09034434 0.040585715 0.15888461 0.11791345 -0.08786582
0.0136547005 -0.109130345 0.10698594 -0.07535632 0.089654036 -0.1467216 0.118347585 0.09551938
-0.095882654 -0.061504316 0.018827839 -0.010286604 -0.11087646 -0.08512054 -0.07293859 -0.051981658
0.11244292 -0.06570987 0.10970007 -0.040199116 0.019972052 0.08227523 -0.006764019 -0.009084399
-0.10438225 0.0848749 0.005904063 0.005937828 0.0043373904 -0.05860797 -0.09712459 -0.0013687573
0.047444835 0.05914647 0.06638244 0.011093062 0.07992908 -0.041783534 -0.12501785 0.07201523
-0.08950138 0.11602091 0.16987886 -0.08820291 -0.034040906 0.1497179 -0.07030655 0.06918594
0.14807957 -0.056399766 -0.09617351 0.072092414 -0.18804543 0.06346228 -0.1577671 -0.13328809
-0.00863106 0.06776892 -0.15688705 -0.08402192 0.06979264 -0.012321856 -0.016767563 0.038907517
-0.025654653 0.1080211 -0.09242869 -0.039917115 0.08899624 -0.09106331 0.15216756 0.0060475855
0.10870711 0.11865156 -0.024840876 0.028055822 -0.015206004 0.12201348 0.005785728 -0.038181268
-0.055374872 0.10919513 0.16748017 -0.10262346 -0.1701927 -0.12989607 -0.03718737 -0.065345734
-0.0010813739 -0.06530516 -0.061968166 0.13960639 -0.028775448 0.07220416 -0.08535961 -0.088260025
0.09660431 0.051190853 0.026388368 0.15183982 0.111920826 -0.022667347 0.038020983 0.06936547
0.017425152 0.04269362 0.014000854 0.11880476 -0.056920838 -0.06501141 -0.09839417 -0.05067441
-0.11237719 -0.04922312 -0.09550669 -0.05733843 -0.08707343 0.010040392 0.03655823 0.022527417
-0.011188153 0.024241896 -0.07449955 0.030186407 0.09473601 0.07551151 -0.06808422 0.08386307
-0.06368174 0.030935692 -0.09782658 -0.021041756 0.14911091 0.0033782376 -0.07830661 0.059218697
0.14704143 -0.009683481 -0.008768596 0.10599374 0.07373837 0.10480017 0.017859234 -0.09493891
0.102468796 -0.061921414 0.023225276 0.07661562 -0.060507566 -0.006738694 0.0888258 -0.06064783
0.08886508 0.0759497 -0.031479113 0.027681937 -0.065953925 0.010906535 0.018433794 0.072194286
-0.033856872 -0.10500963 -0.012526766 -0.04839304 -0.11335789 -0.050720047 0.06825842 0.034116313
00000000: 197e a2bd 2cdc d43c abba 40be fe67 92bd
00000010: e63e 03be b0dc fc3c 6acc 42bd 2473 03be
00000020: 39f4 6a3c 0a8a 6cbd a1f5 243d cfb8 513c
00000030: 4d22 113e 1b45 be3d 95bb b9bd dfb4 b9bb
00000040: af9e 03be 1dd0 d83d 8009 80bb a60f 903d
00000050: 9462 0bbe 9f36 493d a453 c4bd 003e 5ebd
00000060: e07d 6ebc aa4a 613d 12c3 8e3d 1ef1 d4bd
00000070: 5e82 12be 30a0 063e 18cc 94bd e34d cb3c
00000080: 7f9d 9c3d e611 0bbe 5a19 c0bd 4595 e43c
00000090: 5d19 9bbd 5e94 f4bb c6eb a03d 8690 8d3c
000000a0: 09fd 063c 9915 9cbc 82e4 1abe e4c5 0abe
000000b0: 4f22 c63b 4a31 dfbd 10d8 bc3d 21fa 673d
000000c0: 49e7 423d bf9d f3bb 2c46 aabd 7247 3a3d
000000d0: 5969 0fbe 45ff a8bd a627 b7bd 0d6c 1abe
000000e0: 54ac aebd bac7 613d 3bf3 5cbd e0a3 c83d
000000f0: a7db 92bd 8a11 8b3d 3612 6f3d 989c d83d
00000100: ad20 603d cecd d63d 4fa7 b8bc 3a67 0bbd
00000110: c1da 7cbb c766 ce3d 4dcf 103d 8318 ad3d
00000120: 2811 923d 7ce0 02be 4ffc 13bd 26ef d53d
00000130: d1aa ad3d 0f35 3fbe b3af cb3d 5829 65bd
00000140: 276a 1e3d 7295 ec3c ba41 dbbc 7406 b93d
00000150: 353d 263d a6b2 223e 9b7c f13d fff2 b3bd
00000160: f7b7 5f3c bb7f dfbd 721b db3d 6a54 9abd
00000170: 899c b73d 303e 16be 3860 f23d aa9f c33d
00000180: 205e c4bd f3eb 7bbd d73c 9a3c 2589 28bc
00000190: 3313 e3bd ad53 aebd d460 95bd b8ea 54bd
000001a0: 7948 e63d e592 86bd 6eaa e03d d4a7 24bd
000001b0: 6e9c a33c ea7f a83d b4a4 ddbb bbd6 14bc
000001c0: 5cc6 d5bd e4d2 ad3d df76 c13b 1d92 c23b
000001d0: ab20 8e3b e90e 70bd 42e9 c6bd e067 b3ba
000001e0: 8455 423d 9243 723d 84f3 873d adbf 353c
000001f0: dcb1 a33d 3625 2bbd ae04 00be b97c 933d
00000200: 804c b7bd 5f9c ed3d b9f4 2d3e baa3 b4bd
00000210: 7a6e 0bbd a64f 193e e1fc 8fbd 5cb1 8d3d
00000220: 2ca2 173e 7103 67bd 9ef6 c4bd 30a5 933d
00000230: fb8e 40be 83f8 813d b38d 21be ac7c 08be
00000240: 4a69 0dbc 6eca 8a3d 00a7 20be af13 acbd
00000250: 72ef 8e3d 9ce1 49bc 215c 89bc 7d5d 1f3d
00000260: b529 d2bc 2b3a dd3d 414b bdbd 2180 23bd
00000270: a943 b63d 677f babd d0d1 1b3e d32a c63b
00000280: d5a1 de3d 97ff f23d 187f cbbc 53d5 e53c
00000290: 9a22 79bc 34e2 f93d 3496 bd3b f663 1cbd
000002a0: c3d0 62bd b2a1 df3d ec7f 2b3e 402c d2bd
000002b0: ff46 2ebe 7a03 05be c951 18bd fcd3 85bd
000002c0: e3bc 8dba b6be 85bd 55d2 7dbd faf4 0e3e
000002d0: 7dba ebbc c6df 933d 05d1 aebd acc1 b4bd
000002e0: 7bd8 c53d 80ad 513d 6b2c d83c e67b 1b3e
000002f0: bf36 e53d dfb0 b9bc e4bb 1b3d 7c0f 8e3d
00000300: 31bf 8e3c 81df 2e3d d763 653c e94f f33d
00000310: d325 69bd b424 85bd e282 c9bd f88f 4fbd
00000320: 0326 e6bd 2f9e 49bd 0399 c3bd b4db 6abd
00000330: 8e53 b2bd 7580 243c 15be 153d 6b8b b83c
00000340: 844e 37bc f196 c63c 3893 98bd 7c49 f73c
00000350: f404 c23d c7a5 9a3d bd6f 8bbd 67c0 ab3d
00000360: 926b 82bd d96c fd3c 4d59 c8bd c35f acbc
00000370: 88b0 183e 6c65 5d3b 375f a0bd 4e8f 723d
00000380: 0792 163e 77a7 1ebc 28aa 0fbc 3f13 d93d
00000390: 2404 973d 79a1 d63d 874d 923c 556f c2bd
000003a0: 29db d13d 4fa1 7dbd ef42 be3c a6e8 9c3d
000003b0: c8d6 77bd 43d0 dcbb 4dea b53d dc69 78bd
000003c0: e5fe b53d 848b 9b3d 3ef0 00bd 3bc5 e23c
000003d0: da12 87bd 53b1 323c 7802 973c 99da 933d
000003e0: 81ad 0abd 4a0f d7bd 113d 4dbc c837 46bd
000003f0: 2e28 e8bd d3bf 4fbd 12cb 8b3d 8cbd 0b3d
