pretrained_models/experiment/Discrete_A2C_20x10x10Bin_s42_inh_800_defaultBox-2022.08.18-19-42-34/PCT-Discrete_A2C_20x10x10Bin_s42_inh_800_defaultBox-2022.08.18-19-42-34_2022.08.18-21-15-09.pt (torch, 236314 bytes, 24 tensors)

actor.init_internal_node_embed.0.module.weight f4 [32, 6]
000000 3c 63 4f 3e bb e4 1a 3f d7 af 1d 3f 4f 2f 82 be
       0.20252699 0.60505265 0.61596435 -0.2542672
000010 b8 09 b6 bb 08 50 4e 3e 14 fc 2c 3e 61 fd e0 3e
       -0.005555358 0.20147717 0.16893035 0.43943313
000020 ca 48 23 bd 92 fa da bd 4c b3 ae be 6b 0e a7 bd
       -0.03986434 -0.10692324 -0.34121168 -0.08157047
000030 20 5e fb 3c f7 70 30 bd 68 c8 51 3d c0 36 df 3d
       0.03068453 -0.04307648 0.051216513 0.108991146
000040 55 85 8d be 08 5c bb 3d 64 b3 f6 be 68 b2 87 bc
       -0.27640787 0.09148413 -0.4818374 -0.016564563
000050 22 26 be be 47 a8 03 3f 31 f6 8c 3e 8a c1 60 3f
       -0.37138468 0.51428646 0.2753158 0.8779532
000060 14 89 f4 3e 54 22 16 be 7d 62 7f bd 7b 4f c4 3d
       0.47760832 -0.14661533 -0.062349785 0.09585472
000070 01 2e 2f bd aa 17 10 be a5 e4 5b 3e e6 b1 04 3e
       -0.042768482 -0.14071527 0.2147394 0.12958488
000080 98 9d c3 be 29 4a da 3e b2 a0 04 be 03 bd 8e be
       -0.38206172 0.42634705 -0.12951925 -0.2787858
000090 a4 30 e3 be 3b 7e 52 3e af 04 0e 3e e1 98 3d 3e
       -0.44373047 0.20555966 0.13868974 0.1851535
0000a0 8e c3 a8 be 16 d2 2b be 49 7f 6b 3e d3 6d 0f be
       -0.32961696 -0.1677936 0.22997774 -0.14006738
0000b0 2a 6d 00 3f 6c 97 eb bb 76 8d 34 bf 17 a4 0f 3e
       0.5016657 -0.0071896818 -0.7052835 0.14027439
0000c0 b4 fb db be 0a 37 e2 3d ae bf 45 bf 4b 38 cc 3e
       -0.42965472 0.11045654 -0.77245605 0.39886698
0000d0 35 7b 14 3d da 3e 15 3d 6f 3c 1f 3f b6 13 5c bc
       0.036250312 0.036436893 0.6220159 -0.013432434
0000e0 86 65 d0 bd 69 ac 22 3e 04 64 49 be 44 82 08 be
       -0.10175614 0.15886082 -0.19667059 -0.13330942
0000f0 74 55 61 3a 67 8e fd 3d 31 e2 a3 be f6 d4 fc 3e
       0.00085958024 0.12380677 -0.32008508 0.49381226
000100 c5 03 00 3f 24 fc 19 bf b2 cc 48 be 7f cf 20 be
       0.5000575 -0.6015036 -0.19609335 -0.15704153
000110 01 02 0b be 90 21 d4 bd e9 96 ae be 2c ea 4e be
       -0.13574983 -0.10357964 -0.3409951 -0.20206517
000120 df 27 5a 3f 42 54 ee 3d e9 78 d7 3d b9 59 74 bd
       0.8521709 0.11637165 0.10521109 -0.05965588
000130 5d ca ee bd ba 89 4c be a1 c1 d5 3e de 79 9a 3d
       -0.116596915 -0.19974414 0.4174929 0.075427756
000140 63 80 6d be 0a db d5 bd ec 1e 87 3e 1f 1c a6 be
       -0.23193507 -0.10442169 0.2639078 -0.3244333
000150 cd e3 9f 3e f9 05 e7 3e 63 83 af be 5e 05 42 3c
       0.31228486 0.45121744 -0.34279928 0.0118421
000160 f2 03 79 3d 8d 4a 8b bd 38 f5 04 bd f2 24 93 be
       0.06079478 -0.06801329 -0.03246042 -0.28739125
000170 e2 54 78 be 3b 57 a8 bd 2f 63 16 3e 58 21 92 be
       -0.2425113 -0.08219763 0.14686273 -0.28541064
000180 4a 46 5b 3c 18 79 0d be d3 9f c7 3e a5 c3 20 bf
       0.013383457 -0.13815725 0.38989124 -0.6279853
000190 0e 88 02 3f d1 ab f4 3e 97 64 29 3d 98 40 db 3c
       0.5098885 0.47787336 0.041355696 0.0267642
0001a0 80 61 cf 3d 77 27 81 3e af 6e 12 bf 42 4c b9 be
       0.101260185 0.25225422 -0.5720014 -0.36190993
0001b0 f0 25 98 3e aa d7 e6 3d 28 fa ff be de 58 94 3e
       0.29716444 0.112716034 -0.49995542 0.2897405
0001c0 bb 62 fb 3d 04 e8 91 bd a5 ac b4 3e ab 86 3b be
       0.12274691 -0.071243316 0.35287967 -0.1831309
0001d0 87 ab 89 3d 63 4f 64 be eb 76 db bd e2 40 d5 3d
       0.06722169 -0.22295909 -0.10716041 0.10412766
0001e0 c7 67 2d 3d c4 fb 91 3e 31 73 d4 be 68 7e 9b 3e
       0.042335298 0.28512394 -0.41494134 0.30369878
0001f0 85 9d a6 bc 0f d5 00 bf 70 49 27 be 43 66 ce bd
       -0.020338783 -0.503251 -0.16336608 -0.100780986
000200 13 f1 87 be a6 e6 1c 3e 2d b8 e4 bd e9 89 d8 be
       -0.26551113 0.1532236 -0.11167941 -0.42292717
000210 35 49 47 bf b3 65 5f bf d9 ab 61 bf 72 5d 0b 3f
       -0.7784608 -0.87264556 -0.88152844 0.5443946
000220 68 4f e8 3e ad 51 e3 3e 1e d2 83 be c0 a5 8b bd
       0.45373082 0.4439825 -0.25746244 -0.06818724
000230 ea 29 5b be 35 65 19 3d cb 87 6f bd aa 22 27 3f
       -0.21402708 0.037450034 -0.05847911 0.6528727
000240 f8 7c e8 bd 5e d2 5b 3a 22 62 84 3f 17 4a ab 3e
       -0.11351961 0.0008385534 1.0342448 0.33454964
000250 da 66 d0 3d d5 71 7a 3e 9f 13 d4 bd a7 1c 92 3e
       0.101758674 0.24457486 -0.10355305 0.28537485
000260 20 79 92 3e f3 c4 87 be 19 76 a7 bd 3d 80 f3 3e
       0.28608036 -0.26517448 -0.08176822 0.47558776
000270 3f d3 67 be 54 83 2e 3d f9 e1 4f be 8b f4 08 bd
       -0.22639178 0.042605713 -0.20301045 -0.03343634
000280 45 14 99 3e ff 1a c4 bd 5d 13 91 bd 65 2d db 3c
       0.29898277 -0.095754616 -0.070837714 0.026755044
000290 3f f9 b1 3e f7 73 bb be ee 5f 3c bd 3a 3d 41 be
       0.34760472 -0.36611912 -0.045989923 -0.18871012
0002a0 74 8e b4 be 20 7f 1d bf 98 75 7f bd ce a0 2d 3d
       -0.35264933 -0.615221 -0.062368006 0.042389683
0002b0 d4 08 34 3e e0 da 18 3d ad 25 81 be c0 f5 4b 3e
       0.17581493 0.03731811 -0.25224057 0.19917965
0002c0 c3 33 64 3e 94 4f 6a be 9a 93 a9 bd e7 73 1e bd
       0.2228537 -0.22881919 -0.08280106 -0.03868475
0002d0 41 ea c0 3e a2 33 a7 ba 21 94 20 3d fb 05 a2 bd
       0.37678722 -0.0012756477 0.039203767 -0.07911297
0002e0 d3 27 5f 3e 4e c0 cf be 59 15 5e 3e b3 26 56 3e
       0.21792535 -0.40576404 0.21687831 0.209132
0002f0 fa 14 86 be 82 56 04 be 6f 3a 12 bd 30 b9 a9 3e
       -0.2618788 -0.12923625 -0.035700258 0.331491

actor.init_internal_node_embed.0.add_bias._bias f4 [32, 1]
000000 58 a4 02 3d 12 f1 84 3c 36 5d f4 bc 8b b1 7b 3d
       0.03189501 0.016228233 -0.029829603 0.061448615
000010 35 8b fb 3d 28 75 31 3c d4 24 fe bc 87 41 b4 3c
       0.12282411 0.010831155 -0.03102342 0.022003902
000020 de 4e e8 3c 8d 18 a2 3d 72 76 ca 3c 23 b5 9e 3c
       0.02835792 0.07914839 0.024714682 0.019373482
000030 b0 03 23 3d 2c 36 c2 3c 15 e5 be 3b c2 86 ac bb
       0.03979844 0.023707472 0.0058256485 -0.005265088
000040 a8 27 51 3c d5 e0 2e 3c a1 d2 9b 3a 1d 27 c2 39
       0.012765802 0.010673721 0.0011888334 0.00037031705
000050 bd dd 42 bc 0c 28 af 3c 3c 32 99 bb 4b d2 dc bb
       -0.011893687 0.0213814 -0.004675178 -0.006738936
000060 f4 b0 85 3d ec 4e 7d 3c 85 37 3c bc 4b 38 2a bc
       0.06527892 0.015460711 -0.011487846 -0.010389398
000070 47 11 68 3b 0f 45 ad ba 39 29 3a 3c 02 41 18 3d
       0.0035410689 -0.0013219434 0.011362367 0.03717137

actor.init_internal_node_embed.2.module.weight f4 [64, 32]
000000 a3 61 88 be a9 d7 36 3d df 11 25 be 4d 14 b3 3e
       -0.2663699 0.044639263 -0.16120099 0.34976426
000010 e2 be 22 3e d6 09 f9 3c 4c ff a9 3d ab 26 d6 3d
       0.15893129 0.030400198 0.08300647 0.10456594
000020 c6 56 4a be ea 24 9a be 73 3d dc bd 88 79 24 3d
       -0.19759664 -0.30106288 -0.10753908 0.040154964
000030 c7 4e 90 be 5e d2 1f be 61 9e 88 3d c4 09 34 be
       -0.28185102 -0.15607592 0.066708334 -0.1758185
000040 5d 82 cf 3e 51 1d a7 bd 95 78 cf bd 8f ab 6f 3e
       0.40529147 -0.081598885 -0.10130421 0.23405288
000050 4c b1 e9 3c f4 f0 5d be 6f 98 72 bd 69 7e f8 bd
       0.028526925 -0.21673948 -0.059227403 -0.12133486
000060 7d aa 8e 3d cd e9 ae 3e 0c 37 33 3e db f0 cb 3d
       0.06966112 0.3416275 0.17501467 0.09958049
000070 45 93 da 3b 2e c0 56 be 39 36 1d be 05 99 23 3e
       0.006670388 -0.20971748 -0.15352716 0.15976341
000080 ee 7b ad be 49 e8 a3 be c3 2b b7 be 06 43 7e be
       -0.33883613 -0.32013157 -0.35775575 -0.24830255
000090 64 83 19 3d ce 9d 10 3e 40 68 45 3b 3d 65 d4 3e
       0.03747882 0.14122698 0.0030121952 0.4148349
0000a0 07 1d a7 bc 91 ce ee bd a6 f8 40 bd f7 51 5a bd
       -0.020399584 -0.11660493 -0.04711213 -0.053300824
0000b0 d4 da 9b be 31 55 bf 3d 8e 6b 61 be 8f 8e 26 3e
       -0.3044039 0.09342421 -0.22013685 0.1626532
0000c0 78 32 89 3d 51 fe c0 3b 7a 26 d5 be 5e 97 1a be
       0.06699079 0.005889692 -0.41630918 -0.15096804
0000d0 6d 75 8c 3e b1 b3 c1 3d d1 81 1b 3e dc 58 7a be
       0.2743334 0.094581015 0.1518624 -0.2444796
0000e0 37 82 8f be 19 25 aa 3d 86 a9 e5 bb 59 43 27 3e
       -0.28029034 0.08307857 -0.007008734 0.16334285
0000f0 09 90 6f be 2c a6 59 3e 00 55 ae 3e 79 11 a6 3c
       -0.23394789 0.21254796 0.34049225 0.020272003
000100 e4 b2 4b 3f 31 80 30 be 72 9c 4a bd 06 9e db 3e
       0.7956984 -0.17236401 -0.049465604 0.42894
000110 de d0 9f be 96 16 80 3e 3c 72 8a be 6e 9a 3c be
       -0.3121404 0.25017232 -0.2704028 -0.18418285
000120 70 36 d7 3d 6a 36 87 3e 8f 70 ef 3d 62 ee 97 be
       0.1050843 0.26408702 0.11691391 -0.2967406
000130 5a 9e 55 3f 7d 62 5f be 46 8d f0 3d 60 dd 4f bc
       0.8344475 -0.21814914 0.11745696 -0.012687057
000140 d6 51 5c 3e b9 9a 8f 3d 4b b8 d5 3d 24 ca 70 3e
       0.21515593 0.07011933 0.10435542 0.2351461
000150 d7 b8 c2 be ff ee a8 bd 69 aa 82 bd 5e ec 4a be
       -0.38031647 -0.0824871 -0.063801594 -0.1981673
000160 61 16 35 3f c1 53 6d be 32 ab 24 be db a0 50 bd
       0.7073727 -0.23176481 -0.16080931 -0.050934654
000170 34 11 28 3d fa 46 0e 3d cc b7 72 3e a1 87 c2 3d
       0.04103203 0.034735657 0.23702925 0.094985254
000180 83 c5 cc bc 20 91 09 3f 57 1f c3 bd ed 58 b2 be
       -0.024996525 0.5373707 -0.09527462 -0.3483347
000190 a2 32 35 3d f0 e4 26 be bf 7a a0 be 1e 47 ad 3d
       0.04423774 -0.1629827 -0.31343648 0.0846083
0001a0 4f e8 76 be 40 f7 ce bb 67 cb 43 bd 42 72 eb 3e
       -0.24112056 -0.0063160956 -0.0478014 0.4598561
0001b0 53 b4 b6 3d 16 b7 ff bd 52 fe 0b be e4 4f 31 be
       0.08921113 -0.12486093 -0.13671234 -0.17315632
0001c0 34 61 aa bd 13 08 33 be 3a 34 2a be 91 9e 3d be
       -0.08319321 -0.17483549 -0.16621485 -0.1851752
0001d0 ba 73 92 be 89 be 55 3d 7b 9d 64 3e d4 8d 03 3e
       -0.28603917 0.05218366 0.22325699 0.12847072
0001e0 5d 01 9e be 0d 2c 19 3e 03 29 c4 3d 19 83 1a 3d
       -0.30860415 0.1495821 0.09578135 0.03772268
0001f0 9a 23 0b 3e a0 8a 07 3e e2 de 37 3d d5 50 af bd
       0.135878 0.13236475 0.044890292 -0.08560339
000200 ed b4 b1 be 5a 4c ef bc ed d4 f7 3d e6 19 1e bd
       -0.34708348 -0.029211212 0.12101159 -0.038598917
000210 ad 4b 39 be a9 f3 e3 bc 55 2a f9 bd 6f 92 2f bd
       -0.18095274 -0.027826147 -0.12166277 -0.04286426
000220 4b 43 05 3e 8d 78 c0 3d dd 38 a8 3d 67 34 7b be
       0.13013951 0.09397993 0.08213971 -0.24531709
000230 42 ea 05 3d ca 48 89 3e 5b 17 0d 3e 71 c4 3b bc
       0.03269411 0.26813346 0.1377844 -0.0114604095
000240 47 d4 e9 3d bd 2f 7f 3d 2f 77 94 be 52 58 2b be
       0.11417442 0.062301386 -0.2899718 -0.1673291
000250 ae 75 f9 bc ad c6 46 bd bc f5 15 3f 45 6c 37 be
       -0.030451622 -0.048529316 0.58578086 -0.17912395
000260 98 6e f7 be 9d 3f 02 3d 24 1d 19 3e e3 f5 24 3c
       -0.48326564 0.031798948 0.14952523 0.01006839
000270 ee 6d 80 3e 97 b2 ed bc 1d 0e 2d 3e 1d 7e d7 3a
       0.2508387 -0.029015822 0.16899915 0.0016440783
000280 0d 31 bb be 94 14 be 3d 86 f2 ea bd 10 ed ca 3d
       -0.3656086 0.09281269 -0.11472039 0.09908497
000290 ad 8e 1d 3f 2d f9 11 3e 0b 33 95 3e f9 5e cf be
       0.6154583 0.1425521 0.29140505 -0.40502146
0002a0 d1 ac 97 3e bf 5f ec 3e 82 80 1d 3f 54 dd 36 3e
       0.29624036 0.46166798 0.6152421 0.17857867
0002b0 25 32 03 3e 0c 95 35 3e be 2a bb 3e 9c 45 24 bc
       0.12812097 0.17732638 0.36556047 -0.010026362
0002c0 71 5f 4b be 92 5b 93 3c 37 b4 9a 3d 4f 20 18 be
       -0.19860627 0.017988 0.075539045 -0.14856075
0002d0 78 e2 b7 3e 7d 27 03 bd e6 62 3a bd 18 61 60 bd
       0.3591497 -0.03202008 -0.045504473 -0.054780096
0002e0 db 62 66 bf fb 8f 7c 3d 0f ff 72 be 28 2e 6f be
       -0.8999459 0.061660748 -0.2373011 -0.23357451
0002f0 79 98 6e bd 48 41 3d 3c ad 5f c6 3e c5 b5 32 bd
       -0.058250878 0.011551209 0.3874487 -0.04363038
000300 e8 b2 86 bc 5e f0 7b be c4 5d 2d be 16 3e fb be
       -0.016442731 -0.24603412 -0.169303 -0.49070805
000310 d5 0e c6 3d 89 83 02 3e 62 67 71 bd 49 94 d5 bd
       0.09670798 0.12745489 -0.058936484 -0.10428674
000320 ad 97 47 be 44 f9 18 3f 7f e5 8f bd 6d a3 d8 3d
       -0.19491453 0.5975535 -0.07026195 0.10578046
000330 38 93 25 3f a4 89 06 3b 3f 2a 29 3e 5d d2 49 bd
       0.64677763 0.0020528818 0.16520022 -0.049272884
000340 44 b7 83 be 58 64 82 be e8 27 2f 3f bc fb 42 3e
       -0.25725758 -0.2546718 0.6842027 0.19041342
000350 56 05 67 be f9 fd bb 3d 9f 9a 95 be e9 c7 9d 3c
       -0.22560629 0.09179301 -0.2921953 0.019260364
000360 32 72 70 bf 76 2a 92 be ba 1e 53 3d 89 2d 39 3d
       -0.9392425 -0.2854802 0.051542975 0.04520944
000370 a0 aa 36 3e 33 26 82 3e 20 28 1c bd 84 41 45 be
       0.17838526 0.2541977 -0.038124204 -0.19263273
000380 9c 0c 54 3f a0 d8 6e 3e 94 c5 8a 3e d9 e0 bb 3e
       0.8283174 0.23324823 0.27103865 0.36694983
000390 b3 23 36 be 49 22 f3 3d 21 90 91 3e f2 63 e6 3d
       -0.17787056 0.11871774 0.28430274 0.11249532
0003a0 1f e8 9c be 4f b7 c8 be 1c 5b 91 bc c5 00 64 be
       -0.30645844 -0.39202353 -0.01774364 -0.22265919
0003b0 e6 0a 11 3f 30 95 b0 be 96 4e e8 bc cf c3 3c 3d
       0.56657255 -0.3448882 -0.028357785 0.046085175
0003c0 6e 4a 4e 3d 5c c1 35 bd 99 35 91 3e 89 bb e0 bb
       0.05036395 -0.044373855 0.28361204 -0.0068582934
0003d0 97 e8 1a bd 25 45 25 be 79 3a b6 3d 82 d7 84 3d
       -0.03781947 -0.16139658 0.088978715 0.06486417
0003e0 90 5e 39 3f 8c 64 bf 3c 7d 05 73 3e ca 72 0f bd
       0.72409916 0.023363374 0.23732562 -0.03502158
0003f0 e6 a8 38 3e 4e 3b a4 3e 4a 42 e8 be 46 74 22 be
       0.1803318 0.32076496 -0.45363075 -0.15864667

actor.init_internal_node_embed.2.add_bias._bias f4 [64, 1]
000000 e0 22 6c bc 12 5d 5a bd 08 eb bc 3d d5 20 4e bd
       -0.014412612 -0.053311415 0.09224516 -0.05032428
000010 31 9f 1c bd 21 12 35 3d 8c aa 50 bd 80 82 bb 3d
       -0.038237754 0.044206742 -0.050943896 0.0915575
000020 cc dc 04 3b 64 4b 73 bd 81 cd 89 bc a1 a8 f3 bc
       0.0020273207 -0.05939807 -0.016821625 -0.029743494
000030 bb bc 0d be 17 19 4d bd fd 70 f7 bc 07 5e f6 3c
       -0.13841526 -0.050072756 -0.030205244 0.030074133
000040 1e 7e 93 bd 21 a8 52 bd 4f 36 19 be 19 de 44 3c
       -0.07201789 -0.05142987 -0.14962123 0.012015843
000050 47 0a 83 bd 32 87 2e bd a5 67 94 3c 5d ef bb 3d
       -0.063984446 -0.0426094 0.018115828 0.09176514
000060 a8 58 ca bc 8f c6 15 bc 8f c5 a2 bc c7 8c 1e bb
       -0.024700478 -0.009141578 -0.019869594 -0.0024192797
000070 8d 64 a3 3c cf 00 d3 bd 31 54 91 3d c4 e2 03 be
       0.019945407 -0.103028886 0.07096136 -0.12879473
000080 47 30 ca 3d 61 f5 a5 3d dd 2f 04 bd 5f 5b 3a bd
       0.098724894 0.08103443 -0.03227221 -0.045497295
000090 c8 e5 6a 3d f8 a3 0c bd 18 23 cd 3c 60 09 82 3d
       0.057348043 -0.03433606 0.025041148 0.063494444
0000a0 b2 7e 59 bd 31 d8 52 bd 32 b4 77 3e 48 5e 59 bc
       -0.05309934 -0.051475707 0.24189833 -0.013267107
0000b0 1f 29 9d bd 96 56 cb bc bc 5c 26 3d ff c2 40 3d
       -0.07673859 -0.02482156 0.040615782 0.047060963
0000c0 b0 ec 78 3d f7 4a 06 be ac 95 51 3d e8 63 94 3d
       0.060772598 -0.13114534 0.05116813 0.07245618
0000d0 ce e4 93 3d 2e 50 e6 bd c3 1f 2a bd fb 48 0f 3e
       0.072213754 -0.11245762 -0.041534197 0.13992684
0000e0 d9 92 0e 3e 7e 33 ea 3b d9 47 a3 bb 7b 3e 24 3b
       0.13923205 0.0071472516 -0.00498293 0.0025061655
0000f0 c4 39 13 bd 4f 05 42 3c 9b 0a 60 bd 50 07 9b 3d
       -0.03594376 0.011842086 -0.054697614 0.07569754

actor.init_leaf_node_embed.0.module.weight f4 [32, 8]
000000 b2 a3 2f be 33 25 02 bf 6c a7 b1 3e 79 51 b9 3e
       -0.17152289 -0.5083801 0.34698045 0.3619497
000010 ce 01 5d 3e da 5e b7 3e d6 8f aa be 3f c3 9e be
       0.2158272 0.35814553 -0.33312863 -0.31008336
000020 1f 81 05 bf f6 34 33 be 19 af 8e 3e 41 ec 9d 3d
       -0.5215015 -0.17500672 0.27867964 0.077110775
000030 b3 bf 4b 3e 90 3c 7e be 96 8d 7a 3e 93 04 58 bd
       0.19897346 -0.2482779 0.24468073 -0.052738737
000040 b4 d5 aa ba de 8b a0 3d a3 cd 90 be be 59 49 bd
       -0.0013033659 0.078391775 -0.28281888 -0.04915785
000050 07 11 45 be 9e 70 31 be 66 01 a2 3d b7 65 c5 bd
       -0.19244777 -0.17328116 0.07910423 -0.09638541
000060 40 17 42 be 76 d0 40 3e 36 52 e4 3e 00 47 71 be
       -0.18954182 0.18829522 0.44593972 -0.2356224
000070 24 a6 cc 3d ec 1a 59 3e 13 7c 80 be db a0 49 3c
       0.09992626 0.21201676 -0.2509466 0.012306417
000080 02 45 75 3d 73 5d 14 bf c4 06 cb 3e 27 03 31 be
       0.059880264 -0.5795509 0.396536 -0.17286359
000090 87 40 15 be 7c 93 b8 3d 86 2d 2a be 19 bb 11 3e
       -0.14575396 0.090125054 -0.16618928 0.14231528
0000a0 cd 80 c6 be 9f 08 88 3c 8c f6 a1 be 0f b3 2e 3e
       -0.38770142 0.016605673 -0.31633413 0.17060493
0000b0 67 98 5a bd 61 18 ef 3d 3e c0 2b be 66 5a 30 3c
       -0.053368 0.11674572 -0.16772553 0.01076374
0000c0 e9 0a b0 be 46 4c 00 3e 48 98 dc bd 69 7e 0d 3e
       -0.34383324 0.12529096 -0.10771233 0.13817753
0000d0 87 32 9c bc f2 4e 02 be 9e b3 39 3d 92 28 27 3e
       -0.019067062 -0.12725428 0.045337312 0.1632407
0000e0 f0 a1 9f 3e 46 0f 4c 3e 9a 9b c7 3e 8d b7 bf bd
       0.31178236 0.19927701 0.38985902 -0.093611814
0000f0 a3 b7 40 be 60 13 9e bd c2 df 28 bf 7b 28 a8 bd
       -0.18820052 -0.07718539 -0.6596643 -0.08210846
000100 1c a6 4d bd d7 66 ca 3d bb 23 49 3e fe 7d a1 bd
       -0.050207242 0.098828964 0.19642536 -0.07885359
000110 e0 c1 fe bc e1 f2 85 3e a0 2f 57 3d 6a 5c 32 3d
       -0.031098306 0.26161864 0.052535653 0.043545164
000120 94 98 1e bf df dc cd be b0 31 27 3d 02 a1 89 3e
       -0.61951566 -0.40207574 0.04081887 0.26880652
000130 db 2b 02 3f 22 21 a6 be e5 5d d7 ba b9 5f 04 bf
       0.5084817 -0.32447153 -0.0016431181 -0.5170856
000140 e0 ef aa be 46 60 20 3e 3c 97 ef be bd f3 3d be
       -0.33386135 0.15661725 -0.4679507 -0.1855001
000150 73 da c2 3e 94 f2 31 3e 5b 21 6b be b4 5d ff b9
       0.3805729 0.17377692 -0.22961943 -0.00048707204
000160 d3 52 53 3d 75 87 cb bd 43 a5 96 3e 37 b2 a9 be
       0.05159266 -0.09937946 0.2942296 -0.3314378
000170 ab be c2 bd e9 9b ca be eb 3e d6 3e 29 94 58 3c
       -0.09509023 -0.39572075 0.41844878 0.013218918
000180 70 d3 11 be 22 d8 ab bd 06 90 79 3e b7 97 0e 3f
       -0.14240813 -0.083908334 0.24371347 0.5570025
000190 7e 4c 48 3e 6e c0 76 3e 4a df ad 3e 1e 36 de 3e
       0.1956043 0.24096844 0.3395942 0.43400663
0001a0 f0 f2 c0 3d 83 29 9c 3e f2 8c 3a 3e d5 b1 42 bd
       0.09421337 0.3050042 0.18217829 -0.047532875
0001b0 c1 2a df be 00 9c 6b bd 3f 4e 4a bd eb 74 65 be
       -0.43587306 -0.05752182 -0.049391028 -0.22407882
0001c0 12 75 e7 3e 7b 86 fd 3e 89 33 95 3e 25 8e 9e 3e
       0.45206505 0.49516663 0.2914088 0.30967823
0001d0 24 64 8e bc a0 0a ab bd 20 50 0a 3e 16 e2 1d 3e
       -0.017381735 -0.08351636 0.13507128 0.15418276
0001e0 9d ee 10 3c 08 ec 3c be 10 ba 93 bd 7a 04 89 3e
       0.008845952 -0.18449414 -0.07213223 0.26761228
0001f0 e4 c8 23 be be 90 78 3e 8d d3 2d 3d ab ae 31 3e
       -0.15994602 0.24273965 0.04243808 0.17351787
000200 10 f2 67 3e ca 3e a7 3e 04 b6 9d bd b7 f3 02 bf
       0.22650933 0.32665092 -0.07700732 -0.5115313
000210 a4 97 d0 3c 4f 4f a9 be f7 85 63 be ad f6 2d 3e
       0.025462933 -0.3306832 -0.22219072 0.1698863
000220 85 d6 99 be ef 2f 8d 3e c8 ad a6 be 42 86 d5 3e
       -0.30046478 0.27575633 -0.3255446 0.41703993
000230 7a 2e 37 be 0d 48 ab bd 78 f0 57 be e2 f2 62 3e
       -0.17888823 -0.08363352 -0.21087825 0.22162965
000240 20 57 9b 3d bb fc c5 bd a0 35 4f bf bd 2e e8 bd
       0.07584977 -0.09667345 -0.809412 -0.113370396
000250 9a e5 92 3e bf dd ac 3e 58 11 bf 3d b9 51 23 be
       0.28690797 0.3376293 0.0932948 -0.15949143
000260 fb 3f 4f be 6c 96 eb bd 06 14 04 bf 5a ab 2a 3d
       -0.2023925 -0.115033 -0.51593053 0.04166732
000270 0d 45 f0 bd 18 92 1d bd 86 3e 7f 3e ca 62 9f bd
       -0.117319204 -0.038469404 0.24926195 -0.077825144
000280 31 24 36 3e 5e 19 32 bd 8b 3c a5 3e d9 2a a6 3e
       0.17787243 -0.043481223 0.32272753 0.32454565
000290 d3 c6 b5 3e a5 7d 0a 3d 76 72 96 3e ad a4 9c bd
       0.35503253 0.03381123 0.29384202 -0.07648597
0002a0 4c 2a a3 be d9 30 6d 3e 0e b0 20 3e 5e c6 04 be
       -0.31868207 0.23163165 0.1569216 -0.12966296
0002b0 77 3f 98 3e 9d 82 9e be d0 2c 2b bd 85 7a 49 3e
       0.2973592 -0.30959025 -0.041790783 0.19675644
0002c0 c9 52 37 3e 28 cf 77 be 57 b3 73 be 26 83 b5 be
       0.17902674 -0.24200118 -0.23798881 -0.3545162
0002d0 cc 13 85 3e ee b0 41 3d 12 fd e1 3e 0d 1c 6b 3e
       0.25991666 0.047287874 0.4413839 0.2295992
0002e0 a8 2f c2 bd 17 1f fb 3e a2 12 32 3e 33 8b fb be
       -0.09481746 0.49047157 0.1738992 -0.49129638
0002f0 10 1f 54 bc 1e 1d 27 3f ac dd 0f 3e 11 3e ca 3e
       -0.012946859 0.65278804 0.14049405 0.39500478
000300 c4 90 fa bd f0 83 97 be ff 5e cc bd 00 12 c7 bd
       -0.12234643 -0.29592848 -0.099790566 -0.0972023
000310 69 dd 5c 3e 7b 8d 22 be 5e d5 9a bd ca 4f 16 3f
       0.21568836 -0.15874283 -0.07560228 0.587155
000320 b4 18 22 bc 5d 63 83 be 58 e4 d0 be 78 24 8d 3e
       -0.009893585 -0.25661746 -0.40799212 0.27566886
000330 6e 8b 4c be 47 fc 12 be 9e 2c a2 bb cf 25 ba 3e
       -0.19975063 -0.14354049 -0.0049491664 0.3635697
000340 6e f4 92 be 6d 34 2c 3e 75 1c 26 3e 94 b5 60 be
       -0.2870211 0.16816874 0.16221793 -0.21944267
000350 b4 65 d0 be e7 dc d9 bd b9 0b d0 3e b1 12 44 be
       -0.40702593 -0.10637837 0.40633944 -0.19147755
000360 2d 5b 76 be ed c8 64 3e 5b b6 a5 3e c4 b4 86 3e
       -0.24058218 0.22342272 0.3236569 0.26309788
000370 bf 6f c0 3b ef 88 9a 3e 65 5c 9c 3e 15 dc 43 be
       0.005872696 0.30182597 0.3053924 -0.19126923
000380 e5 06 44 3c 55 42 c2 bc 89 81 b0 3e e0 32 30 be
       0.011964534 -0.02371327 0.34473827 -0.17206907
000390 6c 1f f3 bd cd 6b 06 bf 60 38 76 be d6 e0 b8 bd
       -0.118712276 -0.5250824 -0.24044943 -0.09027259
0003a0 91 c3 de 3e f1 3e af 3e 61 e6 aa be 1a ef b2 3e
       0.4350858 0.34227708 -0.3337889 0.34948045
0003b0 a0 b3 1d 3f 4b 00 2b 3d 73 cd 24 3e 62 4f ff be
       0.6160221 0.041748326 0.16093998 -0.49865252
0003c0 b0 79 a4 3d f7 b1 ae be e3 8e 1d be 7e 88 cb be
       0.080310225 -0.3412015 -0.15386538 -0.39752573
0003d0 07 56 90 be 0e 0c ea 3e 9b 47 a3 3d 76 3a 80 be
       -0.28190634 0.45712322 0.07972642 -0.25044602
0003e0 43 bb ec be 37 9f b6 3c 0c bc 8c be 28 51 a4 bd
       -0.4623662 0.022292716 -0.27487218 -0.08023292
0003f0 97 01 a8 be 2a bc 27 be 6b f0 8d 3e b2 03 55 be
       -0.32813713 -0.16380373 0.27722487 -0.20802191

actor.init_leaf_node_embed.0.add_bias._bias f4 [32, 1]
000000 f1 5e 2e 3e a5 9c 80 bc 23 e8 78 bc 12 e7 b2 3d
       0.17028405 -0.015699694 -0.015192064 0.087354794
000010 5b cb 2e 3c e4 db 13 bd ab db b1 3c 09 14 e0 3c
       0.010668601 -0.036098376 0.021711191 0.027353304
000020 76 c5 09 be 67 a2 01 3c a9 6a 3b bd 60 66 66 be
       -0.13454232 0.007912255 -0.045756016 -0.2249999
000030 f2 77 93 3e 4c 5a 74 bc 12 5a f9 bc a0 a6 c1 bc
       0.2880245 -0.014914107 -0.030438457 -0.023639023
000040 b0 ae 33 3c 0d 5d 23 bd 64 be ad bd 57 ec 1f 3e
       0.010966942 -0.039883662 -0.0848358 0.156175
000050 cf 8e 45 bd ff a2 39 bd 02 3a 13 3d 38 93 1b bc
       -0.048231896 -0.04532146 0.035943992 -0.009495549
000060 e9 d0 58 3d 97 7a 83 bd 06 9f 54 bd 0e 56 cc 3c
       0.052933607 -0.064198665 -0.05190947 0.024943378
000070 cd 0f 09 be 10 79 97 3e b2 75 d1 3c 57 38 ed bc
       -0.13384934 0.2958455 0.025568817 -0.028957529

actor.init_leaf_node_embed.2.module.weight f4 [64, 32]
000000 e0 8a 1e be f6 03 a9 be a6 9b 8c be b9 26 18 be
       -0.15482664 -0.33010834 -0.274625 -0.14858522
000010 5e df 33 3e ea c9 dd 3c 9d 5c a0 3d f4 98 f9 3d
       0.17565677 0.02707382 0.078301646 0.121873766
000020 a0 fb 4f 3e b6 ec 86 3d 28 6e 16 3d c6 5a 89 be
       0.20310831 0.06588118 0.036726147 -0.26827067
000030 10 14 b8 be 4d a5 e8 3c f7 ad 98 be d0 02 fa bd
       -0.35952806 0.028399134 -0.29820225 -0.12207568
000040 46 fe 5d 3e f0 fd 5a bd 44 a5 05 be ca b3 d8 bd
       0.21679029 -0.05346483 -0.13051325 -0.10581167
000050 06 82 a7 3d 17 27 90 be c5 1c 4b 3e db eb dd 3d
       0.08179097 -0.28154823 0.19835193 0.108360015
000060 72 1f c5 3d ec 74 dc be 00 71 af bd 08 db 91 3d
       0.09625138 -0.43057954 -0.08566475 0.07121855
000070 e8 cb 10 3e 35 d9 69 be f1 33 aa bd 7f fd 38 bc
       0.14140284 -0.22836764 -0.08310688 -0.011290907
000080 15 9d a7 3d 0c aa 1d 3e 07 3c 70 3d bc fc d3 3d
       0.08184258 0.15396899 0.058650997 0.1035094
000090 ff 5f 30 3d ef 62 50 3d 96 a2 03 3e 3a fb 23 be
       0.0430603 0.0508756 0.1285499 -0.16013804
0000a0 b6 70 04 be 1d 9d 82 be de a1 de 3e ed a7 a3 bc
       -0.12933621 -0.25510493 0.4348287 -0.019977534
0000b0 8f eb 19 bd 47 b2 cf 3d f2 2d 34 3e c6 9a 8d be
       -0.03757816 0.101414256 0.17595652 -0.27657145
0000c0 db 2b d3 bd be 14 0b be 95 91 2f be 60 36 58 be
       -0.10311099 -0.13582131 -0.17145379 -0.21114492
0000d0 fc ca cd 3d fb a4 a6 bd 47 1a 8c 3d 48 08 04 be
       0.10048482 -0.08136936 0.068409495 -0.12893784
0000e0 74 ff c6 be 89 d4 08 be 7c 74 3e bc 2a 68 81 3e
       -0.3886677 -0.13362326 -0.011624452 0.25274783
0000f0 8b 0a 86 be 4c aa 13 be af 1f 09 bd c5 8b c7 3e
       -0.2617992 -0.14420432 -0.03347748 0.38973823
000100 e0 14 93 3e 8c 94 18 3c 68 f7 1d be f4 c1 ad bd
       0.28726864 0.00931276 -0.15426409 -0.08484259
000110 ac 56 10 3e 9c 61 50 bd 46 de 0b be 89 9c 83 3d
       0.14095563 -0.050874338 -0.1365901 0.06426341
000120 29 c9 e3 be 51 f1 d8 bd f6 65 ef be 19 b2 2e be
       -0.4448941 -0.105929025 -0.46757478 -0.17060126
000130 c3 ce 8e be c3 46 53 3d 18 06 8d 3e aa 1e 93 bd
       -0.27892122 0.051581156 0.27543712 -0.07183583
000140 01 a9 b8 bd d3 50 46 3e 71 50 92 be 4f f1 de bd
       -0.0901661 0.1936677 -0.28576997 -0.1088587
000150 68 d5 5b bd 62 9d 8a bd ab 78 b6 3c 03 7f c6 bd
       -0.053670317 -0.067683 0.022274336 -0.09692194
000160 ea 0e 19 bd 3d 1c 18 bd 80 66 bd bd 95 d2 2a be
       -0.03736774 -0.037136305 -0.09248066 -0.16681893
000170 b8 26 51 be ec e0 ac bc 55 bc 58 3e 60 9e f7 3d
       -0.20424926 -0.021103345 0.21165593 0.120907545
000180 20 32 89 bb 6f e9 61 3e e6 cf 36 3e b6 45 c5 3d
       -0.0041868836 0.22061704 0.17852744 0.09632437
000190 8c a4 e6 3d 5c 3f 56 3d 6f 54 51 bd 49 05 fb 3d
       0.112618536 0.052306518 -0.051105913 0.122568674
0001a0 9b 15 9b 3c 41 74 00 be e2 d9 30 be ee a5 7a 3e
       0.0189312 -0.12544347 -0.17270616 0.2447736
0001b0 54 e7 81 be 4b bc 1b 3d 09 15 c8 3c 04 14 30 3e
       -0.25371802 0.038021367 0.024424093 0.17195135
0001c0 ea e4 d7 bd d4 2f b3 3e 7a c1 86 be 72 70 98 3b
       -0.10541709 0.34997427 -0.26319486 0.0046520764
0001d0 93 3c c2 3d 07 f9 20 3e df 72 4e be 86 5b 28 3e
       0.0948421 0.15719996 -0.20161007 0.16441163
0001e0 b1 81 a8 3c 2d 8d b8 3d f6 75 28 3e ef fa 1b 3e
       0.020569654 0.09011302 0.16451249 0.15232442
0001f0 77 c1 97 3e 8d ed 27 3d ae 5d 4e 3e 30 60 31 3e
       0.2963979 0.04099803 0.20152923 0.17321849
000200 e0 67 81 bd fd a9 32 bd ae d6 81 3d 40 5e b6 3d
       -0.06318641 -0.043619145 0.06339775 0.089046955
000210 b7 71 82 3e 60 19 eb be cd 00 70 3e 8a 8c ee bd
       0.25477383 -0.45917797 0.23437805 -0.116478994
000220 bc 8b 45 3d b9 8d e9 3d 33 c0 dd bd 01 27 b8 be
       0.048228964 0.114039846 -0.10827675 -0.35967258
000230 19 16 b9 bd 82 f7 74 3e 57 46 fa 3d 91 81 e7 bd
       -0.09037418 0.23922542 0.122204475 -0.1130401
000240 2a dd dc be fc 1a 89 be 0b 26 68 3e f1 2a a6 3d
       -0.43137485 -0.267784 0.22670762 0.08113659
000250 f3 18 98 be 0c d9 17 3e 9a 49 47 bd f6 71 d1 3b
       -0.29706535 0.1482889 -0.048654176 0.006391759
000260 59 07 ff bd 83 cb e8 3b cf 4d 1a be c3 fe 1e 3e
       -0.12452573 0.0071043386 -0.15068744 0.15526871
000270 7b 16 7c 3e fd 24 ea 3d f5 4b c8 bb 4f d6 3c be
       0.2461795 0.11432836 -0.0061125704 -0.18441127
000280 fe e4 8b 3d a9 c0 15 bc 5a c4 3b be ca 34 c3 3d
       0.06830786 -0.009140172 -0.18336621 0.09531553
000290 d9 e8 3c be fa d3 82 bd 4f 16 ba 3e 78 50 b7 be
       -0.184482 -0.063880876 0.36345145 -0.3580358
0002a0 99 59 9a bd 03 ff bb 3d 94 f8 56 be 7c 47 94 3e
       -0.07536621 0.09179499 -0.20993263 0.28960788
0002b0 39 1d 0f 3f 3c 2b 0d 3d 77 a0 25 3e 69 48 2e be
       0.55903965 0.03446506 0.16174494 -0.1701981
0002c0 27 85 0b 3e 4a 85 00 3d 3f ea 46 be 71 19 06 be
       0.13625012 0.031377114 -0.19425295 -0.13095643
0002d0 b4 88 e3 3d 45 68 29 be 20 1b b9 3c 57 2d da 3e
       0.111100584 -0.16543682 0.022595942 0.42612717
0002e0 64 77 9f 3d 9e 8e 0b be d6 6a 9d bd 25 3f b4 3d
       0.07786444 -0.13628623 -0.07686393 0.08801106
0002f0 f2 46 2f be 60 6e 8f 3e ff c0 88 3e 84 6f d4 bd
       -0.17116907 0.28013897 0.26709744 -0.103728324
000300 22 65 9a 3e a1 ea 9d be 22 0b 62 bd f7 bb 96 3d
       0.30155283 -0.3084307 -0.0551864 0.0736007
000310 16 f9 06 be 17 e1 00 be 3a 1f 23 3e 66 bc 02 bd
       -0.13180956 -0.12585865 0.1592988 -0.031917952
000320 d7 00 43 3e e8 8c 20 bd 41 34 6e 3e 15 6c 36 3e
       0.19043289 -0.03919688 0.23262121 0.17814668
000330 b5 c9 4b 3e 98 9b ff 3d 28 8b 56 be 7e b2 c3 bd
       0.19901164 0.12480849 -0.20951521 -0.09555529
000340 a6 d0 e3 be b8 04 80 3e 44 93 8c 3b a9 2a e3 3d
       -0.44495124 0.250036 0.0042900164 0.11092121
000350 4c 0b d8 3c 6d 75 a5 3c 1c 3c 99 bd eb 53 16 3d
       0.026372574 0.020197595 -0.07482168 0.036701124
000360 ce e3 14 3d b3 6d 97 bd a7 eb 97 bd 2e 51 0b 3e
       0.036350064 -0.0739397 -0.07417994 0.13605186
000370 39 d9 12 be 8e 1b 3f 3e 65 f3 b4 bd d9 48 98 bd
       -0.14340676 0.18662855 -0.08835486 -0.074357696
000380 4c b8 12 be ea d8 db 3c d8 3f fa bd 85 1b a9 be
       -0.14328116 0.026836831 -0.122192085 -0.33028808
000390 ae e5 04 3e f7 12 5d bd 26 44 56 be c5 7b a5 be
       0.12978241 -0.053973164 -0.20924434 -0.3232099
0003a0 c1 cf 2f 3e 22 2f e6 bd fa 39 8e 3e f6 92 2b 3c
       0.17169096 -0.112394586 0.27778608 0.01047205
0003b0 1b 5a 4c 3e 58 db a0 3d 98 1b 1b be 0c 07 90 3e
       0.19956248 0.078543365 -0.15147245 0.28130376
0003c0 27 ef 65 be 63 c5 43 bc 8d 0b 01 bd 6e ad b7 bd
       -0.2245451 -0.011948916 -0.031505156 -0.08968626
0003d0 94 02 5c ba 42 b6 aa 3e 43 87 ae 3d 26 21 85 3d
       -0.0008392718 0.33342177 0.08521893 0.06500463
0003e0 c6 58 1d bd 6e 80 32 3e 07 a8 3e 3e a3 02 41 3e
       -0.03841474 0.17431805 0.18618785 0.18848662
0003f0 9d 26 fb be 65 a8 b0 3e 43 b2 a5 3e 3d f4 74 be
       -0.49052897 0.34503475 0.32362565 -0.23921295

actor.init_leaf_node_embed.2.add_bias._bias f4 [64, 1]
000000 aa 9f a2 be 32 cb 03 3e 03 46 43 bc af 91 47 bc
       -0.3176244 0.12870482 -0.011918548 -0.01218073
000010 55 1e b3 bc e7 2f a6 3e 9c 3e 4e 3e bd df 35 3e
       -0.02186505 0.32458422 0.20141071 0.1776113
000020 fa 70 d8 3e 6a c9 19 be b0 1b 7b bd 70 f3 c5 3d
       0.42273694 -0.1501824 -0.0613057 0.09665573
000030 27 25 dc bc 20 a4 c9 3d f8 30 d9 be 1b 3c f8 bd
       -0.026873184 0.098457575 -0.42420173 -0.12120839
000040 5d 1d c8 bd e0 db 09 3e f4 59 2e 3c fd fb fd 3d
       -0.097712256 0.13462782 0.010641564 0.124015786
000050 b4 d1 89 be 4a 36 24 bd e4 29 12 3d a8 cc 4a 3e
       -0.26917803 -0.040090837 0.03568448 0.19804633
000060 33 19 0c be b2 74 bc bb 55 47 2c 3c fa e8 3b bd
       -0.13681488 -0.005751216 0.010515054 -0.04587648
000070 b9 68 29 be be 52 8d 3e ff 1b 99 3d 43 6d 3d 3d
       -0.16543855 0.2760219 0.07476043 0.04624678
000080 4f 8c ff 3d da 60 89 be 29 7e 16 be a2 a2 37 3d
       0.124779336 -0.26831704 -0.14696564 0.044832833
000090 8c 02 c7 3d 1c 2f 9d 3e df 75 cc 3e b4 79 e4 3e
       0.09717283 0.30700004 0.39933679 0.44624102
0000a0 4f 9b 25 3e ac 64 86 3e 8b 4a b7 bd ab 40 ef 3d
       0.16172527 0.26248682 -0.08949765 0.11682256
0000b0 5a c2 33 bd e4 c0 85 be d3 ee a4 be 2f 90 27 be
       -0.04388652 -0.26123726 -0.32213458 -0.16363595
0000c0 f8 07 be 3e 83 95 ac bd ed 62 2d be 5f 54 de 3e
       0.37115455 -0.084269546 -0.16932268 0.43423745
0000d0 95 57 a7 bb 57 3e 48 3e 1d a5 84 be d0 bb 2d be
       -0.005106876 0.19555031 -0.2590722 -0.16966176
0000e0 16 65 23 3e da 34 b4 3e 21 ef 1e 3e 04 ac 29 3e
       0.1595653 0.35196573 0.15520908 0.16569525
0000f0 8a 17 21 3e 3f 36 d8 3e 6c 18 6e be 11 91 18 be
       0.15731636 0.42228886 -0.23251504 -0.14899088

actor.init_next_embed.0.module.weight f4 [32, 6]
000000 75 eb 6b be d2 50 2a 3e 21 04 ab bd 0a 6f df 3e
       -0.23039038 0.16632393 -0.08350397 0.43639404
000010 7a c4 94 3e 62 2b 0b bd 58 62 56 3e 9a 49 a6 3e
       0.2905615 -0.03397692 0.20935953 0.3247803
000020 0a bd 08 3c 8c b6 25 3e a0 b1 b5 3d 7e b1 73 be
       0.008345852 0.16182917 0.0887177 -0.23798177
000030 09 ea bf 3d 89 c8 c7 be b2 c4 75 3e 1c 01 4d bf
       0.093708105 -0.39020184 0.24000815 -0.8007982
000040 f7 66 e0 3d 0f 2d 33 3e 51 46 2b 3f 12 a8 11 3f
       0.10957139 0.17497657 0.6690417 0.5689708
000050 6e af e5 3d 8f a7 36 be f7 7e 79 3e be 9a 64 3e
       0.11215101 -0.17837356 0.2436484 0.22324654
000060 fe df a6 be cd 0f 76 bd 60 cc 45 be 69 5a 3b 3e
       -0.32592767 -0.060073663 -0.19316244 0.18296207
000070 85 3b 1b 3d cf 46 2f be 96 9e 34 be 70 ed eb 3d
       0.03789856 -0.17116855 -0.1763862 0.11519897
000080 3d d2 ea 3e b3 f0 b2 bc 10 78 ba be d0 a7 f6 bd
       0.45863524 -0.02184329 -0.36419725 -0.120437264
000090 06 8a 36 be 25 7a 68 be 1f a7 c0 bc 4b 5a 05 bf
       -0.1782609 -0.22702844 -0.02351719 -0.520909
0000a0 75 56 37 3b 64 03 ff 3e 2f 48 4a be 5b 3c bb be
       0.0027975116 0.49807274 -0.19754098 -0.36569485
0000b0 a5 ce 81 3e 81 a0 c7 3d a4 90 fa bd b0 a2 4e 3d
       0.2535297 0.097474106 -0.12234619 0.05044812
0000c0 41 de 09 be 9e 98 82 be 20 c8 af 3e 65 7c 6a be
       -0.1346369 -0.25507063 0.3433237 -0.22899015
0000d0 06 cf af 3d 46 0c fa bb 2e bc b7 be c8 1e 21 be
       0.085844085 -0.0076308576 -0.35885757 -0.15734398
0000e0 e1 8f 14 be 14 6d e8 3e 3e fe 2e be 49 8b 79 bd
       -0.1450801 0.4539572 -0.17089173 -0.06092385
0000f0 5c f7 8f 3e bc dc 42 bd 1f e4 18 be 84 5a f0 3c
       0.28118408 -0.04757379 -0.14930771 0.029340036
000100 6b 6c 85 be 79 21 cd bd 33 65 58 be 03 53 42 be
       -0.2605928 -0.1001615 -0.21132354 -0.18976979
000110 5b 24 95 be 2f 32 bc be 9c fb ee bc f9 d1 48 bc
       -0.291293 -0.36757037 -0.029172711 -0.012257093
000120 33 0e 99 3e 41 a7 28 bf d1 ae 32 bd fb 0e da bd
       0.29893646 -0.6588021 -0.04362375 -0.106473885
000130 2f 2d dd bd 63 6c 66 be e8 7d 20 3e 31 1c 85 be
       -0.10799634 -0.22502284 0.1567303 -0.2599807
000140 93 7a 9e 3e e3 ff e8 3e 6c 6d 87 3d 87 9c 97 3d
       0.30952892 0.45507726 0.066126674 0.07402902
000150 09 87 07 be 8c fc 59 3d 48 ba d8 bd 61 57 9c be
       -0.13235106 0.053219363 -0.10582405 -0.30535415
000160 c4 61 95 3d cb 9d 16 3e 7f 2c 1f 3c c0 c9 8c 3d
       0.07294038 0.1470863 0.009715199 0.06874418
000170 b5 a4 6e 3e db 36 a0 be 39 5a 08 bd 08 01 80 be
       0.23305018 -0.3129185 -0.033289168 -0.25000787
000180 d1 e5 3a bd 99 f8 13 be 79 e2 02 be fa 6d 01 bf
       -0.045629326 -0.14450301 -0.12781705 -0.50558436
000190 86 75 85 3e a4 40 26 3e dc 01 70 be be 9e e8 3e
       0.26066226 0.16235596 -0.2343821 0.4543361
0001a0 dd e7 fe 3e e3 c5 0b 3e c0 b0 2f 3e 61 88 0b 3f
       0.49786273 0.13649707 0.17157269 0.5450497
0001b0 8d e7 3b be 7c 35 6e bc 26 dd b1 be 9c 6d 9b bd
       -0.18350048 -0.014539119 -0.34739035 -0.07589266
0001c0 8e fb 10 be 5c 2c e6 be 2c 6f a6 3d 30 7c 65 be
       -0.1415846 -0.4495572 0.08126673 -0.22410655
0001d0 c0 d7 46 3e 4a 8b 9c 3e 60 54 f2 bd 0a f5 17 be
       0.1941824 0.3057502 -0.118324995 -0.14839569
0001e0 b0 42 09 3e c4 c6 ba 3e e6 33 24 3e 28 3a 9c bf
       0.13404346 0.3647977 0.16035423 -1.2205248
0001f0 7b 04 8e be 98 83 bf 3e c9 17 e6 3e 76 8e 35 be
       -0.27737793 0.37405086 0.44940022 -0.17730126
000200 f6 14 aa 3d cb 76 d4 3e 4a cc aa 3e 95 de 0f 3f
       0.08304779 0.41496882 0.33358985 0.5619901
000210 eb b8 67 be a6 90 e2 3c ad ac ba bd fb 0a f2 3c
       -0.22629134 0.027656864 -0.091149665 0.029546252
000220 5b 6a cc be 30 4d 9f bc 5d 17 b9 bd 4a 39 42 be
       -0.39924893 -0.019445986 -0.09037659 -0.18967167
000230 52 32 06 be 4c 1d ea bd c6 5d 9f bd 70 b1 0e bd
       -0.13105133 -0.11431369 -0.07781558 -0.034837186
000240 cf 93 67 be 09 fb 95 bd d3 cd ac 3e 3e e3 aa be
       -0.22614978 -0.07323272 0.3375078 -0.33376497
000250 5c 25 09 3f 47 10 b7 be 75 65 09 be ab 12 54 bd
       0.5357263 -0.35754606 -0.13417609 -0.051775616
000260 6e 6b 11 3d 1d 37 f5 bd db 93 f8 be b0 98 be 3e
       0.035502844 -0.11973403 -0.48550305 0.37225866
000270 e8 c4 c6 be 7e 9e 2e be 98 f9 da 3e a9 8b e0 3e
       -0.38822103 -0.17052647 0.4276855 0.43856552
000280 fb 48 85 3b 4b 21 98 be 5d d5 9d 3e f6 a5 c8 bd
       0.004067538 -0.297129 0.30826846 -0.097972795
000290 72 4c 0d 3e e6 9e a2 be 8e 0a 9f 3d 28 76 19 be
       0.13798693 -0.31761855 0.07765685 -0.1498648
0002a0 8d b9 e7 bd fe fa d7 3d a5 f1 04 bf e4 97 33 be
       -0.11314688 0.1054592 -0.5193122 -0.1753841
0002b0 9e 4d 18 3d e7 94 82 3d 17 1d 38 3e 76 7b 2e bd
       0.037183397 0.06376057 0.17979847 -0.04259821
0002c0 81 01 a9 3e da 4b 63 be 3c ef 1d be 42 20 b1 bd
       0.3300896 -0.22196904 -0.15423292 -0.08648731
0002d0 d3 dc 9f bd 2a 72 b7 bc 7b a9 81 ba 6a 66 ef bd
       -0.07805791 -0.022393305 -0.0009892428 -0.11689456
0002e0 6b 82 0f bf 66 9f 17 3f 05 87 8d 3d be 4c e1 bd
       -0.5605838 0.592276 0.069105186 -0.110009655
0002f0 4d c5 1f be 37 70 b6 bd 3d c8 b5 3c 59 6b 1e be
       -0.15602608 -0.08908122 0.022190208 -0.15470637

actor.init_next_embed.0.add_bias._bias f4 [32, 1]
000000 57 c9 26 3f b9 23 de bd cb 83 d4 bd 8b d6 cb 3e
       0.6515097 -0.10846657 -0.103767 0.3981212
000010 a1 bf 3f 3a 43 b5 23 bd 70 a7 90 3e 63 95 ec bc
       0.0007314627 -0.039967787 0.28252745 -0.028879827
000020 a2 7f 2c bd c4 fd 62 bd 9a 64 2b be 41 b8 75 3e
       -0.042113908 -0.05541779 -0.16737595 0.23996069
000030 df cf 3f bc 8d b7 ac 3e b0 a9 97 bd 4c 78 c8 bc
       -0.011707275 0.33733788 -0.07405412 -0.024471425
000040 4b 4f 93 bc 56 69 96 3e 0c 34 61 bc 7a 19 08 be
       -0.017982146 0.2937724 -0.013745319 -0.13290969
000050 70 ec 0d 3f e2 42 e8 3d 4d d9 6e 3c de 8a 2e bd
       0.554389 0.11340882 0.014578176 -0.042612903
000060 50 82 b3 bc 73 81 84 bd c1 de 1f bd a2 b2 04 bc
       -0.021912724 -0.06470003 -0.039030794 -0.00809923
000070 c9 5f 06 bd ee 92 2a bc 4b 65 8b bc c8 ee d5 3b
       -0.03280619 -0.010411007 -0.017016074 0.006528709

actor.init_next_embed.2.module.weight f4 [64, 32]
000000 22 d2 a5 be de db e1 3d 62 40 bf 3d df 86 f9 3d
       -0.3238688 0.110282645 0.09338452 0.12183928
000010 a1 ee 33 3e e9 1d e9 bd 0d 60 ec 3c ed 51 8f 3e
       0.17571498 -0.11382658 0.028854394 0.27992192
000020 9d 54 f8 3d 56 64 2b 3d 4a 38 0d 3e d3 06 81 be
       0.12125514 0.041843735 0.13791004 -0.2520052
000030 a2 2a 1a 3b d4 6b 15 3e 5d 94 4d 3e 4b 4a 98 bc
       0.0023523946 0.14591914 0.20076127 -0.018590113
000040 c1 7b ad 3e f2 bd 68 3e 86 26 a0 bc 6f 20 2b 3e
       0.3388348 0.22728708 -0.01954962 0.16711591
000050 ab 12 9c 3d be 11 2c be 49 5d 81 3e 20 9f 07 3f
       0.07620748 -0.16803643 0.25266483 0.5297718
000060 5b 03 91 3d a7 e5 ae 3c 43 68 33 bb 32 00 1a be
       0.07080718 0.021349741 -0.0027375377 -0.15039137
000070 61 78 96 bd 84 7f e1 bd 70 92 51 ba 9b 73 d5 bd
       -0.07347179 -0.1101065 -0.0007994538 -0.104224406
000080 a1 29 bc 3e e1 ac b3 bc 14 c3 10 be 39 f4 e9 3d
       0.3675051 -0.021933021 -0.14136916 0.11423535
000090 e9 93 4b 3e 6a ef 2d 3e 60 83 7b be 14 aa e7 3d
       0.19880642 0.1698586 -0.24561834 0.11311737
0000a0 96 8a 15 bd 22 52 a5 3d be ce 0c be 7a 71 90 be
       -0.03650912 0.08072306 -0.13750741 -0.28211576
0000b0 a1 f6 8b be 5c 3a b4 3d a7 d6 da 3e 30 93 94 3e
       -0.273366 0.08800194 0.42741892 0.29018545
0000c0 f9 bf 7c be fe 66 0c 3e 84 b3 1d 3e e7 1b 81 be
       -0.24682607 0.13711163 0.15400511 -0.252166
0000d0 55 fa 9d be 40 71 be bd 1b dc 69 be f5 0e 82 bd
       -0.3085505 -0.092989445 -0.2283787 -0.06350509
0000e0 22 61 57 bd d8 ae f6 3d 4e e2 a7 3d fb 6c 20 be
       -0.052582867 0.120450675 0.08197461 -0.15666573
0000f0 68 ef 98 3d f4 c7 76 3d f6 1d 8c bd bc ab 04 be
       0.07467538 0.060249284 -0.06841652 -0.12956136
000100 60 ff 49 3e 36 52 c7 3e 79 59 a6 3d 61 2d f3 3d
       0.19726324 0.3892991 0.08122534 0.1187389
000110 01 53 82 3d 0d a7 fa 3d 1e 97 e6 3d ce fc 6f be
       0.06363488 0.12238894 0.11259292 -0.23436281
000120 4d dc 0e 3e d7 d9 f8 bd 88 d1 7a bd 69 31 8b be
       0.13951226 -0.12150925 -0.06123498 -0.27186134
000130 ff b7 00 bd dc 9d b9 be b3 5a 00 be 81 8c 0a 3c
       -0.031425472 -0.3625325 -0.12534599 0.00845635
000140 df 78 49 3c 3c d6 5b bd 6e de 2c 3d fd ff a5 be
       0.012296884 -0.053671107 0.042204313 -0.32421866
000150 d4 d7 ce be bf f3 c7 3e ce fb 29 3e ec 91 e0 bd
       -0.4039904 0.3905315 0.16599962 -0.109653324
000160 f6 46 24 3e 57 39 a7 be 86 96 1f 3d cb 4d 21 3e
       0.16042694 -0.32660934 0.03896191 0.15752332
000170 31 5c 84 3e fb d7 c0 bd 3c 38 ae be 8d 0f 38 3e
       0.25851586 -0.09416195 -0.34027278 0.17974682
000180 0e 72 04 3f 2c 69 7d 3e 53 98 1b be bd 39 6c 3e
       0.51736534 0.24747151 -0.15194826 0.230689
000190 77 83 3b 3e 79 c5 72 bc e8 a7 0a 3d f8 46 fe bc
       0.18311869 -0.014817589 0.033851534 -0.0310397
0001a0 90 f5 31 3c 3f e2 c6 3e fc bd 18 3e ba 28 ba 3e
       0.010861769 0.38844487 0.14916223 0.36359197
0001b0 df 0e 97 3d 23 8d 93 3e 2b fb 39 be 28 d8 a8 3d
       0.07375883 0.28818616 -0.18162219 0.082443535
0001c0 e1 4c 1a 3e 44 b3 93 3e 86 22 d9 bd ea 29 36 3e
       0.1506839 0.28847706 -0.10602288 0.17789426
0001d0 6a 85 79 3e c9 6d 0b 3e 4e 57 fd bd 2d d9 8d be
       0.243673 0.13616098 -0.12370168 -0.27704754
0001e0 8a 79 5a bd 12 40 8b bc da ca 87 be 89 69 1c 3e
       -0.053338565 -0.016998325 -0.2652195 0.15274633
0001f0 48 99 ca 3d bf 64 38 3d 40 12 56 3e 56 bd 06 3d
       0.09892517 0.045017954 0.209054 0.03289541
000200 5b f1 e0 3e df 85 b1 bc 5e 9b f4 ba 6d e0 9a 3e
       0.4393414 -0.02167028 -0.0018662026 0.30249348
000210 aa 1c 5d 3e 4d c6 2b 3e 5b 73 b2 3d a5 6c 28 3e
       0.21592966 0.16774864 0.087134086 0.16447695
000220 f1 cb 34 3e 1f f6 b8 bd d8 6e a9 bc a0 48 d5 bd
       0.17655922 -0.09031319 -0.020682737 -0.10414243
000230 39 6f 0c be c3 b0 89 3c b3 73 38 be 5a 17 a8 be
       -0.13714303 0.01680792 -0.18012886 -0.32830316
000240 4b 7b c0 3d 29 71 9f 3d bf da 2b 3d 2f 93 96 be
       0.09398516 0.077852555 0.04195666 -0.29409167
000250 f5 37 e3 3e 2c a4 50 3e e8 ad 82 bc 9a 88 80 bc
       0.4437863 0.20375127 -0.015952066 -0.015690137
000260 9f 1a 2a 3e 8f d8 39 3e 43 63 23 3e 5c 45 c7 bd
       0.16611718 0.18149017 0.15955834 -0.09730026
000270 88 73 6b 3d 06 6d 18 3d 09 9a df 3d e0 9c f0 bd
       0.057483226 0.037213348 0.10918052 -0.117486715
000280 2f e7 0d bf 0e 43 01 bf 44 68 75 bd 4b 62 e0 be
       -0.55430883 -0.5049294 -0.05991389 -0.43824992
000290 4a da 8c 3c 73 09 1b 3e 42 1d 1c be 1f c9 1a 3e
       0.017193932 0.15140323 -0.15245536 0.15115784
0002a0 50 54 ba 3d 82 04 09 3e 8c e8 52 be b9 84 83 be
       0.090981126 0.13380626 -0.20596522 -0.25687197
0002b0 36 a2 e0 bc 2b 13 1a bd 93 84 62 bd 6e c0 03 3e
       -0.027421098 -0.037615936 -0.055302214 0.12866375
0002c0 83 f0 43 3b 05 de 08 3d 8e c3 2c 3e 56 a3 31 bc
       0.0029897995 0.03341486 0.16871473 -0.010842165
0002d0 a6 15 de be 0d dd 13 bd b7 68 90 3d ef ec 80 bd
       -0.4337589 -0.036099482 0.07051223 -0.062951915
0002e0 52 fb 68 be 2c 12 61 be 65 7a 0b be 29 51 36 be
       -0.22752121 -0.21979588 -0.13620909 -0.17804398
0002f0 0c 58 fe 3d f8 bb 58 be 5a 4a 9e 3a d6 1d 2c be
       0.12419137 -0.21165454 0.0012076602 -0.16808257
000300 8b fe 3f 3e 12 16 29 be 45 03 87 bd 0e 3d 8d 3d
       0.18749444 -0.16512325 -0.065924205 0.06896411
000310 d0 a9 e6 bc 49 79 9c 3d 4a b3 06 be bd 65 49 bc
       -0.028157145 0.07640321 -0.13154331 -0.012292323
000320 63 8e ed 3e b2 2a 66 3d be e8 2b bd e9 38 92 bd
       0.46397695 0.05619306 -0.041970007 -0.07139761
000330 02 2a 51 be 99 d8 9a bb a0 66 b0 be f7 64 8c be
       -0.20426181 -0.0047255275 -0.34453297 -0.2742078
000340 ed 38 da be 97 0c e1 3b 06 cf b0 be 83 e8 0f be
       -0.42621556 0.006867956 -0.34532946 -0.1405354
000350 bf 04 66 be 0a 6e f1 3c 5f e4 89 3d 2d 13 9f bd
       -0.22462748 0.029471416 0.067330115 -0.07767329
000360 0a 51 55 bd 41 fb 38 be 19 1b 06 3d 6f 1d fc 3c
       -0.052079238 -0.18064596 0.032740686 0.030775754
000370 28 8d 95 bd bc 8a 4e 3e d6 d8 59 bc 3b 1d 18 3e
       -0.07302314 0.2017011 -0.013296327 0.148549
000380 39 27 2c 3f 5e fe 17 3e b2 1d dd 3c 04 f1 91 3e
       0.6724735 0.14843127 0.026991699 0.28504193
000390 4c 3f df 3d cf 41 73 be 07 fe 99 3b 94 50 15 3e
       0.10900745 -0.23755573 0.004699472 0.1458152
0003a0 2b 0a 47 bd 00 a3 d8 3d 29 b5 38 3d c8 c3 03 3f
       -0.04859368 0.10577965 0.045094643 0.51470613
0003b0 92 16 ae 3e 52 3b 33 be e6 ef 90 3e d4 86 20 be
       0.34001595 -0.17503098 0.28308028 -0.15676433
0003c0 3e 43 bd 3d 99 26 23 3e 0a 85 68 3d 35 dd 97 bd
       0.09241341 0.15932693 0.0567675 -0.07415239
0003d0 09 31 42 be 90 d8 03 3f b3 63 2d 3e 34 f1 8c 3d
       -0.18964018 0.51502323 0.16932563 0.06881943
0003e0 24 07 63 3e e4 e8 4c 3d a2 64 89 be 70 b9 e7 bd
       0.22170693 0.05002679 -0.2683459 -0.11314666
0003f0 0c 05 35 be 11 c0 2d be fd 12 ce 3e 61 f3 49 3d
       -0.17677706 -0.16967799 0.40248862 0.04930437

actor.init_next_embed.2.add_bias._bias f4 [64, 1]
000000 bd 23 3b be bf 67 90 bc 81 51 ec bc ed 09 25 3f
       -0.18275352 -0.017627595 -0.028847458 0.6446827
000010 e1 67 cc 3e 94 f6 2d bf 04 13 e2 ba 6c bb 05 3f
       0.39923003 -0.67954373 -0.0017248099 0.5223911
000020 c1 5d e1 be 57 ac 24 3d de 9a f8 3c b9 0b 71 3e
       -0.4401684 0.04020342 0.030347284 0.23539628
000030 44 6f 15 3e 75 21 ba be 9e 8e e9 3e 84 6b d7 be
       0.14593226 -0.3635365 0.4561662 -0.42074215
000040 f0 3d ff 3d 33 a9 bf 3e cb e3 10 3b 1f da 8a 3e
       0.124629855 0.37433776 0.0022108431 0.27119538
000050 80 00 6f be 84 9c 33 bd 6f 41 f7 bd 92 8e b7 be
       -0.23340034 -0.043850437 -0.12073027 -0.3585096
000060 ff b1 5f be 45 3c 5e be 8f 9e 2c bf 66 ff a5 3d
       -0.21845244 -0.21702679 -0.6742944 0.08105354
000070 31 bc 5b 3f 61 45 79 bd 05 53 e2 bd f8 48 f7 3e
       0.8583403 -0.06085718 -0.11050991 0.48297858
000080 02 ad 84 bc 3f 08 fa 3d 52 3e 60 bd 39 94 e6 bd
       -0.016195778 0.12208604 -0.054746933 -0.1125874
000090 4e 77 af be 87 fe 06 bf 16 20 0f bf 3e d1 0f bf
       -0.3427071 -0.5273213 -0.55908334 -0.56178653
0000a0 47 64 4d be d4 9b 92 bd a4 b4 56 be a6 7c 9b be
       -0.20057784 -0.07158628 -0.20967346 -0.30368537
0000b0 da 5c d2 be 1e 38 03 3f 7c c9 84 3d a2 d6 62 bd
       -0.41086465 0.51257503 0.064837426 -0.05538047
0000c0 36 73 ce 3e 09 a9 65 3e b1 8d 6a bf 5b fb d7 be
       0.40322274 0.22427763 -0.91622454 -0.42183957
0000d0 3a de f2 3c 8a 1e ae be 75 b9 2d 3f 25 69 97 be
       0.029646982 -0.34007674 0.6786111 -0.29572406
0000e0 5d 45 dc 3c 32 06 18 bf 00 6f 3e bd d4 f4 a8 3e
       0.026888544 -0.59384453 -0.046492577 0.3299929
0000f0 9d a1 1c 3e ba 9e 9f 3e 16 01 ae be cb de a9 3c
       0.15296026 0.31175786 -0.33985204 0.020736119
