pretrained_models/experiment/Discrete_A2C_10x10x10Bin_s42_inh_800_defaultBox-2022.08.18-05-11-48/PCT-Discrete_A2C_10x10x10Bin_s42_inh_800_defaultBox-2022.08.18-05-11-48_2022.08.18-07-02-00.pt (torch, 236314 bytes, 24 tensors)

actor.init_internal_node_embed.0.module.weight f4 [32, 6]
000000 40 73 98 ba 86 23 95 3e 8f 65 07 3d 7b 3f b3 be
       -0.0011631027 0.29128665 0.03305584 -0.3500937
000010 53 e0 da 3d 97 09 a7 bd de f2 b7 3e 7c 50 bc 3e
       0.10687318 -0.08156126 0.3592748 0.36780155
000020 2e fa 6e be 64 41 88 be 67 f4 85 be 06 03 e4 bd
       -0.23337623 -0.2661239 -0.26163027 -0.11133389
000030 8a b0 df 3d b4 db 09 3c 77 8a ec bd 0e 0b 1b 3e
       0.10922344 0.008414198 -0.115498476 0.15140936
000040 dd bc 6b be 28 ba d0 bd 0f 4b ec bd 50 b2 e3 3b
       -0.23021264 -0.101917565 -0.11537754 0.0069487467
000050 a3 3b f7 be d7 26 9f 3e 13 5e 70 3e e3 42 05 3f
       -0.48287687 0.3108432 0.23473386 0.52055186
000060 4b c6 14 3f 7f c8 8f 3d f4 9b 0c 3f 3f 88 b8 3e
       0.5811507 0.070206635 0.54925466 0.36041448
000070 f2 30 60 3d fd 49 78 3d 59 e4 52 3d 43 71 9c 3d
       0.054734178 0.060617436 0.0514873 0.076387905
000080 b9 30 4a be 16 f8 ba 3d 23 7f 01 bf b9 fe bf be
       -0.19745149 0.0912935 -0.5058462 -0.37499025
000090 ab d2 4a bf 04 fb 28 3f c2 be e4 3e b5 6e 4c 3f
       -0.79227704 0.6600802 0.44676787 0.79856426
0000a0 7d 61 43 bf 7d 72 f6 bd b5 81 88 3e 18 c7 68 bd
       -0.7632063 -0.12033556 0.2666146 -0.056830496
0000b0 8b 3c 6f 3f 01 2f ae bd 8a 34 04 bf 92 0e 22 be
       0.93451756 -0.08505059 -0.5164267 -0.1582587
0000c0 58 bc 44 bf c5 eb 95 be 08 3a df be f0 ac 09 3f
       -0.7684989 -0.2928144 -0.43598962 0.53779507
0000d0 2b 17 d8 3e 59 58 0f 3e 6d fa 2f 3f dc 1f 23 3d
       0.42205176 0.13998546 0.68741494 0.039825305
0000e0 50 e2 d4 be 33 8d 22 3f 73 c8 9c 3e 07 72 08 be
       -0.41578913 0.634967 0.3062168 -0.13324748
0000f0 ca 86 94 3c ad 5f ac 3e 88 32 62 be 2f a9 f3 3b
       0.018130679 0.33666745 -0.22089589 0.0074359397
000100 40 5e 74 3e 72 9f c4 be 9a 6f 53 be 3f c0 e4 3d
       0.23864079 -0.38402897 -0.20648041 0.111694805
000110 40 07 f8 bd 3d 71 50 be c7 14 81 bd 64 97 8d be
       -0.12110758 -0.20355697 -0.06302791 -0.27654564
000120 9f 89 d1 3e c6 76 9a be 2e d1 8f bd c8 ae 23 3e
       0.4092531 -0.30168742 -0.0702232 0.15984643
000130 a9 8f b6 bd 71 83 14 be 8f 44 26 3f 46 e1 bf 3e
       -0.0891412 -0.14503266 0.6494836 0.37476557
000140 13 e6 2a be 01 11 bc be cb b0 3e 3e 85 67 f7 bc
       -0.16689329 -0.36731723 0.18622129 -0.03020073
000150 31 c3 0c be e4 c6 09 bd ef 42 e1 be d2 7c 95 3d
       -0.13746335 -0.033636943 -0.4399638 0.07299198
000160 1f de ce 3e e3 3d e6 be 62 fd be bc 95 39 94 be
       0.4040384 -0.4496909 -0.023314182 -0.28950182
000170 99 53 f8 bd ef c3 b7 3d 68 4a 86 3e 96 8a db be
       -0.1212532 0.08972918 0.26228642 -0.4287917
000180 b3 49 7a 3e 70 56 38 be 3c 0e 89 3f c8 19 37 bf
       0.24442177 -0.18001723 1.0707469 -0.71523714
000190 93 4b 99 3e c4 85 79 bd 97 3d c7 bd 37 dc 6f 3d
       0.2994047 -0.060918584 -0.09728544 0.058559623
0001a0 c7 4c 95 3d 49 5a 49 3e cb 6e f3 be 78 f3 4f be
       0.07290035 0.19663347 -0.47545466 -0.2030772
0001b0 64 03 5b bd 11 77 75 bc 06 fc 21 bf c1 f6 e2 3c
       -0.05347003 -0.014982001 -0.6327518 0.027705552
0001c0 bb d7 82 3c dd a3 eb 3d 45 4a 9e 3e be eb a8 be
       0.015972009 0.11505864 0.30916038 -0.32992357
0001d0 bd b6 9e 3b 89 1f c6 be c2 fa 97 3d c0 0c d5 3e
       0.0048435614 -0.38695934 0.07420875 0.4161129
0001e0 e8 cf e5 3e c6 5d 50 3f 0a 4f 27 bc 6a 08 be 3e
       0.44885182 0.81393087 -0.0102117155 0.37115794
0001f0 03 11 fd 3d 5f 15 14 bf f6 e4 4b be 82 db 90 bd
       0.1235676 -0.5784511 -0.1991156 -0.07073118
000200 05 12 43 be b0 d0 7e 3d 39 da b5 bd 14 a2 e0 be
       -0.19049843 0.06221074 -0.08879513 -0.43873656
000210 cd 21 08 bf e6 d7 0d bf 9f be 8a be 8e ec 01 3f
       -0.53176576 -0.5540756 -0.27098557 0.5075158
000220 e8 ac 82 3e b4 87 5b 3e 60 ec b4 3d a8 f1 51 3d
       0.25522542 0.21438485 0.088341475 0.051255852
000230 21 30 83 bf a7 41 59 be 57 f8 ba be 50 5f 45 3f
       -1.0249063 -0.2121645 -0.36517593 0.7709856
000240 9e ec 42 be fc 6c 60 be 31 a4 24 3f 92 2a 12 3e
       -0.19035575 -0.21916574 0.64313036 0.14274052
000250 31 34 11 3d 87 cd 00 3d 2e d6 46 3c 0d 0b 49 bd
       0.035450164 0.031446006 0.012136025 -0.049082804
000260 35 85 ec 3e 17 77 94 be 69 f7 67 be 62 aa da 3e
       0.4619538 -0.28997108 -0.22652973 0.42708117
000270 9f 5f e3 3b 03 3c dc 3e 33 c6 06 be d7 36 88 3d
       0.006938889 0.43014535 -0.13161545 0.06651085
000280 59 c5 01 3e 08 ae 91 be 6c ea 02 be 8f d1 b1 3d
       0.12672938 -0.28453088 -0.12784737 0.08682548
000290 df 20 49 3f 68 fc 97 be 13 b2 0b 3e fd 0a 32 3e
       0.7856578 -0.29684758 0.13642149 0.17387004
0002a0 b3 dc 9c be 6b e8 26 bf 3d 10 ec bc 60 0d 20 3c
       -0.3063713 -0.6519839 -0.028816337 0.009768814
0002b0 3c 75 47 bd c7 5f 88 be 0a 95 9d be 9d d6 40 3e
       -0.048695788 -0.26635572 -0.3077777 0.18831868
0002c0 cb 42 71 3e f6 f0 1e be c8 7b 96 3d 6b 1f 73 bd
       0.23560636 -0.15521607 0.07347828 -0.059356134
0002d0 08 2e 16 3e d3 0b 3e 3e 4c bb 49 bd 5c c9 75 3c
       0.14665997 0.18559198 -0.049250886 0.015001621
0002e0 b1 1a 19 be 4c 8a 85 be 38 55 fe 3e 8f 6c 84 3e
       -0.14951588 -0.26082075 0.49674392 0.25864074
0002f0 18 4f 17 bf 27 04 bc be 51 b1 55 be d6 71 89 3e
       -0.5910506 -0.36721918 -0.20868422 0.26844662

actor.init_internal_node_embed.0.add_bias._bias f4 [32, 1]
000000 31 62 48 bb 3a 29 80 3b e5 60 02 bc 3f 94 33 3d
       -0.0030576105 0.0039111646 -0.007957672 0.04384255
000010 0c 88 c1 3d 20 08 22 bc 9c e4 93 bc ba 1a fa ba
       0.09449777 -0.009889632 -0.018053345 -0.0019081451
000020 70 46 35 3c 73 18 e1 3d 12 d0 1a 3d 9b 8b 80 3c
       0.011064157 0.109909914 0.037796088 0.01569157
000030 5a 40 9d 3c 7f 01 6b 3c 4e 53 2a bc 83 a1 53 bc
       0.019195724 0.014343618 -0.010395838 -0.012916925
000040 78 da 64 3b c6 6a 0e 3b c5 36 9f bb 8b 65 94 3c
       0.0034920257 0.0021731122 -0.004858824 0.018114826
000050 e3 33 c2 3c 2d 22 27 bd 0e b3 44 3c fe 37 20 3c
       0.023706382 -0.040804077 0.012005581 0.009778975
000060 5c cc 6a 3d 82 15 91 3b e0 2c 1e bb 39 8c 98 bb
       0.0573238 0.0044276128 -0.0024135634 -0.0046553877
000070 ad 3a 37 bd 8e d6 de bb d5 b0 76 bc 7f 61 85 bb
       -0.044733692 -0.0068004793 -0.0150568085 -0.0040704603

actor.init_internal_node_embed.2.module.weight f4 [64, 32]
000000 0f f8 a7 be c1 3a 34 3e 08 1a 96 bd d3 79 7a 3e
       -0.3280644 0.17600538 -0.07329184 0.24460535
000010 d1 3e 85 3f ae c1 55 3d 00 de d7 3d d2 bc ea 3d
       1.0409795 0.05218666 0.1054039 0.11461796
000020 c3 cc c1 be b0 d8 47 be 99 07 e9 be 0a 9d eb 3d
       -0.37851533 -0.19516253 -0.4551361 0.11504562
000030 fe ae 8e be 08 cd 27 be 18 d2 b1 3d cc 79 40 be
       -0.27867883 -0.16386807 0.0868265 -0.18796462
000040 aa 98 98 3e ef 69 1e bd ca 25 b5 bd 77 bd 0c 3e
       0.29803973 -0.038675245 -0.08845098 0.1374415
000050 11 78 72 3c 9e 16 12 be 6b 37 9e be f7 df e3 be
       0.014799134 -0.1426644 -0.30901656 -0.4450681
000060 85 6e da bd 29 b7 bf 3e 05 8f 4d 3c bc 23 19 3f
       -0.10665611 0.37444428 0.012546306 0.5982015
000070 86 e9 8f bd 0c d1 28 be ed 54 58 be 37 df eb bc
       -0.07026963 -0.16485995 -0.21126147 -0.02879296
000080 3a fd 60 bd ae cc f1 be 96 b5 5d be 79 3c a1 bd
       -0.054928996 -0.4722647 -0.21651301 -0.07872862
000090 43 0d 33 be bf 20 5e 3e 99 5b b7 3b 5b 45 db 3e
       -0.17485528 0.21692179 0.005595636 0.42826352
0000a0 72 c4 60 bd 9d 45 94 bd 37 c8 50 3e 42 33 46 be
       -0.054874845 -0.0723984 0.20388876 -0.19355491
0000b0 0e 40 54 be 7f b7 27 bd 59 b5 0f 3e 01 c2 59 3e
       -0.2072756 -0.04094648 0.14034022 0.21265413
0000c0 f8 b8 ed bd 8a d9 ad bd 28 70 e6 bd 3b f1 7a be
       -0.116075456 -0.08488758 -0.11251861 -0.24506085
0000d0 25 45 3c 3e 94 3e fb 3c a9 fc b3 3e 51 d9 d9 bd
       0.18385752 0.030669488 0.35153702 -0.10637153
0000e0 e4 50 30 3e df 9e 09 be 8f 31 de bc 71 c6 f2 3d
       0.17218357 -0.13439511 -0.02712324 0.11854256
0000f0 e4 64 8b be d2 ce 56 3e 22 0e 09 3f e0 97 a9 3c
       -0.2722541 0.20977333 0.5353719 0.020702302
000100 4e a8 e4 3e ee e4 42 be 81 d1 b8 bd 75 8d e2 3e
       0.44659656 -0.19032642 -0.09024335 0.44248548
000110 25 5f 3e 3e cd 58 82 3e dd 66 a9 be 56 64 62 be
       0.18590982 0.25458375 -0.3308629 -0.22108588
000120 8e 85 e0 3e da b6 28 3d a1 20 9f be 2d 0c 90 be
       0.43851894 0.041190006 -0.3107958 -0.2813429
000130 49 2f d2 3e 8c df a1 be f2 b1 7e 3c fb f4 4f bc
       0.410517 -0.31615865 0.015545355 -0.012692685
000140 93 8c 80 3e 2f 39 d3 3d a5 56 64 be ac 6f 98 3d
       0.2510725 0.10313641 -0.22298677 0.07443175
000150 26 0f cf be 8a 74 02 3d 9b c2 d1 3e e5 54 c0 be
       -0.40441245 0.03184942 0.40968785 -0.3756477
000160 7d 31 0d be 70 a6 a0 bd df 6f db be fc 2a 88 3e
       -0.1378841 -0.078442454 -0.42858788 0.26595294
000170 08 99 66 bd cd 81 07 bc c2 90 61 3e c3 80 08 bd
       -0.056298286 -0.008270693 0.22027877 -0.03332592
000180 ce 26 50 3d 56 d1 e8 3e e7 2f 8f bd 9d c4 71 3e
       0.050818257 0.4547221 -0.069915585 0.23610158
000190 dd 3c ed 3d 1a 2e 15 be 83 48 88 be 7c d1 2f 3d
       0.115838744 -0.14568368 -0.26617822 0.04292439
0001a0 5f 2d 66 3e 09 7c ab 3d 67 eb a5 3e 9b 06 b7 3e
       0.22478245 0.08373267 0.3240616 0.35747227
0001b0 51 3c 8d be 21 24 b1 3b e4 79 00 3e da 1a 0b be
       -0.2758508 0.005405918 0.12546498 -0.13584462
0001c0 ec 6e f7 bd 75 78 51 be 8e 5a 2b 3d 0c d6 27 be
       -0.120817035 -0.20456107 0.041834407 -0.16390246
0001d0 e6 bc 73 3e 94 60 e3 3c 7d 6e cd 3e 06 ad 83 bd
       0.23802528 0.027756013 0.40123358 -0.06429486
0001e0 41 26 d1 be 9a ef 11 3e 6c d4 c4 3e 98 70 32 3c
       -0.40849498 0.14251557 0.38443315 0.010891102
0001f0 86 f9 15 3e 24 26 5e 3e d8 f4 66 3e 45 cd c6 3d
       0.14645967 0.21694237 0.22554338 0.09707121
000200 23 da 92 be c4 36 2d 3d 7b 9a 70 3e df d7 94 be
       -0.2868205 0.042288557 0.2349643 -0.29070947
000210 85 59 a5 be 71 85 73 3c cb d2 25 be ea 5d f0 3d
       -0.3229486 0.014863358 -0.16193692 0.11736663
000220 a5 c0 21 be ae b9 dd 3e ff b4 e2 3e f1 b8 94 bd
       -0.15796144 0.43305725 0.44278714 -0.07261837
000230 bd fa ac 3d 79 5f 00 3e 62 73 ef bd 7d 49 d6 bc
       0.08446262 0.1253642 -0.116919294 -0.026158089
000240 33 13 43 3a e6 28 e9 3d 5b 15 bd bd e7 41 75 be
       0.00074415206 0.11384754 -0.09232589 -0.23950921
000250 5c d8 64 3e c1 2e 75 3d c3 d3 ca 3d 0e 5d 5d be
       0.2234816 0.05985904 0.099036716 -0.21617529
000260 95 f8 8b bd cd fa 9d 3d 7e ee b1 3e 72 b0 cf be
       -0.06834523 0.07713852 0.34752268 -0.40564305
000270 7d 8f 9a 3e 54 ab 01 bc 2e 34 14 be 1b 2f 51 be
       0.30187598 -0.007914383 -0.1447303 -0.20428126
000280 cc dc 62 3c b7 d8 6c 3d b1 22 3f be d6 23 e2 3e
       0.013846587 0.057823863 -0.18665577 0.44167966
000290 cf 38 bb 3c 82 9b b4 bc 5c 6c 83 3e 08 0e d3 be
       0.022854237 -0.022046808 0.2566861 -0.41221642
0002a0 b8 86 82 3e d9 b9 5b 3e 10 f2 1e 3f 08 bd 3c 3d
       0.25493407 0.21457614 0.6208811 0.04607871
0002b0 12 b5 c8 3e 9a 6d f1 bd 72 fa 90 3e ab 7e 88 bd
       0.39200646 -0.11788483 0.28316075 -0.06664785
0002c0 4c f9 dd bd 13 14 26 bd 58 cb 7a 3e 68 a8 36 be
       -0.10838565 -0.040546488 0.24491632 -0.1783768
0002d0 0a d8 92 3e f3 fb bb bd 9f 4d d6 3d 4c 33 82 3a
       0.2868045 -0.09178915 0.10464024 0.00099335
0002e0 24 90 45 3c 6d 6a 01 3d 71 d0 07 bd c2 4f aa be
       0.012058292 0.031595636 -0.03315777 -0.33263975
0002f0 6a 8f 9a bc ab 96 db 3d fb 6c 9b 3d f0 65 63 3d
       -0.018867213 0.10722097 0.07589146 0.055517137
000300 93 08 b3 bd 6d 46 c6 be d9 ea 3d be 69 1e 0f 3e
       -0.0874187 -0.38725606 -0.18546619 0.13976444
000310 cf ff f8 3d 37 2b 19 3d 14 25 bf bd ff b6 22 be
       0.121581666 0.03739473 -0.09333244 -0.1589012
000320 12 56 87 3c b0 12 1a 3f 85 74 f3 be c6 d4 43 3e
       0.016520534 0.60184765 -0.47549835 0.19124135
000330 fb 09 8c 3e ca 5e bd 3d bc 77 35 be 11 a7 ea bc
       0.27351364 0.09246595 -0.17721456 -0.028644117
000340 d6 5b 65 bd 03 a6 84 be 4c fe 56 3e 21 7a 47 3e
       -0.055995785 -0.25907907 0.20995444 0.19480182
000350 96 2d 15 bd 51 6d c5 3d c9 34 8a be f6 f4 89 3e
       -0.036420427 0.09639991 -0.26993397 0.26944703
000360 98 01 1a bf 00 b1 6c be 3e c3 25 3e 0e fe de 3d
       -0.6015868 -0.23114395 0.1618776 0.10888301
000370 71 d0 f8 3c b3 1b e0 3e 4f 30 ec be 17 4b b7 be
       0.03037283 0.43771133 -0.46130607 -0.35799477
000380 7c f0 a6 3e 70 52 d2 3e 29 31 7a 3e c6 3c 09 be
       0.3260535 0.4107852 0.24432816 -0.1340209
000390 80 af 9d bd 6f 02 b9 3d 82 d8 f3 3e 0a 96 80 3e
       -0.076994896 0.09033667 0.4762612 0.2511447
0003a0 cd 72 1d bf a7 ad 2d bf 06 ae 8d be 1e 11 9a bd
       -0.615033 -0.678431 -0.27671832 -0.07522796
0003b0 42 f7 d3 3e dd a3 ba be 90 bc e1 bd 54 de 73 3d
       0.4139958 -0.36453143 -0.110222936 0.0595382
0003c0 02 3e 97 3d 7b 6e ca 3b 08 56 07 3d 5b f3 3a 3d
       0.07384874 0.006177721 0.03304103 0.045642238
0003d0 7a c0 54 bf e9 2b 37 bd 21 84 a4 3e 5c aa d2 3e
       -0.83106196 -0.04471961 0.32132056 0.411456
0003e0 07 03 22 3f 43 7c 6a 3d 04 33 c1 be 6a 7d 1f 3d
       0.6328587 0.05724741 -0.37734234 0.038937964
0003f0 83 cd 97 3d d1 46 28 3e df 9c ab be 0a fd 2f be
       0.07412245 0.16433264 -0.3351812 -0.1718637

actor.init_internal_node_embed.2.add_bias._bias f4 [64, 1]
000000 6a 89 d5 bb 0b 24 ca bc e3 43 7e 3d a0 a7 ce 3c
       -0.006516625 -0.02467539 0.06207646 0.025226414
000010 6b a7 35 3b c2 65 41 3d 96 bb 3e bc 18 fc bd 3c
       0.0027718197 0.047216184 -0.011641404 0.023191497
000020 19 09 07 bd 4f d3 28 bd 9f 66 1b bc 59 23 fe bc
       -0.03296766 -0.041217145 -0.009484916 -0.031022714
000030 33 4a b8 bc 7e 56 4d bd 91 3b 4b bd d0 e3 bd bb
       -0.022496318 -0.050131314 -0.049617354 -0.0057949796
000040 31 9c a0 3d 94 62 8c bc 72 72 83 bc c9 a1 24 bd
       0.07842291 -0.01713685 -0.016045783 -0.040193353
000050 c1 60 71 bc c3 97 d1 3c af c0 fa 3c 8f b7 c2 3d
       -0.014732541 0.025585061 0.030609457 0.09507667
000060 a1 b6 a8 3b c4 8e 73 bd 44 f6 ad 3b 82 1a 69 3d
       0.005148724 -0.059462324 0.005308898 0.056910045
000070 5a 98 32 3d 50 fb 3d bd 17 e3 c1 3d 9e b4 ab 3b
       0.043602325 -0.04638225 0.09467142 0.005240037
000080 bd 3f e0 bc dc 4e 68 bd 8d 90 54 bd 77 6a 4b bc
       -0.027374143 -0.05671583 -0.051895667 -0.01241552
000090 5a 5e 22 3c 50 06 14 bd 74 ec 81 3d c0 bb 18 3d
       0.0099101905 -0.036138833 0.06343928 0.037288427
0000a0 c7 70 90 bd 90 3b e8 3c 2b 0a 99 3d 74 ee 14 3d
       -0.070527606 0.028348714 0.074726425 0.03636022
0000b0 9d 37 d1 3c fe 67 14 bd 37 a5 20 3d 7c 95 ec 3d
       0.025539214 -0.036231987 0.03922006 0.115519494
0000c0 22 10 37 bb 56 64 f3 39 1e f6 3f 3d 3b 54 1d 3d
       -0.00279332 0.00046423328 0.046865575 0.038410407
0000d0 77 f3 10 bd e3 7e 33 bd 4f ac 48 bd d0 5a 90 3d
       -0.035388436 -0.04382218 -0.04899245 0.07048571
0000e0 cb d9 11 3d 20 dc fa bc c8 29 a1 3c 25 26 c0 bc
       0.035608094 -0.030622542 0.019673243 -0.023455689
0000f0 bd 6b ad bc 98 77 a7 bb 5f 01 76 bc 48 78 69 3c
       -0.021169538 -0.0051106922 -0.015014975 0.014249869

actor.init_leaf_node_embed.0.module.weight f4 [32, 8]
000000 33 5e 5d be d9 1b a6 be 07 b2 59 3e 12 4a 53 3e
       -0.21617965 -0.3244312 0.21259318 0.20633724
000010 df 10 87 3c fd dd 01 3f d6 8f aa be 3f c3 9e be
       0.016487537 0.5072935 -0.33312863 -0.31008336
000020 35 52 e6 be ec fc fa bd f2 aa cb 3e c4 08 27 bd
       -0.44984594 -0.12255272 0.39778858 -0.040779844
000030 ef 9b 56 3e d9 73 5f be 96 8d 7a 3e 93 04 58 bd
       0.20957921 -0.21821536 0.24468073 -0.052738737
000040 46 f6 8b 3a 87 0b 03 3e 42 db 82 be 20 54 51 3c
       0.0010678254 0.12797366 -0.25557905 0.012776405
000050 80 3f 4a be 22 0c 0b be 66 01 a2 3d b7 65 c5 bd
       -0.19750786 -0.13578847 0.07910423 -0.09638541
000060 23 0d c3 be 03 56 f4 3c fd 26 57 3e 41 25 43 bd
       -0.3809596 0.02982617 0.21010967 -0.04764295
000070 7f ae ab 3e c2 4d 18 3d 13 7c 80 be db a0 49 3c
       0.33531567 0.03718353 -0.2509466 0.012306417
000080 47 d1 a3 3c ea fc 0d bf 29 87 ba 3e b7 21 c6 bd
       0.019997252 -0.5546404 0.36431244 -0.09674399
000090 41 e7 be bd eb 5e b0 3c 86 2d 2a be 19 bb 11 3e
       -0.09321452 0.021529635 -0.16618928 0.14231528
0000a0 21 e8 b6 be 1d 71 81 bc b0 4b 7e be 1c 20 3a 3e
       -0.35723975 -0.015801007 -0.2483356 0.18176311
0000b0 eb c8 25 be 70 f5 fd 3d 3e c0 2b be 66 5a 30 3c
       -0.16189925 0.12400329 -0.16772553 0.01076374
0000c0 e5 61 84 be 6c 7c 56 3e 49 4d 96 bd 75 55 c3 3d
       -0.25855938 0.209459 -0.0733896 0.09537784
0000d0 6e 71 c7 bd 63 f9 c0 bd 9e b3 39 3d 92 28 27 3e
       -0.09738432 -0.09422567 0.045337312 0.1632407
0000e0 d0 74 51 3e fe ab 47 3e bf 0d d2 3e d2 d9 04 be
       0.20454717 0.19499204 0.41026112 -0.12973717
0000f0 79 65 2e be bd c4 d5 bc c2 df 28 bf 7b 28 a8 bd
       -0.17030896 -0.026094789 -0.6596643 -0.08210846
000100 f5 dc 27 bd 17 88 b6 3d 85 0d 59 3e 07 29 39 3d
       -0.040982205 0.08912676 0.21196564 0.045205142
000110 0c c4 7d 3d 5d 87 9a 3e a0 2f 57 3d 6a 5c 32 3d
       0.061954543 0.301814 0.052535653 0.043545164
000120 34 12 fb be 0d b5 00 be dc 5c 87 3d af 24 ad 3d
       -0.49037325 -0.12569065 0.066095084 0.084542625
000130 04 25 b3 3e d1 1e 55 be e5 5d d7 ba b9 5f 04 bf
       0.34989178 -0.20812537 -0.0016431181 -0.5170856
000140 db cd d3 be 8b 17 8d 3d 93 ab ac be 67 03 0b be
       -0.41367993 0.06889256 -0.3372465 -0.13575517
000150 13 87 eb 3e 2a 67 8b 3e 5b 21 6b be b4 5d ff b9
       0.4600149 0.27227145 -0.22961943 -0.00048707204
000160 82 c4 22 3e 40 09 81 bd ea a9 97 3e 41 3f 53 be
       0.15895274 -0.063005924 0.29621822 -0.20629598
000170 35 63 31 bd 38 10 8a be eb 3e d6 3e 29 94 58 3c
       -0.0433075 -0.269655 0.41844878 0.013218918
000180 6e 30 7a be 64 26 47 be 6c 82 c4 3e 30 b5 e7 3e
       -0.24432537 -0.19448239 0.38380754 0.45255423
000190 cf 91 89 3e 79 c5 ae 3d 4a df ad 3e 1e 36 de 3e
       0.26869056 0.08533759 0.3395942 0.43400663
0001a0 a6 c2 09 3e 4d 22 ad 3e 9a ed 86 3e bf 50 76 bd
       0.13453159 0.33815232 0.2635315 -0.0601356
0001b0 90 d6 06 bf d6 5e d6 bb 3f 4e 4a bd eb 74 65 be
       -0.52671146 -0.006542067 -0.049391028 -0.22407882
0001c0 18 e9 d4 3e 98 01 d9 3e 49 b0 b7 3d 7f d8 df 3e
       0.41584086 0.42384028 0.089691706 0.4371986
0001d0 a9 2a 9c 3d e4 b7 11 3d 20 50 0a 3e 16 e2 1d 3e
       0.07625324 0.035575762 0.13507128 0.15418276
0001e0 5f a1 30 3d d6 f6 cd bd 25 a4 98 bd b3 0f 4f 3e
       0.043122645 -0.10056846 -0.07453183 0.20220833
0001f0 cd e2 2c be ed 02 9c 3e 8d d3 2d 3d ab ae 31 3e
       -0.16883393 0.30470982 0.04243808 0.17351787
000200 f5 15 94 3e 46 e8 9c 3e 93 8a c7 bd 78 c4 dc be
       0.28923002 0.3064596 -0.09743228 -0.43118644
000210 e4 fc b5 3c 8a 3c 82 be f7 85 63 be ad f6 2d 3e
       0.022215314 -0.25436813 -0.22219072 0.1698863
000220 1a 94 a4 be 6e 70 93 3e 7e a4 b7 be b6 03 e9 3e
       -0.32144243 0.28796715 -0.35867685 0.45510644
000230 f5 50 23 be 6e 41 cc bd 78 f0 57 be e2 f2 62 3e
       -0.15948851 -0.09973417 -0.21087825 0.22162965
000240 57 f7 89 3d 07 aa 8d 3b da 41 11 bf cc b8 2c be
       0.067366295 0.0043232474 -0.56741107 -0.1686737
000250 5e 04 7a 3e 4d ff c7 3e 58 11 bf 3d b9 51 23 be
       0.24415728 0.39061967 0.0932948 -0.15949143
000260 15 42 31 be a3 fa 33 bd 6e a6 ed be d8 11 b6 bd
       -0.17310365 -0.043940198 -0.46416038 -0.08890122
000270 58 99 64 be cb 7a e0 be 86 3e 7f 3e ca 62 9f bd
       -0.22324121 -0.43843684 0.24926195 -0.077825144
000280 4f 33 24 3e 89 1b 82 3c a2 18 3e 3e 83 57 dc 3e
       0.16035198 0.01588227 0.18564084 0.43035516
000290 f2 88 f4 3e 12 88 96 bd 76 72 96 3e ad a4 9c bd
       0.4776073 -0.07350172 0.29384202 -0.07648597
0002a0 1c 13 83 be 1e 36 f0 3e c9 1b 18 3e 4f 87 62 be
       -0.25600517 0.46916288 0.14854349 -0.22121929
0002b0 ac ae a9 3e 62 79 86 be d0 2c 2b bd 85 7a 49 3e
       0.33141077 -0.26264483 -0.041790783 0.19675644
0002c0 e4 49 22 3e 96 2e cf be 7b 92 23 be d6 3d b1 be
       0.158485 -0.4046523 -0.15973847 -0.3461749
0002d0 a0 fc c2 3e a1 96 95 bc 12 fd e1 3e 0d 1c 6b 3e
       0.38083363 -0.018260302 0.4413839 0.2295992
0002e0 01 27 68 3d d2 79 06 3f 8b 89 61 3e 5c f5 15 bf
       0.056677822 0.52529633 0.22025125 -0.58577514
0002f0 f1 e9 09 be 1e 62 1c 3f ac dd 0f 3e 11 3e ca 3e
       -0.13468148 0.61087215 0.14049405 0.39500478
000300 8d 76 1d be 2b c8 99 be 30 d3 23 be a2 06 1a be
       -0.15377255 -0.3003553 -0.1599853 -0.15041593
000310 c9 af 36 3e 14 c3 8a be 5e d5 9a bd ca 4f 16 3f
       0.17840494 -0.27101958 -0.07560228 0.587155
000320 82 6d 26 3e 9f ee be bd 7a 28 42 be 54 e2 16 3e
       0.16252711 -0.09322857 -0.18960753 0.14734775
000330 a5 27 c2 be 29 fa 97 bc 9e 2c a2 bb cf 25 ba 3e
       -0.3792087 -0.018551903 -0.0049491664 0.3635697
000340 5c dd 7e be dc cc 3e 3e b8 8b fe 3d d6 df 83 be
       -0.2488913 0.18632835 0.12428993 -0.2575671
000350 59 59 e7 be 07 e9 bd bd b9 0b d0 3e b1 12 44 be
       -0.45185354 -0.09272962 0.40633944 -0.19147755
000360 d8 82 0f be d1 6b 8c 3e 24 82 92 3e 4d 95 17 3e
       -0.14014757 0.27426007 0.28614914 0.14803047
000370 da c2 ed bd 27 73 ec 3e 65 5c 9c 3e 15 dc 43 be
       -0.116094306 0.46181604 0.3053924 -0.19126923
000380 58 8e 4a 3d 6b 92 50 bc fe 6b ad 3e d2 87 12 be
       0.049452156 -0.012730221 0.33871454 -0.14309624
000390 07 8f ed bd cb 74 fd be 60 38 76 be d6 e0 b8 bd
       -0.11599546 -0.49503168 -0.24044943 -0.09027259
0003a0 5c 81 b6 3e 4d e1 8c 3e 5e ca 66 be e1 7b 22 3e
       0.35645568 0.2751564 -0.22538134 0.15867569
0003b0 39 4a fe 3e 2d b4 15 bd 73 cd 24 3e 62 4f ff be
       0.49666002 -0.036548782 0.16093998 -0.49865252
0003c0 f4 eb 4c 3d 7a 2d ba be ad f6 38 be 4f 9c b3 be
       0.05002971 -0.3636282 -0.1806285 -0.35080191
0003d0 8d 01 91 be da 01 cc 3e 9b 47 a3 3d 76 3a 80 be
       -0.28321496 0.39845163 0.07972642 -0.25044602
0003e0 da 41 de be 46 5c 5d 3d fc ae 5f be 41 60 90 bd
       -0.43409616 0.054043077 -0.21844095 -0.07049609
0003f0 13 a2 8d be 6f e4 1a be 6b f0 8d 3e b2 03 55 be
       -0.27662715 -0.15126203 0.27722487 -0.20802191

actor.init_leaf_node_embed.0.add_bias._bias f4 [32, 1]
000000 e8 fd ae 3d a3 d4 c4 39 0d 52 b9 3c 5d bc ea 3c
       0.085445225 0.0003754246 0.022622133 0.028654272
000010 14 91 72 3c 15 67 8a bd 7f 4b 21 3d fc 41 ed 3b
       0.014805097 -0.067579426 0.03937864 0.007240532
000020 ce d8 f6 bc e3 5e b1 3c 04 a8 a5 3c 78 13 20 bc
       -0.030132677 0.02165169 0.020221718 -0.009770267
000030 8c 87 14 3e d5 31 73 3c 2f 73 c2 3d 5b 32 e6 bc
       0.14504832 0.014843424 0.09494626 -0.028100183
000040 e0 76 9f 3d fe 80 15 bd c9 58 b9 bd fe 1d 22 be
       0.077863455 -0.03649997 -0.090501375 -0.15831754
000050 ee 8f 49 bd 48 95 f9 b7 ff 06 20 3c 19 2f 51 bd
       -0.049209528 -2.9752628e-05 0.009767293 -0.051070306
000060 c7 9f bd bd 0a ae 00 bc da 72 a8 bd 1d 93 a8 3d
       -0.09258991 -0.007853994 -0.08225031 0.08231185
000070 09 04 2c bd 60 a7 d7 3d b1 dc 30 3a 71 b7 5e 3c
       -0.041996036 0.10529971 0.0006746753 0.0135935405

actor.init_leaf_node_embed.2.module.weight f4 [64, 32]
000000 e2 1b 31 3d 38 6f 83 be a9 19 91 be bb d4 30 be
       0.04323948 -0.2567079 -0.2833989 -0.1726865
000010 02 cc 22 3e 01 b0 1a 3e 19 d8 b0 3d d1 7d f4 3d
       0.15898135 0.15106203 0.08634967 0.1193806
000020 70 61 d8 3d 43 6b 80 3d 61 fa 72 3e 2d 3b 8d be
       0.1056546 0.062704585 0.23728324 -0.2758421
000030 cf 1d 2d be a7 02 fb 3d 15 46 fb be e6 d1 06 bc
       -0.16905902 0.12256365 -0.49076906 -0.008228755
000040 1c a4 58 3e be 44 35 3e 20 10 de bc 0d 90 e7 bd
       0.21156353 0.17702004 -0.027107298 -0.113067724
000050 96 c9 81 3d a4 be 84 be 86 01 92 3e 97 45 5d 3e
       0.063372776 -0.25926697 0.28516787 0.21608578
000060 b8 51 9d 3d c0 0c a3 be ab 04 d3 bd a8 16 1c bb
       0.07681602 -0.31845665 -0.10303625 -0.0023817215
000070 68 de 10 3e 4f fb 9a 3b ae 67 4a bd cc d8 14 bd
       0.14147341 0.0047296654 -0.049415283 -0.036339566
000080 6e 94 84 bd a7 6e 48 3e b7 39 f3 3c 87 aa 7f 3c
       -0.06473623 0.1957346 0.029690607 0.015604622
000090 93 20 58 3d d1 db 32 3e 25 7d d6 3d 17 e1 a5 bd
       0.05276544 0.17466666 0.10473088 -0.08099573
0000a0 c3 88 14 be 42 cb 4c be 88 7d ef 3e 5a a7 0d bd
       -0.14505295 -0.19999412 0.4677546 -0.034583427
0000b0 12 7a d9 bd 60 d6 dc 3d e0 6f 1b 3e 33 cd 96 be
       -0.10618986 0.10783076 0.15179396 -0.2945343
0000c0 9d 3a 00 be 4d 7d e7 bd 83 d5 34 bd d0 52 45 be
       -0.12522359 -0.11303196 -0.044148933 -0.19269872
0000d0 75 89 c3 bd 6f d4 f9 bd e7 f6 b7 3d a5 35 66 be
       -0.09547702 -0.121987216 0.0898264 -0.22481401
0000e0 f5 a0 c4 be cf ef 32 be 67 11 b5 3b ba e7 26 3e
       -0.3840405 -0.17474292 0.005525756 0.16299334
0000f0 af 67 8a be 2e 05 0a be f7 a6 3b 3e 33 93 b5 3e
       -0.2703223 -0.13478538 0.18325411 0.35463867
000100 37 72 37 3e b0 fd 37 3d f0 40 06 be f6 7c d4 3c
       0.17914663 0.04491967 -0.13110709 0.025938492
000110 38 4a 59 3e b5 cf 3f bd b2 58 d4 bd 56 8c b0 3d
       0.21219718 -0.046828944 -0.1036848 0.08620517
000120 99 63 db be cd 9f 83 bc 0b 8e d0 be 41 d8 30 be
       -0.42849424 -0.01606741 -0.4073337 -0.17269994
000130 1e 84 9d be 7c ac 20 3e 56 31 86 3e de 80 6b be
       -0.3076486 0.15690798 0.26209515 -0.22998378
000140 29 49 b1 bd c6 cb d4 3e 54 3d 88 be bb 16 ff bd
       -0.08656532 0.41561717 -0.2660929 -0.12455507
000150 cd 2e 5d 3c 2e dc b3 3c c5 df 8a 3d 25 ba 8c be
       0.013499928 0.021955576 0.06780962 -0.27485767
000160 95 2f 9a bc 7b bc a3 3d 7f 16 ba bd e9 43 2b be
       -0.018821517 0.07994934 -0.09086322 -0.16725124
000170 67 45 4f be fb fa 32 bd b2 ac cb 3d 92 a8 19 3e
       -0.20241319 -0.043696385 0.099450484 0.1500571
000180 13 56 d7 bd 7b cf 35 3e de 8d 47 3e 76 ba c9 3d
       -0.10514464 0.17754929 0.19487712 0.09850018
000190 4c 94 5f 3e e3 d8 91 3d e1 ff 52 bd 0a 39 30 3e
       0.21833915 0.07121446 -0.051513556 0.17209259
0001a0 12 c1 f6 3d 75 03 aa bd 88 14 85 be ae 39 7c 3e
       0.12048544 -0.083014406 -0.25992227 0.24631378
0001b0 22 a3 93 be f9 de 8b 3d b6 09 a5 bd 8f 72 40 3e
       -0.28835398 0.06829638 -0.08058493 0.187937
0001c0 38 c3 c6 bd 94 89 c9 3e 77 a5 8f be f3 23 b4 bc
       -0.09705204 0.39362776 -0.28055927 -0.021989798
0001d0 7b 08 9a 3d c3 09 5c 3d e2 1c 5c be 37 21 c7 3e
       0.07521149 0.053720247 -0.21495393 0.38892528
0001e0 13 14 fc 3c 24 87 7b 3d 6e cb 2f 3e fe ea 80 3e
       0.03077129 0.061408177 0.17167446 0.25179285
0001f0 85 a4 97 3e 0f e6 95 bb bd 96 1e 3e 84 09 11 3e
       0.29617706 -0.0045745443 0.1548719 0.14163786
000200 1e 17 c5 bd f2 5a 34 bd 99 d8 96 3d 1e 04 18 3d
       -0.0962355 -0.044032045 0.073655315 0.0371133
000210 e2 b9 21 3e a7 d0 de be f6 1a 80 3e 25 94 92 3d
       0.15793565 -0.43518564 0.2502057 0.071571626
000220 0b 80 a1 3d f6 90 5e 3d a9 ba 2a be 2b a9 b8 be
       0.078857504 0.054337464 -0.16672768 -0.36066565
000230 a9 cf 07 be f7 40 6a 3e d5 8f 3a 3e b7 93 45 be
       -0.1326281 0.22876345 0.1821893 -0.1929463
000240 38 4c d9 be f9 29 a1 be 07 dd 13 3e f3 0f ed 3d
       -0.42440963 -0.31477335 0.14439784 0.11575308
000250 10 86 97 be d7 78 53 3e 78 cf 14 bd a6 52 57 3e
       -0.2959447 0.20651565 -0.03633067 0.21027622
000260 cc 7b 04 be 9a 45 75 3c 1e 7d 30 be da 1f a2 3e
       -0.1293785 0.014970208 -0.17235228 0.31664926
000270 74 30 78 3e 40 aa a0 3c a9 9b d8 3d cc 0e 42 be
       0.24237233 0.019612432 0.10576565 -0.18950957
000280 a7 cc 44 3e 13 3a bc bc b0 e1 26 be ef b7 93 bc
       0.19218694 -0.02297691 -0.1629703 -0.018032042
000290 c6 c5 83 be 7d d3 b1 bd cb eb ba 3e eb 5f 90 bc
       -0.25736827 -0.08682916 0.3650802 -0.017623862
0002a0 a4 61 fd 3d ab 67 ba 3b 6f 4d d1 be 28 6f 9c 3e
       0.12372139 0.0056886277 -0.4087939 0.30553555
0002b0 67 0a 0c 3f 12 e9 b8 3d 2a d3 9f 3e 49 9a 7c be
       0.5470337 0.0902883 0.31215793 -0.2466823
0002c0 79 79 34 3e b3 72 58 be 6a 36 a5 be d6 4e 2d be
       0.17624463 -0.21137504 -0.32268077 -0.16924605
0002d0 72 15 08 3e 94 53 7c be 6d a0 e7 bc 06 1b 1c 3f
       0.1328943 -0.24641258 -0.02827474 0.60978734
0002e0 2c d6 a1 3d 5d a5 44 be 00 78 94 bd e0 06 5a 3e
       0.07902178 -0.19203706 -0.07249451 0.21291685
0002f0 b5 5c 24 be a6 9f 3b 3c b8 98 9c 3d b7 a4 51 bd
       -0.1605099 0.011451637 0.07646316 -0.051182475
000300 b4 45 a6 3e 7b bc ab be 71 b6 3a bd 74 75 0d be
       0.32475054 -0.33542237 -0.045584146 -0.13814336
000310 65 4b 8c be 06 af fc bd d7 a1 23 3e ea d5 65 3e
       -0.2740127 -0.123380706 0.15979706 0.22444883
000320 61 d6 c9 3d da 77 0a be 8d 19 5e 3e f0 33 31 3e
       0.09855343 -0.13522282 0.21689434 0.17304969
000330 3c 87 ce bd f4 d6 eb 3d 6b dd 28 be 6f 8d 2a bc
       -0.10084388 0.115156084 -0.16490714 -0.010409697
000340 71 f4 d6 be b0 be d5 3e 03 97 99 3e 83 76 9d 3d
       -0.4198337 0.41747046 0.29998025 0.0768862
000350 30 e0 40 be 34 4f c9 3d ff 6d 00 be b2 10 43 3e
       -0.1883552 0.0982956 -0.1254196 0.19049338
000360 60 aa 32 3d 3c ae 29 3d ec 6d 91 bd 83 cc 8c bc
       0.043619514 0.04142593 -0.07101044 -0.017187363
000370 42 c9 11 be b3 39 97 3e c5 53 a7 3b 22 2e 2b bd
       -0.1423693 0.2953621 0.0051064217 -0.041792043
000380 3d 4a f9 bd bb a2 8c 3d f8 39 08 be 2d 3b 89 be
       -0.12172363 0.06866976 -0.13303363 -0.2680296
000390 d8 13 fd 3d 39 df f2 bd 01 34 67 be b7 c9 11 bf
       0.123573005 -0.118589826 -0.22578432 -0.5694842
0003a0 13 f4 2c 3e aa 31 04 be ee c9 36 3e 4e a8 3d 3c
       0.16889982 -0.1290957 0.17850468 0.0115757715
0003b0 f4 5a 5f 3e 79 af c0 3d 6d bd a2 bd 3c 12 55 3d
       0.2181204 0.09408469 -0.07946286 0.052019343
0003c0 6f 14 6d be 94 39 a5 bd ea 94 0a bf f1 4f 2f be
       -0.23152326 -0.08067623 -0.54133475 -0.17120339
0003d0 d5 8e 2c 3e c4 d3 a6 3e 42 a1 1c 3e 38 8a 51 be
       0.16851361 0.3258344 0.1529589 -0.20462883
0003e0 9d 3b 09 bd f1 71 1c 3e 0b ae 50 3e 8f 26 0d 3e
       -0.033504117 0.1527784 0.20378892 0.1378424
0003f0 d9 60 f8 be 3b 35 8a 3e 80 10 0d 3e 85 db 54 be
       -0.4851139 0.26993737 0.13775826 -0.20786865

actor.init_leaf_node_embed.2.add_bias._bias f4 [64, 1]
000000 37 af 84 bd 61 df 44 bd 98 02 17 bb 92 fd b3 3c
       -0.06478732 -0.048064593 -0.0023042317 0.021971498
000010 9c cd 30 bd e0 06 ac 3e 81 aa 76 3d 50 18 31 3c
       -0.043164834 0.33598995 0.0602212 0.010809019
000020 7c c8 92 bd c9 17 98 3d ff ba 97 bd 08 50 66 3e
       -0.071671456 0.07426412 -0.074087135 0.22491467
000030 e9 d0 93 bd 66 76 78 be 26 7f 04 bf 92 95 8e 3b
       -0.07217581 -0.24263915 -0.51756513 0.0043513263
000040 56 e4 40 bd 3b 04 1c 3e b8 58 55 be c8 6f 0b bd
       -0.047092758 0.15235989 -0.20834625 -0.03404215
000050 d6 df 0e be 06 11 25 3e 29 a6 0a 3e 0d 38 4d 3e
       -0.13952574 0.16119775 0.13539948 0.20040913
000060 03 42 2b bd d1 7b 7f 3e 95 ca 76 be 8c e1 03 3e
       -0.041811 0.24949576 -0.24100716 0.12879008
000070 f3 18 11 be bc 3c 81 be 0f f5 d8 3d 1a eb 52 bd
       -0.14169674 -0.2524165 0.10593616 -0.05149374
000080 00 d2 bd bd fa 83 9b ba fc 93 76 be c4 43 20 3e
       -0.0926857 -0.0011864894 -0.24079889 0.1565085
000090 26 73 d4 bd a3 3c 1b bd 16 a5 fb bd 11 eb 91 bd
       -0.10373525 -0.037899625 -0.12287347 -0.071249135
0000a0 72 a0 3c be c4 1a 60 3c e8 30 d6 ba a2 43 cd bd
       -0.1842058 0.013678256 -0.001634148 -0.100226656
0000b0 58 47 06 3d a7 da ae 3d 2c c5 c2 3c e6 1f 89 3e
       0.032782882 0.085377984 0.02377566 0.2678215
0000c0 ba 84 a1 3c b1 ce cb 3d 08 56 de 3d 8d cd 1a 3d
       0.01971661 0.09951533 0.10856253 0.037793685
0000d0 f3 55 27 bd 2f 05 04 3e 28 5c 20 bd 9f 06 b2 bd
       -0.040853452 0.12892602 -0.039150387 -0.08692669
0000e0 1f ba da bd 6e 77 b9 bd f1 b9 fe bd 36 55 93 3e
       -0.10680031 -0.090559825 -0.12437809 0.28775948
0000f0 6e 50 20 3e 25 cc aa 3c fc ae 3b 3e 2a 78 53 be
       0.15655681 0.020849297 0.1832847 -0.20651308

actor.init_next_embed.0.module.weight f4 [32, 6]
000000 05 96 5f bf d2 50 2a 3e 21 04 ab bd 77 e9 ef 3e
       -0.87338287 0.16632393 -0.08350397 0.46857807
000010 06 5a 91 3f aa 71 6b bf c9 dd c6 3e 9a 49 a6 3e
       1.1355598 -0.9197031 0.38841084 0.3247803
000020 cb bc 08 3c 68 ce 19 3e 75 43 09 bc ec f6 ea bd
       0.008345793 0.15020144 -0.008377899 -0.11472878
000030 44 3b ae bd 89 c8 c7 be b2 c4 75 3e 11 19 0c bf
       -0.08507398 -0.39020184 0.24000815 -0.5472575
000040 e2 6b c6 3d 47 da 0a 3d 46 34 c3 3f 12 a8 11 3f
       0.09688546 0.03389957 1.5250328 0.5689708
000050 6b af e5 3d 7c 83 59 3e 87 f3 1a 3e 32 ac 18 3e
       0.11215099 0.21241564 0.15131961 0.14909437
000060 c3 ea a9 be cd 0f 76 bd 60 cc 45 be 89 80 35 3e
       -0.3318692 -0.060073663 -0.19316244 0.17724814
000070 e1 1a c2 3c ee b8 3f be 1e 1e 19 be 70 ed eb 3d
       0.023694457 -0.18722889 -0.14952895 0.11519897
000080 3d d2 ea 3e ba b3 e2 3d 7e b0 10 be b4 6b 1b 3c
       0.45863524 0.11069436 -0.14129826 0.009486128
000090 95 89 2b 3e 25 7a 68 be 0d a7 c0 bc ae 48 9d be
       0.16751702 -0.22702844 -0.023517156 -0.30719513
0000a0 34 49 9a 3d 10 64 e8 3e 52 f9 4f be 5b 3c bb be
       0.07533494 0.45388842 -0.20309952 -0.36569485
0000b0 a5 ce 81 3e bf de e2 3d 77 7a 10 be c7 61 38 3d
       0.2535297 0.11077642 -0.14109217 0.045015123
0000c0 bc 1d 09 be 9e 98 82 be 20 c8 af 3e 2e 45 6d be
       -0.13390249 -0.25507063 0.3433237 -0.23170921
0000d0 3f 22 ce 3d a5 d0 f2 ba f2 a6 bc be c8 1e 21 be
       0.10065126 -0.0018525316 -0.3684612 -0.15734398
0000e0 e1 8f 14 be 34 70 d1 3e 72 43 57 be 7a a8 c7 bd
       -0.1450801 0.40905917 -0.21021822 -0.09748931
0000f0 b8 6f 33 3f bc dc 42 bd 1f e4 18 be a6 2a e7 be
       0.70092344 -0.04757379 -0.14930771 -0.45149726
000100 5c ac 29 be 11 c4 32 3e 90 ae 26 3e 03 53 42 be
       -0.16569656 0.17457606 0.16277528 -0.18976979
000110 5b 24 95 be 53 3d 1b 3e 74 8f 93 3d f7 5f 82 bc
       -0.291293 0.15160112 0.07205096 -0.0159149
000120 f3 72 ce 3e 41 a7 28 bf d1 ae 32 bd 69 e6 89 bd
       0.40322074 -0.6588021 -0.04362375 -0.067334004
000130 be 0c 48 3d ed c5 e2 bd 4d f0 25 3e 31 1c 85 be
       0.048840277 -0.110729076 0.16204949 -0.2599807
000140 93 7a 9e 3e da bd 54 3e 05 38 52 be 7c e7 24 be
       0.30952892 0.20775548 -0.20529182 -0.1610393
000150 25 b8 9e 3f 8c fc 59 3d 48 ba d8 bd d5 d0 15 bf
       1.2399946 0.053219363 -0.10582405 -0.5852178
000160 33 c5 d3 bd d2 0e 19 3f ce 50 41 3c c0 c9 8c 3d
       -0.10340347 0.5978824 0.0117990505 0.06874418
000170 b5 a4 6e 3e 0e 7c 9e be 2f 78 e4 bc a6 b2 75 be
       0.23305018 -0.3095402 -0.02788934 -0.2399393
000180 9b a9 86 be 99 f8 13 be 79 e2 02 be e6 b6 7d 3d
       -0.26301274 -0.14450301 -0.12781705 0.061942004
000190 74 f0 45 3e 64 e7 c6 3e 33 65 21 bd be 9e e8 3e
       0.19330007 0.38848412 -0.03940315 0.4543361
0001a0 dd e7 fe 3e 02 2e 49 3e ba 50 b0 3d cf ce a2 3e
       0.49786273 0.19646457 0.08609147 0.31798407
0001b0 f9 0e 33 be 7c 35 6e bc 26 dd b1 be a6 a4 87 bd
       -0.1748618 -0.014539119 -0.34739035 -0.06623201
0001c0 ed f7 02 be 81 28 dd be e8 53 d2 3f 30 7c 65 be
       -0.12789889 -0.43194965 1.6431856 -0.22410655
0001d0 c0 d7 46 3e 00 59 5b 3e a1 81 d6 3b ba 8b 28 3e
       0.1941824 0.2142067 0.0065462147 0.16459551
0001e0 4f aa c2 3d c4 c6 ba 3e e6 33 24 3e b8 88 ba be
       0.0950514 0.3647977 0.16035423 -0.36432433
0001f0 97 66 5a be 70 81 63 3e e3 48 35 3f 76 8e 35 be
       -0.21328197 0.22217345 0.7081434 -0.17730126
000200 f6 14 aa 3d dd 12 27 3f cc 04 1e 3e a7 67 5d bb
       0.08304779 0.6526316 0.15431517 -0.0033783705
000210 b3 84 64 be a6 90 e2 3c ad ac ba bd a6 61 17 3d
       -0.22316246 0.027656864 -0.091149665 0.03695836
000220 df 97 c7 be 82 d6 e1 bb 20 53 14 3e 4a 39 42 be
       -0.38983056 -0.0068920264 0.14484835 -0.18967167
000230 52 32 06 be 25 9b 06 bf c2 75 ee bd 0b 90 88 bd
       -0.13105133 -0.5258048 -0.11643554 -0.06668099
000240 9b c9 96 be 09 fb 95 bd d3 cd ac 3e 49 bb c8 be
       -0.29450688 -0.07323272 0.3375078 -0.39205387
000250 10 1a 10 3f 00 77 e2 be 6d f8 3c 3e ab 12 54 bd
       0.5628977 -0.44231415 0.18454142 -0.051775616
000260 6e 6b 11 3d 83 61 01 bf 19 27 1d bf 33 3d 90 3e
       0.035502844 -0.50539416 -0.61387783 0.2817169
000270 e7 3b c8 be 7e 9e 2e be 98 f9 da 3e 8f 62 9d 3e
       -0.39108202 -0.17052647 0.4276855 0.30739257
000280 f8 42 87 bd 11 28 81 be bf f0 0b 3f f6 a5 c8 bd
       -0.0660457 -0.2522588 0.54664224 -0.097972795
000290 72 4c 0d 3e 6e 2d cc be 3a 89 09 bd 4c d5 46 be
       0.13798693 -0.3987841 -0.033578135 -0.19417304
0002a0 db 37 fd bd fe fa d7 3d a5 f1 04 bf 16 da 74 be
       -0.12364169 0.1054592 -0.5193122 -0.23911318
0002b0 5b b5 b6 bc 79 dc a5 3c 8e fd cf 3d 76 7b 2e bd
       -0.022303274 0.020246731 0.101557836 -0.04259821
0002c0 81 01 a9 3e d8 5a 89 be 51 83 6e bd c7 76 24 3e
       0.3300896 -0.2682712 -0.0582307 0.16060935
0002d0 05 45 07 3d 2a 72 b7 bc 07 aa 81 ba 74 89 47 be
       0.033024807 -0.022393305 -0.0009892591 -0.19486028
0002e0 e1 41 cd be 45 7d d9 3e 17 d0 8a 3d be 4c e1 bd
       -0.40089324 0.42478386 0.06777971 -0.110009655
0002f0 4d c5 1f be 31 b6 a9 bd 6e fd ac 3c a9 73 1f be
       -0.15602608 -0.082867034 0.021116938 -0.15571465

actor.init_next_embed.0.add_bias._bias f4 [32, 1]
000000 6d 2a 2d be 78 26 89 bd 2f 19 4d bd c2 bb 1a 3f
       -0.16910715 -0.066967905 -0.050072845 0.60442746
000010 55 f8 44 bd 63 cd c9 bc 6c 4f 7f 3e 4a 8c b1 bd
       -0.04808839 -0.024634069 0.24932641 -0.08669336
000020 74 be 9d bc b7 81 a2 bd 3d 81 fd bd cf 9b b3 3c
       -0.019255854 -0.079348974 -0.12378166 0.021924881
000030 84 8a 42 bd 1d 3d 99 bd 3b 66 38 3f f2 4e d7 3c
       -0.04749538 -0.074823596 0.7203099 0.026282761
000040 29 27 d1 3d 2d ab 37 bd 7f de 60 3d 90 50 10 3f
       0.10212547 -0.04484098 0.05489969 0.5637293
000050 fb 34 6c be 9b 6c 4c 3d 58 d7 90 3c 7f a5 03 3e
       -0.23067085 0.04990826 0.017680809 0.128561
000060 a2 04 9d bd 64 04 26 be 0b d2 a7 bd 1d 04 2c 3e
       -0.07666899 -0.16212612 -0.081943594 0.16798444
000070 5b da 48 bd 10 2a 4a 3e 54 34 ec 3c 21 a0 99 bb
       -0.049036365 0.19742608 0.028833546 -0.0046882783

actor.init_next_embed.2.module.weight f4 [64, 32]
000000 ff c4 90 be a6 6d 70 3d e8 e7 23 3e 19 34 56 3d
       -0.28275296 0.05869832 0.16006434 0.052295778
000010 45 ff 32 3e 08 b5 b4 bd e1 ff 68 3e 10 40 8d 3e
       0.1748019 -0.088235915 0.2275386 0.27587938
000020 6b 85 f9 3d 5c 08 22 3d b8 a3 6f 3e 6d e4 09 bd
       0.121836506 0.039558753 0.23402297 -0.03366511
000030 b4 72 69 3d 30 1b 1f 3d a3 87 a0 3e 8a c0 91 bc
       0.056994155 0.038844287 0.31353483 -0.017792005
000040 0c 28 93 3e 18 ca 4e 3e 29 bd a5 bc 74 f1 f0 3d
       0.2874149 0.2019428 -0.0202318 0.117648035
000050 a4 35 80 3e bb b9 8b be e7 a1 81 3e 03 04 31 3f
       0.25040925 -0.2729014 0.25318834 0.69146746
000060 04 66 b2 3d 6f c2 22 3e 9d a3 e3 3b b5 66 26 be
       0.08710864 0.15894483 0.0069469945 -0.16250117
000070 05 f1 15 bd 68 5c 9a bd ee 2b 9a 3d 99 f2 d4 bd
       -0.036606807 -0.07537156 0.0752791 -0.10397834
000080 df 66 e0 3d a9 5b 2b 3c 2b b3 50 bd ee e2 04 be
       0.10957121 0.010458865 -0.050952118 -0.12977192
000090 24 be 4b 3e 85 1c 35 3e 39 8f da be 88 4c f3 3d
       0.19896752 0.1768666 -0.42687395 0.118798316
0000a0 fa 17 14 bd 47 e7 a7 3d 48 e1 ae be 8c b2 53 be
       -0.03615568 0.081984095 -0.3415625 -0.20673579
0000b0 4c f7 02 be d2 93 e9 bc 4a 64 50 3e fe 9c 95 3e
       -0.12789649 -0.028512869 0.20350757 0.29221338
0000c0 3f b7 27 be df 74 a9 bd 69 3a 20 3e 05 5e f4 be
       -0.16378497 -0.082742445 0.15647282 -0.4772798
0000d0 cd 88 d7 bd 9b b1 a7 be 25 76 67 be 1a ad 20 bd
       -0.105241396 -0.3275269 -0.22603662 -0.039227583
0000e0 96 48 b0 bd 95 41 9b 3d 89 bc 57 3d 28 12 6d bd
       -0.08607595 0.07580868 0.052670036 -0.057878643
0000f0 16 74 a0 3d 40 33 5e 3d 48 38 92 3c fb da 03 be
       0.07834642 0.054248095 0.017849103 -0.12876503
000100 b2 28 16 3e 75 aa d6 3e dd 6a 07 3e ef 4e 96 3e
       0.14663962 0.41926923 0.13224359 0.29357097
000110 14 1d 81 3d 69 02 84 3d e8 0b 2a 3d 88 4b 6c be
       0.06304374 0.06445772 0.04151526 -0.23075688
000120 6e f9 0e 3e e0 79 f9 bd d9 16 ac bb ce 61 d5 3c
       0.13962337 -0.12181449 -0.005251747 0.026047613
000130 e1 c2 be 3d 91 c2 99 be e3 a9 84 3d ca e4 03 3c
       0.09314514 -0.30031255 0.06477716 0.008050153
000140 50 a3 4d 3e ff 55 44 bd 3e f3 29 3d ca f5 15 3d
       0.2008183 -0.047933575 0.04149174 0.036611356
000150 67 ee 62 be 86 c5 f2 3e f8 fb 28 3e c4 7b ea bd
       -0.22161256 0.47416323 0.16502368 -0.11449388
000160 e3 a2 04 3e 35 66 94 be 6c 61 f7 3c 3c 50 bf 3d
       0.12952761 -0.28984228 0.030197822 0.09341475
000170 a8 61 85 3e 56 d0 b8 bd a6 85 90 be 2b c8 37 3e
       0.26051068 -0.09024112 -0.28226966 0.17947452
000180 77 b9 b5 3e 85 74 5d 3e 02 17 69 be c3 a2 99 3d
       0.3549306 0.2162648 -0.22762683 0.075017475
000190 09 e3 3b 3e ff e8 14 bd f6 3f 97 3d c6 ca e4 bc
       0.18348326 -0.036355015 0.073852465 -0.027928721
0001a0 23 d2 39 3c 56 f6 c7 3e 2c a8 ba bd e3 32 11 3e
       0.011341604 0.39055127 -0.091141075 0.14179568
0001b0 ca 6c b9 3d de de 2c 3e b6 de 48 be ff f6 a8 3d
       0.09053953 0.16881892 -0.19616207 0.08250236
0001c0 5b 6f af 3e 41 84 3b 3a 30 2e d6 bd e1 59 38 3e
       0.34264645 0.0007153191 -0.10458028 0.18003036
0001d0 81 0c c9 3d 1d fc 2e 3e 24 7d f9 bd 04 55 f1 be
       0.09816838 0.17088361 -0.12182072 -0.47135174
0001e0 4c b5 c5 bd f9 88 32 be 1f a5 91 be 07 d8 8d 3d
       -0.0965372 -0.17435063 -0.2844629 0.069259696
0001f0 c0 45 f3 3d c5 34 01 bd 49 bc 87 3e d0 72 06 3d
       0.11878538 -0.031544466 0.26510838 0.032824337
000200 cc bb 13 3f 15 1d 2c 3c 17 f6 35 be 74 ed 3b bd
       0.5770843 0.010504981 -0.17769657 -0.04588075
000210 81 64 5e 3e 45 b8 f4 3d 37 7c 09 bd a1 3b 26 3e
       0.21718027 0.11949209 -0.033565726 0.16233684
000220 6c 7e 34 3e 59 6b b9 bd 3e 53 67 be 5b 59 88 bd
       0.17626351 -0.09053678 -0.22590348 -0.06657668
000230 ec 54 65 bd 10 1c 85 be c5 6f c0 be 09 57 a9 be
       -0.05598919 -0.25997972 -0.37585273 -0.33074215
000240 67 81 7e 3e 4f 61 0d 3d 5a 35 24 3d 9f 51 99 be
       0.2485405 0.03451663 0.040089943 -0.29945084
000250 1a 57 22 3e 5c 08 5f 3e fb 34 8d bc 8a d7 de be
       0.15853539 0.21780533 -0.017237177 -0.43523818
000260 53 50 37 3e 1a 56 bd 3d 0a 6a 32 3e 08 af 9b be
       0.17901735 0.09244938 0.17423263 -0.30406976
000270 f2 8a 7f 3d 34 1a b0 bc f2 87 84 bd 9e 9c f2 bd
       0.062388368 -0.02149687 -0.06471242 -0.118462786
000280 b8 74 3f be eb 58 c2 be 8a 63 ed bd ed f9 4d 3e
       -0.18696868 -0.37958464 -0.11591251 0.2011487
000290 53 f3 86 3c f9 fb 5f 3e 48 cf 59 bb 2c 28 17 3e
       0.016473448 0.21873464 -0.0033235122 0.14761418
0002a0 71 34 b8 3d 2b d6 04 3e 02 24 84 bd 1c bc ac 3c
       0.089943774 0.12972324 -0.064521804 0.021085791
0002b0 bb a3 60 bd 34 60 60 3d 93 62 b3 bc bb 9a 02 3e
       -0.054843646 0.054779246 -0.02189759 0.12754337
0002c0 a1 d0 ce 3c b9 ec 64 3e bf 55 2b 3e de 7e 1c 3f
       0.025245966 0.22355928 0.16731928 0.61131084
0002d0 f2 52 26 be a1 68 c6 3d 10 37 92 3d 2e d7 6d be
       -0.16242579 0.09687925 0.071394086 -0.23226616
0002e0 a8 6e 5a be 1a b1 96 be 8c 68 00 be 30 44 aa 3c
       -0.21331275 -0.29431993 -0.12539881 0.020784467
0002f0 e3 77 f7 3d c6 e5 f4 bd 30 25 fd 3c 47 97 2c be
       0.120834135 -0.11957888 0.030901521 -0.16854583
000300 0e 8e e8 3e 89 b0 6c be 40 63 d8 bd 8c 2f 07 bf
       0.4542088 -0.23114218 -0.105658054 -0.52806926
000310 26 69 e7 bc d2 4e 5e 3c 10 8d 7c be aa 3b 73 bc
       -0.02824838 0.013568597 -0.24663186 -0.014845768
000320 90 a9 ed 3e e2 ad 68 3d 08 4a a5 bd 6a 0a 63 be
       0.46418428 0.056806453 -0.08070761 -0.22171941
000330 57 5f 9b be d1 0a df 3d 9f db 20 bf 2d 6a 8e be
       -0.30346176 0.10890735 -0.62835115 -0.2781538
000340 8d a4 39 be 7d e8 d4 3e ce 31 b3 be f2 18 0b bf
       -0.18129177 0.41583624 -0.34998935 -0.5433494
000350 58 8d 84 be db ee 99 3e b5 dd 84 3d 0f da f4 be
       -0.25889087 0.30065045 0.064876 -0.47822616
000360 39 1a 02 bd 67 e6 8d be b5 b4 3e 3d 64 46 1b be
       -0.03176329 -0.27714846 0.046559054 -0.1516357
000370 30 31 15 bd 8b 68 d6 3d 15 06 bb bd 5c 45 16 3e
       -0.036423862 0.10469159 -0.091320194 0.14674896
000380 a0 2c 1a 3e 2b 70 9e 3d 49 c8 ac bd 99 96 06 3e
       0.15056086 0.07736238 -0.08436639 0.13143386
000390 dc ba dd 3d 58 be ac be 5d 33 91 be f1 f0 16 3e
       0.10826656 -0.3373897 -0.283595 0.1474035
0003a0 bd 93 44 bd b0 2e d9 3d ac 20 ae 3d c0 ba 94 3d
       -0.047992457 0.10604608 0.085023254 0.07262182
0003b0 02 9e b8 3e 78 fe e9 bc 3f 77 cf 3e d3 c3 1d be
       0.3605805 -0.028563723 0.40520665 -0.15406732
0003c0 49 b8 8d bd 6e a8 b1 bd b0 01 71 3d 7d a1 b0 bd
       -0.06919915 -0.086747035 0.0588395 -0.086245514
0003d0 61 a5 f6 be e5 34 df bd 39 5b 2e 3e 1b c8 97 3e
       -0.4817305 -0.10898761 0.17026986 0.29644856
0003e0 b5 25 6c 3e 88 a4 3d 3e 06 2b 92 be b5 20 c0 bd
       0.23061259 0.18519795 -0.2854845 -0.09381238
0003f0 89 a6 5e be bb c8 9d bd de bd 91 3e ef 41 4d 3d
       -0.21743216 -0.07704302 0.2846517 0.050111707

actor.init_next_embed.2.add_bias._bias f4 [64, 1]
000000 f4 f9 a9 3d 9d a9 f4 be 84 6e c2 3e bc e2 a8 3e
       0.08299628 -0.47785655 0.37974942 0.32985485
000010 87 ff 84 be df 38 ba 3e f5 e2 22 bf 6b 89 b5 3e
       -0.25976202 0.36371514 -0.6362756 0.35456404
000020 9e 05 ae be e2 e0 18 bd 7d b7 a2 be 3d 19 34 be
       -0.3398866 -0.03732384 -0.31780615 -0.17587753
000030 a1 e4 ac 3e 95 83 37 be 1e 5f fb be 43 37 81 3e
       0.3376818 -0.17921288 -0.49096006 0.25237474
000040 43 bd ed 3e ed 93 1f 3f d6 f5 68 bf 6f 69 b9 be
       0.46433458 0.6233509 -0.91000116 -0.36213252
000050 fd da 9d be fe 30 65 3e ba 31 8a bb 33 7d 6f 3e
       -0.30831137 0.2238197 -0.0042173536 0.23387603
000060 9c a0 d8 bc 26 fa 35 bf 71 e3 d3 be af fd 08 3e
       -0.026443772 -0.7108482 -0.41384462 0.13378023
000070 f3 2d f3 bd 23 98 48 be b2 d3 45 be d2 05 01 3f
       -0.118739985 -0.19589286 -0.19319037 0.50399506
000080 96 6f 1b 3f 45 eb c2 bd c9 8e 48 3f 8f be c6 3e
       0.6071714 -0.0951753 0.7834287 0.3881726
000090 a2 0c 67 bc e0 f4 ab 3e 86 02 03 bf 2c 7e 52 3f
       -0.014102133 0.33585262 -0.51175725 0.82223773
0000a0 b2 3a 33 bf cd 3d 58 bf c6 1a ff be d3 0e 9b 3e
       -0.70011437 -0.844693 -0.49825114 0.30284747
0000b0 0c 8d 97 be 79 31 71 bf 1f b6 0b bf b4 d8 16 3f
       -0.29599798 -0.94216114 -0.5457477 0.5892441
0000c0 e8 7f ac 3d d3 63 09 bf c9 77 69 bf 1c ab 66 bf
       0.08422834 -0.53667945 -0.911984 -0.9010484
0000d0 dc 27 a8 3e 67 5c 64 3e 5f b9 f3 bd f5 60 2f 3d
       0.3284291 0.22300874 -0.11900591 0.042817075
0000e0 57 cf 25 bf 4a 96 ba be b3 a1 0b be e4 12 8b 3e
       -0.647695 -0.36442786 -0.13635902 0.2716285
0000f0 f1 27 c7 3e 33 0d 9d be cd 3f e6 3e 87 f6 74 3f
       0.3889766 -0.30674133 0.4497055 0.9568867
