pretrained_models/experiment/Discrete_A2C_10x10x10Bin_s42_inh_800_defaultBox-2022.08.18-05-11-48/PCT-Discrete_A2C_10x10x10Bin_s42_inh_800_defaultBox-2022.08.18-05-11-48_2022.08.18-09-02-31.pt (torch, 236314 bytes, 24 tensors)

actor.init_internal_node_embed.0.module.weight f4 [32, 6]
0	0xbc64882d	-0.013948482
1	0x3e816595	0.25272813
2	0x3c2dbc55	0.010603984
3	0xbea543f7	-0.32278416
4	0x3e0cc867	0.13748322
5	0xbdf363a5	-0.1188424
6	0x3ecb2237	0.3967454
7	0x3eb29f3c	0.3488711
8	0xbe8cfcbd	-0.27536574
9	0xbe97e050	-0.29663324
10	0xbe77bcbb	-0.24193089
11	0xbdd3d06d	-0.103424884
12	0x3e0a41a0	0.13501596
13	0x3d8de9ff	0.06929397
14	0xbe2e4545	-0.17018612
15	0x3e3d5f67	0.18493424
16	0xbe98dd5f	-0.29856393
17	0xbdd64a89	-0.10463435
18	0xbe0673df	-0.13130139
19	0x3c2777b8	0.010221414
20	0xbeec274c	-0.4612373
21	0x3e9e0472	0.30862767
22	0x3e6cd643	0.2312861
23	0x3f072b84	0.52800775
24	0x3f094115	0.5361493
25	0x3d1ffdb6	0.039060317
26	0x3f04a7c7	0.5181851
27	0x3ebfca38	0.37458968
28	0x3dde1f92	0.10845865
29	0x3d0c6ad4	0.034281567
30	0x3d6d6875	0.057960946
31	0x3d204c70	0.039135396
32	0xbe4390c7	-0.19098197
33	0x3de50b5d	0.11183808
34	0xbefe4afd	-0.49666587
35	0xbec94a9a	-0.3931473
36	0xbf5a2ab8	-0.85221434
37	0x3f3eac27	0.74481434
38	0x3ed41ce7	0.414283
39	0x3f5bfa50	0.8592882
40	0xbf54bc58	-0.8309989
41	0xbde69916	-0.112596676
42	0x3e92c3c8	0.28664994
43	0xbe712c40	-0.23552036
44	0x3f7fa32b	0.9985835
45	0xbe243cef	-0.1603887
46	0xbe83bbd0	-0.25729227
47	0xbe9bbdc4	-0.30418217
48	0xbf39ecd5	-0.72627
49	0xbecaa94a	-0.39582282
50	0xbef1bd54	-0.47214758
51	0x3efeb090	0.49744081
52	0x3f0754c5	0.52863723
53	0x3dcd7a0f	0.100330465
54	0x3f3cb1cb	0.7370879
55	0x3dbf5d15	0.09343926
56	0xbefe0a0b	-0.49617037
57	0x3f09b046	0.53784597
58	0x3e863997	0.26215813
59	0xbd085057	-0.033279743
60	0x3cf18e88	0.02948691
61	0x3ec4dc34	0.38449252
62	0xbe9115ce	-0.28336948
63	0x3cb10185	0.02160717
64	0x3e3d22c9	0.184703
65	0xbec29667	-0.38005373
66	0xbe755f58	-0.23962152
67	0x3e070bdf	0.13188122
68	0xbde4a653	-0.11164536
69	0xbe7385cc	-0.23781508
70	0xbd832806	-0.06404118
71	0xbe81042d	-0.25198498
72	0x3e8e3c3c	0.2778033
73	0xbed7f8f4	-0.42182124
74	0xbd21be47	-0.039488103
75	0x3e98ba9a	0.29829866
76	0xbd069627	-0.03285804
77	0xbe1b9587	-0.15193759
78	0x3f3032f7	0.68827766
79	0x3ecda9fe	0.40168756
80	0xbe3d21de	-0.1846995
81	0xbee07860	-0.4384184
82	0x3e482758	0.19546258
83	0xbc90bbd6	-0.017667692
84	0xbe4e9fe5	-0.20178182
85	0xbd8149da	-0.06312914
86	0xbeb94477	-0.36185047
87	0x3e1d6593	0.15370779
88	0x3ed2aa01	0.41145328
89	0xbefd1cf3	-0.4943615
90	0xbdbf6a4a	-0.09346445
91	0xbec6ae64	-0.38804924
92	0xbdeec832	-0.11659278
93	0x3e0faf5f	0.14031743
94	0x3eb84aeb	0.35994658
95	0xbeefaad4	-0.4681002
96	0x3e986c7d	0.2977027
97	0xbe5630ea	-0.20917097
98	0x3f881aa6	1.0633132
99	0xbf327b48	-0.6971936
100	0x3ea7d43a	0.32779104
101	0xbe1d108b	-0.15338342
102	0xbd8e4985	-0.069476165
103	0x3e3baa7a	0.1832675
104	0xbabe4215	-0.0014515544
105	0x3e237314	0.15961868
106	0xbf05bf61	-0.52245146
107	0xbe861653	-0.26188907
108	0xbcdfdc67	-0.027326776
109	0xbce4d9a2	-0.027935807
110	0xbf309fbe	-0.6899375
111	0xbc1637cb	-0.0091685755
112	0x3b98046b	0.0046391985
113	0x3e334e28	0.17510283
114	0x3eb87758	0.36028552
115	0xbed26b2a	-0.41097385
116	0x3cb7c424	0.022432394
117	0xbee7d1a9	-0.45277146
118	0x3e383dbc	0.179923
119	0x3ebb047f	0.36526868
120	0x3eb0b7d9	0.34515265
121	0x3f4821da	0.78176653
122	0x3dac6f18	0.08419627
123	0x3ef30f52	0.47472626
124	0x3e0cbccc	0.13743895
125	0xbf2577dd	-0.6463602
126	0xbe4f4e55	-0.20244725
127	0xbd95a7f1	-0.07307423
128	0xbe356eae	-0.17718002
129	0x3d8a4c10	0.06752789
130	0xbda9538b	-0.08267888
131	0xbed51eec	-0.41625154
132	0xbf0f4d98	-0.55977774
133	0xbf059a0c	-0.5218818
134	0xbe44a0b0	-0.19201922
135	0x3f0b1c97	0.543405
136	0x3e7bfd70	0.24608397
137	0x3e27fd98	0.16405332
138	0x3ce91eca	0.028457064
139	0x3d7f1d25	0.062283654
140	0xbf81bd7b	-1.013595
141	0xbe21f2b4	-0.1581524
142	0xbeaf934e	-0.34292072
143	0x3f393369	0.7234407
144	0xbe4a0708	-0.19729245
145	0xbe38ee1e	-0.18059584
146	0x3f1ca673	0.6119148
147	0x3e025016	0.12725863
148	0x3b9f4cd0	0.0048614517
149	0x3d9cc0fc	0.07653996
150	0x3df30626	0.11866407
151	0x3df65a90	0.12028992
152	0x3e9ce86e	0.3064608
153	0xbec1b563	-0.378337
154	0xbebb2bc7	-0.36556837
155	0x3f013cae	0.50483215
156	0xbe0595ab	-0.13045375
157	0x3eb6966a	0.35661632
158	0xbd4b0a36	-0.049570285
159	0x3e573063	0.21014552
160	0x3e4c184f	0.19931148
161	0xbed12588	-0.40848947
162	0xbdad89c5	-0.08473543
163	0x3e18b440	0.1491251
164	0x3f3a0210	0.726594
165	0xbea89f92	-0.32934242
166	0x3dbef7fe	0.093246445
167	0x3e2e757e	0.17037007
168	0xbe8dcbb4	-0.27694476
169	0xbf1d6667	-0.6148438
170	0x3a93daef	0.0011280457
171	0x3d955fa3	0.07293632
172	0x3c721eca	0.0147778485
173	0xbe45975c	-0.1929602
174	0xbea86c7e	-0.32895273
175	0x3dd96fb2	0.10617007
176	0x3e61cca2	0.22050717
177	0xbe2cd61c	-0.16878551
178	0x3e1dfb02	0.15427783
179	0xbd6d355e	-0.057912223
180	0x3e20deee	0.15710041
181	0x3e35c30a	0.17750183
182	0xbb9cc8ef	-0.0047846953
183	0x3ca90b6d	0.020635331
184	0xbe01e7e9	-0.12686123
185	0xbea0b64f	-0.3138909
186	0x3ef44d59	0.47715262
187	0x3e6f6734	0.23379213
188	0xbf2278c9	-0.63465554
189	0xbeadf31b	-0.33974537
190	0xbe3eb3f1	-0.1862333
191	0x3e88ce86	0.26720065

actor.init_internal_node_embed.0.add_bias._bias f4 [32, 1]
0	0xbb54b01b	-0.00324536
1	0x3b749699	0.0037321209
2	0xbbfff8ed	-0.0078116567
3	0x3d344725	0.04401316
4	0x3dc1d27a	0.09463973
5	0x3b016dfa	0.001974939
6	0xbc922c10	-0.017843276
7	0xbb09bf10	-0.0021018423
8	0x3c35592e	0.011068625
9	0x3de1cfc8	0.11025959
10	0x3d196f53	0.037459683
11	0x3c92b10c	0.017906688
12	0x3c9e5c05	0.019330988
13	0x3c6cebc3	0.014460507
14	0xbc29b194	-0.010357279
15	0xbc504660	-0.012712091
16	0x3b2cc717	0.0026363784
17	0x3b24d903	0.0025153763
18	0xbba516b4	-0.005038107
19	0x3c93499f	0.017979441
20	0x3cc28492	0.023744855
21	0xbd0f9e9e	-0.03506338
22	0x3c44ebb6	0.0120190885
23	0x3c222355	0.009896119
24	0x3d6ae6e7	0.057349112
25	0x3b8a55f8	0.004221674
26	0xbb31b02b	-0.002711306
27	0xbb9b7928	-0.0047446676
28	0xbd316955	-0.043313343
29	0xbbde436a	-0.0067829387
30	0xbc79da6a	-0.015249828
31	0xbb7b5e88	-0.0038355906

actor.init_internal_node_embed.2.module.weight f4 [64, 32]
0	0xbe8f5477	-0.2799413
1	0x3e09c940	0.13455677
2	0xbd1c30b8	-0.0381324
3	0x3e44fc46	0.1923686
4	0x3f8760f3	1.0576462
5	0x3d553b2f	0.052058395
6	0x3e075e87	0.13219653
7	0x3db46beb	0.08809646
8	0xbed9d9b3	-0.42548904
9	0xbe573328	-0.21015608
10	0xbed36872	-0.41290623
11	0x3e1713d6	0.1475366
12	0xbe6f27ad	-0.23354979
13	0xbe2d988e	-0.16952726
14	0x3d94df51	0.07269157
15	0xbe425fee	-0.18981907
16	0x3e8d3341	0.27578166
17	0xbd0ae779	-0.033912156
18	0xbdbb8343	-0.091558956
19	0x3e327aa1	0.17429592
20	0xbca0c0fa	-0.019623268
21	0xbe11ed9a	-0.14250794
22	0xbeab989f	-0.33514878
23	0xbf0a523a	-0.5403172
24	0xbde2f9be	-0.11082791
25	0x3ebb60df	0.36597344
26	0xbd277fa1	-0.0408932
27	0x3f111f80	0.5668869
28	0xbd905041	-0.07046557
29	0xbe6ca7d4	-0.23110896
30	0xbe812c20	-0.25228977
31	0xbd44c536	-0.048039638
32	0xbd57545b	-0.052570682
33	0xbeebbd9d	-0.460431
34	0xbe4f7d88	-0.2026273
35	0xbd856a00	-0.065143585
36	0xbdfd714b	-0.123751245
37	0x3e59a859	0.21255626
38	0xbd3965c2	-0.04526306
39	0x3ef7aaa5	0.4837238
40	0xbd892b67	-0.066977315
41	0xbe1ce35a	-0.15321103
42	0x3e55bd68	0.20873034
43	0xbe804873	-0.25055274
44	0xbe47dd6d	-0.19518061
45	0xbd5bbe88	-0.0536485
46	0x3dd8bfb8	0.105834424
47	0x3e8aaa49	0.27083042
48	0xbdef7ded	-0.1169394
49	0xbdbd8b3d	-0.09255073
50	0xbdbde015	-0.09271256
51	0xbe46acb5	-0.1940182
52	0x3e6fd1c7	0.23419867
53	0x3ceca241	0.028885962
54	0x3eee446e	0.46536583
55	0xbe25f6d3	-0.16207437
56	0x3e492a62	0.19645074
57	0xbdba68ce	-0.09102021
58	0xbcc8af72	-0.024497721
59	0x3e297588	0.16548741
60	0xbe8a4442	-0.27005202
61	0x3e2aff19	0.16698875
62	0x3f15d41d	0.58526784
63	0x3c8c6349	0.017137187
64	0x3ecf4cd3	0.404883
65	0xbe1bf232	-0.15229109
66	0xbd8929f9	-0.06697459
67	0x3f0851a8	0.532496
68	0x3e36d683	0.17855267
69	0x3e8216f4	0.25408137
70	0xbeaf4bb5	-0.34237447
71	0xbe64cbfb	-0.22343437
72	0x3f02e0c4	0.51124215
73	0x3dc34a38	0.095356405
74	0xbec11986	-0.37714785
75	0xbe83fa0e	-0.25776714
76	0x3edf05c8	0.43559098
77	0xbea87f2a	-0.32909518
78	0xbd603922	-0.054741986
79	0xbd37d28c	-0.044878528
80	0x3e8cebb3	0.27523574
81	0x3ddc3c84	0.1075373
82	0xbe2f6403	-0.17127995
83	0x3c094e9d	0.008380559
84	0xbeda3d9f	-0.42625138
85	0x3cdf6a73	0.027272439
86	0x3efae9d3	0.4900652
87	0xbe73df60	-0.2381568
88	0xbdfcba76	-0.12340252
89	0xbdcc7841	-0.09983874
90	0xbf06e413	-0.52691764
91	0x3e91c027	0.28466913
92	0xbd5779c4	-0.05260636
93	0x3cfc2400	0.030778885
94	0x3e6dc9f0	0.23221564
95	0xbd8ed7fe	-0.06974791
96	0x3c8a8d69	0.016913133
97	0x3ed1929a	0.4093216
98	0xbdaeab12	-0.08528723
99	0x3ea30ec1	0.31847194
100	0x3e013454	0.12617618
101	0xbe1683f5	-0.14698775
102	0xbe84f3a6	-0.2596714
103	0x3dfcc4c8	0.123422205
104	0x3eb2786f	0.3485751
105	0x3d21b718	0.039481252
106	0x3e880236	0.26564187
107	0x3eaa944b	0.33316264
108	0xbe969cfe	-0.2941665
109	0x3cf67976	0.030087214
110	0x3daa3195	0.08310238
111	0xbdb355c4	-0.08756593
112	0xbd3fc5ad	-0.046819378
113	0xbe559538	-0.20857704
114	0x3d8e489e	0.069474444
115	0xbddbdf47	-0.10735946
116	0x3e4e2465	0.20131071
117	0x3ced7511	0.028986486
118	0x3ec4acb9	0.38413027
119	0x3d246522	0.04013551
120	0xbec65156	-0.3873393
121	0x3de3388d	0.110947706
122	0x3ec0c8a1	0.37653068
123	0x3d6c98f0	0.05776304
124	0x3e1523da	0.14564458
125	0x3e9a665e	0.30156225
126	0x3e67484c	0.22586173
127	0x3d636b89	0.055522475
128	0xbe82149a	-0.25406343
129	0x3d0f3f3d	0.034972418
130	0x3e4af569	0.19820179
131	0xbe778385	-0.24171264
132	0xbec43454	-0.38321173
133	0x3c86f266	0.016473006
134	0xbe368aeb	-0.1782643
135	0x3dab66a3	0.08369186
136	0xbcc30996	-0.023808282
137	0x3ef4b275	0.47792402
138	0x3ef8f7e6	0.48626631
139	0xbd1c2e24	-0.03812994
140	0x3d8dd7f3	0.06925955
141	0x3db57848	0.088608325
142	0xbd2d356e	-0.042287283
143	0xbd24164c	-0.040060326
144	0x3dce4bf1	0.100730784
145	0x3df0baa0	0.11754346
146	0xbe06d2fc	-0.13166422
147	0xbe8f8bb2	-0.28036267
148	0x3e8800f2	0.2656322
149	0x3d7bb97e	0.061456196
150	0x3da11e54	0.07867113
151	0xbe8a7254	-0.2704035
152	0xbd18b9d6	-0.037286602
153	0x3de178aa	0.11009343
154	0x3ece0e3c	0.40245235
155	0xbe953736	-0.29143685
156	0x3e99e8d7	0.30060455
157	0x3d998da0	0.07497716
158	0xbe1e930a	-0.15485778
159	0xbe6bc335	-0.23023684
160	0x3d1242f0	0.035708368
161	0x3d809515	0.06278435
162	0xbe4d8d90	-0.20073533
163	0x3ea82652	0.32841736
164	0x3d9dab63	0.07698705
165	0xbccc75d1	-0.024958523
166	0x3e15bcae	0.14622757
167	0xbea9970b	-0.3312305
168	0x3e925318	0.2857902
169	0x3e5dda8c	0.216654
170	0x3f1f6fda	0.62280047
171	0x3af5763b	0.0018727252
172	0x3ec91d04	0.3927995
173	0xbd8f15c4	-0.06986573
174	0x3e9f6ddf	0.31138512
175	0xbd20443b	-0.03912757
176	0xbd8cedbc	-0.06881282
177	0xbd46888b	-0.04847006
178	0x3e7c5736	0.24642643
179	0xbe163b09	-0.14670958
180	0x3e8662bb	0.262472
181	0xbdbbc8de	-0.09169172
182	0x3dec8afe	0.11549948
183	0xba89e031	-0.0010519085
184	0xba31e8c9	-0.0006786702
185	0xbcdecce9	-0.027197318
186	0xbcb950ba	-0.022621501
187	0xbeb1f28f	-0.3475537
188	0xbca1ce38	-0.019751653
189	0x3e314ad7	0.17313705
190	0x3dd31f7d	0.1030874
191	0x3dc55f0b	0.09637269
192	0xbe0e3deb	-0.13890807
193	0xbebc5075	-0.36780134
194	0xbe2ad3ee	-0.16682407
195	0x3e05565b	0.13021223
196	0xbcac963e	-0.021067735
197	0x3d2950f4	0.04133697
198	0xbd3c6905	-0.045998592
199	0xbe786bb4	-0.24259835
200	0x3cdc0376	0.026857119
201	0x3f23e5c0	0.64022446
202	0xbea98446	-0.3310873
203	0x3e73d473	0.23811512
204	0x3e932551	0.28739408
205	0x3e189418	0.14900243
206	0xbe3c2d5d	-0.1837668
207	0xbcefe3fd	-0.029283518
208	0xbda523e0	-0.08063483
209	0xbe81de17	-0.25364754
210	0x3e5e7e09	0.21727766
211	0x3e95df8e	0.2927212
212	0xbe0b775e	-0.13619754
213	0x3dc8de82	0.09808065
214	0xbeb34e98	-0.350209
215	0x3f048f4c	0.51781154
216	0xbf1d7dce	-0.6152009
217	0xbe91b593	-0.28458843
218	0x3e0f0645	0.13967235
219	0x3c241c00	0.010016441
220	0x3ce6e3c9	0.028184788
221	0x3f0432e3	0.51640147
222	0xbedf396f	-0.43598506
223	0xbe9d8f36	-0.30773324
224	0x3ed1f4e6	0.41007155
225	0x3ec967de	0.39337057
226	0x3e8fc2b1	0.28078225
227	0xbcbf2f65	-0.02333803
228	0x3d249fe9	0.040191565
229	0x3daf08eb	0.08546623
230	0x3ef527cf	0.47881934
231	0x3e754fec	0.23956269
232	0xbf105289	-0.5637594
233	0xbf3b94ed	-0.7327412
234	0xbebda1f8	-0.37037635
235	0xbdf71712	-0.12064947
236	0x3edc9553	0.43082675
237	0xbeadb575	-0.33927503
238	0xbe095437	-0.13411032
239	0x3d718de4	0.058973208
240	0x3d8b0b9a	0.06789322
241	0xbaecd204	-0.0018067961
242	0x3db11e7c	0.086483926
243	0x3dad5040	0.08462572
244	0xbf62d036	-0.88598955
245	0xbd43b68d	-0.047781516
246	0x3ed3ea6e	0.41389793
247	0x3ec8e047	0.3923361
248	0x3f272c2b	0.6530177
249	0x3d6cebaa	0.057841934
250	0xbedd304e	-0.43200916
251	0x3e3c5a55	0.18393834
252	0x3d941a08	0.072315276
253	0x3e1ae1c9	0.15125193
254	0xbea4b15c	-0.32166564
255	0xbe5fb1e1	-0.21845199

actor.init_internal_node_embed.2.add_bias._bias f4 [64, 1]
0	0xbc11ff43	-0.008910957
1	0xbccff162	-0.025383655
2	0x3d86e7fa	0.06587215
3	0x3cc84dfe	0.024451252
4	0x3bc2ce30	0.0059449896
5	0x3d414202	0.04718209
6	0xbc24c2ee	-0.0100562405
7	0x3cd27a91	0.02569321
8	0xbcf8909f	-0.030342398
9	0xbd409d87	-0.04702523
10	0xbc0c7a9e	-0.008574156
11	0xbcf9e0b0	-0.030502647
12	0xbcc202f0	-0.023683041
13	0xbd474ab2	-0.04865522
14	0xbd4d26a3	-0.050085675
15	0xbb8eb10b	-0.0043546013
16	0x3d95b3b8	0.07309669
17	0xbc3c1d7a	-0.011481637
18	0xbc7cb35a	-0.01542362
19	0xbd2a5295	-0.041582663
20	0xbc7f1eb9	-0.01557129
21	0x3caffd0a	0.021482963
22	0x3d0c84de	0.0343064
23	0x3dcde1ca	0.100528315
24	0xb963703e	-0.0002169022
25	0xbd587928	-0.05284992
26	0x3bf51e63	0.007480429
27	0x3d6420b8	0.055695266
28	0x3d28e7a8	0.04123655
29	0xbd3f6634	-0.046728328
30	0x3dc870c6	0.09787135
31	0x3b51d314	0.0032016682
32	0xbce9acbf	-0.028524755
33	0xbd663a26	-0.0562078
34	0xbd5a25a4	-0.053258553
35	0xbc1899eb	-0.009314041
36	0x3c242192	0.010017769
37	0xbcfeda52	-0.031109963
38	0x3d81213c	0.06305167
39	0x3d26309a	0.040573694
40	0xbd8ac5f7	-0.0677604
41	0x3d023e9b	0.031797986
42	0x3d934cc3	0.071923755
43	0x3d21229a	0.03933964
44	0x3ce9b127	0.028526856
45	0xbd2318ca	-0.039818563
46	0x3d289b00	0.041163445
47	0x3de26f6a	0.11056407
48	0xbbdb38bb	-0.0066901124
49	0x3bdf2dae	0.0068108654
50	0x3d38dcf9	0.04513261
51	0x3d18c6b7	0.037298884
52	0xbd1c32e1	-0.03813446
53	0xbd4658bd	-0.04842447
54	0xbd4ccd0f	-0.050000247
55	0x3da0b7d5	0.07847563
56	0x3d1a8680	0.037725925
57	0xbd0475d2	-0.032338925
58	0x3cd2f192	0.025749955
59	0xbcc51d16	-0.02406172
60	0xbcafcb57	-0.021459265
61	0xbbd0a313	-0.006367096
62	0xbc7c6b36	-0.01540642
63	0x3c5391fc	0.012913223

actor.init_leaf_node_embed.0.module.weight f4 [32, 8]
0	0xbe562f78	-0.20916545
1	0xbeb0f6b3	-0.34563217
2	0x3e55b6a2	0.2087045
3	0x3e4e33ac	0.20136899
4	0x3d01cc95	0.031689245
5	0x3f01bf9e	0.5068301
6	0xbeaa8fd6	-0.33312863
7	0xbe9ec33f	-0.31008336
8	0xbee3ad55	-0.4446818
9	0xbdf2fec4	-0.11864999
10	0x3ecbb4a7	0.39786264
11	0xbd4135f6	-0.0471706
12	0x3e532ef8	0.20623386
13	0xbe5bf94c	-0.21481818
14	0x3e7a8d96	0.24468073
15	0xbd580493	-0.052738737
16	0xbc85880a	-0.01630022
17	0x3dd9fda7	0.106440835
18	0xbe8572b7	-0.26064083
19	0xbce97b8b	-0.028501293
20	0xbe74c2aa	-0.23902383
21	0xbe69979f	-0.22811745
22	0x3da20166	0.07910423
23	0xbdc565b7	-0.09638541
24	0xbeca28cc	-0.3948425
25	0x3c9303bb	0.017946115
26	0x3e5ab873	0.21359424
27	0xbcef9ab4	-0.029248573
28	0x3eb47e78	0.35252738
29	0x3cb8ca71	0.02255747
30	0xbe807c13	-0.2509466
31	0x3c49a0db	0.012306417
32	0x3c921820	0.01783377
33	0xbf0e822d	-0.5566738
34	0x3eb8f72c	0.36126077
35	0xbdb5b5d8	-0.088725746
36	0xbdc067b9	-0.093947835
37	0x3c9d6b36	0.019216161
38	0xbe2a2d86	-0.16618928
39	0x3e11bb19	0.14231528
40	0xbeb77fc0	-0.35839653
41	0xbc7cc8a2	-0.015428694
42	0xbe7cf641	-0.24703313
43	0x3e3a9699	0.18221511
44	0xbe25de50	-0.16198087
45	0x3dfc7eb1	0.12328852
46	0xbe2bc03e	-0.16772553
47	0x3c305a66	0.01076374
48	0xbe88f224	-0.2674724
49	0x3e502e13	0.20330076
50	0xbdc1a1be	-0.09454678
51	0x3dda17f8	0.10649103
52	0xbdaa7c29	-0.08324463
53	0xbdc33594	-0.095317036
54	0x3d39b39e	0.045337312
55	0x3e272892	0.1632407
56	0x3e524464	0.20533901
57	0x3e41fc2a	0.18943849
58	0x3ed42290	0.4143262
59	0xbe05495e	-0.13016269
60	0xbe2abe13	-0.1667407
61	0xbce7e7d4	-0.028308786
62	0xbf28dfc2	-0.6596643
63	0xbda8287b	-0.08210846
64	0xbd08ef2d	-0.03343122
65	0x3da4cc07	0.08046728
66	0x3e5bfe64	0.21483761
67	0x3d0979d1	0.03356344
68	0x3d87a94b	0.06624087
69	0x3e9c5c93	0.3053938
70	0x3d572fa0	0.052535653
71	0x3d325c6a	0.043545164
72	0xbefc0c6d	-0.4922823
73	0xbdfe59d4	-0.12419477
74	0x3d8ac6b8	0.06776184
75	0x3dafc75e	0.08582948
76	0x3eb24a05	0.34822097
77	0xbe557b63	-0.2084785
78	0xbad75de5	-0.0016431181
79	0xbf045fb9	-0.5170856
80	0xbeced052	-0.4039331
81	0x3d50b9dc	0.0509585
82	0xbead68d5	-0.33869043
83	0xbe1697d2	-0.14706352
84	0x3ef378ba	0.47553045
85	0x3e8b85e7	0.27250597
86	0xbe6b215b	-0.22961943
87	0xb9ff5db4	-0.00048707204
88	0x3e053fdb	0.1301264
89	0xbdadb412	-0.08481611
90	0x3e95acd3	0.29233417
91	0xbe80e26f	-0.25172755
92	0xbda81744	-0.082075626
93	0xbe99eb16	-0.3006217
94	0x3ed63eeb	0.41844878
95	0x3c589429	0.013218918
96	0xbe6b7edd	-0.22997613
97	0xbe3e6c88	-0.18596089
98	0x3ec0fcca	0.37692863
99	0x3ee30789	0.44341686
100	0x3e855834	0.26043856
101	0x3db9bf85	0.090697326
102	0x3eaddf4a	0.3395942
103	0x3ede361e	0.43400663
104	0x3e0533ad	0.13007994
105	0x3eb00295	0.3437697
106	0x3e8429de	0.25813192
107	0xbd76bc52	-0.06023819
108	0xbf0846e2	-0.5323316
109	0xbb0619f2	-0.0020462242
110	0xbd4a4e3f	-0.049391028
111	0xbe6574eb	-0.22407882
112	0x3ee83b6c	0.45357835
113	0x3ed3f1be	0.41395372
114	0x3dcb5104	0.09927562
115	0x3ecb14b0	0.3966422
116	0x3d95212b	0.07281717
117	0x3d4157ec	0.04720299
118	0x3e0a5020	0.13507128
119	0x3e1de216	0.15418276
120	0x3d521e17	0.051298227
121	0xbdd40bde	-0.10353826
122	0xbd9bb099	-0.07602043
123	0x3e497f9e	0.19677588
124	0xbe2d7d27	-0.16942273
125	0x3e9d6b10	0.30745745
126	0x3d2dd38d	0.04243808
127	0x3e31aeab	0.17351787
128	0x3e98c0d8	0.29834628
129	0x3e9e9e62	0.30980211
130	0xbdd76831	-0.1051792
131	0xbee08daa	-0.4385808
132	0x3cc542fc	0.024079792
133	0xbe809563	-0.25113973
134	0xbe6385f7	-0.22219072
135	0x3e2df6ad	0.1698863
136	0xbea120cc	-0.31470335
137	0x3e9433eb	0.2894586
138	0xbeb94ce7	-0.36191484
139	0x3ee638e0	0.44965267
140	0xbe23c0c3	-0.15991502
141	0xbdc7443d	-0.09729812
142	0xbe57f078	-0.21087825
143	0x3e62f2e2	0.22162965
144	0x3d8e5a1b	0.0695078
145	0x3b895338	0.0041908287
146	0xbf1265d3	-0.5718662
147	0xbe304375	-0.17213233
148	0x3e7989c8	0.24368966
149	0x3ec94aa7	0.39314768
150	0x3dbf1158	0.0932948
151	0xbe2351b9	-0.15949143
152	0xbe4835d0	-0.19551778
153	0xbd8834dc	-0.06650707
154	0xbeebd5fa	-0.4606169
155	0xbdf3a59c	-0.11896822
156	0xbe8a245e	-0.2698087
157	0xbef9f405	-0.48818985
158	0x3e7f3e86	0.24926195
159	0xbd9f62ca	-0.077825144
160	0x3e0b59b5	0.1360844
161	0x3bb391e8	0.00548004
162	0x3e3906fa	0.18069068
163	0x3eeae3ae	0.4587683
164	0x3efd98b8	0.49530578
165	0xbdaf6513	-0.085642
166	0x3e967276	0.29384202
167	0xbd9ca4ad	-0.07648597
168	0xbe8bfe21	-0.27342322
169	0x3eed08e9	0.4629586
170	0x3e1849f8	0.14871967
171	0xbe4fc7a1	-0.20290996
172	0x3eae65ac	0.34061944
173	0xbe89f0d2	-0.26941544
174	0xbd2b2cd0	-0.041790783
175	0x3e497a85	0.19675644
176	0x3e21b860	0.1579299
177	0xbed3196c	-0.41230333
178	0xbe246c2d	-0.16056891
179	0xbeb0c19c	-0.34522712
180	0x3ec724a7	0.3889515
181	0xbca3718b	-0.019951602
182	0x3ee1fd12	0.4413839
183	0x3e6b1c0d	0.2295992
184	0x3d9f5ecc	0.07781753
185	0x3f09cec6	0.53831136
186	0x3e5ee7eb	0.21768157
187	0xbf1bd242	-0.608677
188	0xbe18c78a	-0.14919868
189	0x3f1fb4c4	0.623852
190	0x3e0fddac	0.14049405
191	0x3eca3e11	0.39500478
192	0xbe0b6d33	-0.13615875
193	0xbe90c8bc	-0.28278148
194	0xbe4fa1be	-0.20276543
195	0xbe20e0b3	-0.15710716
196	0x3e3280f5	0.17432006
197	0xbebb8562	-0.366252
198	0xbd9ad55e	-0.07560228
199	0x3f164fca	0.587155
200	0x3e2c3a95	0.16819222
201	0xbdb7cf35	-0.089750685
202	0xbe43db76	-0.19126686
203	0x3e1119f7	0.14170061
204	0xbec47a1b	-0.3837441
205	0xbc6f0036	-0.014587453
206	0xbba22c9e	-0.0049491664
207	0x3eba25cf	0.3635697
208	0xbe8b063e	-0.271532
209	0x3e2a473f	0.1662874
210	0x3dfd78b8	0.12376541
211	0xbe96665e	-0.29374975
212	0xbef802df	-0.4843969
213	0xbe2a16bc	-0.16610235
214	0x3ed00bb9	0.40633944
215	0xbe4412b1	-0.19147755
216	0xbe179512	-0.1480296
217	0x3e87babd	0.26509658
218	0x3e8bfd11	0.27341512
219	0x3e20e07b	0.15710633
220	0xbdcedc50	-0.10100615
221	0x3eeab477	0.4584081
222	0x3e9c5c65	0.3053924
223	0xbe43dc15	-0.19126923
224	0x3d770d58	0.06031546
225	0xbc11f548	-0.008908577
226	0x3eae8b99	0.3409088
227	0xbe10a402	-0.14125064
228	0xbdf5c435	-0.12000314
229	0xbf00f3a1	-0.5037175
230	0xbe763860	-0.24044943
231	0xbdb8e0d6	-0.09027259
232	0x3ea85b9f	0.328824
233	0x3e8e9a32	0.27852017
234	0xbe650b1c	-0.22367519
235	0x3e4eeb92	0.2020705
236	0x3f029723	0.51011866
237	0xbd7741b1	-0.060365383
238	0x3e24cd73	0.16093998
239	0xbeff4f62	-0.49865252
240	0x3d3b50f1	0.04573149
241	0xbebe2421	-0.3713694
242	0xbe385079	-0.17999448
243	0xbeb0b979	-0.34516504
244	0xbe8de2d2	-0.27712113
245	0x3ecb16c2	0.396658
246	0x3da3479b	0.07972642
247	0xbe803a76	-0.25044602
248	0xbee7e1cd	-0.4528946
249	0x3d1f16ab	0.038839977
250	0xbe5fe441	-0.21864416
251	0xbd8e5e2c	-0.069515556
252	0xbe8ef18f	-0.2791867
253	0xbe1e8eb2	-0.15484121
254	0x3e8df06b	0.27722487
255	0xbe5503b2	-0.20802191

actor.init_leaf_node_embed.0.add_bias._bias f4 [32, 1]
0	0x3daebb22	0.085317865
1	0x3a4ebf32	0.00078867667
2	0xbda1a49b	-0.07892724
3	0x3ce5ec85	0.028066883
4	0x3c6cd828	0.014455833
5	0xbd8acba1	-0.067771204
6	0x3d243711	0.040091578
7	0x3be71f35	0.0070532807
8	0xbcf66c60	-0.030080974
9	0x3cb0ce68	0.021582797
10	0x3ca4523c	0.020058744
11	0xbd633165	-0.05546703
12	0x3e145e00	0.14488983
13	0x3c6ee326	0.014580524
14	0x3dc07ccd	0.09398804
15	0xbce38ad5	-0.027776161
16	0x3da09063	0.078400396
17	0xbd14933a	-0.03627322
18	0xbdba74dc	-0.091043204
19	0xbe6209d0	-0.22074056
20	0xbd43513b	-0.04768489
21	0x3abc647e	0.0014373211
22	0x3c29671b	0.010339524
23	0xbd4e878a	-0.05042223
24	0xbe399260	-0.18122244
25	0xbbfb8868	-0.007676173
26	0xbe262afe	-0.16227338
27	0x3da92d5d	0.082606055
28	0xbd45f57a	-0.048329808
29	0x3dd9b244	0.106297046
30	0x3af51bbc	0.0018700282
31	0x3c0d1add	0.008612362

actor.init_leaf_node_embed.2.module.weight f4 [64, 32]
0	0x3d30e226	0.043184422
1	0xbe74b8ae	-0.23898575
2	0xbe902d3f	-0.2815952
3	0xbdd6803a	-0.10473676
4	0x3e291a1e	0.16513869
5	0x3e40cd5c	0.18828338
6	0x3d953cca	0.07286985
7	0x3d300746	0.042975686
8	0x3dec5564	0.115397245
9	0x3dc6cc8b	0.09706982
10	0x3e979236	0.29603738
11	0xbe8a19e8	-0.2697289
12	0xbe18a157	-0.14905296
13	0x3df8dc20	0.121513605
14	0xbf0b8126	-0.5449394
15	0xbcfeb0bc	-0.031090133
16	0x3e3efeb5	0.1865185
17	0x3e34b03c	0.17645353
18	0xbe373782	-0.17892268
19	0xbdd653a0	-0.10465169
20	0x3df01f48	0.117247164
21	0xbe7f59da	-0.2493662
22	0x3e96eb9e	0.29476637
23	0x3e0e1351	0.13874556
24	0x3d8a5ab2	0.0675558
25	0xbeb5b9d7	-0.35493347
26	0xbdd3f7b5	-0.10349981
27	0xbab90047	-0.0014114463
28	0x3e1004d6	0.14064345
29	0x3d342259	0.04397807
30	0xbd89a7d4	-0.06721464
31	0xbd1a585b	-0.03768192
32	0xbd9f625f	-0.07782435
33	0x3e746f55	0.23870595
34	0x3d004d79	0.031323884
35	0xbccc8f52	-0.024970684
36	0x3d11d54e	0.035603814
37	0x3e5f74c2	0.21821883
38	0x3de3700a	0.11105354
39	0xbdc5c33b	-0.09656378
40	0xbe115c44	-0.14195353
41	0xbe650357	-0.22364555
42	0x3ef3aae9	0.47591332
43	0xbd2a6b11	-0.041606013
44	0xbda3fc0b	-0.08007058
45	0x3d93d456	0.07218234
46	0x3ddafb3f	0.10692453
47	0xbe844ef4	-0.25841486
48	0xbe03c231	-0.12867047
49	0xbe3d7601	-0.18502046
50	0xbe075f25	-0.13219889
51	0xbe45a9ac	-0.19303006
52	0xbdc03fa9	-0.09387142
53	0xbdfd1145	-0.123568095
54	0x3d61c736	0.055121623
55	0xbe4c1bd9	-0.19932498
56	0xbec0a84e	-0.37628406
57	0xbe665ec4	-0.22497088
58	0x3ba0e798	0.0049104206
59	0x3e387192	0.18012074
60	0xbe8a2884	-0.26984036
61	0xbde02db1	-0.10946215
62	0x3e50fc48	0.20408738
63	0x3eb571a1	0.35438254
64	0x3e4f79e9	0.20261349
65	0xbca5bfc5	-0.020233044
66	0xbe00919c	-0.12555546
67	0x3dda9809	0.1067353
68	0x3e13028b	0.14356439
69	0xbc0d4446	-0.008622235
70	0xbdbec202	-0.09314348
71	0x3d1d2ebb	0.038374644
72	0xbed29188	-0.41126657
73	0xbd0be1e1	-0.03415096
74	0xbebe2d8a	-0.3714412
75	0xbe335f07	-0.17516719
76	0xbe64693c	-0.22305769
77	0x3ded6d14	0.115930706
78	0x3e61c4a5	0.2204767
79	0xbe2d8ff4	-0.16949445
80	0xbdcad771	-0.099043734
81	0x3ec5875a	0.38579828
82	0xbe8eb342	-0.27871138
83	0xbdf03903	-0.11729624
84	0x3ca3f10f	0.020012407
85	0x3cd48384	0.025941618
86	0x3d5444be	0.05182337
87	0xbeafb424	-0.34317124
88	0xbc8b5f42	-0.017013196
89	0x3dd4cb79	0.10390372
90	0xbdc07627	-0.09397536
91	0xbe44f9d8	-0.19235933
92	0xbe4ae4a5	-0.19813783
93	0xbda92355	-0.08258692
94	0x3dd8a1c4	0.10577729
95	0x3e1b9bea	0.15196195
96	0xbdb164fa	-0.08661838
97	0x3e3990ca	0.18121639
98	0x3e478fe0	0.19488478
99	0x3da864e6	0.0822237
100	0x3e337365	0.17524488
101	0x3d8de735	0.06928865
102	0xbcd654e3	-0.026163524
103	0x3e5b7d8c	0.21434611
104	0x3e1fff73	0.1562479
105	0xbe02038c	-0.12696666
106	0xbea02edc	-0.3128575
107	0x3e81fbbf	0.2538738
108	0xbe8562a1	-0.2605181
109	0x3d68f4b9	0.05687401
110	0xbddf09c8	-0.108905375
111	0x3e36ce4a	0.1785213
112	0xbdd4694c	-0.10371646
113	0x3ec86012	0.39135796
114	0xbea50e71	-0.3223758
115	0xbc197d19	-0.0093682045
116	0x3d2860c1	0.041107897
117	0x3c02e775	0.007989754
118	0xbe731e3a	-0.23742
119	0x3ef514c5	0.47867408
120	0x3c99dd2f	0.018782226
121	0x3d123883	0.035698425
122	0x3e2c4253	0.16822176
123	0x3e6b24b5	0.22963221
124	0x3e97e1f8	0.29664588
125	0xbbd6cb51	-0.006554999
126	0x3dd917de	0.106002554
127	0x3e164ba6	0.14677295
128	0xbdae22e9	-0.08502752
129	0xbe015e3e	-0.12633607
130	0x3d8d22df	0.06891417
131	0x3ceac183	0.028656727
132	0x3da19462	0.0788963
133	0xbeeafae2	-0.45894533
134	0x3e6d05d4	0.23146755
135	0x3db47309	0.08811004
136	0x3d67bfc9	0.056579385
137	0x3da928c8	0.082597315
138	0xbe56e5be	-0.20986077
139	0xbeb93689	-0.3617442
140	0xbde7d079	-0.1131906
141	0x3e681be7	0.22666894
142	0x3e441bf2	0.19151285
143	0xbe5fb701	-0.21847154
144	0xbed8c3f8	-0.42337012
145	0xbedbd0a3	-0.42932615
146	0x3e4b1422	0.19831899
147	0x3dde4d25	0.10854558
148	0xbe97ac32	-0.29623562
149	0x3e7a1347	0.24421416
150	0xbc641c2c	-0.013922732
151	0x3e7427a0	0.2384324
152	0xbdfcb199	-0.123385616
153	0xbbcf2810	-0.0063219145
154	0xbe307c2f	-0.17234872
155	0x3e91d5db	0.2848347
156	0x3e785c80	0.24254036
157	0x3c212f36	0.009837916
158	0x3dce890c	0.10084733
159	0xbe3fdf5d	-0.1873755
160	0x3e62e5ef	0.22158025
161	0xbcdd974b	-0.027049681
162	0xbe216d8e	-0.15764448
163	0xbd838003	-0.06420901
164	0xbeaed7c0	-0.3414898
165	0xbe390c08	-0.18070996
166	0x3eb6ff15	0.35741487
167	0xbdc9b767	-0.09849434
168	0x3e39d0d4	0.18146068
169	0x3cb5c981	0.022190811
170	0xbed4feeb	-0.41600737
171	0x3e9ff6ac	0.31242883
172	0x3f11aee6	0.569075
173	0x3e0b6958	0.13614404
174	0x3ea99641	0.33122447
175	0xbe9aec1d	-0.30258265
176	0x3e3bd4dd	0.1834292
177	0xbeb2c36b	-0.34914717
178	0xbecc7968	-0.39936376
179	0xbe22a0aa	-0.15881601
180	0x3dd725fa	0.1050529
181	0xbe9ae26b	-0.30250868
182	0xbdb3252d	-0.08747325
183	0x3f30fee6	0.69138944
184	0x3d954704	0.07288936
185	0xbe7c97ce	-0.24667284
186	0xbd967632	-0.07346763
187	0x3e52a036	0.20568928
188	0xbe231bcc	-0.15928572
189	0xbd519ba1	-0.05117381
190	0x3d5603e3	0.0522498
191	0xbd5200f4	-0.05127044
192	0x3ebb3730	0.36565542
193	0xbea7479e	-0.32671827
194	0xbd4b7fc6	-0.0496824
195	0xbd9222da	-0.07135554
196	0xbe85ad32	-0.261087
197	0xbdd9257f	-0.10602855
198	0x3e4acc98	0.19804609
199	0x3e979616	0.29606694
200	0x3d8b568e	0.06803618
201	0xbe396433	-0.18104629
202	0x3e21faff	0.15818404
203	0x3e2c2b96	0.16813502
204	0xbe322fe3	-0.1740108
205	0x3df65450	0.120278
206	0xbdc573c0	-0.09641218
207	0x3d021c5b	0.031765323
208	0xbec12266	-0.37721556
209	0x3f0040cd	0.5009888
210	0x3eea53a2	0.45766932
211	0x3d786f27	0.060652878
212	0xbe80554b	-0.25065073
213	0x3d6bf9b4	0.057611182
214	0xbe061dcc	-0.13097304
215	0x3e7de021	0.2479253
216	0x3d47e1f3	0.048799466
217	0x3e514632	0.20436934
218	0xbd8e07d2	-0.06935085
219	0xbcbacba7	-0.022802187
220	0xbe110df5	-0.1416548
221	0x3e7765c6	0.24159917
222	0x3cf33832	0.029689882
223	0xbd37d757	-0.0448831
224	0xbde060e5	-0.10955981
225	0x3d904c70	0.07045829
226	0xbe0112a5	-0.12604769
227	0xbe79d436	-0.24397358
228	0x3d6fc534	0.058537677
229	0xbdc408bc	-0.095719784
230	0xbe734685	-0.2375737
231	0xbf1ae1b4	-0.60500646
232	0x3e115726	0.141934
233	0xbe018aa2	-0.1265054
234	0x3e2bafc4	0.16766268
235	0x3bcba968	0.006215263
236	0x3e4d6dca	0.20061412
237	0x3dc4fc85	0.09618477
238	0xbda58621	-0.08082224
239	0x3d9aca7e	0.075581536
240	0xbe849ef7	-0.2590253
241	0xbe4a6481	-0.19764902
242	0xbf12890b	-0.5724036
243	0xbe3585d7	-0.17726837
244	0x3e16397c	0.14670366
245	0x3ed9b057	0.4251735
246	0x3df38d3b	0.11892172
247	0xbe79127c	-0.24323457
248	0xbcd6fdad	-0.026244009
249	0x3e4fc494	0.20289832
250	0x3e5323ce	0.20619127
251	0x3e28429a	0.16431656
252	0xbef81367	-0.48452303
253	0x3e8f9e54	0.28050482
254	0x3e27ab1c	0.16373867
255	0xbe5a93df	-0.21345471

actor.init_leaf_node_embed.2.add_bias._bias f4 [64, 1]
0	0xbd93ca2f	-0.07216298
1	0xbd40ad8b	-0.047040503
2	0x3c3be264	0.01146755
3	0x3c9e3089	0.019310253
4	0xbd57db08	-0.05269912
5	0x3ea9f28a	0.33192855
6	0x3d92b3a6	0.071631715
7	0x3a39a7c4	0.0007082189
8	0xbd8bf83b	-0.068344556
9	0x3da0d921	0.07853914
10	0xbd9c6979	-0.07637305
11	0x3e72505e	0.2366347
12	0xbd6ddf1e	-0.05807411
13	0xbe79db79	-0.24400128
14	0xbf05f670	-0.5232916
15	0x3cd2ab78	0.025716528
16	0xbd72ade3	-0.059247863
17	0x3e1c89b6	0.15286908
18	0xbe4d3797	-0.20040737
19	0xbd0a43e5	-0.033756156
20	0xbe127fa9	-0.14306511
21	0x3e1bea88	0.15226185
22	0x3e14026e	0.14454052
23	0x3e54ac11	0.20768763
24	0xbd47e298	-0.04880008
25	0x3e796378	0.2435435
26	0xbe740a98	-0.23832166
27	0x3e087ab4	0.13328058
28	0xbe16486d	-0.14676066
29	0xbe887a3f	-0.26655766
30	0x3dcd04bc	0.10010669
31	0xbd4126db	-0.047156196
32	0xbd8e23c9	-0.06940419
33	0xbbfb36e8	-0.0076664574
34	0xbe715c64	-0.235704
35	0x3e1b5a4f	0.15171169
36	0xbde76c50	-0.11299956
37	0xbd06595a	-0.032800056
38	0xbe0104b8	-0.12599456
39	0xbd881d13	-0.066461705
40	0xbe48f6bf	-0.19625376
41	0x3c4ef212	0.012630956
42	0xbac3c098	-0.0014934717
43	0xbdb03e01	-0.08605576
44	0x3d16a31d	0.03677665
45	0x3db3fabc	0.08788058
46	0x3cdb5f5a	0.026778866
47	0x3e845a66	0.2585022
48	0x3bfdc249	0.007744108
49	0x3dd1656b	0.10224422
50	0x3defb031	0.11703528
51	0x3c360c50	0.011111334
52	0xbd219810	-0.03945166
53	0x3e0e19f0	0.13877082
54	0xbd2f7e54	-0.042845085
55	0xbd9de8d4	-0.07710424
56	0xbdecf8e9	-0.11570913
57	0xbdb8875e	-0.09010194
58	0xbde907fb	-0.11378475
59	0x3e9163fb	0.28396592
60	0x3e1f807f	0.15576361
61	0x3c54fb9c	0.0129994415
62	0x3e39f91c	0.18161434
63	0xbe47d5c9	-0.19515146

actor.init_next_embed.0.module.weight f4 [32, 6]
0	0xbf5c892b	-0.861468
1	0x3e2a50d2	0.16632393
2	0xbdab0421	-0.08350397
3	0x3ec7cf1c	0.390252
4	0x3f84cda5	1.0375258
5	0xbf695ff6	-0.9116205
6	0x3ec74f97	0.3892791
7	0x3ea6499a	0.3247803
8	0x3c08bccb	0.008345793
9	0x3e13bb80	0.14426994
10	0xbb404615	-0.0029338647
11	0xbde669d2	-0.112506524
12	0xbdabea84	-0.0839434
13	0xbec7c889	-0.39020184
14	0x3e75c4b2	0.24000815
15	0xbf0b7c5f	-0.5448665
16	0x3dcd8376	0.1003484
17	0x3d1b9f79	0.03799388
18	0x3fe269bf	1.7688521
19	0x3f11a812	0.5689708
20	0x3de5af6b	0.11215099
21	0x3edd5747	0.4323065
22	0x3e3e119a	0.18561402
23	0xbd892441	-0.06696368
24	0xbea9e929	-0.331857
25	0xbd760fcd	-0.060073663
26	0xbe45cc60	-0.19316244
27	0x3e36589b	0.17807238
28	0x3cb47e3a	0.022032846
29	0xbe3d3e0e	-0.18480703
30	0xbe17e088	-0.14831746
31	0x3debed70	0.11519897
32	0x3eead23d	0.45863524
33	0x3dde818b	0.10864552
34	0xbe06edc0	-0.13176632
35	0x3c9698bf	0.018383382
36	0x3e132b10	0.14371896
37	0xbe687a25	-0.22702844
38	0xbcc0a703	-0.023517137
39	0xbe84e6bc	-0.25957286
40	0xbe379f8b	-0.17931955
41	0x3e8ecfc1	0.2789288
42	0xbe517efc	-0.20458597
43	0xbebb3c5b	-0.36569485
44	0x3e81cea5	0.2535297
45	0x3de26680	0.110547066
46	0xbe16dd4d	-0.14732857
47	0x3d21f4b1	0.039539997
48	0xbe2770f3	-0.1635168
49	0xbe82989e	-0.25507063
50	0x3eafc820	0.3433237
51	0xbe84a6c1	-0.25908473
52	0x3dc7e9ac	0.09761366
53	0xbb8e9e72	-0.0043523842
54	0xbebec953	-0.37262973
55	0xbe211ec8	-0.15734398
56	0xbe148fe1	-0.1450801
57	0x3ecd9171	0.40150025
58	0xbe66ba59	-0.22532023
59	0xbdf212ef	-0.118200175
60	0x3f31c813	0.69445914
61	0xbd42dcbc	-0.04757379
62	0xbe18e41f	-0.14930771
63	0xbeecf764	-0.46282494
64	0xbe454ece	-0.19268343
65	0x3e109cf8	0.14122379
66	0x3e14329b	0.1447243
67	0xbe425303	-0.18976979
68	0xbe95245b	-0.291293
69	0x3dadd7b0	0.08488405
70	0xbd27cf58	-0.040969223
71	0xbdad8c20	-0.08473992
72	0x3ece483d	0.40289488
73	0xbf28a741	-0.6588021
74	0xbd32aed1	-0.04362375
75	0xbd8d00b4	-0.068849
76	0x3d372010	0.04470831
77	0xbde4872d	-0.11158595
78	0x3e2c74c8	0.16841424
79	0xbe851c31	-0.2599807
80	0x3e9e7a93	0.30952892
81	0x3e60f452	0.21968201
82	0xbe3714e6	-0.17879066
83	0xbe01cdff	-0.12676238
84	0x3f9a662b	1.2062429
85	0x3d59fc8c	0.053219363
86	0xbdd8ba48	-0.10582405
87	0xbf05bbbf	-0.522396
88	0xbe4f1b1c	-0.20225185
89	0x3f22bc57	0.63568634
90	0x3c2c93c5	0.010533278
91	0x3d8cc9c0	0.06874418
92	0x3e6ea4b5	0.23305018
93	0xbe9dea90	-0.3084302
94	0xbcfa9934	-0.030590631
95	0xbe78b66c	-0.24288338
96	0xbe69e606	-0.22841653
97	0xbe13f899	-0.14450301
98	0xbe02e279	-0.12781705
99	0x3deec2f7	0.1165828
100	0x3e39a2e7	0.18128549
101	0x3eb1f3d8	0.3475635
102	0x3e0935ee	0.13399479
103	0x3ee89ebe	0.4543361
104	0x3efee7dd	0.49786273
105	0x3e8e63b6	0.27810448
106	0x3e2a774f	0.16647075
107	0x3dbf1888	0.09330851
108	0xbe322619	-0.17397346
109	0xbc6e357c	-0.014539119
110	0xbeb1dd26	-0.34739035
111	0xbd798ba6	-0.060924195
112	0xbe0436c0	-0.1291151
113	0xbedc2225	-0.429948
114	0x3fe3fc82	1.7811434
115	0xbe657c30	-0.22410655
116	0x3e46d7c0	0.1941824
117	0xbc80c4e7	-0.01571889
118	0x3e0f8a33	0.14017563
119	0xbcf72db0	-0.030173153
120	0x3dbee32e	0.09320675
121	0x3ebac6c4	0.3647977
122	0x3e2433e6	0.16035423
123	0xbebe0572	-0.3711353
124	0xbe5dc3e9	-0.21656765
125	0x3e5a6d26	0.213307
126	0x3f2eeee1	0.6833325
127	0xbe358e76	-0.17730126
128	0x3daa14f6	0.08304779
129	0x3f277d92	0.6542598
130	0x3dd758da	0.10514994
131	0xbe3f814a	-0.18701664
132	0xbe620f1b	-0.22076075
133	0x3ce290a6	0.027656864
134	0xbdbaacad	-0.091149665
135	0x3d1babf6	0.03800579
136	0xbec503c3	-0.38479432
137	0x3b9f2acf	0.004857398
138	0x3cf85ee8	0.030318692
139	0xbe42394a	-0.18967167
140	0xbe063252	-0.13105133
141	0xbee89160	-0.45423412
142	0xbd8051e7	-0.06265622
143	0xbe632f40	-0.22185993
144	0xbe98bade	-0.29830068
145	0xbd95fb09	-0.07323272
146	0x3eaccdd3	0.3375078
147	0xbeca1093	-0.3946577
148	0x3f0d7e47	0.5527081
149	0xbee8a9ae	-0.45441955
150	0x3e366db4	0.17815286
151	0xbd5412ab	-0.051775616
152	0x3d116b6e	0.035502844
153	0xbf039cdb	-0.5141122
154	0xbf215d20	-0.6303272
155	0x3e848756	0.25884503
156	0xbecabe7e	-0.3959846
157	0xbe2e9e7e	-0.17052647
158	0x3edaf998	0.4276855
159	0x3e984d91	0.29746678
160	0xbd945987	-0.072436385
161	0xbe8ad616	-0.2711646
162	0x3ebfe18f	0.37476775
163	0xbdc8a5f6	-0.097972795
164	0x3e0d4c72	0.13798693
165	0xbd1e6ff3	-0.03868098
166	0xbe23f8e4	-0.16012913
167	0xbe605252	-0.21906403
168	0xbe00bb5f	-0.12571476
169	0x3dd7fafe	0.1054592
170	0xbf04f1a5	-0.5193122
171	0xbe7e322a	-0.24823824
172	0xbcb97ea6	-0.022643398
173	0x3c43e692	0.011956828
174	0x3e06b6b7	0.13155638
175	0xbd2e7b76	-0.04259821
176	0x3ea90181	0.3300896
177	0xbea21fb7	-0.31664822
178	0xbde594f5	-0.11210052
179	0x3d8c6a4a	0.068562105
180	0xbe914f0e	-0.28380626
181	0xbcb7722a	-0.022393305
182	0xba81aac4	-0.0009892811
183	0xbd6a84ab	-0.05725543
184	0xbf2767db	-0.65392846
185	0x3f101424	0.5628073
186	0x3d8681b7	0.0656771
187	0xbde14cbe	-0.110009655
188	0xbe1fc54d	-0.15602608
189	0xbdb2af7b	-0.087248765
190	0x3c771985	0.015081768
191	0xbe266e50	-0.16253018

actor.init_next_embed.0.add_bias._bias f4 [32, 1]
0	0xbe4566a5	-0.19277437
1	0xbd7ef0e5	-0.062241454
2	0xbd184c89	-0.037182365
3	0x3f226656	0.634374
4	0xbd307458	-0.043079704
5	0xbc6a18d0	-0.014288142
6	0x3e183306	0.14863214
7	0xbdc991c0	-0.09842253
8	0xbd3c2372	-0.04593224
9	0xbdee69ee	-0.11641298
10	0xbe3d4a6e	-0.18485424
11	0xbd9131a2	-0.07089545
12	0xbd4c8475	-0.04993101
13	0xbc883a41	-0.01662934
14	0x3f2e0eee	0.6799153
15	0x3c6344bb	0.013871367
16	0x3d78db8f	0.060756262
17	0xbd2998cd	-0.041405488
18	0x3d79b314	0.060961798
19	0x3f01c9b2	0.5069839
20	0xbe7f5367	-0.24934159
21	0xbda4ae5e	-0.080410704
22	0x3d27986a	0.040916838
23	0x3d7788fd	0.060433377
24	0xbdd45f0e	-0.10369693
25	0xbe5c6da3	-0.21526198
26	0xbe045cd0	-0.1292603
27	0x3e225407	0.15852366
28	0xbd8ce98f	-0.06880485
29	0x3e206790	0.15664506
30	0xbc1d709e	-0.00960937
31	0xbcb163ad	-0.021653974

actor.init_next_embed.2.module.weight f4 [64, 32]
0	0xbe9f7800	-0.3114624
1	0x3d6ee730	0.058325946
2	0x3e244a8e	0.16044065
3	0x3e3f4d65	0.18681867
4	0x3e326cbb	0.1742429
5	0xbdb46c3f	-0.08809709
6	0x3ea77d79	0.32712916
7	0x3e8d1611	0.27555898
8	0x3e04440b	0.12916581
9	0x3d1fe608	0.039037734
10	0x3e704dd7	0.23467194
11	0xbd27ba1d	-0.040948976
12	0x3d693836	0.056938373
13	0x3d1d8e71	0.03846592
14	0x3f102c9d	0.56318074
15	0xbc9202a3	-0.017823523
16	0x3ea4e04b	0.32202372
17	0x3e5443c7	0.2072898
18	0xbca85825	-0.020549843
19	0x3e8a8c9d	0.27060404
20	0x3e805740	0.25066566
21	0xbea470d0	-0.3211732
22	0x3e81aaa6	0.25325507
23	0x3f375bc4	0.716244
24	0x3db0f433	0.08640327
25	0x3e23aab9	0.15983094
26	0x3bd19474	0.006395871
27	0xbe273a0d	-0.16330738
28	0xbd14bcfb	-0.03631304
29	0x3d036c30	0.032085598
30	0x3dd2c440	0.10291338
31	0xbdd4f2be	-0.10397862
32	0x3e070a1b	0.13187449
33	0x3c255d03	0.0100929765
34	0xbd4d902f	-0.050186332
35	0xbee5d452	-0.4488855
36	0x3e4ba49a	0.1988701
37	0x3e34d952	0.17661026
38	0xbef8b7cb	-0.48577723
39	0x3df3c241	0.11902285
40	0xbd0b1f64	-0.033965483
41	0x3da7170d	0.081586935
42	0xbeae9f74	-0.34106028
43	0xbe62ddc0	-0.22154903
44	0xbe03081b	-0.1279606
45	0xbcec8580	-0.028872252
46	0xbd21a5a2	-0.0394646
47	0x3e9558ea	0.291694
48	0xbe3d141f	-0.18464707
49	0x3ba96570	0.005169563
50	0x3e1ee902	0.15518573
51	0xbf39ca49	-0.7257429
52	0xbdd513a8	-0.1040414
53	0xbed1df29	-0.4099057
54	0xbe683139	-0.22675027
55	0x3d164658	0.03668818
56	0xbdaed57d	-0.085368134
57	0x3d9bb144	0.0760217
58	0x3d561ad4	0.05227168
59	0xbe1122b9	-0.14173402
60	0x3da13138	0.07870716
61	0xbddc5a69	-0.10759432
62	0x3cb8c07f	0.022552727
63	0xbe044267	-0.12915955
64	0x3e25fd32	0.16209868
65	0x3ed69f2d	0.41918316
66	0x3e073012	0.13201931
67	0x3f09f787	0.5389332
68	0x3d8021d9	0.06256456
69	0x3d8388ff	0.06422614
70	0x3da9bdc5	0.08288149
71	0xbe6ceee4	-0.23138005
72	0x3e127e71	0.14306046
73	0xbdfcc63c	-0.12342498
74	0xbbe51da9	-0.006992061
75	0x3d0d7b3c	0.034541354
76	0x3dbd5f8b	0.09246739
77	0xbe99900b	-0.2999271
78	0x3e8c33b7	0.27383205
79	0x3bf2f73d	0.007414727
80	0x3e82d9cd	0.25556794
81	0xbd2c4650	-0.042059243
82	0x3d25d8e0	0.04049003
83	0x3e74cfd7	0.2390741
84	0xbe6378ac	-0.22214001
85	0x3f1e1672	0.61753
86	0x3e28b25c	0.16474289
87	0xbdd7dc66	-0.105400845
88	0x3e04402b	0.12915103
89	0xbe956653	-0.2917963
90	0x3cea843b	0.028627506
91	0x3d66f577	0.056386437
92	0x3e84e189	0.2595332
93	0xbd5796ca	-0.052634038
94	0xbea19145	-0.31556144
95	0x3e370a8e	0.1787512
96	0x3eb63f50	0.3559518
97	0x3e5d5166	0.21613082
98	0xbe68d797	-0.22738491
99	0x3d06210e	0.032746367
100	0x3e3c0c51	0.18364073
101	0xbd16f324	-0.03685297
102	0x3da2c5b8	0.07947868
103	0xbce64a92	-0.02811173
104	0x3b5b56f2	0.0033468571
105	0x3ec81745	0.39080253
106	0xbdb9a6c3	-0.090650104
107	0x3e06a955	0.13150533
108	0x3dba5fe5	0.09100322
109	0x3e2c16f6	0.16805634
110	0xbe3711bb	-0.17877857
111	0x3da9ad04	0.08284953
112	0x3ec27ce7	0.37985918
113	0x3da75e72	0.08172311
114	0xbdd559d7	-0.10417526
115	0x3e7da9f3	0.24771862
116	0x3dc805dc	0.097667426
117	0x3e06f7b4	0.13180429
118	0xbdfb3467	-0.12265854
119	0xbee81e48	-0.45335603
120	0xbdc2da05	-0.0951424
121	0xbe332a27	-0.17496549
122	0xbe915a07	-0.28388998
123	0x3d89cf14	0.0672895
124	0x3df42a3b	0.11922117
125	0xbdb7734d	-0.08957539
126	0x3e4315fc	0.19051355
127	0x3d082427	0.033237603
128	0x3f1051cf	0.5637483
129	0x3c292c38	0.010325484
130	0xbe3546a9	-0.17702736
131	0xbdf5db5b	-0.12004729
132	0x3e5e9e4b	0.21740071
133	0x3df38ea8	0.11892444
134	0xbd54acf4	-0.051922753
135	0x3e263ecd	0.16234894
136	0x3e30f3a0	0.17280436
137	0xbdb9e1ff	-0.090763085
138	0xbe66e7c2	-0.22549346
139	0xbd6ec267	-0.058290865
140	0xbd642d3e	-0.05570721
141	0xbe859d5f	-0.26096627
142	0xbeff1792	-0.4982267
143	0xbea93485	-0.33047882
144	0x3e822517	0.25418922
145	0x3dd716c1	0.10502387
146	0x3d231fb4	0.039825156
147	0xbeca31fc	-0.3949126
148	0x3e221357	0.1582769
149	0x3e3ce097	0.18445049
150	0xbc9668c3	-0.018360501
151	0xbee0742a	-0.43838626
152	0x3e392eb5	0.18084224
153	0x3dbb9307	0.091589026
154	0x3e323eba	0.17406741
155	0xbebc54fa	-0.36783582
156	0x3d806fac	0.062713
157	0xbd888999	-0.0666687
158	0xbd978991	-0.073992856
159	0xbdf215f1	-0.11820591
160	0xbe451f35	-0.19250186
161	0xbec24cbe	-0.37949175
162	0xbded13d3	-0.11576047
163	0x3e6ef8df	0.23337124
164	0x3c887aee	0.01666018
165	0x3e602a05	0.21891029
166	0xbd985540	-0.07438135
167	0x3e171291	0.14753176
168	0x3dbec869	0.09315569
169	0x3e0543c3	0.1301413
170	0xbd8309db	-0.06398364
171	0x3c7b2cb0	0.015330479
172	0xbd5f0b43	-0.0544541
173	0x3d6269ed	0.0552768
174	0x3d163958	0.03667578
175	0x3e039a46	0.1285182
176	0xbdaf268c	-0.08552274
177	0x3dc6e5d9	0.09711809
178	0x3e2cf4da	0.16890278
179	0x3f337fe3	0.70117015
180	0xbe269499	-0.16267623
181	0x3ccf0849	0.025272505
182	0x3d93d7b3	0.07218876
183	0xbe44bca5	-0.19212587
184	0xbe5a5bb6	-0.21324047
185	0xbe962c8a	-0.29330856
186	0xbdffa4b3	-0.12482586
187	0x3e3157f3	0.17318706
188	0x3df834ee	0.121194705
189	0xbdcec515	-0.10096184
190	0x3caa9785	0.020824203
191	0xbe2bf5c0	-0.16792965
192	0x3eee4c04	0.4654237
193	0xbe6cea1a	-0.23136178
194	0xbdd6a3dd	-0.10480473
195	0xbf290158	-0.66017675
196	0xbceb1308	-0.028695598
197	0x3c599b64	0.013281677
198	0xbe92b0a2	-0.28650385
199	0xbc769486	-0.015050059
200	0x3ef12cd2	0.47104508
201	0x3d653967	0.055962946
202	0xbda47519	-0.08030147
203	0xbe55481a	-0.20828286
204	0xbe9b6ece	-0.30357975
205	0x3ddd876c	0.10816845
206	0xbf2c2b63	-0.672537
207	0xbe8eaad0	-0.27864695
208	0xbe2c8319	-0.16846885
209	0x3ee9fbb2	0.4569984
210	0xbeb3e0af	-0.35132357
211	0xbf257827	-0.6463646
212	0xbe841fdc	-0.25805557
213	0x3e53555b	0.2063803
214	0x3d82e3b0	0.06391084
215	0xbeeaf8ea	-0.4589303
216	0xbcfddf3c	-0.030990236
217	0xbe8df669	-0.2772706
218	0x3d3bdeb9	0.0458667
219	0xbe6bf4e5	-0.23042639
220	0xbd13e50d	-0.03610711
221	0x3b9b66b4	0.004742468
222	0xbdeefbe6	-0.116691396
223	0x3e15f0b9	0.1464261
224	0x3e003977	0.12521921
225	0x3d9ee4bc	0.07758471
226	0xbdaddf8d	-0.084899046
227	0x3e5a0062	0.21289209
228	0x3dddc2fd	0.10828207
229	0xbeac8042	-0.33691603
230	0xbeaba908	-0.33527398
231	0x3e16ea4a	0.14737812
232	0xbd2ce6c0	-0.042212248
233	0x3dd9a921	0.10627962
234	0x3dacf864	0.08445814
235	0x3d4787c9	0.04871348
236	0x3eb8885a	0.36041528
237	0xbce32fe0	-0.02773279
238	0x3ecd37d3	0.40081653
239	0xbe1dd1fc	-0.15412134
240	0xbda56791	-0.08076394
241	0xbdfc108d	-0.12307844
242	0x3d72b3a7	0.05925336
243	0x3ac3f014	0.0014948868
244	0xbef6bb04	-0.48189557
245	0xbd940f49	-0.07229478
246	0x3e2f1992	0.17099598
247	0x3e9e1bdb	0.30880627
248	0x3e6b1224	0.22956139
249	0x3e3ddbab	0.18540828
250	0xbe921094	-0.28528273
251	0xbd3bdac8	-0.045862943
252	0xbe5eeceb	-0.21770065
253	0xbd1fc9a0	-0.039010644
254	0x3e94025d	0.28908053
255	0x3d4d5035	0.05012532

actor.init_next_embed.2.add_bias._bias f4 [64, 1]
0	0x3eb63766	0.3558914
1	0xbf639525	-0.8889945
2	0x3f3a094c	0.72670436
3	0x3ec118df	0.37714288
4	0xbebdbccd	-0.37058106
5	0x3eefe019	0.4685066
6	0xbf38f89b	-0.7225434
7	0x3ed7b113	0.42127284
8	0xbf062d07	-0.52412456
9	0x3c6c56fe	0.014425037
10	0xbeff5283	-0.4986764
11	0x3db27568	0.087138
12	0x3eef01d6	0.46681088
13	0xbe80c9ee	-0.2515406
14	0xbf378b13	-0.71696585
15	0x3e65ded9	0.22448291
16	0x3ece6010	0.40307665
17	0x3f2518e4	0.64491105
18	0xbf799270	-0.9748907
19	0xbf10d4fa	-0.56574976
20	0xbf02c8a5	-0.5108741
21	0x3eb4f499	0.35342863
22	0xbdaa3e7c	-0.08312699
23	0x3eb3d4bc	0.3512324
24	0xbddfd66d	-0.1092957
25	0xbf20b863	-0.6278135
26	0xbe93a2fb	-0.28835282
27	0x3e2703e6	0.16310081
28	0xbe1a84d1	-0.15089728
29	0xbe28b664	-0.16475827
30	0xbdceb216	-0.10092561
31	0x3f0e189c	0.555063
32	0x3f20dd37	0.6283755
33	0x3d09f30e	0.03367906
34	0x3f8a9daf	1.0829371
35	0x3ef1a9e5	0.47199932
36	0xbe4eba8a	-0.20188347
37	0x3ed5518c	0.41663778
38	0xbea7438a	-0.32668716
39	0x3f50f71c	0.8162706
40	0xbf4c2611	-0.79745585
41	0xbf87b691	-1.060259
42	0xbe50a503	-0.20375447
43	0x3efa1ff7	0.48852512
44	0xbe87639e	-0.2644319
45	0xbf5fc3be	-0.87408054
46	0xbef6bc40	-0.48190498
47	0x3f44b92e	0.7684506
48	0x3e397444	0.18110758
49	0xbf204cd9	-0.6261726
50	0xbf828fe4	-1.0200162
51	0xbf1feeea	-0.6247393
52	0x3f20cfac	0.6281688
53	0x3d2cd1f4	0.042192414
54	0xbe6b5f05	-0.22985466
55	0xbdfd61a2	-0.123721376
56	0xbf05c9c7	-0.5226101
57	0xbe69c5dc	-0.22829384
58	0xbebabded	-0.36473027
59	0x3d304cc6	0.043041967
60	0x3e271e9b	0.16320269
61	0xbe715a8a	-0.23569694
62	0x3db4a4b4	0.08820477
63	0x3f466ad4	0.77506757
