trained_models/experiment/Discrete_A2C_20x10x10Bin_s42_inh_800_defaultBox-2022.08.19-00-03-54/PCT-Discrete_A2C_20x10x10Bin_s42_inh_800_defaultBox-2022.08.19-00-03-54_2022.08.19-06-06-44.pt (torch, 236314 bytes, 24 tensors)

actor.init_internal_node_embed.0.module.weight f4 [32, 6]
00000000: 40f8 86bd 559d 503e 3e90 3cbd 7e82 8dbe
00000010: a0af 3b3e 7e61 14be 18d9 cd3e e977 d23e
00000020: 9bd6 9cbe 48ce 92be c4ca 92be 588e 00be
00000030: 7379 053e da79 bf3d 37a6 39be e308 5b3e
00000040: 9b3a a9be 0411 f2bd 0ed4 02be 9d00 1e3c
00000050: a110 e6be d4d0 a43e 916d 603e e135 023f
00000060: 59a2 053f e9d0 4d3c 0937 033f 0aa5 bc3e
00000070: f18b 143e dbc7 6b3c 3189 033e c831 9a3d
00000080: 1ce8 68be cdfb 123e aed8 05bf d29f 03bf
00000090: fd31 51bf a08e 483f 3cf7 ba3e 9121 513f
000000a0: bcf2 59bf fa8e acbd a332 b73e 3c9e bebe
000000b0: 5cdf 923f d829 7abe d701 74bd aa10 ddbe
000000c0: a4a0 29bf 00e0 c4be a44b e2be 2a20 eb3e
000000d0: 7df1 0e3f 344d 833c edf9 433f d357 0f3e
000000e0: b86e 0ebf 2cf0 fb3e c0eb 623e 25f1 d63b
000000f0: bf28 df3c 3d88 ee3e 4e2d a5be 330a e73c
00000100: 59cc c03d 5644 b4be f5e4 3dbe 1c4f 653e
00000110: 3e67 adbd 96dc 8fbe 03e2 f4bd 4ab4 94be
00000120: f1eb 823e fb7b ffbe 559d 04bd e665 af3e
00000130: 046c bc3c 8059 27be bd45 3a3f d60b ec3e
00000140: f6c1 45be bb86 f9be 5dad 2a3e 497d a0bc
00000150: 3b4f 50be f2a6 5dbd 3918 c1be 286a 1b3e
00000160: 82ca ca3e 04a6 f3be 22c3 06be 0cbf c0be
00000170: 0a9a e8bd cf99 163e bb22 b73e 01ba e7be
00000180: d76e b43e 9059 0abe 1ecc 783f aa47 33bf
00000190: 71a5 893e 0453 40be 0c5f 36bd 28ea 8f3e
000001a0: 4ccf 88bd 40ad 1f3e bd2b 0abf 2e1c a9be
000001b0: 1670 0cbc 4087 50bd 4e3f 34bf d9a3 0abd
000001c0: c98d f53b 5aca 5c3e 77c1 a53e b5ec f1be
000001d0: c581 71bb 0f6d d4be d3f2 733e 3274 a33e
000001e0: 2c07 963e 705a 3b3f 7f07 203e 4772 023f
000001f0: fed3 493e 3675 38bf 2394 4cbe cd82 b2bd
00000200: c7de 20be 9a13 9b3d 6cb0 bcbd d731 c7be
00000210: 3070 14bf 9a36 0bbf 2e57 69be 83f1 0d3f
00000220: 6b92 8e3e be20 243e 762d 8a3a cc0f 933d
00000230: 8297 7dbf 660c 09be ac1c adbe aa80 353f
00000240: 6902 51be 9c54 30be 6abf 263f 7cb8 fd3d
00000250: efbd a33b 84a6 a03d 7edc 143e a4dd 533e
00000260: 575e 983e d2d7 d2be fb84 dfbe f6d2 163f
00000270: a9ea 3dbe bde9 a73e b12e 3f3d 5c7c 833e
00000280: 4f04 773e c9fa f4be 54e9 debd 11a2 693e
00000290: 3270 273f 89f4 acbe b2c7 c53d d2d9 f43d
000002a0: b347 7abe bcee 17bf 1c0b 493d e33c 3d3d
000002b0: 44d2 b8bc 79d2 26be da1b d3be add0 743d
000002c0: a1a4 5b3e e192 d6bd f5e5 593e ff60 cbbd
000002d0: 07d6 1f3e e0fb e83d 319c 333b efd9 ad3c
000002e0: a987 a6bd f4f0 a8be 8dee e93e b076 753e
000002f0: 11d1 28bf 6725 a2be f6ea 45be 55c5 8e3e
-0.06590319 0.20372517 -0.046035998 -0.2763862 0.18328714 -0.14490315 0.40204692 0.4110711
-0.3063248 -0.28673005 -0.28670323 -0.125543 0.1303461 0.09349413 -0.18129812 0.21390109
-0.33052525 -0.11819652 -0.12776205 0.009643701 -0.44934562 0.32190573 0.21916796 0.5086346
0.5220085 0.012562015 0.5125585 0.36844665 0.14506508 0.014390911 0.12845303 0.07529026
-0.22744793 0.14353867 -0.5228375 -0.5141574 -0.817169 0.7834263 0.3651675 0.81691843
-0.8513601 -0.08425708 0.3578082 -0.37230098 1.1474414 -0.24430025 -0.059572067 -0.43176776
-0.66260743 -0.38452148 -0.44198334 0.45922977 0.5583723 0.016028024 0.7655323 0.13998346
-0.55637693 0.49206674 0.22160244 0.0065595084 0.027241109 0.46588317 -0.32261127 0.028203106
0.09413976 -0.35208386 -0.18544371 0.22393459 -0.084669575 -0.2809798 -0.11957171 -0.290438
0.25570634 -0.49899277 -0.032376606 0.3425743 0.023000725 -0.16342735 0.7276266 0.4610278
-0.19312271 -0.48735604 0.16667695 -0.01959099 -0.20342724 -0.05411429 -0.37713793 0.15177214
0.39607626 -0.47587597 -0.13160375 -0.37645757 -0.113575056 0.14707111 0.35768685 -0.45259097
0.35240814 -0.13510728 0.9718646 -0.70031226 0.26884034 -0.18781668 -0.044524238 0.28108335
-0.06680164 0.15593433 -0.5397299 -0.33029312 -0.008571645 -0.050910234 -0.70409095 -0.033847664
0.0074937087 0.21561566 0.32374164 -0.47250906 -0.003685103 -0.41489455 0.23823099 0.31924587
0.29302347 0.7318487 0.1562786 0.50955623 0.19709775 -0.7205385 -0.19978385 -0.087163545
-0.15709983 0.07572098 -0.09213337 -0.38905212 -0.57983685 -0.5438019 -0.22787163 0.5544664
0.27846083 0.16028115 0.0010542113 0.071807474 -0.9905931 -0.13383636 -0.33810937 0.7089945
-0.20411076 -0.17219776 0.65135825 0.12388703 0.004997007 0.0784426 0.14537236 0.20690018
0.29759476 -0.41180283 -0.43656144 0.5891565 -0.18546547 0.32795516 0.046675388 0.25680816
0.24122737 -0.47847584 -0.108843476 0.2281573 0.6540557 -0.33780316 0.096572295 0.119556084
-0.24441414 -0.59348655 0.04908286 0.046200644 -0.0225612 -0.16291226 -0.41232187 0.05976932
0.2144952 -0.10477234 0.21279128 -0.0993061 0.15608989 0.11376166 0.002740633 0.021222083
-0.08131344 -0.32996333 0.45689812 0.23971057 -0.6594401 -0.3166916 -0.19327912 0.27884927

actor.init_internal_node_embed.0.add_bias._bias f4 [32, 1]
00000000: 996d 5bbb c766 633b 6671 00bc 3b93 343d
00000010: 97be c13d 2f3f 8a3b a7e3 91bc b4bc 0cbb
00000020: f00e 323c 3dfc e13d c277 183d 9a26 8d3c
00000030: 1f10 9f3c ff72 6a3c 232d 2bbc 82e9 4fbc
00000040: 939a 013b c6de 983b 1a9c a7bb 52ef 933c
00000050: 03dc c13c d3e4 10bd c8e0 463c ca61 243c
00000060: 4a1a 6b3d dd2d 933b 2e5e 41bb bf58 a0bb
00000070: b768 f0bc c05f d9bb 3110 7dbc 9013 68bb
-0.0033482073 0.0034698711 -0.007839536 0.044085722 0.0946018 0.004218958 -0.017808748 -0.002147478
0.010867819 0.11034439 0.037223585 0.01723032 0.019416867 0.014309644 -0.010447773 -0.01268995
0.0019775971 0.0046652285 -0.0051150443 0.018058453 0.02366448 -0.035374474 0.012138553 0.01003308
0.057398118 0.0044915513 -0.0029505598 -0.004893392 -0.029346807 -0.0066337287 -0.015445755 -0.003541205

actor.init_internal_node_embed.2.module.weight f4 [64, 32]
00000000: 3408 90be fea8 053e e649 79bd 7408 c03e
00000010: 30a4 923f a2c4 523d 4e65 4b3e a73d c03d
00000020: 50f4 d7be 9f86 8dbe 7973 20bf 0029 223e
00000030: 4760 84be 11e4 57be 5243 263d 9e29 60be
00000040: 7264 b33e 625b 05bd 941a c9bd ca58 503e
00000050: 0dfa 3fbe 5751 14be 9d27 7bbe 3b64 f1be
00000060: 0adf 1fbd 6e6a 9e3e a6fd ccbd 6397 423f
00000070: 0d9c 94bd 3062 59be 4793 84be 115a 08be
00000080: 4441 babc 8165 c5be 02b3 91be 3a9c 37be
00000090: d024 dfbd 676b 4e3e fbd6 ddbd 8928 f93e
000000a0: d1b8 71be 2328 4fbe 616a b63e 3912 a2be
000000b0: 0a87 4cbe 3211 513d adfa 9b3d ff67 983e
000000c0: 2903 e6bd bc09 d3bd aca9 14be e9af 05be
000000d0: 888c 8e3e 18b5 063d 567b c73e 4cfd 86be
000000e0: c101 483e bd70 1dbc 6ed3 40bb 4adb cb3c
000000f0: 6048 8abe 0537 e13d 22e1 183f 8241 8ab9
00000100: 9e41 ce3e d57c 17be 2422 92bd e91e 0f3f
00000110: c843 5b3e 3fbe 843e 4edc bfbe d8de 66be
00000120: eb7d 0d3f b6c4 df3d 7b0f dabe e18b 68be
00000130: 3ff9 fc3e 4b66 aabe 79f3 ecbd 93b9 10bd
00000140: e04d 5c3e 8910 e93d 9f3c 26be a92f 0b3c
00000150: 85d4 f2be d86f ee3c 048d 0b3f 3190 81be
00000160: d825 69bd 9ded f8bd 80f0 29bf d206 893e
00000170: 903b 4fbd 09b6 073d c228 783e ef75 10be
00000180: 4497 533d 568b dc3e bd5e b7bd ffc8 eb3e
00000190: 410b 793e 97dc 21be 2654 7fbe 3f0a 2b3e
000001a0: 1d9b bf3e c28e c0bd cec5 233e 8c42 8e3e
000001b0: b597 adbe fd62 b23c 6389 f03d 0be4 8fbd
000001c0: a660 dbbc ca78 61be e83d 663d c027 89bc
000001d0: e191 8a3b 2341 d73c 8d79 ec3e 3fc3 823d
000001e0: 4614 82be 341b 343e 667b c43e afc4 343e
000001f0: 29ff 123e 67de a43e a0fa 753e e6d8 a73d
00000200: 5151 8ebe 2c32 103d ff5f 3e3e 8772 b2be
00000210: 84a8 e4be 0cbe 123d 71a5 31be 6741 a53d
00000220: 7353 823d 28df 103f db85 123f d7ac 1f3d
00000230: 2536 b53c 297f b23d dbcf d0bc d4cb 64bd
00000240: a613 433e a582 093e 8511 bdbd a4ab c5be
00000250: e59f b53e a2ec 853d e685 66bd e1d7 75be
00000260: 7f1b cebd 18dd 25bc 9b46 ed3e 1dc3 86be
00000270: 81e0 993e 5d89 bb3d e05c 34be 05d4 3cbe
00000280: 69cd 23bc 74cb d53d c160 48be 6099 923e
00000290: b481 8e3d f339 f6bc 603a 5d3d a44c 98be
000002a0: 042a d73e 1fe9 8e3e 375f 1a3f 61a2 20bd
000002b0: 3703 c53e 8629 47bd 562f c43e 0896 323c
000002c0: cf77 01bd f417 5abd 45bd 983e 97a8 26be
000002d0: 5762 863e fcfa babd 517b 093e 6c64 893d
000002e0: cb97 35bc 8e09 8abc 8c52 a73b 8adf 95be
000002f0: 38e6 adbc fb46 6c3e 66e3 aa3d ee65 003e
00000300: baac 2dbe 842a babe 05bb 15be a84d 703d
00000310: 0237 03be 513c 823d ad7a 103d 996c 8abe
00000320: 37fe c13d 4961 353f c1e3 2dbe 495a 9c3e
00000330: 1a3e 803e bad8 d03d e703 50be 9f50 cdbc
00000340: ef66 63bd 5760 73be 5951 803e 76eb 7e3e
00000350: 62ec 91be 9027 d03d 5f70 e9be 105f 153f
00000360: 85a8 1ebf ca98 74be c83e c43d 3676 893c
00000370: 186d e63c eae6 033f 24c2 f6be 7aba 8dbe
00000380: a9e9 dc3e 440b d83e b27f 863e d1c3 3c3d
00000390: 378a 7d3d 3118 933d f32a 043f 6587 813e
000003a0: c474 1abf 925c 3ebf a953 d3be 684d 46be
000003b0: bac1 dc3e 7d2f a6be 32e5 03be c729 953d
000003c0: 993a d63b dedf 79bc 8bb9 f63d f0ea cd3d
000003d0: aa65 63bf 4e7c 50bd d457 e43e 970b d03e
000003e0: 6b33 1d3f adef 613e 5cbd ddbe dd42 533e
000003f0: 821f 943d c98a ee3d 12c3 a1be aaf0 81be
-0.28131258 0.13052747 -0.06086149 0.3750645 1.1456356 0.051457055 0.19862863 0.09386759
-0.42178583 -0.2764177 -0.626762 0.15835953 -0.25854704 -0.21083094 0.040591545 -0.21890876
0.3503757 -0.032557853 -0.098195225 0.2034637 -0.1874773 -0.14484154 -0.2452683 -0.47146782
-0.039031066 0.30940574 -0.10009317 0.7601225 -0.07256327 -0.21228862 -0.25893614 -0.13315608
-0.0227362 -0.38554004 -0.28456885 -0.1793069 -0.10895693 0.20158158 -0.1083202 0.48663738
-0.23605658 -0.20230155 0.35628036 -0.31654528 -0.19973388 0.05104179 0.07616172 0.29766843
-0.112310715 -0.10304591 -0.1451785 -0.13055386 0.27841592 0.03288755 0.38961285 -0.26365125
0.19531919 -0.009609398 -0.0029422897 0.024884839 -0.27008343 0.10996822 0.59718525 -0.00026370218
0.40284437 -0.14793713 -0.07135418 0.5590654 0.21412575 0.25926396 -0.37472767 -0.22545946
0.5527026 0.109261915 -0.42589936 -0.2270961 0.4940891 -0.33281168 -0.11569876 -0.035333227
0.21514082 0.11380107 -0.16234063 0.00849525 -0.47427765 0.029106066 0.5451205 -0.25305322
-0.056920856 -0.12154696 -0.663826 0.26763016 -0.050593913 0.033132587 0.24234298 -0.14107488
0.05165793 0.43075055 -0.08953617 0.46051785 0.243207 -0.15806805 -0.24934444 0.16703127
0.3742303 -0.09402229 0.15993425 0.27785146 -0.33904806 0.021775717 0.117449544 -0.070259176
-0.026779484 -0.22018734 0.056211382 -0.016742587 0.004228816 0.026276177 0.46186486 0.063848965
-0.25406092 0.17588502 0.38375396 0.17653154 0.14355148 0.3220093 0.24021387 0.08195667
-0.27796414 0.035204098 0.18591307 -0.34853002 -0.44659817 0.035825774 -0.17348267 0.08069115
0.06363573 0.5659051 0.572355 0.038983192 0.022120545 0.0871566 -0.025489738 -0.05585845
0.19050464 0.13428743 -0.09231857 -0.38607514 0.35473552 0.06539275 -0.05628004 -0.24008133
-0.10063838 -0.010123514 0.4634293 -0.26320735 0.30054095 0.09157059 -0.17613554 -0.18440254
-0.009997704 0.10439196 -0.19568159 0.2863264 0.06958333 -0.03005693 0.05401075 -0.29745972
0.42024243 0.27912232 0.60301536 -0.039217357 0.38479015 -0.048623584 0.38317364 0.010900028
-0.0316084 -0.0532455 0.298319 -0.1627525 0.26246902 -0.09129903 0.13425948 0.06708607
-0.011083554 -0.01685026 0.005106276 -0.2927211 -0.02122794 0.23073952 0.08344154 0.12538883
-0.16960421 -0.36360562 -0.14622124 0.05866781 -0.12813953 0.06359161 0.035273243 -0.27035978
0.09472316 0.7085157 -0.16981412 0.30537632 0.2504738 0.10197587 -0.20313989 -0.025062857
-0.055518087 -0.2376722 0.25062063 0.24894509 -0.28500658 0.10163796 -0.45593545 0.5834818
-0.6197589 -0.2388641 0.09582287 0.01678 0.028128192 0.5152422 -0.48194993 -0.27681333
0.4314702 0.42196095 0.262693 0.046085183 0.06189939 0.071823485 0.51628035 0.2529861
-0.6033442 -0.7436 -0.41274765 -0.19365466 0.43116552 -0.32458106 -0.128804 0.07283359
0.006537747 -0.015251128 0.12047108 0.100545764 -0.88827 -0.050899796 0.44598258 0.40633842
0.6140658 0.22064085 -0.43308532 0.20630975 0.07232572 0.11647565 -0.3159414 -0.25378925

actor.init_internal_node_embed.2.add_bias._bias f4 [64, 1]
00000000: 1e34 0fbc 458d e9bc ec19 8e3d d7d5 d03c
00000010: 0520 b73b 0ecb 4c3d c9c7 2bbc 014e c83c
00000020: 8018 dabc 6ee5 55bd 0c1c 1abc c6db 08bd
00000030: 2ea1 d6bc d901 41bd 67a4 55bd 76ca 30bb
00000040: c3af 913d 97e3 21bc 42cc a0bc a4ea 28bd
00000050: fd3f 87bc 3d9d b33c 26a8 113d 8583 e43d
00000060: ba24 c23b 5888 3abd d97a ae3b eb5b 653d
00000070: c63b 3d3d e28a 2abd 0ee2 c93d 337f 763b
00000080: 04b9 09bd 56a2 6dbd d9d6 58bd 3b5c cdbb
00000090: e3d9 133c ecfd 04bd efc6 843d b403 103d
000000a0: b825 82bd b04e 133d c3a1 853d 730b 243d
000000b0: 524f ec3c c3e0 15bd 026e 2b3d 07b0 e23d
000000c0: 370a abbb 726a 463c d720 423d 85f5 1c3d
000000d0: d05e 29bd c930 40bd 43fc 45bd 9e88 a83d
000000e0: 63ab 2c3d d094 07bd f6ec e13c 53cd a3bc
000000f0: ee27 c1bc 8b9c d4bb 94f2 66bc 489b 2f3c
-0.008740453 -0.028509745 0.06938538 0.025492592 0.005588534 0.049998336 -0.010484644 0.024451258
-0.02662301 -0.052220754 -0.009406101 -0.033412717 -0.026199903 -0.047120903 -0.05215874 -0.0026976145
0.07113602 -0.009880922 -0.019628648 -0.041239396 -0.016510004 0.021925563 0.03556075 0.11157898
0.0059247883 -0.045540184 0.005324703 0.055995863 0.046199583 -0.041636355 0.0985757 0.0037612438
-0.03362371 -0.058016144 -0.05293927 -0.0062670982 0.009024116 -0.03246872 0.06483256 0.03515978
-0.063548505 0.035963714 0.06524994 0.04004998 0.028846417 -0.036591303 0.04185296 0.11068731
-0.0052197236 0.0121103395 0.0473946 0.038320083 -0.041350186 -0.046921525 -0.04833628 0.08229183
0.042155635 -0.033100903 0.027578812 -0.019995367 -0.02357861 -0.006488388 -0.014095921 0.010718174

actor.init_leaf_node_embed.0.module.weight f4 [32, 8]
00000000: b732 4cbe 6e82 b0be ad09 4e3e 835b 453e
00000010: 0a14 fd3c 0cfd 023f d68f aabe 3fc3 9ebe
00000020: b438 e2be 7f71 ebbd 5462 cd3e 498c 5bbd
00000030: 845a 4e3e 4168 58be 968d 7a3e 9304 58bd
00000040: 1f43 2bbb d47f d63d fc4c 68be 4d9a efbc
00000050: 1e8f 7fbe c2ef 84be 6601 a23d b765 c5bd
00000060: c440 c9be 8eeb 153d 62b0 623e 379c c6bc
00000070: bd19 af3e 0b81 833c 137c 80be dba0 493c
00000080: a266 a43c d0ad 0ebf b385 b73e 27ad b5bd
00000090: d22e c0bd e249 a23c 862d 2abe 19bb 113e
000000a0: 7353 b9be 6829 74bc 4316 7cbe 9f2f 3e3e
000000b0: b5dd 24be 604e f83d 3ec0 2bbe 665a 303c
000000c0: abb2 8cbe 2108 5b3e c5bd bfbd cc4e eb3d
000000d0: c843 b5bd 2f2f c7bd 9eb3 393d 9228 273e
000000e0: 8437 4e3e 70a6 433e 8509 d43e dd76 01be
000000f0: c621 2bbe 1b6a ecbc c2df 28bf 7b28 a8bd
00000100: e8f2 2fbd 6017 943d 2398 593e c4c9 1c3d
00000110: e4c0 973d 8506 9d3e a02f 573d 6a5c 323d
00000120: eb02 fdbe 1a15 fabd 1fcb 8a3d eda9 b53d
00000130: bb93 b13e 104e 56be e55d d7ba b95f 04bf
00000140: e696 d0be 8f5f 2c3d 5201 aebe 5616 13be
00000150: 122c f63e e314 8a3e 5b21 6bbe b45d ffb9
00000160: dabe ff3d 57c4 6cbd a8e9 7f3e eb4d 8bbe
00000170: 0c22 87bd ab18 b1be eb3e d63e 2994 583c
00000180: 50d3 65be 9d4c 32be 61f1 bd3e 7cdb df3e
00000190: b5b1 803e c3d4 c53d 4adf ad3e 1e36 de3e
000001a0: 5ef5 063e dd9a b13e a065 833e 82bc 91bd
000001b0: 0696 08bf f3d2 543b 3f4e 4abd eb74 65be
000001c0: 15b1 e93e bdb4 d33e ae2a d33d 7594 c93e
000001d0: 4946 8e3d bac9 403d 2050 0a3e 16e2 1d3e
000001e0: b435 5a3d d4c7 d5bd b91d a3bd 3a07 463e
000001f0: f840 2cbe 688b 9f3e 8dd3 2d3d abae 313e
00000200: 41d7 993e 9cf8 a53e 5e51 d0bd 5f0a ddbe
00000210: 44b5 453c 47d1 82be f785 63be adf6 2d3e
00000220: f243 9ebe 56cd 953e 055d bbbe c32c e43e
00000230: 48bf 25be 360c c2bd 78f0 57be e2f2 623e
00000240: abfe 8f3d af8d 643b f022 13bf 3755 32be
00000250: be9e 793e 5721 ca3e 5811 bf3d b951 23be
00000260: 0857 40be 49b1 1dbd 33f9 ddbe 6577 f7bd
00000270: 0eca 7bbe d157 f6be 863e 7f3e ca62 9fbd
00000280: bf8e 0c3e 5507 c43b 9b83 393e ddc2 ec3e
00000290: cca4 fe3e a8f8 b8bd 7672 963e ada4 9cbd
000002a0: 8d58 8cbe 65ce ea3e d7d8 153e 1600 4ebe
000002b0: 5b36 b13e 0b37 8abe d02c 2bbd 857a 493e
000002c0: 0b76 223e 4548 d4be 3b23 21be 418e b0be
000002d0: 370b c83e f826 b4bc 12fd e13e 0d1c 6b3e
000002e0: f5bc a23d 6daa 093f 6657 643e 8f6a 1cbf
000002f0: c9c2 18be e260 1f3f acdd 0f3e 113e ca3e
00000300: 197a 25be 6d80 87be ec9a 65be caeb 54be
00000310: e8e5 353e 5a38 d8be 5ed5 9abd ca4f 163f
00000320: 61de 283e dfee c1bd 0014 45be 07c2 133e
00000330: 6400 c3be f5f7 69bc 9e2c a2bb cf25 ba3e
00000340: 10cf 96be 232d 2a3e 4c5d be3d 3109 b2be
00000350: 3271 04bf 452d 87be b90b d03e b112 44be
00000360: 7c60 0fbe b0dc 863e 5813 853e d5f3 1a3e
00000370: 3baa cbbd df33 ed3e 655c 9c3e 15dc 43be
00000380: 9efb 723d a435 90bc d9b3 ac3e ffff 0bbe
00000390: 4073 f5bd 7684 fabe 6038 76be d6e0 b8bd
000003a0: 08d9 a53e 7c81 9c3e aab1 67be c979 573e
000003b0: cb91 fd3e dd94 80bd 73cd 243e 624f ffbe
000003c0: caae 3d3d 6526 bfbe 1879 36be 1ba7 afbe
000003d0: f8da 8cbe 6a25 ca3e 9b47 a33d 763a 80be
000003e0: da3d dfbe 8611 6c3d 3aba 59be 46d8 06bd
000003f0: a395 7bbe b5bd 00be 6bf0 8d3e b203 55be
-0.19941221 -0.3447451 0.20120879 0.1927319 0.030893344 0.5116737 -0.33312863 -0.31008336
-0.44183886 -0.11496257 0.4011408 -0.053600583 0.20151716 -0.2113352 0.24468073 -0.052738737
-0.0026132537 0.104736 -0.22685617 -0.029248381 -0.24956939 -0.2596417 0.07910423 -0.09638541
-0.39307225 0.036601596 0.22137597 -0.02424441 0.34199324 0.016052743 -0.2509466 0.012306417
0.02006847 -0.55733967 0.35844192 -0.08870917 -0.0938393 0.01981062 -0.16618928 0.14231528
-0.3619648 -0.01490245 -0.24617867 0.18572854 -0.161002 0.12124324 -0.16772553 0.01076374
-0.27480063 0.2138982 -0.093623675 0.11489639 -0.08850819 -0.097257964 0.045337312 0.1632407
0.20138365 0.1910646 0.41413513 -0.12642999 -0.16712102 -0.028859189 -0.6596643 -0.08210846
-0.042956263 0.07231021 0.21249442 0.038278356 0.07409838 0.30669037 0.052535653 0.043545164
-0.4941629 -0.12211056 0.067770235 0.088703014 0.34683022 -0.20928216 -0.0016431181 -0.5170856
-0.40740126 0.04208332 -0.33985382 -0.14363989 0.48080498 0.2696906 -0.22961943 -0.00048707204
0.12487574 -0.05780443 0.24991477 -0.27207884 -0.06598291 -0.34589133 0.41844878 0.013218918
-0.2244389 -0.17412038 0.3709822 0.4372214 0.2513558 0.09659722 0.3395942 0.43400663
0.13179538 0.34688464 0.2566347 -0.07116033 -0.5335392 0.0032474368 -0.049391028 -0.22407882
0.45642915 0.4134883 0.10310875 0.39371076 0.069469996 0.04706738 0.13507128 0.15418276
0.05327387 -0.10438505 -0.079646535 0.19338694 -0.16821659 0.31161046 0.04243808 0.17351787
0.30047038 0.32416236 -0.101717696 -0.43171975 0.012067143 -0.2555029 -0.22219072 0.1698863
-0.30911213 0.2925822 -0.36594406 0.445654 -0.1618625 -0.09474985 -0.21087825 0.22162965
0.07030996 0.003487449 -0.57475185 -0.1741532 0.24376962 0.3947856 0.0932948 -0.15949143
-0.187832 -0.03849915 -0.43354186 -0.120833196 -0.24588796 -0.48113874 0.24926195 -0.077825144
0.13726328 0.0059823194 0.1811661 0.4624242 0.49735105 -0.090318024 0.29384202 -0.07648597
-0.2741131 0.45860592 0.14633499 -0.2011722 0.34611782 -0.2699512 -0.041790783 0.19675644
0.15865342 -0.41461387 -0.15736096 -0.3448353 0.39071056 -0.021991238 0.4413839 0.2295992
0.07946197 0.53775674 0.22298965 -0.61100096 -0.14918055 0.62257206 0.14049405 0.39500478
-0.16159858 -0.2646517 -0.2242238 -0.20793071 0.17763484 -0.42230493 -0.07560228 0.587155
0.16491081 -0.09469389 -0.1924591 0.14429484 -0.38086236 -0.014280309 -0.0049491664 0.3635697
-0.2945485 0.16618781 0.09295139 -0.34772637 -0.5173522 -0.26401725 0.40633944 -0.19147755
-0.1400165 0.26340246 0.2599132 0.15132077 -0.09944578 0.46328637 0.3053924 -0.19126923
0.059321992 -0.017603703 0.33730963 -0.13671874 -0.11984873 -0.48929185 -0.24044943 -0.09027259
0.32392144 0.3056754 -0.22626367 0.21042551 0.49525294 -0.062783934 0.16093998 -0.49865252
0.04630927 -0.3733398 -0.17819631 -0.3430718 -0.2751081 0.3948167 0.07972642 -0.25044602
-0.43601876 0.0576339 -0.21262446 -0.0329211 -0.245688 -0.12572367 0.27722487 -0.20802191

actor.init_leaf_node_embed.0.add_bias._bias f4 [32, 1]
00000000: db85 ae3d 969c 843a 2d92 d2bd 7889 df3c
00000010: 4921 6e3c 9bf0 8abd 2c2b 273d 44cf f43b
00000020: 6e0a e7bc f842 b13c d36d 993c 599e ccbd
00000030: 6863 143e 19e4 653c 072c be3d 5934 d7bc
00000040: 3385 9e3d 64e5 13bd 4229 bbbd a7ff 56be
00000050: 6e4d 46bd 6497 183b bf15 283c 9969 4fbd
00000060: 8961 7bbe d74f ecbb 0fd2 89be a035 a83d
00000070: eecc 16bd f85b d83d 33d4 1e3b 7ef5 3d3d
0.08521625 0.0010117467 -0.10281787 0.02728723 0.014534303 -0.06784173 0.040812656 0.007470997
-0.028203215 0.021638379 0.018729126 -0.0999114 0.14491045 0.0140314335 0.09285741 -0.026270078
0.077402495 -0.036107436 -0.09138729 -0.20995961 -0.048413686 0.0023283595 0.010259091 -0.050637815
-0.24548925 -0.007211666 -0.26918074 0.08213353 -0.03681653 0.10564417 0.0024235367 0.046376698

actor.init_leaf_node_embed.2.module.weight f4 [64, 32]
00000000: c6c1 853d d9dc 48be 0f86 91be 729d 55bd
00000010: 49a2 6b3e 7195 5e3e add7 c43d 3bf3 7bbd
00000020: 1f74 283e 6e39 0b3e 1419 8d3e c9ad 87be
00000030: a91d 1fbe 89da 033e 86d6 0ebf e5b9 81bd
00000040: b07e 223e b784 003e a6fc 67be 7ec1 d2bd
00000050: 8c3d 1c3e f9e6 7dbe d3d7 983e 0630 c13d
00000060: 3978 803d 5378 afbe 9d73 d3bd 2ece 24bb
00000070: a300 0f3e 05a9 5f3d 7c17 11bd 05aa 33bd
00000080: 3c21 0bbe be4b 7c3e 45e4 e23c 5335 c3bd
00000090: dc3d 1a3d 0325 893e 4293 ad3d 8fcc cbbd
000000a0: 017e 39be 572b 70be 03f7 0d3f ee07 51bd
000000b0: 3942 01be 3423 ff3d 5eb1 0a3e 4e1c 49be
000000c0: 2923 2dbd f375 58be 71f5 5abe 89d5 44be
000000d0: 7e19 82bd 517f eabd 8860 213d f571 2fbe
000000e0: 85fb b7be 3a3c 70be a16d 893c 347e 563e
000000f0: 77b7 8bbe 6f60 e6bd 81c2 9a3e 0ff3 b43e
00000100: d1d9 403e a290 83bc b1e7 00be e6f4 b23d
00000110: e41e c53d 1d91 883c d318 29be 5f02 1d3d
00000120: 2c54 cdbe e73b 00bd 785f d3be 9e66 34be
00000130: 3c34 53be cd41 a13d 3da6 583e a261 42be
00000140: 24b3 a5bd 7f4e b33e 584f 91be e858 eebd
00000150: 7d34 233d 091d 8c3b b42e c83d e880 b8be
00000160: ddfc 81bc d058 583d e1f8 bebd 5cb6 42be
00000170: 1b6b 49be 78cf 7dbd 445a c93d fe3f 1c3e
00000180: 2de2 d9bd 2ea7 443e 0ddf 493e f029 d83d
00000190: ae30 e93d d701 b13d 8db3 04be 5a9f 8d3e
000001a0: 0cb7 253e d7ef 13be 311f 97be a2e4 843e
000001b0: 6368 33be e019 ae3d b6e0 b7bd c26c 093e
000001c0: b0db d6bd a582 913e 6160 b2be 5e42 12bc
000001d0: 28bf 643d 73ac 203c 4069 6ebe b604 f13e
000001e0: ac4f 1f3c 557e 0e3d 46f5 243e 30c8 453e
000001f0: 0c15 993e 6496 9abd 6042 f83d a258 193e
00000200: 1d7e 87bd 4ff5 fbbd f94c 783d ea98 393c
00000210: 90a5 0d3c c330 03bf 4e96 403e a81f 523e
00000220: 87d6 573d 3f54 ae3d 072a 80be e9dc b8be
00000230: 6280 bbbd c269 803e 5e73 573e 55f3 94be
00000240: 9e3c c9be 97b1 b2be 9f4c 843e 6ec6 da3d
00000250: c522 95be 60d3 833e 6ab6 a0bc a039 843e
00000260: 43f0 e7bd 9b22 9abc 8a4a 24be 34c7 8e3e
00000270: bc51 743e de4f 68bd 9b89 b73d 0d91 31be
00000280: f007 383e 95b7 c1bc c210 22be 2758 12be
00000290: 3bca b4be 4ea1 7abe 78c1 b73e a6eb 94bd
000002a0: 7f99 313e 3493 843b a6e5 bebe 8b58 a03e
000002b0: 5a35 0d3f 88b9 453e c564 d03e 8745 97be
000002c0: 7584 573e d090 d3be de46 c4be b3fd 20be
000002d0: 0787 ad3d 46eb 88be a4a2 02be 93bf 383f
000002e0: de21 943d 81a5 93be 350e 91bd 32cb 423e
000002f0: b2a6 1fbe 3b97 9fbd bd1b 8d3d 51ea 37bd
00000300: 6a8b c63e 364f c1be cf66 51bd c265 d9bb
00000310: 9f12 90be 932f bebd 5cb5 1c3e a64e 813e
00000320: 28aa fe3c da41 35be bd31 143e 5901 293e
00000330: 0217 52be 6bde ce3d 77f7 90bd 2cf9 a73d
00000340: a717 b5be 8cec 283f d285 083f 5a39 6e3d
00000350: b8a0 90be ba48 923d 2550 10be 3c73 6f3e
00000360: b656 5a3d 6054 963e 3721 88bd 499f 21bd
00000370: 94b7 15be 1ff7 893e 2a69 583d 1916 24bd
00000380: d0f9 ecbd fb02 cf3d e486 01be dad6 78be
00000390: 0fc5 d939 6df0 bbbd 1111 84be 4631 27bf
000003a0: 04b0 e03d dfe0 1cbe 9625 073e 556c 2c38
000003b0: 3f0b 163e f6df 0e3d 0cc5 a8bd 89c2 b83d
000003c0: 8b70 76be 7417 82be bc59 24bf 083c 36be
000003d0: bbda 033e 6fad e33e bfec d43d 3f35 6dbe
000003e0: 9ddd 84bc 3b8d 603e 9b5d 5a3e 097d 4e3e
000003f0: 33c6 f9be 1426 ab3e 92fb 6d3e 0c9d 55be
0.065311 -0.19615497 -0.2842259 -0.052152105 0.23011126 0.21736695 0.096114494 -0.06151126
0.16450547 0.13596126 0.27558196 -0.26499775 -0.15538658 0.12876333 -0.55796087 -0.06334285
0.1586864 0.12550627 -0.22654971 -0.10290812 0.15257853 -0.2479514 0.2985216 0.09432988
0.06272931 -0.34271488 -0.10324786 -0.0025147307 0.13965087 0.05460455 -0.035422787 -0.043863315
-0.13586897 0.24638268 0.027696738 -0.09531655 0.03765665 0.2678605 0.08475353 -0.09951126
-0.18114473 -0.23454033 0.55455035 -0.051032953 -0.12622918 0.12457886 0.13544223 -0.19639704
-0.04226986 -0.21138744 -0.21382691 -0.19222082 -0.063525185 -0.11450065 0.0393987 -0.17133315
-0.35934082 -0.23460475 0.016775908 0.2094658 -0.2728841 -0.11248862 0.3022652 0.3534169
0.1883309 -0.016060177 -0.12588383 0.08738117 0.096250325 0.016670758 -0.16513376 0.03833234
-0.4010328 -0.031307127 -0.41283774 -0.1761727 -0.20625395 0.07873879 0.21157165 -0.18982556
-0.08090809 0.35020825 -0.28380847 -0.11638051 0.03984498 0.004275922 0.09774533 -0.36035848
-0.015867645 0.052819073 -0.09324814 -0.19014877 -0.19669764 -0.061965436 0.0983167 0.15258786
-0.10638843 0.19204399 0.19713993 0.10554874 0.11386238 0.08642929 -0.12959118 0.27660638
0.16183108 -0.1444696 -0.29515985 0.25955683 -0.17520289 0.08501029 -0.08978407 0.13420394
-0.10491121 0.28419986 -0.34839156 -0.008926956 0.055846363 0.00980674 -0.23282337 0.47073907
0.009723585 0.03478845 0.1610919 0.19314647 0.2989887 -0.07548216 0.12122035 0.14975217
-0.06615851 -0.12302648 0.06062028 0.011327961 0.00864543 -0.5124628 0.18807337 0.20519888
0.052694824 0.085121624 -0.25032064 -0.3610604 -0.091553465 0.25080687 0.21040103 -0.29091898
-0.3930406 -0.34901115 0.25839707 0.10682379 -0.2912809 0.25747204 -0.019618232 0.25825214
-0.11325123 -0.01881533 -0.1604406 0.27886355 0.23859304 -0.056716792 0.08961793 -0.17340489
0.17971778 -0.023647109 -0.15826705 -0.1429144 -0.3531054 -0.24475595 0.35889792 -0.07271509
0.1734371 0.0040458683 -0.37284583 0.31317553 0.55159533 0.19309056 0.4070188 -0.29545233
0.21046622 -0.4132142 -0.38335317 -0.15721779 0.0847302 -0.26742 -0.12757355 0.7216732
0.07233022 -0.28837207 -0.07082788 0.19022825 -0.15590933 -0.07792517 0.06890056 -0.044901196
0.3877824 -0.37755746 -0.051123437 -0.006634445 -0.28139207 -0.09286418 0.15303558 0.25255316
0.031086996 -0.17700902 0.14472099 0.1650442 -0.2051659 0.101010166 -0.0707845 0.08201823
-0.35369608 0.6598594 0.53329194 0.058160163 -0.2824762 0.07142778 -0.14093073 0.23383802
0.05330535 0.29361248 -0.0664696 -0.039458547 -0.14620811 0.2694635 0.052834667 -0.040060136
-0.115710855 0.1010799 -0.12649113 -0.2430071 0.00041536285 -0.09176717 -0.2579427 -0.6530956
0.10971072 -0.15320157 0.13197932 4.1108888e-05 0.14652728 0.034881555 -0.08240709 0.0902148
-0.24066369 -0.25408518 -0.64199424 -0.17796338 0.12876408 0.44468257 0.10396718 -0.23164843
-0.016218955 0.21928875 0.2132477 0.20164885 -0.48784027 0.3342749 0.23240498 -0.2086069

actor.init_leaf_node_embed.2.add_bias._bias f4 [64, 1]
00000000: af20 81bd 7dfd 52bd ed1d 793b c5d1 883c
00000010: d75f 6abd 2c28 a63e 3fda a23d d4e0 8cbc
00000020: aa7e 94bd 09c3 b93d bb85 bfbd da5c 703e
00000030: 1459 60bd b56c 81be 2ac7 06bf 2aed f63c
00000040: 9d9b 8dbd f287 203e 4ff2 50be dcb8 1dbd
00000050: 8cd4 10be 12e0 213e a3c3 103e 0c0c 503e
00000060: 9885 43bd dde1 733e d6c3 7cbe 29db 103e
00000070: 14fb 1abe 55fb 8dbe 50ea d93d d018 2dbd
00000080: aa33 86bd 8bd6 11bb 71ff 6bbe a9a6 1a3e
00000090: e06f debd 30c1 e6bc 9ffb 00be b9cc 85bd
000000a0: ac88 4abe 8c01 883b 3dad 89bb bf41 acbd
000000b0: 76cf 203d bccd b23d 9e81 063d 8db9 873e
000000c0: aaab 953c ecae cb3d 6bb6 ef3d ace0 e4b8
000000d0: b808 07bd c046 0c3e 3812 2bbd f507 94bd
000000e0: 48ed f2bd 4d8f b0bd 425e f2bd 0968 913e
000000f0: 82d2 2c3e 0969 703c b07f 433e 5d10 3bbe
-0.06305062 -0.051511277 0.0038012222 0.016701588 -0.057220306 0.32452524 0.079517834 -0.01719705
-0.07250722 0.09070403 -0.09351679 0.2347292 -0.05477245 -0.2527825 -0.5264765 0.030142386
-0.069144465 0.15676859 -0.20404933 -0.038506374 -0.1414358 0.15808132 0.1413713 0.20317096
-0.047734827 0.23816629 -0.2468408 0.14146103 -0.15134841 -0.27730814 0.10640395 -0.04225999
-0.06552823 -0.0022253122 -0.23046662 0.15102638 -0.10861182 -0.02816829 -0.12595986 -0.065331884
-0.19778699 0.004150575 -0.00420156 -0.084109776 0.03926035 0.08730647 0.032838456 0.26508752
0.018270332 0.09945473 0.11704715 -0.000109137356 -0.0329673 0.13698864 -0.04176542 -0.0722808
-0.11861664 -0.086210825 -0.118343845 0.28399685 0.16877177 0.01467348 0.19091678 -0.18267961

actor.init_next_embed.0.module.weight f4 [32, 6]
00000000: 56a9 5cbf d250 2a3e 2104 abbd 6740 c13e
00000010: a5af 833f 0952 6cbf 88be f83e 9a49 a63e
00000020: cbbc 083c c023 643e 10be 1ebe 798d 03be
00000030: 363b abbd 89c8 c7be b2c4 753e 826f 09bf
00000040: ff69 c43d a666 183d a6f4 ec3f 12a8 113f
00000050: 6baf e53d 19d0 e33e 3a23 d33d 1dee 9abc
00000060: 7cc9 aabe cd0f 76bd 60cc 45be be29 3a3e
00000070: 6748 bd3c fa1f 41be 4491 29be 70ed eb3d
00000080: 3dd2 ea3e fb0d ab3d 67cf d8bd dcb9 b63c
00000090: baf6 283e 257a 68be 03a7 c0bc 0d13 b4be
000000a0: 6eb9 83be 312e a33e 7271 4ebe 5b3c bbbe
000000b0: a5ce 813e 2d9c f53d 8361 11be 5c45 573d
000000c0: 72d1 2bbe 9e98 82be 20c8 af3e a10c 89be
000000d0: e960 a43d c796 e5bc 17cd bfbe c81e 21be
000000e0: e18f 14be ac19 c93e a619 76be 8a17 04be
000000f0: 0088 2e3f bcdc 42bd 1fe4 18be 3f77 f9be
00000100: ebae 6ebe 2c6f c03d ee03 0f3e 0353 42be
00000110: 5b24 95be 404c a13d 1682 62bd 4fa6 d4bd
00000120: 2e75 cd3e 41a7 28bf d1ae 32bd bf23 91bd
00000130: 1a03 213d 7b65 f1bd 03e2 6a3e 311c 85be
00000140: 937a 9e3e c994 4b3e b950 b53d 377f 5dbe
00000150: e69a 853f 8cfc 593d 48ba d8bd 86db 0ebf
00000160: 91d5 5cbe f251 203f 1539 133c c0c9 8c3d
00000170: b5a4 6e3e 0470 9ebe ee8b 0bbd 4e55 7ebe
00000180: 4bab 26be 99f8 13be 79e2 02be 6b65 1bbc
00000190: c11a 7d3d a96e 9d3e 0a1e 473e be9e e83e
000001a0: dde7 fe3e 0471 c73e aff9 3a3d b484 0a3e
000001b0: 000f 33be 7c35 6ebc 26dd b1be d5cd 64bd
000001c0: 5fcc f7bd 6868 d7be 61a4 f13f 307c 65be
000001d0: c0d7 463e 9c53 253c 33ba c93d 5628 96bd
000001e0: b4e6 be3d c4c6 ba3e e633 243e 2a49 c2be
000001f0: 932d 64be d886 553e 3cb1 493f 768e 35be
00000200: f614 aa3d da3d fb3e 2bd7 183e b068 87be
00000210: 6ee2 6abe a690 e23c adac babd 49a3 573d
00000220: ecde c7be 87d9 71bd 2e98 cf3c 4a39 42be
00000230: 5232 06be ab44 eebe 9fe6 9bbd ee03 70be
00000240: a738 98be 09fb 95bd d3cd ac3e 7930 cabe
00000250: 5a96 0c3f 40a2 e6be 23c6 303e ab12 54bd
00000260: 6e6b 113d ae4d 06bf 499d 25bf 094a 783e
00000270: a52d d0be 7e9e 2ebe 98f9 da3e 852d 8d3e
00000280: a46a dcbd 01ad a1be 0502 0f3e f6a5 c8bd
00000290: 724c 0d3e 6e1f b2bd 7e43 4dbc 1d8f 95be
000002a0: 525d 09be fefa d73d a5f1 04bf 8dcf 89be
000002b0: 4e4d 43bd c019 c3bc f453 453e 767b 2ebd
000002c0: 8101 a93e 40ef 97be 8771 0fbe 0537 283d
000002d0: d985 3bbe 2a72 b7bc e3aa 81ba a3f4 96bd
000002e0: 5d80 28bf e39c 123f 92de 803d be4c e1bd
000002f0: 4dc5 1fbe fa92 babd a34e c93b e108 31be
-0.86195886 0.16632393 -0.08350397 0.37744448 1.0287977 -0.92312676 0.48582864 0.3247803
0.008345793 0.22279263 -0.1550219 -0.12846936 -0.08360903 -0.39020184 0.24000815 -0.5368577
0.0959053 0.03720727 1.8512161 0.5689708 0.11215099 0.44494703 0.10309453 -0.01891237
-0.33356845 -0.060073663 -0.19316244 0.18179986 0.023105813 -0.18859854 -0.1655932 0.11519897
0.45863524 0.08352276 -0.10586434 0.022305422 0.16500369 -0.22702844 -0.023517137 -0.35170785
-0.2572741 0.3187118 -0.20160463 -0.36569485 0.2535297 0.11992679 -0.14197354 0.05255638
-0.16779116 -0.25507063 0.3433237 -0.26767448 0.08026297 -0.028025998 -0.3746116 -0.15734398
-0.1450801 0.392774 -0.24033222 -0.12899604 0.6817627 -0.04757379 -0.14930771 -0.4872379
-0.23308913 0.09396204 0.13966343 -0.18976979 -0.291293 0.07875872 -0.05529984 -0.10383283
0.40128464 -0.6588021 -0.04362375 -0.07086896 0.0393096 -0.11786934 0.22937779 -0.2599807
0.30952892 0.19880976 0.08853287 -0.2163056 1.0437896 0.053219363 -0.10582405 -0.55803716
-0.21565844 0.6262504 0.008985777 0.06874418 0.23305018 -0.30944836 -0.034068994 -0.24837229
-0.1627628 -0.14450301 -0.12781705 -0.009484629 0.061793093 0.3074849 0.19445053 0.4543361
0.49786273 0.38953412 0.045648273 0.13527185 -0.17486191 -0.014539119 -0.34739035 -0.05586036
-0.120995276 -0.42071843 1.887829 -0.22410655 0.1941824 0.010090735 0.09849968 -0.07331912
0.09321347 0.3647977 0.16035423 -0.37946445 -0.2228301 0.2085222 0.78786063 -0.17730126
0.08304779 0.49070626 0.1492583 -0.26447058 -0.22937939 0.027656864 -0.091149665 0.052645955
-0.39037263 -0.05904534 0.02534112 -0.18967167 -0.13105133 -0.46536765 -0.07612347 -0.23438999
-0.29730722 -0.07323272 0.3375078 -0.39490107 0.5491692 -0.45045662 0.17263083 -0.051775616
0.035502844 -0.5246228 -0.64693123 0.24246992 -0.40659824 -0.17052647 0.4276855 0.2757379
-0.107625276 -0.31577304 0.13965614 -0.097972795 0.13798693 -0.08697401 -0.012528298 -0.2921075
-0.13414505 0.1054592 -0.5193122 -0.2691616 -0.047681145 -0.02381599 0.19270307 -0.04259821
0.3300896 -0.2967472 -0.14008151 0.041068096 -0.18312778 -0.022393305 -0.0009892847 -0.073708795
-0.65820867 0.5727064 0.06292452 -0.110009655 -0.15602608 -0.09110065 0.0061434074 -0.17288543

actor.init_next_embed.0.add_bias._bias f4 [32, 1]
00000000: 5ebf 40be fb12 91bc 6b00 f3bc 1045 2b3f
00000010: bae0 50bd 21db 8ebc 9a20 033e f743 8cbd
00000020: e4e0 c1bd d72e 0abe 1a43 97be 007e e7bd
00000030: 9dd9 86bd bd3c 093e 247e 1e3f 45f4 debb
00000040: 2f7f 7dbc 90be bc3c c95f 7d3d a85e f83e
00000050: 37cf 84be 2355 debd cb0d f83c 7a05 ad3c
00000060: 6217 b4bd e86a 84be d818 79be c927 063e
00000070: 587f 1dbe 1107 5d3e 304d 4a3c f072 39bd
-0.18823001 -0.017709246 -0.029663285 0.66902256 -0.050995566 -0.017438473 0.12805405 -0.06848901
-0.094667226 -0.1349443 -0.29543382 -0.113033295 -0.06584475 0.13402076 0.61911225 -0.0068040215
-0.015472217 0.023040086 0.061858926 0.48509717 -0.25939342 -0.10856082 0.030280015 0.021120775
-0.087935224 -0.25862813 -0.24325883 0.13101114 -0.15380609 0.21584727 0.0123475045 -0.04527563

actor.init_next_embed.2.module.weight f4 [64, 32]
00000000: 9fb1 a1be ce90 5d3d 9a9a 243e 7260 8b3e
00000010: 5982 313e b624 b3bd 5141 f33e 44f8 8c3e
00000020: f6b1 043e 888d 1c3d 37a2 703e a03b 2abd
00000030: 8922 693d 11eb 2b3c a85e 5f3f 46ad 91bc
00000040: f25c 9e3e 5ce4 2c3e 98a5 acbc 826f ac3e
00000050: 61d3 803e 30cd babe bca5 7b3e c090 373f
00000060: dfdb ae3d 3f4e 253e 8500 be3b 7ff6 0dbe
00000070: cdd8 13bd 6826 cb3d d3a2 293e a0ec d4bd
00000080: b72b fd3d 13ee f7bb 35eb 59bd 2ccd f4be
00000090: 8c54 4b3e 367c 393e cc1f dbbe 05a6 f63d
000000a0: b480 13bd 68d1 af3d 7977 adbe 5858 61be
000000b0: 1475 03be c227 44bd 2164 13bd cade 943e
000000c0: b919 a4bd 6c48 bd3d a292 1d3e 8649 47bf
000000d0: 77a6 d4bd 4e80 e4be a06c 65be 351f 103d
000000e0: 4ace b8bd f331 a03d 6c19 5f3d 7eb5 a6bd
000000f0: b8e8 a03d 57a0 2dbe 3dc1 17bd 86d0 04be
00000100: 3f55 273e 2d8f d33e 458c 073e a207 0e3f
00000110: cbf0 803d 211d 8b3d e227 8d3b 2f02 6dbe
00000120: efdb 113e 0e86 fdbd f67f 03bc c753 0d3d
00000130: e3b7 bc3d 7a31 79be 71ee 813e 829e ec3b
00000140: ec11 923e e519 5dbd 4268 263d 1633 8b3e
00000150: ff37 64be 205f 1d3f 5d92 2e3e 0a60 dabd
00000160: d18a 043e 5e12 96be 97f3 dd3c 73b5 a53d
00000170: 629a 843e 48b3 bcbd e11c adbe 549f 363e
00000180: e787 b73e cf01 4d3e 5384 68be 36ea 953e
00000190: 60af 3b3e 8e02 22bd aa98 e13d 1873 eabc
000001a0: 0663 5d3b a698 c73e 98d0 bbbd 3224 063e
000001b0: 316e ba3d 5462 733e 5eb4 86bc fe5c a83d
000001c0: 8778 db3e 919b 0c3e 296c d6bd f3b0 003f
000001d0: 2b6e c63d 8d36 e93d 2892 03be 1439 e8be
000001e0: e7cc c1bd 1001 35be ba7a 91be 848c a53d
000001f0: d330 f33d 2a1d 2cbd 996e 343d e662 063d
00000200: 9539 0f3f fdb9 b73c e21c 36be 43e0 46bd
00000210: d89c 5e3e a292 f43d d5ec d2bd 8937 263e
00000220: d4c6 303e e478 b7bd f46b 65be 186d 6bbd
00000230: e409 63bd 81fe 9abe 6d80 cfbe ea73 a8be
00000240: b5b6 753e a947 483d ae51 273d 7f87 b7be
00000250: 6387 213e fde4 483e 7314 9abc 07aa dfbe
00000260: e605 393e efd3 bc3d af63 333e db31 b7be
00000270: a18c 813d 7c55 fe3c cf2a abbc d850 f0bd
00000280: c34f 4dbe 6a40 c1be 03a8 f4bd 6ac9 983e
00000290: 7249 853c 535f 623e d55b 89bc 8212 183e
000002a0: 21eb bb3d d2cc 093e 0bf9 7bbd 8066 893c
000002b0: c873 5ebd 0ae3 633d 66ec 973d e2f9 033e
000002c0: 8a2f f3bd 4fac 673d 49a7 2d3e c198 403f
000002d0: d925 26be 93c8 32bd dcd4 8a3d 56f3 43be
000002e0: 48b3 5ebe 3275 94be 916c f8bd dee3 733e
000002f0: 0b17 f93d 6971 cfbd c4d3 a6bc 5ca8 2bbe
00000300: dd55 ee3e 4eff 75be f388 d8bd ceb7 11bf
00000310: 267f ebbc b4c1 133c 3086 afbe 0d94 71bc
00000320: 2e09 f13e cf31 6a3d ba56 a3bd a2c3 54be
00000330: 7153 9bbe 1845 043e ac77 39bf 2cb1 8ebe
00000340: d328 0fbe ea57 ee3e a8bf b3be 50b5 12bf
00000350: dc57 84be 7a92 5d3e 0bc9 7d3d fbed eabe
00000360: 7daa fdbc 9f2d 8ebe 7cf7 413d 24c3 55be
00000370: 024e 14bd 9cb3 93bc dfee 88be bedf 153e
00000380: 5aad fb3d 0349 b93d 06da b0bd 9163 e83d
00000390: b4d1 dd3d 09ec abbe 2b81 a1be f05f 173e
000003a0: c1cb 2ebd 6b0f de3d eb2d af3d 1a26 4a3d
000003b0: dc9b b83e e201 21bd 8884 843e 0295 1dbe
000003c0: 41a6 10be 2f4e f9bd c88d 743d 8f1f 4abd
000003d0: 2965 f6be f736 b2bd 2db1 2f3e 7e5f 9e3e
000003e0: de10 693e 2315 403e e9fd 90be 27e6 e23b
000003f0: d463 5ebe ffcb 96bd 9d62 bd3e 9be2 4e3d
-0.31580827 0.054093175 0.16074601 0.2722202 0.1733488 -0.087472364 0.4751077 0.27533162
0.12958512 0.038220912 0.2349938 -0.04156077 0.0569177 0.010493056 0.8725381 -0.017782819
0.30930287 0.16883987 -0.021075055 0.33678824 0.2516127 -0.3648467 0.24574941 0.71705246
0.08538031 0.1614313 0.005798402 -0.13863562 -0.03609543 0.09919435 0.16566019 -0.10396695
0.123618536 -0.0075662225 -0.053202827 -0.47812784 0.19856471 0.18113789 -0.42797697 0.120433845
-0.036011413 0.08584863 -0.33880213 -0.22006357 -0.1283763 -0.04788948 -0.035984162 0.29076225
-0.08012719 0.09242329 0.15387967 -0.7784656 -0.10383313 -0.4462914 -0.22404718 0.03518601
-0.090237215 0.07822027 0.054467604 -0.08140086 0.078568876 -0.16955696 -0.03704952 -0.1297017
0.16341113 0.41320172 0.13237102 0.55480397 0.062959276 0.06792665 0.004307733 -0.23145364
0.14244054 -0.123790845 -0.008026114 0.034503724 0.09214761 -0.2433528 0.2537723 0.007221044
0.28529298 -0.053979773 0.04062677 0.27187413 -0.22286986 0.61473274 0.1704802 -0.10662849
0.1294358 -0.29310888 0.027093692 0.08091249 0.25899035 -0.09213883 -0.33811095 0.17834216
0.35845873 0.20020221 -0.22706728 0.2928025 0.18328619 -0.039553218 0.110154465 -0.028619334
0.0033780946 0.3898365 -0.091706455 0.13099745 0.091030486 0.23767978 -0.016443428 0.08220862
0.42865393 0.13731219 -0.10469849 0.50270003 0.096889816 0.11387358 -0.12848723 -0.45356047
-0.0946291 -0.17676187 -0.28413945 0.08083442 0.11874547 -0.04202 0.044050787 0.03280916
0.5594724 0.022427553 -0.17784455 -0.048553716 0.21739519 0.119420305 -0.102990784 0.16232122
0.17263347 -0.08958605 -0.22404462 -0.057477087 -0.055429354 -0.30272296 -0.4052767 -0.32900935
0.23995478 0.048896465 0.04084938 -0.35845563 0.15774302 0.19618602 -0.01880858 -0.43684408
0.18068656 0.092201106 0.17518495 -0.35780224 0.06325651 0.031046622 -0.020894436 -0.1173417
-0.20049958 -0.37744457 -0.11946108 0.29841167 0.016270373 0.22106676 -0.016767422 0.1485081
0.09175707 0.13457039 -0.061516803 0.016772509 -0.054309636 0.055636443 0.07418136 0.12888291
-0.11874302 0.05656081 0.16958345 0.75233084 -0.16225375 -0.043648314 0.06778881 -0.19135794
-0.21748078 -0.28995663 -0.121300824 0.23817393 0.12162598 -0.10129053 -0.02036465 -0.16763443
0.46549883 -0.24023172 -0.10572996 -0.5692109 -0.028747153 0.00901835 -0.34282064 -0.014744771
0.47077316 0.057176407 -0.07975526 -0.20777753 -0.30337098 0.12916982 -0.7244823 -0.27869546
-0.13980417 0.46551448 -0.3510716 -0.5730791 -0.2584828 0.21637908 0.061959308 -0.4588469
-0.030965084 -0.2776918 0.04735516 -0.20875221 -0.036207207 -0.01802998 -0.26744744 0.14636132
0.122889236 0.09047129 -0.08635335 0.11347116 0.10831013 -0.33578518 -0.3154386 0.14782691
-0.042674784 0.108427845 0.0855368 0.049352743 0.3605641 -0.039308436 0.25882363 -0.15388873
-0.14125921 -0.121731155 0.059705526 -0.049346503 -0.48124054 -0.0870189 0.17157431 0.3093223
0.2276034 0.18758063 -0.28318718 0.006924409 -0.21717769 -0.07363128 0.36989298 0.050509077

actor.init_next_embed.2.add_bias._bias f4 [64, 1]
00000000: 6f91 233f 3934 5ebf 3b89 2f3f 96d5 3e3f
00000010: 5289 8dbe be1f f63e 0362 27bf 7558 7a3e
00000020: 8073 cbbe dfb9 07be 44e6 cfbe 85ce 853e
00000030: 7c8d c23e 781a 04bf 3fc0 43bf 92f3 be3e
00000040: 0679 2a3e 1a45 5e3f 0686 81bf 6198 2dbf
00000050: a911 0ebf ffa5 af3e 54ff ebbc f6bc 133f
00000060: e8b5 80be 1d79 16bf 114f c9bd 003f 153e
00000070: 2abb cabe 6c95 8ebe 54a1 11be 8733 203f
00000080: 3d2e 9b3e d955 0a3f e8f7 a63f 3083 d23e
00000090: 3b41 ecbe 3216 a43e 7c8f 2cbe c589 123f
000000a0: 206a 74bf f14e 7dbf f61c e3be 0779 bb3e
000000b0: b898 30be 14c6 21bf 1c4c bebe 81c0 093f
000000c0: a4c1 333e 0d72 12bf 0fcd 45bf c13c cabe
000000d0: b7d5 033f b883 59be e77f 71be 16fa 22be
000000e0: a04c 8cbe f430 9ebe 396f 20be 9a02 893e
000000f0: 4b10 5fbe d215 503e dd43 a23b 7455 4f3f
0.6389379 -0.86798435 0.6856877 0.74544656 -0.2764383 0.48071092 -0.6538393 0.24447806
-0.39736557 -0.13254498 -0.40605366 0.26134124 0.3799857 -0.5160289 -0.7646522 0.37295204
0.1664773 0.8682419 -1.0119026 -0.67810637 -0.554957 0.34306332 -0.028808273 0.57710207
-0.25138783 -0.58778554 -0.09829534 0.14574814 -0.3959592 -0.27848375 -0.14221698 0.62578624
0.30308715 0.54037243 1.3044405 0.41115713 -0.46143517 0.32048184 -0.1685161 0.5724147
-0.95474434 -0.9894858 -0.44358033 0.36615774 -0.17245758 -0.6319287 -0.37167442 0.5380936
0.17554337 -0.5720528 -0.7726602 -0.39499477 0.5149798 -0.21241653 -0.23583947 -0.15915713
-0.2740221 -0.30896723 -0.15667428 0.26759797 -0.21783559 0.20320824 0.0049519376 0.80989766

actor.embedder.layers.0.0.module.W_query.weight f4 [64, 64]
00000000: 7d7f 55be 8c15 bd3d c469 aabd 612f 7bbd
00000010: 457c d8bd e00e 10bd e398 c6bd d82b cdbc
00000020: 13b7 3bbd e0cc 89bd 5327 c23d a58d 97bc
00000030: 3e68 8e3d 0735 6d3d af08 043e 7f93 68ba
00000040: 4f70 cfbd e1e0 13bd ba3f 703d 28df 253e
00000050: 0392 94bd b516 eebc e109 a4bd d12e 55be
00000060: c291 723c 22e9 c3bd f3b8 873d 92b4 a2bd
00000070: 942d fdbd 7abc 1f3e cfae 73be b8ae da3d
00000080: 5adc d73d 257b f2bd 9108 02be 7986 8dbc
00000090: 68a9 74bd c118 c23d 6a6b 603d 4df0 a53c
000000a0: f18c 653e dd46 c3bd f0ae 38be 2be4 50be
000000b0: 93a5 863d ea17 83be 9c86 013e bb6c f63b
000000c0: 7f88 ce3d 5fe2 eebb 6aa1 4fbe 0b7c 42bd
000000d0: 8ccc 0abe e99e a1bd a746 51bd ea20 ecbc
000000e0: 6495 4bbe 4a2c ccbd a776 dcbd 30b3 0a3e
000000f0: 3b7f 22be da21 7a3c 83ee e33d e160 bc3d
00000100: a04d a83d 9088 f33d fc15 52bd 10cc 013d
00000110: a962 febd a16d e63d 7f9c 903c caf6 953d
00000120: fd9f 033e b4b1 c6bd 030b aebd 34e4 67bd
00000130: 6c17 223d 41ac 39be 6048 ee3c b7d1 b3bc
00000140: bb66 82bd d33e c53c e61d fbbd 9665 a73d
00000150: e3e0 a93d 9046 073d 5e3c 1e3d b930 c9bd
00000160: 45fa 053e 4c8a 6fbe 9c18 3c3d dd17 d6bd
00000170: 5a6b b93d f0e1 50bd 724c 853b d9cb 943d
00000180: 1871 02be 854b 623d 1027 013e de3d 10be
00000190: 62f9 86bc a5da b0bd cfa1 8dba 3d61 fa3d
000001a0: 9099 703d 7d8a aabb 22bb 013c 93e6 dc3d
000001b0: fda6 8f3d 4cb9 5e3d 3824 d1bc 9afe f9bc
000001c0: 9bb3 fabd 7e8e cb3d 6672 b1bb cb21 ae3d
000001d0: b304 0c3d e47a 21be b83c 01be 5f77 243e
000001e0: 7839 a13c a2ac e13d f054 cf3d 3cbe febd
000001f0: 0716 3a3d ac33 3ebd 2fed 85be a21b b83d
00000200: 31c4 c9bd 14ae f13d 87d1 c73d db05 86bd
00000210: 4939 22bd bf8d 4f3e 0522 00be 24ca ae3d
00000220: df20 083d b931 793d cb74 02be 9d64 603e
00000230: ecfb 5abd 1001 c63c 1486 7abe 5103 03be
00000240: dbdb 173d 7f00 a83d 23e1 2fbe 9085 cdbd
00000250: 1119 523d f131 fa3d 8a1c 6ebd 6555 133d
00000260: 8906 563c 8f5c 643e 2cc2 f5bd 8609 0b3c
00000270: cd3c f43c fca9 37bd c970 e63d 3012 c8bc
00000280: 8df4 bc3d 1755 763c 6990 90bc b05e eb3d
00000290: 2fba e4bd 8b0e b03d eeb4 fbbd 1b06 23be
000002a0: 4a13 f3bd 0da0 df3d a04a ba3d 54f5 15be
000002b0: 756b cebd d6ca c33b e3a2 443c a459 2a3d
000002c0: fe4c 623c 1541 b7ba b9e9 863c 07aa 1c3d
000002d0: c9ca 51bd 06fe eb3d 2b34 83bd 98e3 0cbe
000002e0: 26dd 813d 54e9 01bd 677b 61bd 5190 503e
000002f0: a31f 413e 75b0 92bd e46a 423e 0c17 4c3d
00000300: 68f7 433d 2c26 0f3e 075e 173d 8519 653e
00000310: c7b0 10be 20f2 4b3d 0d8b f4bd d85c 4bbe
00000320: 5dea 24bd de60 25bd 3132 26be 260a a1bd
00000330: ae7e c0bd f5d3 1fbd 6c43 d6bc d1d6 793d
00000340: 3c63 f4bd 0197 933d 28f4 9ebc 2b36 9bbc
00000350: 9304 313e 3d88 613d ebdb 4b3b 3e61 e4bc
00000360: d237 04bd 17c5 ef3d b3db 02be e69a c4bd
00000370: 9695 eb3d 43ac 083e 1d3a 80be 7b8d 06bc
00000380: 69ae 563e 8617 95bd 4129 a63d 599c 09bd
00000390: 4e36 003e 822e 973d c7bb 223e 18a2 f03c
000003a0: 4a4e f23d 3efd 373d 1ba6 fb3c b843 2b3e
000003b0: d62a dbbd 2b20 b3bd 3525 b63d 21e1 d5bd
000003c0: a88b fd3c b359 8e3d fe30 dabd 8efd 523d
000003d0: 5a1e dcbd 5e2f 8ebc 1e60 ae3b 793f de3d
000003e0: c73a 28be c716 bbbb f392 013e 78ab 51bd
000003f0: 5051 5ebd 52bf f0bb 227f d1bc 730a 063e
-0.20849414 0.09232625 -0.083209544 -0.06132448 -0.105705775 -0.035170436 -0.096971296 -0.02504532
-0.04582889 -0.0672853 0.09480157 -0.018500159 0.06953476 0.0579119 0.12893938 -0.0008872076
-0.10128843 -0.036103133 0.058654524 0.16198409 -0.07254412 -0.029063562 -0.08009697 -0.2081864
0.014805259 -0.09565951 0.06627073 -0.07944597 -0.12362209 0.15599242 -0.23797153 0.10677856
0.105400756 -0.11839894 -0.1269858 -0.017276036 -0.05973187 0.09477378 0.054789938 0.020256186
0.22417046 -0.095350005 -0.18035483 -0.20399539 0.065745495 -0.25604182 0.12649006 0.007520286
0.10084628 -0.007290169 -0.20276418 -0.047481578 -0.13554591 -0.07891638 -0.05109277 -0.028824288
-0.19881207 -0.09969385 -0.10764819 0.13544917 -0.15868847 0.01526686 0.11129477 0.09198166
0.08217931 0.118912816 -0.051290497 0.03168875 -0.12421162 0.11251379 0.017652748 0.07322462
0.12854 -0.09701863 -0.08498194 -0.056614116 0.039573118 -0.18132116 0.029087245 -0.021950586
-0.063672505 0.024077808 -0.12261562 0.08173673 0.08294847 0.033026278 0.03863179 -0.09823746
0.13083751 -0.233926 0.045921907 -0.1045377 0.09053679 -0.05099672 0.004067951 0.07265443
-0.12738454 0.055247802 0.12612557 -0.140861 -0.016476337 -0.08635453 -0.0010805669 0.12225578
0.0587402 -0.0052044974 0.007918151 0.10786166 0.07014272 0.05437593 -0.025529966 -0.030516911
-0.12241288 0.099392876 -0.0054152487 0.08502539 0.03418417 -0.15769535 -0.12620819 0.16061161
0.019680724 0.11019255 0.101236224 -0.12438628 0.045431163 -0.046435997 -0.2615752 0.089896455
-0.09851874 0.11800781 0.09756761 -0.065440856 -0.039605413 0.20268916 -0.12512977 0.08534649
0.033234473 0.060838435 -0.12739865 0.21913381 -0.053462908 0.024170429 -0.24465209 -0.12794234
0.037074905 0.082032196 -0.17175727 -0.10035241 0.051293436 0.12216557 -0.058132686 0.03597011
0.013063082 0.22300933 -0.11999926 0.008486157 0.029814148 -0.044839844 0.11251981 -0.024422735
0.09226332 0.015034935 -0.017646985 0.114926696 -0.11168324 0.08596524 -0.12290369 -0.15920298
-0.118689135 0.10919199 0.09096265 -0.14644367 -0.100790896 0.0059751077 0.012001726 0.041589394
0.013812302 -0.0013981188 0.01646887 0.03824809 -0.05121878 0.115230605 -0.064064346 -0.13758695
0.06341009 -0.03171666 -0.055049326 0.20367552 0.18859725 -0.07162563 0.18986088 0.049826667
0.047843367 0.13979405 0.036954906 0.22373016 -0.14129935 0.049791455 -0.11940584 -0.19859636
-0.04026257 -0.040375583 -0.16230084 -0.07863264 -0.09399162 -0.039020497 -0.026155196 0.06099588
-0.1193299 0.07206536 -0.019403532 -0.018946728 0.17286901 0.055061568 0.0031106423 -0.0278784
-0.032279797 0.11707514 -0.12779121 -0.09599857 0.11503141 0.13346963 -0.25044337 -0.0082124425
0.2096497 -0.07279877 0.08113337 -0.03359637 0.12520716 0.073819175 0.15891944 0.029374167
0.11831339 0.044919245 0.030718854 0.16725051 -0.1070153 -0.0874637 0.088938154 -0.104433306
0.030950382 0.069507025 -0.10653876 0.05151134 -0.107479766 -0.01735657 0.0053215167 0.1085195
-0.16428672 -0.0057095024 0.12653713 -0.051188916 -0.054276764 -0.007347026 -0.025573317 0.13089924
