trained_models/experiment/Discrete_A2C_20x10x10Bin_s42_inh_800_defaultBox-2022.08.19-00-03-54/PCT-Discrete_A2C_20x10x10Bin_s42_inh_800_defaultBox-2022.08.19-00-03-54_2022.08.19-06-17-41.pt (torch, 236314 bytes, 24 tensors)

actor.init_internal_node_embed.0.module.weight f4 [32, 6]
000000 55 1a 90 bd 3d d7 59 3e 1d b0 31 bd af ca 89 be
       -0.070362724 0.21273513 -0.043380845 -0.26912448
000010 2a 79 30 3e 3c 79 15 be b7 f8 cd 3e 1d 8b d1 3e
       0.1723372 -0.14597028 0.40228817 0.40926448
000020 23 cb 9d be e3 f3 92 be 07 9c 91 be 4f fd 02 be
       -0.30819044 -0.28701696 -0.28439352 -0.12791942
000030 ac 9c 01 3e 9f 91 cd 3d db 47 3b be da 19 5a 3e
       0.12657422 0.10037541 -0.1828913 0.21298924
000040 fa 4f ac be d2 3c e8 bd c5 82 03 be 31 48 36 3b
       -0.33654767 -0.113397256 -0.12842853 0.0027814026
000050 f2 0d e5 be 4c c3 a4 3e 76 12 68 3e fa 5f 01 3f
       -0.44737202 0.3218025 0.22663292 0.50537074
000060 51 2a 05 3f b6 aa 40 3c 7b 87 03 3f 8d 7a bc 3e
       0.52017695 0.011759451 0.513786 0.3681225
000070 8b 2c 17 3e 71 f1 81 3c a0 a0 11 3e c2 e3 8f 3d
       0.14763086 0.015862199 0.1422143 0.07025863
000080 75 d9 66 be 0b 87 1c 3e aa 62 08 bf 7e 45 03 bf
       -0.22543891 0.1528589 -0.5327555 -0.5127791
000090 eb 99 4e bf 99 8a 48 3f 69 9d b8 3e ca 84 4e 3f
       -0.8070361 0.78336483 0.36057594 0.8067137
0000a0 11 5e 59 bf 74 24 a7 bd a3 7c bb 3e f3 65 c0 be
       -0.8490916 -0.0816125 0.36618528 -0.3757778
0000b0 0e ad 92 3f 0c cc 81 be c8 6f 61 bd 57 ec db be
       1.1459062 -0.25350988 -0.055038244 -0.4295375
0000c0 a6 e4 2a bf 3a 5f ca be e6 7c e1 be 2b 87 ec 3e
       -0.6675514 -0.39525777 -0.44040602 0.46196875
0000d0 64 6a 12 3f 72 f6 1c 3c 3a c1 43 3f 81 c5 15 3e
       0.5719359 0.0095802415 0.76466715 0.14626123
0000e0 17 f9 0d bf 0d 32 fd 3e 8f fc 5d 3e 20 b8 98 3b
       -0.55458206 0.49452248 0.21678375 0.0046606213
0000f0 06 36 f2 3c 4a 34 ed 3e b4 aa a7 be ce ed ce 3c
       0.029566776 0.46328956 -0.32747424 0.025259878
000100 f2 4d ca 3d ed 0e b5 be fb 4b 45 be 7b 77 62 3e
       0.09878148 -0.3536295 -0.19267265 0.2211589
000110 c0 2a a1 bd 8d 9f 8b be d7 01 f4 bd 32 ac 95 be
       -0.07869482 -0.27270165 -0.119144134 -0.29232937
000120 d3 bc 86 3e 93 ac 00 bf 6b be 29 bd bc 79 ad 3e
       0.26315936 -0.5026333 -0.041441362 0.33881938
000130 6f 7d bb 3c d9 65 1e be a3 f8 3a 3f 62 fb ee 3e
       0.02288696 -0.1546854 0.7303564 0.46676165
000140 62 fd 43 be 21 be fa be 26 b7 28 3e 71 b4 b6 bc
       -0.19139627 -0.48973182 0.16476116 -0.022302838
000150 5b 1a 55 be 3e 33 65 bd 6e 57 c0 be dc 8a 20 3e
       -0.20810835 -0.05595707 -0.37566704 0.1567797
000160 6c 14 cc 3e a2 7c f5 be 31 cb 05 be 7b dd be be
       0.3985933 -0.4794665 -0.13065793 -0.3727835
000170 00 3d ee bd 9c f5 14 3e 20 fc b4 3e 12 09 e6 be
       -0.116327286 0.14546818 0.35348606 -0.44928795
000180 90 1c ba 3e 88 25 04 be 6b c3 78 3f d9 02 35 bf
       0.36349916 -0.12904942 0.97173184 -0.7070747
000190 e1 3e 88 3e 26 74 42 be 74 64 2b bd 4a 8a 8d 3e
       0.26610473 -0.1898962 -0.041843846 0.2764457
0001a0 0b 11 8d bd 80 79 27 3e 6f c5 09 bf 56 b1 ab be
       -0.06888016 0.16354942 -0.53816885 -0.33533734
0001b0 d4 39 2a bc d0 b1 63 bd 99 2d 34 bf 71 ff 07 bd
       -0.010389764 -0.055589497 -0.70382077 -0.033202592
0001c0 ee 37 32 3c 76 17 5e 3e 64 0c aa 3e 9c 13 f1 be
       0.0108775925 0.21688637 0.33212578 -0.47085273
0001d0 97 ff 09 bc 12 c0 d8 be 61 c3 79 3e 4b 6b a0 3e
       -0.008422754 -0.42334038 0.24390937 0.31331858
0001e0 2a 42 8f 3e f3 c0 36 3f ec 5d 2a 3e 4c 74 04 3f
       0.27980167 0.7138817 0.16637391 0.51739955
0001f0 d5 c3 56 3e 6d c1 37 bf 8f 07 4b be ba 74 b0 bd
       0.20973141 -0.7177952 -0.19827102 -0.08616014
000200 29 fe 20 be 5a af 9f 3d 88 3c ba bd 27 53 c6 be
       -0.15721954 0.077971175 -0.09093577 -0.38735315
000210 23 ef 13 bf 9c e1 0a bf 50 92 66 be 82 85 0d 3f
       -0.5778677 -0.542505 -0.22516751 0.5528184
000220 0d ba 8c 3e 08 95 28 3e 77 cd 49 3b f6 a1 93 3d
       0.27485695 0.16463101 0.0030792633 0.07208626
000230 35 45 7e bf e0 ea 0b be d0 33 ac be 8e 68 35 3f
       -0.9932435 -0.13663816 -0.3363328 0.7086266
000240 fd d0 4f be b4 4d 31 be 54 19 26 3f ba 14 f6 3d
       -0.20294566 -0.17314798 0.648824 0.12015672
000250 71 aa 16 3c fc b5 9e 3d f6 38 0c 3e 0a 2b 58 3e
       0.00919591 0.077495545 0.13693604 0.21110168
000260 62 18 97 3e 4f 6d ce be d3 3e e4 be a2 f1 17 3f
       0.2951079 -0.4031777 -0.4457918 0.5935308
000270 58 f1 40 be 25 86 a3 3e 73 76 45 3d bd d1 83 3e
       -0.18842065 0.31938282 0.048208665 0.25745955
000280 66 38 80 3e 8e 55 f5 be d7 42 f0 bd 06 68 73 3e
       0.2504303 -0.47916836 -0.11731499 0.2377015
000290 60 12 27 3f 74 5a a6 be 84 64 ae 3d 6d af ea 3d
       0.65262413 -0.32490885 0.085152656 0.11459241
0002a0 6a e3 79 be 65 77 17 bf 91 a8 50 3d f4 b3 41 3d
       -0.24403158 -0.59166557 0.050942007 0.047290757
0002b0 50 74 a2 bc ce 87 23 be 0d eb d5 be e8 9d 71 3d
       -0.019830853 -0.15969774 -0.41780892 0.05898848
0002c0 8d a5 5a 3e ca 7d ce bd a4 4d 59 3e 4c 29 ca bd
       0.21352215 -0.10082586 0.21221024 -0.09871158
0002d0 eb e4 1b 3e b3 b0 d8 3d cc 50 26 3c 80 bc cb 3c
       0.15224044 0.10580578 0.010151099 0.024870157
0002e0 b4 a3 96 bd 3e 9f ac be 18 af e9 3e 78 8d 75 3e
       -0.07355443 -0.33715242 0.45641398 0.23979747
0002f0 7f 94 28 bf d6 75 a1 be ba 66 47 be 34 78 8f 3e
       -0.6585159 -0.31535214 -0.19472781 0.28021395

actor.init_internal_node_embed.0.add_bias._bias f4 [32, 1]
000000 2e 44 5c bb 00 25 63 3b f9 b9 00 bc fc 9a 34 3d
       -0.0033609974 0.0034659505 -0.007856839 0.044093117
000010 b6 d0 c1 3d b2 dc 4d 3b 08 ea 91 bc e2 07 0d bb
       0.094636366 0.0031412062 -0.01781179 -0.002151959
000020 a6 92 32 3c e6 fc e1 3d be 70 18 3d ab 70 8f 3c
       0.0108992215 0.11034565 0.037216894 0.017509779
000030 5b 71 9f 3c 63 69 6a 3c fb 26 2b bc 13 06 50 bc
       0.019463232 0.014307353 -0.010446305 -0.012696761
000040 56 d4 03 3b 0c e2 7d 3b 95 48 a7 bb 37 e5 93 3c
       0.0020115576 0.003873947 -0.005105088 0.018053634
000050 17 44 c2 3c 74 8c 0f bd 58 0f 47 3c 22 88 24 3c
       0.023714108 -0.035046056 0.012149654 0.010042222
000060 a8 16 6b 3d e0 05 93 3b a2 1d 3f bb 6f 2b a1 bb
       0.057394654 0.0044867843 -0.002916195 -0.0049185078
000070 6f 46 e9 bc fc b9 d9 bb 60 e6 7c bc 2c 3a 67 bb
       -0.028475968 -0.0066444855 -0.015435785 -0.0035282476

actor.init_internal_node_embed.2.module.weight f4 [64, 32]
000000 4d dd 8f be d7 ab ff 3d b7 fe 61 bd 26 ff bc 3e
       -0.28098527 0.12483948 -0.055174556 0.36913413
000010 5a 72 93 3f 1a af 57 3d 2f 5f 46 3e ed 45 c3 3d
       1.1519272 0.052657224 0.19372247 0.09534822
000020 bb aa e3 be 37 b9 8b be 32 45 20 bf ff 2d 21 3e
       -0.44466195 -0.27289745 -0.62605584 0.15740202
000030 b7 62 86 be b6 cd 51 be ba 9d 29 3d 82 83 5f be
       -0.26247188 -0.20488629 0.041410185 -0.2182751
000040 52 b1 b7 3e b8 22 06 bd 6e 87 cc bd 6d 89 4c 3e
       0.35877472 -0.032747954 -0.09986769 0.19974299
000050 ed f3 3c be 12 30 14 be fd f5 81 be 6e d7 f1 be
       -0.18452425 -0.14471462 -0.25382987 -0.47234672
000060 05 7b 20 bd b9 a7 a4 3e 1b 19 c9 bd b4 df 43 3f
       -0.03917982 0.32159212 -0.098192416 0.7651322
000070 d2 88 94 bd 8b 5e 65 be 81 cf 84 be af 9f 02 be
       -0.07252659 -0.22399347 -0.25939563 -0.12756227
000080 51 09 b2 bc 62 da c5 be f3 d3 8f be 17 62 2e be
       -0.021732958 -0.38643175 -0.28091392 -0.17029606
000090 39 2b e4 bd 8a 90 4d 3e ce e9 e7 bd 44 2d f3 3e
       -0.111410566 0.20074669 -0.113238916 0.47495472
0000a0 e3 32 6c be 8d e1 50 be 27 21 b4 3e bb 0e a3 be
       -0.23066287 -0.20398541 0.35181543 -0.31847176
0000b0 75 84 47 be f1 3c 69 3d 2a 17 8b 3d 75 b8 9d 3e
       -0.19484122 0.056942884 0.067915276 0.30804792
0000c0 bc dd f4 bd ff a1 d2 bd c3 f1 0b be 67 39 0f be
       -0.11956355 -0.102848046 -0.13666444 -0.13986741
0000d0 2c 05 91 3e 6c 57 06 3d 85 72 cd 3e 42 4a 87 be
       0.28324258 0.032798216 0.40126434 -0.26423842
0000e0 6b a4 48 3e 21 d8 89 bc 7e 64 ab bb c7 dc a3 3c
       0.1959397 -0.016826691 -0.0052304855 0.020002736
0000f0 88 81 8a be eb 18 db 3d 25 c9 17 3f 20 bd 88 3b
       -0.2705195 0.10698112 0.592913 0.004172936
000100 36 93 cb 3e b0 8d 12 be f3 4f 91 bd 79 e4 0c 3f
       0.3976075 -0.14311862 -0.07095327 0.5503612
000110 24 78 63 3e d0 40 84 3e b5 55 bf be f1 12 61 be
       0.22213799 0.25830698 -0.37370077 -0.21979882
000120 70 bd 08 3f e1 87 d9 3d 79 51 db be b4 80 6a be
       0.5341406 0.1062162 -0.42835596 -0.22900659
000130 bd 6d fd 3e 13 42 a7 be b1 57 f7 bd d6 15 08 bd
       0.49497786 -0.32667598 -0.12077273 -0.03322395
000140 36 42 57 3e 5b 5d e8 3d 03 66 24 be 8a 45 c7 3b
       0.21021351 0.11345931 -0.1605454 0.0060812877
000150 8a ee f0 be e0 78 ed 3c 91 1a 0a 3f 14 bc 7d be
       -0.4705699 0.028988302 0.5394679 -0.24778777
000160 76 ca 55 bd 55 50 f4 bd 65 49 2a bf 0e 46 86 3e
       -0.052195035 -0.119293846 -0.6651824 0.26225322
000170 75 dc 4f bd 36 d4 fd 3c 38 4d 79 3e 91 39 09 be
       -0.050747354 0.03098498 0.24345863 -0.13400866
000180 df 39 87 3d 7b 0b de 3e 50 eb ab bd b7 4f eb 3e
       0.06602835 0.43368134 -0.08394492 0.45959255
000190 f7 9b 7a 3e 33 bb 1f be 3c 1e 78 be 52 68 2a 3e
       0.24473558 -0.15598755 -0.24230283 0.16641358
0001a0 5a 34 bb 3e 58 6e cd bd b7 37 2b 3e c0 43 8e 3e
       0.3656338 -0.10030812 0.16720472 0.27786064
0001b0 40 7c ab be 29 95 0e 3d 76 6e f2 3d b3 d8 88 bd
       -0.33493233 0.03481022 0.11837475 -0.06681957
0001c0 fb a6 46 bc e0 8e 61 be dd ea 5e 3d 5b 20 81 bc
       -0.012124772 -0.22027159 0.0544232 -0.015762499
0001d0 8e ac 04 3c fd 92 d7 3c d9 2e e6 3e 18 63 a8 3d
       0.008097781 0.026315207 0.44957617 0.08222026
0001e0 62 92 7e be f7 2d 2b 3e 37 19 c9 3e a3 56 47 3e
       -0.24860528 0.16716753 0.3927705 0.19466643
0001f0 91 c5 12 3e dd ef aa 3e df 04 78 3e 39 da a5 3d
       0.14333178 0.33386126 0.24220608 0.08098263
000200 c8 4a 8f be 87 3d 09 3d d1 47 3c 3e 08 2e b3 be
       -0.2798674 0.033505943 0.18386771 -0.34996057
000210 e8 92 e0 be 90 d5 13 3d 1d 91 3f be cc b4 c3 3d
       -0.4386208 0.03609234 -0.187077 0.09555969
000220 e3 ba 83 3d ef 56 0e 3f 04 47 11 3f 0f 67 1c 3d
       0.0643213 0.556014 0.56748986 0.03818422
000230 fd 3a 86 3c e0 5e b3 3d a2 2a 8f bc fa 7b 6b bd
       0.01638555 0.0875833 -0.017476384 -0.05749128
000240 db 70 65 3e 0d d2 08 3e c4 ec aa bd 4a 02 c5 be
       0.22406332 0.13361378 -0.08345941 -0.3847831
000250 df 81 b0 3e d9 fe 85 3d 90 c3 68 bd 6d bd 76 be
       0.34474084 0.06542749 -0.056827128 -0.24095698
000260 78 1b c2 bd 76 a9 a4 3a 07 e4 ee 3e f6 a7 81 be
       -0.094778955 0.001256271 0.46658346 -0.25323457
000270 e0 ea 99 3e d1 6d b5 3d 82 13 33 be df b8 37 be
       0.30062008 0.088588364 -0.1748791 -0.17941616
000280 ec 4a a9 bb 73 67 dd 3d 2a 18 4e be 89 58 89 3e
       -0.005166402 0.10810747 -0.20126405 0.2682536
000290 c5 28 84 3d 92 6a f2 bc 55 75 6a 3d 7b ec 9b be
       0.06453089 -0.029591832 0.057240803 -0.30453858
0002a0 56 a5 d6 3e e0 10 94 3e 2f de 1a 3f 30 fd 11 bd
       0.41923016 0.28919125 0.60495275 -0.03564185
0002b0 4a 8e c3 3e a0 dc 06 bd d0 32 ca 3e 95 ca 90 3c
       0.38194495 -0.03292525 0.39491892 0.017674724
0002c0 e8 94 ed bc a9 18 55 bd 85 0c 9e 3e 5a 3c 32 be
       -0.029001668 -0.05202547 0.30868927 -0.17405835
0002d0 d3 fb 8a 3e d2 d8 ba bd 5a a0 f3 3d f5 80 95 3d
       0.27145252 -0.091233864 0.11895819 0.07299987
0002e0 8d 28 a5 bc 30 25 19 bd 78 57 00 3c bc a6 99 be
       -0.020160938 -0.03738898 0.007833354 -0.3001002
0002f0 23 62 b0 bc 9b c9 71 3e 98 de ad 3d 9c cd 05 3e
       -0.02153117 0.23612063 0.08489722 0.13066715
000300 62 d1 29 be 6e 7a b8 be 7d 59 15 be cf 65 8e 3d
       -0.1658378 -0.36030906 -0.14584918 0.06953012
000310 2d 28 f3 bd cd 6c 84 3d 1d 61 ff 3c ff dc 8a be
       -0.11872897 0.064660646 0.031174237 -0.27121732
000320 13 67 b9 3d 9a 19 35 3f 0f 60 3d be 96 21 9a 3e
       0.09052863 0.7074219 -0.18493675 0.3010375
000330 ec 41 7b 3e 2c 94 c7 3d 55 8f 45 be 02 05 c0 bc
       0.24536866 0.097450584 -0.19292958 -0.023439888
000340 ef 8d 82 bd 67 00 75 be 63 67 83 3e b3 c6 76 3e
       -0.06374728 -0.23925935 0.25664815 0.24099235
000350 a6 42 92 be f2 fd cf 3d 92 6f e9 be ff 66 17 3f
       -0.28566474 0.10155858 -0.45592934 0.59141535
000360 7a 77 1f bf 33 6b 6f be f0 98 c6 3d c4 a2 a7 3c
       -0.6229168 -0.23380737 0.09697139 0.020463355
000370 b9 4c e4 3c 5e 38 04 3f f3 00 f4 be 03 76 8b be
       0.027868615 0.5164851 -0.47656974 -0.27238473
000380 41 91 dd 3e 5b 0c d8 3e 14 25 88 3e e9 6f 35 3d
       0.43274882 0.42196926 0.26590788 0.04429618
000390 6d 48 83 3d a6 05 93 3d 7c 2d 06 3f 87 91 79 3e
       0.064102985 0.07178812 0.52413154 0.2437192
0003a0 af 13 1f bf 7f 10 42 bf f1 a4 d0 be 7d b0 44 be
       -0.6213941 -0.7580642 -0.4075084 -0.1920795
0003b0 e3 75 d9 3e 44 2f a5 be 1d 21 0a be 81 08 95 3d
       0.42472753 -0.32262623 -0.13489194 0.072770126
0003c0 9d 11 8a bb f9 14 6c bc c2 f9 f3 3d b0 37 e3 3d
       -0.0042135254 -0.014409297 0.11912872 0.11094606
0003d0 d2 ab 66 bf 00 3a 51 bd d4 26 e1 3e 0e b1 ca 3e
       -0.90105927 -0.051080704 0.43974936 0.39588207
0003e0 05 04 21 3f fa ba 70 3e d9 da df be 83 64 64 3e
       0.6289676 0.23508826 -0.43721655 0.22303967
0003f0 93 e0 93 3d dc d5 ec 3d d6 ce a2 be 52 23 81 be
       0.072205685 0.11564228 -0.31798428 -0.2522226

actor.init_internal_node_embed.2.add_bias._bias f4 [64, 1]
000000 9b 88 0e bc 60 b7 e7 bc 3c 42 8e 3d 17 04 d4 3c
       -0.0086995615 -0.028285682 0.06946227 0.025880856
000010 12 29 ad 3b 57 f6 4b 3d ff 0f 2d bc 12 46 c2 3c
       0.005284437 0.049795475 -0.010562896 0.023715053
000020 38 4c db bc 1e 20 55 bd 36 64 1a bc 87 d2 07 bd
       -0.026769742 -0.052032582 -0.009423306 -0.03315976
000030 43 4b d9 bc 3b 17 40 bd 2c 1c 57 bd 8f 28 30 bb
       -0.026525145 -0.046897154 -0.0525171 -0.0026879644
000040 f5 66 91 3d e4 59 23 bc ba 9f a2 bc c0 76 27 bd
       0.070997156 -0.009970162 -0.019851554 -0.040884733
000050 6f c6 85 bc 05 f2 b5 3c 5c 39 11 3d 89 ec e3 3d
       -0.016329972 0.02221013 0.035455093 0.111291
000060 e1 d8 e6 3b 42 3c 38 bd ed 6c c6 3b be 59 67 3d
       0.007044897 -0.04497934 0.0060554654 0.05648207
000070 3e 72 3c 3d 0d f8 29 bd 93 0b ca 3d 60 66 78 3b
       0.046007387 -0.041496325 0.09865489 0.0037902817
000080 a5 1c 0a bd e2 90 6c bd ab 78 58 bd 0f d3 cd bb
       -0.033718724 -0.05775536 -0.052849453 -0.0062812637
000090 85 7d 1b 3c c1 27 05 bd 89 12 85 3d 6e 50 10 3d
       0.009490375 -0.032508615 0.06497676 0.035232954
0000a0 21 c6 82 bd 78 92 11 3d cc 9a 86 3d 28 c5 23 3d
       -0.06385446 0.035540074 0.06572494 0.039982945
0000b0 77 86 f0 3c 1a b6 15 bd 55 26 2d 3d 00 eb e1 3d
       0.029360993 -0.03655062 0.042272884 0.11031151
0000c0 ec 36 87 bb a3 41 3c 3c da 90 41 3d 42 a4 1e 3d
       -0.0041264202 0.011490258 0.04725728 0.038730867
0000d0 39 1a 27 bd 66 ba 40 bd dc fc 45 bd 6c e5 a8 3d
       -0.040796492 -0.047052763 -0.04833685 0.08246884
0000e0 fe 68 2d 3d e8 0b 09 bd 51 9a dc 3c ef 90 a4 bc
       0.042336456 -0.03345862 0.026929053 -0.020088641
0000f0 1c 16 bf bc fc 01 e8 bb df fc 59 bc 7c c7 2b 3c
       -0.023325972 -0.0070803147 -0.013304918 0.0104845725

actor.init_leaf_node_embed.0.module.weight f4 [32, 8]
000000 93 c7 4a be be 54 b0 be 46 04 4d 3e 3c f6 43 3e
       -0.19802694 -0.34439653 0.20021161 0.191369
000010 cb d4 f8 3c d0 3f 03 3f d6 8f aa be 3f c3 9e be
       0.030374905 0.51269245 -0.33312863 -0.31008336
000020 1d cf e1 be f8 28 e9 bd 5d 53 cd 3e ab d3 5d bd
       -0.44103327 -0.11384767 0.40102664 -0.05415694
000030 9e a3 4d 3e a5 4f 58 be 96 8d 7a 3e 93 04 58 bd
       0.20081946 -0.21124132 0.24468073 -0.052738737
000040 07 76 79 3a 3c af d1 3d d3 7f 61 be a7 0a c6 bc
       0.00095161836 0.102385014 -0.22021417 -0.024175001
000050 e5 b0 80 be ec c9 83 be 66 01 a2 3d b7 65 c5 bd
       -0.2513496 -0.25739992 0.07910423 -0.09638541
000060 79 77 c9 be 80 6b 1a 3d dc d7 62 3e b8 40 c1 bc
       -0.39348963 0.037700176 0.22152656 -0.02359043
000070 e2 25 ae 3e 0a 61 8b 3c 13 7c 80 be db a0 49 3c
       0.34013277 0.017014045 -0.2509466 0.012306417
000080 d5 77 a6 3c a9 97 0e bf 2f 90 b7 3e 81 0d b6 bd
       0.020320812 -0.55700165 0.3585219 -0.088892944
000090 16 11 c1 bd b3 ba a2 3c 86 2d 2a be 19 bb 11 3e
       -0.09427087 0.019864416 -0.16618928 0.14231528
0000a0 c3 71 b9 be 3f fd 73 bc 6b a0 7b be ea 3e 3e 3e
       -0.36219606 -0.014891922 -0.24572913 0.18578687
0000b0 b2 cb 24 be 89 c8 f7 3d 3e c0 2b be 66 5a 30 3c
       -0.16093329 0.12098796 -0.16772553 0.01076374
0000c0 60 81 8c be 52 f4 59 3e dd a5 bd bd 4e c5 e9 3d
       -0.27442455 0.21284607 -0.092601515 0.11414586
0000d0 23 ca b4 bd 70 42 c7 bd 9e b3 39 3d 92 28 27 3e
       -0.08827617 -0.09729469 0.045337312 0.1632407
0000e0 a2 67 4e 3e a2 9a 43 3e b0 03 d4 3e 8f aa 01 be
       0.2015672 0.19101956 0.41409063 -0.12662719
0000f0 32 05 2b be 9c 2f ec bc c2 df 28 bf 7b 28 a8 bd
       -0.167012 -0.028831296 -0.6596643 -0.08210846
000100 d8 7f 36 bd c9 fe 90 3d a0 8c 58 3e dd 2b 22 3d
       -0.044555515 0.070798464 0.21147394 0.039592613
000110 ed 92 9b 3d f4 91 9c 3e a0 2f 57 3d 6a 5c 32 3d
       0.07596383 0.30580103 0.052535653 0.043545164
000120 29 70 fd be 5e f4 fb bd 66 19 8c 3d 32 c1 b6 3d
       -0.49499634 -0.12302469 0.06840782 0.08923568
000130 8d c0 b1 3e 06 79 56 be e5 5d d7 ba b9 5f 04 bf
       0.34717217 -0.20944604 -0.0016431181 -0.5170856
000140 20 ea d0 be c4 7d 2b 3d 98 5a ae be 2a 7c 12 be
       -0.40803623 0.041867986 -0.34053493 -0.14305177
000150 73 3e f6 3e 94 2f 8a 3e 5b 21 6b be b4 5d ff b9
       0.4809452 0.26989424 -0.22961943 -0.00048707204
000160 2d f5 f8 3d 58 21 7c bd 4f 7b 7f 3e 4c 6c 8e be
       0.121561386 -0.061555237 0.24949382 -0.27817
000170 3f 2a 92 bd 21 9b b4 be eb 3e d6 3e 29 94 58 3c
       -0.07136964 -0.35274604 0.41844878 0.013218918
000180 ab ea 65 be 9b 89 31 be b9 d3 bd 3e 55 f0 df 3e
       -0.224528 -0.17337649 0.37075594 0.43738046
000190 c5 5f 80 3e eb 36 c6 3d 4a df ad 3e 1e 36 de 3e
       0.25073066 0.096784435 0.3395942 0.43400663
0001a0 e5 0d 09 3e 46 97 b1 3e da 3d 83 3e da 01 96 bd
       0.13384207 0.34685725 0.25633126 -0.07324572
0001b0 9a 63 08 bf 66 54 5f 3b 3f 4e 4a bd eb 74 65 be
       -0.5327698 0.0034077405 -0.049391028 -0.22407882
0001c0 39 8c e9 3e 23 eb d3 3e 66 04 d3 3d c9 16 ca 3e
       0.45614794 0.41390333 0.10303573 0.3947051
0001d0 f3 69 8c 3d e2 b8 40 3d 20 50 0a 3e 16 e2 1d 3e
       0.06856146 0.047051318 0.13507128 0.15418276
0001e0 a0 d2 5b 3d 0b f4 d6 bd 8a 71 a5 bd 9d 9d 45 3e
       0.053667665 -0.10495766 -0.080782965 0.19298406
0001f0 c3 96 2b be db b5 9f 3e 8d d3 2d 3d ab ae 31 3e
       -0.1675673 0.31193432 0.04243808 0.17351787
000200 68 c8 99 3e ea 29 a5 3e 60 dc cf bd e1 b7 dc be
       0.3003571 0.3225854 -0.10149455 -0.43109038
000210 78 92 4c 3c 49 00 83 be f7 85 63 be ad f6 2d 3e
       0.012486093 -0.25586155 -0.22219072 0.1698863
000220 9c 6b 9e be dd af 95 3e 5e 61 bb be 27 4a e4 3e
       -0.30941474 0.29235736 -0.36597723 0.44587824
000230 c9 a7 25 be f2 08 c2 bd 78 f0 57 be e2 f2 62 3e
       -0.16177286 -0.094743624 -0.21087825 0.22162965
000240 74 c3 8f 3d 5f 3c 6a 3b 1b 2a 13 bf f8 59 32 be
       0.070197016 0.003574155 -0.5748612 -0.17417133
000250 17 a3 79 3e dc 1f ca 3e 58 11 bf 3d b9 51 23 be
       0.2437862 0.39477432 0.0932948 -0.15949143
000260 76 b1 3a be 37 e9 2b bd ab c1 de be e9 d1 f3 bd
       -0.18231758 -0.041970458 -0.43507132 -0.119052716
000270 9c 72 80 be df 89 f9 be 86 3e 7f 3e ca 62 9f bd
       -0.2508744 -0.48738 0.24926195 -0.077825144
000280 00 d5 0b 3e 82 f7 c9 3b 33 2a 38 3e f5 f6 ec 3e
       0.13655472 0.0061635384 0.17984848 0.46282163
000290 c4 71 fe 3e 60 2f b7 bd 76 72 96 3e ad a4 9c bd
       0.4969617 -0.08944583 0.29384202 -0.07648597
0002a0 0f c9 8b be f8 f8 ea 3e 57 7b 15 3e 72 ea 4e be
       -0.27301833 0.45893073 0.14597832 -0.20206621
0002b0 b7 0a b1 3e 4b fa 89 be d0 2c 2b bd 85 7a 49 3e
       0.34578487 -0.2694877 -0.041790783 0.19675644
0002c0 99 0f 23 3e b6 78 d4 be eb 39 21 be 0c d7 b0 be
       0.15923919 -0.41498345 -0.1574475 -0.34539068
0002d0 f1 36 c8 3e 4b 26 b3 bc 12 fd e1 3e 0d 1c 6b 3e
       0.39104417 -0.021868845 0.4413839 0.2295992
0002e0 48 5d a3 3d 60 ae 09 3f 46 6c 64 3e 66 80 1c bf
       0.07976776 0.537817 0.22306928 -0.6113342
0002f0 33 fa 18 be 33 6e 1f 3f ac dd 0f 3e 11 3e ca 3e
       -0.14939193 0.62277526 0.14049405 0.39500478
000300 ae d3 25 be f6 af 84 be aa 1d 69 be ff c7 52 be
       -0.1619403 -0.25915498 -0.22765222 -0.20584105
000310 fd c3 3c 3e d0 12 d3 be 5e d5 9a bd ca 4f 16 3f
       0.18434139 -0.4122529 -0.07560228 0.587155
000320 91 d2 28 3e 8f 2e c2 bd 0e 1a 45 be c3 e6 13 3e
       0.16486575 -0.094815366 -0.1924822 0.14443497
000330 77 ea c2 be 9e ec 6c bc 9e 2c a2 bb cf 25 ba 3e
       -0.38069507 -0.014460711 -0.0049491664 0.3635697
000340 35 8a 95 be 4c 4c 2e 3e 70 ec b5 3d 61 80 ae be
       -0.29207006 0.17021292 0.088829875 -0.3408232
000350 bf be 02 bf 84 d6 84 be b9 0b d0 3e b1 12 44 be
       -0.51072305 -0.25944912 0.40633944 -0.19147755
000360 a7 8a 0f be f7 be 86 3e 8a 85 84 3e f3 88 1a 3e
       -0.14017735 0.2631757 0.25883132 0.15091304
000370 63 9b ca bd c7 67 ed 3e 65 5c 9c 3e 15 dc 43 be
       -0.09892919 0.46368238 0.3053924 -0.19126923
000380 5e 46 68 3d ae 25 98 bc 62 0b ab 3e 9b 83 0e be
       0.056707732 -0.018572655 0.33407122 -0.13917391
000390 68 20 f4 bd dd 3a f9 be 60 38 76 be d6 e0 b8 bd
       -0.119202435 -0.48677722 -0.24044943 -0.09027259
0003a0 cd 1a a6 3e 31 3e 9d 3e a9 cf 67 be 6c e0 56 3e
       0.32442322 0.3071151 -0.2263781 0.20984048
0003b0 40 35 fd 3e 44 7d 7f bd 73 cd 24 3e 62 4f ff be
       0.4945469 -0.062375322 0.16093998 -0.49865252
0003c0 04 14 3e 3d 3a 84 bf be 04 b6 36 be d1 78 af be
       0.046405807 -0.37405568 -0.17842871 -0.34271863
0003d0 60 b0 8c be 2c 37 ca 3e 9b 47 a3 3d 76 3a 80 be
       -0.27478313 0.39495218 0.07972642 -0.25044602
0003e0 1b dc de be 10 d6 75 3d 75 fa 58 be 47 27 f8 bc
       -0.43527302 0.0600186 -0.21189292 -0.030292166
0003f0 27 96 77 be 62 1d 00 be 6b f0 8d 3e b2 03 55 be
       -0.24178372 -0.12511209 0.27722487 -0.20802191

actor.init_leaf_node_embed.0.add_bias._bias f4 [32, 1]
000000 34 af ae 3d ab a6 74 3a f4 9e ca bd d8 c6 e2 3c
       0.08529511 0.0009332697 -0.09893599 0.027682707
000010 6c 06 6d 3c d2 11 8b bd fc c3 26 3d aa d5 f4 3b
       0.014466863 -0.06790508 0.04071425 0.00747176
000020 e4 37 e9 bc b5 a7 b1 3c 8b 32 9a 3c a3 90 df bd
       -0.028469034 0.021686414 0.018822929 -0.10916259
000030 40 69 14 3e 0d 75 64 3c 8f 40 be 3d a0 44 d7 bc
       0.14493275 0.013943923 0.09289657 -0.02627784
000040 8b 46 9e 3d a8 d4 13 bd db 40 bb bd 0e 57 5d be
       0.07728299 -0.036091477 -0.091432296 -0.2161524
000050 68 8c 45 bd 36 48 1b 3b 55 74 28 3c ea 4f 4f bd
       -0.048229605 0.0023694164 0.010281642 -0.05061332
000060 76 be 70 be 53 f0 ed bb ee 94 86 be 87 23 a8 3d
       -0.23510155 -0.007261315 -0.262855 0.08209901
000070 e1 b9 0f bd 33 ac d8 3d 0f 56 2b 3b f8 79 44 3d
       -0.035089377 0.105797194 0.0026143824 0.04796788

actor.init_leaf_node_embed.2.module.weight f4 [64, 32]
000000 55 28 85 3d 71 1b 43 be 95 7a 91 be b7 ca 2e bd
       0.06501833 -0.19053437 -0.28413835 -0.042673793
000010 e0 57 6a 3e 93 13 64 3e d1 07 c5 3d 10 2a 81 bd
       0.22885084 0.22273092 0.096206315 -0.06306851
000020 f5 db 2b 3e 10 5e 08 3e 36 8a 89 3e 39 d3 87 be
       0.16783126 0.13317132 0.2686326 -0.26528338
000030 65 47 25 be 72 f9 04 3e 54 58 0f bf 94 7e 66 bd
       -0.16140516 0.12985781 -0.55994153 -0.056273058
000040 7a f2 26 3e 88 79 fc 3d ee d4 6f be 60 ff d1 bd
       0.16303435 0.12327868 -0.2342107 -0.10253787
000050 d2 76 18 3e 00 f2 7a be 4f e7 99 3e ff 3e c1 3d
       0.14889076 -0.24506378 0.30059287 0.09435844
000060 2a 38 81 3d e7 d5 ac be bc 88 d2 bd 8a c0 5d 3b
       0.063095406 -0.33756945 -0.10279986 0.0033836686
000070 c6 c5 0e 3e 32 a1 67 3d 98 0a 02 bd 61 70 3f bd
       0.13942632 0.056550212 -0.031748384 -0.046738032
000080 3e d9 0a be 80 ff 7c 3e ca bb dc 3c 5c 71 cf bd
       -0.13559434 0.2470684 0.026945014 -0.101290435
000090 89 dc 0b 3d 62 50 8c 3e 51 0f af 3d fc 2a c1 bd
       0.034145866 0.27405077 0.08547843 -0.09432027
0000a0 4d a2 39 be 78 8a 70 be c7 9a 0c 3f ad 61 50 bd
       -0.18128319 -0.23490322 0.5492367 -0.0508744
0000b0 e1 56 f8 bd 91 df 03 3e 10 b9 08 3e 47 31 4b be
       -0.12125946 0.12878253 0.13351846 -0.19843017
0000c0 27 48 51 bd 15 88 6a be ad a8 50 be fc 2e 45 be
       -0.0510942 -0.22903474 -0.20376845 -0.19256204
0000d0 99 af 8a bd 7f e7 e3 bd 29 67 10 3d 43 28 2f be
       -0.06771774 -0.11128139 0.03525463 -0.17105202
0000e0 f4 c0 b7 be 01 55 6e be fd e3 8c 3c 6b a4 5b 3e
       -0.358894 -0.23274614 0.017198557 0.21449439
0000f0 60 a6 8b be 37 25 e8 bd 10 be 95 3e 99 cb b6 3e
       -0.27275372 -0.11335223 0.2924657 0.35702208
000100 1e e9 37 3e 4a df e1 ba 8e 1c 01 be 6d 6f ba 3d
       0.17960021 -0.0017232683 -0.12608549 0.09103284
000110 e7 64 d2 3d f9 a9 94 3c 9d 46 28 be f2 e9 01 3d
       0.10273152 0.018147456 -0.16433187 0.03171725
000120 af d7 cb be ca e0 ee bc bd da db be db 55 34 be
       -0.3981299 -0.029159922 -0.42940322 -0.17610876
000130 13 47 5a be 17 05 98 3d df 27 63 3e f8 01 41 be
       -0.21316175 0.07422846 0.22183178 -0.18848407
000140 c2 75 93 bd c4 15 b7 3e 1d e0 8d be c8 5c ee bd
       -0.07200195 0.35758793 -0.27710047 -0.1163879
000150 74 73 15 3d b0 91 7a 3c 97 a6 cc 3d 85 96 b6 be
       0.036487058 0.015293524 0.09992712 -0.35661712
000160 bc bc 80 bc c6 be 6a 3d f1 fb bd bd 62 11 3b be
       -0.015714996 0.057310842 -0.0927657 -0.1826835
000170 5f 5e 49 be 44 45 87 bd 81 d2 d5 3d d2 1f 1b 3e
       -0.19664906 -0.06605008 0.10440541 0.15148857
000180 ab d2 d5 bd 19 d3 42 3e f9 a3 4a 3e 2a 6e df 3d
       -0.10440572 0.1902584 0.19789113 0.10909684
000190 e4 bd d6 3d 43 f5 ab 3d cd c0 03 be 57 8c 8e 3e
       0.104854375 0.08396389 -0.12866516 0.27841446
0001a0 a6 3a 22 3e f1 5a 07 be 57 80 94 be a0 d7 84 3e
       0.15842685 -0.13218285 -0.29004166 0.2594576
0001b0 ab b5 2b be 3d 61 a9 3d 38 d2 c9 bd de f5 05 3e
       -0.1676852 0.082705 -0.09854549 0.13082072
0001c0 d4 bc e6 bd 35 fa 91 3e 02 d0 b6 be aa fc 13 bc
       -0.11266485 0.28511205 -0.35705572 -0.009032408
0001d0 d0 38 75 3d 40 90 e0 3a 26 b2 77 be b4 d2 ee 3e
       0.059868634 0.0017132834 -0.24189052 0.4664513
0001e0 14 d9 11 3c e7 2e 03 3d 78 09 24 3e 38 ff 43 3e
       0.008901853 0.03202715 0.16019237 0.19140327
0001f0 ac 12 99 3e 13 b1 95 bd a5 57 ea 3d be 16 17 3e
       0.29897058 -0.07309165 0.11442498 0.14754769
000200 8c 02 6e bd b1 fb 08 be ae 01 72 3d 01 82 7c ba
       -0.058107898 -0.13377263 0.059083633 -0.0009632409
000210 69 77 a8 bb f3 64 07 bf c8 83 3c 3e 04 2c 55 3e
       -0.005141188 -0.5288841 0.18409646 0.20817572
000220 2b e8 65 3d c8 a0 a6 3d ce 30 81 be cf f2 b8 be
       0.056129616 0.08136135 -0.25232548 -0.36122748
000230 ed 71 c2 bd c8 5e 73 3e 5b fc 5a 3e 9e 39 95 be
       -0.09494386 0.23766625 0.21385328 -0.2914552
000240 57 10 c7 be 55 c1 bd be 4b ed 7f 3e d8 98 da 3d
       -0.38879654 -0.37061563 0.24992864 0.10673684
000250 5c 1c 97 be 6d 75 86 3e 7a 11 a7 bc 17 05 8a 3e
       -0.29513824 0.26261464 -0.020394076 0.26957008
000260 91 2b e5 bd 50 8c 97 bc 79 80 23 be e0 40 8a 3e
       -0.1118995 -0.018499523 -0.15966977 0.2700262
000270 00 c7 74 3e 67 20 5f bd 90 60 c6 3d 08 a3 2a be
       0.23904037 -0.05447426 0.096863866 -0.16663754
000280 78 a7 34 3e 7b 7b b7 bc 7f e2 21 be f7 bb 1a be
       0.1764201 -0.022397747 -0.15809058 -0.15110765
000290 7e 46 b3 be 96 48 85 be 85 e0 b8 3e f9 f7 ac bd
       -0.3501472 -0.2603194 0.36108795 -0.084457345
0002a0 d0 a8 31 3e e3 ce 3e 3c bb f5 be be 51 81 a0 3e
       0.17349553 0.011646005 -0.37296852 0.3134866
0002b0 a3 1e 0e 3f 48 52 43 3e 28 53 d3 3e bd e8 99 be
       0.555155 0.19074357 0.4127438 -0.30060378
0002c0 89 2f 53 3e 68 9b dc be 90 01 c6 be ef 60 21 be
       0.20623602 -0.43087316 -0.38673067 -0.15759633
0002d0 82 ba a5 3d e2 d8 8b be 6d 2b 0f be 24 83 3a 3f
       0.08092214 -0.27313906 -0.1398141 0.72856355
0002e0 a4 34 93 3d b8 c8 95 be fd 2e 91 bd 4f a7 47 3e
       0.07187775 -0.292547 -0.070890404 0.19497417
0002f0 90 7b 1f be f4 f4 ac bd ae 38 83 3d 94 a0 34 bd
       -0.15574479 -0.084451586 0.06407295 -0.04409845
000300 ff 9c c7 3e b2 3a c4 be 71 cd 50 bd ca 5c de bb
       0.38986966 -0.3832603 -0.050977174 -0.0067859637
000310 8e d7 91 be 93 65 cb bd 33 f0 17 3e 39 bb 74 3e
       -0.28484768 -0.09931483 0.14837722 0.23899545
000320 b1 2c 09 3d f1 82 39 be fd 7f 04 3e d4 22 29 3e
       0.033489887 -0.18116356 0.12939449 0.16517192
000330 cc ac 5a be d5 e6 c8 3d 18 c7 80 bd a5 50 a6 3d
       -0.2135498 0.09809653 -0.06287974 0.081208505
000340 08 2e b1 be 0a 9e 29 3f 15 28 06 3f c9 7f 6d 3d
       -0.34605432 0.66256773 0.5240491 0.057983194
000350 00 f7 93 be df ad 7a 3d 51 52 13 be 52 86 83 3e
       -0.28899384 0.061200973 -0.1438687 0.25688416
000360 c6 3d 59 3d cd 88 97 3e 95 83 88 bd c0 34 21 bd
       0.053037427 0.29596558 -0.06665722 -0.039356947
000370 a2 ae 15 be 3d ac 8a 3e bd 35 69 3d 74 3a 21 bd
       -0.14617398 0.27084532 0.056936014 -0.039362386
000380 c6 0e ea bd 42 15 d4 3d 05 fc 01 be 4a 16 7d be
       -0.11428599 0.10355617 -0.12693794 -0.24715534
000390 64 af 5f bb 32 fa ba bd 58 88 84 be b3 1e 27 bf
       -0.003413164 -0.09129752 -0.25885272 -0.6528122
0003a0 6c 0c d8 3d 4b f6 1e be 8c 03 14 3e ce 64 cf b9
       0.10549244 -0.15523641 0.14454478 -0.00039557222
0003b0 9b 05 13 3e 33 e0 23 3d 6e c9 ac bd b5 a0 ca 3d
       0.14357607 0.040008735 -0.08436857 0.09893934
0003c0 35 9f 7d be 4d 08 7c be ca 9a 22 bf c8 f8 35 be
       -0.24767764 -0.24612541 -0.6351744 -0.17770684
0003d0 42 61 00 3e 97 63 df 3e 5e 84 c1 3d d2 78 77 be
       0.12537101 0.4363067 0.09449075 -0.24167183
0003e0 c8 cb 7c bc 9a 8c 64 3e de dc 5a 3e af c8 4d 3e
       -0.015429445 0.2231926 0.21373317 0.20096086
0003f0 b2 e3 f9 be cf 2a b1 3e 47 a6 6e 3e 08 c1 52 be
       -0.4880653 0.34602973 0.23305617 -0.20581448

actor.init_leaf_node_embed.2.add_bias._bias f4 [64, 1]
000000 e5 b1 80 bd 23 03 4e bd 75 68 75 3b be 6d 78 3c
       -0.06283931 -0.05029596 0.0037446294 0.015162883
000010 23 00 6c bd 72 f5 a5 3e e5 7c a4 3d 16 e1 85 bc
       -0.057617318 0.32413822 0.08031634 -0.01634268
000020 2a ae 93 bd 27 5b b6 3d 25 05 c2 bd 2f d9 70 3e
       -0.072109535 0.08904105 -0.094736375 0.23520349
000030 0b f0 5d bd f4 b9 80 be 42 ef 06 bf 1e 33 f6 3c
       -0.054184 -0.2514187 -0.5270883 0.030053671
000040 52 ea 8d bd c8 99 20 3e 17 ff 4f be 31 a8 20 bd
       -0.06929459 0.15683663 -0.20312153 -0.0392229
000050 57 8f 10 be d9 d5 21 3e 51 72 10 3e ae 19 4f 3e
       -0.1411718 0.15804233 0.14106108 0.2022464
000060 94 d4 48 bd 86 e8 73 3e 8f 49 7d be c7 20 10 3e
       -0.049030855 0.2381917 -0.24735092 0.14075004
000070 08 a1 1b be d3 bb 8d be d7 96 dc 3d ca 04 2a bd
       -0.15198147 -0.2768236 0.10770958 -0.041508473
000080 22 a9 84 bd 0a 26 21 bb f1 3f 6a be 5b b8 1b 3e
       -0.06477572 -0.0024589323 -0.22875954 0.15207045
000090 bd ee db bd c5 13 ec bc c6 61 00 be 88 e3 81 bd
       -0.10738895 -0.02881802 -0.12537298 -0.06342226
0000a0 2b b9 49 be dd 29 56 3b ce ea 54 bb 0b 8f ab bd
       -0.19699542 0.003267876 -0.0032488587 -0.08376893
0000b0 ea cf 23 3d 7f 01 b3 3d da c3 02 3d 9f 77 87 3e
       0.039993204 0.0874052 0.03192506 0.2645845
0000c0 e4 5b 8a 3c 8a 30 cb 3d 47 14 f2 3d c5 5b 4d 39
       0.01688952 0.099213675 0.11820274 0.0001958451
0000d0 85 26 05 bd 12 49 0e 3e d1 5b 28 bd dd 9b 95 bd
       -0.03250744 0.13895062 -0.041103188 -0.07305119
0000e0 20 0d f6 bd 98 10 af bd db 48 f1 bd c2 b1 91 3e
       -0.12014222 -0.08548087 -0.11781474 0.2845593
0000f0 ff 61 2b 3e f7 1e 80 3c f5 88 43 3e 21 af 3c be
       0.16736601 0.015639765 0.19095214 -0.18426181

actor.init_next_embed.0.module.weight f4 [32, 6]
000000 81 92 5c bf d2 50 2a 3e 21 04 ab bd 04 16 c2 3e
       -0.8616105 0.16632393 -0.08350397 0.37907422
000010 d1 6b 83 3f 5e 12 6c bf 67 74 e6 3e 9a 49 a6 3e
       1.0267278 -0.92215526 0.45010683 0.3247803
000020 cb bc 08 3c b7 e6 a3 3e bf 8b eb bd 63 34 38 be
       0.008345793 0.3201196 -0.11501264 -0.17988734
000030 b6 e7 aa bd 89 c8 c7 be b2 c4 75 3e fa 35 09 bf
       -0.083449766 -0.39020184 0.24000815 -0.53597987
000040 56 fc bf 3d 9a e4 1b 3d 2b 4a ee 3f 12 a8 11 3f
       0.09374301 0.03805981 1.8616384 0.5689708
000050 6b af e5 3d 40 16 fb 3e 1f 44 e4 3d e1 af da bc
       0.11215099 0.49040413 0.111458056 -0.026695194
000060 eb df aa be cd 0f 76 bd 60 cc 45 be 6f 36 39 3e
       -0.3337396 -0.060073663 -0.19316244 0.18087171
000070 f7 41 b2 3c 41 63 42 be a0 82 29 be 70 ed eb 3d
       0.02175997 -0.18983175 -0.16553736 0.11519897
000080 3d d2 ea 3e 07 f8 ab 3d cd 8f db bd e9 ab b6 3c
       0.45863524 0.08396917 -0.10720787 0.02229877
000090 97 71 fc 3d 25 7a 68 be 03 a7 c0 bc 81 05 c5 be
       0.12326353 -0.22702844 -0.023517137 -0.38480762
0000a0 89 cd 62 be a4 1e ac 3e df 38 4e be 5b 3c bb be
       -0.22148718 0.33617127 -0.20138882 -0.36569485
0000b0 a5 ce 81 3e cc 16 f7 3d b1 df 10 be f7 7a 5a 3d
       0.2535297 0.12064895 -0.14147831 0.053339925
0000c0 39 a2 2b be 9e 98 82 be 20 c8 af 3e 27 e0 88 be
       -0.16761102 -0.25507063 0.3433237 -0.26733515
0000d0 03 75 a3 3d e7 ae e6 bc 19 2b c0 be c8 1e 21 be
       0.079813026 -0.028159572 -0.3753288 -0.15734398
0000e0 e1 8f 14 be 12 cd c8 3e 55 88 74 be 3c a9 06 be
       -0.1450801 0.39218956 -0.23880132 -0.13150495
0000f0 84 66 2e 3f bc dc 42 bd 1f e4 18 be 14 ec f9 be
       0.68125176 -0.04757379 -0.14930771 -0.48812926
000100 38 3d 6d be 1a 74 bb 3d a7 2d 0e 3e 03 53 42 be
       -0.23167884 0.09153004 0.13884602 -0.18976979
000110 5b 24 95 be d6 54 9f 3d 31 cf 63 bd 17 7f d9 bd
       -0.291293 0.07779853 -0.055617515 -0.106199436
000120 71 b5 cd 3e 41 a7 28 bf d1 ae 32 bd 27 4b 90 bd
       0.4017749 -0.6588021 -0.04362375 -0.07045584
000130 b6 dc 23 3d 72 8d ef bd c9 58 64 3e 31 1c 85 be
       0.04000541 -0.116969004 0.22299494 -0.2599807
000140 93 7a 9e 3e 86 50 54 3e d7 5a bc 3d a8 77 6d be
       0.30952892 0.20733842 0.09197014 -0.23190176
000150 01 bc 84 3f 8c fc 59 3d 48 ba d8 bd 63 48 16 bf
       1.0369874 0.053219363 -0.10582405 -0.58704203
000160 6a 91 53 be 0c 5e 23 3f 8d 47 1b 3c c0 c9 8c 3d
       -0.2066094 0.6381538 0.009477508 0.06874418
000170 b5 a4 6e 3e 16 0c 9e be c2 6e 00 bd 43 45 7c be
       0.23305018 -0.30868596 -0.031355627 -0.24635796
000180 56 bd 41 be 99 f8 13 be 79 e2 02 be 3c 30 6f bc
       -0.18919882 -0.14450301 -0.12781705 -0.014598902
000190 8f 5b f8 3c e6 5b a9 3e 7e 5b 52 3e be 9e e8 3e
       0.030317096 0.33077925 0.20542714 0.4543361
0001a0 dd e7 fe 3e b0 77 d8 3e cb b5 a2 3d 77 28 e1 3d
       0.49786273 0.42278814 0.079448305 0.10994046
0001b0 57 59 32 be 7c 35 6e bc 26 dd b1 be 97 01 5f bd
       -0.17416893 -0.014539119 -0.34739035 -0.054444876
0001c0 b6 3d f6 bd bb 2c d6 be 6b c8 ef 3f 30 7c 65 be
       -0.12023489 -0.41831002 1.8733038 -0.22410655
0001d0 c0 d7 46 3e f3 fc 09 bd 46 59 e5 3d c4 e6 bd bd
       0.1941824 -0.033688497 0.11198668 -0.09272531
0001e0 1e a3 bf 3d c4 c6 ba 3e e6 33 24 3e 06 b9 c1 be
       0.09357284 0.3647977 0.16035423 -0.37836474
0001f0 0f 7e 63 be 8e 8c 56 3e 6d 0e 4a 3f 76 8e 35 be
       -0.22216056 0.20952055 0.7892826 -0.17730126
000200 f6 14 aa 3d b6 5f e9 3e d5 f2 46 3e 8c a5 85 be
       0.08304779 0.45580834 0.1942857 -0.26102865
000210 e6 91 6a be a6 90 e2 3c ad ac ba bd 10 eb 58 3d
       -0.22907218 0.027656864 -0.091149665 0.052958548
000220 14 5f c7 be 0b 12 6d bd 43 ec d0 3c 4a 39 42 be
       -0.38939726 -0.057878535 0.025503283 -0.18967167
000230 52 32 06 be d6 d0 ee be 00 8e 9a bd 22 c8 6f be
       -0.13105133 -0.46643704 -0.075466156 -0.23416188
000240 c3 8d 98 be 09 fb 95 bd d3 cd ac 3e e3 94 ca be
       -0.29795656 -0.07323272 0.3375078 -0.39566717
000250 9a 38 0c 3f 3b 1c e8 be c8 58 30 3e ab 12 54 bd
       0.5477387 -0.45334038 0.17221367 -0.051775616
000260 6e 6b 11 3d 49 4d 06 bf a7 b7 25 bf 99 6a 76 3e
       0.035502844 -0.5246168 -0.64733356 0.24064101
000270 ec 95 d0 be 7e 9e 2e be 98 f9 da 3e 17 54 8c 3e
       -0.4073938 -0.17052647 0.4276855 0.27407905
000280 73 9d dc bd 7b 73 a3 be ac f5 f2 3d f6 a5 c8 bd
       -0.107722186 -0.31924042 0.118632644 -0.097972795
000290 72 4c 0d 3e 17 a7 80 bd 1a 5b 1d bd 52 7f 8a be
       0.13798693 -0.0628187 -0.03841696 -0.27050263
0002a0 84 b2 09 be fe fa d7 3d a5 f1 04 bf 05 11 8a be
       -0.13447005 0.1054592 -0.5193122 -0.2696611
0002b0 8d 50 45 bd 7f 1f ca bc 7a c7 41 3e 76 7b 2e bd
       -0.048172522 -0.024673222 0.1892375 -0.04259821
0002c0 81 01 a9 3e f2 13 8f be 94 d2 18 be eb 9c 89 3d
       0.3300896 -0.27944905 -0.14924079 0.06719383
0002d0 28 a6 3e be 2a 72 b7 bc aa aa 81 ba c4 a2 1f bd
       -0.18618071 -0.022393305 -0.0009892781 -0.038973585
0002e0 22 54 2d bf 31 ea 0f 3f 00 76 80 3d be 4c e1 bd
       -0.677065 0.5621672 0.06272507 -0.110009655
0002f0 4d c5 1f be c6 88 bb bd 18 f2 cd 3b 41 22 32 be
       -0.15602608 -0.09156947 0.0062849633 -0.1739588

actor.init_next_embed.0.add_bias._bias f4 [32, 1]
000000 a3 60 3e be a9 fe 7e bc 90 cd e7 bc 5e 81 2d 3f
       -0.18591551 -0.015563645 -0.028296262 0.67775524
000010 f7 fc 59 bd 0c 0b 91 bc 9d c9 01 3e fc cf 89 bd
       -0.05321976 -0.017705463 0.12674566 -0.06729123
000020 43 08 c2 bd 8e 02 10 be 4f 8b 99 be 1b d1 f3 bd
       -0.09474232 -0.14063475 -0.29989097 -0.11905118
000030 6b fd 80 bd 4d 13 e2 3d 91 4e 1f 3f e6 75 62 bb
       -0.06298336 0.110388376 0.6222926 -0.0034555136
000040 54 ab c4 bc 18 18 be 3c b8 68 8a 3d ec d4 ed 3e
       -0.024007477 0.023204848 0.06758255 0.4645151
000050 a2 0b 83 be 7a 52 cc bd 56 f6 06 3d f0 dc af 3c
       -0.25594813 -0.09976669 0.032949768 0.021467656
000060 ee 23 bf bd 08 47 86 be 80 55 80 be 32 ac 08 3e
       -0.09333025 -0.26226068 -0.2506523 0.13346937
000070 0e 8d 1f be 14 cb 60 3e f4 70 06 3c d2 f1 44 bd
       -0.15581152 0.21952468 0.008205641 -0.04808218

actor.init_next_embed.2.module.weight f4 [64, 32]
000000 7d e2 a1 be 63 61 4e 3d be a5 24 3e c9 9b 7e 3e
       -0.3161811 0.050385844 0.1607885 0.24864115
000010 e9 6d 31 3e a0 2e b3 bd 9d b3 fa 3e c8 fa 8c 3e
       0.17327084 -0.087491274 0.4896516 0.2753508
000020 fa bc 04 3e e0 a3 1c 3d f5 d8 70 3e 89 36 2a bd
       0.12962714 0.03824222 0.23520263 -0.041555915
000030 bf 16 69 3d 71 b5 e4 3a 1c 00 62 3f 00 87 91 bc
       0.056906458 0.0017449093 0.88281417 -0.017764568
000040 a5 24 a2 3e 90 3e 29 3e e7 45 ad bc 1e 1e a6 3e
       0.31668583 0.16527772 -0.021151496 0.32444853
000050 93 eb 80 3e 71 9f b7 be 59 b1 7b 3e 73 93 37 3f
       0.2517973 -0.35863832 0.24579372 0.71709365
000060 17 b6 ae 3d dd 96 25 3e 7c 29 be 3b 1f 49 15 be
       0.08530825 0.16170831 0.005803285 -0.14578675
000070 6b 7a 13 bd ce 5b da 3d 77 ef 3f 3e b3 ea d4 bd
       -0.03600542 0.106620416 0.18743692 -0.10396328
000080 0c cb fc 3d 37 8a 65 bc 69 df 5a bd c0 b4 e8 be
       0.123434156 -0.014010004 -0.053435717 -0.454504
000090 73 47 4b 3e aa 5f 39 3e 54 95 dc be 72 b3 f6 3d
       0.19851474 0.18102899 -0.43082678 0.12045945
0000a0 9e 0d 14 bd df 21 b0 3d aa 79 ad be 66 4e 61 be
       -0.0361458 0.086002104 -0.33881885 -0.22002563
0000b0 a3 80 03 be 8b 0f 58 bd 21 2f bc bc 42 d7 94 3e
       -0.1284204 -0.052749198 -0.022971692 0.2907048
0000c0 af 7a a2 bd 83 60 d1 3d d9 7d 1d 3e bb c5 45 bf
       -0.07933556 0.10223486 0.15380038 -0.7725484
0000d0 1d fb d4 bd f5 b4 ea be a3 69 65 be e5 8e 0f 3d
       -0.103994586 -0.45841184 -0.22403578 0.035048384
0000e0 51 27 b9 bd 6f e3 9f 3d 77 3a 5f 3d 2d 67 c4 bd
       -0.09040702 0.078070514 0.054499116 -0.09589992
0000f0 3e b8 a0 3d d5 88 31 be 95 22 d9 bc 73 cf 04 be
       0.078476414 -0.17337354 -0.026505748 -0.1296976
000100 0a c0 27 3e 5a e3 d5 3e cc 8a 07 3e ea 61 12 3f
       0.16381851 0.41775018 0.1323654 0.57180655
000110 0a 01 81 3d 75 08 8b 3d 44 ca 07 bc 05 0f 6d be
       0.06299026 0.067887224 -0.00828797 -0.23150261
000120 a7 d7 11 3e ad a1 fd bd 0a cd 05 bc a0 4e 0d 3d
       0.14242421 -0.12384353 -0.008166561 0.03449881
000130 ac bf bc 3d 8d 6c 76 be d7 e0 7b 3e 54 93 ed 3b
       0.09216246 -0.24064846 0.24597488 0.007250229
000140 3a 08 8f 3e bb ff 58 bd a3 a9 26 3d 49 27 93 3e
       0.27935964 -0.05297826 0.040689122 0.2874091
000150 75 66 64 be 36 ca 1a 3f ee 7b 2e 3e a7 61 da bd
       -0.2230471 0.604648 0.17039463 -0.10663157
000160 67 b7 04 3e 3a 37 96 be 49 aa dd 3c 4e d5 bd 3d
       0.12960587 -0.2933901 0.027058737 0.092692
000170 63 92 84 3e 4c 94 c5 bd 6c ec bb be 34 a5 36 3e
       0.25892934 -0.09647426 -0.36703813 0.17836457
000180 ec 87 b7 3e 43 04 4f 3e e4 7d 68 be 44 00 98 3e
       0.35845888 0.2021647 -0.22704273 0.29687703
000190 e4 9f 3b 3e 59 04 22 bd 67 26 de 3d ea a7 ea bc
       0.18322712 -0.039554927 0.108471684 -0.02864452
0001a0 68 c4 5f 3b ed 8d c7 3e 0b e6 bb bd 76 15 06 3e
       0.0034144167 0.38975468 -0.091747366 0.13094124
0001b0 4c 60 ba 3d 4b d4 6d 3e c3 07 a8 bb eb 23 a8 3d
       0.091003984 0.23225515 -0.0051278784 0.08209976
0001c0 65 6a e2 3e 68 4d 10 3e e0 d6 d6 bd b8 01 00 3f
       0.44221798 0.14092028 -0.10490203 0.5000262
0001d0 2b 7b c6 3d 8c c1 d5 3d dc b0 03 be 4c 47 e8 be
       0.09691461 0.10437307 -0.12860435 -0.45366895
0001e0 13 d1 c1 bd 35 1a 35 be 93 86 91 be 90 db 9c 3d
       -0.09463706 -0.17685778 -0.28422984 0.07659066
0001f0 d9 2c f3 3d 59 95 39 bd 50 5f f9 3c b4 25 06 3d
       0.118737884 -0.045308445 0.030440956 0.0327508
000200 94 24 0f 3f f5 6b 8d 3c a2 40 36 be 6b 0d 39 bd
       0.5591519 0.017263392 -0.17798093 -0.045178812
000210 ef a6 5e 3e 0e 8c f4 3d fa 13 c7 bd 36 46 26 3e
       0.21743368 0.11940776 -0.09720607 0.16237721
000220 66 ae 30 3e b4 fa b6 bd f6 48 65 be af 01 6b bd
       0.17254028 -0.089345366 -0.22391114 -0.057374652
000230 ee 00 63 bd 7c 63 96 be a2 9c d0 be db 62 a8 be
       -0.05542081 -0.29372776 -0.407445 -0.3288792
000240 75 a2 65 3e 89 0b 34 3d 33 47 28 3d 90 05 b6 be
       0.22425254 0.043956313 0.041083526 -0.3555112
000250 50 85 21 3e a4 f5 58 3e 8f 1a 98 bc 87 99 df be
       0.15773511 0.21187454 -0.018567352 -0.4367182
000260 52 e3 38 3e e3 55 bd 3d cf 93 33 3e 20 0d b7 be
       0.18055466 0.09244897 0.17536853 -0.357522
000270 85 95 81 3d 4b b9 2d 3d 53 7b 6d 3c 54 24 f0 bd
       0.06327347 0.042413037 0.014494735 -0.11725679
000280 6b f6 4c be b7 61 c5 be 10 69 f4 bd b1 28 93 3e
       -0.20015876 -0.38551113 -0.119341016 0.28741983
000290 32 a2 84 3c 55 2b 62 3e ca 10 b3 bc b7 f2 17 3e
       0.016190622 0.22086842 -0.021858592 0.14838682
0002a0 77 22 bc 3d 7c b1 09 3e b0 22 7b bd ad 8c 89 3c
       0.09186261 0.13446611 -0.061312377 0.016790712
0002b0 dc 2c 5e bd be 02 48 3d c9 49 a6 3d 15 30 04 3e
       -0.054242 0.04883074 0.08119542 0.12908967
0002c0 ca 0a 03 be f6 d6 20 3d d4 af 2d 3e 15 b9 3f 3f
       -0.12797084 0.039267503 0.16961604 0.7489179
0002d0 9f 2e 26 be dc b2 53 bd 2d 82 8a 3d b3 b9 43 be
       -0.16228722 -0.051684245 0.0676311 -0.19113807
0002e0 a9 2e 5e be 3f 84 94 be bc 6b f8 bd 54 77 62 3e
       -0.21697487 -0.29007146 -0.12129924 0.22115833
0002f0 52 4a f9 3d 1f 8d c3 bd 45 5c 19 bd d2 83 2b be
       0.121723786 -0.09548401 -0.03744151 -0.16749504
000300 e0 2b ee 3e 68 a7 70 be 23 a4 d8 bd c8 19 15 bf
       0.4651785 -0.2350136 -0.105781816 -0.58242464
000310 f9 2f eb bc 1a c3 14 3c d9 d9 ad be 50 4e 70 bc
       -0.028709399 0.009079719 -0.33955267 -0.014667109
000320 1a 06 f1 3e e1 fe 6a 3d 45 10 a3 bd f9 b0 54 be
       0.47074968 0.057371978 -0.079620875 -0.20770635
000330 56 53 9b be 46 14 03 3e 89 61 3c bf ff a6 8e be
       -0.30337018 0.12800702 -0.73586327 -0.27861783
000340 2d 28 17 be ba 57 ea 3e 1c ab b3 be 43 b5 15 bf
       -0.1476142 0.45770055 -0.35091484 -0.5847971
000350 3a 4a 84 be d5 0b 5f 3e fc bb 7e 3d 23 e2 ea be
       -0.2583788 0.21781857 0.062190995 -0.45875654
000360 52 33 ff bc d9 00 8e be 4c ab 42 3d b0 01 4f be
       -0.031152401 -0.27735022 0.047526643 -0.20215487
000370 5d 14 14 bd dc e4 3e bc de 39 80 be 09 ea 15 3e
       -0.036152232 -0.011651244 -0.2504415 0.14640059
000380 f8 c3 fc 3d 39 a6 a2 3d 45 89 b0 bd 08 c0 08 3e
       0.123420656 0.07941861 -0.08619932 0.13354504
000390 cf b2 dd 3d 20 fe ab be 4f c1 a6 be 51 33 17 3e
       0.10825121 -0.3359232 -0.32569358 0.1476567
0003a0 ff 5a 2e bd 7d 9a dd 3d 85 2c af 3d 96 f6 49 3d
       -0.04256725 0.10820482 0.08553413 0.04930743
0003b0 1e a5 b8 3e ed fc 18 bd 4a 11 8d 3e 0a 64 1d be
       0.36063474 -0.037350584 0.27552253 -0.15370193
0003c0 bd 2d 1c be d2 0d 0e be c2 e3 74 3d 11 ff de bc
       -0.15251823 -0.1387246 0.05978752 -0.027221235
0003d0 e5 75 f6 be 63 6a c1 bd 9c 81 2f 3e 72 7b 9e 3e
       -0.4813682 -0.0944412 0.17139286 0.30953556
0003e0 60 9e 69 3e 42 ca 3f 3e 5c 0a 91 be f5 39 d0 3b
       0.22814322 0.18729499 -0.28328216 0.0063545653
0003f0 ee 5a 5e be e7 e1 84 bd 0c 54 ae 3e 63 51 4f 3d
       -0.21714374 -0.064884 0.34048498 0.050614726

actor.init_next_embed.2.add_bias._bias f4 [64, 1]
000000 e3 51 21 3f c6 9e 5a bf bc 4f 30 3f dd 6c 3f 3f
       0.63015574 -0.8539852 0.68871665 0.7477549
000010 f2 e9 89 be b4 7d f4 3e ca 1d 2a bf d3 a5 8b 3e
       -0.269363 0.47752154 -0.66451705 0.2727495
000020 af 9c de be eb 40 0e be 8e ae e3 be ff 24 8f 3e
       -0.43478915 -0.13891952 -0.44469112 0.27957913
000030 ad a3 c3 3e 19 8e f8 be 2e d8 4b bf e9 bf d7 3e
       0.38210812 -0.48545912 -0.7962674 0.42138603
000040 34 57 2e 3e 8f 43 57 3f c4 63 81 bf 61 20 28 bf
       0.17025453 0.8408746 -1.0108571 -0.65674406
000050 fd a6 16 bf 95 46 9f 3e d3 ca 37 bc a2 39 12 3f
       -0.58848554 0.31108537 -0.011217791 0.5711919
000060 82 28 5f be 97 f9 12 bf 6d 29 e8 bd 31 6a 24 3e
       -0.21792796 -0.57412094 -0.11336026 0.16056134
000070 cc 3f d4 be 4b a7 8b be fe 1c fc bd c3 d0 16 3f
       -0.41454923 -0.27276072 -0.12310217 0.58912295
000080 ba 5e 9e 3e ad 70 06 3f 34 f8 aa 3f 94 26 b3 3e
       0.30931646 0.5251568 1.3356996 0.3499037
000090 4f 7a ce be 98 78 9d 3e 5d 2b 1d be 51 38 09 3f
       -0.4032769 0.30756068 -0.15348573 0.53601557
0000a0 e5 dc 73 bf ff f7 7d bf 61 87 db be 4c c3 ab 3e
       -0.95258933 -0.99206537 -0.42876723 0.33547437
0000b0 ee 25 24 be ba dd 19 bf 37 2b c7 be 06 6c 03 3f
       -0.16030094 -0.6010395 -0.38900158 0.51336706
0000c0 5a 21 30 3e d3 4b 11 bf 86 2f 48 bf 95 ec c4 be
       0.17200223 -0.56756324 -0.78197515 -0.38461748
0000d0 a1 49 f5 3e ae 7a 69 be d2 82 64 be 39 60 0e be
       0.47907737 -0.22800705 -0.22315529 -0.13903894
0000e0 9e 6e 9a be 35 6d b1 be 7d c2 22 be 65 d4 86 3e
       -0.3016252 -0.3465363 -0.15894504 0.2633392
0000f0 cb 35 61 be 2f d1 6b 3e 8b 36 f0 3b 86 21 48 3f
       -0.21993177 0.23029016 0.007330721 0.7817615
